results/Genotyping_LSTM_Long/models/checkpoints/4/Genotyping_LSTM_Long-4-350.pt (torch_old, 115136 bytes, 10 tensors)

LSTM.weight_ih_l0 f8 [128, 10]
0.202197907146013 -0.33428023308327964 0.0841513883722376 0.07588671100632641 0.2042578526392312 -0.062131704916244104 0.06837919843453719 0.18893981890315342
0.01425643716870229 0.098451838034806 0.11703210549403835 -0.544631807356539 0.07024859008332926 0.40209960470299194 1.6465081819495904 -0.010878364553094244
-0.2558182378466064 0.40921044695601894 0.29619273316848005 0.43869416902453817 -0.05548362527205606 0.07718811704028687 0.1621064610944642 -0.6158606121989811
1.5778144340709934 0.14953795345032408 -0.42719683719947205 0.1973346022642098 0.15310744416430092 0.3767165583382065 -0.4444048477241306 0.20423287262354392
-0.29010488986657335 0.357754775323054 4.133577020574026 0.5683030653906284 -0.28386343048355284 0.5381012948237228 -0.04916488069636941 0.7310460906736966
0.36850463365306724 -0.6368609330772319 -0.2389083836823432 0.21523311072050835 0.6342485832467137 0.2041145140291333 0.10038534786383284 0.19580929286595672
-0.5136219982624809 -1.844306446776148 0.053284258052762136 0.037676951004078946 0.3457625266165286 0.023935943397459143 0.4035036558529805 0.3155663978948527
0.16376365114941352 -0.6324444171561191 0.5560355652609007 0.23120538130689935 0.6208833069501095 -0.46194218831345485 -0.10191617729533681 -0.3426489860978455
0.45936153962940396 -0.34026084472916057 0.19666377590950254 -0.27656205244917287 0.1923111808747695 1.9591298086486613 -0.17594936262862593 -0.09938616760051969
0.282176467169239 0.0852278014074109 0.659153924779251 0.049738681005956825 0.304382753699512 0.11442815576333412 0.04061262507168602 -0.19655797227287375
0.20471656706020547 0.2941020602854148 -0.27792274055899124 -0.02773474720418784 0.6686332931204766 -0.17990172171109897 0.2711780952388346 0.04913639928242439
0.04258242480360135 0.4637595254316398 0.023847433041285507 -0.14243471109515096 0.4079103956696245 -0.40619027418362785 1.8583627506730849 -0.0388877975172323
-0.1133632430296464 -0.028261007931079413 -0.36476016019666924 -0.2436818758361369 0.3164505545625906 0.2768310088302811 0.18707957907413447 0.2572219279134986
0.8355816393501257 0.5194579074815322 -0.017928215547352848 -0.06150445691870874 0.1981663599682903 0.3216851298679384 0.2103528194090394 -0.004770717354008998
-0.3812955279801179 0.16546253948014156 0.09350048073055048 0.4496062394479849 -0.3085898164732506 -0.2689871334314728 0.04160345631356822 0.3625667259356899
0.48712729359256546 -0.4140394173726381 0.06787940529057675 0.16636289826278752 1.1538927080554575 0.3030961734496038 0.26153793691423194 0.10328032547835057
-0.16740969996027577 -0.38849161019913037 -0.33180954569264187 -0.24974984471013498 0.0920060631927289 -0.08328365539736068 1.1134560762087902 -0.013188049035167985
-0.1532880089710939 -0.037419449950053744 0.11865962497423382 1.3829031197659236 0.26656033688734004 0.3911011849655965 -0.005160774141640347 -0.09102098914418451
-0.21346630552039592 -0.3991825156984405 -0.15773971615504576 0.28978927162113566 0.4616199212357051 0.10820613716092028 0.04948839484108682 0.5126682008919434
0.04506960366201246 -0.10490593173971344 0.6905557282639686 -0.3162504375890476 0.4360278614047723 -0.6975418769319993 0.4224005749545429 0.48272436135294067
0.40970075086055086 -0.31063500026201324 -0.13719354084224236 -0.07108661472416192 0.47330246877517573 -0.1218536359620119 -0.09418015706809478 -0.24535172992591595
0.40737284605904994 -0.22246301220342865 -0.1430791064745 -0.11331141529197898 0.20747191785426727 0.188683819850196 0.6564210829179148 0.20012762062999948
0.1551830035177439 0.17025134389262633 -0.2557727197338959 0.9552652121725338 -0.021704186188853714 -0.1885086045362019 0.11001131492729072 0.16800629554049082
0.5410388798305703 0.3596350196788011 0.2727928564451421 -0.22844874287394265 -0.046209731435102736 0.3628253589569857 0.7472166229466313 0.7127442884162006
-0.5128051928791422 -0.1207508553010845 1.485798492258255 0.3324567667875342 -0.16768704488823327 0.4940290343313904 0.02269530239873432 0.6818272076386958
-0.04074101150113373 0.05761247805588876 -0.2083696047144061 0.1978217117335991 0.1862737062591465 -0.048116475941146354 0.4160810375655599 -0.24599509424994592
0.15891494086570263 0.34976537208854214 0.029355482969832158 0.04131987413399984 0.23178822943123925 0.17388646072347771 0.7943622319049086 -0.16325632339537244
0.07894601262175573 0.31212250095396954 -0.22625996289887176 0.28891310597448255 0.003909542289433272 0.19734724353907937 0.18757824811161317 -0.16073178754621706
0.6485964831176618 0.9058842702051155 -0.7999279467757564 0.18939692023195234 -0.09454756352330292 0.42722993065537257 0.8522720968062232 -0.6445046844430841
0.4091270644476832 -0.0057486261478584075 0.42586105533686436 0.05806342839592033 0.005419368273447763 0.060237267314393765 0.4069776503019193 1.9068497721231394
0.14929972023476856 -0.08220758669743548 -0.32454623733520727 0.3832057535946468 2.4118925999401144 -0.0018592049783666901 0.42667389287184837 0.4389929591007567
-0.33430087365696065 0.49482870313943805 0.29245019385998766 -0.5319824083157256 0.9012529196522205 -0.3849326824333414 0.5602183425225377 0.30940469749587185
00000000: b281 41fb 9ee1 c93f 33af 32eb d864 d5bf
00000010: f2c4 f804 f28a b53f 0222 f9bd 4f6d b33f
00000020: 1bb2 840e 1f25 ca3f 52ea 5111 bacf afbf
00000030: aec6 0095 4c81 b13f 56f4 8c13 2e2f c83f
00000040: 432b 2d9b 7a32 8d3f 4c30 97c0 2334 b93f
00000050: 7bcd ade9 d0f5 bd3f 8aa5 1eaf 9f6d e1bf
00000060: 867d ffc4 cffb b13f a9c4 fbfa ffbb d93f
00000070: 581e a1f6 1858 fa3f d381 ea5f 6547 86bf
00000080: a660 5175 535f d0bf a4e3 b603 8130 da3f
00000090: de5f 915d d2f4 d23f 9e00 3ab5 9013 dc3f
000000a0: 7d95 0388 5968 acbf 23ee 53b6 99c2 b33f
000000b0: 967d 6f8e e7bf c43f d240 8950 21b5 e3bf
000000c0: dcdd 1759 ba3e f93f 913a ca45 0f24 c33f
000000d0: d37c 2e67 3157 dbbf 8206 8c9f 4242 c93f
000000e0: 55db ba54 0699 c33f 4a27 7bc4 1f1c d83f
000000f0: 122d ca07 2171 dcbf 33d7 5782 4d24 ca3f
00000100: 4abe 9819 1491 d2bf a605 0049 74e5 d63f
00000110: 4373 1b6a c888 1040 b137 02e9 892f e23f
00000120: 3d43 9d85 d12a d2bf 2780 e634 2038 e13f
00000130: 85c1 67a5 232c a9bf 5cfd 69c5 ba64 e73f
00000140: 7bb8 7d75 9495 d73f 1056 f52d 2a61 e4bf
00000150: 03f4 53c7 8c94 cebf 91cc c731 c28c cb3f
00000160: ea86 52af c34b e43f 9570 32a5 6c20 ca3f
00000170: 739f 12aa dab2 b93f 985b 8e66 4710 c93f
00000180: 8d64 a166 976f e0bf d049 0b7a 4782 fdbf
00000190: 9ddb 7403 1348 ab3f 4c43 c0b0 644a a33f
000001a0: 3e05 0026 f920 d63f 922d 5df8 a982 983f
000001b0: 8f1e 6dff 00d3 d93f d131 ab67 3d32 d43f
000001c0: 95ea fa12 35f6 c43f 6125 0713 fc3c e4bf
000001d0: 8fab 0619 0bcb e13f eba8 af4f 2398 cd3f
000001e0: 2575 3fab 46de e33f cbbb dcf7 7590 ddbf
000001f0: 04b4 6ab8 2d17 babf 3d0f 5303 f6ed d5bf
00000200: 64e7 6ff1 2d66 dd3f 2726 0e6c d5c6 d5bf
00000210: 736a eb52 472c c93f 8a5d a552 31b3 d1bf
00000220: 4092 411c a79d c83f 5e3c 8c7f 9858 ff3f
00000230: a0f9 1e3b 8285 c6bf a2dd 8433 5f71 b9bf
00000240: 2f55 8ce2 2d0f d23f 663b c13b 7dd1 b53f
00000250: 269f bef8 c917 e53f e494 8830 5977 a93f
00000260: dfc5 26cd 017b d33f cabf bee2 294b bd3f
00000270: daa6 f990 2dcb a43f 740c 57c7 cf28 c9bf
00000280: 648a 3c08 2734 ca3f 452c a772 91d2 d23f
00000290: f0fe 6076 7cc9 d1bf d1ba d160 7f66 9cbf
000002a0: ec03 dfa5 7165 e53f 4023 9f05 0507 c7bf
000002b0: c24f 9c5e fb5a d13f cc23 ecf7 6728 a93f
000002c0: e7e9 d413 5dcd a53f ecfd bb6e 3cae dd3f
000002d0: 1103 0624 766b 983f 5104 fcf4 4c3b c2bf
000002e0: 825d 4634 341b da3f e89a e47d 05ff d9bf
000002f0: 93ed 6394 dabb fd3f 5697 19f5 19e9 a3bf
00000300: 287e 619d 5f05 bdbf f890 4323 74f0 9cbf
00000310: 286b bbff 3a58 d7bf cd0c acbb f730 cfbf
00000320: d76e a9d3 b940 d43f b276 5c68 99b7 d13f
00000330: aab9 ef40 39f2 c73f 84f6 0cf6 5276 d03f
00000340: 0db3 c4b4 15bd ea3f 4c04 8930 669f e03f
00000350: 0e5b ce2d c65b 92bf 2d56 0c1e 837d afbf
00000360: fe96 9de9 835d c93f 941b 193a 7d96 d43f
00000370: 19da fd57 d7ec ca3f e20c 39b0 758a 73bf
00000380: 3e48 b25b 2567 d8bf 6ce1 e361 e02d c53f
00000390: d6e2 e5c2 a5ef b73f cb6c a03f 59c6 dc3f
000003a0: 7566 6880 efbf d3bf 7b82 48cf 1537 d1bf
000003b0: d1e0 8858 0c4d a53f c7bd a011 4b34 d73f
000003c0: 1005 bef4 172d df3f 39b4 372f 9f7f dabf
000003d0: 4582 cb71 8b60 b13f ad39 a723 614b c53f
000003e0: 9b0e 4333 5876 f23f 0c90 207e ed65 d33f
000003f0: 9d6f 6d9d 09bd d03f b3ef 3f54 9470 ba3f
00000400: 4468 2e59 ae6d c5bf 5ed7 24ea 0bdd d8bf
00000410: 6e08 d01a 5e3c d5bf 9905 9b8b cdf7 cfbf
00000420: 834c 7298 b58d b73f 6616 39e0 1352 b5bf
00000430: 7a96 8d51 b7d0 f13f 2fc7 6efa 5502 8bbf
00000440: be2c b304 f19e c3bf df21 8a63 a428 a3bf
00000450: a4b5 9e28 7a60 be3f 6ee5 8e05 5f20 f63f
00000460: 2ae1 5516 530f d13f 4fa9 b643 cd07 d93f
00000470: c2f2 90c2 7623 75bf 35b4 9fcb 264d b7bf
00000480: 9c07 8128 dd52 cbbf e7d3 83d2 348c d9bf
00000490: 7f47 15a5 d030 c4bf 480b 164d e88b d23f
000004a0: bdec 3848 2e8b dd3f 1628 55bc 65b3 bb3f
000004b0: 537d bffa 8a56 a93f 36f6 9024 c767 e03f
000004c0: e846 8bf3 5c13 a73f 827d fa79 1ddb babf
000004d0: d5b1 9e53 0819 e63f fc99 b279 723d d4bf
000004e0: 5b36 3867 e1e7 db3f b96d a057 4352 e6bf
000004f0: 6b72 cf6b 9c08 db3f 5193 3fb8 f4e4 de3f
00000500: f5ee 857f 8938 da3f 3392 c79f 71e1 d3bf
00000510: 4de7 91d5 8e8f c1bf da72 6c7d bb32 b2bf
00000520: 2559 2070 964a de3f 0e04 5bc5 cc31 bfbf
00000530: e723 8ad6 301c b8bf 2d40 067c af67 cfbf
00000540: 2f88 c68e 6512 da3f 3bdf fd00 ab79 ccbf
00000550: ae41 8689 6a50 c2bf 4149 f116 fa01 bdbf
00000560: 82e0 0297 708e ca3f c43d c599 ca26 c83f
00000570: f531 71c9 6601 e53f 0dea d028 c89d c93f
00000580: 4e7b 8062 09dd c33f 7137 0fc9 cbca c53f
00000590: e0d3 9d8a 945e d0bf 7a33 a959 8891 ee3f
000005a0: 5d3d 7847 9f39 96bf d9b0 bfc9 0c21 c8bf
000005b0: cc7b cd97 b329 bc3f 9f2b 6ff4 3a81 c53f
000005c0: a693 d7c4 3050 e13f b712 019a 4204 d73f
000005d0: 6dea 402b 7075 d13f d35a baf3 ce3d cdbf
000005e0: 6c9a 8a4a cda8 a7bf 3d4d b8da 8738 d73f
000005f0: c2aa d2d5 32e9 e73f 6511 251c cdce e63f
00000600: 0051 946f e668 e0bf 8d70 7b2e 87e9 bebf
00000610: 0220 cba3 d4c5 f73f 4ced 2bbf f846 d53f
00000620: 1801 e1e2 c476 c5bf ff93 6ef4 2b9e df3f
00000630: 2734 4df6 6f3d 973f 3099 ca4a 87d1 e53f
00000640: 5fb4 0180 01dc a4bf f0e0 2efa 617f ad3f
00000650: 074a ddee daab cabf 75d2 2acb 3852 c93f
00000660: 6b6e 3e1a d1d7 c73f 05ca 2105 b9a2 a8bf
00000670: e41b 355c 12a1 da3f 94d5 636a c47c cfbf
00000680: 7696 ee24 5357 c43f 1530 994c 8e62 d63f
00000690: 433e 411d 5d0f 9e3f af25 29e8 e027 a53f
000006a0: 21a1 8098 3cab cd3f a523 035b e941 c63f
000006b0: 5cb1 e657 6a6b e93f e495 ec4c 95e5 c4bf
000006c0: d92b 5c4e ce35 b43f 925a 7ca7 d0f9 d33f
000006d0: e9bc 8522 16f6 ccbf b1f4 6265 8d7d d23f
000006e0: e138 68c4 7303 703f 4361 7aaa ac42 c93f
000006f0: fc48 8a64 9002 c83f c724 78f5 db92 c4bf
00000700: a84f 6969 4dc1 e43f d0bc 4f02 01fd ec3f
00000710: 9ddd 517e 0299 e9bf 61ff 2d85 283e c83f
00000720: f5c2 3fe5 4434 b8bf 0b61 0235 bc57 db3f
00000730: 346f e221 d045 eb3f b9a8 b949 c89f e4bf
00000740: ac85 6d48 232f da3f 6aeb d414 df8b 77bf
00000750: d2f5 53ba 4e41 db3f 09b5 1b5c 7dba ad3f
00000760: d5b2 fd97 9e32 763f 1741 3b4a 6bd7 ae3f
00000770: 8ffa 8ffc eb0b da3f 8676 1ae8 7482 fe3f
00000780: 78ea dad3 401c c33f e33b 5970 8e0b b5bf
00000790: a040 d994 5dc5 d4bf a6fe d46c 7186 d83f
000007a0: 5aa8 f158 8e4b 0340 6386 0825 1276 5ebf
000007b0: 1d43 fc03 a04e db3f ddc4 a0ec 7518 dc3f
000007c0: 3d60 d87d 2f65 d5bf 5cc8 4602 46ab df3f
000007d0: b799 9504 81b7 d23f 726d b8f8 ff05 e1bf
000007e0: f095 ea5c 10d7 ec3f c79d 8db0 bca2 d8bf
000007f0: b31d 7804 4fed e13f 864e 3e5c 49cd d33f

LSTM.weight_hh_l0 f8 [128, 32]
0.3581993047956358 -0.2905595142609253 0.19630972348710832 0.03333700238098535 -0.11846831066001531 0.14820701903273542 -0.07559058890215138 0.10247919418498555
-0.06414717529170094 -0.17807213036536898 0.20381851974051793 0.24531335386674957 0.28711632231805545 0.3054457537182447 0.06636484700322974 -0.46652105417699014
0.005442551474724646 0.12511427071925776 0.25429391191128703 -0.19637459363065854 0.02177969275954459 0.4004525933994521 0.2872067550890983 -0.1212008945961723
-0.6760282377783057 0.1374199617195583 -0.25739169602128287 -0.17018113590840825 -0.15969771940897623 0.33338109565484114 -0.1017476803462108 -0.28867128417304827
0.07429780537088296 0.4940650873541387 -0.2712692259407336 -0.00967858606949527 0.21210952182958542 -0.15473412378772622 0.3947349422744852 0.042229111081715766
0.04188781564732015 0.007539678053702374 0.100106277267194 -0.04784516482470236 0.3782263356531042 0.3498797854598047 0.0940493439617984 0.3500980365668678
0.476682745621764 0.1189644932772921 0.03024160924851703 0.16147460157362614 -0.015394572043157922 0.164861869529251 0.07160998943718648 -0.11062584068162819
-0.2227459595014339 -0.02446437478766763 0.030094760632605452 0.11180733748792464 -0.09439151273088997 0.19877267908066418 0.7546413166419662 -0.2710729086868249
0.08361242790731242 0.4543964909169579 -0.07586436107805071 0.31097199812771475 -0.2743121331566081 -0.30612432123037975 -0.3029830130698255 -0.04349377405012793
-0.01618751301695165 -0.03994720011498091 -0.06710498427550911 -0.11416872365941542 0.16341755454878393 -0.1264877497178151 -0.21436871926393802 -0.03824269364986308
-0.18724861022165876 0.0803615330295469 -0.17550477974838027 -0.03248933364986257 -0.15398918400002853 -0.1577674109986717 -0.03120375653193888 -0.038409732841082296
0.042855406788196826 -0.01985631583378852 0.19848305535215907 0.26165610536389433 -0.05479019388121293 0.0005821527826395016 -0.1162378343057015 -0.00931332110457448
-0.33180341961936494 -0.03147335404722865 -0.2812506901546967 -0.6349701034356948 0.044071205254960416 -0.28778468911110666 0.14922183960084018 -0.038049412224563
0.3568381860298754 -0.3321517844126515 -0.28133678739593926 -0.003429862190222857 -0.587625511630581 -0.15588523752607591 -0.0907000055809615 -0.03427313700985647
0.25179187829884486 -0.4063238667849725 0.0442747704260372 0.2427265146692991 0.01773873878140539 -0.10733143098175943 -0.16588705717057103 0.43793594478988274
0.16253629560815067 -0.44680611967794787 0.17897811912048675 0.29455712243280663 0.14826160837877322 -0.06737461124373169 0.6468520672624133 0.2148278616867362
0.1495661096031745 0.004316315037780449 0.1766702210931906 0.17623844625645857 -0.4196168390196051 -0.06612475547375712 0.2616350902824623 -0.06805534790373
0.312143405361108 -0.12923643650400513 -0.3238528357699378 0.16124943568927988 -0.45147613772624595 -0.27212981069018083 0.028323020131309475 -0.17290194665950556
0.3771603971617426 -0.27610836473585154 -0.17933515268609487 0.1368225983965763 -0.12378306304916362 -0.4242303875320525 -0.42887857635723214 0.11473238291358355
0.17733021222363102 -0.4350947082145789 0.03565682851392669 0.29719632357660725 0.2811686599152804 -0.1867409111391149 0.34101137020993344 0.3615399221622335
-0.19620341468166 -0.42036238944753973 -0.19525643728984496 -0.03697747961757465 0.13866779645128408 -0.05031654874570649 0.02634431921370763 -0.021481409899471914
-0.07677274660893049 -0.16414839020067268 -0.001269704081445311 0.1267534239827278 0.04970194874028494 -0.28439321595870043 0.003648594386256059 0.32859565700654003
-0.017850593114944118 -0.04080944287144648 -0.013235269587614744 -0.5506561736245995 -0.18382922244018085 0.010523076070982821 0.05684896106616805 0.23273449307066074
-0.4471145225935364 0.47853219238738465 -0.1088379443366728 0.05437436065286164 -0.18984091319730445 -0.23140407841202257 -0.39137164162116544 -0.14949888511057124
-0.027661785196831833 0.40403144336044716 -0.031651589718693945 -0.02307407035976888 -0.13078424567249344 -0.23780410258484902 -0.11566816921936604 -0.1415080819375193
0.010636632923453652 0.04197065616683926 0.07619648705417109 0.060843443575258 -0.30589841500903747 -0.0602027367657729 -0.06413329193945114 -0.18342195778612458
0.522998177137594 -0.06784929717428603 0.14396290571098136 0.08358988937557052 0.039489299715369096 -0.006213997574981422 0.020082759552864555 0.16931661945075233
0.005094502025868684 0.11647649331589723 -0.15742552255158135 0.2503894179347782 0.03796343729868841 0.11280135825505014 0.5479957191118544 0.138155113048698
0.09696807576509663 -0.012476220031366878 0.02964698506971279 -0.07469905870738704 -0.15730426697675107 0.024781645415585564 -0.24998669187858708 0.1847592205484693
0.031727993103915636 0.031094234382189632 0.13980299571774715 -0.053427333863577155 0.1594082011716632 -0.14778079334102348 0.06109432353650951 0.13315928931353413
0.2539454149768969 -0.006019277652031989 -0.019412303256299366 0.12076217173087977 0.03564726363116402 0.03479058337510148 0.10951317311417945 0.1910901791464245
0.13486143365947612 -0.0032183208734016143 0.032845770160359236 -0.2664968086168724 -0.23082542301098044 0.0012997796425934587 0.26751026487105556 -0.20001896951966996
00000000: 3005 e3c6 bcec d63f 5eb5 d2ee 8698 d2bf
00000010: 91c8 2151 ad20 c93f df2d f22d 8c11 a13f
00000020: 92aa e56f f053 bebf 7a41 e495 72f8 c23f
00000030: d559 38a3 e759 b3bf 9a81 8b93 133c ba3f
00000040: e435 0204 f36b b0bf 91c8 1f4c 11cb c6bf
00000050: 5565 4daa b916 ca3f 209c 1090 6d66 cf3f
00000060: f73e a023 1d60 d23f ec00 bb58 6c8c d33f
00000070: 57a0 7b5f 49fd b03f bf7a a51f 7bdb ddbf
00000080: a9aa 73c9 ed4a 763f e544 8092 be03 c03f
00000090: c8c6 cef8 5946 d03f 1359 b47c cd22 c9bf
000000a0: 3a08 7a70 6a4d 963f 25f0 0fea 03a1 d93f
000000b0: c211 1371 9861 d23f 4558 8996 0507 bfbf
000000c0: 4dc5 8df8 05a2 e5bf f597 b330 fa96 c13f
000000d0: b618 2b05 1b79 d0bf 19b6 8fd6 7ec8 c5bf
000000e0: 3bbd 0d91 f970 c4bf d94c bca9 1d56 d53f
000000f0: f5e4 87cf 220c babf fb52 341f 9779 d2bf
00000100: 2286 3b54 2e05 b33f 9a02 122c c39e df3f
00000110: 6be8 7499 795c d1bf 16ba 1ed5 5dd2 83bf
00000120: 78d1 b6a1 6726 cb3f 002b 9fe8 53ce c3bf
00000130: 3712 ea58 5643 d93f 4dfb 11d6 0d9f a53f
00000140: 62bb 9cdc 5172 a53f 85bb 9bea ece1 7e3f
00000150: e7a5 fca2 90a0 b93f 303d 6354 297f a8bf
00000160: 916c 873b dc34 d83f f634 052f 6e64 d63f
00000170: aeb3 8628 9e13 b83f 60b4 5c98 0168 d63f
00000180: 65d4 c058 f881 de3f c9dc 0200 7574 be3f
00000190: 5c9c cd0a a8f7 9e3f 7059 7222 33ab c43f
000001a0: 23b3 b07b 3087 8fbf 9126 fe98 311a c53f
000001b0: 631a b342 0855 b23f 09f2 d19f f951 bcbf
000001c0: 6af9 af89 f082 ccbf 063e 8566 300d 99bf
000001d0: 8cbd ca32 29d1 9e3f 0ba6 f6d9 679f bc3f
000001e0: d8fa 32cc 0a2a b8bf 53b0 fe15 6271 c93f
000001f0: 0701 e68b 0526 e83f 740e 692f 4259 d1bf
00000200: 2bac 66c3 9f67 b53f a2f3 f904 d514 dd3f
00000210: 1f1d c3c5 d86b b3bf 2b8a 7b18 f7e6 d33f
00000220: a86e 337a 548e d1bf a175 0c77 8a97 d3bf
00000230: 6138 18dd 1264 d3bf 96f4 3fe2 d044 a6bf
00000240: a0a7 0b9c 7593 90bf 5508 1f9c f573 a4bf
00000250: dda5 dcd0 ca2d b1bf 47df 5756 293a bdbf
00000260: a88d 30ce ddea c43f a5fa 3026 c030 c0bf
00000270: 0e13 4327 6f70 cbbf edff 12dd 8b94 a3bf
00000280: 0dce 8f30 c3f7 c7bf 54e4 37cc 9292 b43f
00000290: 13ce a7cc f076 c6bf 996f fd22 71a2 a0bf
000002a0: 7ae2 9be6 eab5 c3bf ce93 4ef7 b831 c4bf
000002b0: e8a1 44a7 e0f3 9fbf 5114 cdc4 70aa a3bf
000002c0: c862 39d5 24f1 a53f 372c 80cc 3655 94bf
000002d0: 691a c68b e467 c93f c78b d53f f9be d03f
000002e0: 79fd b8d5 750d acbf a7bf d394 7313 433f
000002f0: 6c9e e640 c3c1 bdbf b487 7dcc dc12 83bf
00000300: 31d5 fd68 443c d5bf d413 a884 461d a0bf
00000310: 4c47 0ce5 0200 d2bf a135 86d2 ac51 e4bf
00000320: 0cdd 8742 8090 a63f 0864 0179 106b d2bf
00000330: de9f 7784 b319 c33f 0ae6 456a 367b a3bf
00000340: fa95 bdd4 6fd6 d63f 7a10 d78e f941 d5bf
00000350: b2be 4103 6c01 d2bf a037 fa3d f118 6cbf
00000360: a3f4 5704 d4cd e2bf a645 8d26 0cf4 c3bf
00000370: 829d b795 1d38 b7bf f264 2da5 3f8c a1bf
00000380: ec48 acae 5b1d d03f f53e dbd1 3501 dabf
00000390: ec14 09c6 2eab a63f d537 3095 a911 cf3f
000003a0: f8f1 c09b 1a2a 923f 1e48 e699 127a bbbf
000003b0: df4a b07e c93b c5bf d862 277c 2407 dc3f
000003c0: 4166 0645 fdcd c43f 3dd8 eab1 7898 dcbf
000003d0: 033a 2948 c1e8 c63f 06c7 e91d 06da d23f
000003e0: cc9d 9e83 3cfa c23f e15e df67 763f b1bf
000003f0: efbe 471b 03b3 e43f 0d69 1bb8 7a7f cb3f
00000400: 7cf4 aa76 fb24 c33f b3f1 d2fe fbad 713f
00000410: 23dc e23a 219d c63f 7013 7c3d fb8e c63f
00000420: 9c2a 1c96 00db dabf 9c3d 374e 8ded b0bf
00000430: 9df2 0f1b a1be d03f fe7d 9045 136c b1bf
00000440: af08 6c55 28fa d33f 823e 1ece d18a c0bf
00000450: c951 963e 01ba d4bf 3d57 644e d2a3 c43f
00000460: 005a 9d2b fce4 dcbf 7895 4b27 936a d1bf
00000470: 1a6f c0b4 b500 9d3f b59d 28a7 a621 c6bf
00000480: d1fc c95c 6523 d83f 4852 2c6b c2ab d1bf
00000490: 3fac e74b 74f4 c6bf e0c7 bb24 6783 c13f
000004a0: fe48 982f 3fb0 bfbf 43da 1a36 9726 dbbf
000004b0: ce32 da20 bf72 dbbf ffee 67f8 195f bd3f
000004c0: 1def 0ba3 c1b2 c63f 116f 9c79 97d8 dbbf
000004d0: bd5a b1a0 9c41 a23f 8730 90ba 4305 d33f
000004e0: fac2 bfd5 aafe d13f 8678 154d 20e7 c7bf
000004f0: 7a69 a75a 21d3 d53f c4a6 7857 7823 d73f
00000500: b7eb b588 311d c9bf 7d51 c9a6 37e7 dabf
00000510: 6326 3fb6 29fe c8bf 2abf 4a53 b6ee a2bf
00000520: 9621 62c9 ddbf c13f a5ec 9e36 17c3 a9bf
00000530: c541 d555 01fa 9a3f a6f7 f503 39ff 95bf
00000540: ced1 e8f3 60a7 b3bf 022d cd7f d002 c5bf
00000550: 9a8f 5860 86cd 54bf 1bb7 54c9 7439 c03f
00000560: d823 c6a8 8872 a93f f1cc 6f9a 7f33 d2bf
00000570: be41 1732 a8e3 6d3f a4d8 1c14 b607 d53f
00000580: 2b51 9206 6d47 92bf 7d6e 00ad f9e4 a4bf
00000590: e9a8 42d0 171b 8bbf 63dc 21b2 f99e e1bf
000005a0: f4ff 3649 b787 c7bf cf22 a05c 1f8d 853f
000005b0: 4879 2e99 4e1b ad3f 48df 316e 3eca cd3f
000005c0: efc6 063b 869d dcbf 90c4 187d 45a0 de3f
000005d0: a768 7db3 cddc bbbf 156a 7dc9 f4d6 ab3f
000005e0: 7806 d000 b54c c8bf 6f67 781a a69e cdbf
000005f0: 3010 56a4 3b0c d9bf 8a4f 2b8b c722 c3bf
00000600: a3d5 13fb 5e53 9cbf a67b f2b2 a6db d93f
00000610: 3c99 6a1d a334 a0bf efbf 52a6 baa0 97bf
00000620: e768 ffc4 89bd c0bf 6a70 ba65 5d70 cebf
00000630: 4641 fcdb 6d9c bdbf 6c4a 05d4 ef1c c2bf
00000640: 4fc7 5db4 a8c8 853f 10a8 4187 2d7d a53f
00000650: 9cbe f7eb 9c81 b33f b7db a930 df26 af3f
00000660: da2b 17f2 d693 d3bf 5dcf 13a3 e4d2 aebf
00000670: b6fa 7617 0a6b b0bf 2ca4 07e7 5e7a c7bf
00000680: fa8d 55ac 66bc e03f 8a8e 6b50 925e b1bf
00000690: 6cd2 ee61 606d c23f 06f3 24a1 2566 b53f
000006a0: 438f a305 f137 a43f 7f9f ca45 d973 79bf
000006b0: 05d1 f82d 9390 943f c2e9 9abf 2aac c53f
000006c0: 71bc 72f9 f8dd 743f 0d67 8b49 67d1 bd3f
000006d0: 9b16 75ff 8426 c4bf 9ad6 5256 6106 d03f
000006e0: 8a81 4893 f16f a33f 9a5a a6c0 8ce0 bc3f
000006f0: 8dde 7d51 2e89 e13f 28e0 2816 11af c13f
00000700: b3c9 2a5a e6d2 b83f 1870 19e8 218d 89bf
00000710: 4b9a 327d c75b 9e3f b1b1 303e 7a1f b3bf
00000720: e9db 17d5 8b22 c4bf ba6e 6712 5c60 993f
00000730: 9ee1 065d 90ff cfbf adef f1ac 30a6 c73f
00000740: 0481 7fc9 a63e a03f 060a 10bf 2ad7 9f3f
00000750: 69ca 3e87 10e5 c13f a525 50d7 d35a abbf
00000760: bc8c 5fe9 7c67 c43f 6d35 3025 7bea c2bf
00000770: 9800 1f53 c147 af3f 434f 6114 5d0b c13f
00000780: fbdf 1245 a440 d03f d28a 938a aba7 78bf
00000790: 39dc 809e d1e0 93bf a095 2d0a 45ea be3f
000007a0: 04b9 f9ae 5b40 a23f a611 9c43 12d0 a13f
000007b0: b3af 0129 0e09 bc3f 76a5 029b a475 c83f
000007c0: 5c91 87b3 2343 c13f 6604 c7dc 4e5d 6abf
000007d0: 5a25 4d29 29d1 a03f 94dc 5fa1 480e d1bf
000007e0: 8571 75fd af8b cdbf a1fe a4c3 ab4b 553f
000007f0: 72ca bd5f e31e d13f 4253 55ba 389a c9bf

LSTM.bias_ih_l0 f8 [128]
0.1872377340938363 0.23751282314918407 0.14865876602414863 -0.15784989598097623 0.1336831724764592 0.30177703344670403 -0.06512857938399982 0.2056062834557236
0.0889892640604118 0.015271319985008396 0.40196748761307144 -0.020487036947985413 0.32783941533649463 -0.17046065797922225 0.055482026840668865 -0.1668415427640408
-0.045585986979204296 0.10097909547661056 0.07938789273715953 -0.02322122433247448 -0.00582449452967484 -0.016612475120654852 0.06299595814877051 0.24403640657099357
0.24003835989108663 0.023718755339350847 0.12738421482266007 0.21750091380929557 0.10119217035877552 -0.034942477104285566 -0.10136941644404936 0.0032010671676223706
0.04756095477078638 -0.06402926111868354 -0.07934698788799008 0.2393943732804805 0.0365118139499552 0.17453802478449995 0.12943151935517078 0.049527103535884784
0.20945261393760958 0.04158944892228213 0.09810393440797366 0.15902537970522726 0.22438485513237558 0.2856731227295429 0.030005609670317495 0.32654537511554316
0.08977081703355792 0.08029453523134261 0.36607155819966103 0.18685013031614606 0.041736594554270603 -0.04335871559020158 -0.022507969731349362 0.21779306619035063
-0.008352294357689196 0.12494120152286638 -0.061105571632774434 0.2873197519891132 -0.02988096625696792 0.3405245557724161 -0.025095938504781524 0.2391176876215382
0.1521286904352958 0.12308147820131997 -0.15829900338379033 0.04085813069763408 -0.15290452455711204 -0.18329980572592358 0.1293396823491727 0.1466518364177342
0.18372192857036868 -0.027893767040765533 0.18837823130296463 -0.09649519562734056 -0.07815566364911353 0.06620329666717635 0.10005983793040199 0.09202731392223601
0.09592489670338165 -0.06348502592772295 -0.07023789624763875 -0.08641862732436127 -0.017169636028037862 0.13434518079339064 -0.2274209289696563 0.023330308285419033
-0.16790399689900104 -0.01797088317953873 -0.06127678676886836 -0.050428828312546206 0.040932130013325865 -0.009792415978560239 -0.06228605145713266 -0.08729144419083089
0.18142713749656864 0.08352051656499296 -0.043316975220593704 0.17431121990817225 0.17922059586774183 0.28403423390742943 0.2135172879043268 -0.073041481013427
-0.07648253489488314 0.049574446665864996 0.24855952355799696 -0.06798430523021147 -0.06511562237534219 0.11182701358985188 0.14619146561068977 0.21442621705733855
0.05202121734162352 -0.015409207394171866 -0.11086987028928505 0.44148160036340295 0.09090784386355531 -0.2246329062716273 -0.04218568793723004 0.10858239708120981
-0.0719132144295281 -0.02287208272830874 -0.1992978049825736 -0.04124071089095393 -0.19208705575879234 0.051472300980778714 -0.1948370099295556 -0.03780915005339049
00000000: 494d 41f4 67f7 c73f 5f37 e7f7 d166 ce3f
00000010: 0c31 2b1d 4007 c33f 6128 75e6 6c34 c4bf
00000020: fbec e7ba 871c c13f 7899 559e 5050 d33f
00000030: 763d 7d3e 44ac b0bf 2bb0 a583 4e51 ca3f
00000040: d4a6 d51a 00c8 b63f b609 38df 9146 8f3f
00000050: 8c9e 56d7 d5b9 d93f 2cf2 bbc6 8dfa 94bf
00000060: ba70 cd2b 52fb d43f 5740 a3a3 a7d1 c5bf
00000070: 85ca 97e5 2368 ac3f 2793 e44c 105b c5bf
00000080: 988f 76e6 0b57 a7bf 11d6 a618 c4d9 b93f
00000090: 0924 01d3 c352 b43f b100 53fc 4dc7 97bf
000000a0: 1ab9 54d8 6cdb 77bf b532 6555 dc02 91bf
000000b0: a476 07cc 8020 b03f 4cbd a0c0 953c cf3f
000000c0: d643 c2b4 93b9 ce3f 1cf6 efb9 ba49 983f
000000d0: b950 583e 204e c03f ef9c d4e7 11d7 cb3f
000000e0: 135d 4de6 bae7 b93f d2ea cef8 fae3 a1bf
000000f0: 9519 7198 58f3 b9bf 13f8 82d9 1f39 6a3f
00000100: 5237 9dd2 e859 a83f f6e5 7dbe 3864 b0bf
00000110: b6d8 038e 1550 b4bf ab04 0b8e 79a4 ce3f
00000120: e456 aa2d adb1 a23f 83ce 2d12 4357 c63f
00000130: c2dc 5947 3691 c03f d68a e7d3 9d5b a93f
00000140: 573d 76df 57cf ca3f c2b0 f555 364b a53f
00000150: 1c24 e4e5 561d b93f 09b2 8892 f15a c43f
00000160: ab70 4197 a4b8 cc3f 9e0d deeb 7748 d23f
00000170: 9b16 ec60 cab9 9e3f fc00 b292 1ee6 d43f
00000180: 4759 4b63 38fb b63f 1cbb ddc2 2e8e b43f
00000190: c9a6 9d66 b76d d73f 2008 7b7f b4ea c73f
000001a0: d262 50b9 7f5e a53f e5b7 e912 1d33 a6bf
000001b0: d9fe 9447 540c 97bf a7a3 4aa8 a4e0 cb3f
000001c0: e118 e7f8 011b 81bf 31b2 7686 25fc bf3f
000001d0: 0345 88bf 3a49 afbf c66f 9262 7263 d23f
000001e0: c6df 62b3 1d99 9ebf d3c1 a181 27cb d53f
000001f0: bdd5 8fec bfb2 99bf 3165 1d8c 689b ce3f
00000200: bef8 19f3 f378 c33f a735 9e8b 4482 bf3f
00000210: 38ea 4249 2443 c4bf fc7a 3e5e 5beb a43f
00000220: 850d 311e 6092 c3bf 0e5e 7a37 5e76 c7bf
00000230: 84e2 e1e4 338e c03f 5500 a8c4 7cc5 c23f
00000240: aa46 623d 3384 c73f c52f cf04 2f90 9cbf
00000250: 45be 5c23 c71c c83f e1c7 70bd e8b3 b8bf
00000260: 18c0 5e73 0202 b4bf 1daa 1202 b3f2 b03f
00000270: eadb 8d83 859d b93f 9c7d a21f 1a8f b73f
00000280: 6f94 36b6 888e b83f 3631 25fe 8d40 b0bf
00000290: 97cd 525b 1cfb b1bf 7393 1ffa 871f b6bf
000002a0: 9709 e6c4 ea94 91bf 4000 f10e 3932 c13f
000002b0: e1e0 2c06 211c cdbf fdaa 5d7c e6e3 973f
000002c0: 3042 c6cf e07d c5bf 563a 258e f566 92bf
000002d0: 1c3e 5ac6 ab5f afbf 3a87 c1b0 ced1 a9bf
000002e0: e294 865f 0ef5 a43f 6492 03d3 0b0e 84bf
000002f0: 46be 0214 f5e3 afbf a72d 056a bb58 b6bf
00000300: d2cb 1323 0139 c73f 5a11 31bf 9961 b53f
00000310: 5a41 de7f a42d a6bf 696d 6a7e d44f c63f
00000320: 43c3 0253 b3f0 c63f aeea 64ec 9d2d d23f
00000330: 6900 57d4 8854 cb3f 303e 34b4 d8b2 b2bf
00000340: 2bb5 1602 5c94 b3bf 045c 4b66 d261 a93f
00000350: 793d 6568 ccd0 cf3f e7e3 9a5f 6b67 b1bf
00000360: 508f 8fdc 6aab b0bf c581 2df6 b1a0 bc3f
00000370: c948 e0e5 66b6 c23f 3848 d57a 5172 cb3f
00000380: e95a 5c66 86a2 aa3f 8ea1 85ce dc8e 8fbf
00000390: f615 01c3 f761 bcbf ff2d d60a 3c41 dc3f
000003a0: 2f06 5888 bc45 b73f a262 0565 c5c0 ccbf
000003b0: a86d 19cc 5c99 a5bf bc94 6254 0ecc bb3f
000003c0: d503 2088 e768 b2bf 9aeb 3c7d c76b 97bf
000003d0: 6249 4829 9782 c9bf 4fb4 14a1 801d a5bf
000003e0: 4706 3c03 4f96 c8bf 2181 b9d2 935a aa3f
000003f0: c253 d94c 6bf0 c8bf 930f f08d b85b a3bf

LSTM.bias_hh_l0 f8 [128]
0.11803937901513946 0.2443466446842949 -0.1056592328619598 -0.11192497911753463 -0.01160522042496019 0.3310984655603518 -0.007102191096455802 -0.04798306354916645
0.0151791486038306 -0.24567651844062874 0.34249900964866997 -0.07957786733367014 0.22640455868328163 0.10472865233305041 0.26059253206394317 0.1387643903061426
0.04192813038091099 -0.07413537226344834 0.2467879548213576 0.21871230027613944 0.006104115973998556 -0.057982218765846756 -0.08233368861741575 0.21534797578486028
0.229296410809665 -0.025409642959866172 0.10582336706341289 0.22960053748940992 -0.11611938329827848 0.17275953376569497 -0.17329073521350383 0.09123861016641309
0.06464941271279553 -0.08328346872976711 0.1920665320905343 0.31818306354947373 -0.06116681759415627 0.24794597280162142 0.13412143632351625 0.12104945861553429
0.28156952534889806 0.10054990159810193 0.05709885943009897 0.32071281342485997 0.24220119009522023 0.2979999891178643 -0.05720775010284141 0.14048059535708823
-0.01269750965425519 0.07459008760427513 0.22912841161324327 0.10301041578901607 0.21820904236682634 0.20519618469837994 -0.16803166686918114 -0.04934559376371934
0.08513388058337411 -0.06167459337421258 0.2542008087583472 0.0604060614220965 0.1780076965581255 0.15768290463077378 0.12072208636895204 0.22147335676235302
0.17196088428676695 0.011636945330073754 0.07802325055869852 -0.13107648884830225 -0.14691309546661216 0.08865802386868778 0.03744648624321449 -0.049428319252908824
-0.13902372243632993 -0.06980990646461234 -0.1174149050552968 0.011697456836571746 0.06878228034588536 0.11944171834571887 -0.06408018536070913 0.05384457847912056
0.0938903815609411 -0.0714989970776437 0.1683273847858771 0.06782464819882442 -0.016848396795020898 0.07064454953251935 0.03693790446254188 -0.11515965333872533
-0.09908971925007494 -0.11040871672713085 -0.15608322694344612 -0.166299006058366 -0.003957007135531737 0.08181247246061857 0.024655935818944243 -0.07572626555809453
0.029039831402398984 0.15242140721335803 0.04137246312245463 0.24792656973736932 -0.021709708957562874 0.288648885110585 -0.005923962062294448 -0.031750750775466706
0.17305342804438106 0.058310013997178986 0.2931575665229321 -0.10525957485778234 0.07277647485938417 0.20876578757952965 -0.08654510701256263 0.20558365938865236
-0.07085794508913938 -0.09692460154538261 0.008020519510786276 0.43154038007989465 -0.22030187948983254 0.11219386522609885 0.1914080143790545 0.05949696628029604
0.008586188749163068 0.21215765939338815 -0.26161329135409045 0.031008247160250836 -0.15157000126059686 -0.01776566138437254 -0.12003410460843422 0.023430204259029704
00000000: ad9a 8228 d437 be3f 6c37 e737 c046 cf3f
00000010: ea9d a9c5 7b0c bbbf b850 ea8c 1da7 bcbf
00000020: 972d 8151 7ac4 87bf 7d99 559e b730 d53f
00000030: 68d8 d3e7 2f17 7dbf 1b3f 6971 3c91 a8bf
00000040: 7036 add6 3e16 8f3f 837f 0c02 5472 cfbf
00000050: 889e 56f7 80eb d53f 7afc ae11 375f b4bf
00000060: 86e1 9a17 d3fa cc3f c17f b938 7fcf ba3f
00000070: 52f9 b24c 8cad d03f ef6c 1b13 08c3 c13f
00000080: 8a70 8999 9a77 a53f ef29 5927 89fa b2bf
00000090: 0792 8069 bf96 cf3f 2da0 75c0 c3fe cb3f
000000a0: 3046 ab27 a100 793f c199 b26a d8af adbf
000000b0: 8089 f813 d213 b5bf 3bbd a0c0 8590 cb3f
000000c0: bc43 c2b4 9559 cd3f a909 1046 fc04 9abf
000000d0: 58a1 b07c 3d17 bb3f e19c d4e7 8c63 cd3f
000000e0: aca2 b2f9 ffb9 bdbf 6445 cc01 fc1c c63f
000000f0: b98c 380c 642e c6bf bf17 ccde 695b b73f
00000100: b69b 4e29 dd8c b03f d8e5 7dbe 1052 b5bf
00000110: cd13 fed8 a295 c83f 5382 057f 1c5d d43f
00000120: 29a8 55d2 4151 afbf abce 2d92 b1bc cf3f
00000130: bcdc 5927 e42a c13f 08c5 f3e9 18fd be3f
00000140: e31e bb2f 3c05 d23f 7ed8 fa6a a3bd b93f
00000150: 4248 c8cb 0f3c ad3f db58 4409 8f86 d43f
00000160: a470 41d7 7200 cf3f a60d de8b 6e12 d33f
00000170: a1f4 898f 554a adbf c001 64a5 44fb c13f
00000180: 7936 a5e5 2601 8abf 22bb dd02 5618 b33f
00000190: a04d 3b6d 1454 cd3f 4a10 f6fe e35e ba3f
000001a0: 7f18 541e 46ee cb3f fb91 455b de43 ca3f
000001b0: bc9f f2c8 0f82 c5bf c970 d55e d343 a9bf
000001c0: ff1c e380 55cb b53f 549b 12f3 cf93 afbf
000001d0: 6df7 0e78 d344 d03f 237e 9314 8bed ae3f
000001e0: f3a3 93c9 f4c8 c63f d283 4313 f42e c43f
000001f0: 940a dc84 a4e7 be3f 1065 1d2c 3d59 cc3f
00000200: c5f8 1973 d002 c63f 7fad f15c 1cd5 873f
00000210: 582b 7aed 54f9 b33f 3861 7048 1dc7 c0bf
00000220: 850d 315e 0cce c2bf ad43 0bd1 4ab2 b63f
00000230: 6689 8793 2f2c a33f c3fe 5f2d ab4e a9bf
00000240: 56b9 9d82 87cb c1bf d5cb 33e1 0fdf b1bf
00000250: 8d83 4639 e70e bebf 7dbf 7914 d6f4 873f
00000260: e53f a12c b79b b13f f4a9 1282 bb93 be3f
00000270: 1f24 721c 8f67 b0bf 19fb 443f 8491 ab3f
00000280: 8094 3636 3309 b83f 0631 251e c24d b2bf
00000290: 3299 5672 c08b c53f 8a6c e0c5 f45c b13f
000002a0: 9809 e6c4 b440 91bf ab00 e2dd c215 b23f
000002b0: d37c 4c67 86e9 a23f ee94 e860 1a7b bdbf
000002c0: 4984 8c9f f15d b9bf 924e 89e3 be43 bcbf
000002d0: 448f 9601 89fa c3bf e861 302c 4949 c5bf
000002e0: 205b cb03 3935 70bf cc8d 9f85 a9f1 b43f
000002f0: 0a83 fad7 673f 993f 9c2d 05ea cb62 b3bf
00000300: 865e 9e18 9ebc 9d3f af88 986f 8b82 c33f
00000310: c8be 2180 c52e a53f 6e6d 6ace 0ebc cf3f
00000320: 85e4 e9e7 113b 96bf afea 642c 3979 d23f
00000330: 3bf2 1f75 b943 78bf ab7c 6868 a241 a0bf
00000340: aca5 f45e 9d26 c63f f65b 4b66 cfda ad3f
00000350: ba9e 32f4 17c3 d23f d6e3 9a9f 4af2 babf
00000360: cd70 70a3 7aa1 b23f efc0 165b d6b8 ca3f
00000370: 4c6e 3ff4 d127 b6bf 2e48 d5ba 9050 ca3f
00000380: 73d2 d10c bf23 b2bf 2fb4 d0f9 0cd0 b8bf
00000390: 6f4f f7e7 0f6d 803f ff2d d68a 5b9e db3f
000003a0: 2efd d31b da32 ccbf a73a f5b5 bcb8 bc3f
000003b0: a3a4 f9cc 0e80 c83f 072a c5e8 6276 ae3f
000003c0: c5df ffbe a295 813f 9c62 5870 fb27 cb3f
000003d0: ab24 a4ac 45be d0bf 7a97 d63d a0c0 9f3f
000003e0: 4d06 3c53 a566 c3bf a5fe 8c5a 2931 92bf
000003f0: 78a7 b219 8eba bebf 32e1 1f64 16fe 973f

LSTM.weight_ih_l1 f8 [128, 32]
0.1424443831113858 -0.41881169238155946 0.027845703398640984 -0.6416544345316404 0.19296204463290878 0.05714788547032642 -0.5558548492754964 0.06337594305745045
-0.224320167059646 -0.012490944011803637 -0.5275502883356874 0.6248970381740429 -0.5196120798656315 -0.004407913379179125 -0.001591730564629963 -0.25584656677624384
-0.37562244940887085 -0.15976757182839882 0.29130922473104337 0.27145782017027204 0.25055336155501373 0.020096592240256537 -0.30452161296539837 0.8247654456618191
0.3212199477123336 0.11443128397150498 0.12207785843163715 -0.13283874799479997 0.1559752747404632 0.20803953496243188 0.18115419250397255 0.09887169539569422
-0.04676218124118393 0.2575295708464839 0.031867303171473384 -0.2450661460140618 0.2068010923882496 0.0513161837634854 -0.012244756555897747 0.08007958176171388
-0.0007399574019724785 -0.22103724148459264 0.37400686058303406 -0.11152421056363866 -0.0166009208915153 0.22815642519279947 -0.036451918900815554 0.05230533317515788
-0.20256319853455887 0.09804068909757106 0.19376626090643806 0.04388500615850859 0.09737010314409769 0.2952255000031942 0.31884313392436386 -0.19564092148865175
0.12102239543088147 0.011004542141809131 0.04394311926311702 -0.23039816451329187 0.0047581174139491545 -0.02720825225975938 -0.13897993852066098 -0.21150293858518207
0.0913559024422083 0.20397160151405636 0.07140598419133219 0.22839695685119094 -0.07928560532071116 0.05637775045270859 -0.2939674214039218 0.056547053603216615
-0.17246269837095315 0.27225992662270765 0.4127073391672374 -0.6231418119190505 0.20100917882670474 0.12942019033207722 0.25150602324933813 0.23520878752742744
-0.12417089417137554 0.3364614761170385 -0.21496329764554256 0.20249370969950012 -0.259386422331402 0.15235475828751477 -0.01773729716251395 0.03855507092615333
-0.12678790268614556 0.11863162075065066 -0.06996786124048757 -0.020573743858304197 -0.09129235065524692 0.043906734878835466 -0.20452513045965634 -0.1397274210482481
0.4240683492718482 0.0648374312045966 -0.006671340650909285 -0.18882481865616063 -0.2224367217188433 0.134405665293421 0.08403952551545517 0.30390399638346466
0.09028284029163589 0.01229954975045046 0.24184307679495842 0.36710428281332175 0.1289494015818431 0.3333796649485888 0.4047092397918862 0.3406490770222085
0.35828638692457704 0.27581163688048793 0.34415071718238527 -0.08641973533899926 0.26512891720334003 0.4866387589729812 0.07477240023305236 -0.2031787788052404
-0.18372307402928584 0.08259078708593708 -0.2610623894015277 -0.2733263052605526 -0.39562042415167487 0.2706842076407809 0.24029646824347448 -0.20129716586847704
0.17781260967132412 0.0567678722119778 0.05928725091555182 -0.36174506479880303 0.027665549225023008 -0.3766370468432521 -0.03784686472529454 -0.0031471456009520525
0.16250996822095773 -0.1157573715405996 0.304722843588737 0.08113682285495753 -0.10901599072883637 -0.1526921542178986 0.013088827616771399 0.2370877603362122
-0.21175930147715613 0.011942064543310886 0.31382761588353314 0.11574483865413658 -0.18578918008307832 -0.26471507477908446 -0.36597112014741207 0.028422862525282765
0.18495258370054585 0.18891964352917537 0.03827837186462151 -0.19807043244920997 0.009663995874255564 0.18762352895682943 0.037747426278143544 0.01936147947606658
-0.16536741525287418 0.08917090382391635 -0.057623283493216396 0.5267678286771702 -0.4906298558120465 0.18456952574564736 -0.2179123346566831 0.3286326544688073
0.03319306078024109 0.00581226570779242 -0.043846092766724784 -0.012955436698689907 0.2919609109114594 -0.2859193308192734 0.05513616457216229 -0.08378493801652172
-0.2715126185161836 -0.14943947006395697 0.08664670102124836 -1.2461781012853992 -0.027258343891038136 -0.0714973910035976 -0.4334064648935406 0.22648054581640092
-0.6584752293597403 0.8297418356521324 -0.1539404477967122 -0.11493234475316334 -0.1622792639628494 0.1383547702197466 -0.26324495021181504 -0.11481228637199077
-0.05773684664266347 -0.7979135122463608 -0.2554309415903192 -1.3169115605454156 0.018207816708469274 0.3289663344265728 -0.39920884014550384 0.226117025550525
0.08388976652034559 -0.7762414764695201 0.423834166737369 -0.25741209337470666 0.13073014117770332 0.12064895538497554 0.25544753148653787 0.2972966167120864
-0.14773493612671576 0.2407000202379462 -0.3677961363823189 0.07866194347854262 -0.03125298662743622 -0.13020840874457093 0.7807889992278882 -0.3478382730335413
-0.5127104823881402 0.059683615876722655 -0.0178797584828574 -0.26695466334610163 -0.27986410536946515 -0.09626031398910294 0.29148775989185366 -0.09077684255394927
-0.05166611232885683 -0.9265217222352045 0.0034193862260732738 -0.8487255733890088 0.5551127099044044 0.2278980219920989 -0.4593960131303006 -0.02777676226404346
0.006692337184033972 -0.20413618349422177 0.1597752345782391 0.07100238925913593 -0.14557176072702496 0.3156494845510228 0.3230947983419329 -0.1860259075089153
0.14297354442741964 0.24175477457854697 0.27762699578785854 -0.048168233433837 0.04754692098952722 0.0741966382759577 -0.3392463673133053 0.42345051905242814
0.2558210522402332 -0.18733775503256467 -0.17357510813968863 -0.24351859978745724 -0.17240983419800224 0.0786755264691949 -0.04991686179409673 -0.097729261257423
00000000: 8a2c 7b17 9e3b c23f 7884 7d8e cfcd dabf
00000010: 39a1 b985 9583 9c3f 54b2 74e1 6e88 e4bf
00000020: 48a8 88f3 fab2 c83f bbde 42d6 7c42 ad3f
00000030: b2c2 de1b 90c9 e1bf baef c8e2 6739 b03f
00000040: 295e adf2 85b6 ccbf 4b04 3720 da94 89bf
00000050: 6fb5 6c24 b1e1 e0bf 9464 ca12 28ff e33f
00000060: 4524 3483 a9a0 e0bf 8830 ea3c 080e 72bf
00000070: ec36 06ae 3314 5abf 2243 4647 ca5f d0bf
00000080: 5fb0 f6bd 320a d8bf 4f6e fb87 4373 c4bf
00000090: 6c8c 4f72 cfa4 d23f 31fc f79e 905f d13f
000000a0: 8406 72f7 1009 d03f 0957 bb79 3394 943f
000000b0: ba23 2738 487d d3bf cba0 ff80 7a64 ea3f
000000c0: cfd3 8f1c de8e d43f d401 4c5e 5e4b bd3f
000000d0: d493 8799 7e40 bf3f 83be 232f dc00 c1bf
000000e0: 0659 ff6f fff6 c33f 1c27 781b 0aa1 ca3f
000000f0: af3e 2b82 0f30 c73f 1b7e 39ca a74f b93f
00000100: 71b3 3d6e 36f1 a7bf d377 224f 5d7b d03f
00000110: c5cb dd41 e950 a03f 225b 3ed5 535e cfbf
00000120: 63d4 4a4c 7578 ca3f 9815 0a66 1d46 aa3f
00000130: c4f7 a367 c713 89bf 7d71 be70 1880 b43f
00000140: 5b8a c36b 363f 48bf aeeb afc5 f24a ccbf
00000150: c5c2 ab78 baef d73f 7d42 15c5 d98c bcbf
00000160: d90a 40f1 d4ff 90bf e1a4 49d0 3a34 cd3f
00000170: 8f63 1c6f d3a9 a2bf 5591 c9be c3c7 aa3f
00000180: 791f 8a44 97ed c9bf 7bf3 59d1 3119 b93f
00000190: 46a7 d434 55cd c83f 679a 7874 1878 a63f
000001a0: 12af 9c40 3fed b83f b75f dd7e f9e4 d23f
000001b0: 3998 3008 ed67 d43f c4ca c6ff c20a c9bf
000001c0: 2a8f 75de 52fb be3f 4329 daa4 8c89 863f
000001d0: e216 3d68 b67f a63f 5c4e d2e2 af7d cdbf
000001e0: 7b5e ef6a 3f7d 733f b345 8ce6 7adc 9bbf
000001f0: ba87 5f39 18ca c1bf b799 1d3e 8712 cbbf
00000200: 8b2d 49b5 1963 b73f 1c66 e8ce bd1b ca3f
00000210: b328 d79e a947 b23f d644 178a 1c3c cd3f
00000220: 7061 e5b9 0f4c b4bf a736 d564 8bdd ac3f
00000230: 1f3c 41bb 5cd0 d2bf 3a6b d243 bcf3 ac3f
00000240: 773e a4f8 4113 c6bf e3c6 36e6 b46c d13f
00000250: bdb7 220b cc69 da3f d7cc de18 c7f0 e3bf
00000260: 67d5 a034 abba c93f 0d8d 753e d790 c03f
00000270: 4a96 26b8 ac18 d03f 23c0 1451 521b ce3f
00000280: 43c5 94e9 a9c9 bfbf 1757 12b7 9588 d53f
00000290: 742c 9dd6 ea83 cbbf 910c 675a 50eb c93f
000002a0: f125 3c82 c999 d0bf ec0f 1e58 5c80 c33f
000002b0: 6502 eedc b929 92bf 6611 7281 7dbd a33f
000002c0: df5f c803 963a c0bf c540 6553 a45e be3f
000002d0: a688 cceb 69e9 b1bf b45c 1c94 4811 95bf
000002e0: ab72 707c ef5e b7bf 52ea c18c f17a a63f
000002f0: d365 4425 e12d cabf d4d9 e08f 96e2 c1bf
00000300: f40a d992 ef23 db3f 9794 9496 2f99 b03f
00000310: b378 a85e 6853 7bbf 5492 6662 692b c8bf
00000320: 0b1f 9b76 ce78 ccbf f38a 6a70 3434 c13f
00000330: 5305 a945 9d83 b53f c0cd 65bf 2973 d33f
00000340: 164c 71b6 c61c b73f c93c 789f 8130 893f
00000350: 2897 ccc4 b6f4 ce3f 74e7 39f6 a27e d73f
00000360: 28ff 50fb 6981 c03f 95c2 86a9 1756 d53f
00000370: 1ee4 5295 c1e6 d93f 2645 4ec9 31cd d53f
00000380: 1a5b 9c06 2aee d63f d081 10da e5a6 d13f
00000390: dd5e ccba 9006 d63f df8d 0291 9a1f b6bf
000003a0: e52e 2747 dff7 d03f 9b51 b0e4 1625 df3f
000003b0: 43f6 a4b5 4824 b33f 49d8 1a21 c301 cabf
000003c0: aef9 3cd9 3c84 c7bf e328 7c79 ab24 b53f
000003d0: ce7d 2c06 3fb5 d0bf edc1 8e9d 2d7e d1bf
000003e0: 221c d753 d851 d9bf cb17 d7da e352 d13f
000003f0: 6f9a 39e0 08c2 ce3f 515f 1704 1bc4 c9bf
00000400: 7668 ad47 90c2 c63f e557 3ab5 ad10 ad3f
00000410: 890b 8107 e65a ae3f 7537 b3c5 d426 d7bf
00000420: 6fe3 9694 5b54 9c3f a9d7 a945 d21a d8bf
00000430: 42a7 800c aa60 a3bf b8a0 d1ed 0ac8 69bf
00000440: c339 646b 20cd c43f 07ad 096d 46a2 bdbf
00000450: 28b2 e33d 9480 d33f cbd3 a900 62c5 b43f
00000460: 4fe0 ebd2 78e8 bbbf 745f 5ca0 6a8b c3bf
00000470: 2ac4 74b4 50ce 8a3f 7684 7648 e458 ce3f
00000480: a7ed 3bc5 ed1a cbbf a92c 48c5 1475 883f
00000490: 8c4a b36c c015 d43f bb47 b328 74a1 bd3f
000004a0: 2c28 349a f0c7 c7bf 97cc 3b7f 17f1 d0bf
000004b0: 6012 1422 126c d7bf 93e8 0404 e21a 9d3f
000004c0: 66fb 26b9 86ac c73f 09d0 43d5 842e c83f
000004d0: 57f8 9a06 3999 a33f 7843 d636 5f5a c9bf
000004e0: af2f d491 b7ca 833f 5433 6a3c 0c04 c83f
000004f0: 51df be72 a153 a33f bd86 9be4 7ed3 933f
00000500: 12e6 2a6c c22a c5bf 00b1 ad83 e7d3 b63f
00000510: 3ad9 2e8c cc80 adbf aa1b 9834 48db e03f
00000520: 13da 49c4 7a66 dfbf 7538 7566 f99f c73f
00000530: 476b 5f27 8de4 cbbf 26d6 d541 5108 d53f
00000540: 80b3 024d aefe a03f 4110 1732 9ace 773f
00000550: 3e1e fbbc fe72 a6bf f500 6947 6188 8abf
00000560: 3dce 04d1 7caf d23f 556e ca97 804c d2bf
00000570: 8e20 54af ce3a ac3f 35a8 ad00 ee72 b5bf
00000580: 009d 3e76 7660 d1bf 8800 5422 d520 c3bf
00000590: 0e4b 316b 7a2e b63f d431 e072 58f0 f3bf
000005a0: 0c74 387e 9ce9 9bbf 4d1a 1c2c a74d b2bf
000005b0: 46ef 2578 eebc dbbf 0e18 bb84 50fd cc3f
000005c0: 1970 eaa4 3a12 e5bf 1ef7 07c0 3e8d ea3f
000005d0: c3c3 6812 52b4 c3bf bda9 f7c5 346c bdbf
000005e0: b70a c521 91c5 c4bf ab71 abee 9bb5 c13f
000005f0: 1ccd ff58 01d9 d0bf 458d 2587 5664 bdbf
00000600: d674 3518 af8f adbf c44e 04eb 8188 e9bf
00000610: 0215 2105 fb58 d0bf 2845 44db 1112 f5bf
00000620: 2181 2de5 11a5 923f 5d37 f6cf c80d d53f
00000630: ecbc 2c3c a38c d9bf 6b76 e716 67f1 cc3f
00000640: a588 acbb cc79 b53f ed87 675d f8d6 e8bf
00000650: 4f1f 4457 1920 db3f b1e9 a892 7079 d0bf
00000660: 68d7 7ae8 c3bb c03f f7ce ac95 d9e2 be3f
00000670: f407 659a 4059 d03f d659 7f63 e806 d33f
00000680: c908 9277 fae8 c2bf 2bc5 881d 42cf ce3f
00000690: 9edc 56ce f889 d7bf b91d ae6a 3023 b43f
000006a0: 1b30 ef36 6400 a0bf d76e 9c4c abaa c0bf
000006b0: c854 1836 39fc e83f b679 be75 fb42 d6bf
000006c0: df8c 45d0 1f68 e0bf 7f58 98d4 d98e ae3f
000006d0: c3e9 c647 124f 92bf 3e84 2503 c915 d1bf
000006e0: b2b6 f822 4be9 d1bf 2f63 7c14 84a4 b8bf
000006f0: 33de fa46 bca7 d23f c2db 00b2 263d b7bf
00000700: 3a1e 870d fb73 aabf e214 01e2 10a6 edbf
00000710: ce96 6d00 f902 6c3f 2d82 9f88 c228 ebbf
00000720: 6c44 d4ba 7bc3 e13f 4ebb a32b c32b cd3f
00000730: e5ac 1389 be66 ddbf 3f24 0df6 8271 9cbf
00000740: 1c7d 6d95 6c69 7b3f 23db 046c 2221 cabf
00000750: bab4 9ccf 8373 c43f 384c ce6b 362d b23f
00000760: 4598 c56f 18a2 c2bf 6e56 49e5 9933 d43f
00000770: 6ab9 18ce 95ad d43f 4ad1 7a6a b2cf c7bf
00000780: f125 c104 f54c c23f 33bd 3b09 d2f1 ce3f
00000790: 3851 d904 a4c4 d13f 6cdd 9bb6 81a9 a8bf
000007a0: 26dd 59ed 1158 a83f 294e de06 8dfe b23f
000007b0: d16f 3965 36b6 d5bf 5a7b b334 d019 db3f
000007c0: ca01 4043 5f5f d03f dce0 95fd aefa c7bf
000007d0: 3a08 6e8a b537 c6bf 0b05 0713 9e2b cfbf
000007e0: 5fd1 b183 8611 c6bf 3c47 2e4d 1424 b43f
000007f0: d364 d9f1 b38e a9bf c17e f6ec c804 b9bf
