results/Genotyping_GRU_Dropout_10_Long/models/checkpoints/1/Genotyping_GRU_Dropout_10_Long-1-1850.pt (torch_old, 86995 bytes, 10 tensors)

gru.weight_ih_l0 f8 [96, 10]
00000000: 6d13 021a 9ed7 d6bf 4201 32a4 0ef6 d2bf
00000010: 71f4 7ec6 94c2 cbbf f804 3f5a 8a39 c93f
00000020: 0f88 6edf cbd1 e1bf e281 e670 ecae f13f
00000030: 8a1f 58e0 f282 e3bf 6bb5 1122 b844 d83f
00000040: 2418 f490 16c9 ddbf 903e 7282 32cf edbf
00000050: 78b1 9d4f cede db3f 9960 4b32 b803 b93f
00000060: ec0a f34e b7fc a5bf aebc f93f 7fc9 e4bf
00000070: bbc7 6623 93e3 f7bf 18dc 1204 2e44 e23f
00000080: 9667 ae9a e108 dcbf 9764 2dd7 f2ca dc3f
00000090: 8313 98ec 8371 e2bf 3139 56f6 ab1e d23f
000000a0: 9988 acc9 0fb6 ebbf 35cd 0299 e052 e8bf
000000b0: bbfd ca0a 1e3a c8bf d655 c394 383e e33f
000000c0: 3885 dfbf 7f55 10c0 9c64 023a 9a00 d63f
000000d0: bce1 1c64 160b d4bf c6f1 2e28 63fb ddbf
000000e0: 9fe8 3e48 2e9d c03f 0ad6 9280 7f71 f03f
000000f0: 5f1e d442 430b d8bf f62d f473 b960 e9bf
00000100: f983 eb50 4158 afbf cd3d f221 590d d23f
00000110: 0709 d893 1359 10c0 74b6 8bde b2f4 d93f
00000120: 3392 f730 542a e9bf 47fa c0b5 c54a dbbf
00000130: 9b03 4cfe 9998 a8bf 6a01 c3e3 1ab8 f63f
00000140: 5a63 d73e d8af d4bf f753 d5e1 9fa8 d1bf
00000150: bb6a f64f a0bb c03f 45c6 58fa 95ef 993f
00000160: b0c9 75aa 8691 d9bf ad9c 7d75 4214 f0bf
00000170: 9eeb d144 aa92 e53f 5043 fcf8 3e96 e8bf
00000180: 27ba df54 dbd6 d33f 1294 07c3 641b 09c0
00000190: 89ac d02b 788a e13f 955f b184 91e1 c93f
000001a0: 7832 acbf 2a2a c53f 9066 a7f5 8e15 e0bf
000001b0: 2704 46a7 f393 f0bf 4c2f ac11 499a e5bf
000001c0: 0f83 68d0 fff2 b33f 7962 5dc3 4d35 e33f
000001d0: a5d6 a4a6 9409 b33f d97d b1d5 8970 9ebf
000001e0: 9f55 3882 3174 b0bf 51a2 c7fd 9cdb cdbf
000001f0: 1b8e 6211 513c dcbf 7465 6ca3 9e17 cf3f
00000200: fbe8 cd74 8b4b 0dc0 c86c 62c2 0d7c d5bf
00000210: c72f 3b1b d98f debf 0581 390a b970 f33f
00000220: d375 0fdf 2546 d7bf 098e 878b 9389 ebbf
00000230: 375f a168 a11b f6bf 1fc4 6ede 9925 ca3f
00000240: e2c8 dfd9 b6f6 ca3f d0f4 5c7b 40ce db3f
00000250: 29ea 8587 3799 f2bf aa23 eb47 d0c4 eabf
00000260: c1fb 2019 4395 e13f 8212 a6dc 2b17 d13f
00000270: 3f45 d2f1 dea0 e9bf 96e6 2cf3 686c d9bf
00000280: e1e9 ec2d f488 d6bf 5d06 b638 64a2 d8bf
00000290: 21f2 2808 523f e13f 7c75 5aaf c31c c5bf
000002a0: 9973 6d21 a11e a3bf 7706 7328 4f19 db3f
000002b0: 2c85 9aba 38b9 d33f d42c 76eb 1139 eebf
000002c0: dfb7 0c6a 122a 99bf 63c6 a732 8cc5 bf3f
000002d0: fbdd e2d4 4393 e1bf c2b9 4024 412d b0bf
000002e0: c4a4 72b4 3cab 9fbf 7784 dfde e647 d5bf
000002f0: 3fb6 b55f 712e fdbf 9f79 0ce1 bbc0 d03f
00000300: 81ff faea 7da1 f0bf 916c a425 66e0 cabf
00000310: 6d59 48ad d3f4 ef3f 71c3 b444 c112 f13f
00000320: fd59 c05c 3e3b d73f c9c5 f245 aef2 b23f
00000330: 584f 2625 6310 db3f a1eb cd9c 033d c1bf
00000340: cf3b 91db 8af7 e7bf 6407 e126 dd3d c7bf
00000350: 2596 9296 ab31 b1bf a2fe 07c2 69b9 db3f
00000360: 35b7 53b3 a9a7 e73f 6a97 37bb f6e7 0140
00000370: eb7d 1b7a b817 cebf e90b 92d1 aa08 d23f
00000380: bad0 eefb ad08 d23f 9fbc 1c37 1601 c43f
00000390: bb2d ffec 0d35 f03f 7529 662f ba53 833f
000003a0: 3f6b 3283 c2b8 db3f f8ec b458 a35e eb3f
000003b0: 58ba a020 7087 d1bf 7dc8 24f5 4d58 01c0
000003c0: a21b 77a3 7abb e83f 8d43 b79a ca9c e83f
000003d0: 3b76 3227 060b d7bf ea70 afd5 0838 ddbf
000003e0: 1ace 04ee 2f6f 0540 eb0c 9a11 eb98 d83f
000003f0: 6c5b 852c ed3b df3f 0999 da60 9956 a23f
00000400: f484 7cf7 f805 d9bf 6ee5 4041 0c19 f0bf
00000410: 49b9 d28b cbb5 e0bf fee7 07c6 5595 d2bf
00000420: acef 542d 1109 e53f d616 6140 7d35 c23f
00000430: 6a2b bb11 996e f4bf 4b02 3c14 c038 d63f
00000440: 651b d839 359e e03f 566f f12f 2114 ccbf
00000450: c761 605b 1ef5 c4bf 252a 1566 75fb 12c0
00000460: 1c28 3d89 3670 d7bf e64a a510 faf7 d3bf
00000470: dacb 24b6 1c82 e93f 8f06 6c41 4759 d6bf
00000480: 3226 f3bc 7e87 f2bf 1362 6596 bf43 e0bf
00000490: 00ff e301 0b3f d9bf 20e2 716a 360e d1bf
000004a0: 04f3 10a5 510a e03f 779d 58b3 930e e83f
000004b0: 422d bf76 2bf5 d9bf 84f7 2500 3026 b83f
000004c0: faf3 3736 478c c4bf ff0f 04a3 d429 db3f
000004d0: 8b43 c1bc eabd dcbf 9e74 d7dd bb95 d1bf
000004e0: 5777 7615 4c0f b93f 0016 9f36 f341 c33f
000004f0: 877f 7d9f ccef b23f b7cf 269b 1e01 f03f
00000500: 2eda 5a40 b379 c03f 9c5b 7ccd b2f8 c8bf
00000510: 6a24 ea31 3436 d03f 3aa4 b2e8 9984 c7bf
00000520: fc4b 815e 62b7 edbf 367a 9298 243e debf
00000530: 55fe 7221 d27e d23f 39bb 667d f330 db3f
00000540: c8a3 b0c9 1a25 e6bf 3181 bd55 3847 f23f
00000550: 112c 6b66 8f5e ebbf 234d 7485 97f1 a53f
00000560: 3706 46c5 802d da3f 11e5 85bc 5ca0 f33f
00000570: 4e01 7daa 3c5a 09c0 a840 4617 1c14 d8bf
00000580: ab18 5668 b671 d33f 81a8 8178 7c0d e13f
00000590: 4b3c 3981 11d9 b73f d16f f66f 22c7 fdbf
000005a0: cf87 6e7b ac81 e6bf 4e0a 146f f3fe d5bf
000005b0: b931 7aa5 dcd0 e73f a6d6 9716 4ec0 c3bf
000005c0: c2b9 a87e 3499 0640 2509 c933 5b26 e5bf
000005d0: f42e 0fe1 71cf ebbf bc56 48e5 8457 ce3f
000005e0: 8691 d3bb a679 e93f 8e9b 983d d2a8 dc3f
000005f0: c003 2085 18a8 c3bf 9b77 f0fa e39b ddbf
00000600: eb95 9c4f 6a10 66bf 566d 27da 45e8 e43f
00000610: 6e38 5c8f c627 fe3f e08b b2e2 17a8 ebbf
00000620: 26c9 3361 55fb f33f 5930 fbec 2b82 e23f
00000630: 1b05 2564 5578 ddbf e95a 4f44 81d1 f0bf
00000640: fc84 b879 61f0 e13f e5a3 cf79 749f c8bf
00000650: de36 0bbc 96c2 7dbf 83b5 2760 73ee ddbf
00000660: 9ffb 9b9a 81b0 00c0 ee06 9324 7c5f d3bf
00000670: 9295 ccb7 bcf2 b7bf 2a5f 8f27 70cd f13f
00000680: 6397 df3e 6715 bfbf 71ef 17bc e413 11c0
00000690: a08d 94be 9963 c6bf ceee 1d23 0505 9fbf
000006a0: 99e5 5a0d f3a4 a9bf 97c6 f474 292f 943f
000006b0: b5ca d28d a380 f83f 3f62 3898 3ebd bc3f
000006c0: dfbc e162 c306 b63f 2c11 fead bc51 d4bf
000006d0: 4a17 1528 0d50 b6bf d51c 87c1 7ff4 ebbf
000006e0: 4a3a 3d90 88cb 74bf 42b7 31d8 3d0a c23f
000006f0: 4a9e f3db a224 d73f 05ce 75bd e44f d73f
00000700: 5bd7 2022 de8b 07c0 887c 1c11 2f77 db3f
00000710: b85f 24ca d9e3 a2bf 5bfe f35d c38b e1bf
00000720: 0a68 489e 1098 d83f e249 384b 836e febf
00000730: 874e 8b78 4d84 d3bf c2c2 4919 6ec8 e8bf
00000740: 06d2 8a7b a430 d23f ce24 4126 35b6 c6bf
00000750: 9460 d650 8c93 f3bf 7ede cf84 19a7 eebf
00000760: 1b4b a961 8b70 e43f f46d f488 7295 c6bf
00000770: 1a69 f4c4 4bfd b5bf 39eb 9a95 0a83 08c0
00000780: 5581 0474 e0bb d9bf 14fa 7e92 9ff6 463f
00000790: 0f6c aae8 0b53 d23f 7a6c 47b0 d4ef a9bf
000007a0: e62b 5bce 23b3 f4bf 0355 3872 63a5 f6bf
000007b0: d5c7 d9d0 f073 b8bf b022 6eee 6d1b f23f
000007c0: 96d1 73af 9700 c6bf 686b 2796 b7c6 10c0
000007d0: b155 3d8c 4ecf b1bf 66ae c1bf 4074 e03f
000007e0: 57c3 7f17 3fb8 d7bf e665 1dc1 0e30 c73f
000007f0: 809b adf7 d26a d93f 032e 6d34 73c3 d83f
-0.356910252951187 -0.2962681392164265 -0.21687564556296793 0.1970684948592305 -0.5568599094297059 1.1052059564755088 -0.6097349530909792 0.37919429137294597
-0.46539844661345087 -0.9315426395205169 0.43547399306296297 0.09771300533191364 -0.04294369543779006 -0.6495968102953122 -1.4930602438803209 0.5708227233470806
-0.4380420694884547 0.44988699925813463 -0.5763568516709799 0.28312205368355864 -0.8659743250793951 -0.7601168621535296 -0.18927360083578812 0.6013453393485928
-4.083495138185121 0.34378677048659667 -0.313176725164819 -0.46846846508176687 0.12979677703498724 1.0277094862370881 -0.37568742300252284 -0.7930571808550997
-0.061220208290031004 0.2820647078997041 -4.08698874479365 0.4055602238939635 -0.786417098654573 -0.4264387392940176 -0.048039257328134265 1.4199475190108282
-0.3232327092824129 -0.27591702512773914 0.13072589783117458 0.02532800999160247 -0.39950720449919697 -1.0049461926917431 0.6741534561291365 -0.7683405745502601
0.30998881615133417 -3.138375781697058 0.5481530051960287 0.20219630221504006 0.1653493343259418 -0.5026316450050263 -1.0361210378762367 -0.6750836701553253
0.07792662466136967 0.6002568069189486 0.0743649393887958 -0.029726174991422247 -0.06427297047806356 -0.23326456443398283 -0.44118143747093236 0.24290831546458558
-3.6618870854700822 -0.3356966398511756 -0.47752978953644426 1.2150202178382312 -0.36365649016610496 -0.8605439877687228 -1.3817457282184031 0.2042724929902144
0.21065412176500958 0.4344636158674122 -1.1624064725753078 -0.8365250973375755 0.5494704714582143 0.2670392660877853 -0.8008875582765212 -0.3972418188819601
-0.35210899815470326 -0.3849115899866769 0.5389795455335539 -0.1649403196542315 -0.03734305890132034 0.42341975164536144 0.3081800291348198 -0.9444665526256366
-0.02457455417896159 0.12410808788970366 -0.5492266805585467 -0.06319052825049368 -0.03092665530553941 -0.33251353993370664 -1.8238385904945884 0.26176354386725537
-1.0394267252849831 -0.20997311437608748 0.9986360916544023 1.067078846343261 0.3629909425521019 0.07401551444743072 0.42287520053763705 -0.13467450291122154
-0.7489675796913334 -0.18157543562306977 -0.06716415811623529 0.43319171856271954 0.7392166616898296 2.238263571390168 -0.2350988956668368 0.2817790075861795
0.28177976229495594 0.15628316584613786 1.0129527337729616 0.009437040874008965 0.433151844141026 0.8553024990609677 -0.2738914793616565 -2.1681174423075036
0.7728856270485844 0.7691395780367302 -0.3600478537353841 -0.4565450751085921 2.6792906375137706 0.38433338850900495 0.4880326208853407 0.03581694896029048
-0.39098953407854187 -1.0061152028050304 -0.5221917849465082 -0.29036468829110607 0.6573568234812135 0.14225736278074547 -1.2770014469740212 0.3472137639619503
0.5193124894875437 -0.21936430779430321 -0.1637304254698064 -4.745565028230463 -0.3662239399169509 -0.31201030374101746 0.7971328313345751 -0.3491991175543285
-1.1580798512317299 -0.5082700669691483 -0.39447283920888765 -0.26649246592526943 0.5012596343945863 0.7517794134954973 -0.4055889758717123 0.09433269504185487
-0.1605309500445456 0.4244281379653784 -0.44909161027049355 -0.27476402916165366 0.0978896667861283 0.150450135870571 0.07397154706768393 1.0002733288392684
0.12871399538353628 -0.19508967431530955 0.25330834269022395 -0.18373416769216694 -0.9286357732584061 -0.4725429048502606 0.28899052874110015 0.42486274000377794
-0.6920293750055118 1.1423877095440498 -0.8552929878582082 0.04285882476883731 0.40902728333466903 1.2266509403401111 -3.1690610236547974 -0.3762274005212114
0.303815462008411 0.5328962663309228 0.09315595059273211 -1.8611168263951081 -0.7033293162132795 -0.3436859688519335 0.7442458374003343 -0.15430618384532585
2.824807157062623 -0.6609321605140265 -0.8690728564920094 0.23704587169111402 0.7961000126347677 0.4478040315174717 -0.15356737613913474 -0.4626398039416643
-0.002693374289168151 0.6533536206074284 1.884710845948145 -0.8642692020115383 1.2488607212986351 0.5783900860346974 -0.46046957759615886 -1.0511486690863256
0.5605933549269646 -0.192366179922174 -0.007265652472325105 -0.46767887487552445 -2.0861846999027445 -0.30270293781005264 -0.09354762542041886 1.1126557870210925
-0.12142033848757942 -4.269427241288086 -0.1749145680015376 -0.030292587536208164 -0.0500865892221995 0.01971115852683755 1.531405977246931 0.11226264206232715
0.08604069866281659 -0.31748883239221715 -0.08715898731778995 -0.8735960750426793 -0.005076917124667244 0.14093754822118326 0.36161109428073657 0.364251313228323
-2.9432947794220303 0.42914940520308464 -0.036894613194987824 -0.5483109316846354 0.3842813058596454 -1.9019806803013286 -0.30495011112109477 -0.7744665616902113
0.284218903204675 -0.17743553512472093 -1.2235224874221204 -0.9578979104980616 0.6387383372733412 -0.17643577277418354 -0.08589623983826691 -3.0639850318815687
-0.40209208803027724 0.0007007865105988519 0.28631875725994943 -0.05065788890689134 -1.2937353192125953 -1.4153780423851579 -0.09551911448377777 1.1316966355972617
-0.17189308230412043 -4.194059702068309 -0.0695695011503037 0.514191031002565 -0.37062051100570187 0.18115410260615689 0.3971450251323674 0.3869293224313141

gru.weight_hh_l0 f8 [96, 32]
00000000: 2f02 8d44 cf2e b9bf 1689 3f98 983f c0bf
00000010: 9e0a 8c0e b583 c53f a1bd d39f d797 b9bf
00000020: 8856 9dbd b5c3 b7bf fd4f ff5f 7800 e63f
00000030: 33be f349 4ecd e13f f821 d46f 3730 de3f
00000040: 7dde 24d0 62f7 c63f 1fac 3caf 0af8 c1bf
00000050: 9e86 0e03 61b2 d13f aa63 4804 8569 ddbf
00000060: c1c2 5171 6c04 ca3f 07f1 733f 1862 bfbf
00000070: d102 73e8 91af b83f fd2f e739 c11e d5bf
00000080: 98c4 245a 243d c6bf 2166 78f1 3b15 a2bf
00000090: 406f 741f 994c dfbf 4df4 a8db 144c e1bf
000000a0: 89d1 5b21 54d9 d8bf 6ff8 e2b3 25fb d63f
000000b0: 4ea8 51f3 6267 dabf b1e0 481a c0af c23f
000000c0: a17e 4709 9533 e2bf 1b32 d772 7beb d9bf
000000d0: a47e abed 0fce d4bf c322 83fe fa6e c5bf
000000e0: 6efe 8dfe e447 df3f e0c5 ac96 6d2d d5bf
000000f0: 9964 9d86 9c0e b73f 96c4 84b2 77fd d3bf
00000100: 4e8c d711 52f6 af3f 5d54 a329 5228 e0bf
00000110: 00e3 b2c0 a0a1 b1bf eb87 8521 ab67 d23f
00000120: 0d7d 7aa8 7f3b d73f 9f07 6543 ff6b b23f
00000130: e935 212d 903e d2bf 4706 1928 d018 ccbf
00000140: dae0 4965 a482 c83f 3e0d 2da5 3fa3 e4bf
00000150: 21a0 c9b6 80ae e73f ee10 4733 e585 93bf
00000160: dfe5 45c6 668c c23f 3853 3454 8718 bc3f
00000170: cb3e f7c0 1011 c2bf b4bf d002 05a3 d6bf
00000180: 989f ef22 1812 c4bf 4233 c3c5 28a9 c33f
00000190: 3e48 c1b4 5e1b d0bf cd8e 1393 e508 d83f
000001a0: 664b b776 7c68 9e3f 66de c515 4705 c5bf
000001b0: 2c23 e094 4bce b8bf 7bb2 f343 ccb2 babf
000001c0: 81fd f4de 416d cf3f 65fc 859d 1b24 d2bf
000001d0: fcbd 3d29 8db4 d4bf 8b9d 2614 2869 b9bf
000001e0: 6c8f cfb8 097d a2bf 0bb9 2082 ebcb c0bf
000001f0: 8e2b 7d95 6165 af3f a443 be69 50cf ec3f
00000200: eaa6 3511 29b1 e9bf 1c33 e933 d4cf d93f
00000210: 1da4 63bd 211e b83f bebd 5fc3 0fd9 c2bf
00000220: 0ea8 584b 251c a5bf 6632 8839 c671 e2bf
00000230: d842 da4d b3c3 e2bf b10a cfd3 1064 e63f
00000240: 088b cf67 dd5b a33f b919 6cdd bcaf 81bf
00000250: 6c9e 683e 3197 d83f 6019 5825 31b7 eabf
00000260: 35b8 0106 262a e4bf ca79 94dc 37ea e2bf
00000270: 45e8 5986 aff9 e0bf 5d40 5b1f 5535 c33f
00000280: e1bb 54ee 1138 dd3f 109e aedf 971f abbf
00000290: 077e af31 6566 d9bf b7e1 e038 7265 dabf
000002a0: f998 bb88 44a5 ad3f 1622 3ea4 11c5 d7bf
000002b0: 265e 0527 9721 dbbf f15f 00e0 64e3 b2bf
000002c0: 991f 23a5 e704 d63f afee bdb2 a39c 81bf
000002d0: 787d 9683 036e dabf 09ab 5e8f 6811 d73f
000002e0: fd43 c9e2 d408 e6bf 5778 f81f 252e e23f
000002f0: 9663 2a06 3aa2 e03f e902 b491 3a16 db3f
00000300: 6e71 c503 519e babf 48b2 6213 a049 aebf
00000310: e269 4c78 46d8 d13f 68b6 9ee5 9eaf bb3f
00000320: 169c 6402 7abf d73f 316e cad1 c0cd c03f
00000330: 3ec1 d2cf 702c d13f d4b8 3dfe ca7d e3bf
00000340: f180 9c8d 7632 d7bf 7afd 482d 4a48 e23f
00000350: 7b5d 79f3 dc53 bbbf 3d6f 8a16 4543 cebf
00000360: 4f20 f496 1b64 d5bf 9768 332a 5b4d df3f
00000370: dc2a 4d32 1d8b d63f 5ea6 9bc2 5fc0 d0bf
00000380: 082a 467b 58f2 f0bf 0a92 25fb 0385 f2bf
00000390: 3ec5 de5e e025 e23f f335 92d4 1633 e3bf
000003a0: c427 cd30 7c25 c8bf 73b0 7d46 3198 813f
000003b0: 6003 d458 e8a8 cabf 64d6 9333 d109 b8bf
000003c0: 5335 8a8a ad62 c1bf 4cc0 3ffe 3712 d8bf
000003d0: 1fcc 990e 395f d9bf c84a a475 bcc7 90bf
000003e0: 2fd8 3ed9 0032 a7bf 1480 65d9 9c24 d53f
000003f0: 6ddc a653 adfe c23f f4e5 e176 24e7 d63f
00000400: cacb 69b2 c667 eabf 5051 9055 7b0f d43f
00000410: 75bb c575 f802 ba3f 3274 49d7 0e42 c73f
00000420: 73b5 e2c2 9656 b8bf 6796 d541 4b11 c23f
00000430: b830 81ba 4c59 dc3f a541 4bc0 821d dabf
00000440: 6992 f60a c325 c5bf 01df 1d70 a58d dc3f
00000450: ab19 317f c2d2 bc3f 6ce2 b421 ccec c6bf
00000460: 60cf b520 21b8 f1bf ada1 6bdd bf8f cb3f
00000470: 64e2 8e2e 6c4d b43f b057 d79d 4975 e5bf
00000480: 0e08 c35a fc2f d5bf 2b8e 3a0b 972d 823f
00000490: 4d7f 221e 2533 d33f d708 c4a8 be1c d2bf
000004a0: cfd1 84d1 7ab7 cabf abee 4307 f8f0 d03f
000004b0: 01a7 be1c 139b d0bf bbbb ae74 5d53 d03f
000004c0: ab94 e60f 71c0 ec3f f935 c6bf 5b0a d13f
000004d0: 17b9 e6f1 9d20 d3bf adbf 55bd 3b50 c13f
000004e0: 353e c422 1920 e0bf 5da6 4133 085e e23f
000004f0: e216 4e50 5bc8 d33f da21 7b58 e3ed d1bf
00000500: f626 9a66 3db0 d7bf 037f 676c b577 e63f
00000510: a1cc f027 f775 973f ce98 3c6a 8979 c83f
00000520: 1bcb 6824 7d2c bcbf 5fc7 8b4d 0fd4 babf
00000530: 5af0 c09d cd6b e0bf 8bfa 636b 4936 d73f
00000540: bc15 2fdc ed7c 86bf ce07 b5bf e7d2 bcbf
00000550: b723 e246 c62d b63f 04aa 5c25 7a8a c9bf
00000560: 8340 4f96 2f97 e9bf 6542 c697 35b3 e7bf
00000570: de75 a79d 5d8a dd3f e2d8 9379 317c d43f
00000580: 5fdb e215 dc95 d53f 7191 f09c c10b 673f
00000590: b287 cfcf 241c da3f dafd 6bd4 bca4 cc3f
000005a0: f802 6d79 248a db3f 8a8f e3e2 5b05 c8bf
000005b0: 674d 233f 7852 e0bf b8be 7319 8397 e23f
000005c0: e2d7 b173 ab19 e33f b38a 6fc5 8e11 90bf
000005d0: f12f b369 f726 eb3f 6d95 0bbd b13c e1bf
000005e0: d355 fcfe 9b9c c2bf 85ef 9bb1 9c2a 853f
000005f0: a3c0 9dbe 97af f03f 919b 4de7 8d8e cd3f
00000600: d27e 6578 b123 d6bf 4b55 e61b 4742 9b3f
00000610: f79d 2a15 1cf1 aabf aeb2 cb26 8339 c93f
00000620: b1ae 55d7 1146 993f da50 055b 9eeb b8bf
00000630: 3d45 cd43 e60d b33f f559 5bc4 a9aa d93f
00000640: feea f302 9c03 d03f fde9 c31b 3688 b1bf
00000650: a00e a563 2224 e13f 4141 5aab 060f e5bf
00000660: 103c ba0d d3be d9bf 79a8 bdab 588c cd3f
00000670: be0d 4b4e bdf5 c93f 62ba 4217 4ac1 cdbf
00000680: 6a20 d90d 2381 d13f cab6 1664 4acb cb3f
00000690: bf38 f0dd 9a51 ba3f 0d97 5966 f745 d2bf
000006a0: 1af3 4bc2 2f1c d93f 80c3 6164 0238 db3f
000006b0: 6ffe 17c7 ad52 b6bf cfee 1215 d840 c63f
000006c0: d7ca fea1 6719 adbf 527e 1840 2dc4 e2bf
000006d0: e043 6a4a 5c2f cd3f dcee 5fa7 3cfb ee3f
000006e0: 5c96 8107 3796 b7bf 9bfb ea6e 1862 ec3f
000006f0: 2ce9 832b 9765 cf3f 5533 5156 0f90 ba3f
00000700: 0f6a 7a2e 2a5c dabf 00a4 9f03 ff5c e6bf
00000710: d857 36b8 165f e9bf a997 bbcb 06bb d0bf
00000720: a4b1 7006 0f18 e03f 3ee0 cbb9 b5e7 d93f
00000730: ee3e e6fb c752 e3bf 691e 43dd d9ab bdbf
00000740: 28fe 2be3 623a b03f 1a1e a30a 1635 c9bf
00000750: d36c d0ef a3ca f03f 61c9 0934 ab4c d03f
00000760: ffa5 2d07 80bb d83f 5e58 1436 d87b d1bf
00000770: b370 164e ecbb c7bf daae 722d 498b b3bf
00000780: 1d9d e7e5 ba22 ae3f 1a8d 497c 9223 d93f
00000790: 58b2 4e4d 822f cbbf e577 170a 0b03 d6bf
000007a0: 1e23 db18 1d44 dcbf 8030 24db f9c4 a43f
000007b0: b771 f33b 9df0 b03f 2b17 bfdf faa8 c4bf
000007c0: d9b9 7e8c b080 d6bf d4ec 6a89 d4d7 ebbf
000007d0: 8ffd 519f 77fa e7bf 75de 9c5b 15e1 e73f
000007e0: 4ca7 8e9c e95a cb3f c4fd 0ca5 d4a5 dbbf
000007f0: ae6f c6f0 97a0 e2bf 3459 24a7 c947 e33f
-0.09837050841907378 -0.12694079812997278 0.16808188638977567 -0.09997317935971363 -0.09283004645598159 0.6875573992679161 0.5563117451073992 0.4716929046703906
0.17942462123186323 -0.14038213306898314 0.2765123872614853 -0.4595654050659116 0.2032599976842189 -0.12259055661337835 0.09642898488074116 -0.3300021233997084
-0.1737409057764452 -0.035318253733020784 -0.48905017921218885 -0.5405372896417561 -0.38826468713457324 0.3590788132386313 -0.4125602127229556 0.14598847659522599
-0.5687966519580706 -0.4049976941576305 -0.32507703981353075 -0.16744935443263928 0.4887630926022898 -0.3308977099833026 0.09006670271391427 -0.3123454326005882
0.062426151922203674 -0.5049219907038026 -0.06887249664840667 0.287577421890204 0.3630065102860989 0.07196040530564439 -0.2850685539932259 -0.2195072360791974
0.19148688264591024 -0.6449278093427109 0.7400516099996858 -0.01906545758699079 0.14490971261311267 0.10974927716990812 -0.14114579603346153 -0.3536999251837145
-0.15680219369755544 0.15359983116504777 -0.2516705289064055 0.37554301608018364 0.029695458169793375 -0.1642235618889913 -0.09689781555802018 -0.10429073962195361
0.24552176844188625 -0.2834538496317179 -0.3235199835534954 -0.09926081172908689 -0.036110214052114425 -0.13122314313790925 0.061320352075731596 0.9003068986222513
-0.8028760276913236 0.4033098704283462 0.09420977472076726 -0.14724919357057148 -0.041230359504268774 -0.5763884662315604 -0.5863892098005534 0.6997150551690848
0.03781024830074925 -0.008635974414130542 0.3842280492267267 -0.834862301767128 -0.630145084125394 -0.5910910900309372 -0.5304792045637973 0.1500650790317221
0.4565472438288776 -0.052975412421172874 -0.39687471248723266 -0.4124417834714466 0.05790151757337187 -0.37140313186003604 -0.42392519770280257 -0.07378225773607007
0.34404936911277556 -0.008599547283430679 -0.4129647049939744 0.3604375267120053 -0.6885780743997426 0.5681329368997109 0.5198030586644673 0.42323173741173875
-0.10397821752616718 -0.05915546642913633 0.27882539508723714 0.10814850908237761 0.37106180413906154 0.1312790893906466 0.268337443306354 -0.6091055837294115
-0.36245502309067407 0.5713244327998119 -0.10674839920226546 -0.23642791367171326 -0.3342350935131479 0.4890964424245196 0.3522408477044061 -0.26174158100784506
-1.0591664138215737 -1.1574744997425364 0.5671235897954501 -0.5999864722995752 -0.18864395506744647 0.008591065372194095 -0.2082796510440188 -0.09389979848114077
-0.13582391037599936 -0.3761119826222099 -0.3964369433007863 -0.016386933021815847 -0.04530337001726569 0.3303596613895945 0.1483971270042476 0.3578578148804745
-0.8251679882654284 0.3134449325164228 0.10160782695105104 0.18170342933709233 -0.09507124193142662 0.1411527701813384 0.4429504224142522 -0.4080511930342488
-0.16521490130721198 0.4461454005136006 0.1125909386183596 -0.17910148282841776 -1.1074534681074155 0.21532438575310434 0.0793063748996104 -0.6705673296771604
-0.33105381835423564 0.008876018552945805 0.29999664252135433 -0.2830044410803913 -0.20872435789500662 0.26470757207401147 -0.25946500594237426 0.2550881995657012
0.8984914122162498 0.2662572262568968 -0.29886578200502484 0.13526102776404283 -0.5039182356867459 0.5739785195448338 0.30910380213059174 -0.2801445354530451
-0.3701318265890302 0.7021128766318444 0.02291093999174321 0.19120900809611502 -0.11005384577655912 -0.10479827540600926 -0.5131595688940351 0.36268840300901023
-0.010980470926265855 -0.11259315901136732 0.08663596373129577 -0.19953848671259788 -0.7997053085073421 -0.740626141008829 0.4615701713172181 0.3200801551132725
0.33727171075172707 0.0028132230286407813 0.40796776098261056 0.22377739307556405 0.43030654771796106 -0.18766354158935555 -0.5100671036874872 0.580995130263509
0.5968835124647252 -0.01569197731067602 0.8485066475345758 -0.5386589710512176 -0.1454043383643425 0.010335182352257064 1.0428693242975349 0.23091291231250158
-0.345928542685198 0.02662001712595456 -0.052620771011159855 0.19706763643570951 0.02468135716246306 -0.0973452541559853 0.07443083911245636 0.4010414521739272
0.2502203015171033 -0.06848467042792801 0.5356609293161974 -0.6580842348794606 -0.4022719987924015 0.23084553132804667 0.20281187365445236 -0.232461224897139
0.27350689270361406 0.21714143645424705 0.10280769270341049 -0.28552041049111737 0.39234537100110034 0.42529353907507783 -0.08719907866179154 0.17385388401986865
-0.05683444836122014 -0.5864473583096219 0.2280078280787441 0.9681685704267369 -0.09213584836251115 0.8869745413174884 0.24528779625672692 0.10376067979195842
-0.4118752912415013 -0.6988520689748157 -0.7928575132270863 -0.2614151944711645 0.5029368520532 0.40476744789294006 -0.6038551254186737 -0.11590348865422019
0.06339090391338031 -0.19693255919831715 1.0494727485409399 0.2546794899164038 0.386444098482201 -0.2731838729972703 -0.18542245686410794 -0.07634408340043866
0.05885871941046104 0.3927961553328757 -0.2123873593785841 -0.3439357374717232 -0.44165732791275214 0.040565307617812074 0.06617148126264892 -0.16140685963744636
-0.3516045925161087 -0.8700964626254071 -0.749324618503964 0.7462260045349028 0.21371193069836136 -0.4319964992355063 -0.5821037008895382 0.6025131477825085

gru.bias_ih_l0 f8 [96]
00000000: 5932 b2be 7fd4 c0bf 6915 9a34 1ee6 6dbf
00000010: ea50 649a 29f3 cdbf e36c 9001 cc08 e0bf
00000020: e741 bb02 29c2 d1bf 8263 6c71 639a bdbf
00000030: 5716 750e 560a c8bf 45ad f9e7 5597 c8bf
00000040: 480e 318f 9e1e d3bf e11d 15f2 0ea0 c6bf
00000050: f4f1 ed0b 5e00 c93f 151e b4a7 a7f6 a4bf
00000060: 45c2 0a54 11f6 9c3f 10bc d0c9 2a8a cabf
00000070: 0312 1187 dcf3 c4bf 6c76 f9d9 eafd 76bf
00000080: 9f7a c203 ff9e 8dbf 7268 4258 a1b6 b13f
00000090: e0cd 1828 53b3 c3bf aacb a584 6307 76bf
000000a0: d2dd bde8 8eb4 cdbf 9f04 522d 95f1 abbf
000000b0: a207 96a6 29e6 a33f 3f0d 7f96 6929 b9bf
000000c0: bb06 0180 067d 80bf 811f 8c13 3063 b13f
000000d0: 9c82 9c0c 3af9 d1bf 370d e539 229e d2bf
000000e0: 9c4c ee72 c65e aa3f 3091 acdd 7026 9e3f
000000f0: 0f43 e245 8f22 a5bf 482f c820 e78f c43f
00000100: 7ea7 ec13 496f a6bf e1f3 e274 e54b d73f
00000110: 913e 832c 5a1e c43f 0bf1 cbfe 8e38 bdbf
00000120: 5e65 0350 d8da d23f 28a0 dc77 1c02 d23f
00000130: 4fb3 b562 c6e3 c1bf bed4 1e84 8d06 e9bf
00000140: 0fbf 2de8 230d dd3f 4505 0015 2b51 a93f
00000150: fa54 b460 5c85 e73f 2ef7 52d1 a491 d53f
00000160: d8fb 751f 1cda e13f ced5 ae65 b2f1 e0bf
00000170: 0f46 20a9 a5de d4bf 58a8 c8b6 43ec ab3f
00000180: f449 abd9 1c0d d73f 8930 b578 7f1a 733f
00000190: e510 47ed 72c3 c8bf adbf 979a b1f8 d8bf
000001a0: 3569 c7ca ace2 d3bf c64a 20ef e696 cebf
000001b0: e3d6 c273 9174 e63f da6f f01b e4f8 b0bf
000001c0: 5fb9 7782 b67d a7bf 41e7 5160 9905 d13f
000001d0: 8f3a d819 3d47 d2bf 6fad 6bd5 6a6c cabf
000001e0: 2ae3 eae3 0388 d2bf 1c1e 6003 675b d93f
000001f0: 828a dd0f 65a0 e73f 6c09 b41b cb32 de3f
00000200: 80e9 ba2a 0548 be3f b36f 33bf c8cc 843f
00000210: d015 0810 034f b53f 520c 6f9b ca13 a6bf
00000220: 5722 72ae 7465 a33f 8625 cdb8 ca2f bd3f
00000230: a96a 18a3 c15d ab3f 3154 5591 58e7 793f
00000240: e925 9a51 2cc1 b33f 3f1b 6822 8a05 abbf
00000250: bc13 b62f 1d9d b13f 9a45 76c5 a72c ad3f
00000260: 954e 183e 3691 9d3f 8f6f 8872 70ca 743f
00000270: a612 f270 ef47 c5bf f8f8 e94f 665c 87bf
00000280: 281b bdb8 1cf8 98bf 012a 1283 050d ab3f
00000290: 0a12 94e5 cbb9 b93f 956b 357a e52d b2bf
000002a0: 0849 a222 a45e 913f 2ca5 f32e b18f c63f
000002b0: 507c e588 84ee 8dbf 4bf1 db41 51fb a63f
000002c0: ecf4 ba7e 3761 b53f ef90 9d7a 34fc bebf
000002d0: ea36 5577 e8b1 b03f 4a52 6244 f887 a7bf
000002e0: 0b0a 0491 5a44 b8bf 7d63 1ee5 81c0 bf3f
000002f0: 9ac5 3a64 d057 8e3f e725 ba37 641e c13f
-0.1314849549420554 -0.003649767870970312 -0.2339832309595587 -0.5010738401937512 -0.2774755980181269 -0.11563703078389945 -0.18781543451238988 -0.1921183951084037
-0.2987438581805901 -0.17675959415849632 0.1953237112283116 -0.04094432756579295 0.028282423738973845 -0.20734152654901594 -0.16369206042340076 -0.005613248241926532
-0.014463417341457783 0.0691929665066782 -0.15391005952697778 -0.005378140204231588 -0.2320727001604 -0.05457750490405399 0.03886537703057448 -0.09828815387941335
-0.008050967007992118 0.06791973569136013 -0.28083659392908955 -0.29090171483786115 0.05150432732548291 0.029443515329277747 -0.04127929428171317 0.16064156628305626
-0.04381779068201207 0.36400734343243185 0.15717627690763838 -0.11414426537152537 0.29460723699374636 0.2813788576627325 -0.13976363963902336 -0.7820499020077916
0.45392701791478 0.04944738990162504 0.7350294007070766 0.33701439325146765 0.5578747381658742 -0.5295040117259135 -0.3260893012639778 0.05453693014381206
0.36017533547160885 0.00466394227562373 -0.19346462808437717 -0.39017906281423614 -0.3107101421607184 -0.2389801662071333 0.7017295132597748 -0.06629777605161227
-0.04588098852751687 0.2659667435287823 -0.28559806369677515 -0.20643363400391077 -0.289551708770477 0.39620375947603903 0.738329440104579 0.4718501825847372
0.11828644078460648 0.010156219801892385 0.08323687688251558 -0.04311974666008979 0.03788342122522142 0.11401049625160029 0.053449679526427936 0.006324144332514201
0.07716633789291162 -0.05277663869860882 0.06880361952614938 0.05698131833481597 0.028874251880621832 0.005075873611101302 -0.16625779166146976 -0.01140670710924184
-0.02438397290759578 0.052833721399185414 0.1004912791723386 -0.07101282342539002 0.016962589849364412 0.17626013557973275 -0.014615092685458603 0.044886149682471364
0.0835146603012224 -0.12103584283392242 0.06521466172599913 -0.0459592421986242 -0.09479299583839677 0.12403117984503172 0.014815929468883483 0.13373997422267722

gru.bias_hh_l0 f8 [96]
00000000: a064 647d 6caf b1bf f367 d298 568c c6bf
00000010: ba28 3215 dee0 d5bf a3d9 2033 a589 debf
00000020: e841 bbca fd49 d2bf e2cd 4907 6bbd c73f
00000030: 558b 3a7f ccd9 d0bf ccd6 fca3 f908 d3bf
00000040: 5836 de19 621a 843f e51d 15b2 c1e5 c5bf
00000050: d0f8 f695 a55d d83f e8ef 252c d606 bf3f
00000060: 669e fad5 04e0 abbf ae77 a193 bfe9 b3bf
00000070: c611 1147 290d c3bf 3f97 9f6d 15f1 b0bf
00000080: da7a c203 5337 86bf 239a 1066 0f75 d03f
00000090: a6cd 18a8 bfe1 cabf 54d2 dac3 7fad c53f
000000a0: aeee ee45 cb83 90bf 7602 a996 5566 b7bf
000000b0: 58c1 d2cc 4c02 d13f d586 3fcb ffa1 c5bf
000000c0: a0bf ffdf c9f2 a53f 9d20 8cd3 bd58 bb3f
000000d0: f004 3999 1810 c6bf 1c0d e5f9 678f d0bf
000000e0: 0b6d 4443 dbdc cabf ccdb 94c8 d300 b9bf
000000f0: 2cbd 1dba f712 ad3f a95d 90c1 5cdb b33f
00000100: 97d6 040b 7d27 cc3f ebf3 e234 0617 dc3f
00000110: 553e 83bc 8ccf c23f e00e 3441 3e32 bb3f
00000120: 6065 0350 8de8 d03f 3540 b9df 2591 ca3f
00000130: 19b3 b5a2 a001 c6bf d1d4 1e90 a0a5 ebbf
00000140: 64bf 2d48 bf5b d03f 0516 0054 cc4e 8c3f
00000150: 0a55 b420 4418 e73f 16f7 52e9 c541 d13f
00000160: c5fb 75cf f0f8 e43f 2ed6 ae2d 8058 e4bf
00000170: 0e46 20c9 e272 d1bf 052a b22d 04a5 ce3f
00000180: ce49 abf9 8706 db3f b956 3ac4 cd25 cbbf
00000190: 4288 a3d6 ed26 d5bf 8fbf 970a e126 d4bf
000001a0: 4669 c77a 7d3f d7bf 7e25 90df 408b d0bf
000001b0: b0ad 8577 b7b3 dc3f c2c7 07b2 781b ca3f
000001c0: 7fee 9d70 2fb8 c2bf cece a360 2f00 c53f
000001d0: b575 b073 3e76 c9bf 56ad 6b95 7277 c4bf
000001e0: 40c6 d567 431c c1bf 9e3b c0a6 a2f6 c83f
000001f0: 8e8a ddbf dd18 e83f f708 b45b cd14 d13f
00000200: d71a 1119 a5d4 c7bf 0405 f116 fdf6 b63f
00000210: 90f1 5f27 b258 b73f d0cb d3d8 ad20 c8bf
00000220: b529 6060 be68 a2bf c103 84f4 848a b4bf
00000230: e4e0 206b 73ff 773f 45b5 9d0b 32d1 6a3f
00000240: d786 01b1 5c22 87bf c8fe e327 b2e6 89bf
00000250: 2f9a 8617 39e0 c5bf c5a6 a171 0a24 a2bf
00000260: d5af 0036 ac56 bd3f 30a2 94fd adc5 bebf
00000270: 2613 58f7 173d c03f 74a5 1407 0a84 cdbf
00000280: d291 8ea9 c649 b5bf 621a e7eb ba15 c4bf
00000290: 1e56 5719 2e60 cf3f fbf1 789b 757e b6bf
000002a0: 1124 15e7 22e0 9d3f b9da 7527 8bab c4bf
000002b0: f398 838a 6298 bf3f 79f2 9b9b bee1 673f
000002c0: 164f 62a8 49d0 d0bf 2bbf 6aac a500 c0bf
000002d0: a3a2 0304 5ebf c9bf 744d 8b70 79ee ae3f
000002e0: 1546 7e75 e2ed d03f 2c72 eca5 b93d c9bf
000002f0: 441c 2aa3 5c6e b23f 36e0 5b8c 999e 9c3f
-0.06908300458271066 -0.17615778409964342 -0.3418498236648123 -0.4771512030887612 -0.2857660751151614 0.18546808105348506 -0.2632933847873365 -0.29742280020159906
0.009815946974209996 -0.17107411570962863 0.380715748262344 0.12119806840740888 -0.05444350349472131 -0.07778546671167305 -0.1488391491894971 -0.06617864538528993
-0.010847710182415527 0.2571447846152372 -0.21001430232864243 0.16935727179738314 -0.016127754348174754 -0.0914052479574908 0.26576538088104007 -0.16900632309175614
0.04286795482028016 0.10682283797007348 -0.17236621362284366 -0.258752817190002 -0.20986500534568395 -0.09766887328156243 0.05678533694196583 0.07756595349962105
0.21995509183914372 0.438905288359648 0.14695891575546463 0.10623540012243948 0.26419384778781385 0.2075545637512747 -0.17192466683209132 -0.8639681639530413
0.25559980438901264 0.013822170556532684 0.7217121733434919 0.26963947091631846 0.6553882648439574 -0.6358033077473857 -0.2726370777246253 0.2394108985066198
0.422273629968143 -0.2120911796707128 -0.3305010410387049 -0.3148729899830806 -0.3632501315129456 -0.2584993537171484 0.4484690348824314 0.20396336262598252
-0.14624588965294902 0.16406814783805718 -0.19892101906672868 -0.1598952512352791 -0.1336750275618659 0.1950267137731005 0.753035425889111 0.2668946643390337
-0.1861769077679216 0.08970624742598338 0.09119714223192532 -0.18849728667518528 -0.03595538069210439 -0.08023863763447904 0.0058588512929917715 0.0032735803078397818
-0.0112960092084821 -0.012647048799862573 -0.17090524338455412 -0.03543121945479081 0.1146037704317558 -0.12020385209019291 0.12686442925782976 -0.23059201570257992
-0.08315698279927311 -0.15691315191925798 0.2451226829277155 -0.08786711736406254 0.029175324777757142 -0.16148509432578864 0.123418959443004 0.002915260582879772
-0.26271287387611275 -0.1250197498206885 -0.2011525649643505 0.06041316508130992 0.26451932405424944 -0.19719620324839704 0.07199648841388845 0.02794876021559408

gru.weight_ih_l1 f8 [96, 32]
00000000: 4e66 f4fc f9ac d83f c860 8c5e e45d d73f
00000010: 9f73 da36 ea62 d33f fbac 2f5a e1bb ccbf
00000020: 2ff8 cb01 9703 d53f 4cad 6c4d 5152 97bf
00000030: acc1 c319 1f69 e7bf 8ae5 c9d7 812b e8bf
00000040: fb45 f485 d554 933f 52e2 7c6a dff1 db3f
00000050: 8fc2 d408 0220 e7bf a839 1bdd 8e8e d03f
00000060: 4475 ff09 72a2 e23f 1821 6901 3160 d33f
00000070: 3b3b b2c1 a551 ae3f 8257 6a3f f08a e83f
00000080: 1c41 0c5a 81b0 c03f a1b1 7a57 0cc0 c93f
00000090: 1e19 7d45 a476 c0bf dfa0 a70e 686c e2bf
000000a0: a3ba 96c7 cdaa f53f e2df 8a83 5b80 e5bf
000000b0: 55b1 5c33 bb30 e13f 92a2 7e31 8011 debf
000000c0: 27c9 a5d1 5a06 ea3f b39e 8ef7 58f4 d73f
000000d0: 65bc 72e7 5603 dc3f c6d6 e6a6 0bac f3bf
000000e0: 0188 3599 3c68 d1bf 99f1 b9a4 4fe4 d23f
000000f0: b0ac 0aa8 0e1a de3f 0cfb 013e db6d 6bbf
00000100: 7d74 7968 f180 cdbf 5b0d f6e3 2c26 e93f
00000110: 4500 2f3d 351f d43f cdde 9f04 80f6 c53f
00000120: bc15 d3f1 7322 b53f 8d67 4962 3f1a debf
00000130: 2f38 cf99 c72f cfbf cd25 5ac5 ed46 bcbf
00000140: 3bf9 e355 ac88 d83f ff33 65a2 023b e93f
00000150: b4e5 6575 5bde d7bf 1eca 2e42 0ace d2bf
00000160: 8005 df26 2f6b c33f c5e4 b802 2cb5 bc3f
00000170: dfa7 003f 6508 db3f 71ac e541 54ae b2bf
00000180: 9198 0e40 7fd9 d0bf b001 fa66 2827 debf
00000190: c941 d99d 3195 e03f e817 fbcf 026c ddbf
000001a0: c8df ec8c 0eb9 a43f 5195 5ea3 a5ad bf3f
000001b0: 4caf cf75 f149 9d3f 9bb7 16e3 8f00 ca3f
000001c0: 9e48 37f8 3bf5 c03f ae48 f352 d531 dbbf
000001d0: df35 3651 e2fe ab3f 0838 6168 d46b e2bf
000001e0: c701 497e 99fe abbf 366a d407 bf22 e03f
000001f0: 6d52 2e67 3592 e43f 91e2 e532 66c4 e23f
00000200: 3568 2a1a bb27 e6bf fa88 e5b5 a942 b53f
00000210: 64d5 bef3 0241 ce3f eb7e fecf f62b e33f
00000220: 7c86 fb8d ed7f d53f d9ce 6d1e e10c 91bf
00000230: fde6 e88a 7c71 d53f 486d fac6 8c61 d93f
00000240: 3b7a 09a3 f97a e53f 98f7 3401 7f53 ddbf
00000250: 1f74 b706 c69a e9bf a2eb 5852 2c9b d0bf
00000260: 8f62 9355 a569 e7bf 52b9 323d 1916 b63f
00000270: 41ea d499 c387 e73f 7ecb 32e4 50ae b9bf
00000280: d1d3 5865 0ba2 9e3f 2949 8c70 b88b d33f
00000290: fa8a 94ab c408 7f3f 6367 1e7e 46d4 c0bf
000002a0: cf01 e7a5 81ee 84bf 4de8 b9ad 1521 d63f
000002b0: d79f e00c 830e d7bf c786 250f ba29 c43f
000002c0: f132 5cc8 c592 cf3f 1679 8c27 0c3e b7bf
000002d0: 7c60 f6b2 32ab e03f 0add 01f1 b410 d83f
000002e0: 4a14 9e06 3420 e53f f0cd 8e45 6f50 dcbf
000002f0: 6194 07a7 1ea1 c83f 9c2c 54e3 6fa6 afbf
00000300: eaee f823 7f59 c0bf 3b7a 2f11 d04a a63f
00000310: c0d1 d7ac ad6d d73f edfd 9855 6bcb b33f
00000320: 5eb6 0302 ccbe d5bf 0420 d387 62f5 d93f
00000330: f03e 923e f2f1 db3f f80d b275 99eb ddbf
00000340: c7d6 c0cd 0dd1 f0bf 2dc6 a659 556d d43f
00000350: 2402 4e1a 2858 e93f 9f5e aa5f 26e8 dfbf
00000360: b3de 78da 5003 e0bf c495 c229 b042 c3bf
00000370: 86ed 8b65 e4d9 99bf 702e 4276 bb36 e7bf
00000380: 2ac2 f31d 560d a7bf aa6a e572 f59d c7bf
00000390: 2428 29cf 0313 b73f 200a 9c4f 27bd d5bf
000003a0: ad5c f5d2 5922 c3bf 62e8 7bb0 327c e53f
000003b0: 2076 2741 dc2b ecbf 07c1 9288 e506 d1bf
000003c0: 19fb 2289 21cf b43f 48e1 8d49 2f66 c23f
000003d0: 5f90 f70c 8c37 b5bf 1342 2183 90bc a1bf
000003e0: 0f6a a06d 098c c5bf 418c 9c81 3f30 9f3f
000003f0: 95a9 82dd c626 d73f 8415 4e23 e919 dbbf
00000400: becf 4464 dd73 c23f 2e2c 5a24 9eae c7bf
00000410: d48f 4a1e cca3 c2bf 499d a8f8 50fe cd3f
00000420: 84c5 c75a 0615 d23f 188e b267 aeae bdbf
00000430: 649c 5f7b c07a cdbf dfc1 7096 62d3 e4bf
00000440: e2b3 ec36 54e5 b83f 0d93 c9c1 cadb da3f
00000450: a065 269c c5d6 d3bf 8b79 1c2c e6db cd3f
00000460: ec33 51ec 0223 dd3f 9c68 cf43 f8b2 89bf
00000470: 7019 3ce0 8b1e dc3f ab75 750a 0eb7 bb3f
00000480: 7dc4 d44d 39f6 c93f a42b c671 0f5c eebf
00000490: 3733 ae69 8e65 e23f 884c 00e2 d238 dabf
000004a0: c83c bf85 e636 d3bf 86a8 3f08 a1d2 c9bf
000004b0: 167b 87f6 79eb e03f da4f c907 2810 e0bf
000004c0: 8adb 72a0 a7d2 a13f b940 93ee 6261 b0bf
000004d0: a168 a15e 8b37 e93f 6233 06a6 f2d7 e9bf
000004e0: 300f e8bf 6c2f dc3f 4b84 380f 04a3 b43f
000004f0: 7fc8 a971 b379 d0bf f9aa 304b 7bfd d8bf
00000500: 8bea ca87 3194 d1bf c798 da93 a799 bbbf
00000510: 6126 1645 f0a3 aabf daf5 7f7c 215c c5bf
00000520: b02e ca3f 4ca9 ed3f 2e77 348b fa96 a73f
00000530: 7291 1c97 aa4b dfbf cbd5 3049 964d e1bf
00000540: 53fa 9beb a2e2 c5bf 6bf9 d0c0 d419 c23f
00000550: ba27 9d80 3539 c43f bfec 1883 4de8 b43f
00000560: 1b04 7b4d 3fe4 d53f 27d3 1899 b556 d23f
00000570: 0780 fff1 1493 dabf 26af 2c68 759d bdbf
00000580: 3dcb 029b df20 e3bf 249b 67f5 60bd ee3f
00000590: 8b63 389a 1af1 e6bf 90c4 49e5 c48a d9bf
000005a0: 1e8f f694 1947 c53f 3aad 44eb 1587 dfbf
000005b0: b078 e0ae 120a e13f de85 2fe5 8a25 d3bf
000005c0: 089f 961b 094e 6abf d00e d4f1 46df bc3f
000005d0: e2f6 b6c8 d77a d53f 8f82 d277 9d29 dbbf
000005e0: b7c8 c0a1 d176 dc3f d063 65bf 68f8 d83f
000005f0: f4cb 4e16 3a72 abbf 1c34 0996 3850 ec3f
00000600: a841 2d38 464e bd3f 81b5 8408 77eb e6bf
00000610: fbef 2514 f95f e2bf 8529 e088 1cd8 c43f
00000620: ad42 bfcc 4d6e cc3f 98c4 6177 8ad7 e13f
00000630: 9fa9 fa61 32c6 d53f 334f c7e7 8c86 f1bf
00000640: cf74 7a66 d3bc d13f 36f9 deb9 8ba7 903f
00000650: 98d8 51a3 678e cc3f 7d7e 8133 2735 c13f
00000660: ca17 75b1 93c1 f03f 23a8 d6b7 923f d83f
00000670: 7d31 6d92 8053 b3bf 5d02 b115 f42d e7bf
00000680: 107f a7e0 b826 ebbf 50bc 2bf8 825c d53f
00000690: 24a9 bfa3 eabc bb3f d3dc dec9 151f d8bf
000006a0: aa0f d789 add4 d1bf 893a d363 4073 debf
000006b0: c55e 75c6 eebf f53f 9087 fd76 8347 e8bf
000006c0: 71f8 2206 837d efbf 9fcb 0e00 db50 ddbf
000006d0: 42ee 99ec 4144 c1bf c8b3 9298 8ae7 e3bf
000006e0: 8a63 f2ba cea7 dcbf 75a5 eb2a 4d16 e13f
000006f0: 1a2e 2f3b 7f7d edbf 06f8 308c 85c6 d73f
00000700: 716c 2a76 3a5d c83f 83ab 97e9 0dc0 c53f
00000710: 6f7d d2d0 2684 da3f 0b4a 6724 01d7 c3bf
00000720: cd3e edb5 5007 c03f fe7c 18d0 3922 e03f
00000730: cbeb 11df 221d c53f 95f3 7408 05dd d13f
00000740: e507 0941 f1ff e4bf 186f 4306 252b debf
00000750: 5286 90d1 2796 c6bf 1acf 94bf e503 cabf
00000760: e66c f13e 8146 b6bf bb87 0f38 96a2 ee3f
00000770: 5326 ec98 2680 d5bf 9f49 08f6 61e4 ddbf
00000780: 96ce 80b0 9e9e ccbf bd09 4043 e0cc e83f
00000790: 637a 3130 c27a d43f 6824 de70 c1b2 e4bf
000007a0: f6c1 8f08 ed85 c33f 9c3c 687e d4e3 c9bf
000007b0: c5e7 740b fbad e83f a0ec 2d95 0a78 e2bf
000007c0: 5ba5 8866 1058 bc3f 2265 bf7b d800 e3bf
000007d0: b05e c518 1c0f ea3f f089 e59a b50d e0bf
000007e0: 472c 25c9 a438 d7bf 10e0 0c09 dc35 e13f
000007f0: a085 b8ad 164a e53f 6356 2868 e668 d63f
0.38555764868360576 0.36510571702229955 0.30291228634615125 -0.22448365119576139 0.3283441083475535 -0.022774954176538117 -0.7315822127548492 -0.7553109373686067
0.018878303814807023 0.43663773917390813 -0.7226572201235103 0.2587010535470662 0.5823297686835436 0.3027460588241566 0.059216670889432575 0.7669602621633518
0.1303865136801584 0.20117334624718544 -0.1286206569004173 -0.5757332121111424 1.354200153011029 -0.6719186371983563 0.5371986392179148 -0.46981816132987675
0.8132757277183246 0.3742887895154851 0.4377038250194743 -1.229503299674819 -0.2719871040518456 0.29518500410611065 0.4703404084236338 -0.003348282058197488
-0.23049752808848104 0.785910077320675 0.31440478301010827 0.17158508516126006 0.08255695966643989 -0.4703520259696397 -0.24364562044360258 -0.11045728748481239
0.3833418692373873 0.7884534045966801 -0.3729466101136396 -0.2938256880108002 0.15170850179678652 0.11213946405850368 0.42238742020219705 -0.07297255142991489
-0.2632749677235405 -0.47114000374133536 0.5182121355992929 -0.45971746740940356 0.040474371626657624 0.12374339331161834 0.028602383437756715 0.20314215267484034
0.13248395557326814 -0.42491658306711144 0.05467898599009024 -0.575662807337495 -0.05467681566779308 0.5042414811062546 0.6428477301838719 0.5864745134450279
-0.6923499594734098 0.08304844561419947 0.23635899449952114 0.5991167127976643 0.3359331022785239 -0.01665069339965339 0.3350516659298675 0.3965789740702417
0.6712616142575095 -0.4582211982523119 -0.8001432543929957 -0.25947101632817227 -0.7316462203408082 0.08627469772429677 0.7353227619672184 -0.10031610080004147
0.02991502576897515 0.30540286055578975 0.007576721423250938 -0.13147812994139504 -0.010220539927900866 0.3457693287415438 -0.3602607370144119 0.157523400684161
0.24666664393625795 -0.09079051938576685 0.5208981986388745 0.3760197022997579 0.6601810578582754 -0.44240934174305746 0.19241698413603373 -0.06181668901452861
-0.12773122078384996 0.04353952607901986 0.3660692394180636 0.0773226818064285 -0.3397703189537874 0.405602104798618 0.4366422282264315 -0.4675048493738525
-1.0510385548818009 0.3191731811049035 0.7920113099826875 -0.4985443052514515 -0.5004047648462432 -0.1504726604372718 -0.02524525518218248 -0.7254311856972446
-0.045023623615524436 -0.18450801954425816 0.09013389403949695 -0.33967001699798693 -0.14948580551820126 0.6714108893350039 -0.880354048971359 -0.2660459359858724
0.08128556821882817 0.14374343005671109 -0.08287883106783188 -0.03464175797183002 -0.16833608486997817 0.030457489286288334 0.36174174911379825 -0.4234564633155389
0.14416091342866183 -0.18501641058932833 -0.14562369803490915 0.2343236173776211 0.282533253338521 -0.11594667464901709 -0.2303085901650973 -0.6508038461961937
0.09724928227360821 0.4196650402503089 -0.309983637323592 0.23327328828686364 0.45526192739344995 -0.012548389024164934 0.43936440370489205 0.10826194529859971
0.2028266553911954 -0.9487378332281549 0.5748970092841778 -0.40971824713160077 -0.3002258592723135 -0.20174038794295174 0.5287446799301019 -0.5019722129895812
0.034810293518083915 -0.06398599934186934 0.7880303238155372 -0.8076108210239961 0.44039458027713163 0.08061242457962796 -0.25742803668902775 -0.39047129004272524
-0.2746700121021283 -0.10781333312715723 -0.05203200190869662 -0.16687410906881334 0.9269162412542382 0.046073750965872726 -0.48899330861083634 -0.5407210759646487
-0.17097889427528176 0.14141330160959895 0.15799587993597958 0.08166965914363099 0.3420561081548514 0.28654231978298345 -0.4152271617185765 -0.11568387788127818
-0.5977628734166057 0.9606175225315821 -0.7169316303362491 -0.39909479514523927 0.1662322976454726 -0.4926199719945604 0.5324796119273483 -0.299166415990923
-0.003211038387877955 0.1127819385911224 0.3356227359871423 -0.4244149847163862 0.444752128564811 0.3901616925336926 -0.05360585710823065 0.8847926073445964
0.11447562095168584 -0.7162432829260724 -0.5742154496688266 0.16284519847279114 0.22211620805184876 0.5575611430814602 0.34022197311665 -1.095349221596689
0.2771500111355864 0.01626413652388089 0.2230958507022407 0.13443460478719152 1.0472599918298209 0.3788801951692468 -0.07549289297930346 -0.7243595527325614
-0.8484768283633191 0.3337714599173909 0.10835138795633675 -0.376897284640518 -0.27860582791276534 -0.47578439472719275 1.3593585731777449 -0.7587296794920224
-0.9840712661605392 -0.4580600262226486 -0.1348955540923829 -0.6220143299047942 -0.4477421594288492 0.5339723432818305 -0.9215694576209359 0.37149180117182856
0.19034510392961893 0.16992353349573017 0.41431589501185945 -0.1549989154578529 0.12522324450627878 0.5041779579513841 0.16495166675653503 0.27911496950019316
-0.6562429685802696 -0.4713833390394355 -0.1764573834671404 -0.20324394087366998 -0.08701331888862604 0.9573470206198559 -0.3359467023261448 -0.46706437136267626
-0.22359069460218411 0.7750092805366006 0.31999258715032947 -0.6468207554290872 0.1525245944790325 -0.20226532146668752 0.771237871528904 -0.5771534837398526
0.1107187509848208 -0.5938532273241075 0.8143444522674681 -0.5016735101056025 -0.3628322567280446 0.5378246475947908 0.6652940171226653 0.3501525895274879
