results/Genotyping_GRU_Long/models/checkpoints/4/Genotyping_GRU_Long-4-1150.pt (torch_old, 86967 bytes, 10 tensors)

gru.weight_ih_l0 f8 [96, 10]
00000000: 0461 3d37 f5b4 dabf cc8d f465 ec9e d1bf
00000010: a994 2f79 2d16 d43f a627 0171 9422 cebf
00000020: 9c1e e83f 73cd eabf 3a5a 98dd 04cb ddbf
00000030: c29c 69c0 fe6c b53f 75f5 a315 bb3a e83f
00000040: 4596 0713 4702 eabf 058d a191 eab8 ef3f
00000050: 8636 36fb 1d3a e4bf 0208 f4ea 7b22 df3f
00000060: b651 243e 5a31 cdbf 36ab 8fac 1c7e dabf
00000070: 049d c1eb 5fcb d23f c938 8a11 0ee0 d8bf
00000080: 4271 607b b1e6 903f b2ab df5e a3ce b1bf
00000090: 4fe3 5ecc 8257 dcbf 6d22 96d4 d5fc fd3f
000000a0: 9d5c 9894 1ace d93f 7028 b77a 4b91 e3bf
000000b0: 36db 2ba7 a606 a23f a8c2 ef10 0f59 ae3f
000000c0: fb6e bfca ff1b efbf 7c9f 67e8 c9d1 b63f
000000d0: edc2 4a47 09e0 dd3f 7bf0 5153 b4ba d3bf
000000e0: eb73 c17c fa4c d8bf d60a fca0 6143 f23f
000000f0: 2687 fcc6 8fec d13f 1634 8ae4 909e d13f
00000100: 343c fff9 d391 d5bf 9120 4c05 d008 ddbf
00000110: d270 ffc2 8dd1 fa3f 09be 0a1d 0a4b d73f
00000120: 2447 680d f475 a73f 4553 0bf0 764e c4bf
00000130: f4af 6626 c18c af3f e3ef adf7 be49 d33f
00000140: 3c40 4d14 dc86 f4bf 6dae e91d 45c0 ce3f
00000150: 3895 8a42 46c6 b2bf 77ef 0947 e71f dd3f
00000160: 8b8d 9e09 1dc6 d2bf 1d2f ed74 57f7 853f
00000170: 6010 262f 0ff5 e0bf ddd9 a1ce ac01 a5bf
00000180: 9a6e c5cf 4b67 c5bf 28a5 05b3 ce45 03c0
00000190: 65f0 df76 d4cf b63f 3958 73c8 9abb d1bf
000001a0: 9ef8 d936 ca8a d0bf 8848 182d 6ef0 c33f
000001b0: afff 6537 95fb f03f 0c06 38b1 1c3a d13f
000001c0: cd4f d21a cdc7 db3f 4269 d6a6 f2fd d5bf
000001d0: 752b 822a 3b9f cfbf 7dfe c9a3 2cff fc3f
000001e0: 8d25 57af 426f a6bf 7771 38c0 0aaa d1bf
000001f0: 3aac e498 c4f0 66bf cfff edc2 8f83 ae3f
00000200: 348e 2161 ec3a c13f 308e 2bb0 2223 d43f
00000210: 7129 c37b 415b b5bf a62a 2a27 537e d9bf
00000220: 6f06 c695 ed96 ea3f 58f0 b149 eef0 ef3f
00000230: a492 cc7d 5f5f d0bf 0f8e 1f01 d537 d2bf
00000240: 60ae d954 c665 bebf 6841 3c00 7513 afbf
00000250: cd58 6d43 0758 c1bf 3f16 9e48 904e db3f
00000260: 792a c9c4 4d65 a9bf b7fa fac7 e60f e8bf
00000270: 343e ead9 e09f e3bf 813c 5cc1 6b7c f7bf
00000280: 6f05 a562 2d40 d4bf bd8e 9414 ce57 d7bf
00000290: 20df 4ae5 1d9e d53f 2074 3b10 bb24 d53f
000002a0: 81ec 8200 83d9 07c0 7a6e 1bfe 11df e9bf
000002b0: 0217 f0f4 39d6 e4bf 7643 5643 266e d83f
000002c0: 8541 59fb 2cc3 d93f f354 4e46 951c 0ac0
000002d0: 13dc bdac 62c7 debf b274 154e e317 bb3f
000002e0: 34fb f5b1 66e3 c53f eec7 2e72 890c e33f
000002f0: f73e ea05 0ad9 c3bf fda4 7112 2b63 e4bf
00000300: 0062 2523 d099 9d3f 5b27 2c5c 4bf3 e33f
00000310: 4833 e769 31c6 b3bf 57ef 5c11 0e75 e23f
00000320: bf6e 4ebb 398a da3f 224e e8cb 30c1 c2bf
00000330: f3a0 0b2a e84b c83f f1c1 9b99 c935 d9bf
00000340: ac05 5282 c5d8 e3bf 2e49 f97a 1fac 90bf
00000350: 2abe b566 af6c c3bf 848e fd34 3b4f b13f
00000360: c14e 9fa7 4129 babf 8921 5e82 fe82 e1bf
00000370: 3c3c 56b5 9d67 e13f 4af5 22bc 04da cc3f
00000380: 03f4 b210 6a73 b5bf 6248 ddfb 4d84 aabf
00000390: 40e4 f90c c492 e1bf 1675 e270 d384 d23f
000003a0: 0754 6488 9936 e0bf 72e9 96d6 3b92 de3f
000003b0: b41e 874f d3f4 cb3f 0b67 1551 98d7 fd3f
000003c0: 7da5 d0a5 2eeb c3bf 16f9 1109 6fb2 e3bf
000003d0: 158a 361a 518b c83f 76c0 19d9 be86 c63f
000003e0: 2f4f ad61 e2ed 04c0 015b 1aab 75f5 d2bf
000003f0: af92 eba7 446c a83f 073d 52af 48c3 d7bf
00000400: 0580 c8ff eb17 ca3f 9909 6842 79ec e4bf
00000410: b002 7773 638a 8fbf bf73 dd32 5d21 b73f
00000420: d844 1d61 0901 c5bf 1a9d 1af3 d79e c43f
00000430: 9cf1 15f1 3761 e83f e89d be36 0cdc e33f
00000440: 8c5e 05f3 7184 d6bf c4aa 531f d8a8 94bf
00000450: 530b f5fb e14d b8bf 7991 53b7 5d0f e03f
00000460: 01e4 48fa 794c e33f b8e6 05ee 4dad f2bf
00000470: ca92 cb14 97d6 d73f e295 6998 11e3 c5bf
00000480: 6391 e5d9 be10 e8bf 1c35 9ab5 e27c d1bf
00000490: 3cbe e53b bf5e d53f fd3d 8688 2690 e1bf
000004a0: 93c3 6a40 a611 aa3f 4d55 c0f2 48dc f7bf
000004b0: 95a4 6b8e 69d9 d13f bea6 612e 2dc3 cbbf
000004c0: a41b c832 b333 8d3f 4c88 690e e8cb 9abf
000004d0: c79b dd8c 6ecb fbbf 8e9f 44dd ac59 d7bf
000004e0: b109 516a 9973 e13f 73bd 75e3 6522 cebf
000004f0: 9856 7f42 d31c d53f 6b4b 4219 edec f93f
00000500: 83ee 2071 c983 23bf 7ffe b81d d7d4 d9bf
00000510: 9752 4fe4 d33b c2bf 8ac4 5546 6fe1 cc3f
00000520: 0781 0ebd 53fb e9bf ae5f 3382 57e0 df3f
00000530: 713b c9ab 207c ba3f 194d 1d85 0347 d1bf
00000540: b805 d12f 8737 e4bf 33bb 320e 3801 0040
00000550: 81ff f826 25af bbbf 4c0b 0ec2 1f35 84bf
00000560: 7801 95d3 5bc4 b63f 91aa 56d2 b3ae 84bf
00000570: bcd3 b1a4 80c0 d33f 12b6 8356 baf7 bc3f
00000580: 2f31 d411 1445 d5bf 5ce2 7b36 b2a0 e23f
00000590: e59a b10b 42b0 e2bf c25a 569b a477 e23f
000005a0: 609a ae3d e6ac c2bf af5c ee1b 3151 e5bf
000005b0: c40d 1853 280d c13f 4f68 7e81 eb17 e23f
000005c0: 95c5 57f7 054e ebbf 22c7 194e 33ea dc3f
000005d0: 6b98 2d8d fc88 acbf d6f7 9fb3 c4e5 d23f
000005e0: 0ce4 7dce 4ea0 dfbf 9304 19f8 638d e13f
000005f0: 0046 b14e 91c5 cfbf 65bb cf59 d61e c63f
00000600: d7e5 67aa 5c3f b43f c1ce 2efd 7bf4 c53f
00000610: 3a45 52ae 9d35 e13f f381 5bc7 3023 b13f
00000620: d910 f78b e8de d6bf bd1d d7e7 17f1 cc3f
00000630: 036f 604d 5d90 d83f de5b a10e 0807 fabf
00000640: ce44 da85 ea6f dabf 8e7e 657d 0b4d 853f
00000650: 162b 8c24 1ee7 c1bf 9fbe c871 db9c d33f
00000660: 7fdb b693 8f8c 05c0 35f0 750c f98f e43f
00000670: ce8d f510 3419 ebbf 80db 059a c5ae ac3f
00000680: 84eb b140 9d19 d9bf 3452 51ea 6231 f0bf
00000690: 5c02 f7cf 8e3e d13f db80 5a58 4c67 9abf
000006a0: ea99 0195 fbb7 e43f fe39 69d4 3b49 d1bf
000006b0: 873c 7c5d 3bb5 f6bf a2e5 74ba 7aae ba3f
000006c0: 0810 3ee5 7058 ed3f b6fd e23c be46 95bf
000006d0: bf7e 85ca 95bb e0bf 7e0f 3b6a 4e47 ffbf
000006e0: 1f18 9824 2ee4 d4bf debf 69c3 d2a8 e6bf
000006f0: ad8d d906 9f05 cb3f 71da 56e4 28ad e03f
00000700: 7ed7 d2dc a660 ec3f f04c fbae 021a c73f
00000710: 1a6c d27c 814e d13f 397f 8339 1dc4 d9bf
00000720: d8c6 d671 d533 e9bf 6060 c085 c6dd 0740
00000730: b555 eaad a30c dc3f 7029 c4ea 6855 d9bf
00000740: 1f4e 525a e492 a43f b44d 3eae 68c3 d83f
00000750: b812 ce58 881b f5bf 090b 2739 06ac 96bf
00000760: b933 c971 7775 d03f 4fc5 3301 94d5 c1bf
00000770: ad8d 2916 0541 d33f c2d0 c554 8693 d13f
00000780: d854 f135 0319 de3f da53 46eb baec d7bf
00000790: c866 ef1f fedf a0bf a610 0224 d084 a63f
000007a0: 4f61 4907 4e50 fc3f 5baa fc1c ed32 a1bf
000007b0: 9460 1621 f56a e13f ab0b 4362 8a84 d43f
000007c0: e9cd e60f f464 d8bf c7b4 09df 6a76 0540
000007d0: 962b 8a2a e170 cf3f ebe3 9244 a040 dbbf
000007e0: 1372 2557 6afc c33f 040b 2cf2 b8b7 d8bf
000007f0: 6f02 d604 495f f7bf 92d6 bb8a 4e34 81bf
-0.41729479212291687 -0.2753249164254299 0.3138536151366887 -0.2354302932529297 -0.8375793693712299 -0.46551629676961037 0.08369438359806039 0.7571692869820895
-0.8127780315086929 0.9913227886540034 -0.6320943743209717 0.4864797396149926 -0.2280686191012486 -0.4139472661178617 0.2936630060489309 -0.38867522919543923
0.01650502505809582 -0.0695592981934812 -0.4428412433440387 1.874227362075682 0.4032045794605866 -0.611486186674723 0.035206993014006135 0.05927321511979261
-0.9721678695600241 0.08913862155861624 0.4667990871630952 -0.3082705320046057 -0.37969839270755185 1.1414505279978377 0.28006357605237253 0.2753030998072189
-0.33702563680430164 -0.4536628772480152 1.6761605851270827 0.36395504795197603 0.04582178748763813 -0.1586445495692265 0.06162074655307484 0.30137609660573456
-1.2829247277295641 0.24024261437022024 -0.07333792805237216 0.45507223069557007 -0.2933418840350092 0.010725672965825656 -0.5299144669411469 -0.041028404449139556
-0.16721484799460457 -2.4090856538865815 0.0891087331983172 -0.27707547736406785 -0.258471063199872 0.15577485277077963 1.0614216007233883 0.2691718798306233
0.43406989688196235 -0.34362474720696323 -0.24704684806450997 1.8122984312066415 -0.04381760015855738 -0.2760035397675646 -0.0028003539838628274 0.059597485108497154
0.13461069815376592 0.3146445007716663 -0.08342370292226577 -0.398335254904547 0.8309238362564438 0.9981604995114237 -0.25582110676831804 -0.2846577177972173
-0.11874045917073195 -0.060695320395214136 -0.13549891273823392 0.4266701420932328 -0.049601011535362845 -0.7519410997263866 -0.6132663971092769 -1.4678762009750985
-0.3164170707060156 -0.3647341919879457 0.33777568237154476 0.33036686501674417 -2.981206897731284 -0.8084802592306481 -0.6511506828253177 0.3817229898059432
0.4025375799729079 -3.2639565937666872 -0.4809195219926902 0.10583325058310569 0.17100223245139434 0.5952803831225972 -0.15506100930041786 -0.6371054992897879
0.028907062668936945 0.6234490204089796 -0.07724293551946204 0.5767889346238729 0.4146866158641664 -0.14652070957582547 0.18981649449347734 -0.3939079284746461
-0.6202113671608251 -0.016281597023700183 -0.15175430789121097 0.0676152233477812 -0.10219202368107984 -0.5472405000919461 0.5438984433875542 0.22540339647631874
-0.08379233272258095 -0.05179065417782237 -0.5491657498779503 0.2893570520771659 -0.5066650070099293 0.47767539936071224 0.21840897925561864 1.8651354949310555
-0.1556146917003324 -0.6155314614441376 0.19175161151822864 0.17598710632910625 -2.6161544447912983 -0.29623166760704583 0.0477010207157823 -0.3712941848870774
0.2038550375882552 -0.6538664147376948 -0.01540067382927765 0.09035284511396834 -0.16409413568411568 0.16109752054510623 0.7618674954133442 0.6206112927656564
-0.3518338082553576 -0.020175339614904045 -0.09493839646624495 0.5018757420153143 0.6030855072377791 -1.1673106477523287 0.3724725440099915 -0.1709920877648719
-0.7520441299243824 -0.2732474111042664 0.33390789841994084 -0.5488464991084921 0.05091590439167883 -1.49128050636985 0.27889479549646384 -0.21689381375045075
0.014258766162141452 -0.026168466453221392 -1.7371659758152747 -0.3648483429737944 0.5453612400527189 -0.23542474371377473 0.32988435262573423 1.6203433024099592
-0.00014888605125117438 -0.4036157408008662 -0.14245079658453072 0.22562972006156584 -0.8119295780670946 0.49806773867521315 0.10345653718944249 -0.26995933532198674
-0.6317783292690171 2.0005951985580395 -0.10814125253182107 -0.009866951093277308 0.0889336959417103 -0.010098843437693435 0.3086244209619584 0.11315502750559173
-0.33234121075726625 0.5821162284983745 -0.5840158680337849 0.5771048578197553 -0.14590147029703626 -0.6661611123589831 0.13321403558084743 0.5654199151206373
-0.8532743292727668 0.4517944586469743 -0.055732624276786456 0.29527394811145535 -0.4941594139596084 0.5485095830591881 -0.24821678488164878 0.17281607995343076
0.07909182701396077 0.17152356970256302 0.5377949146951899 0.0669432150566605 -0.3573552481505096 0.22610758610083606 0.3838113074905182 -1.6267166682716758
-0.41308081695121934 0.010400857700630508 -0.13986565384433253 0.3064488040135788 -2.693633226411691 0.6425748103497485 -0.8468265849336889 0.056020903636571084
-0.39218837087508285 -1.0120572236093155 0.26944322880811966 -0.025784676449462345 0.6474588308599867 -0.2700948309256147 -1.4192460681695438 0.10422484447635452
0.9170460202590229 -0.020777676073292027 -0.5228985743996971 -1.954908766711895 -0.3264270169605669 -0.7081083122884555 0.21110904535735867 0.521137662863863
0.8867983162842703 0.1804812769320061 0.2704166144337151 -0.40259485832756386 -0.7875773642938055 2.9832888078054083 0.438271446074704 -0.39583800245659173
0.04018319704587391 0.38692681327776346 -1.319221827406336 -0.02214059566336871 0.2571695910635828 -0.13933038767531022 0.3008434978894126 0.27462919500909433
0.47027664440004235 -0.37382386184736804 -0.032958928488097394 0.043982033153072295 1.769605663741533 -0.03359166125149634 0.5443063398588657 0.3205896339024387
-0.3811617045678007 2.6828210282170377 0.24563231064925323 -0.42581946083697514 0.15614060645283753 -0.38621352815259535 -1.460762995615507 -0.00840054856187614

gru.weight_hh_l0 f8 [96, 32]
00000000: c9bc 940d d962 e2bf 371b 89e2 97fe db3f
00000010: 894a d0a3 e485 ce3f 973f 596c 6f9a c9bf
00000020: 2a3d 4086 f6b1 973f 93fa 4ce2 8d4c cb3f
00000030: 5391 cdbb 51d9 c33f d634 3844 2f7e c8bf
00000040: 1d93 13d9 a792 cf3f 589a 25f1 2a75 afbf
00000050: 34ea 63e8 8940 b9bf 381e 564d 40bb d1bf
00000060: 85c9 f1ba c053 d4bf 755f 01d8 f73d 8dbf
00000070: cc60 cebf ccc9 acbf 8093 1c49 0db2 c23f
00000080: e5b8 3423 f03f dd3f 8c45 edaa a09c d13f
00000090: 387b ab40 1a1c ccbf f2ea 1d2e 56bf ba3f
000000a0: 547e a1a4 667d a33f 8b17 a8cf 577d d43f
000000b0: 336c fcb8 8da7 d6bf dcc0 bc5d b4a9 cdbf
000000c0: b5fd 137f 564c c03f c91d 089f e117 c73f
000000d0: 27b1 bb84 c376 c9bf 33cf 4b8f de44 b33f
000000e0: acf2 4be9 138d c8bf 4265 3e08 35f4 e8bf
000000f0: 20eb 9e0c 7161 bb3f ae0d cf6f 0087 d6bf
00000100: 870a 8ef8 2060 d53f 4726 3d20 9ffd cfbf
00000110: f11b a81a ccb6 b1bf 6004 fd9d a65e d33f
00000120: 70a3 e203 501e d03f 78f2 30ea ef65 c63f
00000130: 5773 c7e7 4e11 da3f 2af5 f372 4b68 c4bf
00000140: 3ee0 b26d ca1c bcbf 21a2 bb83 186a c73f
00000150: 74ad 3017 eb15 d13f 2b2a a692 8bb9 cbbf
00000160: a913 f2fc 43fa d23f 150c 714b 4740 e1bf
00000170: 8b8e 72b7 74fa bdbf 5eb7 aaa5 590c cc3f
00000180: 78ef 755a 0e73 943f 1082 ad84 9c53 dfbf
00000190: 7507 1b03 0fff b43f 31fa 535f 63b3 bbbf
000001a0: 2705 3780 6d32 b33f a93a b166 7d20 b63f
000001b0: f085 f19d 91a1 d6bf a119 3d61 7c5f 94bf
000001c0: 52ec e9b0 7b98 76bf 1ec7 6066 35c0 d93f
000001d0: 053c 078e 081b b4bf deca 1a5c b806 a0bf
000001e0: e626 dd01 2129 d23f cfaf b213 086d c5bf
000001f0: 245c 9363 89ae d1bf c154 3eee f208 c13f
00000200: 3ad5 8637 986b d73f b349 578a 0d57 c3bf
00000210: bf7d 32b4 8812 cabf 7cbf 59b9 9257 da3f
00000220: 1d13 9d51 b285 d5bf 08e4 2976 fe9d c23f
00000230: ca98 0bad 0954 c9bf 25f3 88b0 87cc b33f
00000240: f65a e788 b5f3 bd3f a032 fbac 8e40 d8bf
00000250: d4ab 28e6 9882 adbf 819c 2bd3 4aee a43f
00000260: c99c 2912 524f ccbf 4fe7 4988 47b9 dcbf
00000270: c63d 197e fe3c c4bf 68cd 6b18 9e91 ccbf
00000280: a1f6 1e09 3b2f e03f ee32 1c1a 68f6 b73f
00000290: f8f1 18a0 f629 c03f 7e0d e015 d230 c5bf
000002a0: 4311 3261 4151 d3bf cd84 cf9e 5607 d43f
000002b0: de89 a374 826a ba3f 49d8 0e15 78a7 d7bf
000002c0: a5fc 3831 ec51 d4bf 0cb1 f19b d9d3 7b3f
000002d0: 63f6 89d8 7109 85bf 263a 4e18 2788 b93f
000002e0: f024 ceec a84a cb3f 21ae 149b 1a7f c1bf
000002f0: b6d0 e537 2455 a23f 36f9 d540 20ce e13f
00000300: 67c4 d19a 88f2 ddbf 0a5e 2ffd 5bd0 d83f
00000310: 5f62 fe68 2edc d7bf 5654 befd 6a8d d63f
00000320: c34e a5b4 bacc ee3f ff84 f09f 348d eabf
00000330: 3398 4d7e f8c4 cebf dc8c 5cee 592c ca3f
00000340: e997 53dc 5710 dabf 1124 1ee0 529f c23f
00000350: a424 309b a833 84bf 1914 fbd2 ac93 d6bf
00000360: aba9 f326 23c4 e5bf 1fc0 a307 9048 bc3f
00000370: f4f9 cf60 aa9d dcbf 0385 8bd3 017c ddbf
00000380: ac0b 9529 21d9 bb3f f266 df91 da18 c2bf
00000390: ddbe e7cb c001 ea3f 67f1 5f9e 78ca ec3f
000003a0: 540d ccf3 87e7 de3f 23ac 8d29 2e64 a7bf
000003b0: b943 2c4c ca8f babf fd2b 000d 2127 d6bf
000003c0: 6bb6 3866 8d35 ebbf a4b5 dae7 c6d5 e0bf
000003d0: d122 3090 40aa d13f b4ad be6f a1ba ebbf
000003e0: de00 91d4 b6f9 d43f dffb d3d8 011d a33f
000003f0: d831 3c88 51fb c73f 1fc6 1103 1582 96bf
00000400: 57b3 717c 0123 c9bf 7a5f 79e0 ed05 e5bf
00000410: d7ce 1a5d 63fc a43f 3183 58d7 f1d6 cebf
00000420: 577b f74e 4739 ddbf 5761 1c95 a4c0 9d3f
00000430: f2a8 062e 01ae e43f 7217 41aa bc76 b43f
00000440: 0ff8 3cd4 f1db ca3f 4e30 2146 5508 e1bf
00000450: ca46 dd70 f4f9 d43f 155a c579 73d5 ba3f
00000460: 04d0 f928 d8d9 e03f 7cd4 e969 cd07 b43f
00000470: 6942 5480 e64b d13f 7f3e 9712 146a ed3f
00000480: 38b7 f4c7 1eff d9bf ade3 334c e91d e0bf
00000490: 5d6e a1e0 7376 d53f ef08 588f 7951 cb3f
000004a0: 90d8 d6d6 2e5f debf 1406 c5fd 64af 6fbf
000004b0: 54a3 5725 93ac ecbf 6409 3836 7264 d13f
000004c0: c8eb d2fb 91b3 c53f 9b04 8744 8a20 d73f
000004d0: 6b76 3a8f 14b0 e33f 4b46 b3b2 e8a2 b7bf
000004e0: 7348 9c6e f8f2 e3bf fa64 01a5 ffd1 f2bf
000004f0: 8a02 1d2c 5544 d7bf f9cc 8cdf 46fe b13f
00000500: 9272 1a70 591a ec3f 6b59 ca09 a4ac a2bf
00000510: 5c01 3dc9 03f2 b0bf 231f 5e30 9cf1 c63f
00000520: 453a 322f 1fd5 c43f 1098 1b0e 764f 6dbf
00000530: 9bd4 5677 8f27 c13f 03ac 04d7 9bd8 c23f
00000540: 13a2 8137 b1a3 b0bf 04f6 737f ec05 c9bf
00000550: a23d 69fb 6ea8 e13f 3f99 a433 481a b83f
00000560: 4bdc 2bc8 f4a5 cdbf 0f96 0d85 1609 cabf
00000570: 840d f394 af2e b6bf 2431 361f eff2 ae3f
00000580: ff4d c9b7 cea1 c73f ae37 8887 078e ebbf
00000590: 09c1 5997 952f d0bf cc80 b154 f80f ea3f
000005a0: e651 192e d780 89bf bf11 8fd1 9b3b d23f
000005b0: f9ad 5d14 e67b a43f d019 d493 788f 92bf
000005c0: 3247 35a3 aca1 863f 488a c97e a15b c9bf
000005d0: ddbb 36e9 9f61 a83f 859e 93ee 74f9 efbf
000005e0: 39e0 84f7 8570 c3bf 3de3 d19b ad5b e0bf
000005f0: ac52 0866 85cf e8bf 55d1 0bf5 e111 b03f
00000600: 9376 34da a1c9 bb3f 4c7e fcc4 e2b4 d43f
00000610: 7016 22e8 328a d6bf ed2d 95a5 d298 a8bf
00000620: d338 b324 2984 80bf 4dc7 1017 ce35 a63f
00000630: 6fdd 8d86 7b22 d2bf e7eb 9c69 71de d1bf
00000640: 21ea 3f86 0e90 c2bf 1f0f 4fd8 b61e e43f
00000650: d2bb f709 07c0 c7bf 95f1 8618 0de7 eabf
00000660: 0e36 3a03 a46b c23f c422 78a5 967e 93bf
00000670: 414b 82b9 20af d93f 8130 b1c9 41a7 c43f
00000680: afac cf59 5393 d3bf 5069 1c58 3f7c d73f
00000690: c62e d07f 0f86 bf3f 60da 810a c127 c6bf
000006a0: 33dd 90b0 e791 c9bf 17e1 b09d 9309 e3bf
000006b0: 8382 a806 85bb d6bf 9458 e9df ab57 a73f
000006c0: d759 5fc6 7ea3 b4bf f622 b61b a82f 653f
000006d0: e9c7 e802 79ff 8e3f ca91 84a4 9f89 903f
000006e0: 973a 1598 6a87 dc3f 7f3f 3d0b 8e19 b8bf
000006f0: 73a0 104d c5d2 c33f dc2a c908 fc41 a2bf
00000700: dbe0 2e98 c137 e13f 60d0 5839 9919 bb3f
00000710: 8bac fe80 2dad d83f 9d4e 6755 4ff1 b23f
00000720: d377 94ca 1aad d63f 42ae c434 21a0 8c3f
00000730: 71e8 0a9a f05c ea3f edf7 77ed bfba b63f
00000740: 5769 cd67 a06a d43f 3926 6679 05cd 90bf
00000750: 40f7 c572 61ae b9bf cdb3 dd83 c918 d13f
00000760: 1bc8 f155 251d b03f efd3 0b95 73fe c9bf
00000770: e2fa d611 85cd b9bf dff0 5e17 8f7c c53f
00000780: e42b d197 b9ba db3f 02f1 2357 aacb c6bf
00000790: 077e dba8 1967 d3bf e710 ef4d f27f bd3f
000007a0: 371b 5c9b d95c c73f 4932 0829 ba72 b13f
000007b0: 0d8f b5ce 3bef d6bf 675a a406 13f6 c1bf
000007c0: d42a c85e b104 c73f 41d6 bcd8 a59e c6bf
000007d0: 497d 22a5 e419 cc3f e8da 375a f56d bf3f
000007e0: 3f5f e0e4 5ac0 dcbf c3d3 e826 7590 97bf
000007f0: 3d59 ce30 0601 cc3f b6a7 6980 842e 8e3f
-0.5745663895849243 0.43741414187063604 0.2384610938903118 -0.20002548971615106 0.023139812416102114 0.21327374982680122 0.15506955785816476 -0.19135084944756525
0.24666307544171043 -0.061440793930888915 -0.09864103244391559 -0.27705390503294636 -0.31761186844155304 -0.01427835109659246 -0.05622711030372471 0.1460587126722679
0.4570274680908269 0.27518479053568323 -0.21960762174327342 0.10448206544780783 0.0380661083188413 0.3201503303429198 -0.3539766603950653 -0.23174147202508422
0.12732964711174835 0.18041630044193216 -0.1989368818389121 0.0752696132511204 -0.1918053521293549 -0.7798104439745333 0.10695559080242534 -0.3519898502238118
0.33399223587927235 -0.2499274165550551 -0.06919551516340029 0.3026520293097459 0.25185013179230165 0.1749858754646032 0.4073064101665315 -0.15943282235085948
-0.10981431177322151 0.18292528564713087 0.266962788244846 -0.21659989033317237 0.29652499868125887 -0.5390964959591452 -0.11710290411661554 0.21912689770891353
0.019970154067308482 -0.4894782348328883 0.08201688600368391 -0.10820599629730833 0.07498821621176842 0.08643325574051154 -0.3536113779465202 -0.019895499644258078
-0.005516513031234531 0.4023564815316706 -0.0785374972103768 -0.03130127071690024 0.283760310955229 -0.16738987886253517 -0.2762778732698641 0.13308560021383722
0.36594205305603433 -0.15109414343767255 -0.20369061278050357 0.4115950403274764 -0.3362851902968929 0.14544659394940163 -0.19787713002660318 0.07733963069854306
0.11699995605827582 -0.37894026653956736 -0.05763700303608457 0.04088052585375924 -0.22117067229121393 -0.4488085585540959 -0.15811139256628176 -0.22319389526783628
0.5057654550689287 0.09360361707167517 0.1262806207395355 -0.1655523878872422 -0.3018344353843256 0.31294789799546835 0.1031877074015379 -0.36959650093502155
-0.31750016028304123 0.006793832813041922 -0.010271920605414658 0.09973377555272886 0.2132159382129326 -0.1366914040785199 0.035805827926112796 0.556411863930214
-0.4679280769260629 0.387717244387631 -0.372813799412631 0.3523814657176606 0.9624913719403242 -0.8297370075053151 -0.24038606803077442 0.2044784940600043
-0.40724751011145927 0.14548717444657247 -0.009864155994380681 -0.3527633724555144 -0.6801925431039327 0.11048221766009235 -0.4471231408532781 -0.4606937948102116
0.10878188386145266 -0.14138347742737484 0.8127140028500112 0.899715718579995 0.4828815346556514 -0.04568619019740818 -0.10375656470956941 -0.34613825101467893
-0.8502871510042501 -0.526095822182175 0.276016369637131 -0.8665320570484512 0.32774134405555155 0.037330682485837256 0.1873571315012572 -0.021980598747580623
-0.19638079239248427 -0.656973780084612 0.040988068690607164 -0.24093459143571175 -0.45662100516886056 0.029055186844830185 0.6462407969422925 0.07993678242300264
0.20983717787925157 -0.5322672242850872 0.3277560331526784 0.10481950495646004 0.5265923309621034 0.0782440551355012 0.2702575925077669 0.9191990244962226
-0.4061963036245859 -0.5036512840589374 0.33535477577763634 0.21342391490185927 -0.47455950718302464 -0.003867814301117498 -0.8960662583677768 0.27175574583829687
0.16954254909600608 0.3613610905850437 0.6152441785267916 -0.09232954371261674 -0.6234094772683093 -1.1762691922688746 -0.3635456972879544 0.07028620679630028
0.878216475440768 -0.03647339458000228 -0.0661928526215027 0.17924835550024296 0.16275396160604508 -0.003577929092773331 0.1340197880469177 0.14723537444055532
-0.06499774556289876 -0.1954932806328743 0.5518107328770621 0.09415103207411323 -0.23162708066931467 -0.20340234276515942 -0.08664986978970118 0.060447189865131784
0.1846254727739591 -0.8610875746833153 -0.2529043176682682 0.814449468056432 -0.01245277509148308 0.284888224265412 0.0400077724323999 -0.018125423453079936
0.011050556879726867 -0.1981088513449143 0.04761981698845095 -0.9992012653064682 -0.15187143884554802 -0.5111911815030009 -0.7753321640799036 0.0627728675133928
0.10854541375416664 0.323540394181667 -0.3521849886823025 -0.04804094573281845 -0.0080645765614488 0.043379249873750504 -0.28335464611105626 -0.2792018443466859
-0.14502126269492613 0.6287492966443756 -0.18554771410660337 -0.8407044867558847 0.14390993268573066 -0.019037584161227597 0.4013139545069642 0.16135427807092032
-0.30586704035404016 0.36695846180522995 0.12313935156287945 -0.17308819783257245 -0.19976516839390399 -0.5949190215970103 -0.3551952900907411 0.04559075458807729
-0.08061973898961781 0.002586201034948106 0.0151357130062912 0.01614999238621965 0.4457651601013963 -0.09413993620296245 0.15486971152245452 -0.035659671852575875
0.5380561802221807 0.10585935258933565 0.3855699310030977 0.07399459681556171 0.3543154695815904 0.013977298186168888 0.8238451965946877 0.08878707454275032
0.31900797020866406 -0.016407094511612128 -0.10031708767016045 0.26713788869420513 0.06294473026517304 -0.2030777433170949 -0.10079223332921175 0.16786373749881187
0.43327178789030385 -0.17809037451650772 -0.3031677388189284 0.11523355868036199 0.18252105794837245 0.06815684797056422 -0.3583516615528744 -0.1403220922881758
0.1798307144930137 -0.1767165478028563 0.21954019606799083 0.12277158215134032 -0.44924042082992693 -0.02301199960693957 0.21878125556095 0.014737162751050064

gru.bias_ih_l0 f8 [96]
00000000: 1f35 7413 f517 cabf bb38 74b9 5651 d9bf
00000010: 3784 a43c 05e9 b93f 8bb9 53df 3147 be3f
00000020: 07f0 0d4b 0ce5 a23f 56ea a684 277a c53f
00000030: 4827 878e 82d6 b0bf c040 4d39 964b c9bf
00000040: 1de4 a322 efbf 77bf c2cb bbc5 a7f0 c63f
00000050: 85a2 4270 3695 633f a688 4fea 977c cc3f
00000060: 2819 92c9 75f6 b7bf bbf7 fbb4 b68c c23f
00000070: 0641 03e0 a62b aebf 1144 4237 8c5b 683f
00000080: d0eb 76db b383 abbf c49c 5e55 8f8a c6bf
00000090: d399 e453 f8d7 c2bf 2c69 2979 db34 b2bf
000000a0: 0b75 fb97 c139 cebf e1e1 9920 2ee8 d03f
000000b0: 10b0 bfad 1099 cbbf 7f39 5737 3a72 60bf
000000c0: 485f d66c d93c b93f 8254 8ff7 0abe abbf
000000d0: a014 77af d5d7 aebf 86e3 086a 7705 b73f
000000e0: 3369 d6bd 70fb c23f 457a c27e 5414 c03f
000000f0: ae51 80c0 5fb8 9cbf cec9 ac1d 2609 d23f
00000100: 33be 80a1 a26d c0bf 1fa2 19e1 d5ad b1bf
00000110: 04e6 566c 7111 eb3f 5115 cfce 7ec3 f23f
00000120: 519c 0a12 1bc3 dcbf 4c26 6a3f e1a4 eb3f
00000130: cdbd 4eb7 4b60 d13f e8b2 c3c0 5476 dcbf
00000140: 3af6 8251 1e96 e3bf 469b 4dd8 bf99 df3f
00000150: 3767 5019 b352 e13f 04a5 f1de 9e4c a0bf
00000160: 11fe 6b63 25a3 cd3f c05c 39ca a002 e63f
00000170: eab3 6f64 c7d2 a4bf 941a 97dd 8002 e33f
00000180: b0d2 3c97 89d1 d6bf ffa1 8f38 fee6 c93f
00000190: 7872 f61d f576 c4bf d9a8 24d9 cb42 c8bf
000001a0: 4256 4328 ea2e e0bf e654 10d8 3388 ecbf
000001b0: 032c 0f07 56ed a83f 02db c580 bf06 a7bf
000001c0: b0f2 2803 2ae0 e63f 0531 cb31 a72b cabf
000001d0: e504 c4c0 fe00 e1bf 8f50 c4c0 58ea d13f
000001e0: 2839 827d 5104 d23f 4a0f 52a4 023e e3bf
000001f0: 1d55 0406 3854 b4bf f272 e752 5734 c7bf
00000200: 9a92 9f9f fcbd bf3f bb79 7ecc 92a8 bbbf
00000210: d92f fbb7 c09a c83f 7f4e 3cfa 4dac b13f
00000220: 2843 cb21 c0dd bcbf fcfc 39de d67e 7a3f
00000230: a725 7e34 ae4c c3bf e0e9 990a 3ada bbbf
00000240: 5583 026d 9e12 b0bf fb7a 97b4 e6fc c23f
00000250: 2e02 4575 cb77 c63f 9a2c a22c 7ab7 a53f
00000260: c97c b043 0cd0 b93f 336f e1f1 8e51 9fbf
00000270: c249 14da 8d0d 883f d1a8 e84d e25b b03f
00000280: fc74 5bbe d9c5 c3bf f3a7 a2c2 a23a 96bf
00000290: 9e19 063f 3f5f b83f 7354 ce35 b4a3 c13f
000002a0: 5c39 9bf2 03c8 c1bf cf96 6537 2ab9 bf3f
000002b0: 36e9 c4e7 7bc1 af3f 762b 513f 639e babf
000002c0: 7f19 198a 9c8e b73f bab4 fc9e 9679 8a3f
000002d0: beb3 cf5f 6507 b43f bd35 23f9 523a b73f
000002e0: 416b fb7a cff1 95bf 00b2 c81e b58d b0bf
000002f0: a605 0ea1 3f86 acbf 4adf 9caa 52c6 9c3f
-0.20385611963175962 -0.39558952437154077 0.10121185999425185 0.11827384664841227 0.03690374771301213 0.1677903554644497 -0.06577316264806854 -0.19761922643602325
-0.0057982770178961725 0.17921921877822738 0.002390486073711453 0.2225522893996345 -0.0936044327846487 0.14491924130555653 -0.058926787228871944 0.002973340853778435
-0.0537391858483357 -0.17610351246296407 -0.147215882266393 -0.07111903865862662 -0.23613758011826066 0.26417115386678175 -0.2156086777098385 -0.0020075928721105525
0.09858473689234615 -0.054184286803924855 -0.06024043814572022 0.08992716158617328 0.1482983519497992 0.1256204241698972 -0.028047081112235688 0.2818084039492107
-0.12834580312618157 -0.06905876870735782 0.8458792797093229 1.1727283552621268 -0.44940830957279326 0.8638769377295801 0.27150242711192335 -0.44472235512402714
-0.6120750038168759 0.49375911830286545 0.5413451666274572 -0.03183456870540094 0.23154132227499294 0.6878208112419983 -0.04067061520604638 0.594055588525253
-0.35653915185256846 0.20236184846659452 -0.15988029444715202 -0.1895384607572115 -0.5057268892657663 -0.8916262836452489 0.048685730325438235 -0.04497335860189901
0.7148637830465159 -0.2044571869977362 -0.531371475692279 0.2799283869255839 0.28151356941897854 -0.601319619120184 -0.07941007754228165 -0.18128482387591976
0.12399271866849873 -0.10804097645311732 0.19222268088776565 0.06903540953890717 -0.11275864434288663 0.006468619659812488 -0.15077760279772898 -0.10879862555331199
-0.06278410111782524 0.14834293191866962 0.17553084589055018 0.04241544527857251 0.10083080914090482 -0.030584558022709273 0.01174460241103226 0.06390203859396883
-0.15447541994846137 -0.021708052758789575 0.09520335472743688 0.13780834796185423 -0.1389164862252511 0.12391914226972321 0.062023040811669025 -0.10397930427386179
0.09201982852491673 0.012927223898794405 0.07823785390037494 0.09073370535335008 -0.021430246239883436 -0.06466228486596748 -0.055711735162741235 0.028100291884782615

gru.bias_hh_l0 f8 [96]
00000000: f72b 2ff2 aab5 a33f 0539 7491 2652 d5bf
00000010: c2ec 6d0d 0b40 9cbf 51b9 531f 2125 b13f
00000020: e01e e469 1b8b 9bbf 03c0 226b 0f0d 72bf
00000030: 9d6c bcf8 cfec c23f 89a0 a67c e6fb d3bf
00000040: 881f 1519 f90c c3bf bbe5 dda2 da13 d03f
00000050: 60f5 3ee6 90c6 c1bf 6423 3e29 58f0 aa3f
00000060: 820c c904 0955 c5bf f10c 02c1 9296 69bf
00000070: 02d0 0048 a4c8 c9bf 3a12 ba21 2fce b33f
00000080: 7ddd 6e0b db0a d2bf 039d 5e55 0451 c4bf
00000090: b533 c9a7 a944 b1bf ed2d ad8d fafc ab3f
000000a0: e774 fb57 059e cfbf e1e1 99c0 bb19 d03f
000000b0: b8bf feb6 8706 a2bf 1c46 45ee dae9 b43f
000000c0: c141 5326 15d5 afbf 8aea f15e 4f9c d0bf
000000d0: 0b8a bb17 6ec5 b6bf 5d39 eeab c4c1 acbf
000000e0: 8169 d67d c022 c93f 5e7a c2de 4a7c c43f
000000f0: 5405 08fc ed5d d0bf cac9 acbd 92ee d23f
00000100: 065f c0d0 80a8 d0bf 33d1 8c10 d417 cbbf
00000110: 04e6 56dc 9827 eb3f 3615 cfd6 2ce7 f03f
00000120: 8f4e 05c9 ce60 e2bf 5626 6a8f 4ead e13f
00000130: 92bd 4ef7 5854 de3f 6565 8721 f8a7 c4bf
00000140: 34f6 82f1 0eb8 edbf 8c9b 4de8 d93c d33f
00000150: 2367 50f1 2e6c e53f 2c69 bca7 48aa c0bf
00000160: 99fb d786 cf48 b83f 745c 39ca 3410 e13f
00000170: a9b3 6fe4 f9a7 aabf 961a 976d 797e e23f
00000180: a5d2 3c8f 7fbb d1bf 4343 1f71 00b5 b63f
00000190: 2c39 fbce ec94 d3bf 608f 4a92 f9c4 8bbf
000001a0: 4bad 86d0 5e05 d9bf df54 1008 d6aa ebbf
000001b0: ea69 783c 115e b7bf 3225 3a7f bc77 aa3f
000001c0: 97f2 28e7 45c7 ed3f bd98 e5d0 2e56 dcbf
000001d0: d804 c420 a46a e4bf 7950 c4d0 7a73 d83f
000001e0: e738 82b5 4b59 d73f 440f 5274 2beb e2bf
000001f0: 2855 0406 633b bdbf 7ab9 7381 f0aa d8bf
00000200: 0ab2 14dc 7cc3 c13f 6e6d b56a a1eb 6c3f
00000210: 6edb 25c7 7038 a3bf cbbe e9ae d5a2 c5bf
00000220: 9eb7 b59b d26f ac3f eba7 67a0 3b16 a73f
00000230: 7f18 6a48 a69a c6bf ee13 7972 985c b23f
00000240: bf20 bd24 a021 c4bf 0a37 c188 768c b7bf
00000250: c627 66ff 856f bebf 850a 3701 2efc c03f
00000260: cbf5 8cbd e114 c23f 7460 b882 ae25 c03f
00000270: ad0a 0ce8 cf2c afbf 6602 4f19 dba1 bf3f
00000280: cafb 5a67 1087 b73f 3e21 92f6 d93d 9d3f
00000290: 3729 6d50 0ba6 37bf 7cb8 93f6 9384 a5bf
000002a0: 7403 fbff ed54 b4bf 6a49 52f8 a2d4 c8bf
000002b0: 46e4 e0c6 64e4 c33f c10b dcd7 9cc1 c53f
000002c0: 9d23 eb4f 80c7 ac3f f5a7 5a8b bb8a c53f
000002d0: 3c01 bf40 e0fd a83f 8c4a f10e c0a3 c93f
000002e0: 60ae 348a 0769 adbf 89a6 dd9b 1236 a53f
000002f0: 2aa4 4287 72f4 b93f 28a0 63aa 3c02 b13f
0.03849538999892126 -0.333139078183095 -0.027588055319466738 0.06697279944248648 -0.026897838914947125 -0.004406986454497999 0.14785194058717802 -0.31224977658212844
-0.14883340573055315 0.2512117949005092 -0.13887225382306223 0.052614932093155514 -0.16665756925258185 -0.003123556736740356 -0.201435599477577 0.07736486981782145
-0.28191257587919677 -0.15872244041859326 -0.06745395990692667 0.054664449495785174 -0.24700991436012673 0.251570642554297 -0.0352060709841448 0.08169334714082094
-0.062172566345569454 -0.25954040786715693 -0.08895004348190853 -0.05616583441507104 0.19637304443751805 0.16004310490548596 -0.2557330094569654 0.2958113529486154
-0.2602846182430628 -0.21166468437298533 0.8485836318497495 1.056439246270498 -0.5743173528848774 0.5524056244914373 0.47389816428309317 -0.1613760150637901
-0.9287180630705678 0.30058906255583717 0.6694559777417662 -0.13019664945824994 0.09486100236970997 0.533228297203904 -0.05206280625848276 0.5779387607988891
-0.27706898677869624 0.08869936715860853 -0.3059646626760635 -0.013559293534235628 -0.39095278133273287 -0.8646040112968442 -0.09127910353019045 0.05169476559701493
0.9305753245203786 -0.4427601852425019 -0.6380177154498154 0.38204832446468334 0.3648251793428145 -0.5912072440992024 -0.11418742081544464 -0.38543331758309984
0.13877831216940734 0.003530326144454746 -0.0375399821377219 -0.1690318206851685 0.05554063940768049 0.045091498690297126 -0.17659452949391505 0.0717253951525689
-0.15727617067228114 -0.09198704565752905 -0.11888921246841652 0.1326959138805998 0.1412622619190372 0.12614995367835358 -0.06088876445393985 0.123563474348893
0.09190466426205926 0.028556256937492856 -0.00036084915375468894 -0.04202711472486073 -0.07942092418217134 -0.19398915410108525 0.15540752135146557 0.16997108974473288
0.05620957351272369 0.16829628281021738 0.04881192007406063 0.2003097603761329 -0.05744193613130899 0.04142816689166035 0.10138622095350117 0.06644038352862991

gru.weight_ih_l1 f8 [96, 32]
00000000: d2a3 da9c 56ac d7bf 6004 4a7c 05f8 d3bf
00000010: 57c2 83eb 2a94 c63f 529e a7d9 85a9 d13f
00000020: 44c1 7a98 1225 b93f 70a7 cabb 16d7 d13f
00000030: 0d59 3ba9 16d7 c83f 9d5a 240a c4fc c7bf
00000040: 1ef0 873c 13b1 bd3f 13f4 1bec 1edb ccbf
00000050: 4adc c0c3 681e c33f 6847 0376 d726 c03f
00000060: 5b72 c397 35ee c1bf e671 095d 6fda d5bf
00000070: 27c6 f22e 5f3d e43f 9480 ea42 e22b cebf
00000080: e09d c460 38dc cb3f f692 ecc1 31ac db3f
00000090: e674 c68e 7184 d7bf 4d28 ea04 0fc2 f43f
000000a0: a71d f74d 7af4 dabf 83c2 f148 5506 bf3f
000000b0: f783 3b56 b78a c3bf 9ff9 d73e ee3a eb3f
000000c0: d590 605e 39ce e13f 4e52 1587 4eb4 dd3f
000000d0: e840 434b 22c8 d93f 85cc 1807 9eea c4bf
000000e0: 6058 91fe 7be6 dabf 74a4 e7d6 61f4 c5bf
000000f0: 85a7 b05a e63c a53f 6a21 afcd caad dcbf
00000100: 455f 5c47 eeb0 c53f 2db7 66dd 72d9 d53f
00000110: fed8 8df4 205e d2bf 25b4 b3a7 c36c d73f
00000120: 652b 5f3b d423 f6bf e79a 67a2 310f d1bf
00000130: 3ce3 4ccd 9631 d2bf c9c4 5595 94ea d0bf
00000140: 7f16 83cc f6bc da3f 729c e9e5 a45e bf3f
00000150: 2538 80a6 e6a7 d2bf dbf1 1a28 2848 b5bf
00000160: 2c96 75fd 1615 ea3f 8a3c a31c 1135 a93f
00000170: 593e 9cd8 36f6 d03f 96a0 b4ef 1d61 b33f
00000180: da94 1bcc 9357 c33f 42d2 5fa4 ed51 e03f
00000190: 1101 198d af34 e03f 63c7 2c04 eefa e73f
000001a0: 6d60 9b91 f365 dabf 44d7 574b 085a c7bf
000001b0: 2bb9 9bf0 68bf e73f 429e bbec 4610 c5bf
000001c0: be2d b539 8f5e e4bf 8b2a 1b06 513e c53f
000001d0: ea5d d05c 616c df3f 26f5 a6f7 8e58 f03f
000001e0: c32f 30b8 7d35 db3f e25b 9bb1 809d ce3f
000001f0: 5937 9640 6e96 d43f 8ba3 b0ef a851 b53f
00000200: a33f 1717 b91a dc3f 1ca1 80d5 3fc9 cbbf
00000210: 0c7e debf 1ab7 d33f 240c 8fa7 1dc4 db3f
00000220: 4495 045a 2fc9 893f 780b 2f94 031f dc3f
00000230: 91cd 7ef3 a139 ccbf 5b53 a807 10d7 e5bf
00000240: c0f9 7a33 6997 913f 9c13 cbf2 a66f d03f
00000250: 9cb5 6bf5 783a b03f ac58 ebe8 3197 eabf
00000260: a7d6 5389 3e46 d9bf e409 e8f5 b486 e0bf
00000270: d067 3504 f5c0 cf3f 5777 9dc3 0282 ce3f
00000280: 44f3 37dc bcde f1bf fabd d114 dc79 c4bf
00000290: cb22 7886 83aa b5bf aafa 404a 00fc e6bf
000002a0: 9d25 7b6c 4b3e e9bf dd62 18d1 d3bb c8bf
000002b0: df86 37b0 7f83 e5bf 33d7 6d58 f49e e33f
000002c0: d95f 847e 9572 be3f a3e1 2c5f 09c8 d53f
000002d0: 4d5e 282e 15c5 e23f 6189 b788 61b4 98bf
000002e0: 5954 b6b1 30cd e13f 7331 20d3 2e85 dfbf
000002f0: 1631 a817 a2ef e33f d243 2471 d83d da3f
00000300: 6dd9 a423 4ed4 b73f 31f9 8d2a cdc7 b7bf
00000310: d7f1 1cd8 3e70 b7bf 58ba 4226 4084 e43f
00000320: 4d6a 396f b40e d33f de1b 3214 69c1 dbbf
00000330: a45c 103b 2894 ebbf d5d0 de83 9a6e a2bf
00000340: 77ad 62d7 8de0 d0bf 6ef3 59fa 9645 e1bf
00000350: b88a db94 f1ba cabf b0ac bcd0 30bf b4bf
00000360: e7df d17c 3da5 d6bf 50fc ab00 8f2e dc3f
00000370: ade8 85e0 3b38 b7bf d214 cf2e 28ca d6bf
00000380: d757 6991 cc1e f2bf 52e1 eeb0 5755 bbbf
00000390: 194e 6752 d4d0 c33f 7f38 e783 3754 b03f
000003a0: 3770 481d da9d e2bf bd03 8e4b 3a41 e0bf
000003b0: 50cb 6a6a 0e84 d33f 6bb2 b514 a9b2 f03f
000003c0: 203c 623f f4d7 a1bf cb4c 0885 a391 dc3f
000003d0: 368c 5d9e 59c4 ef3f 5def 6cf9 afe0 dabf
000003e0: 928b 09c4 0a8e d13f 5317 ddd3 6ac8 e8bf
000003f0: a99d 7fdc 4d2a b53f f38d 38bb 1538 d7bf
00000400: baf3 419e 6310 c23f e95a f5ac 0060 d8bf
00000410: a3b2 1ddc 8ac2 d1bf af98 1d3d 009f e13f
00000420: b80c b01e 5c83 e0bf 97fa fe7f 68c2 aebf
00000430: c03f 0e30 74bc e5bf ec26 d028 2d40 be3f
00000440: a8aa fe8a 4b58 a1bf 036e bc17 e9f1 b7bf
00000450: bf1f 3da8 4da7 debf 218e e6d7 9b99 c6bf
00000460: 26a1 5790 e279 d43f 007f 26e1 ff3d c33f
00000470: 42df b4b3 eb7b b7bf 1970 9b27 a123 a23f
00000480: 4b37 36b1 903c e0bf ea3b 94eb 7a74 d03f
00000490: b70b 7823 d5f0 a23f 4fb7 511b 4e13 e5bf
000004a0: dc42 e231 c2c1 d2bf 58aa f3f3 5c29 cc3f
000004b0: 54c6 606e 8991 d43f 7d78 9bba 84ab e0bf
000004c0: 96d7 e1a2 6c92 d53f 0366 875d 9688 dd3f
000004d0: f6ea 70cc 93e5 c03f 9920 fef0 20fa d83f
000004e0: dc6c 334e 19d1 cc3f b266 4c27 8619 debf
000004f0: 20bd 3b73 72af e03f ac4b bbd4 e277 df3f
00000500: fd01 3940 049e dabf 3a90 d86e 5f57 a7bf
00000510: f885 30ab 70e7 f1bf d1b6 fc2d fea3 e33f
00000520: ee84 5a62 736c b7bf 72fb a6cb 8105 d3bf
00000530: 8df4 6c61 75cc debf edde ae50 12ff e63f
00000540: 31cd 17c4 8601 ebbf 17e3 5baf 9a8a b13f
00000550: 4a36 d4ca 80a8 e0bf 5646 e9ff 2817 a83f
00000560: 0444 edd2 9561 e5bf feb7 6ce4 70e2 a63f
00000570: e7ac 71cd 8943 f0bf 1bcd d46c c787 d7bf
00000580: b06d b858 8af0 d13f 2ca5 9461 af80 b13f
00000590: 7cf8 d038 6244 d03f a54e a7f8 8ea1 e03f
000005a0: e81d 0aaf 2e0e d03f 7294 e164 86f2 f13f
000005b0: acff bcf7 8f41 e03f 4358 1a24 436e e0bf
000005c0: 23bc e78c 90a2 e4bf 4fdd 9f0b b63d e9bf
000005d0: 7d7c 3245 69ee e1bf bdb0 6e13 b6e2 debf
000005e0: 601a cef5 2e52 b93f 0023 9dac 7392 da3f
000005f0: 13c4 2806 0c32 d6bf 610a 1510 0aee cb3f
00000600: bf4d 2be8 0b6e c0bf f110 e6ff 76f5 a43f
00000610: 9abd dee1 1f3a dabf b46c b994 1007 d73f
00000620: 8742 c8fb 4e50 603f e215 007c bcfa c9bf
00000630: 2380 43f7 f6dc d43f b903 729d 6a43 cf3f
00000640: ac06 2b58 c279 c13f 1eb8 7787 712c b23f
00000650: 311f 8c99 954a cebf 0812 3cfd 9aa4 c2bf
00000660: fced 94da bd51 e2bf 4192 df93 cd50 d0bf
00000670: dbee 2edd 5a09 d3bf 2f4b 1ccc e55c b13f
00000680: c2f9 cc83 3807 b23f 0f52 bda8 6618 e0bf
00000690: 5f3b de3d 5aca 9b3f 8c3c a37d a911 d93f
000006a0: c5a8 7d51 fc7a d23f 0916 54b7 779d d23f
000006b0: f4d8 3bea 08fc cf3f 7dec dae1 4089 c6bf
000006c0: 72c2 7653 55eb c2bf 7b9a 5bda d77e d7bf
000006d0: 8c33 4468 bcd5 d73f a452 3edd 6578 be3f
000006e0: 943f 7c85 56a2 d13f 1a42 9caa 18b0 ab3f
000006f0: 9c0a c151 0da4 d43f bfb4 264e ce9e d13f
00000700: 8bc0 3d87 e352 a2bf 172b a521 6c8c b03f
00000710: b6e7 eeb4 ad81 c4bf 531f 5c8e 9e87 c33f
00000720: cf15 df47 3368 f5bf 5870 d6f1 4abd db3f
00000730: 11e2 bb60 4689 bcbf 7490 479e 48d9 e4bf
00000740: 6f0f 8d81 1acd debf 9194 b56b 59c5 da3f
00000750: 92b2 e591 c620 dcbf 51bc 0160 7944 e3bf
00000760: 4bf5 b0da 163c c73f 717f 401c ebb3 d2bf
00000770: 0c35 f416 f7b5 8cbf 1c04 bdc6 fc1d aabf
00000780: 5c1d e042 2805 e6bf 0c81 a07a 2251 c8bf
00000790: e49c 4a8d 3c9c ca3f c0e4 a710 efcf e33f
000007a0: 7fc1 58d9 f496 e5bf 70ca c2bd b0fd dfbf
000007b0: d4b9 5582 60f4 abbf e9ed 05fc 5718 e3bf
000007c0: afeb c33a 5f15 cd3f d1c4 9642 2ac8 d73f
000007d0: 5fc4 406b 5f9b c6bf 30a1 c56b 9801 e6bf
000007e0: 85bc 525b d809 debf b616 cade 9642 eb3f
000007f0: 938a 02c3 1e28 c4bf 6b99 72e5 eb6a c5bf
-0.3698936969545318 -0.31201302659616736 0.17639671802273213 0.2759718537840615 0.09822193358082126 0.27875297869706284 0.1940639807059558 -0.1874012994309923
0.1159832022457867 -0.2254370358349723 0.14936551626462552 0.12618535291999966 -0.14008207235646605 -0.3414572151721401 0.6324916760406197 -0.23571422831901556
0.21765808796884212 0.4323849099912843 -0.3674587148942251 1.2973776046733463 -0.4211717378024908 0.12119038611286652 -0.15267078123636654 0.8509436824240771
0.5564238398842699 0.46413005058028467 0.4028402075755495 -0.16340995165373698 -0.42031764850742626 -0.17152045243645697 0.04148025376373624 -0.44810743414247745
0.16946199879088844 0.3413970148202335 -0.2869951618407781 0.366013444682553 -1.3837473220071044 -0.2665523611052962 -0.2842766766439586 -0.26431765159129533
0.4177834508121591 0.12253790486430363 -0.2914978624329499 -0.08313227633602287 0.8150744390847584 0.04923299288349721 0.2650277247748583 0.07570063688456438
0.15111014810751194 0.5100010118899905 0.5064313655675808 0.749381073145042 -0.412472622103002 -0.1824350707899446 0.7421154689198252 -0.16455923613760787
-0.636542904577645 0.16596424863958634 0.4909900099168839 1.0216207193291864 0.42513983714229314 0.23918160125933158 0.3216815596323293 0.08327728130156069
0.43913104300463085 -0.2170791428081963 0.3080508111688409 0.4338449608150674 0.012590761122349144 0.43939294310637633 -0.2205088080350888 -0.6825027608452773
0.017179149405586847 0.2568147059467323 0.06339221946446688 -0.8309564160542968 -0.39491237078559965 -0.5164437105998414 0.24807608323572916 0.23834261466520942
-1.1168793298995334 -0.15996886269157057 -0.0846330836576598 -0.7182618570585266 -0.7888543242235532 -0.19323203763703747 -0.672302097486149 0.6131536223535704
0.11893591250225145 0.34033426565613406 0.5865579511182176 -0.024125598878421587 0.5562976332609068 -0.49250383966206995 0.6230020963717233 0.4100247483157179
0.09308327074254459 -0.09289247788362755 -0.09155648018072014 0.6411438700941501 0.2977725111174195 -0.4336798379158021 -0.8618355897514403 -0.036000088307817237
-0.26370569261299387 -0.5397448434519967 -0.2088300682872466 -0.08104233833425911 -0.35383546056209386 0.4403417116699915 -0.09070181113739535 -0.35608868189986
-1.1325193100105844 -0.10677097386986148 0.15481046699152115 0.06378504724782096 -0.5817690441067559 -0.5079623675993542 0.30493507759381533 1.0436182793593172
-0.03485072396971867 0.4463890837807411 0.9927185147356627 -0.4199638305469671 0.27429455894724086 -0.7744650018655456 0.08267676003708026 -0.3627981499032266
0.14112515666411501 -0.38085953608007955 -0.2774989270754224 0.5506592935241964 -0.5160351371163392 -0.060076966881287656 -0.679254621370994 0.11816675421155381
-0.03387676307405246 -0.09353501157277581 -0.4789613860089012 -0.1765627674295596 0.3199392709343719 0.15032957547827408 -0.09173462998739715 0.035428081593380685
-0.5073932133834459 0.2571093845917277 0.036993656711295335 -0.6586065801218214 -0.2930760848185352 0.22001230155668128 0.3213828637991345 -0.5209373135255785
0.33706203371490895 0.4614616311424415 0.1320061443564879 0.390266642898959 0.22513119047548613 -0.4703078635953758 0.5214168787623841 0.49169226431439017
-0.41589456817385423 -0.04558847644901261 -1.1190039336291857 0.6137686632334526 -0.09149857665262903 -0.2972111214439145 -0.4812291575834216 0.7186366630403122
-0.8439363317433274 0.06852118283485385 -0.5205692254546161 0.0470516979591024 -0.6681622619308887 0.04469635761630285 -1.0164888405950536 -0.3676622927479955
0.28030642189124944 0.06836982853260015 0.2541738085600469 0.519721494342282 0.250865622460394 1.1217101994200473 0.5080032194746216 -0.5134597497115084
-0.6448443176321955 -0.7887830950775568 -0.5603529311664627 -0.4825873555917147 0.09891026974774197 0.41518871170823957 -0.3468046245716902 0.21820188317549863
-0.12835835300812268 0.04093524812472705 -0.40979764039635713 0.3598061993013275 0.001991419090934979 -0.20296436361984066 0.3259866156277004 0.24424488723528073
0.13652829461175509 0.0709906535846305 -0.23665113446645017 -0.145648358964664 -0.5724782246756486 -0.25493182602648196 -0.2974459800713995 0.06782375558058783
0.07042268007078348 -0.50297863919201 0.0271391010533607 0.39170300740529096 0.28875644643870785 0.2908610620800976 0.24987899243541956 -0.17606364276966593
-0.14780680251489603 -0.3671168930435795 0.37242040807978394 0.11902462626887683 0.27553332362821803 0.05407788355490002 0.32251294120593754 0.2753177416987675
-0.03578864122289457 0.0646426756040167 -0.16020747503881488 0.15257627440609642 -1.3379395301320647 0.43342851273496796 -0.11146964894931723 -0.6515238849065228
-0.4812685265680931 0.41829524534689094 -0.4395004677560702 -0.6021086573727051 0.1815212791279158 -0.29223134764651265 -0.014018946063993919 -0.05101003576283622
-0.6881295496140569 -0.18997603404660202 0.20789296053883455 0.6191325497922193 -0.6746772999813827 -0.4998590329297832 -0.05459882346154968 -0.5967216417624829
0.22721472138786455 0.37159210684610594 -0.1766165994354507 -0.6876947503015227 -0.4693508998706835 0.8518785811763425 -0.15747437021226016 -0.16732548430918412
