results/Genotyping_LSTM_Long/models/checkpoints/9/Genotyping_LSTM_Long-9-150.pt (torch_old, 115136 bytes, 10 tensors)

LSTM.weight_ih_l0 f8 [128, 10]
00000000: 0316 9e52 d1ff d33f e27b 0993 a4e1 b6bf
00000010: 09c7 4e50 d34b be3f e8f8 fe77 be7c cd3f
00000020: b6ea 0f7f 69d1 ee3f 1901 90c4 47ad ca3f
00000030: 9f32 4b0c 984a d23f 3d0d 87ef 6d9c c5bf
00000040: 8b14 b25c 66f1 a63f 69cd a885 2069 e03f
00000050: a41f 70b5 de3f c13f aa07 f9fc ae61 e43f
00000060: 5e89 cacc 3e27 b03f 5adf a64f 0ffc c6bf
00000070: 61ab 4b77 67cc d83f aa44 92f0 6cb8 cb3f
00000080: 311d a62b 6c16 c13f 05a3 99bc b68e da3f
00000090: faf7 0cd5 6026 b7bf 1ab6 a5bb a37e cf3f
000000a0: cb24 9a8f fa68 a73f 0540 2ae5 02d8 dc3f
000000b0: 4123 7bd8 4688 663f 0db4 6d16 3d6a abbf
000000c0: fd6f 2ebc e2d8 de3f e830 b95e 5d41 e13f
000000d0: 471b e1b8 01f7 b53f f786 1d1a a886 b5bf
000000e0: 6735 38c2 1009 a53f f7c3 5ad2 b5ab e23f
000000f0: b4c5 62be 6baa 933f 7a36 3389 c7a1 b2bf
00000100: 2ce4 9ff2 5332 b83f 475d eb31 5c94 bf3f
00000110: 48df c20e 51f7 c43f b516 fbf7 2471 a6bf
00000120: 01c5 fd1d 52c7 c9bf ddd7 5812 cb80 be3f
00000130: fc83 35e9 dd19 d53f 2589 ffb6 567e d3bf
00000140: 8cfd ab5a 9d8f d03f e8ab 41b0 9ee0 b73f
00000150: 8877 1060 0ea0 c0bf 2ff4 4c4e 23fc ab3f
00000160: e4b2 83cf fc12 b43f 1244 201c 78b8 c53f
00000170: 3786 a756 71f1 aebf e14e 15ea 2d8a af3f
00000180: 9c59 845b ed00 cf3f 1a27 d3cd c746 d5bf
00000190: 950b 265c a236 ba3f d2ad e13a 98d5 a2bf
000001a0: 5e5b cb19 01ec cabf 1885 a8d2 0179 a2bf
000001b0: 5d35 bd2e 7440 dc3f 2f00 7ca6 bb59 d0bf
000001c0: 9cfb 48f6 bf9e d03f 9513 2aed 36af c9bf
000001d0: cb05 3880 1722 c23f 5efc 0c98 9468 e13f
000001e0: 294b 08c0 2a8c ab3f f3e3 7fb4 47ca a03f
000001f0: 6b74 bf5a f6b4 82bf eb67 5b49 4797 a83f
00000200: a1a6 1846 ad26 f33f 0d39 05a3 cbae c13f
00000210: 7792 775b a532 b7bf 9416 4b72 e998 c03f
00000220: 5af4 e014 5e9b cc3f b648 205c d9d0 e93f
00000230: bae1 5ce2 373d c33f ecf5 fc6b 5a4a d5bf
00000240: ed57 4922 9f6f db3f 0547 9c20 0d58 ccbf
00000250: 49ca dcf1 d57a cd3f e302 96b9 b29b b53f
00000260: 187b 55cc 7631 a63f 058a c9f0 2a6d cdbf
00000270: 5710 5e67 40f8 b23f fd98 8c8b 87f7 c83f
00000280: 7d8d 1629 f63a d03f c42a 0506 d3bf aabf
00000290: 31ce d222 a21c de3f b43f bc63 76d9 d7bf
000002a0: a98d fb07 ae92 cf3f ba38 e2bd 4de5 c4bf
000002b0: 7829 d305 3037 acbf aec7 e2cc 5395 c0bf
000002c0: a66b 4eef fdda c53f a8ef 96d4 af78 d83f
000002d0: 5313 6287 37d3 cf3f f85f 71dc 0a17 c6bf
000002e0: a975 7460 216c 903f 0f9e cd9b 2dd3 bc3f
000002f0: c0ce 1c26 9da9 dd3f 922c 341b cc2a 963f
00000300: 8f11 62b9 0324 ba3f ba27 a982 db03 c1bf
00000310: 94cb 4185 caec d03f c692 4c13 c668 d93f
00000320: 8075 c4ee 2884 c03f 9de3 94b6 5ab7 cfbf
00000330: 4f31 cf57 ed75 bc3f 991c 7738 9355 d13f
00000340: e59c 2558 8ef3 e53f e9c9 e881 4393 d83f
00000350: 22aa c3a7 00ca c5bf de65 a9ba 6d48 bf3f
00000360: 6ec1 25a0 172d ca3f 1e7e 66fd b8c9 de3f
00000370: e510 4b88 fd82 c33f 796b 28d3 198b e1bf
00000380: 8829 f7bc 8804 b93f de2c dcb8 39ff d33f
00000390: 2ca8 2e32 0865 e03f e4df 9924 c1d2 bcbf
000003a0: 502d 0dbc 6a0a c73f 47d4 8d00 1ffb c7bf
000003b0: 21e5 fa79 7de8 b5bf 9b95 0467 596c f03f
000003c0: d29a 9d86 288f b63f 3dae a31a 6d1e babf
000003d0: 0583 c632 a46b d03f 95a5 1f5f 57d6 d83f
000003e0: 7bda c500 1e53 d83f 3775 2db6 a00e d43f
000003f0: ee76 97cc 85f2 ba3f 5fc1 8544 6d4f abbf
00000400: cfa9 6fab c508 c1bf 3563 9cb8 b559 e83f
00000410: 4b0e f351 cd65 a53f f04f 3376 771f 8abf
00000420: 8c36 f097 fef4 cf3f d5c9 d6f5 f4ea 88bf
00000430: 143c 8542 e2fc a9bf 9556 807e b21d c53f
00000440: fcbb 9845 c375 a7bf e90c c8e8 6d2c b03f
00000450: fe1f ebff eb73 b13f df51 ae35 0bfa e03f
00000460: f708 ee7c 8d32 c23f 62bc e38e e7da d5bf
00000470: aba4 3cd3 3137 d13f d34f ff1f 8668 cfbf
00000480: 371b e151 3125 ea3f 87e9 7921 6ccc adbf
00000490: df4f 5b65 09be d53f 7444 30d5 ae39 73bf
000004a0: 65ff 9ed1 6f7f dcbf 2705 9905 4b5f e23f
000004b0: 5cfd a03c f37a b23f fb59 f7ac f808 a9bf
000004c0: 1603 2024 6d47 b4bf 9eef 1906 38e3 b33f
000004d0: e1f1 9fcf f29f e13f f82a 90e8 7655 c2bf
000004e0: 1cb4 9ddc bc89 be3f fbee b9ee b933 c63f
000004f0: 2a5e 07d9 dea7 cb3f 9dfc 78e9 d566 ce3f
00000500: a073 f6af 18eb d8bf 2eb0 1c09 e2d2 b3bf
00000510: da56 022f 170a a83f f179 bba3 b670 cb3f
00000520: a7e1 7a2a 3676 e63f e1cb 69a0 5dbf 8e3f
00000530: fcf0 66dc 41e9 d53f fca8 1d68 9004 d73f
00000540: f7b8 bcd5 11e9 b1bf 63da c584 66a0 e23f
00000550: 64bf 5aac f741 ba3f 4705 a4a8 ec1f d0bf
00000560: c26b 4b52 8417 bb3f 87e5 7986 43ed b53f
00000570: 9e50 dbb8 538c e03f 7c49 0af3 4f7f aebf
00000580: dec5 6a06 36bc b73f d4d0 fa74 20d0 ca3f
00000590: fd53 3d09 3f88 c1bf b0a5 6bf1 661e c13f
000005a0: d028 484e d3e4 d43f e290 280a 7639 d3bf
000005b0: 6683 937a e276 d03f d74d 6b54 9e11 c1bf
000005c0: f49b 9b67 fe70 e53f 1e83 d200 ca47 8e3f
000005d0: 5f54 3f17 96e5 c2bf 5f1d 5494 a7d1 aebf
000005e0: df7a e7e8 e5f5 c83f 7dc1 683a 38b7 cf3f
000005f0: 4e97 23ec 1ea1 c8bf 9cdf a850 d63f c5bf
00000600: 3367 a45f 8db0 b4bf 1585 eb22 db1c b33f
00000610: efd8 1ccf e28d c33f 0b92 1ae8 ebf1 a6bf
00000620: 422b f967 21f5 b7bf 30f2 a737 2be1 953f
00000630: c225 32ae e420 c13f 1a20 6289 a3e9 df3f
00000640: 5d05 d98c a805 b8bf c784 7aef 98f9 d4bf
00000650: c5de c8d8 6b59 d2bf 2b82 c19a 7839 c83f
00000660: 2ba1 2bf1 adbd e2bf e14f 20a4 d471 abbf
00000670: 766c 8eb4 57d8 d9bf 3b87 81c1 31aa b23f
00000680: 3e8c a4c9 05e7 d33f 8747 47a8 fd0b a9bf
00000690: c413 3e36 ffb6 b63f 8efc c3bd e7db c2bf
000006a0: a401 4227 0138 c83f 04d7 6d45 213d cabf
000006b0: 7d6b 2f26 1e8d bbbf 2c1d 2f37 7d79 c63f
000006c0: 30ad 1343 47f2 c73f b5e0 e45d e8f7 213f
000006d0: 3800 cc7f 28c6 d2bf af34 7bb8 c403 e93f
000006e0: 4989 862a a4f0 a23f c688 f715 a2de b13f
000006f0: dba3 ff5a 3677 71bf 8155 2edb 8e7f 8a3f
00000700: 306e 9131 863d c03f ba1e 07e2 e3fc c8bf
00000710: 82ad ec86 bf39 ca3f eb29 7332 8344 b7bf
00000720: 7af0 62cf 6203 d03f 0955 2f24 5c1c da3f
00000730: 81c8 36f2 be08 a8bf b14c b9c4 d40b d83f
00000740: 8912 a856 629d b63f f832 8f59 c2ce c03f
00000750: a27d 398f b2a9 cfbf 6d44 83e5 84a3 b63f
00000760: c59f a234 b72d cebf 2d8b d806 c684 d33f
00000770: 9427 0e17 5a07 d93f 7ef4 1fd2 a9c3 d3bf
00000780: 303f 24dd 8828 91bf e68b 3310 5fa0 d23f
00000790: 3a48 9f23 006a b33f 6f67 65f5 f64e d13f
000007a0: 281e c51e cead db3f c939 e432 5f4a c93f
000007b0: bfdd 0915 96fd b4bf 530b 7ab0 bf01 d23f
000007c0: 76ce d708 0075 bf3f 95d9 e298 11d7 e83f
000007d0: 5a5a 7472 a880 db3f e0cc 3d91 28d5 b03f
000007e0: 9eb1 e404 cf8c b83f eaef 2850 7b28 af3f
000007f0: 68c5 4fa1 84b4 d83f c6de bc00 7fbc a13f
0.3124888712703468 -0.08938053693553585 0.1183445044578343 0.23036938532999973 0.9630629998858555 0.2084130964067377 0.2858028526359621 -0.16883634753876633
0.04481048471010592 0.5128328905615663 0.1347616563727999 0.6369242611765362 0.06309883594307084 -0.1795672549176242 0.3874758400913177 0.21656572100304078
0.1334967816476165 0.4149605600164679 -0.09042935563499546 0.24605223333803466 0.045722799329334395 0.45068428401373267 0.0027505286887827 -0.053544911373002525
0.48198765160645946 0.5392290926042991 0.08580027354865392 -0.08408594739514884 0.0410847889980726 0.583460722779022 0.01920479154131778 -0.07278105830774875
0.09451794312907741 0.12335754603133352 0.1637975046230571 -0.04383197333440362 -0.2013952871743996 0.11915272901464342 0.3297037866050798 -0.30458610411564485
0.25876554350539815 0.09327117732179568 -0.12988452616349044 0.05465803461854823 0.07841472688933099 0.16969205258695347 -0.06043581183235996 0.061601099800695065
0.242215795217544 -0.3324450979240382 0.10239615201684978 -0.036785847842874767 -0.21032727965822579 -0.0360794610644552 0.44143395008435055 -0.25547686823120136
0.2596893220069718 -0.20065962391177253 0.141665399176459 0.5440161676159609 0.053803764287428564 0.03279327467311779 -0.00913422073784372 0.048029163078993374
1.196942590535777 0.13814683399181896 -0.09061654551585173 0.12966650086143672 0.22349144000500837 0.806744270261581 0.15030573418495213 -0.33266315980640004
0.42868784282961664 -0.22143711178119233 0.23031114873590955 0.08440701514156106 0.043346130793670834 -0.22989403493109264 0.07410051845187247 0.19505400003362885
0.25359872829923075 -0.05224475334633419 0.4704976406166877 -0.37264785518436416 0.24666381253983374 -0.16324779292739838 -0.05510854788879532 -0.12955710891907074
0.17074560341720008 0.38236613999083113 0.24863332853797235 -0.17257819904148142 0.016037484657422194 0.11259732297696011 0.4634774086182283 0.021647633705509657
0.10211203838304626 -0.13293022041244545 0.2644525815332426 0.3970198811023632 0.12903319986882522 -0.24778303065411658 0.11117442506583085 0.270848088399768
0.6859809610004076 0.38398826300104233 -0.17022712890259678 0.12219892317934675 0.20450110740376765 0.48106217142228214 0.15243500857298567 -0.5482300876786744
0.0977254353848932 0.31245272686710546 0.5123330097314969 -0.11259085792141793 0.18000539953423322 -0.1873511078553369 -0.08557876804379251 1.0264524482857726
0.08812192236437547 -0.10202676678061891 0.2565699096540331 0.38808235444465683 0.38007307124590967 0.3133928088262396 0.10526310200608766 -0.05334035359817579
-0.13308020468623602 0.7609509092027112 0.04179231286391579 -0.012755330366793743 0.24966413897384532 -0.012166894676600851 -0.05075747549073398 0.16496878792593309
-0.04582033371513458 0.06317793782368465 0.06817507741936876 0.5305229233222767 0.14216774559105946 -0.3414858718305763 0.268993812833808 -0.2453773170697092
0.817040119095373 -0.05820024403233775 0.33972391985048306 -0.004693682613848716 -0.4452781245308784 0.5741324529009589 0.0721885703105633 -0.048896571268119936
-0.07921487934073598 0.07768583439786744 0.5507749610110829 -0.14323316913245043 0.11928921114095242 0.17345356136853937 0.21606050107105662 0.2375132932665779
-0.3893491476426849 -0.0774365684744118 0.04695198487131132 0.21437724108450554 0.7019301252067195 0.015013438661503233 0.34236189387935645 0.3596535698658412
-0.06996261089509291 0.582080134698867 0.10256908376572721 -0.251948513687314 0.10582758912225557 0.085651607829183 0.5171297655565643 -0.05956506578253859
0.09271562248866114 0.20947652542020612 -0.1369704051127484 0.13374029911146357 0.3264663948508657 -0.3003821467593878 0.2572561451943812 -0.1333501732066071
0.6700431846228398 0.01478536429414273 -0.14763141760946305 -0.060193287712588577 0.1950042140224104 0.24777891971599422 -0.19241701631761504 -0.1660106557699209
-0.08081897339834825 0.07465905764140175 0.15276751625942306 -0.04481446464822988 -0.09358414448176425 0.02136676337430482 0.13381632333429933 0.4986351815828144
-0.09383634031930428 -0.32773421656208906 -0.2867078415906515 0.1892538791316992 -0.585654231105797 -0.05360283378118403 -0.4038295043225796 0.07290945982233847
0.3109755009811045 -0.048919607917596024 0.08872981142310638 -0.14733597532174197 0.1892091218651447 -0.20499053850260662 -0.10762203628784835 0.17558255381138943
0.18708124900090572 0.0001370879317137468 -0.2933446167007818 0.7817100146436554 0.03699219721899511 0.06980336223890324 -0.004264080358532286 0.012938610137818387
0.12687756939236428 -0.1952175954486302 0.20488733375655604 -0.09088916761098857 0.2502066636332142 0.40798095258408346 -0.04694172579492407 0.3757221146708601
0.0883389913142968 0.13130978940025506 -0.2473662566508042 0.08843260386790215 -0.23577013082581125 0.3049788538793788 0.3910737252377825 -0.3088173439026106
-0.016756189820682 0.29103828985370084 0.07583618993456379 0.2704446217008955 0.43248322491533253 0.19758214936196186 -0.08199441922794558 0.28135673746162587
0.1228790303792325 0.7762535081918026 0.4297276609153521 0.06575254007275388 0.0958985697695369 0.0608557257987455 0.38601794961058156 0.034641236152706464

LSTM.weight_hh_l0 f8 [128, 32]
00000000: 9884 4381 acfe b1bf c530 08d2 52a6 a5bf
00000010: d415 e28b 9958 b8bf 7c4c ea3e 822b acbf
00000020: 3c3c 13b8 b741 bb3f 0604 2e8b 8948 a23f
00000030: 355b 42d2 c954 bbbf d511 4e90 f066 c7bf
00000040: 58ac 286e 533b 8a3f 46d7 7a7d be6b c13f
00000050: 05d9 60d0 d822 c2bf 3a65 6897 71e0 bdbf
00000060: ab5b 490f 660c 9e3f f337 5640 8ec5 b13f
00000070: b2f1 47a2 1a99 c23f e281 048d 98d7 7abf
00000080: c587 3285 51e1 b2bf 93ae e950 59f8 b2bf
00000090: f0f3 0197 b436 cfbf 1d8a 707a 5ad7 bd3f
000000a0: e6a3 cfdf f654 bcbf 1ee3 28ad cb54 c43f
000000b0: 2696 2c8b 0899 bf3f 101a 554e 5838 d2bf
000000c0: 9016 b350 06ee 7a3f 233c 839f d1b4 b43f
000000d0: 2845 e8ca 340e adbf 9663 825c 4045 bbbf
000000e0: 7969 d3c3 2137 b73f 0a40 4ec6 9574 ca3f
000000f0: e6b9 0254 2add ac3f 2bd7 0269 3530 d5bf
00000100: 29ab d6f1 1faf c1bf d7a8 af76 dea3 9d3f
00000110: 1225 e44f 2565 c63f 3528 4def 0e80 d6bf
00000120: 24c5 31a0 3ef4 d5bf e68d 9e88 e29f b73f
00000130: 6d98 c3eb 6f50 bc3f 1a7e 2e67 7d0b c9bf
00000140: f7e4 772d 9318 b53f 7597 688a a664 c13f
00000150: 48bd 4437 970e c6bf ebda 7f6c 9123 b9bf
00000160: 2cc4 5ae3 91c7 d3bf efb8 c068 4d66 d43f
00000170: b7e5 da06 99d5 d13f 0faa 6ee1 6e9b b2bf
00000180: f7f1 b3d6 f9b3 a83f ab75 d140 1a19 cb3f
00000190: 9319 8334 008d b2bf 56cd f0b7 a959 d2bf
000001a0: 2cd0 533c ba08 9cbf ae48 4300 f862 d33f
000001b0: 3eb3 8b69 4eab d63f e613 d3f0 7a74 bdbf
000001c0: bc45 ccba e613 cb3f 3a1b 0c2e e724 d43f
000001d0: ca66 d0d5 44a8 c93f 3264 bdad 2c51 c3bf
000001e0: 6942 41ee e2e3 c73f 1967 16f3 eae5 cd3f
000001f0: a2f3 0de3 7048 d2bf 85ac 3750 dc33 c1bf
00000200: b5b4 afa6 8839 b3bf bcbb d709 a0b6 d13f
00000210: a962 8ced 0fb1 c4bf 28cb 0863 298d 813f
00000220: 6c4e 34fa 7244 ba3f 0e26 d182 2b91 413f
00000230: ea08 123d 38af c0bf 94b4 2f92 77a5 d4bf
00000240: a7b5 6c6e 453b bb3f b7bf 1d0c ef9d de3f
00000250: 81c4 7a52 7b3e c8bf 384f 17b7 964f c4bf
00000260: 8883 87ce 9d7f b63f ba48 1538 a059 c4bf
00000270: e44f b7fe ac51 d03f d533 c42f e9e7 cebf
00000280: ad40 63e2 da51 8ebf 73f2 2287 8a14 68bf
00000290: 0b28 4181 01ea c8bf db1a 7774 c9df c33f
000002a0: d8e6 e0c3 6339 cabf 2971 5f5b 6379 a63f
000002b0: 3339 b890 d621 623f 1d96 993b 1b83 b53f
000002c0: 0cd5 ad55 7e89 a1bf 743d 485b 7817 c53f
000002d0: a7e1 6413 874e c33f e53d af3f f71e d43f
000002e0: a612 b502 25dd ca3f 7008 d2e0 6067 d03f
000002f0: 1334 d074 5e60 c1bf 5d0b daaf 682b c6bf
00000300: 8ca5 174f 5311 b53f 59b0 ad78 25a0 d13f
00000310: eb23 d63b ac09 d53f 832f 5ef4 12ec ccbf
00000320: c00d d3a3 f94c e0bf 255a 76f9 7600 c93f
00000330: 4e2c f06e 52f9 d0bf a65b ef5b 86ce b1bf
00000340: b388 5f0f 2387 b13f d08a 691b 22e3 963f
00000350: 27a8 ab4d 72f3 783f ad02 f020 5670 d23f
00000360: ebc5 58c1 195c c9bf 601c aa5b 52e6 b03f
00000370: 0537 e922 2700 cb3f f2e7 a697 d39a d63f
00000380: ca8c fbf9 b255 d53f 8ff3 dcf3 4822 d63f
00000390: 8f4a 46c5 75b2 c3bf 3a46 3979 23e3 97bf
000003a0: 4d2d 417c e505 d4bf 02ed 62c2 aa37 93bf
000003b0: 3ee0 afca a77a be3f 9925 80ba d887 c73f
000003c0: f1ec d7d3 eaeb 85bf 3f52 d128 0d19 d1bf
000003d0: c346 573f c512 bd3f 1a38 e7c2 7a86 713f
000003e0: e378 c662 802b d33f 6285 d3fb 0cb5 b1bf
000003f0: ca86 3b53 1aaa d0bf 589e e07b 649b 9fbf
00000400: 29df 3d6c bd43 d33f 79b7 a642 43be d43f
00000410: 153d d93f 409b c83f b724 3238 c89b cbbf
00000420: e9e1 c40e 58d5 c4bf c65d 3cdd 0661 51bf
00000430: 8999 52b4 be65 b7bf 9a9a 13e1 b01c b2bf
00000440: 4908 b3b2 2a19 9d3f 6508 955f c00c cdbf
00000450: 0e77 3bc0 7d4e ba3f 1328 a634 1e9b b33f
00000460: 800b b284 c144 d6bf 13a9 356c bbdf ba3f
00000470: ac47 a43a 2e64 be3f d2d7 4514 9245 c53f
00000480: cffe 30a9 c18c 9c3f f4ca ac30 73d9 c03f
00000490: 45c9 d47b 5021 c2bf a1da fd69 857d af3f
000004a0: cd65 16c6 69ea c4bf 98c7 fb51 e2db cfbf
000004b0: 17e5 c38f 772f c83f c360 932e cff0 c63f
000004c0: 3b43 711e 5749 bc3f be91 9654 cc6a d7bf
000004d0: 5c01 3343 9aeb a13f b6b2 a527 e14a d03f
000004e0: 6418 ae95 6886 ba3f e0ee 99b1 eb84 bfbf
000004f0: a805 e0e2 2eaf b1bf e71e 7fcd d3be ab3f
00000500: 0aff f788 695e c33f 5907 8d69 228b c3bf
00000510: 783b 72c1 1e3b d03f 21a0 b465 70d5 c73f
00000520: 05d7 ef23 18e3 b6bf 3369 781a 8228 b2bf
00000530: 8a7f d372 e0c6 d13f a593 fdd1 6e3c ba3f
00000540: 4924 0714 183d 92bf 592f 17de d158 813f
00000550: cc2f a15a 3120 a63f aaa7 fb6b 90a5 b5bf
00000560: c77c ff52 dff0 c2bf 194f 70be 5caa 91bf
00000570: d356 3264 b74d a1bf feb9 9a4d 58ce b9bf
00000580: 2f6a 4dc7 6aa1 c23f 5e5c df30 9183 5ebf
00000590: 10b2 45cd 3b6a a63f 0c92 7f83 0a40 b5bf
000005a0: d286 3fe5 14a4 adbf 961c c577 a006 a83f
000005b0: ba11 9071 47ed b83f dd4f a28a 742f c0bf
000005c0: c456 98c7 6444 9ebf 2d70 4c94 0dc4 ca3f
000005d0: d520 dacc a033 a03f c540 8e27 490a c6bf
000005e0: b1a5 7da4 80a3 bbbf 35ba 5424 8d92 d1bf
000005f0: e68a e10a 5627 cbbf d24f d262 f524 d33f
00000600: 78d5 5882 9126 bf3f c4c3 ae49 8999 cf3f
00000610: 55fa e3cd 5f29 8a3f e1a6 ebf9 4514 c8bf
00000620: 64d8 a6c8 98ca c7bf afa0 91a7 1504 c53f
00000630: d850 7cc5 dbbe d43f d4ef 2796 899e 8a3f
00000640: 7bdd 7b4d 9f37 ad3f 77ae 9edf fa6b a5bf
00000650: 9cb0 471f 7151 c13f 84a2 ed80 bcd4 c2bf
00000660: 3581 815c 05ad b9bf 43bc 60e4 5cb7 bf3f
00000670: fac9 ff85 7117 c23f 1a0a c0e5 444e cb3f
00000680: 245a 857c b0c1 c03f cd57 5bda 1cb1 d43f
00000690: 5819 f166 2852 a3bf 132c e237 fdff c1bf
000006a0: 3820 c956 c7bf d1bf 70c3 ad11 4f5f d13f
000006b0: 1eb3 e50f 121e af3f a2ec b923 08f8 993f
000006c0: 3742 1ffe b4eb 853f 19ec 8c1d 3822 b23f
000006d0: d731 e631 72b8 ba3f 331d 7d59 f40c b6bf
000006e0: b521 ff38 7229 d43f f3b5 044a 14f6 a23f
000006f0: 6526 9ffd 6b15 d3bf 4eec dc42 2932 86bf
00000700: 653b 13a3 8d08 6f3f 1fc7 34a1 ff41 ce3f
00000710: 7467 5d76 930d d03f dba9 4964 1fd5 b43f
00000720: c5de b20f 3a05 d1bf 5e3f a616 fa5f c3bf
00000730: f957 de95 f4f6 ad3f ace6 b1f2 662e ca3f
00000740: 7b60 7d70 e6a1 c5bf 7fb6 fa7f 5617 c43f
00000750: b9ff 0ac6 66d2 bcbf 72fe 7968 1197 963f
00000760: a80a dbc2 65c8 c7bf 1c9d b3a5 ef63 8cbf
00000770: e2f5 ae72 e141 c0bf 1e6c f24b eeb1 bc3f
00000780: a20d 18d2 64a3 c1bf b12d e8b3 18b1 aebf
00000790: caa4 dd4d 7018 a53f 8272 dcb6 79ab c73f
000007a0: 6865 5e78 513a c1bf 4490 4763 28f1 bb3f
000007b0: 7584 25ca 3287 c43f 8ccc e248 9b3d cc3f
000007c0: c572 1f81 88c1 b2bf d7bc 0897 0fef b9bf
000007d0: 7df9 5fed 2eb6 b73f 048a 571f 9276 b8bf
000007e0: 1134 ea53 ba10 a53f f740 4d16 8a6d b53f
000007f0: c5eb 0734 44a4 bc3f c325 bac9 3bb5 973f
-0.07029226451733661 -0.042284572733565486 -0.09510192551723345 -0.05501944559105085 0.10647152179738922 0.03570966552707237 -0.1067625177696357 -0.18282897039547544
0.012808467673570842 0.13610058905549688 -0.14168844389650573 -0.11670598932723389 0.029344172175423882 0.06942071028444712 0.14529736446264746 -0.006553264524228971
-0.073750586527722 -0.07410200333986898 -0.2438569772092758 0.1165672825741599 -0.11067145313394597 0.15883775668205485 0.12342885396773137 -0.2846890225377203
0.006574654263379678 0.08088407654143785 -0.0567490098657209 -0.10652544268158545 0.0906849959459687 0.20668289358991415 0.05637485766907328 -0.3310674214838964
-0.1381568842747012 0.02894542312052625 0.17496172333657306 -0.3515660607268985 -0.34303250926957873 0.09228339991982856 0.11060237413366432 -0.19566314256825096
0.08240623340670426 0.13588411100607414 -0.17232027243287917 -0.09819897555267303 -0.30905577852815 0.3187440417267586 0.2786619727081318 -0.0726842213031562
0.04824810739407675 0.21170356907798057 -0.07246400148424063 -0.28672259295418223 -0.02737704270562362 0.3029155733648946 0.3542057066650165 -0.11505859736924115
0.21154483910554045 0.31475238320165355 0.2004476589216238 -0.15091474994076887 0.18664204247990604 0.23357903356082302 -0.28567144559183977 -0.1343951598822494
-0.07509664601794237 0.27677155457689273 -0.1616535100845529 0.008570025763309966 0.10260695084098764 0.0005361044364999305 -0.13034728033023352 -0.32259930873881015
0.10637315698541859 0.478389512855752 -0.18940679099390326 -0.15867885532372283 0.0878847722265289 -0.15898516405520075 0.25498509287467486 -0.24145235855431105
-0.014804563554577344 -0.0029394822714421897 -0.19464129267936445 0.1552669352224346 -0.20487639488583542 0.04389486780539393 0.00221340091025648 0.08403177456929041
-0.034252117117754194 0.16477875191820213 0.1508339733789061 0.31439000338738615 0.20987379677003054 0.2563097186576959 -0.1357534475686469 -0.173199735512834
0.08229561501470622 0.2753995588780121 0.32871538012892526 -0.2259544079973886 -0.5093963813491698 0.1953266828611088 -0.26521740754896406 -0.06955756897455831
0.06846827626535194 0.022350819514381837 0.006091543672235778 0.28810647217327806 -0.19812318745384458 0.06601443040755006 0.21094216541899172 0.3531998616195998
0.33335565960278457 0.34584258856539746 -0.15388366825626007 -0.023327402376088303 -0.3128598893569759 -0.01876704036179167 0.11905907343305075 0.1838332090995152
-0.010703882780026737 -0.26715401636218766 0.11356766506585374 0.004278640305029691 0.299530121288525 -0.06916886470891861 -0.26038225296188655 -0.030866212902905893
0.30100951738812626 0.3241127158061015 0.19223788373572206 -0.2156915926355276 -0.1627607414354906 -0.0010607306512094724 -0.09139625456245971 -0.07075028891595495
0.028416316182081656 -0.2269516436300051 0.10276018088503866 0.07658566270234272 -0.3479465289930701 0.1049763812240239 0.11871613437349876 0.16618562688716892
0.02788069338953286 0.13163604618747338 -0.14164167448468326 0.06150452536433205 -0.16340372249832882 -0.2488978290853623 0.18894857902322634 0.1792239167614352
0.11049408429358902 -0.36589344273150093 0.03500063009551255 0.2545702826671844 0.10361341146753628 -0.12312195859879749 -0.06907933272306954 0.054190272173910085
0.15131873310019045 -0.1526835456261846 0.25360840693695463 0.18620114294140058 -0.08940268399586777 -0.07093060632943064 0.2777634736394182 0.10248463274690651
-0.01781118032684884 0.008470191564718442 0.04321436148947519 -0.08455755840591786 -0.14797584107052428 -0.017251443026977762 -0.03379605386832698 -0.10080482382429776
0.14555105907023022 -0.0018624227409327547 0.04377924805416822 -0.08300843916328676 -0.057892468437570024 0.046925558681828836 0.0973705913784845 -0.12644821900596429
-0.02955777614814427 0.20910806409017493 0.03164389134059468 -0.17218889647893412 -0.1079636003102198 -0.2745697836680024 -0.2121379426126488 0.29913077021160206
0.12168225700664503 0.24687305543696259 0.012774227591305346 -0.1881186933817878 -0.18587026402900897 0.16418715173791074 0.3241490772791287 0.012997698683641014
0.05706498928878553 -0.041839446828217434 0.13529790904374728 -0.14711719794583555 -0.10029634006923945 0.12389164519912392 0.14134043734482288 0.213326084311192
0.13091093139765164 0.3233101017370899 -0.037736189428459965 -0.14062466839490692 -0.2773302409664242 0.27144219137613046 0.060776295128425625 0.025360228710706985
0.010703481679145017 0.07083464356848913 0.10437692373506678 -0.08613516983779305 0.31502967420649536 0.037033685718011265 -0.2981824852728095 -0.010837862351413954
0.0037882582042593643 0.23638911601443 0.2508286147982439 0.08137699316436146 -0.2659440186794025 -0.1513664827912135 0.05852474526834323 0.20454108095491585
-0.16900330059684507 0.15696221589080392 -0.11258547148736299 0.022060653688184613 -0.18580314649996876 -0.013862488025962842 -0.12701051807191194 0.11209000925229914
-0.13779888399595303 -0.05994488903169371 0.04120207739362909 0.18492051533475623 -0.13459223153476363 0.1091485254651739 0.16037592764317635 0.22063008364566306
-0.07326558258450706 -0.10130402982098317 0.09262364669118557 -0.09555924668487853 0.04114324831343919 0.08370268864132756 0.11188150663649228 0.02315228861565345

LSTM.bias_ih_l0 f8 [128]
00000000: ec3b 7a06 b467 c73f 8565 509c 01b9 bf3f
00000010: 296f dc34 8b12 d03f ed1f d3eb 9161 b23f
00000020: 5e09 74e9 57d7 b4bf e780 7fd7 486c bf3f
00000030: 5857 652b a369 b83f 337f 9f6b 516a c03f
00000040: 0b42 bd3f 5234 c1bf 0926 3a15 78ab 91bf
00000050: 38c0 2394 dc0c c03f 35ef 6c5c 09ce 9dbf
00000060: 6d6c 4e61 db8f d03f 7789 7118 319c b83f
00000070: 5ce2 e3ad bcea c33f 058f 2873 ffb9 7c3f
00000080: 51ab a1dd 2125 b23f fd1a fb20 d570 bbbf
00000090: fe7b f4d9 ed26 7e3f 4c48 263c 0ef9 c93f
000000a0: 49f2 0ec9 49d5 c8bf 2ff9 1656 ff0c cbbf
000000b0: 6436 0806 b478 adbf c65b 60b7 54ac be3f
000000c0: eeb9 1de6 a018 d43f bd45 6e0d 7778 c33f
000000d0: 56c0 0739 c672 9e3f 2507 7328 dfff c63f
000000e0: 68b9 c19a 961f ce3f 378e 7bbe 5b02 b13f
000000f0: 91ff 1c24 c61f be3f 378a 7230 14bb d53f
00000100: 1311 9999 31a5 db3f ac3b 2c77 ac5d af3f
00000110: 2cc8 db29 fd23 9c3f ed49 ebcf b2e2 ca3f
00000120: 9657 870b 41a4 d23f 10e1 62c8 507c a13f
00000130: 2121 ccc8 3aad c83f e0ef 2753 1762 b1bf
00000140: 0f59 ae5d 2cfb bcbf 395a 0fd3 e18d 88bf
00000150: 1827 5a3b 0662 cf3f acab 7c66 b907 bbbf
00000160: d791 94ca 58e2 c63f 8c7a 9d5d 00cb 62bf
00000170: eb85 ff8a 4f40 a93f 2598 dab2 abdb c63f
00000180: dab1 3682 6231 853f 7d60 7478 c9b2 bf3f
00000190: af3e ed56 5a44 c13f 4266 8e2a 7020 ce3f
000001a0: 355c a87f ae1c a2bf 6d7b f25e ce33 913f
000001b0: 26d8 9022 ab55 a13f ada9 355b e1c3 d03f
000001c0: 1b9c ddb9 3c48 c43f e690 603c e656 a23f
000001d0: 082f 2342 b08a d13f 928e 262d 0e0e c73f
000001e0: 1ff1 9686 d34b b13f d165 1a1f 26c2 b83f
000001f0: 15cb 622f 1eca c03f ddc8 e77f c474 cd3f
00000200: 6d5b e214 9152 c7bf eb8c ff41 e21f bd3f
00000210: 5c73 50b1 896a a83f 1e3c c1c4 10f9 b3bf
00000220: 5355 a50d 8ea4 b8bf d2fc d2fd 016e b73f
00000230: a3ba 8347 d8b0 b3bf eafc 64db 3ca3 c0bf
00000240: 71bf f661 b930 b53f 0d10 e88b 3cd0 c2bf
00000250: b4e7 50bd 403d c1bf 1222 dc8c ea59 c3bf
00000260: 6a6c 947a 22c4 a03f 6116 02f3 a828 aa3f
00000270: 5704 8652 65dd c23f b6d3 d02f a3d4 b93f
00000280: c3d6 d531 7704 cabf d282 b310 8ccf b63f
00000290: ce97 1aaa e0a5 86bf dfe1 2a4d 577c b5bf
000002a0: 457e 297e 3c3e c0bf 7664 10fd 5716 c93f
000002b0: f93d b8da 6bb2 c03f 39af 6e6e 8114 6b3f
000002c0: 1dc6 575b 62fe c23f e65a 46fd 9c86 b1bf
000002d0: a3f1 f0d0 88ce ac3f 52df 2a56 2ad4 873f
000002e0: dffc 7187 25d9 983f a29d ee70 2e1f aebf
000002f0: 1d4b 358d 2312 98bf 48fc 0d40 ffbe 9b3f
00000300: 8c6a e2bf 2136 be3f f483 7dec d2f6 ad3f
00000310: 94de 3e91 856b d33f 1f0d a1bd c00c d33f
00000320: f024 c194 99ac d03f 040f 76a9 c8d4 c23f
00000330: 99d7 a22e d35e b53f 5312 c16c 1859 ba3f
00000340: 220c d8d3 b208 c33f bd94 5d7c 121b 843f
00000350: 88f2 4c3c 07af b23f cd18 6a6e 9a2b c0bf
00000360: 469c b0cb 5d55 aa3f 654e 18a2 7ee4 b53f
00000370: 54ce 772c dde3 92bf dcc2 ee9e 5cda c83f
00000380: 5e91 9c81 7747 d03f 7fbe 07b0 b5af aabf
00000390: 9c4c 8d73 d673 c93f 3498 4dec 7ea5 b33f
000003a0: e329 aa9a 4aef b4bf 25d0 2917 ce33 bb3f
000003b0: de1f f84f 4a10 cf3f e823 9f81 0613 d43f
000003c0: d6fb ecda dfa9 99bf 92b1 d3c6 adef 7d3f
000003d0: 636f f3f8 e696 b8bf 4c68 1957 c81c bb3f
000003e0: 52a5 8d3e aecb bd3f a5b8 64dd a711 b8bf
000003f0: cb5b 2370 e4df cdbf 06e6 75f8 81f8 d13f
0.18285227123530434 0.12391672197590793 0.251131822225704 0.071801300119773 -0.0814108796076076 0.122746040927726 0.09536189851254784 0.12824456934958448
-0.13440921890516253 -0.01725566510734747 0.12539250596410212 -0.029106279627043114 0.25878033163616615 0.09613329741254072 0.15560110560160723 0.007013318873337009
0.07087909375119962 -0.1071904378432968 0.0073613444394871035 0.20291307389249125 -0.19400904004386835 -0.21133414939499448 -0.05756151746400631 0.11981706120455646
0.314003205034992 0.15211380153463763 0.029734704237796748 0.17968358492913086 0.2353389983795282 0.06644223595099495 0.11767233258888 0.33954338771050935
0.4319576263408333 0.06126154856439511 0.02748103683456564 0.2100432887296643 0.29127527356956173 0.03415157743569541 0.19278654865798564 -0.06790300159622076
-0.11320760047087595 -0.011989368680514466 0.24517896554999008 -0.10558661224483384 0.1787825574075572 -0.0022940642492551063 0.0493187768149815 0.17857881768321807
0.010348100279622342 0.12382182303224627 0.13489846462697616 0.23536493375722684 -0.03537507351227768 0.016799187226406987 0.03385672375627306 0.26195558459462626
0.15845450473281705 0.03581923949266912 0.2740898748277094 0.18011643604869626 0.0675632670963222 0.096712477296385 0.13116814912572097 0.2301259636438492
-0.18220723647820183 0.11376775847707037 0.047687819380576285 -0.07801918796143112 -0.09626090844297623 0.0915223354995647 -0.07691718812905406 -0.12998161995526597
0.08277472154327171 -0.14697987395641157 -0.13468178981730505 -0.15118152501987986 0.032746388877250635 0.051091460861283584 0.1473814633318706 0.10090083997131569
-0.20326127942433034 0.08910441787476067 -0.011058573905142224 -0.08392854341480625 -0.126899301149921 0.19599437576906426 0.13044498614952696 0.0033056762653894925
0.14838818988896288 -0.06846028502910037 0.056263232713237764 0.011635142092344761 0.02426584853355684 -0.05883164528432451 -0.023506694310820742 0.027095783505043408
0.11801348623922986 0.05852374207348268 0.30343760666026154 0.29765337484805515 0.2605346634559984 0.14711864733191515 0.08347816361023631 0.1029219880593442
0.14870295852605958 0.009817261143050588 0.07298321935827279 -0.12633066550569652 0.05143254386376177 0.08551780183216236 -0.01844735702429852 0.1941638732946761
0.2543619886148657 -0.052121808755939185 0.19884758608040876 0.07674401539915793 -0.08177629734033291 0.1062592321921448 0.24268463997600426 0.3136612191997856
-0.025062082039990795 0.007308653655155333 -0.0960525853910759 0.10590793730207898 0.11638916995220441 -0.0940194049369177 -0.23339515185827361 0.28079270614361496

LSTM.bias_hh_l0 f8 [128]
00000000: e83b 7a46 8d8d ca3f b532 28ee b2b2 c73f
00000010: 0fbd 7133 033b b13f eb8f e905 39dd c83f
00000020: 9cf6 8b56 afd7 b53f 86ed 0788 fa08 7cbf
00000030: 6357 65ab b11a bd3f cd80 60f4 e10a c6bf
00000040: 027c 8580 025b b33f 6a4c 742a 6c5c 8ebf
00000050: 5bc0 2394 141e c83f 5488 c9d1 2efd a93f
00000060: d271 32d6 2521 8cbf 25b3 733c 9ae6 8bbf
00000070: 5fe2 e3ed 304b c13f 9abb 66e4 204f c0bf
00000080: 3cab a11d ce78 bb3f ece4 04df d6e7 b93f
00000090: 68b8 6022 18e6 b4bf f541 32e1 97d6 923f
000000a0: 1637 c4db 2162 ae3f 73f2 2dac b6df b1bf
000000b0: 67f2 7d7e c80b c43f c95b 6037 763a be3f
000000c0: c573 3b8c 7fc8 ce3f 4a74 23a5 db21 b6bf
000000d0: 21f8 2067 4585 ca3f 2907 7308 e844 c73f
000000e0: d133 f229 5ea3 94bf e171 84a1 a98b b2bf
000000f0: 8100 e39b 2282 b6bf d828 ca01 ef7d bb3f
00000100: 0211 99f9 b0ca d73f e01d 967b 94a4 b13f
00000110: 21e4 ed94 c7bc a63f e449 ebef 9617 c83f
00000120: 9b57 87ab e71e d23f 7d11 2e86 f449 6d3f
00000130: 7410 663c 823e db3f 0208 6c36 d956 c03f
00000140: dbc8 72ed 0ed2 8cbf 3785 67d1 5173 d23f
00000150: 904e b436 0482 ba3f 28aa c10c d502 c83f
00000160: e091 948a 4f93 cf3f 4d28 26ba 1343 af3f
00000170: 33f4 006a 3b77 94bf 0e4c 6da9 235d d13f
00000180: 0572 4aee b340 57bf 3b30 3afc f576 c33f
00000190: 6705 4b24 1235 a6bf 5dcc 1cd5 780e b93f
000001a0: 1c17 ea7f 2e22 cabf a03d 792f 3976 a13f
000001b0: 316c 4811 c6f3 b03f a7a9 35cb 06c4 d63f
000001c0: 33e0 ecce 6baf 943f 3424 189f 5e30 c03f
000001d0: 032f 23a2 c3c0 d33f 968e 26ed d0e2 c33f
000001e0: cf0e 6999 87f3 b5bf e732 8d6f b426 cc3f
000001f0: fcca 622f e9c3 c43f 0b23 9fff 2531 a93f
00000200: 5149 3b96 0fa8 be3f b719 ff83 5607 a73f
00000210: 45e3 abf3 ed9c c2bf 4978 8209 aab9 a4bf
00000220: b055 b564 71f6 aa3f c8fc d2fd b46f bd3f
00000230: 1745 7c38 7940 bf3f f5f9 c9f6 1134 b8bf
00000240: ccf7 6b1f c601 763f eedf 2fa8 be61 b73f
00000250: 6dcf a11a ff40 b1bf a142 849b 09d3 71bf
00000260: 8493 6b05 33a2 abbf bc2c 04e6 e00b 9d3f
00000270: 16dd cf6b fe1e 9dbf 63a7 a15f 1164 a23f
00000280: 5452 549c 35de ba3f dce8 637a 35bc 8bbf
00000290: fda5 862a 9782 a7bf d570 9556 667a c1bf
000002a0: b6cd 2fc5 afcf 70bf 0bc9 20fa b917 bd3f
000002b0: ee3d b89a 3885 c33f c1ba b985 5e53 c73f
000002c0: 20c6 575b a91d c73f a2d2 5c21 1aa2 c73f
000002d0: e21c 1e5e 55ad 9abf 6e6f 152b 91c4 983f
000002e0: 1a7f dce1 184d bd3f 4eb1 8847 91e5 b53f
000002f0: b852 4de3 5488 babf 6e40 fe17 0535 c1bf
00000300: 8a6a e2ff ece7 b23f f360 1f0b 0344 c23f
00000310: 28bd 7d22 a26e cf3f 0234 84f6 67db b93f
00000320: d7d8 f6d9 959b a3bf 3e1e ecd2 c130 ba3f
00000330: e7b5 a85b f4b0 d03f d776 9f49 56ec c4bf
00000340: 4418 b0a7 e4f7 b63f 16ca 2e3e f262 993f
00000350: 2179 266e 0bb2 cb3f 64ce 2be3 4a42 b03f
00000360: 294e d825 777f b73f 4b27 0c91 4e29 cb3f
00000370: 7e0c e2b4 9c82 b03f e7c2 eebe 5d7e c63f
00000380: 5a45 7206 5610 b93f 9f41 f8cf e47c a83f
00000390: 8566 e5b8 cf34 b2bf 18cc 2696 826b cb3f
000003a0: e629 aa9a 2b59 bcbf 53d0 2917 41fa b73f
000003b0: ed1f f82f 55bf c03f c347 3e93 d78a c33f
000003c0: 8160 a224 52f8 c33f a289 25c7 7cd1 a3bf
000003d0: 9890 0c87 c730 ba3f 4068 1917 ca88 bd3f
000003e0: 2f53 dae8 4521 7f3f aca3 4d11 93c7 c13f
000003f0: bcb7 4660 6ec9 b2bf e2cb eb70 b7f0 c53f
0.20744481984408414 0.1851409590602963 0.06730670934642922 0.19425118244828296 0.08532234061200444 -0.006844500196616981 0.11368856844395973 -0.1722071116682912
0.0756074489377028 -0.014824719472505705 0.18841798051244293 0.05075975714568473 -0.013735099410319505 -0.013623433084342171 0.1351071511815176 -0.12741480972678404
0.10731209014344939 0.10119383759310424 -0.08163596000005813 0.018396733398334992 0.05934243972488511 -0.06981984809494594 0.1566095941197034 0.11807955600703147
0.24049372050549614 -0.08645413190556997 0.20719211135468732 0.18179035580220074 -0.020154448805033646 -0.07244358247084605 -0.08792320543125422 0.1073903445596075
0.3717462956885954 0.06891754166837627 0.04440902417167814 0.18821989741134282 0.2831362891278048 0.003575303636752901 0.42569023035344533 0.1276504054767998
-0.014072529431676297 0.28828854989668024 0.10354639373354702 0.18758643267513375 0.2466830660497541 0.061058632348320964 -0.01998608431334876 0.27130977197265416
-0.0014192349564502449 0.15206789794717843 -0.04337364857702646 0.09787707522336704 -0.20416814084836055 0.03410509781371762 0.06621969148584196 0.35571451039018104
0.02020042849036958 0.12647612350727544 0.3086403926251792 0.15535937862033639 -0.08574721808787021 0.21993117758611122 0.1622287255646241 0.04920309777623374
0.11975190561068884 0.044977859127857504 -0.14541410825747839 -0.04047900549015588 0.052661460441110974 0.11498576352004186 0.12207753781355667 -0.09454452777024598
0.0053727854890421416 0.09133521658065977 -0.06739801788518003 -0.004351651696439391 -0.05397185746350089 0.028365625418740534 -0.02843854458839442 0.035919707225572826
0.10495314661631855 -0.01354257373576611 -0.04591820139041756 -0.13654784419748603 -0.004104315378742942 0.11364328724519994 0.15250308565781218 0.182231726928384
0.18059269867039607 0.18463446263344446 -0.02605183970402159 0.024187343840238844 0.11445765985672232 0.08553417202410182 -0.10364275502554221 -0.13443053885976347
0.07385140654734293 0.14270055811972035 0.2455637615598587 0.10100412147967577 -0.038296397072757386 0.10230647468062501 0.2608004469974205 -0.16346243471973906
0.08972004980032106 0.024791512532553815 0.21637099150115893 0.06351154371423601 0.09178871797512812 0.2121980865707037 0.064492983017816 0.17573139021762715
0.09790551812536333 0.04782786406224492 -0.07111833824219545 0.21421844798678147 -0.11073563123696992 0.0936623269606696 0.13083901254890354 0.1526746243439999
0.1560156515959115 -0.038707637128726505 0.10230681464287483 0.11536849082895717 0.007600091060926669 0.138903029869906 -0.07338609552854697 0.17140858663296316

LSTM.weight_ih_l1 f8 [128, 32]
00000000: b64c d935 d1f9 b8bf dd3c 8904 8378 903f
00000010: 74d5 50f8 7215 6cbf 4fd3 6168 5ddd d83f
00000020: efa7 3379 862d 993f 3963 2339 d864 bf3f
00000030: 8d3d 8ff0 ca12 7a3f 5e1c d072 101c ad3f
00000040: 7a79 968b 2af3 aebf 2b3b f3f1 4d80 c03f
00000050: 55b5 e4f1 9c72 da3f 2711 b8a8 f5a3 c13f
00000060: de07 43f1 c55b b4bf b89e 2d88 d8d8 b3bf
00000070: 17d4 688a a792 bfbf 80e0 7c02 d61c be3f
00000080: 8f32 59d0 59a2 d63f a94c 4dd7 4f97 c43f
00000090: 0ccc 883d 2e0a ce3f ae4a 5c06 8aaf bb3f
000000a0: b660 f181 1422 cabf 7a16 1096 d613 c2bf
000000b0: 5f0f b13f c0b5 bfbf 1216 f0e8 5e0c cdbf
000000c0: 7e47 1b9b 26f0 adbf 07bb ecb0 fb7e c1bf
000000d0: fd7c ef6f 44ec ce3f d57e 1be9 da96 d4bf
000000e0: 29dc f122 34d8 89bf 45cf 10d3 9fa7 c1bf
000000f0: 5365 d39f cc26 bb3f 4811 2589 adea bc3f
00000100: fb8f 61f2 a1e8 b73f 4eaf bf86 a05e b13f
00000110: dc55 26bb 40bc ca3f 416d 33d1 2469 c8bf
00000120: bb92 3f7b 9f05 a23f 39ab f97b 6274 cd3f
00000130: 52bf 6fb5 ba61 c53f 25b6 8b46 9cbd b0bf
00000140: 9668 51b6 6b81 c7bf e03b c2ec 01f1 c43f
00000150: 92a1 f3b1 0d2f c8bf 49ee 69bb 16f3 c5bf
00000160: e8d3 dad9 e517 c5bf d530 72e9 50b3 bfbf
00000170: bfeb d2aa 3378 c83f e103 67ef b27b 82bf
00000180: 404f d6c8 6875 b0bf 810f d381 36bc cbbf
00000190: 459f 61bd a2fd a1bf 97a4 2184 4958 ba3f
000001a0: 750f c8a5 af0f a0bf ab1e 1375 7e9e b1bf
000001b0: 4058 187c 6dc5 d03f 4db4 b5d6 28f8 ce3f
000001c0: ec87 583a b54e cd3f 0c80 29ab 7a22 a13f
000001d0: 4a5a a330 c912 83bf 8b41 69d7 e6a0 d5bf
000001e0: 5bc3 c419 dd13 d13f e16e e2b4 d6b5 c7bf
000001f0: 1906 c43a bbc6 ac3f 8609 6ead 1c29 b03f
00000200: 4ce9 b7ae 6bb9 c5bf 4269 db52 fd11 a53f
00000210: 3b2c e04c 95f8 be3f 2ce2 e28c 9aaf cd3f
00000220: bed7 36cb b2bf babf ede1 8fed 52e7 ccbf
00000230: 60f3 1aa0 3af8 b8bf 6fbe 2d95 c433 babf
00000240: c47f 5c06 fd16 a2bf d17f daff 704b b5bf
00000250: 38e3 9a51 d606 b5bf 8e22 a709 dca4 99bf
00000260: 0f69 6b17 6007 c0bf a8e8 f47b 9d92 c43f
00000270: a547 ec50 53b2 c3bf 5fef b9b4 8891 a53f
00000280: 43fb 4650 3eec 8c3f ccf0 ebb3 4fd4 acbf
00000290: 6733 e1d9 65ce b23f 70f6 0897 5487 c33f
000002a0: f0ba 70d6 ca93 c5bf 0183 0cfa bab1 d1bf
000002b0: 2f9a 4581 27c1 cabf ebb9 3ed8 8f1b c63f
000002c0: f15f ac12 db26 b73f c3b6 a2ac 93b8 d3bf
000002d0: d670 7686 9eb1 bf3f 5790 5ecb 2ada cb3f
000002e0: f75b 3903 a767 d73f 86a6 2f51 c2f4 c8bf
000002f0: a448 aeeb daec 973f de97 1cda d821 cf3f
00000300: f0e9 43c0 235b bdbf 7b50 82ee fb04 783f
00000310: 4b57 2396 46fd c1bf b42f 5499 9c84 c13f
00000320: 1f49 35e2 a476 c4bf e49a ae55 2ca1 bf3f
00000330: ceaf 5310 0f94 c8bf e853 2bd6 326f d6bf
00000340: 1883 4911 7a80 cfbf f1e2 15af b7d8 e13f
00000350: 82f1 64d0 9180 c8bf 0a2d 07aa 6cbe d2bf
00000360: 5a1e b4d4 d8bd d43f b272 8024 2199 93bf
00000370: e8f1 2728 4b58 bdbf 5ca2 7efc 5858 7bbf
00000380: fef0 ad1c 90a9 d33f 3779 723b 0c3b be3f
00000390: abca 2d1c 5ffe b2bf 1de9 ae1e 972e be3f
000003a0: cdbd e888 fa39 c8bf eeee 18fa 50aa cf3f
000003b0: 919e b395 7dd2 bbbf 0712 02ee 1d79 c03f
000003c0: 52c6 86c2 ccf0 b53f 85ab 4ad2 50e4 db3f
000003d0: 8b32 a1d4 0d92 b23f 4bf9 8210 4771 e03f
000003e0: 7511 a217 4736 acbf 5ef1 7445 7b10 dd3f
000003f0: a4c7 6c7c a644 9b3f c64f 2ac0 1091 d5bf
00000400: d7b7 7430 b806 b5bf 8601 ad0b dba4 9f3f
00000410: ab54 bbb0 5009 c73f 34ce f504 5292 cabf
00000420: 2196 f7ff 1155 d0bf d5cc 49ba 6ab3 b63f
00000430: 506f fb1f 2d92 b33f 2368 56ed 2c11 bbbf
00000440: ab3f eb19 5a58 bdbf 0a70 5f53 27e5 d03f
00000450: f552 e755 e42d e1bf acc7 0233 38a6 d0bf
00000460: 61bc 746b aca1 c2bf aaf1 73d2 bba1 c43f
00000470: 30b1 ccc3 4938 b6bf eaa9 9841 774e 973f
00000480: 7f47 f1ad ad9e c03f 9657 ec9c 3adc c4bf
00000490: 965b 255a d496 d0bf 8e1c 3fd5 671d aabf
000004a0: 2c4a 1480 25e2 b3bf 3218 c710 b1be cc3f
000004b0: bd81 cde0 e8d0 c83f 3b38 1f41 ef2c a03f
000004c0: b687 9357 7cde d63f 33de 7643 318d ca3f
000004d0: eb8f 97f0 31ba b13f c008 b51c c963 c73f
000004e0: 87fe b187 4f4f a9bf c5b3 c830 2e7e d13f
000004f0: 8318 2281 b2c0 bcbf 3b12 dae4 5df2 d1bf
00000500: e93d 9b54 fb36 a7bf 04a1 85d6 751d ba3f
00000510: fcf6 57be 596b d43f db81 b02a 6e7c d3bf
00000520: 7c4c fd62 7b92 d0bf fff5 3365 6e13 cebf
00000530: 05f5 9cad f891 c33f 6afd 8127 fb32 a83f
00000540: 7f07 13b7 f7ea c73f 6dac c6c2 f923 d0bf
00000550: b5a0 0958 3e0e a23f 67c3 0d72 fadf d33f
00000560: a94b 9043 8fd3 dcbf d9e7 40e7 9942 c53f
00000570: fddc 65eb 88c8 a3bf 4bcb e695 0516 cb3f
00000580: 8fda d0d8 db0f c3bf 3469 c500 4136 b93f
00000590: 604f 7a9e 01f9 b1bf 4073 6fb9 5510 d0bf
000005a0: e52e 48c0 5168 b0bf 22ec 26f4 0010 d2bf
000005b0: 8f18 57b1 4cba d53f 50f2 4bb8 4ae4 d13f
000005c0: f58b b5fe aee0 d23f 7110 b9d3 3ed5 cfbf
000005d0: 2bb2 aff9 1b4a c93f 03ec 569a 1ff7 b63f
000005e0: d934 b959 9d62 b6bf 0b45 6d7c eb5d d5bf
000005f0: cacf b8c3 ec17 a43f c198 4c8b 01e3 b63f
00000600: b472 5308 75b0 c4bf 2964 c1ef be9b d03f
00000610: 896f f546 cb2d acbf f2fd b2ec 3699 c3bf
00000620: 00d1 a533 ebfa c3bf 9ab0 861a 99d5 adbf
00000630: eab1 6547 2512 b0bf 718a 8f5a 2789 b5bf
00000640: 56f0 7721 e1a3 95bf 852c 31e7 b652 cb3f
00000650: f195 2b13 a000 cebf b691 e501 7a65 c6bf
00000660: c84f 1018 9648 b9bf 0e21 60b9 3f5b b3bf
00000670: e7d8 5368 026b c73f 9e0b 8187 1e52 8ebf
00000680: 109b 100b f92d b2bf 05df aaa0 7e49 96bf
00000690: 371f 504a 9375 b9bf 8870 0c18 a434 a63f
000006a0: 69b0 4186 ba54 bbbf 2060 8f45 5e01 d33f
000006b0: b864 f716 642a ad3f 8ba5 e9c1 f721 9bbf
000006c0: 6cc4 d99a 989f c63f 7b95 39a4 3366 d33f
000006d0: c9b8 295d e6a4 ba3f f33e 9a2a 8204 9e3f
000006e0: 1966 6635 c803 c43f e074 9492 7978 cf3f
000006f0: e47b 8920 2f14 c6bf 198e 02cb b200 d0bf
00000700: 3237 5517 3450 b23f aa62 c56f 7c63 b93f
00000710: 7e1c 57c6 e200 a4bf 0c85 082c 52f8 b93f
00000720: b38e 9141 1b09 86bf 6b11 c0ce 2533 91bf
00000730: 03f0 f4df fd57 c03f 2a18 ba1a 1d4d a83f
00000740: 2700 799e 0daf be3f 0598 5fab 01b1 cb3f
00000750: bec5 efde 1970 d83f 6248 df94 ab2b c0bf
00000760: 571c 5de3 0a3c b6bf d08f 87e7 c186 d03f
00000770: 2f6d d3c1 64ec a6bf 014f c358 46ba a03f
00000780: 86da af1f 787e b83f 2ae9 0a88 f92e d13f
00000790: f1ab 8402 80aa bbbf ff52 93da c049 c2bf
000007a0: 289e e97f 6b9d c4bf b52a 0807 f570 aabf
000007b0: 08e6 0b79 e5fa b2bf fb90 2ac0 dcca b03f
000007c0: 4d69 9843 79c5 c13f b904 aa96 fa97 b0bf
000007d0: 6098 3e06 2c25 c13f e1ec c824 fe08 a93f
000007e0: 787d 1d71 caad c23f 164a 229e a078 d13f
000007f0: 1a0a fe44 652f ac3f 1ca7 bd1f 3fa2 9ebf
-0.09756190838497755 0.01608471598802629 -0.003428196478604201 0.388511039672541 0.024587727687425284 0.122632516813053 0.0063655783969375325 0.05685473825001773
-0.060448960818791656 0.1289155417821005 0.4132454263916164 0.13781615007622713 -0.07952534809285747 -0.07752755474723017 -0.12333151940477226 0.11762750206696815
0.35365910860563415 0.16086767208853317 0.23468568806274026 0.1081472650078392 -0.2041650423514107 -0.1412304146507955 -0.1238670497414751 -0.2269400250808507
-0.05847283023253079 -0.13668771876242422 0.2415853067932189 -0.32170746578593185 -0.012619407001905074 -0.13792798810902177 0.10606078054424488 0.11295590017568202
0.09339344184405711 0.06785014428868161 0.20887002123042364 -0.19070873465430263 0.03519914988991021 0.2301142793033593 0.16704496249394168 -0.06539322588260939
-0.1836371078705425 0.16360496578678774 -0.18893595875784946 -0.17148098136009285 -0.16479180467072685 -0.12382989596716538 0.19116826859484878 -0.009024999552709136
-0.06429152396441129 -0.21668130244335873 -0.035138211839522294 0.10290965534081163 -0.031369675623891626 -0.06882467611569136 0.2620500289789369 0.2419482277286157
0.2289644751445502 0.03346618022328593 -0.00931317500764552 -0.3379456618904661 0.2668373824736158 -0.18523677665950003 0.05620369999270398 0.06312731966139581
-0.16972108870670366 0.04115287434042837 0.1209805786785844 0.2319215000077447 -0.10448758565220737 -0.22580944633206404 -0.09753767403431146 -0.1023524154859332
-0.03533163740780723 -0.08318239447044042 -0.0821355771285085 -0.02504295166889619 -0.12522507804425984 0.16072433998653435 -0.15387956095997626 0.042125961362187374
0.014122473549716857 -0.056307306969729604 0.07346188134506591 0.1525674569583546 -0.16857276411743483 -0.27647280138812397 -0.20901960193732935 0.1727161222347172
0.09043664174930634 -0.30814067706056053 0.12380400450496451 0.21759543352266306 0.3657014399990994 -0.19496945346991285 0.02336446822625561 0.2432204308508394
-0.11467193073250548 0.005864128215893878 -0.14054186182937153 0.13685948836098094 -0.15987072987861325 0.12355305759283969 -0.19201839730464915 -0.3505370227333615
-0.24610830158328478 0.5577047748220975 -0.19142363238814758 -0.29287258724498655 0.32408734103998926 -0.019138830044641515 -0.11462850313541362 -0.006676051714670974
0.30722430039146775 0.11808849765154582 -0.07419390142403397 0.11789841174223566 -0.18926936802880193 0.24738514148508933 -0.10868058113885072 0.12869619485367442
0.08570556401425591 0.43581028496071667 0.07254110757021175 0.5138278315060146 -0.05510160602082951 0.4541309526719227 0.026629067749304305 -0.3369790913213787
-0.08213378127103908 0.03090231188548522 0.17997177724342825 -0.20759034387775588 -0.2551922797850655 0.08867518470815423 0.07644922285856848 -0.10573082727788168
-0.11462939389025333 0.2639864267528088 -0.536852042942512 -0.26014523488549446 -0.14555888411402676 0.16118572021504224 -0.08679638891471053 0.02276026094311049
0.12984248154912945 -0.1629708543993586 -0.259205902131208 -0.05100559690577554 -0.07766947152075748 0.2245694477007319 0.1938754174871188 0.03159282369561863
0.35732945015308404 0.2074338511863388 0.06924736141041847 0.18273271466939 -0.04943321734844824 0.2733264423757727 -0.11231532719293295 -0.2804178938752419
-0.04534135253708966 0.1020120285735438 0.31905215824359323 -0.30446962517637893 -0.25894055048883735 -0.23496799413253197 0.1528921935768396 0.047263954708791925
0.18685814322639868 -0.2521957780942959 0.03526491951635206 0.31054555070936946 -0.45041257474911817 0.16609500686337134 -0.03863933442601739 0.2116095525685416
-0.14892147146902743 0.09848409909082961 -0.07020578497968932 -0.2509970007793534 -0.06409178680786061 -0.28222678988430705 0.3394958240354606 0.2795588302394991
0.2949635970491607 -0.24869523370773863 0.19757413570131752 0.08970830457739969 -0.0874422401477263 -0.33385741377885897 0.03924503220733262 0.08940133715495603
-0.16163504511395888 0.2595059720384279 -0.05503688088603471 -0.15311323697640905 -0.15609493276463837 -0.05827024887852979 -0.06277688019844843 -0.08412404976801625
-0.02113296286368923 0.21346174515415242 -0.23439408241317453 -0.1749718198071954 -0.09876382911198711 -0.07561109805840635 0.18295316785924529 -0.014805067548996406
-0.07101398964060146 -0.021764734798778402 -0.09945030750543259 0.04337036889612117 -0.10676160600422836 0.2969585112855402 0.05696404247618986 -0.02649676438378416
0.17674548684184133 0.30311289823142545 0.10407867216574397 0.029314073419810915 0.15636541945859575 0.24586410195562447 -0.17249096955035192 -0.250042627574858
0.07153630799913627 0.09917428711686208 -0.03906925841470697 0.10144532752066854 -0.010759556711668372 -0.01679667543796041 0.12768529353513722 0.04746333075767979
0.11985859984361068 0.21633931033937884 0.3818421055903761 -0.12633270997190765 -0.08685367632743755 0.2582249413519522 -0.04477228990591652 0.03267116387874403
0.09567976735693592 0.2684921101132597 -0.1080703741214817 -0.14287577316886055 -0.16105407472353872 -0.05164304457510608 -0.07414087491260812 0.06559543315467302
0.1388389186912015 -0.06481901338885877 0.133946898507193 0.04889673422845831 0.14592867396548193 0.27298751299636714 0.05504909960929556 -0.029915796577746
