results/Bidirectional_GRU_Dropout_10_Long/models/checkpoints/3/Bidirectional_GRU_Dropout_10_Long-3-950.pt (torch_old, 215083 bytes, 18 tensors)

gru.weight_ih_l0 f8 [96, 6]
0	0xbfba611662f9f40c	-0.10304393688598185
1	0xbfe853c2b6cef7d5	-0.7602246828534996
2	0x3ff88389dbc40332	1.53211389394728
3	0xbfc0a49e8236bd3c	-0.1300237785157864
4	0xbfdb4d83346fbb6b	-0.4266059887003652
5	0x3fc5c55564ddb6ae	0.17008464264966022
6	0x3fae56460f6c72fc	0.05925196588780143
7	0xbfe0c862adf085ed	-0.524461116529151
8	0xbfee14252b76fb83	-0.9399591301843063
9	0xbfcacc8033b6e88d	-0.2093658688079966
10	0x3ff2d67516b3e7af	1.1773577582193686
11	0x3ff7e9cebfc88cc4	1.4945819369830113
12	0xbfc17865048e4428	-0.13648665163467055
13	0xbff510f68845c95f	-1.3166413615368453
14	0xbfe20fd264a62374	-0.5644313779640542
15	0xbfcba575b775d472	-0.2159869333078493
16	0xbf8c88d6cff5fa53	-0.013932874890767588
17	0x3fd74a34b99b2cb9	0.36390417218781185
18	0xbf87058840be785a	-0.01124102065642434
19	0xbff2a2f5b1326cbe	-1.1647850915676794
20	0xbfdd21387d18006d	-0.45515262809931906
21	0x3f3decf2127f3eea	0.0004566279408182288
22	0xbfccd87839392a86	-0.225356128636424
23	0xbfc0472dca04d1f8	-0.1271722065372527
24	0xbfc9c8e5a73c562e	-0.20144339242749382
25	0xbfefdbfd5631d387	-0.9956041987885421
26	0xbfc168318d2426a4	-0.13599223510418768
27	0xbf923024c717f140	-0.017761778499321368
28	0xbfcd606983bd1735	-0.22950476582098536
29	0x3fe2c89643c3a77b	0.5869857142945273
30	0xbf850e162f206422	-0.010280774415194985
31	0xbff05d8313dbacce	-1.0228300834376571
32	0xbf7e39aa78c4c179	-0.007379213242799992
33	0x3fd3578d42a8e340	0.3022187376951031
34	0xbfec938171b8cbd3	-0.8930060597543793
35	0xbfeb1840c2e424bf	-0.8467105680912467
36	0x3fab8809183f864b	0.05377224370000685
37	0xbff033d5f1da1bfd	-1.012655205473265
38	0xbfd3262b7a028bab	-0.29920470156701623
39	0xbf907d32e764938e	-0.01610259568510091
40	0x3fe0693b1d812dcf	0.5128455711614438
41	0x3ff1a21180953c4d	1.1020674727222002
42	0xbfc1fd51a3cf6f9b	-0.14054317949819226
43	0xbff0d173ec56dfca	-1.0511359436040828
44	0xbfc133260f251f5e	-0.13437343348982272
45	0xbfc578f07c38e445	-0.16775327744997717
46	0xbfc75708493e5a08	-0.18234351707788243
47	0x3fcdc088f7ac3cc1	0.23243820279501473
48	0x3fcf8cff10bc7532	0.24649036709971878
49	0xbfe470e154e3dfdb	-0.638779321480793
50	0xbfe54fffeadb5986	-0.6660155856177858
51	0xbf6a1fa590e9037a	-0.0031889184677144607
52	0xbfd536f8b95677a3	-0.3314801988543598
53	0xbf62ec90632ecec7	-0.002310068136887586
54	0xbfa1b8b6b6104135	-0.03461237881140492
55	0xbff2eff9a0964205	-1.183587672512773
56	0xbff8853e5a65ffab	-1.5325301676930205
57	0xbfcb77d7d6737788	-0.214594821655677
58	0x3fd2b3e18617a074	0.29222906203222654
59	0x3fe80cdf01cf77bd	0.7515711818084508
60	0x3fb15103b705ad5a	0.06764243334116796
61	0x3fd0285f384d5768	0.2524641084504453
62	0x3fe43e898715d42c	0.6326339376815944
63	0x3fb626943cd5c1e6	0.08652616963605161
64	0x3fdaac923ded2f84	0.4167829136611021
65	0xbfbbc75dc3879f1f	-0.10851083778072422
66	0x3fcdca551eb82eb2	0.23273719787572628
67	0xbff4f28ed61d1f31	-1.3092182506388321
68	0xbff4f6bfafa70795	-1.3102413999008367
69	0x3fc4b51bad34c18d	0.16177698094680829
70	0xbfd0641ccd6044f7	-0.25611038261656865
71	0xbfdc1099d0437626	-0.43851323450312163
72	0x3fa09fd92030ecc3	0.032469544581965624
73	0xbff0ac563fc05632	-1.042074440983367
74	0xbfd28dfad5e80a61	-0.28991576089189236
75	0xbfa84fd528ab295a	-0.047484074797085454
76	0x3fe1a7ac1f1d3f76	0.551717816133517
77	0x3ff5a4cae40b338e	1.3527325542411037
78	0xbfc3f0b9748fdfb7	-0.1557838267469813
79	0xbfd2a6d93cbbd440	-0.2914336293318378
80	0xbfd5639d70b8d38f	-0.33420501716619183
81	0x3f9db14baba6b9b5	0.02899664149452415
82	0x3fdc8f16579494a4	0.4462333541180874
83	0x3fed81c6245470a3	0.9220915517394314
84	0xbfd5699f74820569	-0.33457170846675993
85	0x3f90198d2da212d0	0.015722471151564943
86	0x3ff3980b5ccbd30b	1.2246202111102231
87	0xbfcc29dbff3dfe54	-0.22002744639393035
88	0x3fe1f881312a0b11	0.5615850410689253
89	0x3fe5ba02cbf48e4d	0.6789564116956598
90	0xbfd72036f789e569	-0.3613412301416106
91	0xbfde94c98dd859f8	-0.4778312573629644
92	0xbfc05b41d85e0af3	-0.12778494896709666
93	0xbfcd28f19e6917b3	-0.2278120063294274
94	0xbfe39606bdf59a0c	-0.6120637617248703
95	0x3f8690031e40e73a	0.011016868935360347
96	0xbfcc400bc8557e4e	-0.22070452958995407
97	0x3fe3786de90aaa82	0.6084508468241696
98	0x40009aeaeb2a53c5	2.0756433841984028
99	0xbfc36f6d788cecbd	-0.15183800112013116
100	0x3fc596d6067bc6eb	0.16866565052583068
101	0x3fe03c7f1cf6d7b8	0.5073848310191726
102	0x3fa21b6fb499f46e	0.03536557273489725
103	0xbfe36993f6b8b808	-0.6066379374294693
104	0xbff18d8adab87381	-1.0970562499780672
105	0xbfc7c4ad4a1747df	-0.18568960302087498
106	0xbffb6ecd4d154114	-1.7145512591415057
107	0xbffd4296dc3db884	-1.828757152859482
108	0xbf84f7813feebd42	-0.010237703097884524
109	0xbfba9d309ff52bb4	-0.10396102814881553
110	0xbfde68c6ecf7e1ba	-0.47514508382257825
111	0x3fbbbd9b722f7d3f	0.10836192643863728
112	0xc000641f9188648d	-2.048888337111356
113	0xbff9b64d8dc4ed85	-1.6070075548039722
114	0xbfa213e36f65e5da	-0.03530798659171426
115	0xbfdc5c4f34caccf4	-0.4431341186093072
116	0xbfd42c6553305753	-0.3152097046271269
117	0x3fc5b34d04d7ef5f	0.16953432785509912
118	0x3f654421b9eb7fe5	0.0025959643092931966
119	0xbf9fadb57e27ca9d	-0.030936084580342017
120	0xbfcfcee568c35901	-0.24850146880516635
121	0xbfd71c146c319e4e	-0.3610888535099307
122	0xbff4b9aaf844bc81	-1.2953290651310285
123	0x3f83a73dd8602f54	0.009596331754458433
124	0xbff81978b922f619	-1.5062186462304281
125	0xbff0734cc30cb1cf	-1.0281493777393853
126	0x3fcd829e81967908	0.23054868056801348
127	0xbfe33783c092fbd9	-0.600526691552541
128	0xbfbbc0cd31df6618	-0.10841066806406052
129	0x3fb4acf10d2e3bc2	0.0807638795069883
130	0xbfd9d121c4857600	-0.40338939849411304
131	0xbfd9cedf0abb0a1f	-0.40325141952431126
132	0x3fe2c71d1943aaf4	0.5868058675235646
133	0xbfe4adf0793728ae	-0.6462328307618657
134	0xbfb81debb61872f0	-0.09420655437174807
135	0x3fdab1478702853b	0.41707027611308306
136	0xbfdfcc1fa54abd38	-0.49683371679107635
137	0xbfc074ec9730d9df	-0.12856824285854793
138	0xbfc7f30a5408907e	-0.18710450270839724
139	0xbfdc837db0599840	-0.44552557202985454
140	0x3ffa3441250b9913	1.6377574393350798
141	0xbfc99eaf528f39b5	-0.20015517741417246
142	0xbfb201cbe5fb7dfa	-0.07033991207890003
143	0x3fd1a7cc3a4e7445	0.2758665627860107
144	0x3fd7fb8c811c8a0e	0.3747283230642616
145	0xbfe447d306b204a8	-0.6337676172990045
146	0xbfc50f74e29b280b	-0.1645341974711417
147	0x3fd1bf977e5212a5	0.27731883369441795
148	0xbff3c02e83dcf3f3	-1.234419360246872
149	0xbfea958f6e4b8cb3	-0.8307568697167852
150	0xbfc024e1fa753af2	-0.12612557153121134
151	0xbfe625ded49c6a19	-0.6921228554304576
152	0xbfeea0f1df7e6f9b	-0.9571465840449379
153	0xbfc39652b1e43d6e	-0.15302499471770709
154	0xbff13273a2b7484c	-1.0748173099605252
155	0xbfe90d36cd467f4d	-0.7828630456242337
156	0x3faecaca15e31476	0.06014091031242057
157	0x3fe01da77d18d95d	0.5036199038793644
158	0x3f87dcdcea7347c3	0.011651731400352255
159	0xbf9115375605e169	-0.016682495713639698
160	0xbfd8ed1206a78dea	-0.38946962976316846
161	0x3fd9ec53ce1a1b04	0.40504927756448716
162	0xbfd5ffc2510e79a3	-0.3437352935378845
163	0x3fb272e2bc9805bb	0.0720655165132688
164	0xbfb64b48943dd010	-0.08708623522926495
165	0xbfb764286b127a45	-0.09137203802172518
166	0xbffd1504e818b335	-1.8176316324490476
167	0xbffcd4872c517108	-1.8018867236306182
168	0x3fd3af16c6870460	0.3075615824455493
169	0xbfeb3eb61ba24ba0	-0.8514051952100665
170	0xbfe8bfc7b4641d8c	-0.7734106562865448
171	0xbfd168e667c73c1e	-0.27202758917423064
172	0xbfc886312b92da95	-0.19159521701449891
173	0xbfbfdd256c8df255	-0.1244681730294784
174	0x3fcfd85dcbc65e99	0.2487904782290016
175	0xbfd21abb6ba50604	-0.28288159858865947
176	0xbfddaf719ed0d290	-0.46383324155184713
177	0x3fe06dca0e2441c8	0.5134020115092932
178	0xbffa8b13e2267412	-1.6589545091621898
179	0xbff45ae21c17e985	-1.2721882913016043
180	0x3fb53dd1b67ff9a4	0.08297453599514043
181	0x3fd092e22938f56c	0.258965053802817
182	0x3fe1c8a11602cd9b	0.5557408742810596
183	0x3f4a9bde0c96b59f	0.0008120378708348814
184	0x3fc89b21fdbc311d	0.19223427667055484
185	0x3fdd23b48d7404e9	0.4553042775515466
186	0xbfa93abed82a8a0c	-0.049276317489120286
187	0xbfedceb727116bb0	-0.9314838183448639
188	0xbfed49fedabd6897	-0.9152826568854547
189	0xbfbd0c5d4ef2df60	-0.11346991708239562
190	0x3fd3e248a306734c	0.3106862632792413
191	0xbfc3bfa05d090eab	-0.15428547423117797
192	0xbf9c3f0e89410ad5	-0.027584292533229544
193	0xbfe668c10ab005ad	-0.7002873619787146
194	0xbf846f64a8c9c03b	-0.009978090668681818
195	0x3fa7ec7d8ed78658	0.046726154028658484
196	0xbfdbd5a99bd38c7b	-0.4349159261457271
197	0xbffcad64b71be590	-1.792332377690716
198	0x3fd769b90284f9ac	0.3658278011897902
199	0xbfe0c87ede598562	-0.5244745581405079
200	0xbff7ec6c8af6ee59	-1.4952207020095527
201	0x3fa4302440bf94f1	0.03942979135880787
202	0xbffefbd519c702eb	-1.936482525532649
203	0xbff69ea74d7a900b	-1.4137337709917144
204	0x3fe0b468e6c1202b	0.5220226771280115
205	0xbff65367d3eaf580	-1.395362689784946
206	0xbff8259fd29cec12	-1.509185621935789
207	0x3fceb424c70f33dc	0.23987254829117333
208	0xbfe5202590bd969b	-0.6601741625751915
209	0xbfc510f2de1c8be2	-0.1645797333268027
210	0x3ff034290227c5f6	1.0127344211763307
211	0xbff9964433dd3c15	-1.5991861368127094
212	0xc0015a0188350088	-2.1689482346701574
213	0x3fe2deb80d3665b9	0.5896873720222892
214	0x3f89add1b57f627c	0.012538565017096596
215	0x3fb5fc06ce38f353	0.08587687048652741
216	0x3fe9b44671c87c0a	0.803256246788693
217	0xbfe9046744228d84	-0.7817875223885697
218	0xbffb96fe5bd693c1	-1.724363669150293
219	0x3fdae5053e143a1d	0.42022830068973055
220	0xbff1db3590ab0198	-1.1160178805440406
221	0xbfdcaca092bd368f	-0.44803633050910546
222	0x3fb43edd09dbb135	0.07908421984365506
223	0xbfee2707a58591ff	-0.9422643883559089
224	0xbff8b5acc4fbba8f	-1.5443542189274557
225	0x3fba926e84683704	0.10379687054247816
226	0xbff1eede50394f5a	-1.1208174833054358
227	0xbff1f5ad99381cfd	-1.122480009567709
228	0x3fb785442a6d1a3a	0.09187723193927236
229	0xbfac1f751cd6e653	-0.05492750145954219
230	0x3fa9d3a1a13db50f	0.050442744190926196
231	0x3fb4b5f3a936be40	0.08090136414716032
232	0x3fdd7c395330a64a	0.4607070267107686
233	0xbfda73947aaae0b3	-0.4133044431614607
234	0xbfd29a67e4b229d8	-0.29067418416584934
235	0xbff3cf6cf98cf5a6	-1.2381410358496878
236	0xbfd9cce7d4e9b3cc	-0.4031314448573624
237	0xbfd47b60b388ad59	-0.32003037960631314
238	0xbff5fe3feaf1e237	-1.3745726754697338
239	0xbffab90d27db8c5e	-1.6701785618722833
240	0x3fdbef58bf70e279	0.4364835614719947
241	0xbfe57e97590c049a	-0.6717030276487492
242	0xbff8029a61e34f94	-1.5006355117556938
243	0x3fd48503237f0971	0.3206184240954349
244	0xbfdf79af03fc0d8a	-0.49180198086852356
245	0xbfe625c6bfb91cee	-0.6921113724319221
246	0x3ff09bc661b01d36	1.038030988305605
247	0xbff208cfc18bbd70	-1.1271512565980082
248	0xbffdfa427f2577f4	-1.8735985724119901
249	0x3fe1841c11ef6b77	0.5473766660974054
250	0xbfddbadff7fc86e6	-0.46453093736100326
251	0xbfe2f285ad5261a8	-0.5921047578040559
252	0x3fe657ef86db3a46	0.6982343324578515
253	0xbff2da5adb1e4a93	-1.1783093032178484
254	0xbffed7e9d9655e24	-1.9277132503538121
255	0x3fc3164fb2a16e3f	0.1491183874339743

gru.weight_hh_l0 f8 [96, 32]
0	0xbfe28c49a8523573	-0.5796249663850815
1	0x3fc2c412dc225295	0.14660869358762754
2	0xbfc80cb6d94a00d0	-0.18788800821130858
3	0x3fe3e1da1cded861	0.6213198245884649
4	0xbfd02c353e0ed6d5	-0.25269824085567666
5	0x3fc88457becd3b34	0.191538780369649
6	0x3fda389c2ffb7a68	0.40970520673537303
7	0x3fe0d22baa9c64e9	0.5256555874103955
8	0x3fab7946223a6327	0.05365962188552081
9	0x3fe68c01b50e0c2a	0.7045906578281393
10	0x3fc81da741a5b775	0.18840494828640045
11	0xbfd2d3c9728e830c	-0.2941764467923782
12	0xbfa9823b1634ff2c	-0.04982170721132059
13	0xbfc3c173e7aa6363	-0.1543412095241151
14	0x3fee68003785bd6a	0.950195415918569
15	0x3fec784793bc70bd	0.8896825681181536
16	0xbfb11f66f4235fd6	-0.06688540897755443
17	0xbfd3867a73a9b83a	-0.3050829057236829
18	0x3fc170a1e8f2d382	0.13624976992073462
19	0xbfd36ad195d42182	-0.3033946955843235
20	0x3fcc881b4def61ef	0.22290364556717132
21	0xbfc81d605e672903	-0.1883964978172302
22	0x3fab45c761bb1629	0.05326674526217474
23	0x3fcf3e75a2c94ec3	0.2440936131339325
24	0xbfd5754eb3e5e1f9	-0.3352848774734692
25	0xbfb1070dffbe7da8	-0.06651389592888413
26	0x3fbfb81fe63c5721	0.1239032685374153
27	0x3fb022e22a97782c	0.06303227939449191
28	0xbfdffbad06f24bdb	-0.49973607710233886
29	0x3f616a27d65a6e7c	0.0021258142540555008
30	0xbfd69fb9a710c508	-0.3534988528727614
31	0x3faefb348213e94a	0.06051029289115435
32	0x3fe2f2921634ae11	0.592110675211588
33	0x3fa8520e7b87b7db	0.047501041964878
34	0x3fd6ef1673d9f092	0.3583427554474464
35	0xbfc48dc8528a967a	-0.16057685880985045
36	0x3f87be6b9a1ff2f8	0.011593666687980328
37	0x3fc35271192365b0	0.15095342376188858
38	0x3fb3a43c6da20558	0.07672479321083381
39	0xbfc19897878819bf	-0.13746923558956145
40	0x3fb8ae4a05ed8f1c	0.09640944142080027
41	0xbfdfd81fa250589d	-0.4975661358925068
42	0xbf81077be613d206	-0.008315055807977433
43	0x3fcb93b06da7c375	0.2154446158815763
44	0xbfc30a1c3203a5b4	-0.14874603693105615
45	0xbfbd169dc809c51d	-0.1136263478636192
46	0xbfc841c1a3b59614	-0.18950672620410158
47	0xbfe1f16741df3632	-0.5607181822358085
48	0xbfb9c97a507c8564	-0.10073055710792783
49	0xbfd7f824a36dda96	-0.3745204540240733
50	0x3fd14148fbd5da7e	0.269609685833906
51	0x3fbdc76dea36b4a5	0.11632430046184312
52	0xbfc37233a1ee9bd6	-0.1519226589855111
53	0xbfbe685482bf8aef	-0.11877945129485189
54	0x3fc6cd3121723541	0.17813696034537865
55	0xbfcd7b0034536874	-0.23031618647548024
56	0xbfc6d1fe5e45b74b	-0.17828349688664455
57	0x3fc74c918dfdaf25	0.18202418740417517
58	0xbfcadc57a553ec61	-0.20984931538245902
59	0x3fc9ddfc6e7f88ef	0.20208697696131803
60	0x3fb2c843873ecc4c	0.07336828281295132
61	0x3fc5d04a68f24fb9	0.17041902660696254
62	0x3fa6a9630ced8874	0.044261069610699005
63	0xbf81754a7f7f4794	-0.008524496093659718
64	0x3fc8f7c36e59c8ff	0.19506113899439723
65	0xbfc9b582357f3897	-0.20085170375972858
66	0x3fd9b51476f3919f	0.4016772424349941
67	0xbfaacffba44c660e	-0.052368034177742925
68	0x3fd7642cfac913cb	0.36548923960463914
69	0x3fc762fb889c315c	0.1827082078019754
70	0x3fa06d181525b95b	0.03208232172152022
71	0x3fe060b079707c74	0.5118028995383512
72	0xbfd3e257c22fafb1	-0.31068986857894304
73	0xbfe2f1fe08445279	-0.5920400773489539
74	0x3f8703353e82f6a5	0.011236587495996384
75	0x3fe18448444e5639	0.5473977407552361
76	0xbfc42fa0cb5962c0	-0.15770349435003617
77	0xbfb95e21b1994379	-0.09909258447556892
78	0xbfe3f88987f64924	-0.6240890174397333
79	0xbff0eb7742ed7e74	-1.057486783443804
80	0xbf93b47758a3484c	-0.01924311140539485
81	0xbfd034ac6c7ab9ef	-0.2532149371499192
82	0xbf90d1bd26f5facc	-0.01642509031580168
83	0xbfaf2973b55123f6	-0.0608631285509275
84	0x3fb75f492f7b27e1	0.09129769715505588
85	0x3fcefcdeaa9c8b7e	0.24209197359695261
86	0xbfdaa388cbd4a477	-0.41623134522757915
87	0xbfda42ea7d704c3e	-0.4103342270838687
88	0xbfc190ebda007749	-0.13723514694805264
89	0x3f26942529455f81	0.0001722617495356592
90	0xbfbded8ed8162703	-0.11690609717893712
91	0xbfa7b8496a420824	-0.0463278715333362
92	0x3fb46a69fb8eee26	0.0797487486988123
93	0x3fb571d5615518ce	0.08376821161536727
94	0x3fb573b582d675b6	0.08379682964592558
95	0xbfdd45470c63c13e	-0.45735336503914314
96	0x3fb43490c99f7596	0.07892708704408444
97	0xbfaff8788d446807	-0.06244255756810451
98	0xbf87c3cb3d9e8a4a	-0.011603915994617204
99	0xbfb2e62e972ccc53	-0.07382479849620553
100	0x3fc8288c1fdcd635	0.18873740726273672
101	0x3fa9c37bb24b3114	0.05031954337536795
102	0x3fad222a7312de7c	0.05690128950794546
103	0xbfbb81dddd6be60d	-0.10745035796926335
104	0x3fa4d95d2a3d4d1a	0.04072085514658337
105	0xbfbe0bd8781c12f9	-0.11736824924816948
106	0x3fc2c057606ac979	0.14649479110591893
107	0xbfc91addc75794ee	-0.19613239511014718
108	0x3f77d7b4835b9499	0.005820946816787708
109	0xbfb3df66e28a85b6	-0.07762759238041536
110	0xbfc3228572002666	-0.14949100557741984
111	0xbfd1e48c8a9e58e9	-0.27957452332465366
112	0xbfc2e248197cde35	-0.1475305675937634
113	0xbfdb156ad7a6710e	-0.4231822114904994
114	0xbfb9adbcb1f8b919	-0.10030726761826649
115	0xbfbf07d88213a41a	-0.12121346641255606
116	0x3fc6fee8d5d72dae	0.17965422097618727
117	0xbfc67c6c2cc616a0	-0.1756720751401888
118	0xbfc826657d842e45	-0.1886717665550909
119	0xbfc8c573f8a45825	-0.19352578774186316
120	0x3fa3d8fb3097de21	0.03876481025866619
121	0x3fb5f57e7d357990	0.08577719265801975
122	0x3fcf90a5ebd166d9	0.24660181059407796
123	0xbf993249970fa8a9	-0.024605893940965604
124	0x3f840fdbe7b5b661	0.00979587365028606
125	0x3fa27141e874c301	0.0360203357944382
126	0xbfa4e8b84e5f745f	-0.04083801228237215
127	0xbfae2fea6f7ce9a9	-0.05895931826531193
128	0x3fb8fd2d3830e72f	0.09761316892482051
129	0xbfb6fc4ebe857de0	-0.08978740836527477
130	0xbfc7fdb540f87dc8	-0.18743005440135918
131	0x3fdc0e41648020a2	0.4383700829935241
132	0xbfc7cb24802f0703	-0.18588691958398593
133	0xbfd47544793e577a	-0.31965743866145824
134	0xbf03c146fc781bbe	-3.7679652049197706e-05
135	0x3fba941d208a0d58	0.10382253689208676
136	0x3fba2d15e3f30813	0.10225045027894479
137	0xbfa7ff193cde6f59	-0.04686812274959946
138	0x3fd46696c1b9ef5a	0.3187615291460496
139	0xbfc9a84dd67922a4	-0.20044873211215475
140	0x3f8ce0ef708ff88f	0.014100905058509276
141	0x3f8d4aa6d2209c85	0.014302542960719098
142	0x3fcaf60e1a36f7f6	0.21063400535598448
143	0xbfc0a07e619759e5	-0.1298978783149344
144	0x3fac6d4882b9d620	0.055521264989618624
145	0xbfd5b0dece4ba7d5	-0.33892030855224436
146	0xbfcea767856cb097	-0.23948377623435554
147	0xbfcc6aab193d3f0d	-0.22200525982270172
148	0xbf8e17a0b8d0b067	-0.0146935039902802
149	0xbf5bbe5283a09408	-0.0016933255960875932
150	0x3fcb39d4bcf303b5	0.21270236230887254
151	0xbfd3ebc9cbe7df2b	-0.3112663737551766
152	0xbf93dd61ed7a4aa5	-0.01939919483136045
153	0xbfa3897ecab0b15c	-0.038158380739647696
154	0xbfb4a2916c1e4ab3	-0.08060559167487717
155	0x3fa3130b3c4c0f10	0.03725466834114688
156	0xbfc29382340ef74c	-0.14512660543362654
157	0x3fa5d6548bfcec65	0.042650835121514054
158	0xbfda5e3fcc98d81e	-0.4120025156038326
159	0x3fc29b23d4578205	0.1453594958138781
160	0x3fd8faf897f6336d	0.39031805839549955
161	0x3fc1c3b3f8edb992	0.1387848821136229
162	0x3fd3b8c33a896418	0.30815201488945965
163	0x3fb579598bf65fe2	0.08388290087748332
164	0xbfc05f6c80e368bf	-0.12791210454344612
165	0x3fce5831a75f95e7	0.23706646606949208
166	0xbfd0cfa5086b2434	-0.26267362424966056
167	0x3fbd639f22635ca3	0.11480135526231776
168	0xbfc5770cfdfa68f8	-0.1676956405761485
169	0xbfd03482b75d7f57	-0.253204993312456
170	0x3fbca4b5638db17c	0.11188825302605737
171	0x3fd96fb921fb50de	0.3974440414288106
172	0xbfcc40f80088895d	-0.22073268915216718
173	0x3fe352cc5336b445	0.6038571954028461
174	0x3fcea0b44f3941a5	0.23927930706350967
175	0xbfd92619e31fdcc6	-0.3929505079281167
176	0x3fd25b54ccaca1df	0.28682441699723243
177	0xbfb619197d6828c4	-0.08632048904124462
178	0x3fe0232ab86d8800	0.5042928316217967
179	0xbfd7462fbfc2b734	-0.3636588452017009
180	0x3fb908df4b3e3400	0.0977916296671566
181	0x3fd3b6fd160b2e72	0.30804373886778713
182	0xbf87d39d37f8083a	-0.011634090681585819
183	0xbfc4d4855b9b578d	-0.16273562405575284
184	0xbfd0eb7eecc89f18	-0.264373522981701
185	0xbfc915ae74d509af	-0.1959741659612297
186	0xbfbb888fd7ce3c59	-0.10755251902286157
187	0x3fda3b33a853b0a4	0.40986339033293917
188	0xbfa5911411bef70c	-0.042122485319380315
189	0x3fbd3046ece9c5f5	0.11401789936078173
190	0xbfc778ac9e4e7e29	-0.18337018709006372
191	0xbfdb6761d6161171	-0.4281849470792372
192	0x3fe7bcbeb3aa0760	0.7417901524606627
193	0x3fc049077b918b70	0.12722867520923442
194	0x3fd8ede25ffcae8c	0.38951930402502266
195	0x3fc773331a9bc556	0.18320311354868107
196	0xbfbefe268103cba9	-0.12106552743698153
197	0x3fe0fbefa3cb5300	0.5307539176088483
198	0x3fb6fe54dde101e7	0.08981829087225145
199	0x3fb0471ca8004fdd	0.06358508206932308
200	0xbfd3d8470c416384	-0.31007553288286993
201	0xbfd6737ea8960021	-0.350799240717608
202	0x3fde0683a0dc0d7f	0.46914759358352137
203	0x3fe538138e5324f5	0.6630952625065719
204	0xbfd6f0eb01b7f796	-0.35845446746667997
205	0x3fe28a048e8ba824	0.579347875985381
206	0x3fd69078cb663e1f	0.35256786215993147
207	0xbf918e837699b9e5	-0.01714520846729241
208	0x3fd5b7e29b852fed	0.33934846103215827
209	0xbfe88b764c79c1db	-0.7670241826690999
210	0x3fdad1fe9395d241	0.419067043424807
211	0xbfe03c2286671c2a	-0.507340681558053
212	0x3fc12842535a627a	0.13404110975240596
213	0x3fd0b503edf8839e	0.2610483001645266
214	0xbf9a0cf527532b55	-0.02544005444068927
215	0xbfb09a3ff4164fcb	-0.06485366543921527
216	0xbfd20d673d7b2fb3	-0.28206807140372375
217	0xbfd21caf7e8ada86	-0.28300082547813366
218	0x3fcb3b72a9a38b61	0.21275170596262696
219	0x3fd95a179804e039	0.396123789268589
220	0x3fcb961801fb497a	0.21551799866444893
221	0x3fd194b70a4e814d	0.27470184332380115
222	0xbfc38b85fa0b26db	-0.15269541463049205
223	0xbfe7bc4978eec5a5	-0.741734253117262
224	0xbfb1058a6e26e3ea	-0.06649079503303282
225	0xbfc6000fbee8c0ef	-0.17187687703836427
226	0x3fb9ae3f66148b72	0.1003150581569068
227	0x3fcb405a312f63fd	0.2129013767396656
228	0x3fc09fa07ba90b46	0.12987142599203078
229	0xbf619b03d2f3cb8d	-0.002149112194837105
230	0xbfbc007d3177dc41	-0.10938246209831083
231	0x3fd6d2ba24c5c112	0.3566117629152511
232	0x3f8af458541b75f3	0.013161363665342462
233	0xbfbee295253000c4	-0.12064487607858881
234	0x3fd5e83eb29efded	0.34230010455573173
235	0x3fd27a65ee546fc0	0.2887205913009403
236	0xbfa398847e0d0143	-0.03827299154954968
237	0xbfb88f1f0fd4ed5f	-0.09593385826604138
238	0x3fcaa6cfe309003d	0.20821570001317183
239	0xbfe33767462b1e1b	-0.6005131121136772
240	0x3fd5c2bac4236574	0.3400103488362085
241	0xbfc11f259067a3b3	-0.1337630229093328
242	0x3fddae14b09b4ab3	0.4637500500368034
243	0xbfd896baffc97dc3	-0.38419985751349034
244	0x3fbf2d3b686ca656	0.12178393649505756
245	0x3fd1177936c755df	0.2670577082584184
246	0xbfc63cd4e58c06fb	-0.17373143394802767
247	0x3fa2e11abed1217b	0.03687366084392615
248	0xbfd3eaf39a8161ab	-0.3112153061715854
249	0xbf98039e78728f75	-0.023451305486232827
250	0xbfc368b3f32b5393	-0.15163277982233278
251	0xbfc15130a057faa8	-0.1352902205398625
252	0xbfb27337a1aa9c4c	-0.07207057663855315
253	0x3fc64c90c27cf1c4	0.17421159264075758
254	0x3f90f90312d3880e	0.01657490541845879
255	0xbfd204c92c597176	-0.2815421040629852

gru.bias_ih_l0 f8 [96]
0	0xbfd6703465448f24	-0.35059842957911
1	0x3fb5248d026fd3d1	0.08258897122853105
2	0xbfd404200eb22c59	-0.31275178370623774
3	0xbfca06fe8b87dc1f	-0.20333844960234246
4	0x3f503ae1c6098a89	0.0009906010456225709
5	0x3fac26c1448bbed4	0.05498317682019907
6	0xbf9e075fb5e915d0	-0.029325004079756856
7	0x3faab48029346936	0.052158360509752574
8	0xbfbb03df0b9b1629	-0.1055278209051599
9	0xbfc3b4ee8afdf677	-0.1539591005966263
10	0x3fcc8cc5f147b5f6	0.2230460575223529
11	0xbfa38f3b81a0d55f	-0.03820215184570474
12	0xbfc3e5e1ae068352	-0.15545292851768494
13	0x3fc235d30f8b27b5	0.1422675920387612
14	0xbfd44db0eb2ce3aa	-0.3172418877252833
15	0xbfcc1d1687db9e0d	-0.2196376956337506
16	0xbf95d92cfda27141	-0.02133627222120649
17	0xbfa0645c1698f95a	-0.03201568389748628
18	0x3fba86ee8bea2374	0.10362139621623873
19	0x3fc5a84f07f76815	0.16919887436853345
20	0xbfcc84d11d96a9f9	-0.22280324883224958
21	0x3fcf9dc043a776d8	0.24700167945314067
22	0x3fdd9ce22c9ede10	0.4627004085300266
23	0xbfa43cdef8c2b8e9	-0.039526908746994334
24	0x3fcf510316d68822	0.244659792090773
25	0xbfccc16f1d165bfd	-0.22465313835411385
26	0xbfa55649ead34677	-0.04167395583648397
27	0xbfc1b86e8c7e4bf3	-0.13844091281916313
28	0xbfd092aabe1e7435	-0.2589518410330272
29	0x3fd31a4040c71244	0.29847723318042463
30	0x3f9e98ac33e58f9a	0.029879275004887164
31	0xbfcc125fac90ce50	-0.21931072164589915
32	0xbfc0b40e47ff66fc	-0.13049486651907916
33	0x3fc29532eccb47a3	0.1451781898709302
34	0x3fb777ceb6d4e0a1	0.0916718670240493
35	0x3fce7ef18eeccaf0	0.238249010837158
36	0x3fceb8f2941c1ae4	0.24001915199206458
37	0xbfcd549f991d2fbd	-0.22914500213880543
38	0xbfa8f083321ca679	-0.04870996462552752
39	0xbfd05d9677479341	-0.2557121434058907
40	0x3fc457922a1d4064	0.1589224534641317
41	0x3fda8918c1acfdbf	0.41461771882674364
42	0x3fd1a23689c060c0	0.27552569820683104
43	0x3f681ba91eacfe31	0.0029428771134971878
44	0xbfcf078c4eb3774d	-0.2424178489954393
45	0xbfe0edb02dc86bf9	-0.5290146726796358
46	0x3fc62cdb1e188fdb	0.17324389428642814
47	0x3fcc38688fc6cbb8	0.22047144909228478
48	0x3fdd60d1e2f1e9db	0.45903441584201027
49	0x3f54cbf839f3740b	0.0012693332753805932
50	0x3fcb72b4db40dc2f	0.21443806367617088
51	0x3fd932df331948b2	0.3937299727450735
52	0xbfdb0bfa6ea703c8	-0.4226060944166048
53	0x3fb70a579fcae854	0.09000156069933613
54	0x3fd55417f6804fef	0.3332576663244699
55	0x3fd6261dcb1d3ba3	0.34607643924112547
56	0x3fc58e2178969b90	0.1683999861536134
57	0xbfdd717c1aebe07c	-0.46005156163256067
58	0x3f23bde390596e97	0.00015061762694556079
59	0xbfd9aca9ec694fb5	-0.40116355979011625
60	0x3fb19b24f13cb592	0.06877356423929928
61	0x3fddd8c0f209d772	0.46635459553305403
62	0x3fe272afc7a4a0d8	0.5764998339918987
63	0xbfcf6a450a0a779c	-0.24543059339788165
64	0xbfb2eb88ea176370	-0.07390647616501922
65	0x3fcf4f91df395812	0.2446157779656351
66	0xbfd839cd2cfe8760	-0.3785279216191295
67	0x3f9768dfe9ddb4be	0.022861002587366334
68	0xbfa364fb277873b5	-0.03787979943101708
69	0x3f938f52215547c6	0.01910141304444559
70	0xbfc6cea63d9ffb2d	-0.17818143853215798
71	0xbfcc7e1307f5339d	-0.22259748352589961
72	0x3fb46ff01aba4001	0.07983303692367373
73	0x3f41cdda0ed647cb	0.000543338273631949
74	0x3fcf49800e9ebc21	0.24443054880018258
75	0xbf925728248daa16	-0.017910601836243677
76	0x3fa82986438ee8b0	0.04719180655179522
77	0xbfaf8be2d12b6a44	-0.06161412051524853
78	0x3fb3235df9ba2a68	0.07475840899329855
79	0xbf48f2673ebfbb6a	-0.0007613186003235632
80	0x3fabd91416c15aae	0.0543905523087934
81	0xbfc3cf0a41f54c2e	-0.15475586147894788
82	0xbf941c05546df648	-0.01963814094368946
83	0x3f9b8df0374c33c8	0.02690863931188739
84	0x3fc3bc6b8464ba59	0.15418762173199488
85	0x3fbf38108c91f8c9	0.12194922859086711
86	0x3faf887f44439371	0.0615882654981651
87	0xbfb456ecf7872570	-0.07945138018762576
88	0x3f96be5d5939e5aa	0.02221055848210588
89	0xbfbe6bbef2433932	-0.11883157171834993
90	0x3fa60958e577e330	0.043040063868778566
91	0x3fb706e45110591a	0.08994891146753439
92	0x3f9563706cc296f9	0.02088714279002255
93	0x3fb53f5ce4f16c33	0.08299809064321621
94	0x3f96134acfbd8602	0.021557969026053676
95	0x3fba5c536c042f2f	0.10297128092878148

gru.bias_hh_l0 f8 [96]
0	0xbfba534295123cef	-0.10283294810709596
1	0xbfbcc174fd902bea	-0.11232691946513254
2	0xbfc3de761d645856	-0.15522648272662093
3	0xbfb554b3b70fb7ef	-0.08332370013496847
4	0xbfc8f1e49c73ecea	-0.19488198890017056
5	0x3fb33981e245df72	0.07509624265901296
6	0x3fd2ab2784a16eb7	0.29169643356520275
7	0xbfc57b7575b2e583	-0.16783016440403395
8	0xbfb853092b9b1627	-0.09501702608675854
9	0xbfa6e31eabf7d90e	-0.044701536647993576
10	0x3fcbe291f147b608	0.21785187035804676
11	0x3fb804a8bf2f962e	0.093821093250505
12	0x3f9858ff0fcbe6ae	0.023776994074956086
13	0x3fc540d88f8b2788	0.16604144104922747
14	0xbfd493140b2ce3b2	-0.32147694674818716
15	0xbfd24883f3edceee	-0.28567599126038956
16	0xbfccd8cc1fb44e1f	-0.22536613033354144
17	0xbfce0b8e65a63e4e	-0.23472766841267617
18	0x3f81f2185f51195a	0.008762541207158737
19	0x3fc13f8d07f76831	0.13475191964136138
20	0xbfce44b13d96a9f5	-0.23647132403614504
21	0x3fc97d5523a776fa	0.19913734665799848
22	0x3fe08398d64f6f0e	0.5160640893695658
23	0xbfce64773e30ae21	-0.2374409726775051
24	0x3fd6ce0ffb6b4434	0.3563270526183857
25	0xbfca77d57d165be4	-0.20678204162388092
26	0xbfc75fd85ab4d19f	-0.18261246136684137
27	0xbf993ef863f25dcc	-0.024654275036110992
28	0xbfc26a42fc3ce8a3	-0.1438678485517971
29	0x3fc72582418e246c	0.18083217812480556
30	0x3fc860a7c67cb27b	0.19044968787911273
31	0xbfd173803e486765	-0.2726746185522784
32	0x3fa3d322e0026659	0.03872021660317832
33	0xbfa117674cd2e327	-0.03338167965688959
34	0x3fd8c8339db537f8	0.3872193374744479
35	0x3fc84e47aeeccad1	0.1898889164090947
36	0x3fda7824aa0e0dbe	0.41358296019481233
37	0x3f9ba49937167ee2	0.026995080935761424
38	0xbf9d9d8864394cf0	-0.028921252362420213
39	0xbfa3ee283a3c9c23	-0.03892636977098387
40	0x3f93a41b50ea0566	0.019180704892737842
41	0x3fdbf3eb19acfdc6	0.4367625952472419
42	0x3fc954be1380c1c4	0.19789863540928654
43	0x3fd26e38923d59dc	0.28797735482421927
44	0xbfd606a7a759bb99	-0.34415618269752596
45	0xbfd33ad0eb90d7f4	-0.300464849514696
46	0x3fdc76370f0c4825	0.4447152754738702
47	0x3fde2da4b7e3662c	0.47153585393752695
48	0x3fcf627ac5e3d361	0.24519285833926133
49	0xbfc6055c2f8c1947	-0.1720385772861823
50	0x3fb74f82b681b8f4	0.09105698543291735
51	0x3fd4e114931948ac	0.3262378155242327
52	0xbfcd0bba3d4e0805	-0.22692039483450813
53	0xbfbe2856e0351737	-0.11780302976430056
54	0x3fd490fdc6805010	0.3213495672691815
55	0x3fe180d9dd8e9d82	0.5469788863455707
56	0x3fd200d9bc4b4db4	0.2813019121942617
57	0xbfd1483fc2ebe08a	-0.2700347331551788
58	0x3fb429c311c82cc6	0.07876223739747265
59	0xbfc92bb578d29e85	-0.1966463890032523
60	0x3fc290cb589e5af9	0.14504377200201882
61	0x3fe06f4dc904eb9a	0.5135868955761567
62	0x3fd7aec52f49412b	0.37004212968624256
63	0xbfd39600bd053ba7	-0.3060304494765042
64	0x3fbc02db1b7476ce	0.10941857738768165
65	0x3fc60706ba68404f	0.17208942510524358
66	0x3f95cf17c01a47c8	0.0212978087425382
67	0xbf8d45708a839f7c	-0.014292601801983322
68	0xbfce8f7ab7b24131	-0.2387536427454591
69	0xbfc19683b5473f15	-0.13740583754997063
70	0xbfcf1c04ff2d1320	-0.24304258785027688
71	0xbfbc1369b785d826	-0.10967121820962741
72	0x3fa8299c7205cbac	0.04719246761205595
73	0x3fb389e0a595cb74	0.07632259409528591
74	0x3fcd71d870ab1e9f	0.2300367879999969
75	0xbf52c17d25dafe86	-0.0011447641513057396
76	0x3fa4f7431bdbc938	0.04094896044797952
77	0x3fc525f9cdc7e9eb	0.16522142932792802
78	0x3fcfbe1b2573b4d2	0.2479890759345041
79	0xbf971262f1d08395	-0.02253107644003512
80	0x3fd05a5e6476fe68	0.25551566897408984
81	0x3fb5b126747e8bf2	0.08473434776401215
82	0x3fc099363611b1fc	0.12967565193265773
83	0x3fc3445773d5343e	0.1505231204595549
84	0x3f80045bf4c6d83b	0.007820814521306221
85	0x3fa55f70ec37eb29	0.041743782840020956
86	0x3fb4feea806a6766	0.08201470980784861
87	0x3fb8bcd6bf2d3ebf	0.09663145224953505
88	0xbfcfe55e2a6c40e8	-0.24918725081852888
89	0x3fafa8658aef59ec	0.06183163948996992
90	0xbfb3de42f3b5e3e7	-0.0776101918217048
91	0xbfc5c8c0cc7823ee	-0.17018899902203038
92	0x3f8f3731cee1d89f	0.015241994024318748
93	0x3fbc6342aa8498e9	0.11088959372554864
94	0xbfc6c242f45242b9	-0.17780339174034568
95	0x3fc2d94ffa04544c	0.14725684841019626

gru.weight_ih_l0_reverse f8 [96, 6]
0	0x3fdd67d677ed20d0	0.4594627543597314
1	0xbfd8c2f3c62d6c4d	-0.38689894059433955
2	0xbfd32dcc25062dea	-0.29967025390280233
3	0x3fcf6aa734a56c67	0.24544229574789542
4	0xbfd0e29390e416a3	-0.26382912778385953
5	0x3fc1ea8794ef71d5	0.13996977588875717
6	0xbfd3234992d1a50d	-0.2990287717608034
7	0x3fec54605cdfd18b	0.8852998556090353
8	0xbfd588984da486cf	-0.33646209318440595
9	0xbfc2f8b56b12be90	-0.14821498611626227
10	0xbfee84d99699d807	-0.9537170354294638
11	0xbff11e7b5302d9d5	-1.0699418299314989
12	0x3f9fbbb1dadb309f	0.030989436133311284
13	0xbfe5bbdcb6e72595	-0.6791823932955362
14	0xbfc9cd70741ec25b	-0.20158200902871468
15	0xbfc17052bd53179c	-0.13624033207287034
16	0xbfb91fea62dea179	-0.09814324296769951
17	0x3fe415177bcda447	0.6275746744187324
18	0xbf9a39d85301dc1d	-0.025611286226617225
19	0x3fcdc0667eb2fcad	0.23243409334643186
20	0xbfebd7d29171ba10	-0.8700955239017407
21	0xbfbf96089a7c5d74	-0.12338308116556168
22	0x3ff55b5f12a79b1f	1.3348074654292714
23	0x3fe0c7747163916a	0.5243475165012061
24	0x3fca697ab93a6ab6	0.20634397549004796
25	0x3fdc1beda4ff7cb0	0.4392046080883558
26	0x3ffa4121ee4e38ae	1.6409014996348037
27	0x3fd7d78969e487ba	0.3725303205593452
28	0xc0031ae3a1d66e5a	-2.38812948642389
29	0xbff63eb1e3271767	-1.3903063653137566
30	0xbfb7edb3e1797cc8	-0.09347080473661429
31	0x3fe18d20be83c731	0.5484775277129527
32	0xbfe53630fe1d6836	-0.6628651583844263
33	0xbfa23b8ecbdb56c1	-0.03561063993917691
34	0x3ffddc3501bed347	1.8662614887409334
35	0x3fe25326e5097662	0.5726503823640992
36	0xbfc02ad9775e80ca	-0.12630766228267581
37	0x3fe8dfea83374080	0.777333503991045
38	0xbfe5d212a797ca8c	-0.6818936608600139
39	0xbfd42aa76efc64b2	-0.3151033958288948
40	0x3ff95d95a8a63109	1.58534780386532
41	0x3fe151e151a02d53	0.5412451357127942
42	0x3f820faa31d0cde2	0.00881894077801965
43	0xbfd6d1db931980bd	-0.35655869832227066
44	0xbfbff5203f11f2b2	-0.1248340753535995
45	0x3fa1c629b73aec7b	0.03471498834320471
46	0xbfc472ade3cece1c	-0.15974973319463082
47	0x3fdcdc26abced26f	0.4509369542895802
48	0x3fadf84bfb7748ae	0.058534979292418896
49	0x3fee2ac2b4b9af17	0.9427197961608468
50	0x3fd983d7d4d1e9fc	0.39867206366730534
51	0x3f89c702ee172f10	0.012586615458438227
52	0xbfe57be7fffda8d4	-0.6713752746411736
53	0xbfec83d9a00ed858	-0.8910949827320662
54	0xbfc58c05e7458152	-0.16833566467813427
55	0x3ff90f0e92cd63a7	1.5661760076966205
56	0x3fe9cdb3084a1efd	0.8063597833542812
57	0xbfcc69bf6ab4914a	-0.2219771643659761
58	0xbff9c2c0b7bae293	-1.61004707116641
59	0xbffee043d7936749	-1.929752199261616
60	0x3f826e33f0ec27ef	0.008999257840986956
61	0x3fda6d08d1bcd371	0.4129049347132457
62	0xbff00e85c03cfdf4	-1.0035455235773698
63	0xbfc1d8f935ed43c1	-0.13943400509972828
64	0x3fe148444df489d4	0.5400716326296853
65	0xbfc29244c515d580	-0.14508876441292884
66	0xbfb180c2c5c9d872	-0.06837098435230063
67	0x3fe497741816d063	0.6434879751673289
68	0x3ff54a3b75e1023a	1.3306231121679404
69	0x3fcee39467e61d1d	0.24132018159091553
70	0xbff64f9e5f9bfc2f	-1.3944381460894524
71	0xbff38309415b3266	-1.2194912484148062
72	0x3fb653ec78ce5473	0.08721807431568766
73	0xbfe1645d0500372b	-0.5435013864205066
74	0xbfe1292721fd1ba6	-0.5362735427705629
75	0xbfb57415961c2888	-0.08380255617899668
76	0x3fdb898bd8605c1f	0.4302701581049763
77	0x3fd1816cfe6c37ad	0.27352452131241983
78	0xbfbb166725b3a533	-0.10581059141590714
79	0x3fdc937d5cb09d15	0.4465020566153311
80	0x3fc29a85aaa13a65	0.1453406413224513
81	0xbfc1340e206c132b	-0.13440109809030196
82	0xbff5c0f6def1eae2	-1.3596104344166453
83	0xbfeea0309fbca4ff	-0.957054435716742
84	0xbfae30a2f17b0e05	-0.058964817025778195
85	0x3fe795a93867d12c	0.7370191671057333
86	0xbfdcab6fc5b0f69b	-0.4479636602953662
87	0xbfb0e775d404ef96	-0.06603180338146183
88	0xbfe3b1ffc24ca930	-0.6154784006987821
89	0xbff11f11b2fdce3c	-1.0700852386334097
90	0x3fcad48db605ec54	0.2096116198334551
91	0x3ff54cbc9b8917d6	1.331234557686448
92	0xbfeec991d846ecbe	-0.9621056770478373
93	0xbfaa0138bfadab70	-0.050790570638887256
94	0xbff26f4664ae070e	-1.1521667416386125
95	0xbff45c48e26249e0	-1.2725304453966757
96	0xbfc1bf8fb3812fc8	-0.13865848793864033
97	0x3fc6d1db3078b37a	0.1782793032338324
98	0xbff7df6468e221bf	-1.4920391175274827
99	0xbfc8ed78d6677df9	-0.19474707097013758
100	0x3fd4ed1b2f22f1b6	0.32697181323217295
101	0x3fbbd9550ae34303	0.10878497615636822
102	0xbfd660200ee8d6d0	-0.34961701828011105
103	0x3fd35487a6053309	0.30203429425164124
104	0xbfeef5b0aec520fb	-0.9674914754369007
105	0xbfe5e2235d7a43e1	-0.683854754041132
106	0x40006597d4697de4	2.0496059984868555
107	0x3ff8a16e7dc887c1	1.5394120133791918
108	0x3fd15a9d61bf4670	0.2711556868135636
109	0x3fd76c3b5d0365d8	0.36598095019652765
110	0x3fb6fddb83556a15	0.08981105762851656
111	0x3fd2f1b886847828	0.2960034669539504
112	0xbfe4c63b938247a0	-0.6491983300240811
113	0x3fe347688428743c	0.6024668294154547
114	0xbfb76f7effd35c75	-0.09154504533522519
115	0x3fd7357bc25d237a	0.36263936978189515
116	0x3ff517bf51d40b32	1.3182976910035902
117	0x3fc950bfbd851f3e	0.19777676347643508
118	0x3fa53b77b3a249a1	0.041469326665850355
119	0x3fdbfffde61c564f	0.4374994990515448
120	0xbfbbd77256d0603b	-0.10875620479089403
121	0x3fd2dc608fd8c0c0	0.2947007565262645
122	0xbff321cf52a996bf	-1.1957543591501432
123	0xbfbb718b1e8d50d3	-0.10720128532313149
124	0x3fe1b20e0f8d7db0	0.5529852203143744
125	0xbfd93b5eb6826911	-0.39424865554032446
126	0x3fa1626d5d56abd7	0.03395406498324121
127	0x3fdd3ed88ac2b68a	0.45696080733146316
128	0x3fdc0b5f310d58c9	0.43819408216712624
129	0x3fb53139510842b7	0.08278234699560981
130	0x3fe2f32d48038032	0.5921846777455413
131	0x3fe7c21f6b31d523	0.7424466222425149
132	0xbfcbfd13e9d42273	-0.21866082112707694
133	0x3fdc3c9bc604a9a6	0.4411992486735933
134	0x3fd68b28b523f744	0.3522435921621432
135	0xbfa2dcd917c42b8e	-0.03684118666759338
136	0x3fe7efecef4a3daf	0.7480377839692006
137	0xbfe19420230539c8	-0.5493317302696648
138	0xbfd4013fd8c178f2	-0.31257625739625816
139	0x3fd932c4b580c55b	0.3937236568918558
140	0x3fb333c4bd72dc42	0.07500867486202004
141	0xbfc6988113d5a044	-0.1765290591095
142	0x3fd93eb0968d0f53	0.39445128156898085
143	0xbfe2440d425ab022	-0.5708071037274787
144	0x3fb2285dff2be850	0.07092845420621186
145	0xbfeb346044c641be	-0.8501435607195658
146	0xbfe963cec1946dd4	-0.7934335499625669
147	0xbfc520e56c10b0f0	-0.1650664117490872
148	0x3fd5e20d7a7e04ca	0.3419221588338358
149	0x3fe1e3beb293b684	0.5590508926231483
150	0xbfcf7da0286459af	-0.2460212895609408
151	0x3facc9fd88d4fc78	0.05622856421768402
152	0xbff1d67d1ebf74c0	-1.114865417584312
153	0xbfd31d4160721f89	-0.2986606065610365
154	0xbfb4693b3376a3bb	-0.07973070150786914
155	0xbfd1bd5530848eea	-0.27718095529620135
156	0xbfbad5cd87644963	-0.10482487254583854
157	0x3fe9953a04845bba	0.7994661415312898
158	0x3fed3e1a197f5d0f	0.9138308046339335
159	0x3fbf0e08eaa83cc4	0.12130790451941481
160	0x3fdc11b347fbea30	0.43858034162227266
161	0x3fa15be75e55c827	0.033904295220864626
162	0xbfd4f1a29963d6bd	-0.3272482393216299
163	0x3fd1020edde86dd4	0.26575061484046825
164	0xbfb89192ec7f17b6	-0.09597128175582167
165	0xbfc2915b67dee086	-0.1450609452419977
166	0xbfd115cdd9ccf4ce	-0.2669558169325911
167	0xbfcc9631b49b055b	-0.22333356207495111
168	0x3f7a43f4049e271d	0.0064124614672296494
169	0x3fc8184cc5c334b2	0.18824157387135682
170	0xbfd62523d3e387eb	-0.3460168427683345
171	0xbfc40417b80886b9	-0.1563748978233457
172	0xbfd5b0be2b3743cf	-0.33891252727795246
173	0x3f97852d14286188	0.02296896396191664
174	0xbfca411c13662b06	-0.2051119894716395
175	0x3fed90997b3ad68c	0.9239013106186618
176	0xbfe795ecafa62f12	-0.7370513373038838
177	0xbfccbded2d6a1c19	-0.224546096015019
178	0x3ff12f2c977689c9	1.0740171352887151
179	0xbfd0fd30c7e642be	-0.2654535247939228
180	0xbfe2aacd236803e4	-0.583349770691822
181	0xbfd323cbe54d03d9	-0.29905984299335625
182	0xbff4d1eeb25187a6	-1.3012530294003937
183	0xbfd64a638d07e261	-0.34829033634699696
184	0x3fddc371e0de1e29	0.4650540061925051
185	0xbf967991ba05972b	-0.021948124865409795
186	0xbfb56a0a38b3fbb3	-0.08364929088928257
187	0x3fe5acb1b8945b09	0.6773308377331385
188	0xbfed1fb29076be85	-0.9101193257865395
189	0xbfb763caf594276b	-0.09136646743368508
190	0x3ff2a18418545d01	1.1644326162693803
191	0x3fb0f00df1448c39	0.06616294040991101
192	0x3fa560133fffcc78	0.041748620569614425
193	0xbfef9a8b5f93a663	-0.9876152865155742
194	0xbfe781c0ae4b2bdc	-0.7345889476940743
195	0xbfbec510a07a7f38	-0.12019447248394222
196	0x3fd9809d9043a461	0.39847506607345023
197	0xbfb06ebdc0331d60	-0.06418977682470972
198	0x3fc60d1a0c34c69a	0.17227483364108737
199	0xbfb277fbd6747744	-0.07214330659595897
200	0xbfd431d1f7537da0	-0.31554078247969564
201	0xbf90afc4a1566b65	-0.016295502040161298
202	0x3fe056cb0a5e7c5f	0.5105948641320416
203	0xbfdd2055f30bddcf	-0.4550986169337791
204	0xbfb08a2efcfcf155	-0.06460851360765692
205	0xbfd62604c21008c4	-0.3460704703467281
206	0xbfc577b59953ce2d	-0.16771574007690174
207	0x3fd0d502d43b47bd	0.26300116277445423
208	0xbfd2856c2115950a	-0.28939345579995346
209	0x3fe4c0c7318cb409	0.6485324828878457
210	0x3fb263a7f5787850	0.07183313124593949
211	0xbfe7fcd83b765ef7	-0.7496148263334977
212	0xbfd3a0b8e3011414	-0.30668470543270243
213	0x3f7bfcb647cd372f	0.00683280185041983
214	0x3fa1426fd418d0ff	0.03370999778818095
215	0xbfcafe4c14951a5d	-0.21088553433419835
216	0x3fb48d138c84ae2e	0.08027765446302546
217	0x3fd6f0518ce2fd3c	0.35841788061584956
218	0xbfe9e1196639c585	-0.8087279316516037
219	0x3fc483c8e7af8873	0.1602717524793352
220	0x3fef6be7d38a9cdb	0.9819220668477117
221	0xbfe67212dc379fab	-0.7014250088804962
222	0x3f8a51af24b47b80	0.012851112659118646
223	0xbfe622a648e6d00f	-0.6917296813830961
224	0xbfde5be9c1fdc6e7	-0.4743599314161728
225	0x3fc8e7f26a780559	0.19457845877335947
226	0x3fdc42850f84695e	0.4415600444350697
227	0xbfe4ef1b2c384915	-0.6541877616566888
228	0x3fc1cf8c000e9f48	0.13914632799900972
229	0xbfe3926991c4287b	-0.6116226050373962
230	0xbf6c79e3c192c7b4	-0.003476090275023014
231	0xbf9a7e9755ff2a87	-0.025873531936478258
232	0xbfe167f7cd9d70a8	-0.543941403953359
233	0x3fce2995236c32e2	0.23564399938222552
234	0x3fa6a5ddd0792bc1	0.04423421068039302
235	0xbfe593ba498cd55c	-0.6742831646467198
236	0xbfee98adcff81ce8	-0.9561375677011741
237	0xbf98041514fe4130	-0.0234530729354116
238	0x3fc38793ec4ccc3c	0.15257500684819714
239	0x3fe0eb537b67fbb2	0.5287263307835615
240	0xbfb6cb1e60fc38ba	-0.08903684490016675
241	0x3fb506f5b7f3277a	0.08213744870150022
242	0xbfe8cabc1ad47761	-0.774747898485412
243	0x3fc87495984ae8b7	0.1910578721634175
244	0x3fe4d4bf9a497323	0.6509702695289871
245	0xbfb916d487b12f2c	-0.09800461113735243
246	0x3fba70ad0d37aab6	0.1032817990559732
247	0xbfdace9c9c97db15	-0.4188605813246096
248	0xbfecae6f2b003c11	-0.8962932433950092
249	0x3fc6027b8191cf46	0.17195075823439704
250	0xbfd598ea2ed4d0fd	-0.3374581773125696
251	0xbfdd66f9c17220ba	-0.45941013232414785
252	0x3fc0bca2fe77ac69	0.130756735088059
253	0xbfd292de1a7c8efa	-0.2902140864045887
254	0xbfe3fd537f211859	-0.6246736033433634
255	0x3fcad594c34c4d86	0.20964297805822357
