results/Perceptron3/Perceptron3.pt (torch_old, 8388 bytes, 2 tensors)

out.weight f8 [3, 324]
0.0959772092587849 2.195860457907294 0.11489628873668663 -0.45779021169038414 0.1039335748468375 3.517661934132717 0.05610750000708165 1.7894314261802495
0.04699639534510609 0.027017814222618106 0.05802330126216722 0.021825821499922387 -0.20045799606301784 2.7453096148735883 -0.20628874220707447 2.705165040976466
0.15331110977784165 -0.18413494751868908 0.15115028956474225 -0.5536775679935844 0.13182874130108332 -1.3955083116760227 0.12982578409954584 -1.2543807655248467
-0.003981905542212884 2.545071841891667 0.05893392368053828 2.5749530595216457 0.041059416358654496 0.15403413315030112 0.06097423441512304 -0.10933083460726535
0.1071604054973599 -1.4829861627798444 0.15535751524875094 -1.7736965643912987 0.06416619448639427 -0.8291988296377656 0.13042474976890622 -1.67891285390088
0.13339695628370815 2.074573818885841 0.10796355204204418 -0.14310946690794427 0.16467662059488256 -1.0703533679762167 0.15599317593402082 -1.1784272174475174
0.09278408042418523 -1.1043538050835042 0.09363048752456964 -1.5204824627543456 -0.05989746026782484 1.6006149122602065 0.01505026544742798 1.482863559935405
-0.05388604841016952 1.2097182036206897 -0.1054317726206542 1.1472877226300644 -0.00774751341592326 1.2876082731250895 -0.028569636267414874 1.448605967818111
0.12042866558758594 0.9769702566990682 0.05827892073863466 2.3214271654354413 0.05190317735311158 1.7593896792410837 0.026498336769004028 1.4000329524303736
0.1325831571321865 2.0994778837854686 0.06749419939671222 2.399136131534008 0.1382512960701972 -0.10266526106336861 0.08586912190110929 -0.3968813862533116
0.04247277383519022 0.08264169697406054 0.10405097682786701 0.034459840922974314 0.08420652279627835 2.1323020435081945 0.07473778262070879 1.8447077115808985
0.1481682649026313 -1.4530843683645072 0.15481168447156413 -2.121466244892586 0.026769176779290374 1.966969783200828 0.034697067022900444 1.6737142922589463
0.050464822346872655 -0.09734312485502157 0.10445594425048317 -0.561880876830518 0.083620081927122 -1.1667849222752802 0.1706621081488743 -1.2003261322710237
-0.001222797547749597 3.570908056059509 0.05512113663940034 2.801765571882764 0.10769902667071482 1.4467554499269546 0.07329231474623199 1.0317280684152146
0.025108388108141 2.3703817414371744 0.02371340845239799 2.377807090642906 -0.13567683703497294 2.922892203765393 -0.15784467152226594 2.8999567993517052
0.11377399010564544 -1.1732862007168405 0.14601628968986113 -1.3416067958332127 0.10488556331520946 -0.9755639846380039 0.13148250093608707 -1.3877176821875097
0.07008312889742742 -0.35436536575095057 0.07210836192228912 -1.5129508910976441 0.05479379339093915 0.27898717793965644 0.10974134433025555 0.05872258718195277
-0.2308800823565082 3.3143707520366306 -0.2278563777427339 3.2230732942372367 -0.12674123340491633 2.324481322657262 -0.056642389598697995 2.22146064799612
0.10218521999048445 -1.3941117230527968 0.09704366518221381 -1.9569611720549285 0.14315287750684225 -1.1489232891891838 0.09744908769179102 -1.4951353844742787
0.09673245815421662 -1.065824788658595 0.10151264635707465 -1.0853472898143297 0.12980001249255582 0.5876504641158665 0.04827799730684776 0.5967588032106176
-5.653894523348188 16.2989422882863 -1.8609156263679936 -0.7987298704241326 -0.04802312225812784 3.7423098885811834 0.0317877110692291 2.967489556668028
-0.04931238799252488 2.162209446188663 -0.11612329765119644 2.246791622248141 0.09031696252312436 -1.0160427833492092 0.06170951777004198 -1.5754477965505633
-0.0077040754757674084 1.0454322424175662 -0.0021358654185321606 0.8416011922677058 0.08898759441183987 -0.5096426548487876 0.06090587609410671 -0.9364870964398738
-0.0033822941719637953 2.3668328761085835 -0.03899149776557742 2.346118812823881 0.15358563994561233 -1.2412579719731132 0.06913258627761038 -1.4908773491747795
0.11815981466957146 -1.2846056780909878 0.17705835612597606 -1.9471895875353784 0.05984358362783152 2.2439262140327636 0.0831155040195955 1.4728739169050664
-0.049463803807039235 2.172296696682739 0.013653344496374304 1.94170539038554 0.00031888422925368734 1.990177912221761 -0.000430550602761098 2.0359666438039605
-0.11744345127281573 3.4813429772656734 -0.15592490098116005 3.4268846832018696 0.10539954721557276 -0.5958606308207248 0.0810248267881536 -1.042019618949105
-0.1691076058360758 2.7967871415837955 -0.12917507299535635 2.753513322982233 0.0806177252416637 1.8170431860361704 0.05952106167828089 2.031361331768566
-0.03933733197308484 2.7675939529721116 -0.09539523487885176 2.60948440465024 0.01617453376527226 2.087251086237325 -0.015751816065743857 2.044582097488387
-0.056343745245393595 2.873435104941533 -0.14334751410356425 2.790476436581588 -0.06841203523320355 2.4560377815759318 -0.009229265013279241 2.1604093075323836
0.08839335566870367 -0.237937476964036 0.02911461418957293 -0.2009798672591194 0.047703803291220225 1.6721175899431895 0.03058033865012758 1.4504149586224022
0.10708654480963926 -0.9267583140240062 0.11747387978225945 -0.9292149269090044 0.08096954263296115 3.6650842738888922 0.022511885532202833 2.9055025258350615
00000000: 3d86 ed5e f691 b83f d054 aa49 1f91 0140
00000010: ad4b 8eda d769 bd3f 4ae7 e850 6f4c ddbf
00000020: cf6c ec08 649b ba3f 7ddf abf0 2b24 0c40
00000030: e174 2e4b 1fba ac3f 9b0f ded8 82a1 fc3f
00000040: 0a01 135a e90f a83f 0c71 fbd1 8eaa 9b3f
00000050: ca67 a7ea 3ab5 ad3f 5bb6 3316 8259 963f
00000060: 5cfb a78c 9ba8 c9bf 1a36 2ae3 64f6 0540
00000070: 67fb a764 ab67 cabf 1c36 aa91 2da4 0540
00000080: 67fd 4dcd b29f c33f 705c d2e4 bb91 c7bf
00000090: 5e12 3b87 e458 c33f daf5 e104 bab7 e1bf
000000a0: c3ce 47a2 c3df c03f 761d ff85 0054 f6bf
000000b0: 294b 719c 219e c03f 1192 ca90 f111 f4bf
000000c0: 75e6 45a1 544f 70bf 5b29 37a0 4e5c 0440
000000d0: 2e6e aa55 962c ae3f 7d0b 5bfd 8099 0440
000000e0: ce12 e864 bd05 a53f 8c93 2cf6 63b7 c33f
000000f0: ad55 6ccd 0338 af3f 9924 1507 1bfd bbbf
00000100: d589 0945 dd6e bb3f 9df5 d8b2 4fba f7bf
00000110: c731 974b c1e2 c33f 3669 11a6 0f61 fcbf
00000120: 40ed d31a 326d b03f 299f e5fb cb88 eabf
00000130: 0258 6c19 c2b1 c03f b369 85b9 d3dc fabf
00000140: 93ee 4fc6 2613 c13f 2605 8a28 ba98 0040
00000150: 153a 2ed5 7fa3 bb3f 010e 0f38 6951 c2bf
00000160: 0d77 ef9d 1f14 c53f ddf0 69da 2a20 f1bf
00000170: e394 849a 95f7 c33f 3274 7a7f d6da f2bf
00000180: 2ce5 028f b2c0 b73f bbbf 40e5 6eab f1bf
00000190: 9b99 d3e9 2af8 b73f 45be 3a6b e553 f8bf
000001a0: e172 ed41 e1aa aebf 255c da61 1e9c f93f
000001b0: da7f 246f acd2 8e3f a9a4 e523 cfb9 f73f
000001c0: 7fc3 43bf f396 abbf e4d3 9e79 015b f33f
000001d0: d271 5d9f 93fd babf 6fc6 fc5e 4a5b f23f
000001e0: ea87 f24b dbbb 7fbf c919 f221 0b9a f43f
000001f0: 0f6a b5d5 5b41 9dbf 811b 8973 7d2d f73f
00000200: 2219 33bc 69d4 be3f bbfd b520 5743 ef3f
00000210: b7ba 3c15 bcd6 ad3f c8ba dc67 4892 0240
00000220: 4388 94a2 0d93 aa3f 892a d4ca 7526 fc3f
00000230: 1dfa 4847 6122 9b3f 262c 00f4 8866 f63f
00000240: b80b f121 7cf8 c03f 6145 8c0f bbcb 0040
00000250: f21d 14c3 4c47 b13f 62b9 bc48 6e31 0340
00000260: 6224 a0ed 37b2 c13f 19d5 b342 4548 babf
00000270: 382f 4dce 84fb b53f f057 962f 8166 d9bf
00000280: 4162 2fcd fdbe a53f c81e ca99 0128 b53f
00000290: e0b0 97b6 15a3 ba3f 363e 9463 b8a4 a13f
000002a0: c617 8505 8f8e b53f 4a7e b05f f40e 0140
000002b0: 14aa 21ec 0322 b33f 0fb4 be3b ec83 fd3f
000002c0: 3aeb 077e 2df7 c23f 1f45 0765 d53f f7bf
000002d0: 7809 ec88 ded0 c33f 7c0d 6b4b c3f8 00c0
000002e0: c448 3b0b 6169 9b3f 9215 b14e b578 ff3f
000002f0: f2cd 4260 d0c3 a13f 7099 41a3 88c7 fa3f
00000300: bf12 2873 86d6 a93f ad25 bea1 7aeb b8bf
00000310: 55ba 6df0 9fbd ba3f 2184 c79a edfa e1bf
00000320: d073 2a2d 2068 b53f 3136 aaaa 26ab f2bf
00000330: ed39 9586 41d8 c53f 2336 aa2c 8934 f3bf
00000340: 91aa 8ade c808 54bf 6163 2e3e 3891 0c40
00000350: 3280 5e6e d638 ac3f 965c 7211 046a 0640
00000360: c69b 5cd5 2992 bb3f c3ef eb0a e925 f73f
00000370: b819 e2fe 48c3 b23f 6a56 834a f581 f03f
00000380: 6674 1e67 03b6 993f c710 d4b3 8af6 0240
00000390: fd73 1ee7 5348 983f c510 54b9 bf05 0340
000003a0: 3de9 f1cc db5d c1bf f03e c74e 1562 0740
000003b0: 7a9b 0413 4134 c4bf 2e3a e88c 1c33 0740
000003c0: f5a0 a3ce 4a20 bd3f acd4 4ec0 c7c5 f2bf
000003d0: 085b 736a a9b0 c23f b61e 03b0 3877 f5bf
000003e0: 9ee8 42c0 c7d9 ba3f 1d9f 25f6 d137 efbf
000003f0: f525 c228 6bd4 c03f 6d38 d174 1734 f6bf
00000400: 49a5 9dca f7f0 b13f fa10 2f12 ecad d6bf
00000410: e26f 3990 b175 b23f ba7e 5bfe 0b35 f8bf
00000420: 3096 469d ee0d ac3f 1c44 5009 edda d13f
00000430: c3e2 ea3c 0218 bc3f 3f4b f70e e310 ae3f
00000440: 3e6e 8281 7a8d cdbf b087 16d0 d483 0a40
00000450: 3b87 4bd5 652a cdbf 1ce1 baa6 dac8 0940
00000460: 52b0 4386 0e39 c0bf 5dce e7a9 8998 0240
00000470: d892 c935 3b00 adbf 55f4 0329 8dc5 0140
00000480: df62 fe81 cf28 ba3f 28b6 1718 484e f6bf
00000490: 55d8 3d88 dad7 b83f b148 9884 b64f ffbf
000004a0: e82e 9c5f d552 c23f 7de2 0a63 fd61 f2bf
000004b0: 8d49 a964 6cf2 b83f f58c b614 13ec f7bf
000004c0: a1ea 3b58 75c3 b83f 5ee0 284b 9e0d f1bf
000004d0: a5ea 3b98 bbfc b93f 61e0 a81e 955d f1bf
000004e0: 8184 566c 499d c03f 776b 9b58 08ce e23f
000004f0: 2c3c 19c7 e4b7 a83f 7178 ecea a518 e33f
00000500: 8341 a386 969d 16c0 c194 577b 874c 3040
00000510: adda bd76 4fc6 fdbf 40eb f9f1 318f e9bf
00000520: 0ad7 1997 7c96 a8bf f2a0 b72a 40f0 0d40
00000530: a500 ea96 7a46 a03f c1e2 282a 6bbd 0740
00000540: 8c5d 6e2b 793f a9bf 53dc 5377 344c 0140
00000550: 182f b7a5 41ba bdbf 44dc d3e2 6df9 0140
00000560: 9f95 4f30 031f b73f 8c25 dd13 b641 f0bf
00000570: c238 59d1 6398 af3f c2d6 abbf 0835 f9bf
00000580: 47ec 6d03 4f8e 7fbf d5e0 b528 17ba f03f
00000590: ef4d e103 3c7f 61bf 9a0f a29f 65ee ea3f
000005a0: eea1 bf17 e4c7 b63f ec1b e71c fe4e e0bf
000005b0: 93b5 ea13 0e2f af3f 6bba 8ac9 b3f7 edbf
000005c0: 1943 545b 2fb5 6bbf 34df 2f13 46ef 0240
000005d0: 004f 738f b1f6 a3bf 0edf acf0 d9c4 0240
000005e0: 37cf 59ba b1a8 c33f 8261 b851 31dc f3bf
000005f0: cc75 2655 acb2 b13f 7ad8 1035 a2da f7bf
00000600: 0e0d b5bb b83f be3f d481 faae be8d f4bf
00000610: 13b5 8524 d9a9 c63f 0838 d944 b027 ffbf
00000620: 252c 1d75 d1a3 ae3f 3543 3f96 8ff3 0140
00000630: 1402 8ec3 0e47 b53f a4d1 833d e490 f73f
00000640: a7bd 5fd7 5153 a9bf 87b0 2b17 dd60 0140
00000650: 2a5c bee0 48f6 8b3f d1c3 e2ab 3911 ff3f
00000660: bf93 fa55 fde5 343f a36c 63cb c4d7 ff3f
00000670: 60f0 14c2 7037 3cbf 4214 37e1 a849 0040
00000680: df9a 5826 c610 bebf 6a1f cc58 cad9 0b40
00000690: af4d 2cdf 58f5 c3bf 701f 4c84 426a 0b40
000006a0: 08d9 4df8 76fb ba3f 8a2a 4b50 4a11 e3bf
000006b0: 791c 3805 0bbe b43f 20d4 92c3 1cac f0bf
000006c0: 1e10 496a 51a5 c5bf 48ce d7ef d15f 0640
000006d0: 9c9a fc0c cf88 c0bf c878 3afe 3107 0640
000006e0: 5b0f 64fd 5ca3 b43f b41e 37e0 9b12 fd3f
000006f0: 44af a96a 8b79 ae3f a270 b25e 3a40 0040
00000700: cc2e acd4 0524 a4bf 0cfb 644c 0824 0640
00000710: 5cb8 ff75 d26b b8bf 9328 0b5c 39e0 0440
00000720: ea16 3396 0e90 903f 3470 8fb2 b0b2 0040
00000730: 287f 6b7b 3e21 90bf ff98 d5db 4d5b 0040
00000740: 9884 535e 16d9 acbf bb37 578b cbfc 0640
00000750: 97d3 841a 3659 c2bf 2703 5b4f e552 0640
00000760: 8cba fa7d 7383 b1bf 45df ec22 f7a5 0340
00000770: f969 2ffb cae6 82bf d19a ceac 8448 0140
00000780: 19e1 c76b f2a0 b63f 24d2 0639 bc74 cebf
00000790: 1a97 1eaf 38d0 9d3f af23 8452 b5b9 c9bf
000007a0: dbab 0f06 a26c a83f 18f5 bd5f fec0 fa3f
000007b0: 8992 9cc9 7350 9f3f 3c99 ce50 e634 f73f
000007c0: d58d cc17 066a bb3f 3fef 400d 01a8 edbf
000007d0: e28d cca7 c412 be3f 3eef 40f1 20bc edbf
000007e0: 35a5 9481 6bba b43f 5c7e 2bb4 1752 0d40
000007f0: fc46 8710 5b0d 973f 8141 b71b 783e 0740

out.bias f8 [3]
0.08905610730763146 -0.009964848956335905 -0.13322713873414052
00000000: 3f35 658c 61cc b63f d42e 0463 7368 84bf
00000010: c5c1 e63d 960d c1bf
