results/Genotyping_LSTM_Long/models/checkpoints/7/Genotyping_LSTM_Long-7-400.pt (torch_old, 115136 bytes, 10 tensors)

LSTM.weight_ih_l0 f8 [128, 10]
0.02410531125479136 0.03531779618452527 -0.07093845132530156 0.1645773033828372 0.08488609849056887 -0.22278454373222195 0.23903338148457148 0.01875979045532214
0.009531536019070495 0.24529156224129156 -0.0475570291731924 -0.5834192805641994 0.1787606443682454 0.23521744184413976 0.23937950198251592 0.26942853133527794
0.28551429079107343 -0.28888175050425374 -0.6048350428618299 0.46397016899848775 -0.200937178108127 -0.04291903754079358 0.0009479908578639212 0.28146764511168665
-0.3274896301109243 -0.591907374845177 0.1860233361806787 0.20701351107809293 0.42711050057458166 1.219202143918856 -0.10867739329007813 -0.2621977694675986
-0.05812836451585621 -0.001380417275445822 0.28677689910620735 -0.4053309769741438 -0.04749059818056786 0.18155256715911983 0.442239133384419 1.7342381984563264
0.56326373338612 -0.20171822149610488 -0.09858085764361048 0.06360670373414237 0.3024468194371599 -0.5819943381380179 0.17450797781501232 0.22789382374796086
0.07600520833885081 0.029024601837463818 -0.17589142594325843 -0.07941720188943273 0.3531399210267867 0.31195397915253764 0.008611320652991063 0.15790341438204866
0.07965726459471613 -0.17510404465333024 0.2259363769601878 1.156725896456714 0.29427805816054053 -0.029692547898458294 0.14753445273274746 -0.14093057926207542
0.716297187004421 -0.1984600573359782 -0.021119631447099243 0.2819339639043618 0.42995476694332496 1.525370491940071 -0.18613534128389728 0.3020856605181164
-0.13654106920573506 0.5141113717747956 -0.4029356558529882 0.38470348842309676 -0.08923786563250428 0.0042966550294806 -0.34695092698128055 2.3220771964422275
0.33270453531016025 -0.35876709255905337 -0.03211511082653937 0.23415546397822992 1.0649677722098945 -0.009446991025259227 0.454182727743622 -0.18982077502287098
0.3554882843764169 0.8246922219911629 0.19061925135762692 -0.22030635121101874 0.0920788561048708 0.3111857020733414 0.17730262104925903 -0.38267508225782304
0.29544413103619077 0.2633629311109745 0.15233200402887254 1.104117369312217 -0.008681557856233146 -0.1451825896893136 0.14922638250427667 0.3277290974187884
0.11248355585130987 0.11017996021440064 0.432189323254664 0.3688279505487172 -0.12997601020048372 1.000859068943801 -0.11714223962401665 0.23281163209358816
0.14988465577309112 -0.45801763062061085 0.3997583865830287 -0.24406301740666175 0.39476425824346834 -0.158644923420804 -0.0641017068985105 0.496371390432822
0.11624145138630936 0.29337615783270216 0.13923509755062793 -0.3886491105604174 0.9228975443919417 0.5833972818357126 -0.14889684123307764 0.26605886579815796
-0.14066013162603294 0.5662726231448874 -0.22850343804495796 -0.15433785066370231 -0.2634217288074548 0.4191343343418206 0.0213792818386438 -0.2687475999797636
-0.07763124108160573 0.4112546534551586 0.016368742325371496 0.40407482150998164 -0.24868954152656386 -0.23986456414228025 0.412497151323831 -0.01637864106377587
0.12716700771795647 0.26068252738084696 -0.011659251544905755 -0.43764942366337556 0.3002430196667957 -0.48106469624629083 -0.35530418665586117 0.23739276666262382
0.07427311741061976 0.5847534506961389 -0.5324881010261096 -0.256429830431304 0.039753073592461476 0.10230687576282603 0.3303859701748813 1.685638490934315
0.10151001213250489 -0.2573217466550526 0.23057146724165872 0.3462151866375121 0.7834723563998045 -0.34686654316544957 0.21408831146703353 -0.28506920942372466
0.6151372438877887 1.2889391596646376 0.012603282836808855 -0.13018512735376822 0.28285915049873794 0.18921355025654413 0.7562378011449672 -0.17418680272783935
-0.159119566855092 0.13757120617457305 0.24140612023875277 1.6268674479162433 0.40154285272824713 -0.05321933670526009 0.03991608483633446 -0.23571297902143895
0.4049390967341155 0.08385237333712087 0.41248082316776075 -0.2766192103044932 0.21731426615887378 -0.2518694652491575 0.08848975217651961 0.015214927584062975
0.12801934551576413 0.013039228650435542 0.7489143477453855 0.47038533586071557 0.16079211556040934 0.21528555676160865 -0.23641044539038805 0.4136292710708062
-0.14184452308083567 0.5196024859343398 -0.10064592700608799 0.16335683942783166 -0.07977252721285986 0.6947713193343499 0.31716197034726795 -0.0506084638319611
-0.1357643431720557 2.190519524170769 -0.07632008767172381 0.16790497754500555 0.004617891727021271 0.05808049418309906 0.20496804707631325 -0.19320686730339576
0.2857832391363585 0.04526395752486644 -0.018525886813408127 1.1513794588474517 -0.004360316620249008 0.5001622639707217 -0.10206613753789774 0.16077313965606005
0.5447396402695247 -0.12221593327323374 0.31149452239280334 0.19544832462355952 0.2674463954351672 1.5192537029328412 0.3724940235325809 -0.3647676276857506
0.6640113845506983 -0.405731022243519 0.5487755278717813 0.39086548540722604 0.3586848935411786 -0.1264710064171057 -0.25586625172399335 1.4775046834837788
-0.29414082598916375 0.42787953657707495 -0.04759525122200857 0.33089935202212384 0.11087781538319424 0.12387547249743452 0.25297046459339706 -0.3468336944441898
0.06316054570763643 0.23268298975971288 -0.032720777857463856 -0.34245806068797324 0.30886429192530984 0.22808558117692138 0.13959001918391684 0.0552519501452735
00000000: 0c36 ff0d 10af 983f e49d 2897 2c15 a23f
00000010: 4397 78b8 0529 b2bf 55b9 d87b de10 c53f
00000020: 53eb e668 18bb b53f a62c b134 3484 ccbf
00000030: 8e73 1056 a598 ce3f 5812 f139 c435 933f
00000040: 2c45 dc1b 4585 833f fcd1 e7c2 b665 cf3f
00000050: a3d0 fc19 6559 a8bf 7721 3ce9 5eab e2bf
00000060: dece aff8 a0e1 c63f a9ad 15ea 9a1b ce3f
00000070: 8d80 2cce fca3 ce3f e76f ac2a 513e d13f
00000080: 3740 5fbb dd45 d23f 97ed b4e1 097d d2bf
00000090: 461f 1205 cf5a e3bf 1ec2 8aef afb1 dd3f
000000a0: fe30 4338 4fb8 c9bf 491d 3aed 7bf9 a5bf
000000b0: bd94 9fdd 5210 4f3f ccc1 a8de 9003 d23f
000000c0: 71c1 c610 97f5 d4bf 7714 27bc e7f0 e2bf
000000d0: 892b 98d8 9ccf c73f ab8c f431 6b7f ca3f
000000e0: c0be ef47 c755 db3f 5e83 751b da81 f33f
000000f0: 8bd3 fe19 48d2 bbbf 91a3 3c27 d9c7 d0bf
00000100: 4c92 2141 00c3 adbf 6646 62c3 e39d 56bf
00000110: 7734 ba7e 8d5a d23f 2438 8a56 f1f0 d9bf
00000120: ec24 1b0c b050 a8bf 8804 3a51 1d3d c73f
00000130: 0270 b95d a54d dc3f 8880 9d8d 70bf fb3f
00000140: e951 3daa 4106 e23f 89a1 2a16 e7d1 c9bf
00000150: c147 9757 983c b9bf 5231 5868 8748 b03f
00000160: a4c1 90e7 495b d33f 8851 1897 b29f e2bf
00000170: 22a4 cd04 4756 c63f d09b faf3 9f2b cd3f
00000180: 971a 24cc 1375 b33f c470 af0e a0b8 9d3f
00000190: 5f5b 0939 9c83 c6bf 8bdd da8c af54 b4bf
000001a0: 6c36 ee2e d899 d63f 404d 94d2 0df7 d33f
000001b0: 34c5 a3e4 cfa2 813f 1b4c 59d8 2d36 c43f
000001c0: 49b8 5222 6b64 b43f e678 9730 cf69 c6bf
000001d0: 6ea7 02b3 7beb cc3f 647c 7b03 f381 f23f
000001e0: ceb6 eea2 73d5 d23f 589a a228 b967 9ebf
000001f0: bc9c c2b0 68e2 c23f f8ed 7762 030a c2bf
00000200: 3ad3 0c14 e8eb e63f f6ff e89f 2367 c9bf
00000210: 97b7 7979 62a0 95bf cb74 a6c0 340b d23f
00000220: fbf9 b1ff 6084 db3f 16a8 92e3 ea67 f83f
00000230: 7fd9 b869 48d3 c7bf fd03 2118 5f55 d33f
00000240: 2c56 6681 2d7a c1bf 40c8 08b1 9973 e03f
00000250: 30fa 11a2 b2c9 d9bf d2cb 5b61 fb9e d83f
00000260: cbd9 74f2 4ad8 b6bf 664c 578d 5e99 713f
00000270: 1de5 2ca9 7134 d6bf cb0d 8c35 9d93 0240
00000280: 3fd5 98f6 074b d53f 5404 5b40 0af6 d6bf
00000290: 9c30 6a4d 6471 a0bf 8fac fb65 cef8 cd3f
000002a0: b4f7 8ea5 1b0a f13f f024 feab f158 83bf
000002b0: 8e48 846e 5411 dd3f a48c 6912 0c4c c8bf
000002c0: c080 e0ee 51c0 d63f b7f6 56f1 e063 ea3f
000002d0: 5cd5 482d 3666 c83f 8db5 c69e ff32 ccbf
000002e0: 5a9e 9fdb 7a92 b73f bad1 586f 77ea d33f
000002f0: 3a69 732f dab1 c63f 47a7 d2a0 bf7d d8bf
00000300: f31d 2680 8ee8 d23f e96b 0632 f0da d03f
00000310: 3a15 b877 9d7f c33f b143 82f9 76aa f13f
00000320: 801b 91f8 a2c7 81bf 2304 55d5 5795 c2bf
00000330: 5c33 47a0 d919 c33f 721f d776 83f9 d43f
00000340: 381b b8e9 b8cb bc3f 6da1 cbfd c034 bc3f
00000350: 2fc9 4368 fda8 db3f ca46 5d8c e09a d73f
00000360: 92ae 89cc 0da3 c0bf 544c 90cc 8403 f03f
00000370: 2c54 2aa8 08fd bdbf 4534 fc84 c5cc cd3f
00000380: c2db 5b9f 6b2f c33f 9271 202e 2950 ddbf
00000390: db40 2b33 a495 d93f 465c f6fa 743d cfbf
000003a0: e943 b24e d143 d93f 4e67 e212 7a4e c4bf
000003b0: 8a33 bf2e f868 b0bf a10e 2582 8cc4 df3f
000003c0: 47ce 24f0 ffc1 bd3f 6553 d4ca acc6 d23f
000003d0: 75b8 37a7 74d2 c13f aa7e de84 a0df d8bf
000003e0: 6d1b 576e 6088 ed3f e7e8 c1c6 30ab e23f
000003f0: 6371 c93b 0d0f c3bf 047e dac3 1b07 d13f
00000400: b7a9 97b4 2601 c2bf a8e0 a0c3 e71e e23f
00000410: af9c b6c4 993f cdbf 2859 91ba 57c1 c3bf
00000420: c529 92cf e6db d0bf 113f a8d0 18d3 da3f
00000430: 425b 3c51 73e4 953f 2aa9 3222 2933 d1bf
00000440: 4be8 9719 a4df b3bf ebbb ba09 ff51 da3f
00000450: af42 dbb3 f7c2 903f 246f e1a3 5cdc d93f
00000460: a45e db13 0fd5 cfbf feed 3acd e1b3 cebf
00000470: d241 a873 5a66 da3f 072a e3fe 8fc5 90bf
00000480: ceaf a32d 0247 c03f b651 6fc4 05af d03f
00000490: 3850 a640 cee0 87bf 2ad6 6fba 7202 dcbf
000004a0: 168e 947f 2e37 d33f e1d4 6894 c3c9 debf
000004b0: 4667 74c5 4dbd d6bf 1ebc 8fdc e262 ce3f
000004c0: 0426 4022 9003 b33f 6ed1 5ede 4cb6 e23f
000004d0: 3452 6d7c 240a e1bf 31f6 daa9 5869 d0bf
000004e0: 2d7e fdcd 835a a43f 6fa9 8e8d c830 ba3f
000004f0: 8d55 3d32 0b25 d53f 1a11 f710 60f8 fa3f
00000500: 395f 5366 8ffc b93f 10b7 9ba1 f577 d0bf
00000510: d6c9 98a7 5d83 cd3f 4925 ffbd 6328 d63f
00000520: b8d4 819e 3412 e93f 2b38 beba 0f33 d6bf
00000530: 7777 1aec 3e67 cb3f 0193 e4ec 923e d2bf
00000540: 8e96 214d 34af e33f 86b1 14ab 7e9f f43f
00000550: aac4 d9fc bfcf 893f d97b 3400 e8a9 c0bf
00000560: 0d0d 3144 5d1a d23f a6ec 274d 2638 c83f
00000570: ab54 fd9d 1933 e83f 1b31 8ece c04b c6bf
00000580: 58ed e5ab 075e c4bf 670e b2eb ee9b c13f
00000590: 6166 bd4f 65e6 ce3f cfa2 3b29 a607 fa3f
000005a0: 6f43 1acb e0b2 d93f 4aeb 539d 903f abbf
000005b0: 9faf e98d e16f a43f 70e5 11c8 d72b cebf
000005c0: 4f11 56ac 85ea d93f 54c7 2c61 5977 b53f
000005d0: 6be4 6ef7 1566 da3f 5200 6d0f 21b4 d1bf
000005e0: 26a5 0d31 f4d0 cb3f ffca 061b a11e d0bf
000005f0: 9419 a1af 43a7 b63f 8c93 1303 0129 8f3f
00000600: 916d 1f1b f062 c03f 1a12 f3a4 4fb4 8a3f
00000610: 904a e238 1bf7 e73f 418b 8218 cb1a de3f
00000620: aaaf e406 d694 c43f 34cf cb24 7a8e cb3f
00000630: a537 b18d b242 cebf 33b7 fae7 e678 da3f
00000640: 2adc df19 f627 c2bf e843 8064 95a0 e03f
00000650: 007d f774 eec3 b9bf a5d1 757d e0e8 c43f
00000660: e79d 7feb f86b b4bf 7cac d70f 913b e63f
00000670: c14a 8bb8 614c d43f a73e 1e42 5ae9 a9bf
00000680: f285 f1da b960 c1bf e480 ac19 2f86 0140
00000690: aff1 9398 b689 b3bf d419 b209 e97d c53f
000006a0: 4bba 1adf 35ea 723f 6696 1afe b9bc ad3f
000006b0: f578 7599 643c ca3f 1021 37ac 00bb c8bf
000006c0: 967a 75c8 454a d23f cf7f 8362 d62c a73f
000006d0: 35d1 f837 73f8 92bf 6393 10de 0c6c f23f
000006e0: d0fa 8b94 1fdc 71bf 7c52 ce4a 5401 e03f
000006f0: 611a c1a2 0121 babf 46f2 72d8 3694 c43f
00000700: 735b 79d3 816e e13f 8e6a 751c 8b49 bfbf
00000710: cfda a3b8 86ef d33f 9378 2861 7304 c93f
00000720: a5ef 747c d71d d13f 76c6 86f8 dc4e f83f
00000730: f0c8 412c f1d6 d73f f92f e351 5a58 d7bf
00000740: 4824 9acd 943f e53f 4a8c e03f 7ff7 d9bf
00000750: f3bd 21b2 918f e13f 8d63 3dab f003 d93f
00000760: d807 d57b b1f4 d63f 0712 3ab2 3330 c0bf
00000770: 787f d3d7 1c60 d0bf 9dfe 73f3 dba3 f73f
00000780: 3fae 020b 34d3 d2bf 9d79 0eda 6062 db3f
00000790: 5e09 e39e 675e a8bf 9ef7 cc79 742d d53f
000007a0: 0439 ec0e 7d62 bc3f e42c 278f 4db6 bf3f
000007b0: 9115 1208 ab30 d03f 4779 b2f3 8532 d6bf
000007c0: 4a39 361e 4a2b b03f 7f3e ad63 8ec8 cd3f
000007d0: 6050 981d c7c0 a0bf ec02 ba36 d5ea d5bf
000007e0: 762b 2ebc 6ec4 d33f 3109 ec87 e831 cd3f
000007f0: 8218 9ff3 15de c13f 5f0e d4cd fb49 ac3f

LSTM.weight_hh_l0 f8 [128, 32]
-0.01649873588804166 0.005443776076450372 0.3473343843462237 -0.05394129078796867 0.3121538889244233 -0.268944313261738 -0.16797005017739547 0.03149049641289948
-0.3303729458863598 -0.09312883435771711 -0.11752846987664313 0.3059293842877547 -0.09220657291926812 -0.20712312996587437 0.233839007816649 -0.3987191211093917
0.10138601284364207 -0.2192636630475939 -0.0035717091145202728 -0.002554421859300935 0.07218210650159992 0.00024276316435298888 -0.30150841958868047 0.06816669412186059
0.4943841401921935 0.30878020572781206 0.19429204936011762 0.0064704486672829105 0.06548218669816548 -0.0001442637337262068 0.07753448811885796 0.11023394498468068
-0.2164220561807581 -0.091359725495077 -0.41564891189992054 0.09785669345738982 0.1608193013839182 0.21231642441244708 0.3508721784773775 0.03132197766384013
0.05226023573009549 0.11472905712869184 0.4505081738990126 -0.16638167037127924 -0.09184202184027128 0.10875149385298777 -0.25418734056167913 -0.2469506977494336
0.22558831806471394 -0.08678622498484231 0.08036260240540967 -0.12615590946601601 0.0013173303436558347 0.39446753827504355 0.3381255723545005 0.16826440589400402
-0.21764276642099312 -0.44393142465531116 -0.1436138167666866 -0.2457195067663326 0.1975435701303941 -0.44431352699131377 0.25080575101007846 0.021110319603879046
-0.32939420240743666 -0.2958539400461762 0.02710790744325529 -0.06383510944899838 0.1598753125755175 0.08701070194415207 0.091355300541044 -0.09086722879308987
0.12420467810297099 -0.04634109486203154 0.1660918903138634 -0.1679630661829064 0.05743985369476457 -0.15048256760953221 0.0451026778571569 0.05690166414896015
0.20094349174179782 -0.059135506079410725 0.0445102004888491 -0.34508835084985046 0.14656365701072124 -0.11964290147008626 -0.15657058265278964 -0.05867498164253783
-0.102252712472864 -0.209166389839949 0.05691629151366323 -0.02035786447416246 0.01964651305757227 -0.4651424180395996 0.09644347909703252 0.1262559960031006
-0.0953163405399756 -0.20596025881260474 -0.12191960983136736 0.14025140554273793 -0.19336323973864217 -0.023316984577334488 0.057433973881916046 -0.2661321361555906
0.2801992332472542 0.003686691801572608 -0.05065207213727169 -0.25892044145001913 0.16931705408508593 0.2155007597174971 0.02870968316412289 0.45262915393625247
0.09816557497459996 -0.014946145452952364 0.29178605355727444 -0.15530163995316407 -0.2989985253464715 0.04259068407848905 0.04055770789310481 -0.06640581983747952
-0.44101203580386994 -0.1491575886448215 -0.18603362532897294 0.09989337664892282 0.15243892296474773 -0.1290980706527297 -0.07624095855984556 -0.4770285117414705
0.08583837157281637 -0.3285999309691833 0.005003824667090425 0.03388069490458137 0.08304592470140539 -0.5590633479349525 -0.047141633958773355 0.23815436399027462
-0.05135032451041207 0.035409085515029075 0.26657558412698656 0.3837284932623632 0.23381835977641158 -0.3410839305978014 0.09825418566998001 -0.4762782264918864
0.22235715322686556 0.19213189462222233 0.10782842320530815 -0.14093623034033015 0.20119839759696018 -0.32510899544618077 0.48300171181915985 -0.29168222563744356
-0.14831916223132016 0.10880015845419674 0.3967849712635691 0.27253477590227504 -0.31103926158772455 0.04663518823908408 0.29057257265922515 0.11267603755528098
-0.2042858888615566 -0.16535310647939738 0.06666038178673837 0.02865813796890209 0.12884042766428447 -0.023403461612133178 -0.08931047006663302 0.22266964870499317
-0.15453951510859992 -0.28505952916431293 0.007670381437060238 0.28520661592470414 0.17610885622319167 -0.10438679559303322 -0.06685715396074676 -0.21179718873744977
-0.21036837656639754 0.1713005568916238 0.07372273844439686 -0.23412262658276659 0.15703332435709474 -0.008931080827144366 0.018865227734763138 -0.11394334183728569
0.10730320399062727 -0.11086738497962305 0.2589855085428906 0.19705560987535065 0.06148542765899941 -0.3003125817757985 0.20004929124939114 -0.0958463673007067
0.48003748734011836 0.1724851619853841 0.06324524960118773 0.23024046249418406 -0.5848622188666456 -0.27084467691531233 -0.03666228702516239 -0.0034930069486141923
0.017900454900837016 -0.031015967247708352 -0.09886438398116326 0.08472651025152628 0.05885505972641871 0.1954568500915958 0.1543447859627887 -0.026304786761251673
-0.207613278005969 0.005805015649391637 0.2596822777889702 0.10669644499392096 -0.053835248421496194 -0.18145211420532192 0.09052806608289271 0.03527561560091388
-0.30940469717362223 0.07820889630084508 0.05906048665244699 -0.08167101084061061 -0.21223366681637365 0.07412942310280925 -0.15285451874794104 -0.3254337371428582
-0.08446150483070411 0.09661080174041681 0.20450664989705433 -0.072425722337392 0.10905404337741305 -0.0570255901577551 -0.24793383173788877 -0.1282326353686083
-0.4776476331956765 -0.01739512424757746 0.16722350070090436 -0.013767195099256472 0.14027977929028432 -0.16092881820108898 -0.16392438067408574 -0.33033575284618427
-0.0075300239208573785 -0.12820145715504044 0.06295738417151878 -0.44680566614042333 -0.023693679154396657 0.02067852927099491 -0.001043289303007823 -0.22263774917027468
-0.16724042571150718 0.08749148546210318 0.18794408051032216 0.3001605703278691 -0.2583818094189541 -0.3025525899019123 -0.19958730849198197 -0.18150498712612909
00000000: 2a07 426c 0be5 90bf 510e 7183 364c 763f
00000010: d7c5 62ff b93a d63f 693c ad5f 319e abbf
00000020: b0f9 0f4e 54fa d33f c5e0 7935 6236 d1bf
00000030: 0e15 1ce8 0a80 c5bf c1d7 74b8 851f a03f
00000040: 7c2a 8491 d424 d5bf f788 e191 4ad7 b7bf
00000050: 2917 7886 5816 bebf 45af 19d7 5894 d33f
00000060: 661c 2a97 d99a b7bf 556b b9be 0283 cabf
00000070: 1801 8dc5 6fee cd3f d119 5d34 9d84 d9bf
00000080: 6c6e 6f09 6ff4 b93f 4fcb feea d410 ccbf
00000090: 9c5a ceba 6a42 6dbf 7b7d 11cb 02ed 64bf
000000a0: eedf c7ca 867a b23f e7ec 00b4 c7d1 2f3f
000000b0: a287 66f8 e94b d3bf 1f09 ee59 5f73 b13f
000000c0: d756 7260 fda3 df3f de32 500d 0ec3 d33f
000000d0: 5ef0 efd6 8fde c83f 3daf a9d6 c180 7a3f
000000e0: f5d4 56ca 70c3 b03f 7c8d 6509 b0e8 22bf
000000f0: 2e58 c8da 4cd9 b33f bb46 9eb4 4a38 bc3f
00000100: 96f7 b6ca b7b3 cbbf b942 2cd9 5963 b7bf
00000110: e999 cee4 fd99 dabf 9a1c 18e2 220d b93f
00000120: 2c37 0114 ba95 c43f a6a7 a041 2f2d cb3f
00000130: 3ebe e894 b074 d63f 2daa 6c2b 6f09 a03f
00000140: 0b1c af86 dac1 aa3f 0fc6 442c e25e bd3f
00000150: 2f86 5e3c 20d5 dc3f ef01 739c fe4b c5bf
00000160: ebd5 3370 f582 b7bf c85e 7d4d 23d7 bb3f
00000170: 8e41 b1fa 9a44 d0bf 0973 4799 149c cfbf
00000180: b54a 39f8 13e0 cc3f 3e9e 0d3e 9f37 b6bf
00000190: 6516 27bd a492 b43f 3e45 ad78 e025 c0bf
000001a0: 0f31 9eaf 4895 553f 6c65 0ec6 f43e d93f
000001b0: 110c cd70 d9a3 d53f 93a3 3224 b089 c53f
000001c0: e49b fed9 b7db cbbf 83eb a359 5f69 dcbf
000001d0: c421 2203 f061 c2bf ad7b c69e bc73 cfbf
000001e0: 4360 9f92 1b49 c93f 5e47 e600 a26f dcbf
000001f0: 1b2b 8f90 330d d03f 7021 3a91 f19d 953f
00000200: 963e b56b cb14 d5bf 5107 395d 45ef d2bf
00000210: 9b23 badf 2cc2 9b3f ff86 6b6b 7f57 b0bf
00000220: 518d 7953 cb76 c43f 098c 4057 5546 b63f
00000230: 57d9 239c 0f63 b73f d2c8 f11f 1343 b7bf
00000240: 4964 76b6 e0cb bf3f 4259 c91d 05ba a7bf
00000250: c4b1 83c2 7f42 c53f fa81 1852 d07f c5bf
00000260: b14a 36aa c168 ad3f 6622 4045 0343 c3bf
00000270: eb8e b7bc b217 a73f 412c 3705 3722 ad3f
00000280: 3802 b02e 84b8 c93f fb75 4951 0247 aebf
00000290: dc42 e07e 0aca a63f 165d 4873 ed15 d6bf
000002a0: ab54 d210 99c2 c23f d737 03cd eaa0 bebf
000002b0: e733 013e 810a c4bf 0207 7fae a50a aebf
000002c0: cc8c ffd7 3b2d babf d279 e4d9 f6c5 cabf
000002d0: 8852 52d5 2124 ad3f 471e 8828 b1d8 94bf
000002e0: 0437 402c 371e 943f a198 5db4 e4c4 ddbf
000002f0: de5b a214 85b0 b83f b6ec e00e 2829 c03f
00000300: 97c2 64d5 a666 b8bf 4d1b f0df e75c cabf
00000310: 6580 f7a0 1f36 bfbf 7715 0310 c2f3 c13f
00000320: a689 766b 20c0 c8bf cdcf cd58 68e0 97bf
00000330: 7d19 015f fc67 ad3f 00fc 4c15 4f08 d1bf
00000340: a351 cac3 c8ee d13f 8560 fb96 8d33 6e3f
00000350: 09c2 9b82 11ef a9bf 3acc 120b 2792 d0bf
00000360: 39aa f964 2eac c53f 96f9 9f65 8795 cb3f
00000370: 36df 1239 1266 9d3f a6d4 5745 e0f7 dc3f
00000380: aee3 1b0e 6121 b93f c09e 5faf 159c 8ebf
00000390: 0346 5d69 9fac d23f c597 4e94 ece0 c3bf
000003a0: a394 fab5 ca22 d3bf 3a77 7636 72ce a53f
000003b0: 88d2 00da fac3 a43f 914e 77c8 f8ff b0bf
000003c0: 52e1 ba8b 8a39 dcbf 5f01 978a 9817 c3bf
000003d0: c843 5f28 f3cf c7bf 574c cbc1 9c92 b93f
000003e0: edb1 625e 1e83 c33f dc0f b71b 4986 c0bf
000003f0: 9e56 a107 8784 b3bf 531b 4c98 a287 debf
00000400: 20ab a5e6 80f9 b53f 82c0 3e01 c807 d5bf
00000410: bc17 cdf4 e37e 743f c46f 2979 cf58 a13f
00000420: f99a a86a 7f42 b53f 84bb 78d1 d8e3 e1bf
00000430: 0010 44c0 f222 a8bf d273 5e9a d77b ce3f
00000440: bb89 d2f8 964a aabf df60 89c0 2321 a23f
00000450: 4433 ef09 930f d13f b3bb 46f4 018f d83f
00000460: 9ed6 3890 c2ed cd3f caf4 c6b1 51d4 d5bf
00000470: 18ce 25b2 2f27 b93f 1117 a5ab 577b debf
00000480: e00d 92fe 3276 cc3f 1fe2 f525 c797 c83f
00000490: dffc 3ebf a49a bb3f 0a0e 11ca 320a c2bf
000004a0: d6e0 d77c dec0 c93f a0e9 c4f5 95ce d4bf
000004b0: 4038 0b03 80e9 de3f effc fbec ebaa d2bf
000004c0: 6daa 934f 1ffc c2bf b642 5cc2 53da bb3f
000004d0: dbc3 c7ca ec64 d93f 2e78 61b3 3571 d13f
000004e0: 1aa4 1238 11e8 d3bf 80ca a840 91e0 a73f
000004f0: b3e6 2bb4 bd98 d23f b7c1 5738 56d8 bc3f
00000500: 27eb d83d 0a26 cabf 807d 4f64 4a2a c5bf
00000510: 9f81 b69f a710 b13f eedd 5c15 8f58 9d3f
00000520: b741 9cd7 d77d c03f acff f2b8 13f7 97bf
00000530: 4567 200c 0ddd b6bf f4f7 7f65 7080 cc3f
00000540: 9e62 aa69 f3c7 c3bf e320 cb52 6a3e d2bf
00000550: 0f66 b856 fa6a 7f3f c7f6 ff3f d340 d23f
00000560: 92dd 0129 bc8a c63f 09d1 34d1 17b9 babf
00000570: f0d9 c3e9 8c1d b1bf 0b8c 8197 2b1c cbbf
00000580: a18e bbd8 59ed cabf 1b6c d138 2ded c53f
00000590: 641a 974e 7edf b23f eb9a 36f0 baf7 cdbf
000005a0: 1179 3f00 ab19 c43f 936b 9060 754a 82bf
000005b0: b40e 9c00 6851 933f 4ec0 c90e 642b bdbf
000005c0: 9550 e507 3978 bb3f bb36 ae10 ce61 bcbf
000005d0: e218 55f4 3793 d03f 3838 f443 1e39 c93f
000005e0: 2bb3 f399 047b af3f f77a 5343 5238 d3bf
000005f0: ce86 c015 379b c93f 6637 ff34 6389 b8bf
00000600: 69b5 3e27 efb8 de3f dce0 e268 fe13 c63f
00000610: f119 aa36 d730 b03f 9070 50fc 8478 cd3f
00000620: f557 d6f8 30b7 e2bf ac67 69e9 8455 d1bf
00000630: f00d 8a37 66c5 a2bf dcea 7cd3 5d9d 6cbf
00000640: fdcc 8731 7f54 923f b64c ee53 a6c2 9fbf
00000650: 4833 f01f 2d4f b9bf 846f a2f6 a2b0 b53f
00000660: f34b 7519 4022 ae3f 0e17 76e5 ba04 c93f
00000670: 9157 02e8 91c1 c33f 59a8 785b a4ef 9abf
00000680: 8920 a067 1293 cabf 13d8 de05 00c7 773f
00000690: 1f15 9d6a a29e d03f b12d d94d 7550 bb3f
000006a0: 0b4a af2e 4b90 abbf 24a5 26a8 d239 c7bf
000006b0: f436 32eb d82c b73f 9352 b43e a50f a23f
000006c0: 39ba e55b 49cd d3bf 7b4e de8b 7f05 b43f
000006d0: 0df3 5015 2d3d ae3f 9b78 9730 64e8 b4bf
000006e0: f311 0b09 792a cbbf 99dd e557 25fa b23f
000006f0: 9ebb 88a3 bc90 c3bf f1ca 8206 e8d3 d4bf
00000700: 66d1 04e9 449f b5bf a059 ea49 7cbb b83f
00000710: d3a9 8f1e 462d ca3f da09 d4fc 7d8a b2bf
00000720: 3574 cd3d f7ea bb3f 107b 8649 7532 adbf
00000730: f96e 71b9 4bbc cfbf 8812 984f ed69 c0bf
00000740: 4095 e560 c791 debf 5547 0307 07d0 91bf
00000750: b606 5165 9467 c53f 2ff2 aba5 f931 8cbf
00000760: 5fc2 2b14 b0f4 c13f 752c 94c5 5099 c4bf
00000770: 7f91 015f 79fb c4bf 2f21 cb91 3824 d5bf
00000780: 36a0 a667 cdd7 7ebf 96e5 e3c4 e768 c0bf
00000790: 12f2 0ea2 f91d b03f 3366 efca 7698 dcbf
000007a0: 3836 5ce4 2743 98bf a50f cb9b c02c 953f
000007b0: a0a6 f25b df17 51bf f84b c5cd 647f ccbf
000007c0: 5701 805f 2268 c5bf 31fa bc8c d765 b63f
000007d0: 4b62 a237 8d0e c83f 8bd7 46ae d435 d33f
000007e0: 517c 55db 5389 d0bf 5bb9 bc89 055d d3bf
000007f0: 92b9 55b1 138c c9bf 8d41 e22f 8e3b c7bf

LSTM.bias_ih_l0 f8 [128]
-0.002714326352760475 0.11614271619300441 0.17226867093788847 0.11862501916112471 0.2356169921371064 0.049585088208366844 0.17279692230555532 0.15745785335187928
0.18095465969100052 -0.06955686994801281 0.06871067558489413 -0.014605327059790202 -0.034241131109625234 -0.07671311109390096 -0.05313908138743987 0.051830722517837116
0.18098593047109868 0.16160711283380108 0.057684999720815734 0.1244499581500795 0.34486064423923046 -0.14614819199267484 0.17543208155955795 0.22671940914277738
0.21825462110765648 0.1259689246586606 0.07740653787023656 -0.1117458961018979 0.19518822478882497 0.38062496408107005 0.15680878604415158 0.26502096776081396
0.08839961886929902 0.05468181674245099 0.13887009377775877 0.15129398669546523 -0.07731246149719387 -0.11522334248364045 0.09647774083146621 0.10722645499657966
-0.08472445054265627 -0.010650198529396809 0.20124172278787017 0.036852368979746274 0.1121878218829262 -0.1219106382302084 0.38106456855931997 0.16598129128696065
0.06013930951070983 0.13358805578898655 -0.0012156444595510746 0.17125103498786187 -0.021382066193762258 0.130306644972951 0.39902962860812585 0.09549251277405443
0.06833479649700487 0.2592363734343771 -0.05432669309276326 -0.1485107752892863 0.29024922433300476 -0.015685488173714287 0.2176741266510283 0.09169010335978689
0.08635000159391697 0.1288593216312254 0.01286131481691878 -0.12268178975829067 0.14868228592225188 -0.14349623743052167 -0.04520911456056279 0.06438738230659052
-0.13077512917147666 -0.17528667202462 -0.0019209977670345789 0.028904847102142986 0.061124178795845606 -0.08016093708376036 -0.024765838695186 -0.06024721122675004
0.09800220387851509 -0.0028572321806879302 0.03621539666958026 -0.04620662770537112 0.11196602165352057 -0.024840773301327168 -0.07599976960911527 -0.03346752335363176
0.11965231603033605 -0.08664887956028491 -0.07629741278098297 -0.04730537607244657 0.03146491613821892 -0.09973476395832366 -0.04948291927785166 -0.056445378739370416
-0.09804906722429 0.20241032238261622 0.2046158304149003 0.06844466507798878 0.24383010333167035 0.03573928387614402 0.19627894317512645 0.03332337850944305
0.14573413475282745 0.11158243335272033 0.02026214168659228 0.10087128880765851 -0.05805965927903536 0.1937346922028527 -0.05487986060948374 0.2390781674814816
0.209794733005819 0.19133154057392115 -0.1238148112877716 -0.058700413245186725 0.1461321250142177 -0.0851681286818707 0.19547539803611946 0.18845734810521883
0.1187606567276551 0.1983152197404742 0.2655544626052105 0.12433185371287217 0.05238346220126487 0.39107654812989395 0.3085787405970029 -0.052934717971032885
00000000: fc0b 4edd 5a3c 66bf 3fb2 b76f 87bb bd3f
00000010: e9dc e659 e60c c63f b3ce c891 355e be3f
00000020: 6c2d ce95 b228 ce3f c3cb 7278 3763 a93f
00000030: 9c6e 13a5 351e c63f 0e85 5235 9427 c43f
00000040: 8740 b7b4 8529 c73f 098b a3a1 7ace b1bf
00000050: 84ef 85d8 0597 b13f b0af 8dd0 65e9 8dbf
00000060: 9078 96b4 0d88 a1bf bd9d 526f 78a3 b3bf
00000070: 95a6 65b1 0b35 abbf 5ac9 4874 8e89 aa3f
00000080: 746a 3406 8c2a c73f 4209 36b8 8aaf c43f
00000090: 9d95 8a66 e388 ad3f be3f 3ed4 f3db bf3f
000000a0: ced6 2b61 3212 d63f 5131 7de4 fbb4 c2bf
000000b0: 3dd7 7bf6 8e74 c63f 7a7e d13f 2405 cd3f
000000c0: 54db ed75 c4ef cb3f 7051 dced bf1f c03f
000000d0: 5935 a634 ead0 b33f 1949 3809 619b bcbf
000000e0: 6622 0481 edfb c83f 5e3d 31cf 285c d83f
000000f0: e77d e46f 4f12 c43f a85d 5281 1af6 d03f
00000100: cfc2 0580 5ba1 b63f 817b 304d 41ff ab3f
00000110: a27e 95c7 7ec6 c13f 3020 78f2 995d c33f
00000120: 2226 b4dd bfca b3bf a3fa b3e7 467f bdbf
00000130: a8c1 a9e5 c3b2 b83f 77f0 7965 3173 bb3f
00000140: 4d95 4068 80b0 b5bf a38e 0973 c5cf 85bf
00000150: 0678 fbec 49c2 c93f 2ba5 184f 50de a23f
00000160: e023 ff51 57b8 bc3f 1eb5 3b1c 8935 bfbf
00000170: b11a e8a4 5c63 d83f eea4 e9fc df3e c53f
00000180: f7e3 1a5f 94ca ae3f 67fd 5fd5 6919 c13f
00000190: e924 a14c c8ea 53bf 14ea 56cd 8deb c53f
000001a0: bfab 172c 2ee5 95bf 8d1e 4e5d e3ad c03f
000001b0: 7c71 4091 b389 d93f fe9e 6083 3272 b83f
000001c0: dd29 22a4 637e b13f 0e65 7528 5497 d03f
000001d0: fd38 4454 b5d0 abbf aa4c 7cad 6602 c3bf
000001e0: 9fc6 8c7b 7193 d23f ff5d e94a db0f 90bf
000001f0: 4a65 93eb bedc cb3f a811 4cab 0079 b73f
00000200: e3fc daa0 081b b63f 0d6e 1856 767e c03f
00000210: 0785 2d74 0857 8a3f 769c d3e2 1268 bfbf
00000220: 79ea c369 0508 c33f 6d7b 6eaf 155e c2bf
00000230: 9597 0929 a625 a7bf ac27 4805 b17b b03f
00000240: 36f9 754b 3dbd c0bf 289d e22d cb6f c6bf
00000250: f051 72a5 3f79 5fbf 1493 ff73 3b99 9d3f
00000260: 3b95 d819 ab4b af3f cf03 315b 6d85 b4bf
00000270: 5fed 034d 375c 99bf e1c6 c9f3 b8d8 aebf
00000280: ff19 9824 ac16 b93f 4e82 bdd8 0c68 67bf
00000290: 8c72 9d10 d38a a23f 94be b425 65a8 a7bf
000002a0: 82dd 4321 cea9 bc3f 0007 bf13 dc6f 99bf
000002b0: f184 f98c b874 b3bf ac5d 90bc a722 a1bf
000002c0: e4ae 3dc0 88a1 be3f a24b f2f7 9e2e b6bf
000002d0: 7dea a92c 3a88 b3bf 72f1 4f06 6938 a8bf
000002e0: d4ef 9163 2b1c a03f edab 79ad 3788 b9bf
000002f0: 2299 0440 d355 a9bf e450 649f 68e6 acbf
00000300: 93b2 2161 be19 b9bf a3c9 80d9 94e8 c93f
00000310: cd1c f0fd d930 ca3f 8b7b 18ee 9685 b13f
00000320: 617f cb27 d335 cf3f 536a dc5e 6b4c a23f
00000330: 7251 ea1c ab1f c93f b7d3 c709 c30f a13f
00000340: db4d 5687 6aa7 c23f 48db 0e96 aa90 bc3f
00000350: 4c36 904f 99bf 943f 89c5 8866 b3d2 b93f
00000360: 3306 a4e3 feb9 adbf 0952 8e63 4ccc c83f
00000370: f7b4 0d8d 3619 acbf 2da2 4207 1d9a ce3f
00000380: 9907 91c6 8dda ca3f 32a9 ba4a 8d7d c83f
00000390: c7cb 3dd5 53b2 bfbf a2ad 4c06 fb0d aebf
000003a0: cd5f ea1c 75b4 c23f b5a3 5917 94cd b5bf
000003b0: 786d de7c 5605 c93f 3bc2 66d1 5e1f c83f
000003c0: ee5e b230 1967 be3f 4dcd 8aa3 6462 c93f
000003d0: 198f 0c25 d8fe d03f 623f 8c5d 36d4 bf3f
000003e0: 1ee9 0252 01d2 aa3f 69d4 1cee 6507 d93f
000003f0: 3db8 c60b c1bf d33f 4063 0465 421a abbf

LSTM.bias_hh_l0 f8 [128]
0.0045230186274793065 -0.18935850641747046 -0.12007658467543829 0.0322154652756655 0.12136221947398931 0.011730535939385606 0.040744321921797104 -0.0025971358072276116
0.07904242198719935 0.1331024240611952 -0.020907165360826863 0.17875418205066104 0.20182695372638124 0.06545939684782184 -0.035224570124069925 -0.060150281958709716
0.25442786803690387 -0.046436201682744455 0.18144298793530977 0.19517304474561498 0.14390137900714525 -0.024659717683230706 0.1653005510958621 -0.08632722505445685
0.19745315142400977 0.05424161900795284 0.16102194521791627 0.19388554775624842 -0.0334208155906997 0.21540650650145865 0.09658607090476078 0.27582982305599596
0.08804878593015107 0.28813986633780614 0.20792314763365508 0.11373653377836743 0.05337897741615174 -0.12868241400063102 0.046154701538176766 0.065919504844659
0.1387121509173235 0.08579053394969956 0.033120980943692334 0.12892038550882878 0.15091602923270336 0.10121106444084227 0.18725797990956725 0.1496609733033334
0.2781635037512796 0.1858310277457154 0.05100723328130904 0.08168489362090357 0.12363601964360231 0.19471858316341165 0.4128164511655756 -0.1334373794082965
0.040946581432002783 0.25801960421593245 -0.12346250799793068 -0.12696956726049335 0.032185490755273403 0.07649334084058632 0.29253423752997443 -0.014170278958710012
-0.16112342456928172 0.02345000491264736 0.1511341516213077 0.11823996090641956 0.03051263548680423 -0.1475845051145047 -0.04132644564815182 0.008743242659106965
0.07108790638817851 0.0761320526314846 0.06004324588340207 0.07093160529611234 0.00047409835341640785 -0.096359944714109 -0.08415358961882047 -0.02284525937728994
-0.007720536414033869 0.05539030424013438 0.09650545015640362 -0.03849571637181017 0.018556081053124708 -0.09960696961184858 0.12401030655608279 -0.06846904714637542
0.12106148904211585 0.1890626493966047 0.22431759986473987 0.12355983183809183 0.11168685224490092 -0.13563015625702152 -0.02997729927510443 0.10186409584807005
0.050923101340506885 0.21272180671946947 0.029168008797773613 0.06523847163087583 0.500136051231489 0.053632896260940484 0.10997298216228704 0.3227579903067771
0.045583281357365016 0.22854213185097028 -0.03726187630304331 -0.040583810178967526 0.13525151046450248 -0.019727183712673853 -0.03743150237174024 0.13323288003927375
0.21400682188874226 0.0637051662100222 0.06353409093772303 0.14466050938941336 0.3921765819729882 0.03257667474677972 0.38996586057769883 0.2029325447051795
0.3039628082645954 0.11263443694552204 -0.015986869997289037 -0.12085750011078922 0.1269598177181755 0.3228624147480509 0.10031235569738416 0.18278149084454284
00000000: 9ef9 5891 ba86 723f 0d27 2448 e63c c8bf
00000010: 1b46 32cc 56bd bebf ca9d 91a3 8b7e a03f
00000020: aa5a 9c2b 9811 bf3f 9d30 cbe1 2d06 883f
00000030: 9fba 4d94 70dc a43f b0b9 5eab 9646 65bf
00000040: c880 6ec9 1f3c b43f 643a 2e0f 8009 c13f
00000050: 4d42 e81d b068 95bf 1725 f7c2 6ae1 c63f
00000060: e761 da32 77d5 c93f 3e62 ad70 f2c1 b03f
00000070: e7a6 6571 f408 a2bf 6b36 b78b 04cc aebf
00000080: 5835 1ad3 8b48 d03f a4db 275f 7cc6 a7bf
00000090: 94a5 a219 8639 c73f e61f 1f2a 6efb c83f
000000a0: bfad 5742 5c6b c23f dc8a e9a3 6540 99bf
000000b0: 32d7 7b86 9128 c53f cd02 5d80 8a19 b6bf
000000c0: 64db ed15 2546 c93f 9a47 71b7 8ec5 ab3f
000000d0: c11a 53fa 5d9c c43f 67db 63db 3dd1 c83f
000000e0: a776 ef7b 881c a1bf ec7a 62be 7092 cb3f
000000f0: 4ffb c85f ddb9 b83f b55d 5221 32a7 d13f
00000100: cfc2 0580 5d8a b63f 610f a631 e270 d23f
00000110: ad7e 95c7 399d ca3f b640 f064 d61d bd3f
00000120: e3b3 9744 7d54 ab3f 4efd d953 aa78 c0bf
00000130: 2b83 53cb 96a1 a73f 5ef0 79c5 19e0 b03f
00000140: 51b5 dfdb 51c1 c13f 6dce 9e51 5ef6 b53f
00000150: c3df edb3 3bf5 a03f 3029 c693 7680 c03f
00000160: ee91 ff68 3751 c33f c84a c4e3 f7e8 b93f
00000170: f734 d0c9 11f8 c73f f0a4 e93c 1728 c33f
00000180: 795c e34b 6ecd d13f 41fd 5fa5 4fc9 c73f
00000190: ebf6 9abd 9e1d aa3f 3fd4 ad1a 4de9 b43f
000001a0: 2b15 fa34 9ca6 bf3f 9d1e 4edd 89ec c83f
000001b0: 8371 40b1 956b da3f 9db0 4fde 7914 c1bf
000001c0: ed53 4448 f3f6 a43f 1165 75a8 6483 d03f
000001d0: b81c 222a 3d9b bfbf b84c 7ced 8940 c0bf
000001e0: 3b33 66dc 9d7a a03f 4ea8 454d 1195 b33f
000001f0: c4b2 c985 e1b8 d23f 3273 9fa5 4e05 8dbf
00000200: db81 923f b19f c4bf bd70 c330 4703 983f
00000210: 2bd8 4227 5d58 c33f 5263 2c5d f944 be3f
00000220: d353 1f4e b43e 9f3f 737b 6e8f 0ce4 c2bf
00000230: 7397 0969 bd28 a5bf fa3d 412a fae7 813f
00000240: d70d 1429 d132 b23f 91c5 3ae4 637d b33f
00000250: 946d d402 fdbd ae3f aae4 ffdc 9228 b23f
00000260: 9a71 4aec 0c12 3f3f ee03 319b 0bab b8bf
00000270: 98fb 40f3 168b b5bf 538e 9367 bf64 97bf
00000280: 475f 7eb6 919f 7fbf f327 7432 1e5c ac3f
00000290: 15b9 4ec8 94b4 b83f 93be b4e5 b5b5 a3bf
000002a0: 4a75 0f85 5d00 933f 19c2 efa4 d77f b9bf
000002b0: b77a 06b3 23bf bf3f d42e 48fe 2f87 b1bf
000002c0: e5ae 3dc0 e2fd be3f 1dda 0674 3433 c83f
000002d0: f40a ab69 70b6 cc3f 7807 d8fc 9da1 bf3f
000002e0: f7f7 c871 8297 bc3f e2d5 bc36 545c c1bf
000002f0: 8a31 0980 5eb2 9ebf 8cd7 4df0 c313 ba3f
00000300: 1a9b bcbd 9712 aa3f abc9 80d9 773a cb3f
00000310: 26e6 80ef 37de 9d3f 917b 18ee 77b3 b03f
00000320: dadf f251 1d01 e03f 816a dc5e c575 ab3f
00000330: 22a3 d479 3027 bc3f 8efa 3821 11a8 d43f
00000340: 3237 591d b156 a73f c46d 075b de40 cd3f
00000350: ece4 3718 fd13 a3bf 2375 eeb2 66c7 a4bf
00000360: 71fe 16e7 eb4f c13f d26e 8de3 5c33 94bf
00000370: e6b4 0dcd 382a a3bf 1aa2 4267 c60d c13f
00000380: 9e07 9156 9364 cb3f 7852 7555 fb4e b03f
00000390: 4a34 c22a c543 b03f 61d4 6c4e 3c84 c23f
000003a0: e22f 75ce 6b19 d93f e0b8 4cd1 e3ad a03f
000003b0: ad36 6f5e 33f5 d83f 47c2 6691 b1f9 c93f
000003c0: a597 2c6c 2074 d33f ab9a 1547 9cd5 bc3f
000003d0: de0c 37af dc5e 90bf 80c0 7362 84f0 bebf
000003e0: 4aba 8024 3840 c03f 72d4 1c1e c7a9 d43f
000003f0: 3fe0 1a0f 12ae b93f 57e7 be46 6265 c73f

LSTM.weight_ih_l1 f8 [128, 32]
-0.011173023931227502 -0.08439140771810451 0.07930356126533616 0.12291564607227078 0.394859539352437 0.02671389071818822 0.107732943718511 0.4012551796369696
0.19607215776834086 -0.2596356796233745 0.49205389257380533 0.12197574116917724 -0.10521184829964356 -0.15219165019667955 -0.1001477736926402 -0.5112880934899747
0.062750980578764 0.38109435734125774 0.407358010695511 -0.4679250954780461 0.3207039416771219 -0.1951821871984344 0.15211053598140403 -0.6566029206032156
-0.13652658131413234 0.04666266166539434 0.45813937797991416 0.21499481763352785 0.016054737605809874 -0.40795103055227155 0.02335384354164029 0.25217772679210193
0.1282231330151543 -0.3193516934715772 -0.3157776644524313 0.4708915970429711 0.37783067723850516 -0.19702263061790154 -0.4844723438203153 0.6375400235623624
0.4250233088055746 -0.10670033850113705 -0.1477589659342742 0.23446451778645241 -0.34782863285677423 0.41864711087515305 -0.36474861620885934 -0.4496132689706389
0.036353085763996935 -0.05700651076826998 0.24797210715935863 0.41387371978639154 0.6172454708354475 0.14571237290846745 -0.035435855384872 -0.3532119572728353
0.7574640699833224 0.011029303929148594 0.532819855113427 -0.20438488585818754 0.31569575465973576 0.09510340435292554 -0.056706182498228334 0.4022102064607508
0.1504895965808712 0.3496401007552074 0.2862586996132925 -0.035681343780978814 -0.2907116953519282 -0.12724410674839587 -0.2095392348626118 0.27129078525875416
-0.006827283325803543 -0.2630766151921265 0.045323938773010115 0.3617690179795437 0.06928244954921586 -0.18857679217059475 0.29415629210832983 0.20249742280327132
-0.0019599654545159086 -0.041620773145853655 -0.14374335161750498 0.28822528149166027 0.22238488403053516 -0.26200614636520486 0.09590958546838912 -0.2206205318719137
0.1365539568225036 0.04181357801663808 0.22399824652934477 0.030270086584794034 0.0992902745133973 0.022575742551301254 -0.02453033700919455 -0.07855537731137803
-0.043281695208362954 -0.05932231542939665 0.11543397007938773 -0.02070124545055834 -0.20260868777985153 -0.11390141009457247 0.16089566115987902 -0.2747031069255896
0.09641784149870994 -0.2048704643787518 0.012016328610978618 -0.11402826160789323 0.08891679293075075 0.2547628888552657 -0.00351963887420575 0.22023017690334212
0.07436320286067692 0.006084961586843413 -0.10556766819576746 -0.012686803516623876 0.018564212672423502 0.08623008025723378 0.07815298608645031 -0.06959250031637297
-0.3641828879574486 0.014937677280635256 0.0011826044906550752 -0.01501724530385172 0.22144075150121398 -0.08887525592951544 0.335387776701217 -0.20746935666787214
0.027412862749527086 0.2624427965035976 0.29662207105185645 -0.43861264711451825 0.47570316828065734 -0.5226574324853104 0.34662429066721545 0.062220907443546296
-0.5002465432268111 0.3611629301606254 -0.48137775877615907 0.2400058624602967 -0.42017229196830475 -0.272939163245511 0.47919999865915597 0.2993141524396822
0.42050310413760006 0.8353252821497263 -0.11248589068109596 -0.02191529730742938 -0.1170310852896742 -0.378444742820385 0.41150998400301225 -0.8988021199378307
-0.07370400457653466 0.5754492983101037 0.3053080794181141 0.22670172308870465 -0.10288179106478185 0.16938522620877833 0.21584943849817467 -0.09582848617416913
-0.1423767197373149 0.11251982578038189 -0.18795096085031107 -0.07253431689792599 0.21757909767734743 0.0855511505839644 0.2817078582660686 0.06034687517040257
0.27305299739608924 -0.1720900929808455 0.00680980089184946 -0.02385217137588518 0.18558947346487734 -0.018754151870456554 -0.10852817139308579 -0.0763546135617856
0.06631900391450463 -0.0972553930071225 0.3179359442129778 -0.14303781731390786 -0.41773199720195914 0.05423544791907302 0.015496233909928351 0.24638336247828013
0.020997310178556217 0.11934565389973951 -0.15045168349018 -0.08736052493696869 -0.04951600544462837 0.1180434593663566 0.4441289616693314 0.026776744739260977
0.030157041702253227 0.027181374599168605 0.15030945379624144 -0.021287340738854243 -0.15865666404200135 -0.04908038452882683 -0.20300899291389785 0.013502011174087185
0.0029215541892649633 0.11262833108550654 0.013133154473447475 0.23983167357783314 -0.37016317844643937 0.1680994766337982 -0.2438940448848775 -0.10842625952149652
0.024317023955647693 -0.03613232106183355 0.3766307332075236 0.11538141141228243 -0.5014649120305862 -0.2210742166367489 0.14624783091423274 -0.09531955828480036
0.23323880263790414 0.10780527258499528 0.3425836285732523 0.006216567453781365 0.29563908264763356 -0.07512954105465214 -0.2912256502279425 0.05277848339170712
0.031740893902691025 -0.11095164863349506 -0.09547543301225443 -0.3586520511631535 -0.073648444041219 -0.058817406524204724 -0.25795348804534635 0.35339605340425845
0.07430730169034126 -0.0956977124472007 -0.07294449075316997 0.343244680756295 -0.32724629474855693 0.04663875155838625 -0.0979930632222625 -0.06769176558328184
-0.344402723944584 -0.01918158321451611 -0.1500235442139076 0.3116424835668219 0.42509168999062324 0.08339245308191197 -0.2261093209576922 -0.22232524899332523
0.3763092548778606 0.17444145571393715 0.6271767769887504 0.31266795958907034 0.19001810598913588 -0.05016373361940366 0.3289675637933346 0.29228634904411654
00000000: e86e 0ee3 e1e1 86bf f170 36e0 ac9a b5bf
00000010: 9448 17fa 3c4d b43f a70f 0c58 6677 bf3f
00000020: e411 02f2 6045 d93f 2824 efdb e25a 9b3f
00000030: 4c0a f9dd 6294 bb3f 870c 7934 2aae d93f
00000040: e8b5 a278 e418 c93f 2cdb 36f8 de9d d0bf
00000050: df55 1e9c cf7d df3f 2b1b 3a5b cd39 bf3f
00000060: 3e43 99e7 29ef babf 57d5 2818 047b c3bf
00000070: f3ef c6d4 48a3 b9bf cbf4 0bd9 785c e0bf
00000080: 6db2 60c1 7210 b03f 3c22 5e96 d963 d83f
00000090: 87da 6c55 2712 da3f a193 8319 7cf2 ddbf
000000a0: dee5 4cd3 6986 d43f 1cb7 63db bafb c8bf
000000b0: 8d65 b5a8 5b78 c33f 5a5d ce20 e402 e5bf
000000c0: 71b2 e3f8 b379 c1bf 2f28 981b 2be4 a73f
000000d0: b1be 5bd3 2752 dd3f 7ed2 453f f384 cb3f
000000e0: 1cec d933 a770 903f 30db a5a3 de1b dabf
000000f0: 052e fde8 11ea 973f 4482 560c ae23 d03f
00000100: f403 7299 9d69 c03f 307d d815 4270 d4bf
00000110: 5c59 6885 b335 d4bf 7ab0 5082 1623 de3f
00000120: e88d 8ab8 602e d83f 02b3 899d 0938 c9bf
00000130: 0b95 214a 9801 dfbf e1ec e255 ba66 e43f
00000140: c4e3 d6f6 9433 db3f aaa2 55a0 b650 bbbf
00000150: 3972 300b c4e9 c2bf 718c fbed ee02 ce3f
00000160: f6dc ae06 d342 d6bf c883 7140 1dcb da3f
00000170: 2c36 7894 0a58 d7bf 20e6 84bb 76c6 dcbf
00000180: 091b ee24 df9c a23f 1b4d d116 f52f adbf
00000190: 62ea 48cd 8cbd cf3f c802 ca32 e87c da3f
000001a0: aff4 da92 79c0 e33f a6d8 21fa b3a6 c23f
000001b0: 0ab6 f7ff a524 a2bf 22c0 4253 069b d6bf
000001c0: 4c26 0f4a 253d e83f c7fe 621d 8896 863f
000001d0: 5fe4 8b39 dc0c e13f b65f 47b0 4829 cabf
000001e0: 86f9 6ff7 5b34 d43f d11f 6f5b b258 b83f
000001f0: 0f2e 9fbe 9708 adbf fe71 b7e0 cfbd d93f
00000200: 5efe d93b 3e43 c33f db47 87df 8060 d63f
00000210: 8b36 4202 1052 d23f d8b7 3b39 d344 a2bf
00000220: d47a 063a 059b d2bf 7aea 8bee 8849 c0bf
00000230: 2b5d 7b80 2ed2 cabf da1e 9906 d45c d13f
00000240: a379 ade9 ecf6 7bbf 81ec a54c 3fd6 d0bf
00000250: 7110 8305 b334 a73f 3d67 3b3d 3927 d73f
00000260: bc2a 009f 7ebc b13f 3022 94c9 4823 c8bf
00000270: 4425 a1e9 74d3 d23f 546f 3b80 6feb c93f
00000280: c8f1 e870 580e 60bf 4fc9 fd66 514f a5bf
00000290: 6d78 1ba1 2e66 c2bf d6c5 7873 4872 d23f
000002a0: 6998 049e 1b77 cc3f b154 7f6d b5c4 d0bf
000002b0: 80ab f5d4 878d b83f b9a5 9b28 4b3d ccbf
000002c0: 1095 589d 997a c13f cd6c 38dc 9668 a53f
000002d0: 8d39 9a7b f9ab cc3f c411 b71f 1fff 9e3f
000002e0: 258d d861 166b b93f 2555 c36f 181e 973f
000002f0: 517e db0c 7b1e 99bf ed30 7a88 341c b4bf
00000300: 59e7 deb2 0429 a6bf 396f 6299 7e5f aebf
00000310: 39a2 56a6 148d bd3f ee55 c910 b532 95bf
00000320: 2431 f3db 14ef c9bf aa10 538f a428 bdbf
00000330: 46ff 5fa1 3a98 c43f 4bb8 1657 bc94 d1bf
00000340: 1ae5 fcf3 d6ae b83f 3927 3604 3239 cabf
00000350: 5e96 3753 049c 883f 56f6 6cc6 f430 bdbf
00000360: 4ae9 b33d 40c3 b63f d78a f700 094e d03f
00000370: 755f 78bb 37d5 6cbf f031 b29f 8030 cc3f
00000380: d3fa 4f84 7709 b33f c7df 3470 8bec 783f
00000390: e871 6a92 7b06 bbbf feb2 8ef1 89fb 89bf
000003a0: 4858 3739 7f02 933f e0e2 a2ae 2c13 b63f
000003b0: d377 5387 d501 b43f 67db e768 d0d0 b1bf
000003c0: 9290 62be c54e d7bf d530 301b a597 8e3f
000003d0: 7d43 22e7 3360 533f f8fe a58b 5cc1 8ebf
000003e0: 2f85 d9a8 2b58 cc3f f311 a45d 87c0 b6bf
000003f0: 703b 1a4b fe76 d53f 0cc4 e71a 5b8e cabf
00000400: 2fee fe13 1e12 9c3f 6470 03df dccb d03f
00000410: f620 9c23 dbfb d23f 8d01 bec7 3a12 dcbf
00000420: d39d 97b3 eb71 de3f c024 7114 9cb9 e0bf
00000430: 888d 1aa6 172f d63f 27e8 3135 6bdb af3f
00000440: 1a14 e309 0502 e0bf 9450 641f 4b1d d73f
00000450: cac8 bda8 e4ce debf 76c0 0e19 83b8 ce3f
00000460: 621c 2c53 1ae4 dabf 09f9 fbd2 d577 d1bf
00000470: 14ff 9e78 36ab de3f 5256 fd8b f627 d33f
00000480: 62cc 08da 85e9 da3f 8c5c 0b16 fcba ea3f
00000490: e29a bc15 e0cb bcbf 26bf deb4 f670 96bf
000004a0: d73d efcb bff5 bdbf 846d 704c 7038 d8bf
000004b0: 934e d1f8 2d56 da3f a4ab d6a9 fcc2 ecbf
000004c0: 2d8e 3d01 44de b2bf f9ef 97a5 146a e23f
000004d0: 328b 13e6 2a8a d33f 5d71 4ee3 8f04 cd3f
000004e0: 0c26 fa07 7656 babf 8a02 7f43 6aae c53f
000004f0: f2d4 9a53 f4a0 cb3f adab 2436 3788 b8bf
00000500: 27e4 7d7d 6639 c2bf 10dc e06b 19ce bc3f
00000510: 5d4b 0def c60e c8bf 0f0f eae6 9b91 b2bf
00000520: 75a0 68c2 a1d9 cb3f 34af e421 aee6 b53f
00000530: 9cda 9165 8007 d23f db9b 8b1e c9e5 ae3f
00000540: c205 7947 b379 d13f 0ebf a854 0c07 c6bf
00000550: 80d8 f601 98e4 7b3f 6df7 fd1f b46c 98bf
00000560: a1ba 8157 65c1 c73f 7593 cad3 4934 93bf
00000570: e8f6 d392 80c8 bbbf be86 25d8 f98b b3bf
00000580: 1885 ea40 48fa b03f 8141 53bc bae5 b8bf
00000590: 1687 a700 1059 d43f a42b ba2d 104f c2bf
000005a0: 5169 9efc 1ebc dabf 2652 31a6 bfc4 ab3f
000005b0: af9f d54e 7dbc 8f3f 82b5 0f72 7d89 cf3f
000005c0: 205e 15a2 5180 953f 314b 6bd0 6f8d be3f
000005d0: b4f6 1b32 0042 c3bf f2cf 9065 425d b6bf
000005e0: f9c6 0670 295a a9bf 7e36 7c9d 1838 be3f
000005f0: b9e0 64e1 9b6c dc3f a83a cbeb 5c6b 9b3f
00000600: 09d0 6bcf 7ce1 9e3f 66e2 da2b 6fd5 9b3f
00000610: 3ed0 2a16 573d c33f 3033 2b41 59cc 95bf
00000620: 5a2a ad8f dc4e c4bf 2553 da6c 1021 a9bf
00000630: 90f6 addc 32fc c9bf a929 6243 f1a6 8b3f
00000640: cdc8 4876 f1ee 673f 0285 9dd6 35d5 bc3f
00000650: 9b78 a727 8ee5 8a3f 1ee7 47e5 cdb2 ce3f
00000660: 7b18 67e6 c0b0 d7bf e8f5 4e9d 4884 c53f
00000670: 4b1f 3c89 eb37 cfbf c724 acc6 d2c1 bbbf
00000680: 9891 80da 8fe6 983f 160b 9482 ef7f a2bf
00000690: 40de 72ca b71a d83f d102 95dc a289 bd3f
000006a0: 8d69 a824 000c e0bf b5c9 38f1 284c ccbf
000006b0: cf9b 71b9 3fb8 c23f 339c 80d1 dc66 b8bf
000006c0: ae76 bee2 c4da cd3f 78c3 1658 2099 bb3f
000006d0: 0e7f 37e2 e3ec d53f 4f95 841e 8b76 793f
000006e0: 9706 d92f c0eb d23f 7c10 cb89 b03b b3bf
000006f0: f10f dfe8 70a3 d2bf 0321 3308 c805 ab3f
00000700: b806 84aa 5740 a03f e971 51c6 5367 bcbf
00000710: 1dec 5bf6 1371 b8bf 69e6 98bb 27f4 d6bf
00000720: 2bee 8eda 9fda b2bf 6cfb e9aa 501d aebf
00000730: 16cf c258 4f82 d0bf 5908 fa7a 0a9e d63f
00000740: 7f30 9da6 cd05 b33f df42 4331 a57f b8bf
00000750: 2e4f 357a 7dac b2bf acf3 9789 b8f7 d53f
00000760: a2a9 6b71 9af1 d4bf afcd 56d1 08e1 a73f
00000770: 2e44 c6c9 1216 b9bf 7181 635f 3f54 b1bf
00000780: 11b3 ffb8 b10a d6bf ba0d 5e42 56a4 93bf
00000790: dbad 03b4 f833 c3bf 8cad bd50 f3f1 d33f
000007a0: 05e9 93c6 b334 db3f a553 b832 3559 b53f
000007b0: 54c2 6a75 26f1 ccbf 822d c05c 2775 ccbf
000007c0: 887b b869 7315 d83f b2d2 adfd 1854 c63f
000007d0: 9a46 3f08 d511 e43f 7a4b 3c79 c002 d43f
000007e0: 7e83 6f67 8352 c83f 6562 ae96 0faf a9bf
000007f0: 86fa fbf7 cd0d d53f d88c 8dcd d1b4 d23f
