results/Genotyping_GRU_Dropout_5_Long/models/checkpoints/6/Genotyping_GRU_Dropout_5_Long-6-1300.pt (torch_old, 86995 bytes, 10 tensors)

gru.weight_ih_l0 f8 [96, 10]
000000 61 13 f3 2c 2f 9b d3 3f 42 45 49 04 54 9c 95 3f
       0.3063466967544653 0.02110415722046822
000010 76 1f 77 07 eb f2 cf bf 61 5c c3 77 d5 6d d7 bf
       -0.24960077156560673 -0.36607872672670366
000020 3f 82 72 41 d0 02 e6 bf 2c a0 5f bd e0 4d c5 3f
       -0.6878434446590019 0.16643914458040976
000030 1d 88 66 26 b6 06 d3 3f 01 04 b6 d5 f4 3a 8f bf
       0.29728463888216244 -0.015249169132177444
000040 1c e7 1f f5 11 42 d0 bf cd 75 39 44 cc 7d fc bf
       -0.2540326017184371 -1.7807123818414425
000050 64 0e 24 69 78 a1 b3 3f b5 2b 5d 6c 39 f7 bf bf
       0.07668259207644607 -0.1248660935936375
000060 44 dc 1d 15 1a 76 d2 3f 19 99 e4 51 f0 a2 92 bf
       0.28845836698696226 -0.018199687002515483
000070 f0 ea fc 77 03 54 f1 bf ef 03 fa b6 d0 fc d2 3f
       -1.083011120512932 0.2966806208497123
000080 29 49 d0 48 ab 99 d2 bf 32 e3 7c 19 ec f0 d0 bf
       -0.290629216296241 -0.26470472802207035
000090 fb f9 d7 ff 0e 22 a9 3f 06 72 62 df 20 e7 00 c0
       0.04908797143069773 -2.1128556682508615
0000a0 6a 87 c0 79 fa 93 d1 bf 01 0c b7 79 bb 67 bb 3f
       -0.2746568860039732 0.10705157968099856
0000b0 93 ac 87 83 c4 b4 ce 3f 27 af 84 3d 8d f4 d6 bf
       0.23989159033167037 -0.35867625243803264
0000c0 d7 d4 1a fb b1 5a f2 bf b0 e2 ef 27 d5 cf d3 3f
       -1.1471423920423172 0.3095600976953774
0000d0 86 53 43 5f 75 d3 c4 3f e8 b1 1c 0e 7f 71 ce bf
       0.1627032008315405 -0.23783863247935177
0000e0 ec ab 7a 73 f7 7d e1 bf 1a 78 50 8d 19 41 ca bf
       -0.5466267829373215 -0.2051116886149778
0000f0 8b 7c 3c fa f9 72 dd 3f a3 43 a8 78 07 e4 b1 3f
       0.46014260708938853 0.06988569923147607
000100 b4 06 4d 4a cf b5 bb bf 98 d0 a5 92 e4 b2 e1 bf
       -0.10824294628130354 -0.5530875076497237
000110 79 51 65 f7 37 98 d4 3f 95 63 6f af 86 aa f0 bf
       0.32179068717712017 -1.0416323521551238
000120 27 b8 52 50 0a 38 e0 3f 2b a5 b2 30 cc 02 d9 3f
       0.5068408554850564 0.3907957530560277
000130 57 db da 69 03 ab c7 bf ad 6c ec a2 c8 6a ed bf
       -0.184906412779777 -0.9192851240253695
000140 dd 2b ab c6 01 28 d0 bf 4d c2 4f 5b 14 82 eb 3f
       -0.2524418296931666 0.8596288474491957
000150 25 3b 86 b9 b7 89 cc bf c1 22 47 a4 b3 0d c8 bf
       -0.22295280989461577 -0.1879181434763009
000160 91 cc d1 20 19 a6 e2 bf cd ff 2b a7 0e f8 e3 bf
       -0.5827756539350891 -0.6240304246020912
000170 36 3c be 93 f7 b6 d3 3f 39 7e 42 f7 61 2e ee 3f
       0.3080424254230282 0.9431619481364982
000180 44 c1 e3 5a 1f c6 d5 bf fb bc e5 38 1a 2d 05 c0
       -0.3402174365610515 -2.6470226712332283
000190 11 a2 a8 b8 57 67 dd bf 2e 65 02 5d 14 a2 6b 3f
       -0.4594325354869691 0.0033731839867640256
0001a0 0e c4 95 fe 06 50 dc 3f 2e b0 c1 81 3d 2a d3 bf
       0.4423844801122535 -0.2994531409410709
0001b0 4a b9 b0 3d 28 df f8 3f d3 db 39 7e 4a 09 c5 bf
       1.554481736162034 -0.1643460384691183
0001c0 00 eb d5 bf 7f 8a 9e 3f 1d 63 81 cf cf f2 b0 bf
       0.029825206836430418 -0.06620501342821368
0001d0 f9 f7 05 1e fc 91 d2 3f 71 52 fe 28 2d 22 e9 bf
       0.29016020709957463 -0.7854219246533615
0001e0 42 b5 55 cc 16 b5 ef bf ce de be c3 1c 6a e4 3f
       -0.990855597583199 0.6379531691699982
0001f0 32 32 21 40 07 6a ca bf a8 b9 e1 8c 3f 96 c7 3f
       -0.20636072760898255 0.1842727125071637
000200 96 49 8c 10 69 f9 f6 3f 3e 10 f7 cb 52 56 df bf
       1.4358912130743184 -0.48964376371828056
000210 0b 07 d1 c9 b3 39 e7 bf db fa 7d d9 f8 5c cc 3f
       -0.7257937375763687 0.22158728236896405
000220 49 61 b8 45 6f 29 b0 3f 0c b2 bd 99 25 98 07 c0
       0.06313224270013963 -2.949290467359111
000230 bd 24 18 2d cd 2d d0 3f 30 2f a1 6b b0 d0 ef bf
       0.25279549983731525 -0.994224748815645
000240 7c 6c c3 c0 45 1e aa 3f 9a 36 b0 4c c1 5d d5 3f
       0.05101221063679248 0.3338473557385925
000250 16 20 37 e6 af 2f ad bf 65 f5 d0 30 8b 77 dd 3f
       -0.05700444874997872 0.46042136923991556
000260 4f 76 ee 69 b8 9b 9e bf 06 6d ce d7 8a 96 b8 bf
       -0.029890901055855953 -0.09604709404668563
000270 f5 c9 c4 c7 43 af d4 bf 08 0e 4c ff 1e 61 11 40
       -0.323197312437656 4.344844807641046
000280 32 b2 87 7c 37 50 a4 3f ca 29 0f 59 51 fc c3 bf
       0.03967450518743866 -0.15613762711138995
000290 7d 65 5c bd ad bf b2 bf d5 f6 61 e3 ab 73 95 3f
       -0.07323728440350936 0.020949064019524528
0002a0 70 23 dd c7 e0 e8 fa bf 27 8d 14 b4 74 99 e1 bf
       -1.681854992597632 -0.5499824063485094
0002b0 b6 91 73 b0 64 60 de 3f 11 5d 0d 66 77 cb dd 3f
       0.47463338119112153 0.465543603573182
0002c0 aa 00 47 76 bf fe d1 bf 95 da e7 2c 7a 78 0a c0
       -0.28117357779047814 -3.308826781106584
0002d0 b2 3b 1c 98 e2 09 ea 3f b7 86 0e 26 78 c1 e0 bf
       0.81370668133774 -0.5236168616576923
0002e0 47 30 2e b5 92 47 ab 3f 80 5c 40 9b ee 27 d8 bf
       0.05328043424296474 -0.3774372593047204
0002f0 49 88 ca 63 ce 2d e7 3f f1 5c a6 46 0a 5e de 3f
       0.7243415783925765 0.4744897546710965
000300 53 2d 8b 1b b7 81 ce 3f c4 ce 96 39 a6 55 cc 3f
       0.23833359570412913 0.22136380969970137
000310 f4 a1 03 b3 1a 5a ee bf 76 96 42 a9 47 7e f4 bf
       -0.9484990593310259 -1.2808300601695044
000320 c9 ba 96 87 1f 7a e2 bf 66 fd f7 2d 4b 6a c2 3f
       -0.5774076126307018 0.14386882538381512
000330 bf fa 58 10 b9 0b a4 3f 98 85 6f b9 53 11 e1 3f
       0.039151938672593804 0.5333651181974117
000340 eb 18 b2 86 f5 40 f9 bf 90 cf 8c 16 a2 f1 cc 3f
       -1.5783591519880769 0.22612405873371388
000350 5d e3 36 f7 c3 6d e7 bf 1f ad e5 d1 c0 41 d3 bf
       -0.7321491077810652 -0.30088825700541294
000360 be 9d 27 e2 ab 64 e3 3f 9f 0b 29 3f 19 6c ee bf
       0.6060389916501021 -0.950695632324244
000370 4f 9b 60 cf 65 d5 c2 bf 64 06 21 3e e9 4e a5 bf
       -0.14713738084648262 -0.0416176689473218
000380 f9 47 f6 43 a4 28 dd 3f 3b 57 ec 12 be 66 c2 3f
       0.45560557019155073 0.14376045154556913
000390 d2 61 4b 95 3d 70 ed 3f 66 d1 34 dd d7 1f e3 3f
       0.9199512401492547 0.5976371117053929
0003a0 ec 83 70 4d 34 7e dc bf 87 32 49 da 31 21 f0 3f
       -0.4452028995747799 1.008104183844951
0003b0 32 4e c9 fb 93 e6 c2 bf 86 cb a5 76 f7 bf f0 bf
       -0.14766168398146956 -1.0468668589280425
0003c0 c6 f4 b3 fd 93 ee df bf e8 57 99 57 8a 4c bc bf
       -0.49893665099791595 -0.11054291380546
0003d0 67 73 e3 9a da 62 b7 3f b9 5f ed 6e 7c d7 d2 3f
       0.09135214120347045 0.2944022258066031
0003e0 1c 49 d5 d3 c8 8d ae bf cd a7 24 27 37 cb c8 bf
       -0.05967547975400775 -0.1937016430977664
0003f0 0d 92 cf 59 32 9a dc 3f e9 ab f3 7d a5 88 c1 3f
       0.44691141863430134 0.1369826188086727
000400 10 44 ba 42 9a f4 c7 3f c9 dc 75 a7 f6 0b ee bf
       0.18715217836555142 -0.93896038729772
000410 4b 8e 27 54 08 30 de 3f 99 62 8d c2 0e 7c bd 3f
       0.47168167322363236 0.11517421960651077
000420 a5 52 f7 e1 e7 9f d1 bf 59 18 77 2c bc 53 df 3f
       -0.27538487498285696 0.48948578207307986
000430 12 ba ca e4 9a 02 f4 bf 0a c0 d1 7d 91 3a dc 3f
       -1.2506359994109784 0.44107472693485816
000440 b9 65 77 7d 46 d3 c4 bf ef c7 95 8f 13 23 d6 bf
       -0.162697612059487 -0.34589089414578117
000450 dc ce 6f 0a cf fc e5 3f 4d 8a 70 f5 9a 21 fc bf
       0.6871104434817101 -1.7582044208035257
000460 16 99 91 28 fb 89 e4 bf 92 db a0 9a 3e a0 cb bf
       -0.6418433945043798 -0.21582777548038884
000470 5b 0b 6a 9b a8 90 ec 3f 40 c3 c8 07 a3 82 cf 3f
       0.8926585231241505 0.246174219895261
000480 d4 0a 63 73 ad 15 f1 bf f3 c7 5d b5 12 50 d0 bf
       -1.0677923686313777 -0.2548872729449833
000490 e5 e3 a9 94 8e 30 93 bf aa 17 6a e4 32 b8 d8 3f
       -0.018739917587001904 0.38624260240646413
0004a0 bc 87 89 1f 7d 36 a2 bf 32 e0 6f 7c c8 0e e7 3f
       -0.03557196626640244 0.7205545835886424
0004b0 fb 47 bb c1 d2 0f c9 bf 73 bd b5 49 3f 12 da 3f
       -0.19579538783597158 0.40736372183069774
0004c0 3d 81 81 29 d2 71 e5 bf c5 b8 67 73 8a d9 a5 bf
       -0.6701441584264455 -0.042675329768699956
0004d0 5e cd 0c 55 cb 66 e9 bf 6a 9e a1 c3 81 82 bc bf
       -0.7937981282361013 -0.11136637712626798
0004e0 96 32 00 58 79 01 d9 bf bc f5 b0 df 8f 46 b1 bf
       -0.3907149657614267 -0.06748294078075551
0004f0 0a f4 fe 01 fd 77 c1 3f 6e 07 e3 48 d0 c1 ec 3f
       0.13647425267654995 0.8986588882037105
000500 8a 50 cc 9d df 11 a4 3f f4 96 11 e3 08 93 db 3f
       0.03919886399504076 0.43084928679159806
000510 70 54 95 c1 c8 73 e9 bf 05 91 69 77 8c 9d ed 3f
       -0.795383813946172 0.9254820186875184
000520 09 91 d6 87 44 5a b3 bf ca 25 e2 a0 3a a2 e7 bf
       -0.07559612575875375 -0.7385533468488401
000530 23 9e 47 90 1c 85 d8 bf da 7e 0d 51 22 ef e4 3f
       -0.38312448587245934 0.6541911681233288
000540 14 dc e8 f6 f8 8f 90 3f 68 dc 1c 8a 16 fc 04 c0
       0.016174211568991195 -2.623089865690009
000550 ef 6e 41 ec 99 ca d8 bf f0 69 57 7d 56 c8 e1 3f
       -0.38736579963527523 0.5557053039622684
000560 92 15 b9 2e 5b 5e cc bf be ab f0 30 bb 9b c8 bf
       -0.22162952214618464 -0.19225253953604055
000570 28 e1 9b 60 2a 31 e0 bf b6 86 92 38 cc c1 e1 3f
       -0.5060016524212516 0.5549069504670203
000580 50 b7 40 19 d1 41 d3 bf ab 4b 6a fa 7c 88 e9 bf
       -0.30089213815778226 -0.7979111567423066
000590 85 fa 5d d9 a7 13 d5 3f db 20 dd cc cb f7 c5 3f
       0.3293246863103508 0.17162463667978653
0005a0 3a 81 c1 9e f2 7d dd bf 6a a9 86 ae be 49 f1 3f
       -0.4608122396803257 1.0805041139052158
0005b0 50 56 33 91 c4 6a e4 3f 54 01 77 b3 c1 c8 de bf
       0.6380331836650814 -0.4810032131754458
0005c0 07 c8 b9 bb cb a1 d2 3f c5 5f 5e 18 21 db b4 3f
       0.2911252339609977 0.08146864743173328
0005d0 c8 58 51 80 b9 9a ab bf c9 ec 7c a1 4b a5 d4 bf
       -0.05391483012560766 -0.3225888325720914
0005e0 02 f8 8c 6b c7 89 c5 bf 78 ec d4 1d 5f 9b f7 bf
       -0.16826718093392407 -1.475432507066925
0005f0 3c 27 9a a5 9b 92 d5 bf 6e 40 3a dc 4b c6 db 3f
       -0.33707324192129184 0.4339780474338174
000600 ad cd bd 0d 9f 85 c2 bf 09 bf 55 b6 9f 3d d3 3f
       -0.14470279856651072 0.3006362228979787
000610 df 8e 12 e8 80 e1 e0 bf 34 7c fa f1 8e 96 eb 3f
       -0.5275272877374525 0.8621287084714653
000620 d1 99 ad 77 eb 19 d3 bf 14 1a 3a 4a ce 30 a7 3f
       -0.29845701873128144 0.04529423385706735
000630 13 35 df 37 24 34 c6 bf 5c e9 2c 2b cb 33 de bf
       -0.17346623161430638 -0.47191123215056563
000640 ee 31 de ab f2 5a e0 bf 02 b6 50 76 0d 10 e2 3f
       -0.5111020428462874 0.5644595442624338
000650 50 c3 22 77 f3 c8 e3 3f 88 89 02 2d d9 fe dd bf
       0.6182801558371498 -0.4686797084379113
000660 81 ce 4b 98 16 00 ec bf 08 dd b2 46 5b 77 a5 bf
       -0.8750107740911092 -0.04192624319096622
000670 4f c0 b9 32 8f 85 e5 bf 37 fc 0f 10 ab d3 9f 3f
       -0.6725536337598984 0.031080887656568214
000680 f9 17 ef e9 d8 e2 de 3f 9e de 6c 36 01 38 da bf
       0.48259566159356343 -0.4096682578560634
000690 b4 a3 c1 5f d2 3c b4 bf ed 4c ff 80 b9 7c e3 3f
       -0.07905306661417805 0.6089751739004022
0006a0 86 aa ba 45 5d 9d be bf 77 50 95 41 26 76 cf bf
       -0.11958868934986286 -0.24579313471133776
0006b0 a4 60 82 d8 de 2e ed 3f d1 44 27 0c 95 27 9d 3f
       0.9119714955040945 0.028471306673797884
0006c0 6a 94 eb 0a f0 e6 da 3f cb 92 7b 9a 79 56 d1 bf
       0.42034531656674423 -0.2709030159588052
0006d0 62 9d 16 34 05 be b5 3f 25 b9 ef 99 d0 b9 10 c0
       0.08493073007286037 -4.181459813362641
0006e0 53 31 40 8c ef 8d e2 3f bf 6e 92 32 72 14 e7 bf
       0.5798261393806946 -0.72124585988373
0006f0 1f 9e e1 7e de 39 d5 bf a9 68 a5 cb 3b f5 c0 3f
       -0.3316570509982472 0.13248393481882673
000700 2c f1 ab da d5 95 01 c0 05 c8 ec f4 8a 8f f1 bf
       -2.1981618007395323 -1.0975446288471187
000710 f6 ff ef 13 6c 4c d6 3f fe 3d ce 99 77 80 c8 3f
       0.34841443964978625 0.1914205075267858
000720 52 9d 1e 9b 97 79 c3 bf af a0 2d f1 6c 88 e7 3f
       -0.1521481997890342 0.7354035101425519
000730 a7 27 e6 35 16 cc e6 3f 7f a0 b4 0a ae 90 cc 3f
       0.7124129345622706 0.2231652786515532
000740 4f eb 85 31 27 f0 e7 bf 3c c7 0a 3f 65 02 b3 3f
       -0.7480655638931725 0.07425530232538063
000750 b0 e6 3e 2c ef fd c6 bf 81 d0 e4 c9 d7 3a f1 3f
       -0.17962445888934075 1.076865948341066
000760 c8 b6 80 3e ef f9 d8 3f ac 0b c1 95 c7 3a e9 bf
       0.39025479415691366 -0.7884252476582012
000770 b0 08 de 69 00 60 b2 bf a3 f3 a1 88 b7 85 a0 bf
       -0.07177736839915627 -0.032270179203784076
000780 30 27 fd 6b c9 1d b7 3f e1 8f 62 3e 8f ee e2 3f
       0.0902982605595326 0.5916210382897554
000790 98 1b 44 d0 66 4f e6 3f 62 df 54 c8 a5 5c d8 bf
       0.6971925800033771 -0.38065476001383136
0007a0 8e 01 42 e8 af 99 f5 3f 7b 16 fd 01 3d 6c aa bf
       1.3500212738582351 -0.051607042782546984
0007b0 e4 3e 91 19 cc a9 e4 bf 4a 66 4e 15 f0 4e f0 3f
       -0.6457272052157035 1.0192719299578976
0007c0 a1 3d 8f 2f 01 84 d7 3f a1 3c ac af 3f 6a fa 3f
       0.3674319233368469 1.6509396421641116
0007d0 93 3c c8 50 a1 4a dc 3f 0b bd eb a9 5d 72 e2 bf
       0.4420550621879979 -0.5764606779829661
0007e0 58 75 ec 65 fe 6e bc 3f 7e 77 47 4f 35 98 dc bf
       0.1110686301076006 -0.44679005376917036
0007f0 85 18 9a e9 68 7f e0 bf 75 ff 70 95 af 34 95 bf
       -0.5155529558694673 -0.020708793159655643

gru.weight_hh_l0 f8 [96, 32]
000000 0a b1 2b e7 5b ee e2 3f 8c 6c ed 59 5a e3 93 3f
       0.5915965571453239 0.019421970118270113
000010 2f ad f8 3c 57 df d2 bf ce ad 6c ba 44 19 e0 3f
       -0.29488163904416614 0.5030845299819988
000020 89 2c dc 8a 76 8f c9 3f c0 2c 54 7c 98 8a d1 bf
       0.19969064502979375 -0.27408420697674885
000030 ec 79 01 22 d6 04 c3 3f 54 b0 d3 ee bb f8 c5 bf
       0.14858509693563293 -0.17165326272459203
000040 43 fc e1 c3 09 32 ab 3f 71 43 a4 c4 cd d6 c9 3f
       0.053116135751218006 0.20186779119151368
000050 e8 76 6e 90 fa 2e c2 3f 83 e1 ba 57 77 b5 d1 3f
       0.14205867817229678 0.27670081679709585
000060 b5 8b 5c 95 59 de da bf dc 54 5c 1e 69 64 e3 3f
       -0.41982116304478306 0.6060071557027658
000070 56 ee 23 78 ad 7d c2 3f 42 4a a3 b6 9a 06 c4 3f
       0.14446037641742987 0.15645154874671802
000080 fa 99 20 98 dc 08 b6 3f e8 7e 4b 83 de 2e db 3f
       0.08607271875425929 0.4247356683899697
000090 11 2d 0e f9 f5 eb d0 bf f1 73 a2 43 42 81 d5 bf
       -0.2644019062215231 -0.3360143337720834
0000a0 b1 a5 5e 69 f9 af a7 3f cc 56 a8 db ce 01 97 bf
       0.046264452087892656 -0.022467834622225166
0000b0 31 2f 9b 18 e1 1a a3 3f 1f e5 22 c0 1d 09 e1 3f
       0.03731444764488712 0.5323628189718511
0000c0 60 6c 39 eb 00 cd ec 3f 99 80 7a d4 0a b8 a5 bf
       0.9000248522019199 -0.042419756352729716
0000d0 6f 97 38 df 55 5a e6 3f 1d b7 b9 17 8a b8 e5 3f
       0.6985272750650732 0.678776785219927
0000e0 90 55 61 47 2b 18 d1 bf 47 6b c7 31 44 f3 cc bf
       -0.267100162226904 -0.22617390089620867
0000f0 34 c3 11 7e 74 2d da 3f 74 f1 fe 2f 57 e3 e3 bf
       0.4090243559976898 -0.6215015351695414
000100 8a d1 d5 f6 a0 b6 d7 3f 46 f3 50 48 f0 f0 ca 3f
       0.3705217752933768 0.2104778626543526
000110 46 4f 8c a0 ed 69 ce 3f 8c 3b 99 8f ef 4e bd bf
       0.2376076730657763 -0.1144857144911226
000120 0f 31 a3 87 8a d7 d0 3f e3 b8 c4 cc 65 bb d8 3f
       0.2631555866799013 0.3864378452007157
000130 8d fe 17 48 0f 1f 7d 3f da 60 68 62 dd 2a cb bf
       0.007109698957264887 -0.21224562935890995
000140 4f 43 2f 56 bd 55 db 3f b7 c6 63 56 7e ba e5 bf
       0.42710812965838313 -0.679015320520384
000150 74 9a 89 ed d8 08 db 3f e9 9a 2c d9 69 06 e3 3f
       0.42241500088713413 0.5945328942951537
000160 11 dc 20 5f 82 ba d1 bf 1e 4a 62 16 e8 e0 b9 3f
       -0.27700862207297045 0.10108805223925585
000170 0b a1 31 00 ec 9b c8 3f 02 69 f0 75 3f 5b bc 3f
       0.19225835809198374 0.11076733235714545
000180 4c f6 ae 73 c1 ac 96 3f dd 6a ab 25 89 c8 dc 3f
       0.022143385587460693 0.44973972967788517
000190 6e f0 62 f5 c5 33 c5 bf 18 04 11 3d a1 59 83 3f
       -0.1656424949814012 0.00944829909906457
0001a0 e4 6c 33 81 c2 42 cc 3f 11 af 63 e7 68 ad bb 3f
       0.2207873469222711 0.10811477326540976
0001b0 98 a5 c2 d7 c8 d7 dc 3f b8 8d f1 3a f6 46 ca 3f
       0.45067044325204497 0.20529058340171757
0001c0 2e a8 5f 12 3e 7a e2 3f ab 1f 82 c0 52 92 d8 bf
       0.5774221762524172 -0.38393086242330793
0001d0 34 9a 94 a1 63 d2 d1 3f 76 53 41 23 56 ae c4 3f
       0.2784661367353778 0.16157032700962376
0001e0 bd 42 b1 dc 59 06 77 bf 3f 8f b1 19 41 1f d3 bf
       -0.005621291183232455 -0.29878261098041387
0001f0 9e 25 97 8a f3 fc c9 3f 24 62 b8 97 4c 65 aa 3f
       0.20303196208105317 0.051554101486719156
000200 fd 9d ab d6 6c 86 e1 3f fe 84 23 ac 1f 56 c2 3f
       0.5476593201428269 0.1432532873650771
000210 a8 f5 57 f2 8a 43 e1 3f 06 18 03 84 58 99 3f 3f
       0.5394949658654484 0.0004821625807490685
000220 3e 4b ec 39 9a a9 b3 3f 9c 08 17 aa 21 5f cd 3f
       0.07680667795311266 0.22946568303274695
000230 90 39 18 70 74 78 ca 3f 63 e9 af 98 8b 40 96 3f
       0.20680098985071682 0.021730595773968086
000240 9c 0d 83 32 84 f3 db 3f a5 80 95 b8 72 20 e8 bf
       0.43673806126408876 -0.7539609532505166
000250 17 2f 4a 93 88 8a d3 3f 1a ab 94 65 63 e7 e5 3f
       0.3053304136635559 0.6844956382750269
000260 4c 3a 77 46 54 c3 d6 3f 04 5f 3a 1f 32 56 94 bf
       0.3556719482557227 -0.019860060840612995
000270 24 af 79 db 10 02 cc 3f 56 80 a7 51 30 75 d2 bf
       0.2188130447060469 -0.28840263341954164
000280 4d 0f 6f c3 9f 9f d2 bf 66 3c 14 22 3c a3 d3 3f
       -0.2909926804097623 0.3068380673220815
000290 6d 77 c1 3b 05 0e b3 bf 55 74 6f 58 77 b6 bb bf
       -0.07443268498306362 -0.10825296315256712
0002a0 cf dd 82 09 2f 19 d1 bf 5e 87 62 31 08 b3 dc 3f
       -0.2671620934374603 0.4484272463106346
0002b0 22 23 ef 87 5a 1f d7 3f 93 3c 10 93 78 65 b9 3f
       0.3612886741143929 0.09920457449355728
0002c0 bf e9 23 7e 23 bb b4 bf 65 92 a6 19 50 9a be bf
       -0.08098050908657849 -0.11954212785946934
0002d0 51 21 68 7e 98 91 e0 3f 5b 29 8e 52 8e 62 a0 bf
       0.5177729100114822 -0.03200192220454553
0002e0 13 fe b8 d4 3f fc be bf a8 10 80 50 e0 b0 d9 bf
       -0.12103651946471698 -0.4014206682334227
0002f0 bf 1a f2 39 ba ee cb 3f e2 63 b8 e3 b0 d0 d9 bf
       0.2182228835046853 -0.40336248625095383
000300 27 00 85 e5 eb b4 b8 3f 15 f9 88 43 27 99 9b 3f
       0.09651064256195295 0.026951421257984515
000310 8c cf b8 85 7d 9b e0 3f 32 a6 56 8a 70 83 d3 3f
       0.5189807521587553 0.3048974371873526
000320 59 0e 05 e2 b7 21 d7 3f 14 0e e0 b8 fd 00 d8 3f
       0.36143300125352124 0.37506049207897374
000330 ac c7 f9 c2 10 62 c6 bf fd 82 fb 7d be 3c e2 3f
       -0.17486772079751967 0.5699150524706905
000340 5c 97 44 62 be a1 e0 bf db 76 ca 11 bb 86 88 3f
       -0.5197441024108502 0.011975728493151141
000350 05 47 b3 8c ac ec ef bf 59 b4 2e 4d f3 af c2 3f
       -0.9976408718159467 0.14599457997010992
000360 72 02 dc 85 12 7e b3 bf 90 65 9a 2c 5e 4b d1 bf
       -0.07614246147205408 -0.27022508960507086
000370 b1 8e 4b 8a 0e 09 d9 bf 25 4b 03 99 a6 39 cc bf
       -0.3911777830637489 -0.2205093619473583
000380 0f c7 cf a2 4a 7e ba 3f b1 7a f4 67 ee 16 a9 3f
       0.10348955607312525 0.04900307673437022
000390 3d bb 98 8b 59 b1 e2 3f aa 75 23 91 93 c4 cf 3f
       0.584149143838523 0.2481865366634513
0003a0 e6 c4 65 63 dd ba ca bf dd bc 46 66 51 51 bd 3f
       -0.20882766106982514 0.11452206370335057
0003b0 98 34 e8 04 a6 8a d0 3f 43 a4 5f f7 9f 9b d5 bf
       0.25846243361667964 -0.33762358815744536
0003c0 38 bb 7f 70 5c 85 ca 3f ea fe 49 6c 6a 02 c0 bf
       0.20719485753166977 -0.1250737217669589
0003d0 d0 e2 fa 8a d7 ec de bf 82 22 e5 7b 6f 72 a4 bf
       -0.48320568630474003 -0.03993557345763056
0003e0 38 7e ba 4d 3b 50 e6 3f 49 d2 9c 3c 30 00 d3 3f
       0.6972939031729259 0.2968865005416644
0003f0 91 b0 bd 72 e0 9e d5 bf f5 76 9a ba b0 83 d9 bf
       -0.3378220673100794 -0.39866274092660997
000400 76 a5 b5 68 94 0d a9 bf ab bf fe 1f d5 63 a9 3f
       -0.04893173006241629 0.049589786677983604
000410 17 21 f3 91 32 4d b9 bf b9 de c8 5b 89 fe 9f 3f
       -0.09883419097161937 0.031244417407122003
000420 3c 94 bc 29 b1 71 9f 3f bf 9f a4 e1 64 92 c8 3f
       0.030707138225938943 0.19196759240844405
000430 86 69 5d 72 56 71 73 bf fd 83 1b 6d 8c dd dd bf
       -0.004746759111947779 -0.46664724974658595
000440 72 76 70 34 e3 f8 bf 3f 86 fc 88 79 fd 15 c5 bf
       0.12489147215134169 -0.16473358568507396
000450 8d 3a 72 19 89 7a 8d 3f 88 c6 ef 2e 59 00 ca bf
       0.014393874253326966 -0.20313563148333835
000460 b4 01 16 89 37 95 9a 3f 51 c5 32 fb 81 55 a1 bf
       0.025959842435897065 -0.03385549727807791
000470 ee 71 ab 13 57 30 d4 3f ef 4b 24 6b bc 6d d8 bf
       0.31545044823522417 -0.3816977545076829
000480 6f b3 1c 7a 50 91 da bf a1 8a c2 dc 99 45 9f 3f
       -0.41511928486834554 0.030538944338909805
000490 9f 34 e2 83 1b 11 e4 bf 1d 57 58 f1 c4 64 ca 3f
       -0.627088315568148 0.20620023521831224
0004a0 1a a7 35 91 6b 32 c3 3f af dc 96 a7 09 8d dd 3f
       0.14997620191871236 0.4617332588781648
0004b0 2a bb 19 fd 67 9c c9 3f 35 84 10 09 55 c3 d2 3f
       0.20008563860343404 0.29317212948996324
0004c0 0b 18 8b fb a7 b0 ca 3f 39 dd 8f 8d 52 13 cf bf
       0.20851611883534846 -0.24277717506604704
0004d0 25 96 90 29 29 32 d5 3f 43 60 41 b8 de 2a c0 bf
       0.33118657168447135 -0.12630828854412543
0004e0 5d 32 d4 ce dc 2f cf 3f d2 d6 fc c8 07 df 75 3f
       0.24364814852778496 0.00533965149934597
0004f0 cd f8 a0 4f 66 c5 b8 3f e0 a4 4c 26 a2 ef d2 3f
       0.09676207965910351 0.2958760618226517
000500 2b 33 2b 7c 7b 1a d0 3f ec 78 a9 2b 17 2a d9 3f
       0.251616355188889 0.39319400085322687
000510 8a 16 94 0a c4 13 bc bf d5 f9 48 ea a8 e2 c5 bf
       -0.1096766019655552 -0.17097960891437816
000520 97 be 41 d3 24 93 ec 3f 39 31 d3 b3 19 96 c8 bf
       0.8929618955716759 -0.1920807006885157
000530 31 a8 b3 57 fd ce be 3f 09 12 56 18 b2 b8 b6 bf
       0.12034591094166626 -0.08875573248048609
000540 f3 85 fb c0 62 f2 d6 3f 22 ee ca 1f cc 2d e3 bf
       0.3585440525622225 -0.5993404980612846
000550 9b c1 06 81 72 f2 cb bf 22 f2 d8 89 b3 07 d5 bf
       -0.21833640384785444 -0.32859505139984624
000560 87 f2 56 07 53 ca cd 3f 94 82 07 6f 29 14 da 3f
       0.23273694857006808 0.4074805816908704
000570 7c e3 31 da 00 e2 c3 3f 5f 75 28 73 26 55 cb 3f
       0.1553345742611575 0.21353607771826952
000580 ac 10 9a 9a cb 72 f3 bf db b2 ab a7 62 5b d2 3f
       -1.215526203072879 0.286827720395008
000590 98 f5 ea dd 4e 65 cb bf 7c 4d 95 af e4 d9 a8 bf
       -0.21402917705374302 -0.04853739398336196
0005a0 18 d1 8b f5 8f 0b b0 bf 88 af b2 49 51 d9 ea 3f
       -0.06267642731456069 0.8390280188955197
0005b0 b4 34 e2 69 3e 54 cb 3f f0 b1 01 51 70 30 e1 bf
       0.2135084168443534 -0.5371629316483091
0005c0 09 f8 17 2f 38 35 a5 3f 05 6a 2d 12 9c 71 d3 3f
       0.041421657322629875 0.30380918288361186
0005d0 27 b6 23 49 70 f8 e7 3f 7d cf 1d f7 55 cd b9 3f
       0.7490769794946502 0.10078942568889988
0005e0 bf 70 e5 00 58 26 f0 bf f7 37 9d af cf a8 d1 3f
       -1.0093612704286412 0.27592842244928256
0005f0 c4 97 bd 20 51 e4 d9 bf 25 18 85 22 43 82 b1 3f
       -0.40456035802196433 0.06839389412661541
000600 e9 ef 74 fc 7c 39 af 3f f3 ef c2 01 2c c8 c9 bf
       0.06098547536609528 -0.2014212616539904
000610 15 ab 98 df 4d 47 ac bf e5 2f c6 0a 2b 23 b3 3f
       -0.05523150782058487 0.07475537312546938
000620 a4 b6 83 c7 80 49 cc 3f e0 88 3f ea 9c 27 e8 3f
       0.22099313489836903 0.7548355651054202
000630 5c f2 e7 93 54 b3 d2 3f 27 57 d6 95 db 72 da 3f
       0.29219545787763024 0.41326036102815283
000640 94 f6 26 30 37 38 af bf 69 97 5c f3 12 f9 c7 bf
       -0.06097576582713518 -0.1872886360444526
000650 ee 71 00 aa 52 fc 9e bf fe ac 84 9d 5f 26 ed 3f
       -0.03025941050155894 0.9109342648056609
000660 9a 7e 15 23 70 ff 76 3f 1f e6 00 96 40 5b dc 3f
       0.0056146984437358775 0.4430695977094689
000670 19 38 47 9c 37 b9 c6 bf 19 09 f5 40 78 b0 c1 3f
       -0.17752738123675796 0.13819792911278553
000680 cf 75 1d cb 68 7a bb bf 48 30 b1 21 7d 42 ed bf
       -0.10733656844009619 -0.914366308026282
000690 10 ab cc 59 f1 0f e3 3f 41 0c df 7e 89 ea c9 bf
       0.5956961397072025 -0.20247000403296236
0006a0 76 be b7 3a f4 45 c4 3f 24 35 5b 1d f6 07 c5 bf
       0.15838482729985842 -0.16430546220218745
0006b0 47 7f 8a 87 f3 1a c4 bf 53 b0 a3 65 22 82 cc 3f
       -0.15707248800480952 0.22272138560163288
0006c0 67 b3 f8 f7 bf bc bd 3f 89 31 65 d3 66 f8 e9 bf
       0.11616134456626313 -0.8115724686445428
0006d0 3e 59 e7 51 ee 95 e1 3f e1 f1 79 ae 0b 8e df bf
       0.5495521163636921 -0.49304477728563084
0006e0 5a 8d a6 1c 58 dc de 3f 61 9c 4d 54 09 f5 df bf
       0.48219874189290624 -0.49933083756190483
0006f0 80 a8 95 97 c8 3a b8 3f 21 96 4e 01 14 e4 bd 3f
       0.09464696598812061 0.1167614463034501
000700 ce cf 56 7a 85 6a e1 3f 4c e9 ca 38 9c 2d c4 3f
       0.5442531003413877 0.15764191411092054
000710 4f 8a 32 d4 3a 77 b9 3f 2a d4 25 5d 33 b7 a4 3f
       0.09947555237389703 0.04046020996148798
000720 63 f8 c0 1c 14 9c 92 3f e0 25 6d 7e e4 1c e7 bf
       0.01817351747035224 -0.722276923109515
000730 49 44 11 3a 38 94 ce bf f3 2f 53 f6 76 1b e8 3f
       -0.23889830432247752 0.753352624038142
000740 de ea 39 d6 5b d2 d4 bf a4 0c 03 b7 a2 f1 d7 bf
       -0.32533927841693167 -0.3741232669091892
000750 d4 ce e0 2a 11 79 c4 3f 6d e4 b5 5d 17 46 d3 bf
       0.15994467347774466 -0.30115303183953906
000760 d0 19 d9 49 d1 9c a5 bf a7 a5 1b ec da c2 f0 bf
       -0.04221204782929855 -1.047572061821805
000770 01 95 93 a7 22 75 de bf b2 43 14 a2 a9 fd cc bf
       -0.47589937558070977 -0.22649116910954842
000780 63 96 1b 89 26 16 ca bf b6 07 3d e9 3a 60 df 3f
       -0.20380098051753057 0.49024842049777406
000790 06 72 19 f9 a4 90 e6 3f 97 22 6d 22 be e4 d4 3f
       0.7051567902777272 0.3264613472170281
0007a0 37 3f 4d 6e 90 ce d4 3f 4d 90 d3 60 6b bf 95 bf
       0.32510767718939654 -0.021238019738021575
0007b0 4f 2e e5 43 ff 12 e4 bf 9c f6 98 ba 3c 67 c7 3f
       -0.6273189855650773 0.18283804999548614
0007c0 3d 51 46 47 70 ac 9e 3f 7b e2 82 05 0c 77 c4 bf
       0.029954676008473447 -0.1598830248747339
0007d0 ec ea 57 3f b8 91 f2 bf 99 3f db 0b 1e 02 d2 bf
       -1.160576102671878 -0.2813792339120425
0007e0 0c 41 0b d7 48 40 8e 3f 00 44 de a2 d2 bc c8 3f
       0.014771050512905969 0.19326241447973302
0007f0 19 f5 f5 ab 9e 94 c2 3f e8 14 30 05 19 ab ca 3f
       0.14516051670572308 0.20834648850738025

gru.bias_ih_l0 f8 [96]
000000 82 08 07 dd e6 7b 9e bf 2e 1d 59 dd 89 dc b9 3f
       -0.029769522896238694 0.10102140096670517
000010 b5 5a 32 3e c9 a9 b7 3f 9b 2f f0 56 ef 37 c2 bf
       0.09243448036645925 -0.14233199830084406
000020 c6 b2 80 9e b8 b1 b0 bf 10 b1 08 52 56 12 95 bf
       -0.06521180982299332 -0.02057776332564837
000030 f2 8f d2 d6 36 63 ce bf 80 7c b8 fa e3 61 8e 3f
       -0.2374027775705368 0.014835148896109596
000040 48 1f 18 fb 3d 61 b3 bf 96 84 8e 47 90 03 b3 3f
       -0.07570254688482436 0.07427312609663014
000050 40 0e 20 36 0b e1 ad 3f f1 ef 63 0c 74 0e d0 3f
       0.05835757289608212 0.25088216028211635
000060 d9 0a f1 fe 54 88 c3 3f a6 7a 18 98 b0 0e 9c 3f
       0.15259802292174277 0.027399787219219228
000070 67 2a 30 24 da b5 c1 3f 60 b8 86 ea b6 6a 9e bf
       0.1383621861171662 -0.029703958572718014
000080 c5 08 3c 49 52 6f c0 3f a4 e6 f7 cb a9 1e c8 bf
       0.1283972604360938 -0.1884357686938546
000090 d9 85 64 98 de 45 ac 3f 6a 96 dc f8 d6 f4 b2 3f
       0.05522056207906773 0.07404845786785477
0000a0 68 c5 a9 7c 21 3b 98 bf 0b 59 3f 36 fb fc b1 3f
       -0.02366306613334271 0.07026643824005789
0000b0 3e 97 01 b1 a1 0d d7 bf 41 6b 1a 4e ba ab 29 3f
       -0.3602070072723683 0.00019585274917662858
0000c0 e8 d6 6d 0e ef 6a ce 3f 5c 9a 91 db 0e 10 d3 bf
       0.2376383610205075 -0.29785510484945177
0000d0 ac ab 51 7f 7c 44 bf 3f 12 1e 84 25 cd b2 cf bf
       0.12213876827597286 -0.2476440842803958
0000e0 ae 86 1f f1 f3 cb 57 bf 54 9f 2f bf 86 35 bc bf
       -0.001452434753894154 -0.11019174735667764
0000f0 2c 09 d9 04 88 1f b9 3f 15 29 a4 d3 f9 5a c1 bf
       0.09813737982134246 -0.13558886369748593
000100 71 35 12 15 4f 14 d2 3f 60 3f f5 4d 29 9a e4 3f
       0.28248955781676616 0.6438185236565737
000110 db af 03 2f f7 c9 e0 3f 84 0f 43 59 fe a1 a6 bf
       0.5246539991617242 -0.044204662700877
000120 41 18 95 8d f9 75 c5 bf 7c e0 93 1d 13 48 de bf
       -0.1676628056831664 -0.4731490887493306
000130 56 6e f2 71 f4 b5 d4 bf fe 28 6d c8 82 c1 c1 bf
       -0.32360564353596055 -0.13871798311658518
000140 22 5d c2 6c b0 7a e5 3f 08 2b 16 90 3a de cc 3f
       0.6712267040447026 0.22553188357809284
000150 39 61 38 17 5c 8e ae 3f 50 b3 c1 d8 15 54 e8 3f
       0.059679868540288124 0.7602643235710307
000160 88 96 f2 55 d0 54 cd bf e1 a7 96 c4 63 74 e0 3f
       -0.229150812117201 0.5142077293032764
000170 bc 3a 0a 2d a4 3c d1 bf 51 04 9c 6e 1b 0f da 3f
       -0.26932625196870297 0.407172067658455
000180 01 de a6 4c 23 7e e5 bf 3b 13 bc c2 60 61 cb bf
       -0.6716476914506871 -0.21390923985031826
000190 de bd 2a f0 51 07 5e 3f 0b 35 4d 22 e1 21 d8 3f
       0.0018327999284045641 0.37706783628239354
0001a0 a8 a2 36 c4 2c 56 c2 3f 94 8f 72 1f dc b3 e2 3f
       0.14325484829648372 0.5844555486878442
0001b0 71 f8 7c f0 92 5d f1 bf 88 3f cf 65 fb d2 d4 3f
       -1.0853452104634267 0.325377320693399
0001c0 63 16 f4 9e a2 4c d2 bf 38 60 33 2c 6e 17 d1 bf
       -0.2859274437217662 -0.2670550758025487
0001d0 b5 d2 dc 98 d3 60 ca bf e0 06 e2 cb f4 01 d2 bf
       -0.20607991184228572 -0.28136939917031434
0001e0 d8 32 56 b6 79 1c 9b bf f9 75 99 01 2a 3e ea 3f
       -0.026475812677335536 0.8200883895148642
0001f0 f6 58 16 9d 3c 65 e1 3f f0 7d 47 53 66 31 c8 bf
       0.5436080043898801 -0.1890075594555891
000200 a8 b0 31 b6 14 b3 be bf 62 2a ee d0 0f 49 b3 bf
       -0.119920057755453 -0.07533358431661832
000210 86 6a 15 f6 4a 77 b1 3f 78 c3 70 0d a8 15 b9 bf
       0.06822651393796705 -0.09798670127999098
000220 06 b9 eb 35 95 27 b8 bf 86 79 fa 6b 8e 80 98 bf
       -0.09435398641992174 -0.023927903500060597
000230 95 45 10 9d 07 4f b7 3f a5 c3 c1 ee 72 45 b2 bf
       0.0910496481376611 -0.07137220696473763
000240 3c 3d eb e2 28 45 a7 bf c2 99 d1 56 a5 0e 90 3f
       -0.04544952173238889 0.015680869506832236
000250 66 91 ec 0d 6a a0 c4 bf 96 97 31 c1 50 53 8a bf
       -0.16114545516860374 -0.012854224105648442
000260 8b a3 b2 5d 15 2c c0 3f 2d d6 c9 7f 14 58 c5 bf
       0.12634532046402244 -0.16675049056691318
000270 71 39 a2 56 af 00 af bf bc f4 bf 73 c3 3d ae bf
       -0.06055210049190663 -0.05906496799432534
000280 57 22 a8 72 6a 75 9b 3f f2 26 bc e7 26 b6 b9 3f
       0.026815093277067294 0.10043566854087851
000290 ef 52 39 74 c4 0e c6 3f 42 9e 88 34 d8 c9 ab bf
       0.17232566523548296 -0.05427432671814049
0002a0 6a 58 a7 f5 d1 93 c1 3f 53 06 69 21 93 dc b8 bf
       0.13732361311730595 -0.09711570325546263
0002b0 c4 7e 46 cc 91 b8 c0 3f 7f a5 94 53 b5 3a b6 3f
       0.13063261484511746 0.08683331766646595
0002c0 e0 36 9b 18 86 3e 94 bf 96 98 45 d5 a0 f0 58 3f
       -0.019769759418344246 0.0015222139964748186
0002d0 0f 60 af c7 e6 e4 c1 3f a9 37 16 7f 62 44 b2 bf
       0.13979801893469854 -0.07135596850113636
0002e0 8c 46 62 11 16 a2 be bf e8 a0 cb 47 ea f4 80 bf
       -0.11966073917781211 -0.008279638591787777
0002f0 a1 32 ba 99 7d cd a3 3f eb 81 ae a2 95 71 b2 3f
       0.038677144065421894 0.07204566213341194

gru.bias_hh_l0 f8 [96]
000000 4f 84 83 6e b3 fe a2 bf 84 e2 a6 22 b3 7d b7 bf
       -0.03709946369213723 -0.09176177593225004
000010 b6 5a 32 3e c8 c3 b9 3f 94 2f f0 c6 2d a1 c6 bf
       0.10064364927743949 -0.1767937871339852
000020 cf b2 80 fe b7 98 b0 bf 3f 16 41 da 2f e1 c2 bf
       -0.06483030284352796 -0.1474971595472869
000030 5f 20 a5 4d 8e 96 ba bf bc 83 47 05 3c db 88 bf
       -0.1038598002970743 -0.012136906539071173
000040 2d 7e 60 ec 4e c8 9c bf 61 7b 71 b8 b7 aa bb bf
       -0.028107865502646035 -0.10807369473466856
000050 2c fc 77 e2 26 1a c9 bf 84 02 82 73 35 b9 80 bf
       -0.1961105924419554 -0.008165757739562858
000060 ea e9 1d 22 3e 38 ba bf 74 3d 0c cc 6e 72 a9 3f
       -0.10242069561892433 0.04970117798631693
000070 90 54 60 88 10 67 bc 3f e2 d6 50 2d 57 34 ca bf
       0.11094764070033336 -0.20472230637249483
000080 16 46 e0 49 fb 77 96 3f a3 e6 f7 cb 1b 88 c8 bf
       0.02194206846622223 -0.19165370425598835
000090 25 bd cd 73 62 9b b3 bf 79 d2 46 0e 91 1b ae bf
       -0.0765897305225179 -0.05880406665111066
0000a0 f6 8e d5 e0 17 f4 b5 3f 88 53 e0 64 e5 d3 c0 bf
       0.08575581778637428 -0.131466554885858
0000b0 d4 96 01 b9 18 55 d4 bf 30 79 6c 11 95 61 c6 bf
       -0.3176938826276061 -0.1748529753758219
0000c0 d5 eb 36 c7 8c 1a d6 3f 57 9a 91 1b 5d fb d6 bf
       0.3453704781965688 -0.3590920228220162
0000d0 a7 ab 51 7f cf 9c b5 3f b1 78 10 16 e4 ec a0 bf
       0.08442398889898915 -0.03305733460750682
0000e0 d7 1e b8 03 e3 6c 72 3f d8 e7 cb 97 5d 2f d6 bf
       0.004498373771191408 -0.3466409666431196
0000f0 cc 10 b2 09 31 4a a6 3f dd 51 48 27 53 fe bb bf
       0.04353478663782226 -0.10934943875356092
000100 67 35 12 9d 70 b6 d5 3f a0 3f f5 bd 11 a3 e1 3f
       0.3392602476022461 0.5511559209935406
000110 66 5f 07 9e 4c 66 d6 3f c2 61 28 4b 10 52 d2 bf
       0.34999385292530005 -0.2862587675058671
000120 47 8c ca f6 a0 de da bf cb ef c9 f2 dc 4f e1 bf
       -0.4198381815023748 -0.5409989110917136
000130 63 6e f2 f1 c6 f0 d3 bf f2 44 69 43 db 25 9d bf
       -0.31157086970936215 -0.02846472357697833
000140 65 5d c2 dc b2 41 e1 3f b3 a9 58 00 7a be a2 3f
       0.5392698585227832 0.03660947088458801
000150 66 e7 31 1a 4c eb c8 bf 4f b3 c1 e8 d9 0d ed 3f
       -0.194680702963349 0.9079408212688608
000160 2e 96 f2 b5 0d b7 c1 bf d9 4f 2d 59 34 7f d9 3f
       -0.1383988512435947 0.39838894566241617
000170 ab 3a 0a ad 79 12 d3 bf 5d 09 38 7d 65 40 c9 3f
       -0.2980026426165902 0.19727772344783548
000180 01 de a6 00 5e 0e e7 bf 48 09 5e 19 7f 6d d3 bf
       -0.7205038082819898 -0.30355813481596217
000190 74 50 f5 83 53 1f 7b bf 10 35 4d d2 85 40 d7 3f
       -0.006621671898148763 0.3633131555296396
0001a0 76 a2 36 c4 96 b2 c9 3f a4 8f 72 4f 24 3b e1 3f
       0.2007626016686747 0.5384694625577038
0001b0 1d f1 f9 98 2c 16 ed bf 6b a0 e7 ba 3c 40 e2 3f
       -0.9089568126505899 0.5703414583667955
0001c0 8f 2d e8 6d 29 78 c9 bf 67 fe c9 3c c2 88 97 3f
       -0.19897954813528115 0.022982630691784325
0001d0 7d a5 b9 f1 b0 fa b5 bf a0 0d c4 47 5d 94 c5 bf
       -0.08585649396413504 -0.16859022144499836
0001e0 df 8c 95 2d 61 88 b5 bf 00 76 99 49 67 47 ec 3f
       -0.08411223757643736 0.8837162435044661
0001f0 ee 58 16 3d be 7c e0 3f cd be a3 09 c4 d8 d1 bf
       0.5152274315940113 -0.27885533276910907
000200 81 a5 e5 aa 8e ef b6 3f 73 f6 a4 f0 0e 83 c0 bf
       0.0895928542355673 -0.12899958372320305
000210 e1 39 dd 9c ef 60 c0 bf cf 45 de e7 78 87 9b bf
       -0.12795825156577137 -0.026883973266711266
000220 91 ab f6 44 a3 d0 b7 3f 61 7d 60 6d fd 17 af 3f
       0.09302730973892738 0.06072990379493138
000230 98 85 26 f7 97 58 ac bf 2b 43 b3 86 99 e1 c3 3f
       -0.05536341564153274 0.15532225682411513
000240 25 2b fe 12 1f b9 9a bf 2d 6d a9 34 d7 ad 9f bf
       -0.026096807035666764 -0.03093658694193129
000250 d9 db 02 99 ed 28 c5 3f 75 c0 79 00 e3 d4 aa 3f
       0.16531152697800058 0.05240544682317331
000260 82 17 32 9f 4c f7 c7 3f f0 17 3f c9 bf fe be 3f
       0.18723447583414204 0.12107466376536968
000270 6c 68 bd 04 75 9f af 3f a6 7b 3b 5f 65 3f c6 3f
       0.06176343615398214 0.17380969190614087
000280 86 b3 6e 85 0b 14 cb 3f 97 1a 78 dd cc ff a9 3f
       0.2115492249990007 0.05077972606163888
000290 fd 9b 92 c1 a7 1e c1 bf 08 e5 77 97 f8 39 91 3f
       -0.13374802543441425 0.016822704548734385
0002a0 5a 18 00 4d f5 ab 96 3f 60 3f 36 44 9e ee a7 3f
       0.022140343498925887 0.046742387606285574
0002b0 7a 5b 4a 70 85 81 bd 3f 98 b3 63 3d da 03 a3 3f
       0.11525758735147731 0.03713876723654791
0002c0 6c de 63 c2 9f ff 93 3f 16 76 0f 03 b4 30 b7 3f
       0.019529815902357958 0.09058690142361345
0002d0 c3 fb e3 0b 68 cd a9 bf df 4c 83 42 23 3e b3 bf
       -0.05039525170467798 -0.07516689657068153
0002e0 81 de 5b 53 3a d7 c3 3f 98 71 ac b3 2c d0 c1 bf
       0.1550057322526648 -0.13916548512578397
0002f0 9d e7 a7 32 d1 42 c7 bf d7 ab d2 2d 0d 0c c2 bf
       -0.18172659848624742 -0.14099278199623086

gru.weight_ih_l1 f8 [96, 32]
000000 82 1e d5 81 09 95 b1 bf 0f 38 fe 3d 05 e9 e0 3f
       -0.06868037624109927 0.5284448824693316
000010 d7 f0 d3 27 4e 03 e4 bf ce 2a 1c bd 50 29 db bf
       -0.6254034784210728 -0.4243966910150164
000020 c3 4f ed 2f 31 8b c0 bf b5 47 46 0b d8 b0 da 3f
       -0.12924780693231072 0.4170436964133118
000030 7e 73 28 78 29 62 df 3f 34 8c aa 2d c1 0f d6 3f
       0.4903663323801125 0.34471158465948126
000040 9e a0 c6 8c 19 33 ac bf 48 9d 3a e9 39 23 f0 bf
       -0.05507736056762379 -1.0086001501566262
000050 6f ba 02 a8 58 5c cb 3f d8 d0 39 e9 2a 2e b2 3f
       0.2137556858410394 0.0710169619940787
000060 93 d8 1a 4e 59 a6 de 3f 2d f0 19 5d 7b d4 d9 3f
       0.478903127931866 0.4035938653175915
000070 73 c1 53 3d 48 52 e6 bf 0e 2f 2b d7 a7 02 df bf
       -0.6975442121311474 -0.4845370866066653
000080 e9 45 b8 04 8a a7 b3 3f d1 29 b5 c5 db 10 e1 bf
       0.07677519431333447 -0.5333079205968777
000090 c4 9e 0f 50 64 42 cb bf 11 47 93 4a 09 28 f4 bf
       -0.212963618366521 -1.259774485883501
0000a0 df 65 cc 28 62 4d f1 3f d6 ac 12 c7 2b 3e 89 bf
       1.0813924401940012 -0.012325613033985421
0000b0 17 d3 48 09 c2 b3 e6 3f 05 9b d5 72 e2 72 d2 bf
       0.7094431096398662 -0.2882619973592429
0000c0 ad 02 0f 22 46 c8 bf 3f f8 70 ba 5b 26 1e d7 3f
       0.12414968806752809 0.3612152000221296
0000d0 72 aa eb db e4 3d d1 3f 95 3d 4b ec e3 bd e0 bf
       0.2694027087842762 -0.5231799712291144
0000e0 d8 ad f3 1e b2 1f d8 bf 77 aa b1 3b c7 85 d1 3f
       -0.37693455717700663 0.2737901766728678
0000f0 ae 26 97 3d e1 b7 e6 3f 7d 46 a3 dd e2 ec eb bf
       0.7099462702692187 -0.8726667717803164
000100 b2 37 6e 56 43 10 85 3f 83 cc 95 72 57 5b cd bf
       0.010284925532484699 -0.22935002417543524
000110 ba 11 ef 1d 87 f6 d1 bf c2 4f 05 a7 e2 44 f2 bf
       -0.2806718628237622 -1.141817715096281
000120 9b 0f d3 81 3b 93 a7 bf 44 11 82 b9 7f 13 c1 bf
       -0.04604516944667055 -0.1334075599480774
000130 71 7e 58 55 4a 20 f1 3f 3c 8b fa f1 35 c8 de bf
       1.0703833898368453 -0.4809698927949062
000140 ea 46 bc 50 a2 3f bf bf a5 9d ff 17 09 90 d4 bf
       -0.12206472846107955 -0.321291230617556
000150 4a 09 6f 18 fc 2d d4 3f 9d 8e 39 8d da 34 f5 bf
       0.31530668626887304 -1.3254037396044744
000160 09 a4 c1 39 83 9a c0 bf cb a8 e0 7f c6 f5 d7 bf
       -0.12971535034310502 -0.37437593925518503
000170 5e 2e aa 8c d0 ad ab 3f 8b 08 60 8a f6 bd e3 3f
       0.05406047551249736 0.6169388487471833
000180 2f 91 f4 56 6b 1a cd 3f 1e 8c 30 cf b9 8c c8 3f
       0.22736875291696765 0.19179461113626045
000190 7b fd af a8 d5 23 8e 3f ea 65 e4 70 79 83 8e 3f
       0.014716786585266864 0.014899204976745534
0001a0 fa 42 b1 3b 32 53 9c 3f 29 0b 30 7b 7a 6b a6 bf
       0.02766111840566319 -0.04378874543910733
0001b0 0a 51 cc ff 03 f9 c9 bf 94 3f 50 8f 1c 02 d0 3f
       -0.20291185369627157 0.2501288795037848
0001c0 41 8f c2 f0 12 f1 da 3f 91 7a f5 79 45 90 cf 3f
       0.4209639884158954 0.24659031348251806
0001d0 02 0c 69 f8 e7 69 e5 3f 76 24 38 52 03 57 bc 3f
       0.6691779948963588 0.11070271260554584
0001e0 fe b6 c7 6e 96 ad d9 3f ee a6 fb ee 49 45 bd 3f
       0.4012199479901567 0.11433851322695052
0001f0 86 1f fb 46 12 c4 d1 3f a8 5c 9b 87 0f de e1 bf
       0.2775922482655847 -0.5583570145198751
000200 9e e3 cd e2 ec c0 de 3f af d0 9c 30 f6 60 be 3f
       0.4805252280125901 0.11866701781110821
000210 07 58 10 77 f1 9c c1 3f 61 00 67 1e b0 81 d9 bf
       0.13760202706970423 -0.3985405251405663
000220 bc c9 8c 80 26 da e5 3f 47 b6 0d ba 32 00 ea bf
       0.6828796873799585 -0.812524188409676
000230 be e1 b6 6a af 52 c7 bf 99 1d 13 16 05 cf df 3f
       -0.1822108527246779 0.49701048999528435
000240 d3 7d 77 b1 5b d6 b8 bf 98 38 20 2a 0e f3 e4 bf
       -0.09702084620175037 -0.6546698401232502
000250 da 5d 57 7c 74 4c 92 bf 1f 40 54 d6 8e 20 d4 bf
       -0.017869777764500806 -0.3144871800477648
000260 14 16 13 7d 5e 86 b3 bf 16 65 05 f4 3a 34 e4 bf
       -0.07626905969217318 -0.631375767329845
000270 d0 d3 cc 48 61 c5 ca bf 27 c2 a0 a3 cd 70 ef 3f
       -0.20914856009190297 0.9825199313982623
000280 2c 50 fb e0 28 35 ec bf 58 b6 87 b8 0a 02 d2 3f
       -0.8814892191098855 0.28137462635536314
000290 9a b1 ae 6e 85 66 d3 3f 47 fe d8 a3 d2 b4 a9 3f
       0.3031323986895359 0.05020769357770099
0002a0 1f d5 94 47 56 81 d9 bf d5 ec a5 db e2 ea d1 3f
       -0.39851910581940503 0.2799613137246529
0002b0 97 65 40 de c4 d5 e2 bf c7 1d 95 55 7a d8 e7 3f
       -0.5885948506212796 0.7451755210431025
0002c0 1e a7 5d 0d 20 9b b2 bf 4f af 69 97 68 6b dd bf
       -0.0726795227652954 -0.4596806982651644
0002d0 7d 14 85 3d e1 93 e9 bf 7d fc 15 b2 27 01 de bf
       -0.7993017388877345 -0.46882049933623887
0002e0 bc 87 3c a1 9d e6 ea 3f 05 19 54 c2 e0 ed ed 3f
       0.8406513356351222 0.935287837550988
0002f0 eb f5 bb 20 62 64 e4 3f 32 17 51 bf da 60 eb 3f
       0.6372538222637422 0.8555730568557236
000300 6b 25 5a b6 72 ff c9 3f 99 9e be 3d 8a 09 dd bf
       0.203108157195213 -0.45370727567431285
000310 86 2b 14 65 de bc d1 3f 03 bc 7e 97 2b f3 f1 bf
       0.27715263243651866 -1.121867744233669
000320 da d3 94 b8 29 5f db bf 16 28 a4 f3 b0 d9 c3 bf
       -0.42768328691027835 -0.15508090874237784
000330 5f cf 5a 64 ab b2 d4 3f c6 1d ce b9 39 8e e2 3f
       0.32340512085214884 0.5798615101820637
000340 36 ff 58 0e b4 ff e7 3f ca bd 9a e9 3a 52 c0 3f
       0.7499637871005465 0.1275094643255968
000350 1d 80 f0 9b d6 dc c3 bf 8d 2f 7c e6 78 da a6 bf
       -0.15517695059043116 -0.04463556111849618
000360 5f 91 74 bd 06 49 dc bf b2 5c 7b a6 36 c1 dd 3f
       -0.4419571733617626 0.46491781480785754
000370 0e 10 c4 d1 75 6a c6 3f a2 61 12 bb 55 a2 e1 3f
       0.1751239084479725 0.5510662702318323
000380 60 d2 c9 6e 91 af ae 3f 4e d3 d0 e8 5e bb e4 bf
       0.059933228277178285 -0.6478724047834505
000390 ae ff f4 05 49 cc da bf 05 03 82 1a e3 35 da bf
       -0.41871858197918754 -0.40953900898607315
0003a0 09 44 79 85 a7 f5 eb bf aa 5b f4 54 28 8e c1 3f
       -0.8737371069820493 0.1371508040253649
0003b0 7b 9b 6b d6 6e 04 e6 3f eb c9 ef ba e6 88 f1 3f
       0.6880411327264108 1.0959231664861544
0003c0 e0 e2 b1 ee 55 b0 db 3f 2a e6 2f 51 63 75 d9 3f
       0.43263767538114273 0.39778979233196543
0003d0 5e 37 62 a1 85 d1 d9 3f b5 1b ac 75 0b 78 df bf
       0.40341320762751376 -0.49170195094523744
0003e0 9e 3f 9e a1 45 be e5 3f 55 3d 6a d6 5f a8 b9 bf
       0.6794765621761945 -0.10022543892613574
0003f0 8e 41 6c 44 c9 13 cb 3f 53 af a2 91 ec 92 cc bf
       0.2115413269134589 -0.22323376761539268
000400 57 cb b7 f4 81 92 d5 3f a0 8a 72 6c 06 09 be 3f
       0.33706711672055206 0.11732521197931556
000410 c2 95 48 16 40 62 c5 3f 41 12 66 e4 e9 05 a9 bf
       0.1670608624273609 -0.048873242502882615
000420 e5 aa 89 8c 18 d6 a2 3f 0b 6e 43 08 4f c5 ce 3f
       0.03678967204617382 0.240396384272444
000430 91 ac 8a 69 1e 06 d0 bf 53 8b 8e 45 09 f0 e4 bf
       -0.2503734617882368 -0.6543012960940849
000440 6d 47 18 ed 7f be b7 3f 61 fc 7b f4 d1 28 cc bf
       0.09275054491470565 -0.21999573171339917
000450 0d 7e 85 67 4b 32 d3 bf c0 41 a3 ef f9 f6 c3 bf
       -0.2999447356178003 -0.15597461892185827
000460 86 6e 98 29 31 bc e6 3f 95 30 34 56 81 31 d4 3f
       0.7104726612482899 0.3155215589365608
000470 77 f6 ac 32 cf 35 d4 3f 26 37 2a d7 30 b4 f0 bf
       0.3157842631224876 -1.043991890418917
000480 69 2c a1 e3 22 48 b9 3f 02 81 4b e1 fe 41 ae bf
       0.0987569623695649 -0.05909725666220035
000490 22 85 21 58 7a 29 e0 bf 7f a5 55 27 15 76 e0 bf
       -0.5050632211024644 -0.5144143837216432
0004a0 ce ee 7a 67 ca 31 ef 3f 89 01 c5 56 04 da c8 bf
       0.9748279591653615 -0.19415334927363073
0004b0 f5 17 c5 f4 fd cf d8 3f 2c 12 70 27 d8 6a 95 bf
       0.3876948252039932 -0.020915391356554888
0004c0 39 60 a4 02 4b d5 b1 bf 26 ce f3 00 3e 5f cb bf
       -0.06966084303383092 -0.21384406134130635
0004d0 c9 d8 92 27 ef 59 c5 bf e8 83 2b 8c c5 c4 e0 bf
       -0.16680707390123065 -0.5240199792571021
0004e0 83 31 8c 51 b4 03 b3 3f ea 4a c4 4d 5b 96 c2 3f
       0.07427527419003437 0.14521352097707246
0004f0 7b 3c c8 b7 30 8e e0 3f 28 bb b5 33 b0 a1 dd bf
       0.5173572148795665 -0.462993669984757
000500 7d fe 85 ad c6 13 e2 3f 17 87 9a 3e 03 96 f1 3f
       0.5649140729073704 1.0991241879896216
000510 79 2f 6e f8 de 83 c0 3f 57 39 9d d1 b6 45 b7 bf
       0.12902438288108067 -0.09090750329526052
000520 2b 3a 39 5e 73 f2 df bf a7 c6 9e c9 c6 3b ec 3f
       -0.4991730137016101 0.8822969377417466
000530 80 96 11 bb 6a 78 ef bf 63 45 e4 1f c0 d1 d2 bf
       -0.9834493306813812 -0.2940521537248825
000540 77 22 ca 42 2a 7e ca bf 08 63 14 52 74 ec e4 3f
       -0.20697525273523684 0.6538640597455876
000550 ec b3 3c ec c3 2e e9 3f 43 35 80 53 f8 c9 c5 3f
       0.786958657646776 0.17022613599002953
000560 9c 9d 1c 30 c5 8e d1 3f cf 41 a5 ac 52 30 98 bf
       0.27433900545516976 -0.02362183741326068
000570 a2 a2 79 b5 c3 19 c3 3f 59 6b df c2 9a 31 e0 bf
       0.1492237697705337 -0.5060552412136118
000580 45 30 bf 67 a7 b0 bd 3f 9c f2 1c 99 f8 79 c0 bf
       0.11597677500611876 -0.1287222621557661
000590 4f 6f be 23 04 ec 94 bf cb 4b 99 a5 fb 20 d9 bf
       -0.020431580239900268 -0.39263812228926714
0005a0 cd 16 7f b2 3d d6 d5 3f b7 7f 9d b0 7e 1a 70 bf
       0.3412012332085908 -0.003931517488894024
0005b0 07 e4 5f 99 db 5a e0 3f 62 76 bf 26 ee d7 e3 3f
       0.5110910411450512 0.6201086766047406
0005c0 ea f5 61 a8 99 87 e6 bf 2f 64 b4 81 e2 8a d3 3f
       -0.7040527619098473 0.30535185495824896
0005d0 d1 c7 17 74 b4 e9 d9 bf be 8c 0e 8f e0 d2 be bf
       -0.40488921487042 -0.12040523045156967
0005e0 e7 dd 84 68 81 ba ab bf 35 38 4b 17 b8 8e ec 3f
       -0.05415729905001481 0.8924217658002421
0005f0 1c 26 6f 20 0d 44 dd 3f 69 9c 9b 8d f2 32 c8 bf
       0.4572785202732079 -0.18905479349561752
000600 3f 16 e6 b2 36 cc dd 3f cd 5a 9d 20 20 fa d1 bf
       0.465589213090741 -0.28089144883180667
000610 99 be e7 d8 bd 67 dc bf 45 92 8e bb ea 28 de 3f
       -0.443831884213958 0.4712473708735028
000620 30 fb 12 d5 8d 20 c5 3f 93 00 c7 e1 22 ff f2 3f
       0.16505597023020746 1.1872891253879387
000630 d9 02 6b 56 2f 75 b3 bf c0 56 eb ec e6 74 db bf
       -0.07600684985937835 -0.4290101350464788
000640 d2 dd ee fa b0 0d a4 3f a0 9c 36 a2 8f 0e d4 bf
       0.03916695655010084 -0.31338873711724524
000650 29 fd 62 b5 7d 58 e5 3f 89 34 68 08 f2 3d e3 3f
       0.6670521300037865 0.6013116993141391
000660 8e 91 50 bc 28 98 ca 3f 75 fd c8 1e 05 3f c7 3f
       0.20776852793745743 0.18161071780376017
000670 88 8c c9 c8 84 56 d0 3f ca b2 ac 17 c8 5a e1 3f
       0.25528068168768714 0.5423317396540253
000680 d2 84 bb 35 77 70 e7 3f a4 81 75 27 60 35 be 3f
       0.7324787187063981 0.1180019470534775
000690 5f bd 03 37 a9 d4 d5 3f 9a 55 39 4c 69 4e c6 bf
       0.34110479710121483 -0.1742679235637013
0006a0 19 b8 dc 32 0a be d3 3f 33 cf 23 7a 7e d1 bb bf
       0.30847411124239127 -0.10866537553721116
0006b0 26 bb f5 d1 0e 49 dd 3f a6 dd 21 99 19 50 e2 3f
       0.45758409980673986 0.5722778311600691
0006c0 2a 7b 38 f8 da dd d8 bf a8 33 f3 41 c7 e8 db bf
       -0.3885409759549697 -0.4360826629679715
0006d0 c2 bc cc 7d c0 57 dd 3f 7b 1d 3a e3 32 a4 b2 3f
       0.4584809521210894 0.07281797454390031
0006e0 db e3 6e 27 2e fc ea bf 61 b1 0a 7b 10 f6 cf bf
       -0.8432837267092695 -0.2496967888631714
0006f0 7b 5e 0c 80 e3 a3 c1 3f ea 88 5e 05 aa d1 cb bf
       0.137813985370247 -0.2173359419076129
000700 f8 d3 21 ef 20 09 bf bf e5 ef 2c 6d a7 01 f1 bf
       -0.12123304212748554 -1.062903810946403
000710 0a 52 0e f4 5f 51 e0 bf 1d 92 f7 d6 96 88 a9 bf
       -0.5099334494321408 -0.04987021803006917
000720 9f 14 1a 33 c7 1e dd bf fa e7 f3 5a 38 e4 fa 3f
       -0.455003547577073 1.6807178070871474
000730 fa b4 57 8e f1 e3 d3 3f 88 2c 30 bc 33 b9 de bf
       0.31078757191319506 -0.480053838517684
000740 ce f2 cc 02 1b 67 db bf fb d6 e2 9f 81 ec e5 3f
       -0.42816806100362903 0.6851204035544635
000750 5e 3c d5 04 2e d9 df 3f c7 50 ef 98 d2 58 ef bf
       0.4976306006619263 -0.979592608166535
000760 5c bf af 18 cc ec d2 3f 2a 51 9e 1f c0 54 d9 bf
       0.2957029572562442 -0.3957977589391414
000770 1d 1b 68 82 1b f9 c5 3f 90 81 1a c0 60 89 ba bf
       0.17166465632927777 -0.10365872087505168
000780 f0 ef af 40 37 23 d1 3f 6d 13 95 cd 81 cc ba bf
       0.26777440373530137 -0.1046830298337917
000790 c6 95 4a 13 62 f0 b7 bf a4 86 f7 de e0 66 cc 3f
       -0.09351170512180493 0.22188959967666222
0007a0 d4 87 0f c9 22 8c c1 bf e2 92 a8 f7 0a 1a d5 bf
       -0.13708910767951343 -0.3297145288982347
0007b0 15 06 d1 4e a7 d6 d1 bf 3e e4 8d cd 61 a9 d2 bf
       -0.2787264127437948 -0.2915882594457492
0007c0 c1 30 3d b1 a2 3c e0 3f 2e c0 11 3e 58 a8 e3 bf
       0.5074017965030394 -0.6142998897830745
0007d0 80 7f 68 6e f1 6d e3 3f e7 ae b4 42 93 7d df 3f
       0.6071707874689167 0.49203950418698955
0007e0 73 d0 2c 1b b7 b7 da 3f 9e 76 5d 95 91 19 f1 bf
       0.4174630895024684 -1.068742354829204
0007f0 c4 20 cf dd 17 35 c5 bf f8 c9 d4 0c aa 26 d1 bf
       -0.16568277674219278 -0.2679848790459398
