results/GRU_Long/models/checkpoints/2/GRU_Long-2-450.pt (torch_old, 83631 bytes, 10 tensors)

gru.weight_ih_l0 f8 [96, 6]
000000 55 da 07 b0 b9 eb c5 bf 1d 41 20 a8 48 a6 d2 bf
       -0.17125626654861273 -0.2913991586547285
000010 53 cb 2c 18 9c 08 f6 3f 3b d4 65 c2 a9 47 7f 3f
       1.3771019882521685 0.007636702654385148
000020 2a 94 25 59 96 e7 b1 bf e5 a0 07 51 a4 e9 c4 3f
       -0.06993999172625878 0.16338018375905175
000030 95 4d 12 e2 f9 09 bb 3f 90 57 9a 20 7b fe e1 bf
       0.10562097329448357 -0.5623145710730899
000040 95 bf 91 d1 e9 c3 dd 3f c6 6d 5e f4 be cc ac 3f
       0.46508260217432823 0.056249587373908436
000050 0e 54 10 82 f7 57 ba 3f fd 94 6a fb 61 6d d0 3f
       0.10290476727853123 0.2566761927831321
000060 d5 e5 00 dc 45 6c cb bf 3e c2 8c de ee c0 ce bf
       -0.21424172632559527 -0.24026285044375756
000070 96 cd 7d 58 b4 54 f3 3f 14 3d cf 25 47 97 c8 bf
       1.208179803533175 -0.19211663576286553
000080 b1 ac cf aa 95 c9 d3 3f d4 1b 0d e5 0b d8 b0 3f
       0.3091787498548895 0.06579660741873222
000090 a1 cf 3c eb 20 fb c1 3f 13 ab a4 64 39 00 ef bf
       0.1404763363476578 -0.9687773671806518
0000a0 9e eb 97 67 a9 5a ed 3f 28 8e 89 74 12 4c 95 3f
       0.9173171065625529 0.02079800449645411
0000b0 3a bf 12 5a 23 81 a2 bf e4 ea 60 6c 94 ae d5 bf
       -0.03614149546171892 -0.33878050407262905
0000c0 5d f4 7b f6 42 1e 6e bf 6b ff 2f ce 58 3f d4 3f
       -0.003676539217734516 0.316366387705776
0000d0 3f cf d7 46 86 67 ea 3f 26 a0 c2 d7 16 c9 ad bf
       0.8251372703220808 -0.05817481406967344
0000e0 2c 16 f3 76 3c 4e d0 bf 50 45 bb ff ed cd cf bf
       -0.25477515808265383 -0.2484719752015203
0000f0 1b 8d fd 51 38 ac cd 3f 19 e0 4d f9 b3 e0 e2 bf
       0.23181823733748605 -0.5899295682165785
000100 96 e6 b7 b3 5b b6 dc bf 93 86 5b d5 6b 6f 67 bf
       -0.44863026190396604 -0.0028607469674718027
000110 8a af 82 84 82 10 84 3f d7 a8 b4 d1 47 0b c1 3f
       0.009797115010165464 0.13315675487075992
000120 ec ae 15 3d 14 dc a4 bf a2 1e 9c ba 73 38 d3 bf
       -0.0407415699545178 -0.30032056068055557
000130 36 53 88 d6 21 44 b2 3f cd 44 da a6 f3 62 c3 3f
       0.07135211455927223 0.15145726821041308
000140 c9 5e 86 47 82 c8 f4 bf 52 d8 98 b4 d2 5b e6 bf
       -1.2989523691120886 -0.6987088706289433
000150 a3 28 50 8e ed f4 aa 3f 6d 99 e0 1f 5b 72 c7 bf
       0.05264990198345856 -0.1831773667956428
000160 6d 83 da a0 a7 75 b9 3f 1e 4b 21 17 1a aa 9c 3f
       0.09945151974762974 0.02799263731169354
000170 fc 48 66 05 b7 7c e8 bf a9 b0 ff 78 0f 85 d0 bf
       -0.7652239900073989 -0.25812136474884056
000180 da d4 92 11 2d 2e a8 3f 03 db b6 bb 64 d8 da bf
       0.04722729529877663 -0.4194576104304561
000190 eb 09 52 0c e8 7c e2 bf da 78 a1 34 0e 71 d2 3f
       -0.5777473679193553 0.2881503595325633
0001a0 bb 03 33 48 50 96 e2 bf 83 12 8b 58 c2 f1 e2 bf
       -0.5808488283292869 -0.5920116166458488
0001b0 a8 23 9f d5 31 c4 a3 bf 14 fa 77 bc ab d7 d9 bf
       -0.03860622151075371 -0.4037885036958937
0001c0 aa fe 92 a5 57 40 cf bf 2e 47 f5 19 37 ba c1 3f
       -0.24415107330968527 0.13849533812986564
0001d0 66 d0 49 f6 ad ba f3 bf 30 b5 4f 58 59 fc e7 bf
       -1.2330760594022876 -0.7495543217498035
0001e0 72 f8 c0 26 63 58 c1 3f e0 2a 8d ae ab b1 ca bf
       0.13550986664080572 -0.20854707739848433
0001f0 85 bb d3 0b 0b 3e e1 bf 8d 3a c4 b9 f9 8b bb 3f
       -0.5388236266133936 0.10760460648837462
000200 ac bf 0b a6 65 de f3 bf 3c e8 ac 89 73 c2 e4 bf
       -1.241796158425113 -0.648736733338644
000210 72 0f 7c 4d c3 4a d2 bf 87 56 3d 9b 33 87 e9 bf
       -0.2858131653485919 -0.7977541000388592
000220 3f 45 3d 83 4a 5e f0 3f 33 46 c0 c3 6f 5d 9a 3f
       1.0230202795540462 0.025747057268807615
000230 f2 76 01 d2 9c 55 e7 bf 6f 0f 7f 9c 97 eb ba 3f
       -0.7292007543253176 0.10515735216818965
000240 7b 7c 6c 0e ce 60 c4 3f b9 a5 43 da ec 58 de bf
       0.15920425133024083 -0.4741775638090889
000250 7c 6c 4a 79 90 42 ee bf 80 b8 05 71 32 e3 c2 3f
       -0.9456255310973485 0.1475585033289839
000260 8b 1c bf 52 b4 0e b1 3f 79 3a 65 52 8d 66 d7 bf
       0.06663062114886224 -0.36563427969387124
000270 44 90 44 f9 a4 15 b0 bf c5 2c 22 ac 9c bd c3 3f
       -0.06283026776924411 0.15422399907070009
000280 60 28 d9 f8 74 e9 f8 3f 4f 94 79 df 4b c7 c1 bf
       1.5569963188777578 -0.1388945428072099
000290 33 ef c9 f3 23 0b dd 3f f3 b7 af 17 76 d8 e0 3f
       0.45380495841503715 0.5264234984040271
0002a0 1b e1 83 f1 ca d1 c5 bf 52 8d 62 cd 91 73 e0 3f
       -0.17046486656887158 0.5141076098847555
0002b0 60 6f 41 8f 78 19 e9 3f ab 65 33 96 a0 4d c1 bf
       0.7843592451058434 -0.13518149694463708
0002c0 48 e1 c3 54 c3 ec a4 3f a8 37 75 1c 8f 4a c7 3f
       0.04086885843020355 0.18196286096138903
0002d0 61 06 5a 72 a9 be ca 3f a7 91 10 5f eb 7a ec bf
       0.2089435394628252 -0.8900048119290219
0002e0 9d e1 48 b4 dd 23 cf 3f 8f 91 fc 4e 51 6f ca 3f
       0.24328204443896775 0.2065221439053286
0002f0 13 7d 9a 9a fe 54 d9 bf 0d c6 04 fc 2c 66 e4 bf
       -0.39581265542979444 -0.6374726221312713
000300 a7 09 91 78 bb 02 c4 bf ee fc d5 dc 05 36 b6 bf
       -0.15633338343657252 -0.08676182404996144
000310 65 e9 bf 2d 88 49 f2 3f 3a 96 3c 25 aa 9f b2 3f
       1.1429521357627774 0.07274878892038653
000320 9a 5a af b9 c1 c5 a2 3f ed e9 87 62 f7 5a d5 3f
       0.03666501418745334 0.3336771452156018
000330 0d a3 45 2b 16 3b cb 3f 8c 0c 9d 9e d2 a5 e5 3f
       0.21274067986384929 0.6764920328063382
000340 b1 db f3 e1 74 f9 e3 3f a2 09 86 f5 c8 3f c8 3f
       0.6242012417923118 0.18944656361061357
000350 7a 49 9a f2 1b 43 c7 3f 89 0d c3 9d 49 3b f1 3f
       0.18173550935587085 1.0769745028090674
000360 e5 b8 c8 6d 76 e7 7d 3f c3 b4 ec 2d db a2 d6 bf
       0.007300818073913561 -0.3536899517519709
000370 34 9b ad 65 dc ec ba 3f a4 d1 c0 24 fa 99 b7 3f
       0.10517671091438957 0.0921932544450273
000380 7e b1 1d 16 50 eb ec bf 91 45 66 4a 80 5f eb bf
       -0.9037247116043969 -0.8554078534236159
000390 ff 34 29 ca 57 e1 c0 bf 89 96 d9 e0 f0 fe d8 3f
       -0.13187692042485108 0.3905603595543217
0003a0 66 ec 8c 10 c3 ab f6 3f 53 33 e0 d2 22 b2 c0 bf
       1.4169340750220498 -0.13043628021878337
0003b0 fd 83 0a 44 d8 8d e0 3f 2e dc 3f cb a0 2a dd 3f
       0.5173150376250529 0.4557268128259605
0003c0 b4 ef 16 21 fc d0 bc 3f fd 37 5f 68 c6 68 de bf
       0.11256385619975512 -0.4751449603326135
0003d0 5b 93 b2 81 b6 ed aa 3f c9 27 6e fc 50 7d b5 3f
       0.05259485562536411 0.0839434257779025
0003e0 3c 50 c9 56 fa 42 d2 bf c3 d3 ac 29 f5 7f e9 bf
       -0.28533800578339075 -0.7968698324171942
0003f0 07 6c b6 d9 c8 f9 ba bf 40 76 be d9 6c 49 e0 bf
       -0.10537391009567908 -0.5089630368053761
000400 73 ae 6c 64 32 54 e9 bf 6c 3b 91 0d 0f ab c9 bf
       -0.7915279351631866 -0.20053280031649068
000410 f2 e0 1d 43 e0 e6 e2 bf 5c 8b 4d cb f7 c9 d8 bf
       -0.5906831084130586 -0.3873271451358755
000420 b7 1f 3a 0f b8 56 b1 3f 66 e2 c8 29 55 3a ec bf
       0.0677294766593367 -0.8821206871135245
000430 77 c6 0e 98 1b 50 d8 3f 04 4d 7c f6 1b f7 ce 3f
       0.37988939141641914 0.24191617522647146
000440 63 bf 3f 35 46 09 f1 bf 56 49 c9 e9 2d 22 e7 bf
       -1.064764221195184 -0.7229222837579907
000450 c2 77 cb 0f 0e d2 d2 3f bb d5 eb e3 79 87 d6 bf
       0.2940707353826576 -0.35201880701000804
000460 ee a5 da 55 1c 35 e6 bf 5c d3 4e b6 6e b2 c1 3f
       -0.6939832379186421 0.13825782682183785
000470 3f a3 04 bd d9 45 cb bf 45 2f d2 de c3 8b d3 bf
       -0.2130691693248767 -0.30540558585993366
000480 a7 39 f0 25 c0 1a d4 bf 4a 1b df 11 71 00 e7 bf
       -0.31413272576255696 -0.7188039158871586
000490 75 3c 7f 78 06 f5 e2 3f ab 0a b8 99 9e ab dc bf
       0.592410312028632 -0.44797482501614166
0004a0 e2 38 a7 b2 26 55 c4 3f 19 c9 8e 6a 2a 9c ca 3f
       0.15884860728551248 0.20789079859748297
0004b0 ed cf c4 17 47 93 c5 3f 10 bf 22 48 75 a5 e6 bf
       0.16855705891214204 -0.7076975258732734
0004c0 59 e5 12 d9 9c 29 e5 3f 16 f3 06 56 d5 7d cb 3f
       0.6613296737406628 0.2147776289038112
0004d0 f1 b8 a6 10 2f 5c d4 bf 09 59 21 6c 7e 6f d0 3f
       -0.3181264555559116 0.2568050437888734
0004e0 77 5a eb f4 cc 91 cd bf b1 76 35 16 29 70 ba bf
       -0.23101198157265276 -0.10327393333633485
0004f0 14 f6 7c 0d 1a 2c bf bf 50 ed 97 10 aa 8d b1 3f
       -0.12176668957996412 0.06856787591089142
000500 6e c3 41 3d 43 e2 c5 bf c2 4b 71 a2 21 11 ba bf
       -0.17096748820361135 -0.1018239041889464
000510 55 be f6 14 c9 a5 c8 bf 08 e3 14 2a ea 55 cc 3f
       -0.19255937121987424 0.2213719087101469
000520 3d 49 4a 7a c3 51 ee 3f 71 9f 61 80 cb 72 c8 bf
       0.9474809063415602 -0.19100326317424846
000530 3b 91 59 70 e7 d2 df 3f 23 52 c7 5b cf fc cc 3f
       0.4972475621382448 0.22646514874817666
000540 0f 68 af 32 31 ad c5 bf 93 3a 51 c0 47 6b b6 bf
       -0.16934790587293988 -0.0875744671368273
000550 3a 34 b4 63 ff 5f f0 3f 7c 7e 54 0d 6e c9 c9 bf
       1.0234369177517366 -0.20145965243226616
000560 50 23 4b 40 98 df d5 3f 22 eb 26 d6 37 59 d5 3f
       0.34177213934576844 0.3335704413727162
000570 cd 4f da ab 54 8b c4 3f b7 a2 61 c4 5c 11 ce bf
       0.1605020369648841 -0.23490485752997411
000580 36 9f ad 87 12 f3 de bf 30 b6 3a 7b 75 55 b5 3f
       -0.48358596086335426 0.08333524950531834
000590 22 97 68 f1 24 d2 f5 bf 10 ea 47 56 cb aa e7 bf
       -1.3638047628423426 -0.7395989117788435
0005a0 78 f1 42 bb 72 1a cd 3f 18 16 55 68 c2 ae d8 bf
       0.22736963409068855 -0.38566646755893563
0005b0 f3 42 e4 f5 76 2e d9 bf 6e 08 ca 60 87 c8 b3 bf
       -0.39346097958427534 -0.07727857697503435
0005c0 8a 99 87 9d 25 42 e7 bf 21 fc fd ec 6a 34 cb bf
       -0.7268245770217601 -0.212537160605252
0005d0 22 0f e4 f1 7b 71 ad 3f b4 b3 b5 90 31 9e ba bf
       0.057506440427486774 -0.10397634299233866
0005e0 b6 de e2 9f 2c e0 70 bf 87 aa 2b 19 9d ca 9b bf
       -0.004120039286298718 -0.027140097295083734
0005f0 9a 07 24 80 bf 0c eb bf d6 73 62 3a 2f 9e c8 bf
       -0.8453061583279464 -0.19232740736779758
000600 f6 06 09 6e 66 e4 db 3f f0 85 67 a6 f5 2a ea bf
       0.4358154367983923 -0.8177440881810849
000610 48 57 63 25 65 a2 e2 bf cd dc 72 e8 22 2e d1 3f
       -0.5823236208186495 0.2684409399038941
000620 9a b5 c6 2a f1 d1 aa 3f 15 ea 95 9f d9 45 e3 3f
       0.052382980796532766 0.6022766224771795
000630 ff 42 52 fa ca 33 ee 3f d1 2b 12 7c e9 d8 f0 bf
       0.943822373303277 -1.0529570433161448
000640 39 54 a1 d4 a8 1d ea bf 48 e7 2f 6e 95 ff cc 3f
       -0.8161205437596727 0.22654979591589552
000650 ca 03 8d ef ff 12 d1 bf dc 2c 81 f3 6c f6 90 bf
       -0.2667846526492751 -0.016565039026585335
000660 51 27 e9 81 68 39 d5 3f 7a bd 3e ad 23 34 f3 bf
       0.33162892042729647 -1.200229336489285
000670 ba 0b 8f 3e a2 63 e5 bf ba 87 ed 55 d7 52 c2 3f
       -0.6684123250819234 0.14315311141677772
000680 99 9c cd 37 79 6c d0 bf 5d b7 33 ff b9 0d a4 3f
       -0.25662069749382393 0.03916722526797287
000690 91 90 0e 5c 94 eb df 3f c9 0c 89 fa dc b9 f5 bf
       0.49875363340312 -1.3578767572915231
0006a0 ec 7a 04 f7 d6 4a e6 bf 5d f8 38 36 38 4f 68 3f
       -0.6966357063828048 0.0029674623381473046
0006b0 61 c9 e8 65 f0 46 d2 bf 39 4c a1 65 69 33 bc bf
       -0.28557977630693726 -0.11015948039248337
0006c0 9f aa 20 a2 71 f1 ed 3f 58 06 25 6b d7 88 ea bf
       0.9357231298975711 -0.8292042820614354
0006d0 01 71 df cd d3 f0 ec bf 9e 3f c8 55 d6 2b da 3f
       -0.9043978711083868 0.4089256131855964
0006e0 11 18 4d 5b 1b 2e cd bf 2f 47 9c dc 72 3e b9 bf
       -0.2279695697599782 -0.09860914121625507
0006f0 54 00 60 8f e1 45 e9 3f 00 13 cf 9f 68 36 f1 bf
       0.7897804069798533 -1.0757833712133902
000700 c8 ae 89 43 8d 24 d7 bf 86 fd ea f4 94 29 bd 3f
       -0.3616059455441527 0.11391573886338877
000710 be dd a3 cf e2 04 5f bf 77 ec 3e ec f0 d1 dc bf
       -0.001893254752358561 -0.45031378813627704
000720 2d 22 7c ac fa 67 c0 bf e3 33 d5 cb d8 8d b5 bf
       -0.12817319318880163 -0.08419566131961136
000730 4d ef 7b 61 18 0c e0 bf 3b f3 4d 50 50 a0 d6 bf
       -0.5014764694201205 -0.353534773275715
000740 b6 8a 8e a3 d8 82 e7 bf b5 2e b7 ef 44 3a e1 3f
       -0.7347224420994596 0.5383629495567762
000750 fa 77 e4 36 ee 0f e2 3f 18 d8 a3 9f b4 32 ee bf
       0.5644446441763187 -0.9436896436661781
000760 64 55 9e 73 96 e9 f0 bf c7 3a ae 66 0e be c5 3f
       -1.0570282474849018 0.1698625565881768
000770 d6 39 48 ec 5e a1 c3 3f 6b fc fb bc bc 2e e7 bf
       0.15336214577878476 -0.7244552317714698
000780 f8 a8 ec 31 4b 5e e2 3f 12 ad e1 0f 9c bb e9 bf
       0.5740104651534059 -0.8041515646158663
000790 e6 c0 8b 64 65 a7 d0 bf 8b c7 1f 59 27 28 ce bf
       -0.260217045010917 -0.23560039378895356
0007a0 ef 28 f0 d0 e3 8c e3 3f a1 b9 bd 22 47 ab e1 3f
       0.6109484749624964 0.5521579435860994
0007b0 e7 7e 31 12 c8 24 d7 3f 5c a0 73 4e e8 32 e2 bf
       0.361619966284691 -0.5687142879733176
0007c0 5e b2 97 4d ea 7c 77 3f 42 af 3e b8 2a e0 d1 bf
       0.005734362837284649 -0.27930706017172124
0007d0 3f 67 e7 6e 13 7e e4 3f 32 18 b8 9d 95 84 f1 3f
       0.6403901258556529 1.0948692475226491
0007e0 78 88 c5 fa b6 56 d0 bf 5b 2e 6f eb 00 88 d4 bf
       -0.2552926491681613 -0.32080100051527943
0007f0 b3 0e 75 1c a8 f3 a3 bf 84 ba 58 c9 0c 55 c8 bf
       -0.038968327974115445 -0.1900955184114147

gru.weight_hh_l0 f8 [96, 32]
000000 d4 5b cb 31 3b 2d ac bf 9d 42 fc 6c 30 20 d3 bf
       -0.055032586887754725 -0.2988396705923522
000010 bb f0 f3 50 24 97 cb bf 4a e6 cb 27 f8 86 b2 3f
       -0.21554998352792673 0.07237196895211997
000020 a4 12 e1 01 27 3f ab bf c6 1e 95 23 77 8f ad 3f
       -0.05321618936480846 0.05773517903668117
000030 ed 7b fe b4 ac fe aa 3f 23 e6 11 8a 92 98 b0 bf
       0.052724263280872076 -0.06482807036254505
000040 0d 32 c4 f6 a3 42 d1 3f 34 81 69 90 83 b6 cb 3f
       0.269692412360002 0.21650738288281846
000050 9e 44 c2 c3 a8 06 94 bf 94 ac 34 19 1c eb d0 3f
       -0.019556652973339632 0.2643499609136566
000060 18 b2 9c 73 63 03 80 3f 0b 6b c2 68 94 85 dd bf
       0.007818963018132272 -0.46127805929579385
000070 30 83 3e c2 5a ae d7 3f 24 88 a5 50 24 1b c2 bf
       0.3700167557636176 -0.1414533036978024
000080 2d 42 d1 90 ed 4e 7f bf f5 05 c8 0e e4 ee 98 3f
       -0.007643630972851184 0.024348796274358226
000090 19 a8 01 11 bd b3 b4 3f 2b b9 82 7d 35 bd db 3f
       0.08086759247967769 0.43342339760683285
0000a0 c3 56 b6 d2 8c 60 b5 3f a2 80 f7 61 82 4d b9 3f
       0.08350448746054 0.09883894817130792
0000b0 46 64 df b5 c3 4d b8 3f 87 12 b5 27 24 2f b8 bf
       0.09493659200906376 -0.09446931809822888
0000c0 27 51 6a 35 87 25 dc 3f 6a 17 47 e7 3a c1 bb bf
       0.43979053703630416 -0.10841720720699546
0000d0 ae 57 8f 8a 4d af d9 3f 0a 21 03 de fa 6e c5 bf
       0.4013246396183331 -0.1674493392986352
0000e0 66 74 23 35 db 27 bc bf 45 09 8c 7a 0e cb bd bf
       -0.10998315856291327 -0.11637964717741507
0000f0 78 73 b0 4b 92 84 ca 3f 77 a5 62 4b 82 00 c5 3f
       0.20717076011433355 0.1640780323116748
000100 2a 75 ea 6b 01 7e c4 bf 73 c0 ff c0 63 7d c1 bf
       -0.1600953843052733 -0.13663908885746742
000110 99 24 28 51 99 e5 c6 bf 18 37 34 c7 f3 30 be 3f
       -0.17888180220351016 0.11793445218446796
000120 83 70 f4 d0 be e6 ad 3f 5b 34 ea 5a 9e e7 c3 bf
       0.05840107250898632 -0.1555059379501554
000130 f9 de 8b 68 06 e4 bd bf 58 bd 0d 03 e7 fd b8 bf
       -0.11676063587571751 -0.09762424301674366
000140 2a 5a 4f 7f a1 c6 b0 3f d9 90 2e 34 aa 91 d2 3f
       0.06553086622384599 0.2901406774128766
000150 70 2b d9 2d 64 07 ca bf 2a fe 7f b2 d8 16 cd 3f
       -0.20335056532561735 0.2272597190458197
000160 ba ce 4f 41 4e 35 a9 bf 97 21 89 c8 05 e7 d3 bf
       -0.04923481509459067 -0.31097549995004087
000170 d0 78 d4 fc 8b 65 d9 3f 2d 59 b0 63 23 0b c8 bf
       0.3968229264300023 -0.1878399121057525
000180 51 db 0b 85 df cc c7 3f 22 10 63 8e 74 31 b0 bf
       0.18593973156358826 -0.06325462795490513
000190 da a3 25 5b 5c 96 bd 3f 82 ca 0c c9 49 fb d0 3f
       0.11557557320851633 0.26533741601739547
0001a0 41 8e 9a ec fd 85 81 bf 81 d9 c8 f6 26 bc c8 3f
       -0.008556350501130018 0.19324194955852295
0001b0 14 c4 2c ae 45 b5 c3 bf 72 d7 60 44 0a d6 c8 bf
       -0.15396948818809675 -0.19403198565276686
0001c0 e5 68 6a aa ad 0e cc 3f 24 43 dd 48 e6 f6 b2 3f
       0.21919794865681932 0.07407988814271654
0001d0 eb da 8d 1b 0b f7 d1 3f 0c 32 57 60 df b9 d1 bf
       0.28070333185989566 -0.2769697609735722
0001e0 d5 1e 79 68 0c ea d7 bf d4 ac 62 9e 62 f6 c8 3f
       -0.37366018488363056 0.19501908048309835
0001f0 90 6d 00 66 c6 ec c0 3f ea 64 dc 44 c8 39 c0 3f
       0.13222579937506085 0.1267633758768974
000200 86 95 8a c0 9f 28 b9 3f e2 69 85 c7 05 d3 ca bf
       0.09827612353054435 -0.20956489794009686
000210 a1 34 de c4 cf 68 b7 bf b3 c6 87 14 20 bd c2 3f
       -0.09144304806086946 0.14639664652309178
000220 01 f4 13 eb 0f 35 ca 3f 99 f9 a1 fa c7 6d a5 bf
       0.20474432924666533 -0.041853188843549556
000230 18 06 16 51 a7 88 c3 3f 05 9a 2d 5f d7 04 c0 bf
       0.15260783633498032 -0.1251477446305246
000240 0c 41 40 52 10 5d c1 bf 7f c2 08 84 67 7c c0 bf
       -0.13565258041536088 -0.12879651972754755
000250 85 ed 7e a0 2b 91 cc bf c3 04 f6 c6 5d 13 d2 bf
       -0.223180249564262 -0.2824320261934867
000260 e1 9e 82 9e ac 1b b7 bf 60 79 e4 22 97 ba 8f bf
       -0.09026602620962933 -0.015492611648877996
000270 12 09 7d 62 67 63 d2 bf 37 a0 af 83 de 89 a8 bf
       -0.287317129306886 -0.04792685849662386
000280 dd a9 ff 46 71 02 c2 3f 7e 76 eb 85 cf 19 d5 3f
       0.1406995388673086 0.32970035627463534
000290 a1 0b 2f c1 9a 0a 99 3f bc 48 09 7c 90 b5 ab 3f
       0.02445451549625555 0.05411960138430191
0002a0 dc a6 2d 46 85 84 c9 3f 8c 28 b6 9e 90 75 92 bf
       0.1993567078273405 -0.018026599585518485
0002b0 8c 4e 31 c0 bd cc c0 bf 61 6d 0a ef 59 87 bd bf
       -0.13124820598988085 -0.11534654699282988
0002c0 8e 30 73 56 63 4a c7 3f a7 14 d8 0d 92 73 b4 bf
       0.18195764275731502 -0.0798884662436473
0002d0 83 66 d9 38 4f 38 c0 bf d7 d8 84 e9 ee 72 b0 3f
       -0.1267184283813557 0.06425374222894518
0002e0 00 c6 eb 79 64 81 a4 bf 3d 95 5f 0c 7e d8 c2 bf
       -0.04004968632024131 -0.14723182300728324
0002f0 3d da 40 f8 44 71 81 3f b7 2d db 26 ca 6e c7 3f
       0.008516825510111231 0.18306853196405168
000300 cf 02 80 be 5e 3c a3 bf e9 ac 38 81 0e 4d d8 bf
       -0.03756996226730324 -0.37970316523815356
000310 93 56 9d b0 fc 3e b5 bf 56 0c c1 ff b5 50 ce bf
       -0.08299235641364992 -0.23683810222618956
000320 32 b8 8e 36 ad 10 d5 3f c6 dc 65 55 f9 92 c0 3f
       0.32914285972481416 0.12948528928584419
000330 6d d6 7b 6a 53 b9 82 bf 26 de 4b 31 82 28 92 bf
       -0.00914254349434459 -0.017732652911005918
000340 0c e1 9d 0a 4f 6d b1 3f 52 4c 48 d5 e1 37 a0 3f
       0.06807416924664639 0.03167634705109691
000350 cd 1c ef 34 9a 93 cd bf 06 4f 45 d0 50 c6 d2 bf
       -0.23106696686429587 -0.2933542283910672
000360 56 b7 7f 79 d4 af a9 3f cc 22 f4 5f da c4 d9 bf
       0.050169601279647466 -0.40263995523905005
000370 c5 69 b4 76 47 0d ad 3f 7b 7b 98 1a c1 2e 9a 3f
       0.05674193691284616 0.025568978546398818
000380 e3 72 39 07 85 56 d3 3f 19 c2 a3 eb 4c d8 bc bf
       0.30215573983677596 -0.1126754832546414
000390 e6 cc 32 aa ff 1d bf bf 7b a6 74 45 bd 4d db 3f
       -0.12155149369464233 0.4266198328283292
0003a0 a5 16 28 c0 55 0a c2 3f cd 6b 30 25 24 20 aa 3f
       0.14094039805074945 0.05102646783799223
0003b0 a8 4e 01 b2 94 12 b3 3f a9 de 31 ff d0 be b0 bf
       0.07450227113559527 -0.0654116271051587
0003c0 07 4c e8 d8 b0 b6 d0 3f 27 1b cd 60 51 69 c0 bf
       0.2611505621181895 -0.12821404673214795
0003d0 f8 7d c7 92 4c ae d0 bf ea 2d 60 7f 42 8c c6 bf
       -0.2606383736983555 -0.17615538806454306
0003e0 cf 87 7c 2b 6b 6a dd bf f3 57 64 98 99 78 cd 3f
       -0.4596202778503739 0.2302429193593408
0003f0 07 5b 0e b0 ac 09 cd 3f a3 2d 5c 60 36 63 c4 3f
       0.22685774418342694 0.15927772240716562
000400 76 12 5c 33 83 ba d7 bf 70 90 fb 7a 75 81 d4 bf
       -0.37075881972877 -0.32040154466654425
000410 cb d4 64 0a 33 60 c5 bf f1 2e 55 b8 d4 49 c8 3f
       -0.1669982720137909 0.18975314140913427
000420 b2 19 e5 79 cb 98 be bf c6 9f be 6a 48 b6 ce bf
       -0.11951896406126286 -0.23993783199443736
000430 8f 5c e4 d1 f5 92 c9 bf 63 76 f5 97 3d 69 9f bf
       -0.19979737042078624 -0.030674898528891947
000440 c5 8b 63 d7 01 27 d5 3f c2 69 4f c1 c3 99 c8 3f
       0.3305058101088288 0.19219252528166747
000450 92 55 51 1d 9e 55 b3 bf c9 87 49 29 7c dd d3 3f
       -0.07552517143024876 0.31039337188678623
000460 b3 10 c7 96 6d 27 c2 3f 1d 29 6a aa 27 d5 de bf
       0.14182824957072668 -0.48175994531688265
000470 12 f6 bf dd c1 0c da 3f f7 f0 4e da b2 b3 aa bf
       0.4070286431814064 -0.05215224184891725
000480 2b e5 bc 64 ba 69 bc 3f c7 00 52 22 de 09 be bf
       0.11098828277035426 -0.11733806932352585
000490 2e e3 44 f1 5d 14 c7 bf f7 ac 06 51 3a 5d d6 3f
       -0.18030905037610395 0.3494401732702523
0004a0 af b6 17 68 42 93 a6 3f 49 fc 7a f1 1f fa d0 3f
       0.04409225006734851 0.26526640493461123
0004b0 39 15 98 c7 e7 34 bf 3f fc 7c c8 8e 18 44 c3 bf
       0.1219010221758098 -0.15051562282403796
0004c0 a7 ae 32 5a a5 bf dc 3f 77 a8 a5 a3 c5 1b 90 3f
       0.4491971379127144 0.015730941880442075
0004d0 f3 40 f3 d2 03 fb e3 3f cf 4e df 45 7b 56 cb bf
       0.6243914718743596 -0.21357670699818818
0004e0 9d 2d 67 d3 16 c5 c0 bf d3 e3 8e 1d d7 8e d4 3f
       -0.13101468393720675 0.32121827971019207
0004f0 88 44 5e 89 10 11 cd 3f a9 74 c4 4d 05 2f c2 3f
       0.22708327014382612 0.14205995843159272
000500 28 8b a8 01 8c 8c b1 3f b6 99 17 ff 1a 02 c6 3f
       0.06855082550513869 0.17193925338433552
000510 1e cd 03 25 cf a8 9b bf 86 db f5 6d 61 c7 9f bf
       -0.027011143335539882 -0.031034014069031744
000520 f1 08 31 fe 87 8a c7 bf fd c7 b7 04 85 b6 c3 bf
       -0.18391513740250034 -0.15400755625120147
000530 88 1b d4 bc bd d0 b7 3f e1 11 89 0d e3 ea b0 3f
       0.09302888736793424 0.06608409004645167
000540 e4 5c e8 8b 3f 08 ae bf 30 65 74 de 71 d6 bf 3f
       -0.05865667898995655 0.12436591797849839
000550 fa a8 97 55 61 40 bb 3f 3f c9 c5 1c 06 a9 a7 3f
       0.10645111407908195 0.0462114248392873
000560 01 28 e2 79 61 b3 97 bf a2 a9 c5 8f 48 a5 c4 3f
       -0.02314522081773163 0.16129405040858297
000570 7f 5a 87 55 e9 0f c4 bf e6 67 3b 09 9e b0 b7 bf
       -0.15673557926375634 -0.09253871655837961
000580 3c 1b 66 9b d4 1e c4 3f ba e6 0a d0 65 5c 9d bf
       0.15719087207636473 -0.02867278177539021
000590 c6 9a a0 a0 13 18 ce 3f 0b d1 08 4e 9d 32 91 3f
       0.23510976164944547 0.016794641387790892
0005a0 35 79 cf d4 48 f9 85 3f 8c 60 93 37 e6 8d 95 3f
       0.01072937869497235 0.02104911531645874
0005b0 f9 c4 01 1b 86 e2 b2 3f 38 ed b9 18 fe ed a3 bf
       0.07376897963856156 -0.038925114172310094
0005c0 2c e8 21 6b 41 50 d0 bf ed f0 0c 69 b8 67 c1 bf
       -0.25489840948250975 -0.13597779397412726
0005d0 74 96 3b cb 94 57 bd bf b6 25 fb ee c1 65 a4 bf
       -0.11461763345467962 -0.03983884851693224
0005e0 b3 f3 bf 9f 64 0e cb 3f 20 11 14 f3 a0 60 c0 bf
       0.21137674141200832 -0.1279488741785224
0005f0 a8 c8 e8 2c 6d 90 b1 bf a2 17 cb 06 2b cc c1 bf
       -0.06861002298754448 -0.13904321510034118
000600 e7 83 f5 be 24 57 c1 bf 2d e6 1f 77 fb 4e cc 3f
       -0.13547190975353304 0.2211603480971446
000610 15 ba e8 c6 81 29 bb bf d9 a0 4e 16 29 51 d0 3f
       -0.10610209566286984 0.25495364359313794
000620 c6 e2 f1 95 42 1e 6e 3f c1 c1 b3 78 47 22 c0 3f
       0.0036765385153184364 0.1260461177221384
000630 cf f6 29 ba 26 a6 d4 3f a3 73 04 bc 5b 78 d3 3f
       0.32264106922216923 0.3042210899455375
000640 58 bf 20 50 18 f8 ca bf 1d 1b 7a 9f 5a 88 c7 bf
       -0.21069625771041944 -0.1838486937233136
000650 70 db 4e 05 35 1a ba 3f 8d 2d e0 85 ff 96 d8 bf
       0.1019623887976715 -0.3842161948566279
000660 69 2b 1e 30 f9 34 d4 bf c2 b7 9a 83 29 5d d3 3f
       -0.31573323916443613 0.30256116725911053
000670 6d 87 e2 cb e6 ad d0 bf dd a5 3b 4d c1 4c dc bf
       -0.26061410818703373 -0.44218475858960266
000680 7e 0f 76 ea 79 0e 68 3f c0 37 c9 8f 14 ae be 3f
       0.002936590306207464 0.11984375486755905
000690 a9 5f 98 18 43 08 c4 3f 0b 80 fe 20 d6 ae b8 bf
       0.1565021391004369 -0.09641779237290408
0006a0 cd 65 c1 70 dd 0b ce bf 8f ea 8b 3e 1d 33 d3 bf
       -0.2347370911182182 -0.2999947653585559
0006b0 ee ab 22 e1 83 cb c7 bf c9 b6 c3 b4 bd 42 c4 3f
       -0.18589828961316307 0.1582867748870085
0006c0 cf 0e fb 2e c5 60 c4 bf 85 a6 bc be 09 35 d3 bf
       -0.15920319360713228 -0.3001121866860575
0006d0 8e 1b ba 1e e5 90 c8 bf 5a 6c f7 04 7d af b9 3f
       -0.19192184448567357 0.10033398982288713
0006e0 95 1f b6 c2 9c 7d bf 3f bc a1 cd 83 49 55 b4 bf
       0.12301044229218257 -0.07942637889721643
0006f0 3b f2 f6 89 29 ed cd bf ea 42 4a 3a ca 2c 39 3f
       -0.2338001178412855 0.0003841394157371574
000700 4a 4d ff 46 f8 34 d9 bf 70 71 aa 50 41 33 bd 3f
       -0.39385802205398035 0.1140633413255665
000710 23 28 04 d0 da 0f c0 bf 95 a0 ee 82 5d d4 c4 3f
       -0.12548384816210598 0.16273087399645605
000720 26 b5 67 3a 35 8f c7 bf f9 cf 77 92 22 74 bb bf
       -0.1840578589612189 -0.10724083019141507
000730 0c a5 2b d2 fb 67 c8 3f 37 b7 6e a9 10 f6 c4 bf
       0.19067332994681185 -0.16375931046553102
000740 04 d1 65 96 fb b9 c5 bf 70 65 35 90 19 c1 c1 bf
       -0.16973824351919842 -0.13870543996271634
000750 76 b5 06 ce 64 a1 a2 3f c2 42 cf 47 17 0c 89 bf
       0.03638758673637714 -0.012230092886882264
000760 b4 da 1a bb 77 35 c1 3f 2c 37 fd 84 74 12 d1 bf
       0.13444420467358997 -0.2667514132234483
000770 c8 c0 7a 9e 95 9e c2 3f 8b 39 de 00 3a dd da bf
       0.14546461332566296 -0.4197525986172869
000780 f8 d5 6a 31 32 37 cb 3f 89 bc 32 e4 87 5e c6 bf
       0.21262195027308883 -0.17475985186090195
000790 06 6e 63 dc fc a5 b2 3f 7d 56 51 b5 1d b8 b2 3f
       0.07284527187896836 0.07312188793852133
0007a0 47 2a da bc 15 92 b4 3f 79 a6 87 c0 90 bc c4 3f
       0.08035407887124633 0.1620045604789089
0007b0 d5 b2 d0 47 c4 66 b0 bf 23 ed 01 1e 77 eb c9 bf
       -0.06406809571553691 -0.2024983307381741
0007c0 20 46 05 06 19 2d b3 bf 0b ac 5b 69 b3 e1 cf bf
       -0.07490688702571235 -0.24907534260214023
0007d0 be a7 06 e5 99 f1 d6 3f 83 4f dd 4b b3 f1 c9 bf
       0.35849616399593376 -0.20268861011811276
0007e0 7c b8 cb 08 ce 87 c1 bf 82 b7 7a 8c 50 7f c7 bf
       -0.13695693425637845 -0.1835728345808399
0007f0 ba 05 fc 0f ba 53 94 3f 23 9c 0b 02 e9 a9 a6 bf
       0.019850642419447097 -0.0442650618550078

gru.bias_ih_l0 f8 [96]
000000 e0 13 81 da 13 d1 a4 bf 90 9d 9d 9c 97 28 ca 3f
       -0.04065763513839449 0.20436377665758387
000010 49 ac 8e 93 6f a7 c0 3f f6 eb 5d a4 28 16 ae 3f
       0.13010973648974503 0.05876280790740644
000020 59 56 1a 73 f7 c0 b0 bf d8 e9 09 77 06 4f 31 3f
       -0.06544443664673717 0.00026410968624870695
000030 a8 7e 4b 27 03 a2 b2 3f e8 13 b8 f6 6d ee ac 3f
       0.0727846117911165 0.0565065730734558
000040 bf c9 a9 f4 a1 bc a4 bf 37 d0 2a 2f af cd b6 3f
       -0.04050165282832862 0.08907599355262695
000050 19 d7 36 f7 2e 7a bc 3f 29 d9 56 56 6b 76 bd bf
       0.11123937163833054 -0.11508818490878937
000060 7f f1 11 2f 2a 13 ce 3f 45 9d 97 23 85 b5 b4 bf
       0.2349598626932554 -0.08089477652503259
000070 5c fb eb a9 24 87 b8 3f 78 8e ab 86 ab aa c9 3f
       0.09581212185365245 0.20052093578043517
000080 3a 19 6c bc e9 da c4 bf 87 91 39 3c 2b b7 83 bf
       -0.16293069553666745 -0.00962671067754496
000090 dc ad 31 6d b7 60 9f 3f 87 e9 bf 04 e3 89 ca bf
       0.030642381705929242 -0.20733297092358446
0000a0 ae 89 bc 22 09 2b a3 3f e4 e8 62 49 d8 69 d2 bf
       0.03743771122960325 -0.2877102581657154
0000b0 77 23 ee 97 6c 11 d1 3f 25 71 bb ea 9e 09 c7 3f
       0.2666884883588447 0.1799811025765702
0000c0 c7 f9 83 18 34 1b c8 bf 00 44 b2 df 29 18 6d bf
       -0.18833018490836492 -0.0035515611503531552
0000d0 fe fa 6a be bd d6 be bf d5 75 db d4 06 fe c4 bf
       -0.12046419047235798 -0.16400227921887614
0000e0 92 1a 83 27 9a e1 c8 bf 45 32 29 73 e6 d8 b4 bf
       -0.19438483170798243 -0.08143463431879024
0000f0 15 59 c0 55 28 75 af bf 42 49 a9 4d 58 bf af bf
       -0.061440716235823846 -0.06200672100080108
000100 c9 9f 7a dd aa 63 d2 3f 72 85 b1 61 1d 13 b4 3f
       0.28733321789559035 0.07841666827291308
000110 58 ad 51 47 cc 17 c3 3f 90 1e e3 f5 18 66 bc 3f
       0.14916375620246458 0.11093288424592118
000120 32 7e f9 8e 9f 0e da 3f 2b 3b 2d 5e eb c9 d1 3f
       0.4071425338970328 0.27794918248121075
000130 ad 76 3d ce 7b 38 e2 bf 2a 3a 86 dd 3e eb d2 3f
       -0.5693949726225661 0.295608249981259
000140 65 95 de 6a 0c 44 c0 bf 36 54 90 5b 13 ca d2 bf
       -0.12707667558894822 -0.2935837167909229
000150 f8 73 60 cc b9 e8 db bf 75 11 51 ea 35 9d d0 3f
       -0.436079454027833 0.2595953739403492
000160 07 f4 20 a7 c6 25 a7 3f ce 2b 12 51 ef c7 d0 3f
       0.045210082913833154 0.26220305363738994
000170 3d 3e 0c 46 fb b4 de 3f b9 73 95 00 02 ea c2 3f
       0.4797962364254749 0.14776635197168078
000180 03 f7 08 0b a8 fc d2 3f ad 86 4b e9 95 8c db 3f
       0.29667092397345146 0.4304556635162083
000190 68 07 81 84 a3 87 a7 3f a8 c7 7a 1c dc 78 d1 3f
       0.04595671646576599 0.27300169736110513
0001a0 0f 6b 06 80 d1 75 b4 3f 2a 00 17 c7 a9 5d a9 3f
       0.07992276549923026 0.049542718460998295
0001b0 b4 57 19 6c 9d 32 d6 bf d2 cd 86 82 d7 62 9d bf
       -0.3468392902044528 -0.028697364179334724
0001c0 68 a5 75 20 59 f2 c0 3f bd b4 ed 73 47 1d df 3f
       0.13239587864817826 0.4861620552172317
0001d0 2c b3 c4 47 15 6d d4 3f 93 2f 2a ec 7d 19 c8 3f
       0.31915790566090396 0.18827795058711824
0001e0 f5 0d 41 88 49 1f ab 3f 08 7f 46 7d 0e e8 e6 bf
       0.05297307766207019 -0.715827221563786
0001f0 90 54 95 92 14 4c b6 bf 2c fc eb 1f 5c 31 db 3f
       -0.08709839419073462 0.42488768689503575
000200 09 3f 22 ce c1 e0 b0 bf c1 61 f8 e6 59 73 b5 3f
       -0.06592952044070101 0.08379136933252253
000210 ea 56 0f 31 d7 1f a6 3f 84 c5 99 5f a5 f9 bf bf
       0.043211674441108475 -0.12490304550171599
000220 94 4d c8 7d 4e fb c0 bf 9e 3f c1 2f 72 36 c3 bf
       -0.13266926900596998 -0.15009906131535627
000230 e5 2d 6c 86 86 4d ca bf 5b 8f 8e bb 58 e4 a8 3f
       -0.20549089015581426 0.04861714639198907
000240 e6 78 af 52 1f 02 b9 3f 57 bd ff 9a 47 e5 b8 3f
       0.09768863457381691 0.0972485307136045
000250 2d 23 47 7a 42 f5 ba bf 0e 28 0e 2a db 70 b4 3f
       -0.1053048656969053 0.07984704758396807
000260 98 da eb 56 42 15 c6 3f ea 4d 16 0e d9 fd b6 3f
       0.17252377742962177 0.08981091112064346
000270 9d 50 86 86 42 b4 b2 bf de 3e 72 fa ed b2 b2 3f
       -0.07306304725927011 0.07304274906550343
000280 23 a1 67 69 d6 df b5 bf 58 ff bd 96 e5 99 c4 3f
       -0.08544673989638744 0.16094655857522855
000290 d6 e7 c1 b3 bc 27 80 3f a6 6b 2b 47 dd 1e 9a 3f
       0.007888292537462076 0.025508363217209194
0002a0 36 df 48 f3 6b 28 74 3f c8 57 8a eb 25 40 bc 3f
       0.004921361618975875 0.11035382271288008
0002b0 28 2c 44 77 1c e2 d4 3f e4 22 cc 18 9f 0b c6 bf
       0.3263007321081113 -0.17222965918360622
0002c0 38 28 c2 15 c7 b3 a3 3f 90 dc 51 b7 fe b6 c1 bf
       0.03848096981626309 -0.1383970637432168
0002d0 da 77 a6 5c 12 a9 8e 3f 46 15 86 0b 2e f2 bd 3f
       0.014970916225873699 0.11697662144986962
0002e0 fb eb 9f 07 e1 b9 c0 3f 23 ff 58 d3 91 91 c6 3f
       0.130672577593799 0.1763174325915254
0002f0 ce f3 82 94 3a bc ad 3f 37 7f 42 df 66 3b 99 bf
       0.058076696995591356 -0.024640662552541683

gru.bias_hh_l0 f8 [96]
000000 00 8a 40 cd 91 69 b7 bf 37 c5 c4 86 76 6a b8 bf
       -0.09145461331403482 -0.09537449636697636
000010 c9 a7 e2 b8 82 de b9 bf f3 f5 2e 52 1f 4a b6 3f
       -0.10105149282267613 0.08706851726943636
000020 25 2b 8d 09 99 bc c3 bf 93 09 77 c6 f3 70 ba 3f
       -0.15419304815653692 0.10328601451241175
000030 9c 7e 4b 27 e2 c6 bc 3f 02 f6 a3 84 ab 9e b9 bf
       0.11240972003315125 -0.10007736194889819
000040 b4 c6 6a 71 d7 98 d2 3f 26 d0 2a ef d0 42 b1 3f
       0.29057870937240726 0.06742578352970038
000050 86 6b 9b 3b bd a3 c2 3f 17 d8 24 35 3d 4a 6a 3f
       0.1456219235468234 0.0032092280827340602
000060 48 e3 23 5e e9 8b b7 3f 1b 75 5e 0e c4 48 92 bf
       0.09197863148064045 -0.017855704667103383
000070 f0 eb af a7 c4 41 9c 3f d1 72 5c 35 e1 88 97 3f
       0.02759463571053894 0.02298309219542
000080 32 32 d8 78 69 db be bf a7 33 1e 66 69 19 d1 3f
       -0.12053546142869534 0.26717600796183166
000090 42 6b 4c 9b 32 01 bd 3f 71 2c 80 f6 32 0a b7 3f
       0.11329952517955369 0.08999937551577532
0000a0 75 22 af 88 e3 0f ca 3f 90 d1 c5 52 6f ce c0 bf
       0.20360988782910608 -0.13129989186894564
0000b0 c1 1a 71 7f 92 c4 a9 3f 28 71 bb ea 62 c6 c4 3f
       0.05032785230337345 0.16230427228482225
0000c0 cd f9 83 b8 f0 7d ce bf 2e de 26 10 8d 0d 75 3f
       -0.2382183934168566 0.005139876392085392
0000d0 bc be 9a 6f 86 0e d1 bf a2 eb b6 69 e1 c7 b9 bf
       -0.2665115442168646 -0.10070618468209472
0000e0 7a 1a 83 67 63 9c c0 bf ce cd d6 0c 7e 90 b8 3f
       -0.12977259210875386 0.09595477879957245
0000f0 c2 e9 8f ca 56 74 c4 3f 6b 5b 2b 59 93 9c b2 3f
       0.15980038538675784 0.07270165373789232
000100 cd 9f 7a bd ba 2f d1 3f 0c c3 d8 50 2f 22 cf 3f
       0.2685381746655338 0.24323073814004947
000110 5f 59 ca 15 ff 83 76 bf 06 3d c6 ab 36 3d a9 3f
       -0.005496975351567761 0.04929514738898359
000120 3c 7e f9 6e f9 8f de 3f 9e 38 b1 74 60 55 7a bf
       0.4775374969230801 -0.006429077892859207
000130 4a ed 7a bc 48 52 df bf 3d e8 18 16 9e 22 b7 3f
       -0.48939722448604484 0.09037197150692662
000140 ab 95 de fa c3 e7 c9 bf 47 54 90 3b ce e5 d8 bf
       -0.20238542317853833 -0.3890262204816434
000150 0e 74 60 74 55 11 d6 bf 6d 11 51 f2 ab 72 d3 3f
       -0.3448079716197875 0.30387400306451334
000160 03 7a 90 53 19 83 b0 3f d4 2b 12 e1 2f d2 db 3f
       0.06450041093965102 0.4347037980994035
000170 2c 3e 0c a6 d1 64 dc 3f 8a e7 2a 81 13 aa bc 3f
       0.4436534997521189 0.11197015670305013
000180 70 b6 47 d8 68 0b a2 3f a7 86 4b d9 53 c2 d5 3f
       0.03524329795969272 0.33998581142632606
000190 81 7c bf fd 07 e0 bb bf a8 c7 7a 0c 9b 6e d5 3f
       -0.10888719506282209 0.33487583368980234
0001a0 28 ca fc 0f 11 c8 c9 bf eb df e2 38 93 b8 d4 3f
       -0.2014180496276634 0.3237655692605574
0001b0 67 5f 65 30 2c bb bc bf 01 67 43 01 2d 2e a2 bf
       -0.11223102742712641 -0.03550854340001131
0001c0 ae 95 d6 81 a4 e0 a4 3f b7 b4 ed 93 07 2e d7 3f
       0.040776387071029915 0.36218442388674127
0001d0 e8 b2 c4 07 da 0b dd 3f c0 a0 ab a7 b4 b5 bf bf
       0.4538483692038384 -0.12386635869518425
0001e0 e4 21 08 59 33 6b d1 3f 0c 7f 46 8d 89 01 eb bf
       0.27216800398357877 -0.8439376601490678
0001f0 67 ab 6a 2d d7 d6 bc 3f 22 fc eb 67 0e 32 d1 3f
       0.11265320643239606 0.26868019245734065
000200 a6 fe 54 ab 25 1b a0 bf 45 b0 65 d5 28 8c c6 bf
       -0.03145711628394325 -0.17615232867990663
000210 fa d6 61 9d 6e 8b a6 bf b1 a6 ff f2 35 09 c7 bf
       -0.04403253241700429 -0.17996858945052943
000220 c5 e2 1c cd 12 52 a9 3f 16 a0 e1 9a e5 17 a2 3f
       0.0494542956716422 0.03533856883660762
000230 7f 7d 2b 3a ed 8c 96 3f 6a 7c 8a eb 2a 61 cd bf
       0.022021967578323306 -0.2295278215505932
000240 2e 70 00 f9 89 0b c9 3f 0b 97 57 41 8c ec a8 3f
       0.19566464098250108 0.04867971704133652
000250 ba 00 65 4f 19 aa a5 bf bd 4a a8 dc c6 38 c0 3f
       -0.04231337637111339 0.12673269056593553
000260 bb b3 ca 40 56 5e b5 bf 70 ad de 7a f8 00 7f 3f
       -0.08347071725684334 0.007569285034985426
000270 93 5f 14 e3 7b 0b a3 bf 04 a8 a4 95 03 52 68 bf
       -0.03719699046104021 -0.0029687948237056023
000280 3d 51 e9 48 be e0 c3 3f 95 f1 98 30 6b 1f c9 bf
       0.1552961212170291 -0.19627132294580166
000290 0a 9f 51 a0 2d 5b b3 bf e7 5f 6a 70 3b 49 9d 3f
       -0.07561001934083947 0.028599671112345872
0002a0 7e 30 22 a1 33 2c 6e bf 9e 18 8d c8 61 f9 79 bf
       -0.003683186377264446 -0.006341344801347541
0002b0 28 24 65 23 79 05 d0 3f 23 37 93 73 a2 c1 c0 3f
       0.25033405739356107 0.13090925830186348
0002c0 49 82 a4 18 86 e9 c5 3f ce 9e fd 8f 76 52 c4 bf
       0.1711890812230357 -0.15876657515331377
0002d0 28 b7 70 7e 48 06 b7 bf 50 1d f6 3f 4a bc b1 3f
       -0.08993962370797404 0.06927932797963376
0002e0 d8 bb 90 7a 8f f1 c1 bf 9f e9 23 48 15 c0 c4 3f
       -0.140184340330477 0.16211191198801786
0002f0 e9 9c 73 c2 54 d4 a1 3f 9d 0e e5 1c a8 b2 56 bf
       0.034823082672852675 -0.001385368511891117

gru.weight_ih_l1 f8 [96, 32]
000000 6c 52 db 43 77 dd c0 3f 05 b1 51 fa 09 e5 b3 3f
       0.13175860226933211 0.07771360741907436
000010 a0 9e 7e d1 5b 43 db 3f 24 e2 5f 86 9d 6d e0 bf
       0.42598624666650586 -0.5133807777884312
000020 f2 3d 6b 9d 2c 37 bb 3f 06 31 d2 05 98 da ce bf
       0.10631064265475468 -0.24104595455390426
000030 bb 07 dd 4c b9 29 e0 bf 25 a6 7c f3 7b 14 b8 bf
       -0.5050932408560053 -0.09406256384377139
000040 39 80 81 8e 25 d3 e3 3f b5 27 42 69 5a 14 e8 3f
       0.6195247443502075 0.7524845176533207
000050 eb 2f 19 6b fe b6 dd bf 57 28 a5 b9 34 98 a6 bf
       -0.4642940564997377 -0.04412998930145367
000060 4c 2c 92 da 70 7a b5 3f 56 ad 1b 9d 62 e8 ca bf
       0.08389954887586376 -0.21021683379454242
000070 63 80 a5 b0 29 71 bb 3f 33 7a e8 df 2e 32 d4 3f
       0.10719547808321432 0.31556293359782045
000080 f7 a5 6c 5a 54 4e b1 3f 63 6f 7a 49 0d 38 c1 bf
       0.06760146339060912 -0.1345230683117463
000090 90 65 f4 59 c0 f2 b3 bf 6e 03 cf 43 d3 cc c3 3f
       -0.07792284198912669 0.15468827067345664
0000a0 f9 c0 aa f2 33 fa d8 bf c7 6a e5 81 9c e1 d0 3f
       -0.39027117441129594 0.2637702244298165
0000b0 27 90 66 8c 03 c6 e4 3f db 67 61 51 f3 c4 cf bf
       0.6491716139030402 -0.24819795106560502
0000c0 64 7a e4 26 58 7a be bf 02 dc 80 9a 1c 4c c6 3f
       -0.1190543265297293 0.17419774574383956
0000d0 0b b0 be 03 a2 41 b3 3f aa bb a8 08 88 01 d5 3f
       0.07522022811343747 0.3282184681474357
0000e0 64 ff 89 55 66 b9 c7 bf 3b f5 9f e2 09 d5 e2 3f
       -0.1853454511328848 0.5885056902185747
0000f0 f9 7f 82 16 91 b8 da 3f c5 d6 6f 82 c9 c3 88 3f
       0.4175150604078222 0.012092184346310994
000100 03 e3 31 bf 72 24 c5 bf f4 2c 30 67 d6 48 80 3f
       -0.16517481170355816 0.00795142652898171
000110 a1 80 80 c7 36 ff b3 bf 86 69 61 49 6d bd b7 3f
       -0.07811300631192576 0.09273417512432588
000120 f6 0f 29 0a 49 2b ba bf a5 42 9a 2e 58 a6 c5 bf
       -0.10222298143440853 -0.1691389300872476
000130 d7 2f 1c 94 58 3c d7 bf 08 7a ef 4b e6 e7 82 3f
       -0.36305822814824523 0.009231375877729611
000140 79 2f 89 4d 35 d2 c6 3f 5a 3a 29 63 e9 f4 d5 3f
       0.17829004560405418 0.3430732220048519
000150 dc 7c ea 7c 05 90 d4 bf 2e f3 6c 0b 1d 11 b8 3f
       -0.32129037092995616 0.09401113060898744
000160 03 c1 4c 57 aa 26 be bf 91 8a 20 ee 80 e5 8e bf
       -0.11777748710006013 -0.015086180941641632
000170 82 e1 59 2a 10 20 ce 3f cb 91 45 ae 17 60 cc 3f
       0.23535348956989927 0.22168251046526985
000180 d5 57 30 e8 34 07 c6 3f a2 14 c7 54 47 b9 d3 bf
       0.17209493005128587 -0.30818351058071347
000190 e2 aa f2 da ef 99 9e 3f ca 42 62 f0 f0 c9 77 bf
       0.029884097803612238 -0.005807820480314427
0001a0 ee e3 35 23 e7 62 a9 3f 41 ba 18 df 8b 84 ce 3f
       0.049582694099576816 0.2384199942911938
0001b0 aa ae 78 d8 f4 a6 d1 3f 5b 30 fd d0 f9 32 b8 3f
       0.2758152116755165 0.0945278296687219
0001c0 0b 93 e2 34 18 d1 d1 3f d6 0f e0 15 51 e6 c2 bf
       0.27838711895519513 -0.1476537091076568
0001d0 94 28 90 38 d0 a5 d6 3f ad 37 85 3d 1b 7f c6 bf
       0.3538704445242129 -0.1757539797203526
0001e0 c2 b1 4b 48 64 9b cf bf 40 8b dc 78 bd 72 d0 3f
       -0.24692967920363001 0.25700318148499335
0001f0 df f2 19 35 80 bb d0 3f 43 c6 23 da ef 14 aa bf
       0.26144414125137233 -0.05094098604048416
000200 9d 73 35 85 59 da c6 bf 04 39 b2 1c 68 32 d1 3f
       -0.17853850368819915 0.2687015800701291
000210 a7 e5 0e ca ef 20 cf 3f 8e dc 9f 9a 5f f4 c4 bf
       0.2431926476108803 -0.16370768594763202
000220 eb 77 97 4e b8 6c c0 bf 3a d9 de fa d0 67 9e 3f
       -0.12831786954387722 0.029692902862472816
000230 be 2b a1 33 dc 59 c9 bf 90 39 62 b1 cb a1 d4 3f
       -0.19805481453871993 0.32237522432924326
000240 b8 46 6b f9 ce ab 9b 3f 52 d0 90 8c c3 49 b8 bf
       0.02702258488972717 -0.09487554723529115
000250 d4 19 47 23 fa b2 cb bf 92 0c 6a b6 be b3 c9 bf
       -0.21639944765611452 -0.20079788119264613
000260 00 a6 16 83 76 ce ca bf e3 0c c5 c3 c5 d1 bb 3f
       -0.2094257488327429 0.108669624610275
000270 4a 14 0e 6e 1a 5f d3 3f 39 84 e0 20 b5 8f b2 bf
       0.3026796412235099 -0.072505302931419
000280 d2 56 04 4b 3a a5 b6 bf 2b a9 b2 31 c7 ca b7 bf
       -0.08845867473095417 -0.0929378982861279
000290 d0 24 2c 5b ad 7f c1 3f ec 52 2b 05 8e 90 b2 bf
       0.13670889808444153 -0.0725182306881142
0002a0 ed 46 74 72 e3 94 c9 bf 4a 08 1f 54 5a 7d c8 bf
       -0.1998562153681215 -0.19132546527368027
0002b0 c3 48 c1 94 2c c0 c2 bf e4 0e f7 ae c3 a1 cc 3f
       -0.14648968947819271 0.22368665736404758
0002c0 47 e1 09 20 9c 85 c1 bf 1e e1 69 46 be 70 d6 bf
       -0.1368899494589277 -0.3506313026077964
0002d0 13 db b7 1b 85 ab c6 bf 50 15 48 3a 15 14 a7 bf
       -0.1771093736021717 -0.045075095524263475
0002e0 87 af 10 eb 4f 08 b8 3f 4f 5c c2 00 c7 ba c8 bf
       0.09387683380981403 -0.19319999253341044
0002f0 34 ec 3c e0 fd 79 cf 3f 43 14 cc 8b e5 cd ce bf
       0.2459103913223274 -0.24065846754106887
000300 b2 1d 13 3c ec 31 c2 3f 91 bd ed a2 b8 49 d8 3f
       0.14214852269490802 0.37949958716395665
000310 27 de 2d eb 0a c7 b3 bf a8 c4 1a 5c f5 47 bb bf
       -0.07725589982680302 -0.10656674860617221
000320 c9 9c d6 6f dc 26 cd bf ff 15 22 5e 35 bc d6 3f
       -0.22774844609123182 0.35523733322801826
000330 f2 03 2d 82 6d 8e cd 3f ab 07 58 07 4b af cb 3f
       0.23090905052416094 0.21628702028834587
000340 e8 da 62 52 75 5f c1 bf 7d 60 5c 63 d2 95 d1 bf
       -0.13572565577279438 -0.27476939871986145
000350 a0 d4 71 a6 f8 49 ca 3f 5c dd a4 6a 58 4c c3 bf
       0.20538242461376388 -0.15076737601496404
000360 bd a8 91 4a e5 4c cf bf cf 8e 5e 90 ee 87 c4 bf
       -0.2445341695886948 -0.16039831208501318
000370 07 25 ab 80 eb 7e b4 bf a6 66 4f f1 18 62 96 3f
       -0.08006164447137475 0.021858587005999873
000380 fa 8b 00 32 7f 56 be bf 12 a3 dd 17 b1 80 cc bf
       -0.11850733729129095 -0.22267736115761544
000390 58 15 ea cd c3 99 ca 3f e4 96 e0 8e c8 54 b4 bf
       0.20781753115094648 -0.07941869247641936
0003a0 e9 d6 30 f6 cc 72 b1 bf 53 d9 fb 45 b5 54 d3 bf
       -0.06815796862141678 -0.3020451720652961
0003b0 0c 3b f8 ed 76 7c d3 bf a1 e9 91 54 6a 4e e0 3f
       -0.304471714393842 0.509572186637616
0003c0 27 f9 22 29 06 48 b6 bf e6 ca b5 89 7e c7 9f bf
       -0.08703650001823303 -0.03103444781795419
0003d0 44 ad 6a a5 97 96 bb 3f 6f fe ec c2 39 69 c9 bf
       0.10776660717481429 -0.1985237314020085
0003e0 94 53 0b 12 d2 58 b6 3f 63 dd 75 a5 f2 7a c0 bf
       0.08729279461415579 -0.1287520702278285
0003f0 a9 96 a1 f3 fe 18 d9 bf b1 c3 c5 fa 8a b5 c2 bf
       -0.392150628968333 -0.14616524929763622
000400 07 de 05 11 8e 2c a9 3f 2e 41 84 e8 2f 5b c2 3f
       0.04916805227088266 0.14340781071997227
000410 5b 6b 67 2e d6 da c0 bf 8d 81 73 63 44 2a d5 bf
       -0.1316783644277518 -0.3307047816470224
000420 c1 8b 95 1a 75 3e c2 bf 3c 79 e3 41 70 f5 cc 3f
       -0.14253104970984334 0.22624018876281038
000430 36 96 de 9f 57 75 ae 3f f2 fa fd 84 c0 de c3 3f
       0.05948900057346089 0.15523535245662107
000440 4e 11 20 61 12 4f c5 3f 63 a2 83 8c 03 06 c0 3f
       0.1664755796665624 0.12518352852864031
000450 74 cd 8d b9 00 ae b2 bf 7d bc 1c dd 56 59 d3 bf
       -0.07296757249951275 -0.3023278388308837
000460 2e dc f6 09 2e 30 be bf c2 75 0f 11 0f a1 b9 3f
       -0.11792266600865339 0.10011381308091585
000470 82 9a 26 68 d3 06 ab 3f dc 0b e8 51 74 8e b1 3f
       0.052786451781959634 0.06857993125599599
000480 c8 bd b6 fc c2 81 97 3f 02 fd f6 3c dd 88 cb 3f
       0.02295593898241835 0.21511426426693708
000490 be 79 12 03 c7 26 bb 3f 7e c3 f9 02 78 a7 bd bf
       0.10606044602398065 -0.11583662102363054
0004a0 5a 1f 15 56 00 f1 6d 3f e7 0d be 6a 39 71 aa bf
       0.0036549574439596446 -0.051645082740858154
0004b0 9d d5 78 76 02 17 ad bf 20 14 7d 73 af a1 91 3f
       -0.056816174470820636 0.017218343185295137
0004c0 9f 2d 2f 36 0a f1 a5 3f 91 01 a8 c4 d1 1c c2 bf
       0.04285461341313667 -0.14150449850422978
0004d0 98 c1 c0 ac f8 93 cf bf 1d 5d ee b9 2c ff 91 3f
       -0.24670322833254654 0.01757497677644181
0004e0 87 24 f9 68 d9 42 bd 3f 33 8a 64 24 95 a3 c4 3f
       0.11430128872702215 0.16124214436520531
0004f0 61 6d 72 f6 34 53 86 bf 78 48 c1 b8 0b 4e b9 3f
       -0.010900892039265643 0.0988471342145959
000500 47 a7 a6 28 5e ec 95 3f 84 d2 1d 18 e2 29 d1 3f
       0.02140948413003876 0.26818134646536174
000510 d0 0e e8 72 30 fe d5 3f 1a c4 4c f9 17 5b d3 bf
       0.34363948079429196 -0.3024349150246636
000520 fc fb 83 51 f2 a6 ba bf 14 ec 03 3e 22 dd c2 3f
       -0.10410990228773181 0.14737346675960394
000530 ea a8 0c 74 89 88 c5 3f e2 ec bd 77 b0 7b d1 3f
       0.16822927633740586 0.27317439740700256
000540 72 30 cc ff 32 74 cb bf bf 47 b8 7d f1 40 b2 bf
       -0.21448361864202387 -0.07130345649082324
000550 b6 da 7c 06 40 a0 c9 3f f3 52 b5 3f 45 c7 be bf
       0.2002029449156077 -0.12022812657717079
000560 b5 b9 0d 6e cc f6 c5 bf 72 9e 46 9a c0 9d cf bf
       -0.17159419416152635 -0.24700171978951208
000570 93 98 ee 32 ee c2 c8 3f b2 cb 28 e5 46 3c 97 bf
       0.19344880568423103 -0.022690875756051283
000580 b3 a4 eb da 82 5b b5 bf b7 f3 59 1a d9 ab d6 bf
       -0.083427599379905 -0.3542387730920455
000590 f5 ef 17 10 a5 93 d5 3f 34 95 99 7d da a6 a7 3f
       0.33713652202254646 0.04619486602022463
0005a0 4e 4b e9 f1 ee 3e d7 bf 0e 4a c5 12 ec 39 b8 bf
       -0.36321614860678586 -0.09463382204311463
0005b0 7b cf f6 fb a8 ff c6 3f 0b 0e a0 4b 01 7d a2 3f
       0.17967712691244828 0.036109962922662296
0005c0 f3 ab 12 39 f5 cf c6 bf ab 52 18 e7 e5 b3 cf bf
       -0.1782213715244719 -0.24767755302368263
0005d0 01 4d cd b3 e2 80 ab bf ed 4c 50 99 0b 39 cb bf
       -0.05371769375656222 -0.21267838464755276
0005e0 c6 57 31 7d 7f 26 c1 bf df ca d0 4f 4d e3 be bf
       -0.133987365845938 -0.1206558532583517
0005f0 4e b3 cd 4a 07 01 da bf d3 cc 41 ae 94 66 d4 bf
       -0.40631277375250796 -0.31876103417671436
000600 1a dc 6a 67 da 9b da 3f 4b 24 39 bd 7d 2b a9 bf
       0.4157625207839729 -0.049159936283623105
000610 9b ae 36 87 c9 63 bc bf 11 66 c4 20 71 b5 c5 bf
       -0.11089763213265728 -0.16959966754875258
000620 c8 38 a5 d3 55 91 de 3f 98 15 7e aa 7e c7 d5 3f
       0.4776205603456103 0.3403011956182467
000630 e7 ca 98 44 b6 f6 d0 3f 8a d6 80 4b cb f4 ba bf
       0.26505810450468775 -0.1052977618536152
000640 0b 5d 4d 1d 4e 75 d4 bf 46 c6 00 87 80 41 cf bf
       -0.3196597372202212 -0.2441864642328701
000650 00 ec 97 74 d4 55 d5 3f f6 43 12 29 a7 a8 e0 bf
       0.33336364160612675 -0.5205875208067698
000660 cc 14 f4 fc 69 0a e5 bf ee 34 7c 62 a9 08 c7 3f
       -0.6575212421891137 0.179951832855671
000670 07 02 05 d3 de b7 cf bf c6 2e 04 74 67 b4 d1 bf
       -0.24779877952279625 -0.2766359932872827
000680 62 b4 86 45 55 02 c4 bf e6 4d e5 7b 50 db d8 3f
       -0.15632120032151692 0.38838588809195895
000690 b1 85 fd 91 a2 f9 7e 3f 0a 05 ad f6 15 a9 c5 3f
       0.007562289276252286 0.16922258896560322
0006a0 a6 eb 2d 3b 57 f9 d1 bf 7e 96 5d 5c d7 cb a6 3f
       -0.28084355143772155 0.044523935341925544
0006b0 88 1c 29 e6 bd ec c7 bf 71 af 3a 56 ec 14 df 3f
       -0.18691228617010247 0.48565205021690533
0006c0 85 22 9b ef b6 95 c9 3f 9d d3 40 45 84 0e ca 3f
       0.19988142680655954 0.20356801396851845
0006d0 18 02 fa a6 4d f9 e1 bf aa 01 ac fa ca c5 b0 3f
       -0.5616825352918253 0.06551807994765704
0006e0 fa 92 71 1e 39 13 a9 bf 24 a4 04 cc 4b cb d9 bf
       -0.04897478577257704 -0.40303320811887233
0006f0 c9 ed 75 e1 4a 3f c9 bf a1 14 cb 13 ef 71 ca 3f
       -0.19724403389760273 0.20660198656529352
000700 66 76 04 e7 d0 1d c8 3f 42 8f 6d cf 20 e6 d1 3f
       0.18840991287372616 0.2796709085143797
000710 30 88 d3 1f cd f8 d3 3f 17 12 bc cf 45 9c d1 bf
       0.3120606241992645 -0.27516312872492804
000720 eb d2 02 9c 06 5d d4 bf 1b 85 99 c7 ca 95 c7 3f
       -0.31817784533931953 0.18425879236296158
000730 43 8f 56 88 e2 31 a8 3f f6 74 32 d3 e1 c4 c2 3f
       0.047255591528737394 0.14663336574896108
000740 11 47 5d 00 d5 d3 b2 3f 7b 9e 88 b3 b4 51 9b 3f
       0.07354480036636014 0.0266788706377654
000750 41 b7 26 3c 54 e4 89 3f b4 cc b3 82 90 af d9 bf
       0.0126425343376827 -0.40134060634518254
000760 3b 6f db b2 b4 af c4 bf ac ef be 2e 57 ba cc 3f
       -0.1616121171308523 0.2244366625071711
000770 39 3c 5e 1d 1b 13 8c 3f 25 29 2c 1d ed 4b af bf
       0.013708316644423945 -0.06112614613637594
000780 e0 70 83 24 76 83 d3 bf 37 cc ef 87 5d ab bb bf
       -0.30489877286687594 -0.10808357781188326
000790 21 f1 10 55 52 d3 b9 3f 22 27 6e d8 33 57 c1 bf
       0.10088076187907237 -0.13547370975384704
0007a0 23 0f 21 87 3f 3c b4 bf 6c 15 94 98 8e 29 c3 bf
       -0.07904431389857484 -0.14970571947211953
0007b0 04 ff 8e ec ff b4 b0 bf 6a 20 8e 35 ef 68 d4 3f
       -0.06526183629375387 0.31890468816755535
0007c0 92 d9 c9 94 fb eb de bf 2f 69 88 c8 f9 0f cf bf
       -0.48315324335217114 -0.24267504016536054
0007d0 60 21 88 f9 92 d2 b6 bf 23 01 9d ec d4 82 ab 3f
       -0.08915060607990233 0.053732541926821996
0007e0 64 e8 76 b6 98 4b d4 3f d0 92 40 b1 6d 0b b1 bf
       0.317114046276066 -0.06658063485572119
0007f0 21 a3 90 18 df 1b b8 3f 4d 5b bf cb 3b e9 ca bf
       0.09417528485995465 -0.21024272392852553
