results/Genotyping_RNN_Long/models/checkpoints/1/Genotyping_RNN_Long-1-1100.pt (torch_old, 30647 bytes, 10 tensors)

rnn.weight_ih_l0 f8 [32, 10]
-0.04891068169040924 -0.06017233640614503 0.27131893094691784 -0.4051033898693803 1.292100050271738 -0.9334980852304339 0.2152297233041791 0.5649346805909933
0.2849135651187468 0.8704234724955751 0.26133201545178625 0.15174671365540796 0.04350353747980824 -0.34301949437916934 0.4492724886967306 -0.15123723334305522
0.0749843455115692 0.07693803627264732 -0.304656413411014 0.5476590359425563 -0.2990309828840167 0.7357397659554704 -0.3429089656377581 0.26446903083310175
-1.5048247917869382 0.47781605896744284 -0.44244171886458883 -0.10450877568304691 -0.05041693266687931 -1.9775528174610821 0.5820571394250355 0.30035668166519786
-0.1450546102455858 -0.905049085474121 -0.31658281395299104 0.5526110330178364 -0.3162334608567775 0.10471458942971108 -0.23950193680766638 -0.5447882945045496
0.17395547882405588 -0.47033007135016575 0.09619012482391895 0.08451552091841118 -0.7460698892536359 -0.29078990073351835 0.3020705277691369 0.03231105884775858
-0.04140341238367287 0.03755738761594301 -0.5346779887254358 0.022252529407679054 0.1652869530723777 0.31696723787561465 0.1513680441684261 -0.04562824976828059
0.5456487392228366 0.2134966884726383 -0.7619457576105714 0.15400918512347925 -0.7141462303997408 0.46355854924083423 0.36023624488266565 0.03387826015423041
-0.4544691942729479 -0.28722459451395205 0.10766223168940464 0.6101723234899549 -0.28357855511576546 -0.1459179827032104 0.2624851154073345 -0.23008141044554126
0.3184584856614261 -0.02182268604722223 1.2622066224535882 0.3941613173692594 0.0379555385342278 0.10412620477234871 -0.22815819881225746 0.6331047835963142
-0.42570170185415446 -0.0012477547536791712 0.5177568117996844 -0.07053654284755353 -0.028784484625020368 0.06330234954902547 0.28565662103987904 -0.26112028008930216
-0.09812711059841404 1.3452915190204415 -0.10458428587863612 0.1857296983833524 0.676840551163002 -0.9459238240333536 2.008889526099867 -0.3547254266623646
0.12216036786931916 0.1730896979978664 -0.4343031822089573 1.374620729179906 0.40764830389547313 0.485084993684489 -0.29173124876768414 -0.6726895635401499
0.46449190467306845 -0.4300193669662342 0.19482939736256982 -0.43589164446186895 0.5616526439871057 0.3623601345522391 0.691395556321459 0.14349348357878808
-0.47710901223007923 -0.0006459058729883797 1.7889292559640637 0.08398618807211096 0.12717473664251625 0.49826937930773024 -0.5217793428687844 -0.0762772279804694
-0.21547991298870534 0.12954613479669563 -0.2687680522297302 0.5092823045307493 -0.7730703719433648 -0.34108136741261386 0.2319110321038092 0.0459897859004954
0.46208612663947385 -0.39466662137367714 0.14449945598939662 0.2430710363565712 -0.19741896628363112 -0.4780474169453177 0.028689088787554082 0.16608060551413847
-0.4515036125171148 0.08996776484240188 -0.28977153764433783 0.557488808301657 0.33462663141040017 -0.072799198990506 0.2208169786369652 -0.573455305817531
0.4269572035545489 -0.012301478637513534 0.15661884717699762 -0.1498580403022785 -0.17231716643609646 -0.3190483592504176 -0.14692651376486635 0.29746318974019226
-0.1319549324355371 -0.23335675133410808 0.6344481423531494 -0.20597398184294438 -0.1276978104508544 -0.15792175235388087 0.23664215565637328 -0.605086701908671
0.532541293105561 -0.6876479310609444 0.45643723802783004 -0.11712946520039366 -0.15812703083084154 -0.3052286469610144 -0.08473638530479959 0.02682518511022085
0.4888860512811827 1.6759010565928334 -0.4151020297228118 -0.20325418842551904 0.3300358211058531 0.2928055425137473 1.9727490518441242 -0.45376528718759435
-0.15636351917963157 0.3754723037157176 0.2446826002093048 0.6428935634164125 -0.0590639039124312 0.6297993193508354 -0.6605618864789127 0.3265008470645181
-0.25322793919431563 0.4656707863218392 -0.058388433025560724 -0.19803012029809933 -0.02652619282357428 0.2864676946153316 -0.3090508381627038 0.17984789307895369
0.07716260170859943 0.262142624751695 0.14443127298536507 0.2475119011786773 0.2241532837164865 -0.016470131841626445 -0.5708704927234792 -0.10072658880795382
-0.28754104395384855 -0.08456328006838487 0.3255653097640222 0.09731804624455336 0.16410517818601125 -0.3422441136108981 0.7574302715930802 -0.044148867811487504
-0.3532415888338009 0.6279113790681212 0.009234615755963634 0.6329601749298118 -0.6246054646800562 -0.106299031095468 0.9937001940310213 0.14248581261256754
0.5013489499022786 -0.1756907850470368 -0.2393859573229943 -0.16234113388443022 -0.4709437283490848 0.43945188599062596 0.0527693820782903 -0.22785145200068632
1.4029773953748372 0.2689680564836287 0.7707637865696888 -0.8677637862593913 -0.2379349020039155 -0.13158106195186398 -0.45512057680326784 0.14979016448919552
-0.10693871297566164 0.26084984854738863 -0.2744240831646622 -0.5077390621263881 -0.026166239599157818 0.42367861887890146 0.4633744291807673 -1.213696659894697
0.16087328765373482 -0.29724110478847066 -0.36286496470153856 0.029911075648158012 0.3740028212359141 0.3527465215766039 0.15095254163874816 -0.3281747553100117
-0.5864096653224433 0.5590262498967793 0.3463049196020784 0.11945022460949621 0.010291782614368795 -0.2283175397863539 -0.9712675280640923 -0.204337665308343
00000000: 801c 9224 d20a a9bf dc02 fa91 e8ce aebf
00000010: f2f8 cc13 4a5d d13f e836 bfc4 36ed d9bf
00000020: ae3b 311a 71ac f43f cb2f 5e60 37df edbf
00000030: 60fa 5bc7 a58c cb3f f776 30e5 f113 e23f
00000040: 4fcb 171b 063c d23f 8a41 8153 82da eb3f
00000050: 15d8 f0ea a9b9 d03f 4575 36b2 6f6c c33f
00000060: 59e0 787d 1846 a63f 6cef 8f09 08f4 d5bf
00000070: ad7a 7c65 e1c0 dc3f 42ae 92dd bd5b c3bf
00000080: b924 af8f 2c32 b33f 0307 9c0d 36b2 b33f
00000090: 4a7c 079d 7d7f d3bf eb6d 173e 6c86 e13f
000000a0: cb90 fed8 5223 d3bf 71a7 241f 2e8b e73f
000000b0: c6d6 3a72 38f2 d5bf 45e9 8e83 0fed d03f
000000c0: 63f5 2e29 c313 f8bf 9a33 b1ce 8994 de3f
000000d0: 3034 3a12 f750 dcbf cd24 b44d 16c1 babf
000000e0: 2211 f089 3fd0 a9bf 64ba 516c 0ea4 ffbf
000000f0: 9d7b 474b 36a0 e23f 5fc6 383b 0b39 d33f
00000100: c6c4 9143 2691 c2bf 975a ec7f 29f6 ecbf
00000110: 06d7 1990 e442 d4bf 620d 4755 fdae e13f
00000120: e6f7 1145 2b3d d4bf d5c1 0349 93ce ba3f
00000130: 7373 f5dc ffa7 cebf 4380 84dc e76e e1bf
00000140: 1232 4152 2c44 c63f 458e b14c e319 debf
00000150: ae1f 5180 ea9f b83f bf56 5926 cfa2 b53f
00000160: 9cfd dbf5 cddf e7bf 4315 6a3e 4d9c d2bf
00000170: 58a6 769f 1f55 d33f f7ba 193a 138b a03f
00000180: 04e8 42fc d332 a5bf 473d 11cf b83a a33f
00000190: 0ef0 6e03 151c e1bf 99ae 3cf8 5dc9 963f
000001a0: 675f f374 1f28 c53f e611 25f4 3049 d43f
000001b0: a572 ae2f 0760 c33f 8c95 0e01 965c a7bf
000001c0: 581a 4258 f475 e13f 06ab 6507 dc53 cb3f
000001d0: 576d c811 dc61 e8bf 37c9 b1ae 92b6 c33f
000001e0: 3a1d 0432 49da e6bf 5351 317a f1aa dd3f
000001f0: 9fb6 a652 1c0e d73f 19cb d0c6 7d58 a13f
00000200: 2746 9cf5 0516 ddbf 91d5 0244 e361 d2bf
00000210: 6cd0 1e84 c08f bb3f bd09 ca1b 8886 e33f
00000220: e46c 04ab 2626 d2bf 07e6 cdc1 70ad c2bf
00000230: 551f 975e 8ecc d03f cefc a3c2 4e73 cdbf
00000240: 2c2b 43b3 9f61 d43f 57e7 88ab af58 96bf
00000250: 78b9 4392 ff31 f43f 72c0 dc63 f039 d93f
00000260: 5ac4 6989 e86e a33f da61 27d4 03a8 ba3f
00000270: b240 1bb1 4934 cdbf 2e98 8ff6 6442 e43f
00000280: 302b d459 b23e dbbf 1f1d 1277 7671 54bf
00000290: 75bf bebb 7691 e03f 5201 b4d0 ae0e b2bf
000002a0: 60ff 6210 ae79 9dbf c0b1 1231 9534 b03f
000002b0: 2923 50b5 3248 d23f 1394 d3d5 31b6 d0bf
000002c0: 8f04 dfba db1e b9bf 9d76 5c66 5086 f53f
000002d0: b135 8627 09c6 babf a4e9 39a2 fdc5 c73f
000002e0: 3241 fb83 ada8 e53f 5c60 170a 0245 eebf
000002f0: c701 ffab 3412 0040 a6c4 a446 d2b3 d6bf
00000300: c8b5 dde0 e645 bf3f f671 16a0 cd27 c63f
00000310: 83b7 0893 9fcb dbbf b0b3 434e 72fe f53f
00000320: 2e0f 60e9 e816 da3f 90ef e9ed a10b df3f
00000330: 9f6b 2b8b b9ab d2bf a17e 7843 ac86 e5bf
00000340: 0cf7 f440 3cba dd3f f40f 71f3 6f85 dbbf
00000350: 3e5e fc70 2bf0 c83f 870e 6411 a6e5 dbbf
00000360: 9e5e 34f7 0ef9 e13f 6baa d18f e830 d73f
00000370: 3703 e092 e91f e63f 237b 9495 fe5d c23f
00000380: 69ec 093d f488 debf 0e57 e64c 402a 45bf
00000390: 8092 9348 749f fc3f 35de 156b 1e80 b53f
000003a0: 09e6 6003 4347 c03f 1965 2e40 a5e3 df3f
000003b0: 8f31 ab97 6ab2 e0bf 060c 9b87 e786 b3bf
000003c0: 029f 9d85 d894 cbbf b433 23be f794 c03f
000003d0: ec52 a2ea 7e33 d1bf bc83 4c67 0a4c e03f
000003e0: 191b a013 febc e8bf 0cfa 93f1 46d4 d5bf
000003f0: f2d5 3bbd 42af cd3f ff0b c924 f98b a73f
00000400: c984 76b0 d192 dd3f 44db e7c9 3742 d9bf
00000410: f0d2 e14a f57e c23f 73ce e0a3 f31c cf3f
00000420: 6d2f e651 0645 c9bf 24ea 6d31 5498 debf
00000430: e9da 6028 ac60 9d3f e36f 9718 2142 c53f
00000440: fc5b 7268 6fe5 dcbf d83c b19f 2008 b73f
00000450: be9e 5feb 9d8b d2bf 0955 f1c4 f2d6 e13f
00000460: eacf 91d1 856a d53f 17d7 d6e2 f7a2 b2bf
00000470: 9ada d212 bb43 cc3f f586 06f1 be59 e2bf
00000480: debc 834e 4453 db3f 0946 8683 8431 89bf
00000490: 99fd 471d 160c c43f 320a 125b 8c2e c3bf
000004a0: 3ef3 3029 7d0e c6bf 13ac 34cf 496b d4bf
000004b0: d187 c4ed 7cce c2bf 84ab ec0b a309 d33f
000004c0: 7fa2 ad33 e6e3 c0bf 35f1 a34f a2de cdbf
000004d0: 7645 cd30 664d e43f edd1 ebfd 5a5d cabf
000004e0: 0120 d4df 6658 c0bf 4ded d7ac c736 c4bf
000004f0: 8d14 b347 4a4a ce3f da26 7ec9 de5c e3bf
00000500: cd0d b509 940a e13f c333 e23b 3601 e6bf
00000510: e763 8088 4436 dd3f 6604 6f56 32fc bdbf
00000520: 271a 04ad 813d c4bf 25fe 1fbc dd88 d3bf
00000530: a355 aaa3 48b1 b5bf cdb9 07b3 0f78 9b3f
00000540: de49 6eb8 e849 df3f 795e 56a0 7dd0 fa3f
00000550: 9f69 8a1a 0891 dabf 2104 08b6 3b04 cabf
00000560: 0f1f 8a90 4e1f d53f 01c8 4b75 53bd d23f
00000570: 192b 4e4f 6190 ff3f 10f8 218f 7d0a ddbf
00000580: 81fd 9444 b803 c4bf 7ed1 40fc bc07 d83f
00000590: 694c e66a c251 cf3f 2bd6 b585 9592 e43f
000005a0: fe1f 5bbf 9f3d aebf edf4 f4e6 5027 e43f
000005b0: de26 6dae 5223 e5bf ac89 10cf 63e5 d43f
000005c0: da79 51f5 e234 d0bf 241d 7dd7 8ccd dd3f
000005d0: ce72 9eb4 16e5 adbf f5d1 260d 0d59 c9bf
000005e0: c397 a8aa ae29 9bbf 72ef ee98 7c55 d23f
000005f0: f173 ad2a 7dc7 d3bf 85a9 8379 4105 c73f
00000600: a60d d0a2 edc0 b33f 658d 0cdc f1c6 d03f
00000610: 04f3 fe54 b97c c23f 3173 7750 78ae cf3f
00000620: 8d39 6d07 0eb1 cc3f f37c 7bd6 8bdd 90bf
00000630: c1f5 0f32 9244 e2bf a08e c4bc 37c9 b9bf
00000640: cf86 028d 1267 d2bf 5011 566a f0a5 b5bf
00000650: 6a82 89e1 0fd6 d43f 3354 eee1 d5e9 b83f
00000660: c9e2 b402 6601 c53f aa44 cdda 53e7 d5bf
00000670: 03c4 af68 de3c e83f 8dc0 cf2e ae9a a6bf
00000680: 4f35 e89b 829b d6bf 6a48 bc9a d917 e43f
00000690: c4cd 4d25 99e9 823f b1ce 5fb2 3541 e43f
000006a0: e984 7699 c4fc e3bf 27ca 26ce 6936 bbbf
000006b0: 028c 6c59 64cc ef3f ac50 a8a0 f93c c23f
000006c0: f7da f6f3 0c0b e03f c727 fe1f 097d c6bf
000006d0: f575 e9f4 32a4 cebf be22 6a22 98c7 c4bf
000006e0: 0a00 e129 f123 debf 53b2 9fcd fa1f dc3f
000006f0: f144 83a4 9604 ab3f 2b33 5883 3c2a cdbf
00000700: 5298 e26c 9872 f63f f303 91cb c536 d13f
00000710: 0641 08d1 18aa e83f 1b64 548f b8c4 ebbf
00000720: 2b86 579f a674 cebf 2698 edf2 a5d7 c0bf
00000730: 09d4 460e b220 ddbf d22c dff8 522c c33f
00000740: e323 e8e2 5560 bbbf 975d 2b90 c3b1 d03f
00000750: 1b54 9b07 2a90 d1bf 6d81 57fd 653f e0bf
00000760: 91c9 599d 52cb 9abf 6c5b 06ed 8c1d db3f
00000770: 8094 c838 eda7 dd3f cd31 5830 4d6b f3bf
00000780: d6ea a2f2 7e97 c43f 1cfa 058e ff05 d3bf
00000790: a577 10f9 2d39 d7bf c9bf c94e 02a1 9e3f
000007a0: a47a 7487 a9ef d73f e0c0 7c25 6693 d63f
000007b0: 7c12 cbb2 6952 c33f b279 5bb0 d000 d5bf
000007c0: 4ac8 d333 dec3 e2bf aa30 9d04 8be3 e13f
000007d0: 27a1 081c dc29 d63f 9398 3238 4a94 be3f
000007e0: ba54 f8ad db13 853f 1f27 3e57 8239 cdbf
000007f0: 1a77 96a3 9f14 efbf d58f eb92 bc27 cabf

rnn.weight_hh_l0 f8 [32, 32]
-0.24604960971721432 0.010181398718142802 0.23690764617563675 0.3053875105463676 -0.15241838440927816 -0.25320222074095433 0.15292144983776884 0.05848186661721
0.1353969167991426 -0.009261116888753225 -0.17403896020029413 0.21987390776954022 -0.11004065961361174 0.2035338989689153 -0.19691345607176874 0.02222066565905226
0.0577220293186671 -0.20483840309602033 0.12881061323922877 0.1642568003624 -0.33515682366053057 0.08064936199765613 -0.2001093736730086 -0.19566358738883413
0.07155903148821872 -0.17427188806105479 0.20821799380068456 -0.06736386875301703 0.04522481567404558 0.15160215570912325 -0.11311591852168734 -0.3755439576335769
-0.32935149038215367 0.09653984425063074 -0.1364431324127244 0.37810868896959904 0.29559918396133494 -0.2425026617340167 0.1457088265900177 -0.191144996687871
-0.10111809459537836 -0.06605425856452019 0.039567170104768644 -0.3711281245599902 -0.4841586278417515 0.008261787033320953 0.13125572438423067 0.3669976170408011
-0.28514923515087914 -0.06482818124172955 0.24875077271790705 0.22983735641286443 -0.020223917367920296 0.07016157895549965 0.3540034547274555 -0.1704346713836595
0.17815923630224845 -0.1298393108175445 0.23389951625896935 -0.1397132407343712 -0.09548367036776863 -0.410781159036529 -0.0780202579987886 0.024964963960570213
0.1445136576667671 0.28261815592137235 -0.32429073757728366 -0.12415797850283797 -0.03619531454887703 0.07953463957820948 -0.05071664565667247 -0.05458601703820972
0.12078908171097356 0.1959217581731731 0.1283765289260672 -0.04075587054459899 -0.0811382811563995 -0.15481830876531827 -0.4933500464992825 -0.0957535137201155
0.016908875716514737 0.37812031110558847 0.1763586822076859 -0.41894857409961445 0.2545815833943132 0.3853326412766594 0.1604289466481304 0.011835363935859565
-0.0037778723779254408 -0.004648416708006393 0.2833827625354123 -0.3746537282082122 -0.14973089194176875 -0.03038083733609118 -0.2740754457895101 -0.25065278196407276
-0.26698679745771553 0.041131925330695804 0.0677214050605372 -0.08305712376629129 0.15855634054942927 0.01206771076203839 0.20824877976750295 0.25161825515052233
-0.09910258202913672 0.2072556287593639 0.08845222779975172 0.3218115211078634 -0.1756513981412094 -0.07858998184533054 0.2623778790360128 -0.02088399399570273
0.029892920090410887 0.047498786811053045 0.05132668745121523 0.20414343592800996 0.05295395762529968 -0.01663333103241673 -0.19782214551837748 0.22100769855318456
-0.035454679620683695 -0.058119122229572655 -0.21263738030079363 0.16815112039854122 0.15640492401536465 0.022308391725857225 -0.10580314500083547 0.11468404995541631
0.2611793602094406 -0.03294609181090783 -0.28100237592281363 0.3924546161153808 0.26783592306909687 -0.15518564671339652 -0.3176578619650092 -0.06982136712886182
-0.20337727539364925 -0.07420491834793155 0.3371739718770973 0.15823904870496458 0.11736994194410008 0.4996503739278823 0.10530083101354842 -0.09390285829431201
0.1715115726854994 0.006726126042963623 -0.00879079415204666 -0.4275520812552589 -0.07539116809019976 0.02669776907353312 -0.3145877150979725 -0.3187951490959044
0.1494725761808576 0.4017930865183921 -0.17031973221907068 -0.08776940485898706 -0.069523416693798 0.0767307349570057 -0.3197010899715463 -0.08867673260543112
0.03509713058345397 -0.15398066457579226 -0.03257299644362094 -0.13864809259025615 -0.12741492158727186 0.0495570363026816 0.23983163996818088 0.3120682180151642
0.4061352041717946 0.04465139631889269 0.2037426978656875 0.10260904360610053 0.2699777354797712 0.27809799978939503 -0.04421802032676149 -0.0861278099726323
-0.38259150024195204 -0.012281647849992142 0.1903423069135951 0.15593060313971466 0.17637749076604128 0.21307273437689841 0.25021738607691635 0.05850170982863894
-0.19769889851910494 -0.19891828613193582 0.024079767007657855 -0.06551495826190018 0.07403353019299345 0.11762031348849918 0.31906937604226754 -0.2608251313495038
0.11348455978839828 -0.2660202055053875 -0.1638148787284071 0.2274803163261891 -0.12661052754090238 -0.20932546213607972 -0.28993973674327195 -0.0893421250750263
-0.0568873802634062 0.14990584095456785 -0.2718909811596228 0.26291232549458604 0.033120868667187976 0.13866520604483415 0.2773831789059155 0.046571984021457645
0.027088107417626694 0.20668065722277265 0.0019428438949214964 0.3168160746827714 0.07443310825456494 -0.04039609724046703 -0.24644897550480413 -0.008292807371065216
-0.0867559804022701 0.1928979132895647 -0.12704868753300064 -0.14620251940524828 0.1358225325424978 0.11283894629352244 -0.2917353190425606 -0.1310607686935214
-0.14927824457909628 0.04229465817532411 -0.09896987523340875 0.08477531589574384 0.08281624830277262 -0.16584954259034226 0.30508558178994527 -0.342016765332684
0.2902044501118674 0.16313148943406042 0.5726882018765678 0.3230205923428065 -0.33830724704211884 0.5086743735314527 0.004013191320273413 0.20246826255145609
-0.14432213896094198 -0.4183699987074912 -0.11214218706863095 0.00932051189117387 -0.08988900326009465 -0.10767586908659263 0.1945403293897285 -0.3378469383916022
0.08252217838147094 -0.1624697745479979 0.04297303787034589 0.1459069356181866 0.08277978229300742 0.1832629679920203 0.6038407899109013 -0.013438904472383396
00000000: 73e9 76b9 8d7e cfbf 2ff9 2c34 fcd9 843f
00000010: d893 3f60 fd52 ce3f 02d3 990e 788b d33f
00000020: b16a 2c14 7282 c3bf a0d8 5616 7734 d0bf
00000030: de7e f418 ee92 c33f c055 0fd1 55f1 ad3f
00000040: a5d6 d0a8 af54 c13f d103 4b11 7ef7 82bf
00000050: 4a22 259d e846 c6bf 2194 8e05 d424 cc3f
00000060: 974e 45ea 9f2b bcbf 3974 d917 660d ca3f
00000070: f23b fcca 7534 c9bf 0934 34a1 03c1 963f
00000080: 4067 5de8 bd8d ad3f 2592 2111 2538 cabf
00000090: 9ebe 9ebd dd7c c03f b5de d9e8 5d06 c53f
000000a0: 52ce 299b 3573 d5bf 8623 39c4 6fa5 b43f
000000b0: 0739 c617 2f9d c9bf bf31 6d22 810b c9bf
000000c0: 77af f953 b151 b23f b9cd ea8d 8a4e c6bf
000000d0: 9a05 e820 e3a6 ca3f 28eb 392d c23e b1bf
000000e0: 6147 9300 b527 a73f 5b0b 630e b367 c33f
000000f0: 6828 b532 2af5 bcbf a9c8 0f86 e908 d8bf
00000100: 2322 0546 1814 d5bf a540 d1d1 d5b6 b83f
00000110: 47fc bcf3 f776 c1bf a44d 5dc9 ee32 d83f
00000120: 6ba5 f5d6 18eb d23f 3897 abc4 530a cfbf
00000130: 1fa9 783a 96a6 c23f 74c2 c872 7077 c8bf
00000140: 092c 521d e0e2 b9bf f8cf 4b90 eee8 b0bf
00000150: a3c4 30eb 2542 a43f 2c1a 672d 90c0 d7bf
00000160: 0b05 2a78 74fc debf 52c3 ea48 8eeb 803f
00000170: ce4f d2d1 fccc c03f 6f9c b992 e37c d73f
00000180: c5f4 dc93 e23f d2bf 03da 4a66 9498 b0bf
00000190: 49cd d6b8 10d7 cf3f e19e 987c 4f6b cd3f
000001a0: 63d6 c41e 94b5 94bf 1eb2 0cf7 1bf6 b13f
000001b0: 936d 2e1b fea7 d63f ef41 d9a5 cdd0 c5bf
000001c0: d201 b3fe ebcd c63f fb27 d914 939e c0bf
000001d0: 8df5 705a 6bf0 cd3f b4da e29b 1fe2 c1bf
000001e0: a117 8829 9e71 b8bf d2fd f70e 3d4a dabf
000001f0: 65c0 87b8 22f9 b3bf 789f 065f 6a90 993f
00000200: 7e86 c06c 6c7f c23f 350a 3c76 6a16 d23f
00000210: d891 12f0 2dc1 d4bf 7208 3539 d1c8 bfbf
00000220: 1000 8338 3188 a2bf ef36 e3d3 615c b43f
00000230: f49c ea3c 88f7 a9bf 1bfb fecb b2f2 abbf
00000240: cf99 a983 08ec be3f 56dc f6d3 f613 c93f
00000250: d0dd a760 a46e c03f 06d7 3716 f4dd a4bf
00000260: 3538 0578 7ac5 b4bf 8e0a 7c1a 16d1 c3bf
00000270: a672 cc12 0c93 dfbf fdac e761 4d83 b8bf
00000280: 73b5 db70 8f50 913f e1b7 8988 1f33 d83f
00000290: 304d 39da eb92 c63f e1ac 1dae 0dd0 dabf
000002a0: 0feb b58d 104b d03f d154 173d 4aa9 d83f
000002b0: cabc 978b ef88 c43f ac81 53a8 233d 883f
000002c0: 9c0c f9c9 c5f2 6ebf 6138 d3db 370a 73bf
000002d0: 22be 5574 f122 d23f bea3 7ea1 53fa d7bf
000002e0: 8e9f 0bc2 612a c3bf f969 227b 271c 9fbf
000002f0: 415d 13bd 738a d1bf a1f9 4bf7 b10a d0bf
00000300: c7db e2ca 4f16 d1bf 16d4 3b64 3e0f a53f
00000310: 9c63 f9a3 3056 b13f eaaa 464e 3b43 b5bf
00000320: b9da 9dfc 924b c43f 82fd 7bb8 f4b6 883f
00000330: 3644 4461 e5a7 ca3f 4bad 3c74 831a d03f
00000340: 22a9 c36c c95e b9bf 2979 b739 5a87 ca3f
00000350: c184 a821 cea4 b63f 2898 a859 8f98 d43f
00000360: 8aaf 41b9 be7b c6bf 4ba5 d119 791e b4bf
00000370: 41d3 6996 ccca d03f 9fb7 e21c 9d62 95bf
00000380: 9f57 aee8 3f9c 9e3f 2403 e8cf c251 a83f
00000390: daab 07d8 7d47 aa3f f37e 8042 5f21 ca3f
000003a0: 968c 63f8 c71c ab3f 8628 3bf3 5308 91bf
000003b0: a786 b66e 3c52 c9bf a79e b9f2 fa49 cc3f
000003c0: 6d07 eca2 1d27 a2bf 7719 7f22 cac1 adbf
000003d0: 6546 26a1 b337 cbbf 0de1 72d5 f985 c53f
000003e0: 5828 ca98 1305 c43f 6a3f 8ed3 02d8 963f
000003f0: 53b0 9737 ea15 bbbf 846c ee13 ef5b bd3f
00000400: 1558 9fa2 29b7 d03f d5bc b765 4fde a0bf
00000410: 3ef4 ab63 f1fb d1bf 904e 58f7 f91d d93f
00000420: c6a5 9148 3924 d13f b0a8 b88e 1fdd c3bf
00000430: 703f 1da4 8154 d4bf 8b66 6128 d0df b1bf
00000440: 0c5c 483d 4408 cabf 2ab8 81f1 17ff b2bf
00000450: 5692 9123 4294 d53f 22a9 9159 2d41 c43f
00000460: 9eee 2ede f40b be3f 4f15 dd8f 45fa df3f
00000470: 44df 71c9 fef4 ba3f 81ff 5f89 040a b8bf
00000480: 77ed c859 17f4 c53f f601 22b6 da8c 7b3f
00000490: 097c 1c6b e800 82bf 20ff 9467 035d dbbf
000004a0: 21ca 5ae9 d54c b3bf d41c 30f4 a856 9b3f
000004b0: 136d 0483 3422 d4bf f361 dfc4 2367 d4bf
000004c0: 533e 2cd9 ea21 c33f c0be 9659 fab6 d93f
000004d0: 0b48 df77 09cd c5bf 856f 7543 0e78 b6bf
000004e0: 068c 0161 49cc b1bf b306 3d1d a0a4 b33f
000004f0: 1518 7b8f fb75 d4bf cbda 74b2 84b3 b6bf
00000500: 1e29 1448 40f8 a13f 3be1 486f a3b5 c3bf
00000510: f888 ea64 68ad a0bf 9df9 a97f 38bf c1bf
00000520: b4af 9ed4 214f c0bf e0d4 6934 8a5f a93f
00000530: 13cd 1a9d cdb2 ce3f 91c0 9ff9 ecf8 d33f
00000540: 5a04 eb82 1efe d93f 2f1d d23d 8cdc a63f
00000550: 4ee3 10a0 3d14 ca3f d5e1 8f16 9644 ba3f
00000560: 1029 22b2 5047 d13f ff6b 8b8d 5bcc d13f
00000570: 0205 658e bea3 a6bf 7bca 1bdf 780c b6bf
00000580: 9912 510f 617c d8bf 2288 dade 1e27 89bf
00000590: 5c9a 9eff 225d c83f dd1e 77b4 88f5 c33f
000005a0: b59b 4ba1 8993 c63f a3b6 e8a4 f745 cb3f
000005b0: 50d2 85c8 8f03 d03f 67bb f2a4 eff3 ad3f
000005c0: b421 cc8f 324e c9bf 1fab c186 2776 c9bf
000005d0: 123a 2ccf 5da8 983f f437 229b 96c5 b0bf
000005e0: 7b80 fc86 dcf3 b23f 5d43 c767 5d1c be3f
000005f0: 336d d0f5 a16b d43f d8be 47e4 5bb1 d0bf
00000600: 7462 e4f8 520d bd3f 3822 ae9c 7906 d1bf
00000610: aa4c 5ecd e2f7 c4bf 5e67 8d33 131e cd3f
00000620: af09 8f15 c634 c0bf 2c1a 0c3f 2dcb cabf
00000630: 8de2 c765 5f8e d2bf 8b35 5a21 20df b6bf
00000640: fca8 92bb 5720 adbf 258b 3056 1d30 c33f
00000650: 8f1b 0a6e a966 d1bf 41bb ed37 8ed3 d03f
00000660: dd3a 7bef 37f5 a03f 0120 870e c8bf c13f
00000670: 9321 7760 a5c0 d13f ab61 9078 48d8 a73f
00000680: e380 e01d fcbc 9b3f 8169 be03 8374 ca3f
00000690: fadd 5abf e0d4 5f3f a203 e7ed b646 d43f
000006a0: 6767 b155 0c0e b33f b453 1119 ccae a4bf
000006b0: e381 f6d8 a38b cfbf 4e24 9bc3 d1fb 80bf
000006c0: 1b67 8fd2 a335 b6bf 2fcd 85fa e0b0 c83f
000006d0: 621b faa2 2143 c0bf bf1b b89f c3b6 c2bf
000006e0: f13a aafb a162 c13f 31b8 0b60 03e3 bc3f
000006f0: 230f 989d caab d2bf cee4 a969 99c6 c0bf
00000700: 5e5a 3cad 8c1b c3bf 0529 513b a5a7 a53f
00000710: 42ac 6af9 1656 b9bf 01c1 47c9 d5b3 b53f
00000720: d4ae 0916 7233 b53f c5b4 bdcc 8e3a c5bf
00000730: 7236 11ad 8586 d33f c867 7249 9ae3 d5bf
00000740: a795 98af b592 d23f 6495 081e 7ee1 c43f
00000750: 4cad 3b35 7653 e23f 7100 0390 5eac d43f
00000760: a3ec 8270 d3a6 d5bf 2630 d47a 0f47 e03f
00000770: da15 92d7 2270 703f 0b77 11e3 7aea c93f
00000780: 9a87 76d9 2579 c2bf 11e1 84f5 92c6 dabf
00000790: ed30 f6b1 59b5 bcbf 755c 09ee a116 833f
000007a0: 39ab 4539 f702 b7bf 4e98 4b50 a590 bbbf
000007b0: 97b0 3d90 b2e6 c83f aa85 dcc3 489f d5bf
000007c0: 22d5 5769 2c20 b53f 9fd5 2240 cfcb c4bf
000007d0: 7f9b 86e0 8f00 a63f 21ae 5e16 14ad c23f
000007e0: 70ed b749 0e31 b53f cefb 0b33 2975 c73f
000007f0: 620f 95eb a952 e33f c7a6 9f39 db85 8bbf

rnn.bias_ih_l0 f8 [32]
-0.087985552609002 0.06332782131165192 -0.1187584665730747 -0.15736145799430212 -0.17798123045191602 -0.12792302364841676 0.1463390708770213 0.027405691317425006
0.0453411938678621 -0.1523886573062795 -0.22501255451632698 0.0064241125503384025 -0.040524116201672844 -0.24462502258814103 -0.07652313786813673 0.10847833842448121
0.062404031979877976 0.09241656395573924 0.16584675219044173 -0.004306234825717337 0.20604513828207985 0.014888761188802467 -0.1545288562828363 -0.039016395507738166
-0.21688910295720942 0.2430106255461217 0.10709962938733607 0.09510013864662495 -0.16002749295199478 0.059101810731980044 0.1784335565823243 0.12368405308497527
00000000: 09e5 f99e 3886 b6bf cfe1 7589 4036 b03f
00000010: 6cf1 0d72 f466 bebf 8842 de95 6b24 c4bf
00000020: 7be1 0bc6 16c8 c6bf 67d9 7c19 c85f c0bf
00000030: 4e9c c519 3dbb c23f 86fe bacf 3c10 9c3f
00000040: a5eb a501 f636 a73f 95b6 b4b5 7881 c3bf
00000050: 2d24 6b1d 36cd ccbf 28d2 f394 2b50 7a3f
00000060: 902b 92b3 93bf a4bf 5950 e66b df4f cfbf
00000070: 1bec 8736 0597 b3bf 8289 db83 3cc5 bb3f
00000080: 5ff6 fbd8 6bf3 af3f 8e70 cca7 9ca8 b73f
00000090: 4323 6764 773a c53f 74f6 ec1b 6aa3 71bf
000000a0: 29ee 35e5 af5f ca3f 8c25 12b3 ff7d 8e3f
000000b0: d4f3 0200 9ac7 c3bf b054 6dfd f4f9 a3bf
000000c0: ccad 07aa 05c3 cbbf 478a a6e0 f81a cf3f
000000d0: 4fe0 a19d e16a bb3f ea12 5591 7b58 b83f
000000e0: b347 58e8 c77b c4bf 5ddb 74b0 9742 ae3f
000000f0: a0d8 0329 e9d6 c63f f464 0913 c2a9 bf3f

rnn.bias_hh_l0 f8 [32]
0.14996270114180024 -0.033913982692065005 -0.11456285092385139 -0.1568414447215397 -0.2382597131870722 0.11023150687679197 -0.014913397947366267 -0.11971661729444381
0.14647506196612053 -0.32164225993021917 -0.20221525310469737 -0.054210768707672344 -0.08512870822695069 -0.36937532383001814 -0.06152045506307528 0.1545975813310524
-0.05379106558577405 -0.07452152487854648 0.08739556577190653 -0.04341594170438076 0.13283659760405625 -0.08046657070893323 -0.10558271408618233 -0.006260037122652625
-0.09425715824123322 -0.0068643090079808875 0.04603924547143503 0.189803723556064 -0.14562890322173194 -0.133219221553711 0.12194456579863198 -0.21154059026467337
00000000: a50d 8350 fa31 c33f 2d3d 146d 2c5d a1bf
00000010: 6df1 0db2 fd53 bdbf 8442 de65 6113 c4bf
00000020: 5de1 0b56 4b7f cebf 894d 06cd 2138 bc3f
00000030: 523d a663 ea8a 8ebf 1740 118c bfa5 bebf
00000040: d67a 69e0 b1bf c23f 4d5b da6a c995 d4bf
00000050: 0d24 6b7d 30e2 c9bf aa85 618d 83c1 abbf
00000060: 2d15 c9b9 feca b5bf 5828 f365 d8a3 d7bf
00000070: 26d8 0fed 9b7f afbf dcc4 ed81 dac9 c33f
00000080: 3e0a 04a7 808a abbf 718f 33b8 d713 b3bf
00000090: ff45 ce48 8e5f b63f 8c9f 7d43 9d3a a6bf
000000a0: 42ee 3525 ca00 c13f 56bb 9d09 7599 b4bf
000000b0: 06e8 0500 7807 bbbf d5a7 6aeb 1fa4 79bf
000000c0: bd5b 0fb4 3c21 b8bf aac2 2eeb bf1d 7cbf
000000d0: b3c0 43bb 7492 a73f 7489 aa08 7d4b c83f
000000e0: b047 58c8 f7a3 c2bf 43c9 e2d3 530d c1bf
000000f0: ffb0 0752 c237 bf3f ae4d 7b16 c313 cbbf

rnn.weight_ih_l1 f8 [32, 32]
-0.5269469629932737 -0.10679711362948399 0.3788819442053264 -0.6042049856982042 -0.12976285739519225 -0.44430640963825024 0.19639968107271402 0.16589951601259237
0.1194612822427809 -0.4585310264423068 -0.21817294349315605 -0.043888134504826204 -0.3047004811975619 -0.22721222115311593 -0.2986598104115673 0.4528756054200232
-0.20449300318208904 -0.07150643155692339 -0.12811848623363747 -0.038961485875135676 0.0412097860794016 -0.013992225929186494 -0.2660549309574743 0.06313836530312228
-0.30578816324213015 -0.28409289341115956 -0.02804749367422239 0.3895967863553285 -0.04915036852610848 -0.041765330140274955 0.12886679110135865 0.6722962083744817
-0.24889632972925027 -0.4114213680694603 -0.19319060800326643 0.06085971471285955 -0.5075885907239269 -0.11078100597847894 0.2603902726988324 -0.401927270076149
0.10002393460695642 0.0950794257137503 -0.35428271001443273 -0.8144464844150604 -0.018502060324666638 0.12238556311294688 0.050836666271153595 0.03638833900328164
0.09865001866938312 -0.4620413830892422 0.24777510197850428 0.11657077326920628 -0.13082326886729495 0.0774679210075503 -0.06271720616077177 0.1777270806678022
-0.17729100460057645 0.37776183954237125 0.0003824794643798723 -0.3341171287108531 -0.13582399622594815 -0.13034286515774937 -0.27446454961936284 -0.03538921935743634
0.4409258447958447 0.13100554859450061 0.018376715310970498 -0.09126721333211531 0.2430135814768048 0.10784381611145091 -0.3407408182838304 0.20107337533902014
-0.2009183675315777 -0.4217279947582851 -0.25162144967501665 0.3292942093846794 0.11103808160475406 -0.2518911838364509 0.15495596562393757 -0.36343989204185084
-0.32223993698449555 -0.18826045995073737 -0.16342322076798801 -0.40482058939636073 0.09281930960466592 0.10469379147048466 -0.19892685647089858 0.18175290649228548
0.11578795829890387 -0.19478149190964106 -0.10591779424187042 -0.0803555350324147 0.637769634469227 0.41861584051822326 0.0917295796139709 -0.3477428613221536
-0.2156034210188114 -0.1861282161429554 0.01517761088396132 0.15882627523662426 -0.0026688066675233445 -0.20178323758738498 0.24338680921528535 0.4662433340628947
-0.11468962996905331 -0.3650432361102351 0.20393550650094502 0.39466497786550225 -0.2690256163904459 0.0664942002242846 0.28263668756325666 0.07005694213565508
-0.5189811738351644 -0.044084014705941456 0.039100231405170514 0.4620890069509565 -0.03907233550201738 -0.3608208863401877 0.12745708897465524 -0.19182770943528996
0.052668990012985625 -0.10339405546304999 -0.28156389251055863 0.08719348336567438 0.2677106140186186 0.13885913009164186 0.07163115921104923 -0.3496368361843239
-0.3830471434303575 -0.427667145231879 -0.3987137346417516 0.41555203813761776 0.15038298374956965 -0.7034154753367685 0.04673469460628423 -0.4479284828199867
0.10353615804404621 0.0721617005557598 0.1649150981272096 0.0032066490099365353 0.43534957826232923 0.5959076474230167 0.5870486013421347 -0.2010454104894874
0.39899018129601393 0.09945169728052419 -1.0097095406818635 0.36855533850267386 0.3738380035417636 -0.42298061072143794 -0.2709521899810335 0.18989993251614468
-0.38440073622418397 -0.007023159507294318 -0.17947304109004986 -0.2684146642833238 0.16621244237956295 0.17945772466744464 0.3147863778312797 0.3996017576141597
0.5003816735304594 -0.07359518947317358 -0.5357650072248844 -0.4890738542433665 0.1197022446131668 -0.5639738576763198 0.02580691339319893 0.15619514386044536
-0.02947492878378642 -0.26041617113588916 -0.07768089527730754 -0.10528193624122449 -0.15567278934173606 0.24189599799585915 -0.48130722381849506 0.3121872378859119
0.41289132490405267 0.05933540722900473 -0.12125450477694559 -0.2821197819104531 0.26687338138532984 -0.611572113646078 -0.7794545994744848 -0.10501215991868103
-0.1268070051079654 -0.08927912206542794 0.008452534029917013 -0.7134467943390949 0.5547962460580568 0.20461118039886786 -0.5270204047160773 0.31517982589177207
-0.1033011947516647 -0.16020192798438063 -0.6533968754747022 0.20459608897945075 -0.5419877818678634 -0.027142351656460742 -0.5736414942890998 -0.2187185655009817
-0.23172117439198966 -0.13112659060559212 0.4063384220623489 0.3775136276765172 -0.025925062948077046 0.04669436825578195 0.07888244752128293 0.06533017056321844
0.6056307671759146 -0.16596843106332593 0.16176035189558455 0.06654257721427632 0.13135483115957652 -0.09392840537407446 -0.13932805672194168 -0.4390000585044006
0.05818468221876684 0.17671501184707242 -0.14935244401907732 -0.2465822631748115 -0.3040511389503213 -0.10080896443914043 -0.31257388713687095 0.4875529507022007
0.02019834581320748 -0.13304259236606852 -0.3901227397036964 0.16537078373283326 -0.08439529973778497 -0.015744062912454067 -0.3999486081606976 0.49878932007302157
0.16719377498130839 0.12315535313197129 0.15076120607173715 -0.3081029562510467 -0.34309736065523533 0.16557440365747358 0.18818342307241112 -0.0898522504454973
-0.6295629596640795 -0.007933222765106485 -0.1852266909684753 -0.10591048293947708 -0.03313792681020127 -0.1942761029629218 0.6970972337965556 -0.3127343520065749
-0.32707315903395173 -0.3884629485613128 0.00580601769073973 0.0093993371008168 -0.15212446540470223 0.21913792784289918 0.4798775207456134 -0.3131201942520337
00000000: 540b 99e0 bfdc e0bf 4a88 583e 0e57 bbbf
00000010: 9408 da0d 9a3f d83f 09ed b4b1 a555 e3bf
00000020: f5b9 5fbe 119c c0bf 6b2a b326 846f dcbf
00000030: 3979 93ef 9f23 c93f c520 d901 323c c53f
00000040: dbf7 5ebc 0395 be3f 6058 b184 9258 ddbf
00000050: af6b 964c 17ed cbbf 30e8 c26c 8178 a6bf
00000060: 5a6a 7472 3680 d3bf dd54 8d41 4a15 cdbf
00000070: 3639 9609 3e1d d3bf 51da 9bf6 e9fb dc3f
00000080: 4fc5 76a4 d32c cabf 219b fdd8 3e4e b2bf
00000090: ce78 31c2 2f66 c0bf bc48 4687 c2f2 a3bf
000000a0: 5ded f8f6 7219 a53f 0be0 1cc6 f4a7 8cbf
000000b0: 91b8 d942 0b07 d1bf 3c8d 19fe d529 b03f
000000c0: 373f 2884 0892 d3bf 4186 8ef5 932e d2bf
000000d0: 1320 4370 7bb8 9cbf 2176 015c 27ef d83f
000000e0: 17dd cfb2 3c2a a9bf 8145 1eee 4362 a5bf
000000f0: f30f a9fe b47e c03f b22e 8656 7383 e53f
00000100: 3d0a 24be d5db cfbf 64f8 2e4a ba54 dabf
00000110: 725a a247 78ba c8bf 9fd6 ab28 0129 af3f
00000120: 816c 9f6d 2a3e e0bf 670f b2dd 245c bcbf
00000130: 4e08 5cf6 3baa d03f 653f 1628 2db9 d9bf
00000140: 3d41 f427 2b9b b93f 6a88 f60f 2057 b83f
00000150: 2337 4363 91ac d6bf 99f4 dc12 f20f eabf
00000160: c722 0340 34f2 92bf 3e99 1207 a954 bf3f
00000170: b300 2576 4307 aa3f 4f20 f30b 7ea1 a23f
00000180: 654e efab 2041 b93f ef14 7105 1692 ddbf
00000190: f45f e133 18b7 cf3f 0055 dc0a 95d7 bd3f
000001a0: dea0 ab1e d1be c0bf 296f 370b f0d4 b33f
000001b0: a564 5b1d 3c0e b0bf 4177 8acf c2bf c63f
000001c0: 0836 51bd 78b1 c6bf e1b8 a0fe 3f2d d83f
000001d0: f5a0 78ca f010 393f a82d 36cf 2c62 d5bf
000001e0: 7eb7 e642 ae62 c1bf d74a 8f33 13af c0bf
000001f0: b6b2 21c2 d390 d1bf 61d5 8a27 891e a2bf
00000200: 2dff d608 2138 dc3f e369 6731 cac4 c03f
00000210: 1bf7 127d 58d1 923f a15f 75c0 495d b7bf
00000220: 5e9e 76ac 111b cf3f ea46 46ff a69b bb3f
00000230: c23e bc93 b2ce d5bf d8b5 96b9 c5bc c93f
00000240: ee5e db6c b1b7 c9bf fdd8 526a 97fd dabf
00000250: 34e2 54da 901a d0bf a170 0405 2813 d53f
00000260: 125e 1ae1 fd6c bc3f 269c 2e33 fc1e d0bf
00000270: 8563 56da 98d5 c33f d36a 9864 9942 d7bf
00000280: 8910 b441 949f d4bf 9825 4f33 eb18 c8bf
00000290: e980 4d56 0deb c4bf ab1b 0d9e 94e8 d9bf
000002a0: 8278 309b 01c3 b73f f2c0 755a 36cd ba3f
000002b0: 1857 6b6b 6f76 c9bf 0c2d abe2 ad43 c73f
000002c0: 6016 2a96 47a4 bd3f 861a cf94 99ee c8bf
000002d0: 8852 55b6 6d1d bbbf 3b4d 042b 2e92 b4bf
000002e0: a8ab 4ddd 9b68 e43f a540 2718 9aca da3f
000002f0: b990 84f8 967b b73f 84f3 3246 6b41 d6bf
00000300: d93b 1795 e498 cbbf 2931 99a4 0cd3 c7bf
00000310: 4b33 0673 7015 8f3f 8782 f15c 6b54 c43f
00000320: 0f4c 67ab e4dc 65bf face 287b 08d4 c9bf
00000330: a9c0 ed88 4c27 cf3f f9cc f147 eed6 dd3f
00000340: 094d e8b1 4c5c bdbf bb0b 2e4e de5c d7bf
00000350: ab16 7505 8f1a ca3f f4c4 33e5 3042 d93f
00000360: a9b9 0b38 b737 d1bf 3444 568f c305 b13f
00000370: 28f9 6e30 b816 d23f 4a95 5473 40ef b13f
00000380: 3a93 1b68 7e9b e0bf 2d76 e012 2e92 a6bf
00000390: 436f 4d0e f204 a43f a982 2cc5 dd92 dd3f
000003a0: 8faa 5106 4a01 a4bf a6de a27c b017 d7bf
000003b0: 8c0e 658e 8350 c03f 5dde 3e75 cf8d c8bf
000003c0: cefd 3c0b 6ef7 aa3f 458a d066 0878 babf
000003d0: c94e 848f 2405 d2bf 2bda 7ae7 4f52 b63f
000003e0: 8621 00b3 2b22 d13f 6c4f 3fcf 22c6 c13f
000003f0: 609f 2f6e 6b56 b23f 81de 382e 7360 d6bf
00000400: cc03 772a d883 d8bf f80d 9604 e65e dbbf
00000410: 6d26 b09c 8684 d9bf e694 6593 6798 da3f
00000420: 8a26 8ae6 bf3f c33f 7e4b c22b 6182 e6bf
00000430: f356 d821 9ced a73f cf28 2a3a dcaa dcbf
00000440: b5ae c07c 5881 ba3f d225 e96f 3079 b23f
00000450: ef57 891c f01b c53f 4de4 1394 d444 6a3f
00000460: c2b3 3d7a c4dc db3f eec7 23ea ac11 e33f
00000470: 11aa fd25 1ac9 e23f 5f18 8823 dbbb c9bf
00000480: fcda 051d 0e89 d93f c2fe 599b aa75 b93f
00000490: 2b01 fb30 c527 f0bf 04a7 6821 6996 d73f
000004a0: 03af cd3b f6ec d73f f300 7944 1d12 dbbf
000004b0: 29e1 afda 4757 d1bf 7cb0 d517 a44e c83f
000004c0: 4d09 a98b 059a d8bf 3fee 5f06 51c4 7cbf
000004d0: 326a fffc f8f8 c6bf c746 37b3 b42d d1bf
000004e0: 5eb0 1a06 7346 c53f 260a 3b81 78f8 c63f
000004f0: cebe 80c3 7525 d43f b41f 1840 1393 d93f
00000500: 2498 6a6d 2003 e03f d921 ee63 22d7 b2bf
00000510: 19e8 0ba8 fc24 e1bf 9773 536c fc4c dfbf
00000520: 5f10 df69 cea4 be3f 9e99 50e7 120c e2bf
00000530: 5752 23a4 206d 9a3f 365a 56d5 33fe c33f
00000540: 1b92 b6fc ac2e 9ebf 2734 9896 a8aa d0bf
00000550: 0c73 bd28 e5e2 b3bf 6fff 03c9 c1f3 babf
00000560: 02c8 8c01 16ed c3bf ac76 36b4 72f6 ce3f
00000570: 5941 68d0 bccd debf 45b5 3c2e e0fa d33f
00000580: 08f6 50bc cf6c da3f cb3a 16e3 3561 ae3f
00000590: e378 8204 890a bfbf 090b 3721 400e d2bf
000005a0: 6f44 4e17 7414 d13f 0f2d 68ae ff91 e3bf
000005b0: cab5 aec5 4af1 e8bf 6d76 88b0 13e2 babf
000005c0: 4cd4 eb41 363b c0bf 2592 7c1d ffda b6bf
000005d0: 5987 d0e9 8f4f 813f 1deb 235f 8ed4 e6bf
000005e0: dd69 980e e4c0 e13f 95c3 1afc b230 ca3f
000005f0: 4b91 52e5 59dd e0bf ca1a 2401 e82b d43f
00000600: c39b 1875 f271 babf dd7a b92c 7f81 c4bf
00000610: 261e 6f90 a0e8 e4bf 1a33 8763 3430 ca3f
00000620: 9f87 bec2 f657 e1bf e4da cd62 34cb 9bbf
00000630: 4935 3368 455b e2bf 7568 ed4e f8fe cbbf
00000640: 93f3 e618 0aa9 cdbf 62bc 2491 c1c8 c0bf
00000650: 176d 77de 7201 da3f bc8e 2aeb 2e29 d83f
00000660: 1cf1 0886 198c 9abf 0ac6 2101 53e8 a73f
00000670: a814 55dc a331 b43f 18d9 0262 7ab9 b03f
00000680: 291a 4fc6 5361 e33f e4ee ca1b 743e c5bf
00000690: 972a 972e 90b4 c43f 7547 ed30 ef08 b13f
000006a0: fa40 0030 3cd0 c03f aa40 3f25 b10b b8bf
000006b0: bf9a 8473 80d5 c1bf b2fb 8db3 9318 dcbf
000006c0: a2f8 83f6 61ca ad3f 0137 4cf6 989e c63f
000006d0: acde 511b fb1d c3bf 7503 0ef2 0190 cfbf
000006e0: 889a 86e8 9275 d3bf 67e4 68c5 9dce b9bf
000006f0: 7e88 b5e7 3501 d4bf 6464 954a 1134 df3f
00000700: 68d9 cd0a e0ae 943f 38fa 9727 8a07 c1bf
00000710: d002 1d5e c5f7 d8bf 1657 ecad de2a c53f
00000720: db55 4f2c ee9a b5bf 72b8 422d 361f 90bf
00000730: e960 080c c298 d9bf 6cb1 530a 2aec df3f
00000740: 38db d109 9b66 c53f 3c76 07f6 1b87 bf3f
00000750: 50b4 caa8 244c c33f e98b 3976 f5b7 d3bf
00000760: faeb d6a1 4ef5 d5bf 11bc 61c4 8a31 c53f
00000770: 3967 dff7 6416 c83f 62aa 229d 8e00 b7bf
00000780: 4ef7 5038 6125 e4bf 5ac6 9f22 4b3f 80bf
00000790: bb27 071a 82b5 c7bf a453 870c f31c bbbf
000007a0: a769 d04f 74f7 a0bf b65e 4f12 0ade c8bf
000007b0: 8739 a9db 9e4e e63f 310e 8df1 d603 d4bf
000007c0: 90d0 5c42 c4ee d4bf 12d4 f1b2 93dc d8bf
000007d0: f5a9 a001 0dc8 773f 1ce0 9dab f53f 833f
000007e0: c7d6 ea81 d078 c3bf bb00 b32c b60c cc3f
000007f0: b807 6c34 50b6 de3f d1e5 8148 290a d4bf

rnn.weight_hh_l1 f8 [32, 32]
0.038300238248712336 0.3991307658223897 0.18339067698875494 -0.8435485515937698 0.20772017498862128 0.015810125571228885 0.4656307394537108 -0.11282715221402886
-0.14377531533043497 0.09584189248051798 0.4669826310739023 0.40310121766881174 -0.6633054584933569 0.161400725594186 -0.1625043379298545 -0.2354463295846418
-0.23664271916013166 -0.4176156687171168 -0.005721526261766829 0.8750533644104467 0.25891486510957723 -0.9293822642615492 -0.07316635006255838 0.13711651486410806
0.31546804062059874 -0.4875138703470139 -0.005389487074576959 -0.3361669427203722 0.12445042705052138 0.16926595216678583 -0.592719527916618 -0.2933095375998534
-0.5974052717267438 0.4643745221866274 -0.1422864022658665 0.1934369213703233 0.3186262283844787 -0.11014845997119005 -0.032121144037786806 0.024573858364613427
-0.1943696077876556 0.20057346845742033 0.16268289174563785 0.2086491788990956 -0.03554205318535725 0.4844144208795607 -0.4297460939900427 -0.16962132789294007
-0.43942603499085453 -0.4622006276252205 -0.20348002309777966 -0.6819944100925259 -0.7391288263448158 -0.39857033381261053 -0.42880146724030216 -0.5888717782943979
0.057884876494083755 -0.16503539523329905 -0.37300107034016894 -0.14394651414913065 0.03217045794495329 -0.16869030298700177 0.9443147343605912 0.17566626284657147
-0.27816374399457605 -0.0584101884969249 -0.0070353167503664 0.23526617881024345 0.23790201013746917 0.18342035508727253 0.21408914268755672 0.47955039254647436
-0.3454457264943188 0.32812553423544266 0.11342252538029786 0.2396902322215647 0.40838247655835375 0.08043789986465662 0.04745878633075674 0.09825468795711233
-0.11348877380127055 -0.10158189389155314 -0.5575816466534066 -0.0441948602324457 -0.06807955879857006 -0.411455534494273 -0.16287153076427133 -0.049767772151953646
-0.2697060571656284 0.1258452665854167 0.05797502506795288 -0.1884299909490124 -0.08965052454677926 0.08577460734893166 0.02228972985030756 0.7888407061689939
0.012058253419137983 -0.07999891206378427 -0.21976446243402117 -0.061191271083103634 0.10537967153548551 0.5861267850029249 0.3114033860054089 0.2453223228373135
-0.061569495575980036 -0.005740894585143678 0.24957899198534728 -0.24752095170652488 -0.1667051025555797 -0.38019762479938435 -0.1522603437124569 0.639738675338807
-0.18650143861971585 -0.7637684262854122 0.17468736155696818 -0.15938525911507379 -0.22297871526197213 -0.7233077722922469 -0.22690793369766887 0.4198882458693628
0.2930051773193235 -0.34049119433177605 -0.09479487951671278 -0.49722463554638985 0.5067738052655173 -0.21163437710736063 0.07199563388559976 0.03614486832657147
-0.007243562626250929 0.4044167899340848 0.3697822277011821 -0.46275003278444077 0.18949605486915796 0.12716994089966918 0.2665312185729773 -0.2067584271300064
0.2907988821413718 0.3686411077158248 0.038572330753453093 -0.26367417284837324 0.006642919414489096 5.74534065362195e-05 -0.05796370938297419 -0.19467665984422905
-0.05404089724018598 -0.3357005402076878 0.3514029416664493 -0.2189599467967 0.21619414198381753 -0.19965304291068847 -0.4634878108230687 0.1423115239566627
-0.7329008423580802 -0.21775678754604913 0.5603687523542409 0.3055773497358735 -0.31347689472262275 -0.06621317838434182 -0.20448766060069407 -0.3103079020220658
-0.35409375281042355 -0.10669915980992506 0.00411878938292689 0.10411782071776832 0.3705422883573657 0.13366500603659412 0.3185884538708453 -0.2691796081840103
-0.31689720952381867 0.28304498076236967 -0.22286847843792085 -0.3208616054833538 0.1252975321319306 -0.04814733371089368 -0.3795280620850534 -0.1782937911216466
0.26004755510057376 0.09131369478511862 0.12804639663529627 -0.3674264854952493 -0.4707281674006205 -0.47179021912490754 0.24240078181294689 -0.34958921587197467
0.4358287029856334 -0.20802116396916814 0.23248308716030883 -0.5061755841532333 0.07712481740236976 -0.32762940299465937 0.6472432379263742 0.11649081881436675
-0.9870159752230727 -0.25660458239185063 0.35639352290471826 0.08361008916529616 0.19112961870119527 -0.15624892766431903 -0.37686079805268685 -0.3651596609805594
0.05991803592098586 -0.5206393698628947 -0.010612457108575455 -0.0019443872401536317 -0.3066335076027944 -0.3188920847327933 -0.5487163859151678 -0.3295915323660548
0.18085455403375802 -0.23062786856214945 -0.13366924471109273 -0.3317105567881734 -0.35190661835367076 -0.23858231065621147 0.12114510608408537 -0.2949897795752726
0.2308465880520598 -0.22429998792098854 0.6361154167901185 0.21673865527462643 -0.20310797792508176 -0.36642350963338916 0.18076953876127527 -0.43593058110672267
0.12428630078277582 -0.6483791887276782 -0.3326031178807986 -0.4108313942936549 0.24767067208395904 -0.22408828691307997 0.010097907629355645 -0.22563582494823178
-0.09468365929760593 0.2420950341609038 0.44780446378451605 -0.2707355690698158 -0.00234408424744646 0.4588016276906229 0.19832754020844434 0.5446197142884099
-0.8937265581169228 0.11800738036470597 0.2424585200267783 0.05679175015337087 0.3054574300348005 0.04899787731592924 0.16955289955633568 0.5197820197019373
-0.05957712792638867 -0.149546131911166 -0.06457994942557052 -0.33484071306954355 -0.08072337970268563 0.3582491682655242 -0.20733006647710275 0.09539461440118296
00000000: c319 6abd 169c a33f dc36 82c4 5b8b d93f
00000010: 9e6c 0780 5879 c73f 7fde 3588 59fe eabf
00000020: c8d3 251f 9396 ca3f caa8 1891 8730 903f
00000030: b2d2 7ddf e4cc dd3f 6a2d dc80 3de2 bcbf
00000040: b47c a8c2 3a67 c2bf ff62 ca21 1889 b83f
00000050: e1cb 101e 0be3 dd3f 7761 b70c 69cc d93f
00000060: 9497 6f5e cc39 e5bf 3e25 fd6a c7a8 c43f
00000070: 2ff5 6e30 f1cc c4bf 3ebf c3f6 1a23 cebf
00000080: 2f8c d001 4f4a cebf dffa db11 37ba dabf
00000090: 9903 d782 746f 77bf 75b9 cce9 6f00 ec3f
000000a0: 3902 86a7 0f92 d03f 8a8b cfdf 7fbd edbf
000000b0: 53b6 afa8 07bb b2bf 919a 8ab1 088d c13f
000000c0: d483 59dd a030 d43f e027 5f60 6d33 dfbf
000000d0: e6ee a36b 4913 76bf 4cbd 3e5a c283 d5bf
000000e0: b3bc 27b2 fbdb bf3f 87fa 70b8 81aa c53f
000000f0: 2247 83f1 8ef7 e2bf 0129 e65d 95c5 d2bf
00000100: 8bc7 10a9 f11d e3bf bdc7 78ea 4fb8 dd3f
00000110: e7dd 32da 7036 c2bf 60ee 8f81 8ac2 c83f
00000120: 53c9 a343 5f64 d43f 58f1 4781 b032 bcbf
00000130: 5607 4ebe 2e72 a0bf 18da 0cb8 e329 993f
00000140: da64 6472 1ae1 c8bf f125 bc33 64ac c93f
00000150: cb46 d501 cbd2 c43f 37bc da2b 04b5 ca3f
00000160: a8aa 2068 9132 a2bf 11dd d857 a500 df3f
00000170: aa57 d1c2 f580 dbbf ed8b 00d4 26b6 c5bf
00000180: acfc 5260 8e1f dcbf e2d2 f5f0 b194 ddbf
00000190: a311 4c26 a20b cabf eade ecf0 e5d2 e5bf
000001a0: b1d1 157f f1a6 e7bf bc61 3825 2d82 d9bf
000001b0: cb87 91b5 7b71 dbbf 47fa a9a0 09d8 e2bf
000001c0: d93e f326 16a3 ad3f 61cf 9a3c e11f c5bf
000001d0: 34fa 9ee1 3fdf d7bf 5565 52e1 d66c c2bf
000001e0: bbb5 8a71 a578 a03f eaa1 3dd3 a497 c5bf
000001f0: 97b5 a688 d337 ee3f 57e1 f76a 3b7c c63f
00000200: 8bef d84d 6fcd d1bf ede9 b1b2 f0e7 adbf
00000210: 87d7 c175 10d1 7cbf 2725 ecbf 331d ce3f
00000220: 31b7 98b4 9273 ce3f 25a1 4275 517a c73f
00000230: 2bc8 22e5 4567 cb3f 3459 3121 f4b0 de3f
00000240: 0282 7564 c81b d6bf 3285 a13d 0200 d53f
00000250: 215b 2335 4209 bd3f 53f8 4766 2bae ce3f
00000260: a9f7 4441 f022 da3f 4d12 4705 9497 b43f
00000270: 819b 659e 844c a83f f758 741f 3827 b93f
00000280: 8989 f0ab 990d bdbf 4045 2160 4501 babf
00000290: 1b3d 2777 b5d7 e1bf b304 b36e b5a0 a6bf
000002a0: 3ee3 9076 a96d b1bf 814f 1a98 4955 dabf
000002b0: 157f 0a6d f9d8 c4bf c628 9353 297b a9bf
000002c0: 87ce c331 dd42 d1bf 3b9e 2b9c b21b c03f
000002d0: 78a3 4d09 e7ae ad3f 3115 5b54 791e c8bf
000002e0: c966 ff36 56f3 b6bf 3412 641d 53f5 b53f
000002f0: 8a98 f972 1ed3 963f e0fa 57dd 2e3e e93f
00000300: 6a18 a860 ffb1 883f 7f8f 0707 cf7a b4bf
00000310: f912 7ded 3d21 ccbf 1188 3458 7654 afbf
00000320: 5d7b e882 29fa ba3f bfb5 9cf5 8cc1 e23f
00000330: f970 b077 08ee d33f 6d52 c8cc b866 cf3f
00000340: a32f dc73 0986 afbf 5e3a e3a7 c383 77bf
00000350: 5040 2c54 34f2 cf3f c0c0 533c c4ae cfbf
00000360: a8b9 c6c1 9756 c5bf 5cef 216b 2855 d8bf
00000370: 2482 5c56 447d c3bf 1421 123e bd78 e43f
00000380: 2eaa c375 47df c7bf 999f 937b ca70 e8bf
00000390: c8b2 74cc 275c c63f a28e ae75 bc66 c4bf
000003a0: cd8b e008 918a ccbf 9502 5e57 5625 e7bf
000003b0: 369b 37b5 510b cdbf 46f5 fef2 72df da3f
000003c0: 8e4a 89c9 98c0 d23f 07c8 0e94 9bca d5bf
000003d0: 2c40 5a2b 7a44 b8bf 20fc 1b47 87d2 dfbf
000003e0: 40b7 02b3 7d37 e03f 4356 31d4 d516 cbbf
000003f0: 1c52 fe4c 4e6e b23f ddfe c286 9481 a23f
00000400: 8962 6109 6dab 7dbf b217 aef5 f6e1 d93f
00000410: 2e97 a713 83aa d73f f10d 4250 b29d ddbf
00000420: b728 311f 6841 c83f f162 99c8 1a47 c03f
00000430: e392 c8f4 d80e d13f 350f 5965 0f77 cabf
00000440: dbac 20ea 729c d23f 8e71 66df d097 d73f
00000450: dcaf 3ba6 c0bf a33f 56c0 4ba3 09e0 d0bf
00000460: 54c1 291a 9b35 7b3f 85d7 5504 441f 0e3f
00000470: c937 4f58 6bad adbf 56a9 a92f 2aeb c8bf
00000480: 9b10 969c 3fab abbf 6442 5c1e 1e7c d5bf
00000490: f53c 8bc3 627d d63f ce17 5029 e106 ccbf
000004a0: a621 b4e8 3fac cb3f d294 ec1c 3b8e c9bf
000004b0: 0d1a 65c7 c8a9 ddbf cc6f 9e96 4337 c23f
000004c0: 1971 a477 ec73 e7bf b903 7f54 74df cbbf
000004d0: 2afa 2173 8aee e13f 3fe4 e04c 948e d33f
000004e0: c0a8 b864 0110 d4bf 2097 b9cb 58f3 b0bf
000004f0: 7296 5bd3 a62c cabf 6002 b8ac 15dc d3bf
00000500: b079 02d8 78a9 d6bf 38f1 e4d9 a250 bbbf
00000510: 1937 2e1b ddde 703f 18e2 e92a 77a7 ba3f
00000520: ace9 9100 f7b6 d73f 03fe c556 ef1b c13f
00000530: 058b 90d3 c063 d43f 74a0 791b 3d3a d1bf
00000540: 2f4d c63b 0b48 d4bf 05f7 eab1 681d d23f
00000550: 8e9e 194d f486 ccbf adf4 851d ff88 d4bf
00000560: eb58 63e1 bf09 c03f f613 5b6f c4a6 a8bf
00000570: b473 a411 304a d8bf 0542 f9b8 54d2 c6bf
00000580: 42f3 2380 9ea4 d03f 376d c794 5560 b73f
00000590: b8a9 f506 d363 c03f 5fb9 b860 ea83 d7bf
000005a0: dcaa 1209 6920 debf a9b4 6d9a cf31 debf
000005b0: 04aa 3423 fd06 cf3f 2415 4d72 ab5f d6bf
000005c0: 25cf 7e12 9ee4 db3f 94cc 0f00 70a0 cabf
000005d0: ab02 1d7c 01c2 cd3f 4119 7f23 9732 e0bf
000005e0: a001 74b8 73be b33f f87b c450 e1f7 d4bf
000005f0: f86d 6e73 37b6 e43f 218b 17a1 57d2 bd3f
00000600: facd c686 a295 efbf 711c 58a0 356c d0bf
00000610: 8e72 58c7 26cf d63f 9ca1 9486 7867 b53f
00000620: c02d cf72 ef76 c83f 9639 2d01 f7ff c3bf
00000630: d1f7 b1c0 7c1e d8bf 80b7 6ea0 c65e d7bf
00000640: 7d3f 71a9 93ad ae3f 1d47 52e5 13a9 e0bf
00000650: e538 b1e1 fbbb 85bf 5faf dce6 59db 5fbf
00000660: d4c0 c025 e29f d3bf e25b b858 ba68 d4bf
00000670: 661e 89aa 158f e1bf 2d3f 2315 0718 d5bf
00000680: 0f2e 74f5 3d26 c73f a0a3 82c8 3685 cdbf
00000690: e7f0 41e5 121c c1bf 7629 49ea be3a d5bf
000006a0: 4ccc 4456 a385 d6bf cf15 d67a dd89 cebf
000006b0: e19b b39c 5d03 bf3f da85 fbcf 1ce1 d2bf
000006c0: f7d3 0989 618c cd3f 5692 4eac dcb5 ccbf
000006d0: fb09 f3b7 0e5b e43f 307e 179e 17be cb3f
000006e0: 6959 5f35 71ff c9bf c319 9797 7b73 d7bf
000006f0: fedc 8bcc 7423 c73f 607f 4b61 49e6 dbbf
00000700: 69ed 331d 3ad1 bf3f a8c1 5fb6 85bf e4bf
00000710: 571f 7696 5e49 d5bf 3653 aac2 0f4b dabf
00000720: 72b4 632e acb3 cf3f feaa dacb ecae ccbf
00000730: e379 3538 36ae 843f 99b4 7a7c a2e1 ccbf
00000740: 5119 2634 303d b8bf ef5e 1f57 f8fc ce3f
00000750: 9d44 bd0d d4a8 dc3f 2634 c147 bb53 d1bf
00000760: dbb9 d1a5 e633 63bf 4919 9280 015d dd3f
00000770: c8b2 8bfd cb62 c93f ca04 b452 866d e13f
00000780: f3b8 5570 6899 ecbf 2361 5a4f bb35 be3f
00000790: c666 137b e108 cf3f ebc2 2eeb ce13 ad3f
000007a0: 9475 1452 9d8c d33f 8769 4af1 3f16 a93f
000007b0: e4a9 44cf e8b3 c53f 9165 f5e6 0da2 e03f
000007c0: 0c20 11b0 e480 aebf 12a0 e6e0 5324 c3bf
000007d0: ce99 c2c2 4f88 b0bf 4e31 00be 076e d5bf
000007e0: e17a d893 49aa b4bf 9441 61eb 8ded d63f
000007f0: a192 7fa7 ca89 cabf fc4e 110d c86b b83f
