results/Bidirectional_GRU_Dropout_5_Long/models/checkpoints/2/Bidirectional_GRU_Dropout_5_Long-2-1800.pt (torch_old, 215083 bytes, 18 tensors)

gru.weight_ih_l0 f8 [96, 6]
0	0x3fd3cf6352d3ad44	0.30953295792160795
1	0xbfe2aa3bbc99d3cd	-0.5832804378138633
2	0x3fe5052e93bf0658	0.6568825612705025
3	0x3fbe95d98b055158	0.11947402614652469
4	0x3fe53f4c1ad4e4c1	0.6639767192893019
5	0xbfe230454031bad1	-0.5683923963350371
6	0xbfc4a1d8ec5923db	-0.1611891893428766
7	0x3f924a54338283ad	0.01786166729346277
8	0x3fd9404ce26f29b4	0.39454958069532187
9	0xbfbf4defab1e20b2	-0.12228296210935488
10	0x3fecf7b30d8b9645	0.9052367462688343
11	0xbfe6b0faeb3867b3	-0.7091040224215618
12	0xbfd6df09354b7ebf	-0.35736303524570795
13	0xbff790fa3137699f	-1.4728948519246854
14	0xc005d00d8e3ba061	-2.7265883552500303
15	0xbfca5d9a8414fb8a	-0.20598155450167283
16	0xbfe07dafc30ce43e	-0.5153425988747882
17	0xbfbf4cacd440d52a	-0.1222637193867128
18	0xbfd2f1db635c85ca	-0.29601177886260344
19	0xbfac3fa1a0df6849	-0.05517296875741857
20	0xbff1073f44ea0fbc	-1.0642693225827164
21	0xbfcfa556f211651f	-0.24723326511119922
22	0xbfee72d6d2b79d88	-0.9515184512683144
23	0xbffa38a8770b22e2	-1.6388325357567557
24	0xbfd6a453e688ef07	-0.3537797690694195
25	0x3f9a2005ec9739f5	0.025512783589698846
26	0xbfe521ff13dbf574	-0.6603999507785105
27	0xbfd330ff830de086	-0.29986560629141257
28	0xbfe69d99f217d00f	-0.7067384460810916
29	0xbff23400fa49deae	-1.1376962448975223
30	0x3fcce29585ed7623	0.22566479720528418
31	0xbfe9fb497d45dab8	-0.8119246908889499
32	0xbfe0160ad23aac68	-0.502690706828969
33	0x3fcf831f32184a8d	0.2461890215496009
34	0x3fd26032d6079c8f	0.28712149525967673
35	0xbfdff51b311504d1	-0.4993350962941579
36	0xbfe250af03d56945	-0.5723490786433919
37	0xbfd1fc8cf77b20b9	-0.28103946846068656
38	0x3fd6795b2fcb8bc5	0.3511569945096052
39	0xbfd5e051d7575f53	-0.34181638745711956
40	0xbf7b1fd403644ad1	-0.006622150589708568
41	0x3fbf6ec25f7196b5	0.1227838023201809
42	0x3fd55636b237d04f	0.33338706401923884
43	0xbfd66d7a67975b51	-0.35043201557475806
44	0xbfc8efa4b7fc2df7	-0.19481333717008883
45	0x3fc14300e7c96b49	0.13485728566851155
46	0x3ff51ca0f7a27ed4	1.3194894479019483
47	0x3fd1f6c9c56ae47e	0.28068775443131944
48	0xbfe35182dc17b68e	-0.6037000940975348
49	0xbf93eef216b45139	-0.019466192851795603
50	0x3fed0bd7b70e55df	0.90769563439488
51	0xbfdb9304b72ba832	-0.43084829223392085
52	0xbfe88a2f8a9abc12	-0.7668683726423089
53	0xbff125817c4c6263	-1.0716566901593516
54	0x3fb6b362aa1299a1	0.08867470409550161
55	0xbfce3a483bf9550c	-0.23615363052764626
56	0x3fe74e6840f923cd	0.7283211964614736
57	0xbfb6a85eba467e69	-0.08850662276972233
58	0x3fd57cddfe178e24	0.33574628652260885
59	0xbfe3a9b8e0179dfa	-0.6144680382539598
60	0x3fb9c0b1fd1ea4be	0.10059654645614821
61	0xbfee2fc4b498d204	-0.9433311011585492
62	0xbfd977577d9f1738	-0.39790904300422225
63	0x3fc15c2c6b7691bc	0.13562541243767423
64	0xbfe577c6e3df8ff7	-0.6708712053919034
65	0xbffd2c0e0a4c22c0	-1.8232555773012535
66	0x3fa90476243b3fb7	0.04886216347006161
67	0xbfe648276473d974	-0.6963078462566004
68	0xbfc2f465cea90185	-0.14808342543438982
69	0x3f932bf08f51beb9	0.018722304103390573
70	0xbfe82ab80457678c	-0.7552146992486413
71	0x3ff5dabd30661863	1.3659030809954167
72	0xbfd04ff575b00db3	-0.25488029950085006
73	0xbfe5ab7e02113a0a	-0.6771841087700647
74	0xc0047a09ce6c355e	-2.559589016606579
75	0xbfcbfa25bac4e710	-0.21857139224612654
76	0xbfebaf1fd07a857d	-0.8651274749610561
77	0xbff49707bbb6dc8b	-1.2868726093854856
78	0xbfe0f2eae2eecdf2	-0.5296530182153545
79	0xbff5c85e034f8ffc	-1.361417782719399
80	0xc0002499f490b76f	-2.0178717714942915
81	0xbfe7d42e5ccc6641	-0.7446510136098327
82	0xbfe71bfc5fa54aa5	-0.7221662395553109
83	0xbff49d1800438308	-1.2883529672910203
84	0x3fc1b543d054ffb1	0.13834426567518457
85	0x3fec522bed479140	0.8850307115904243
86	0x3fd9c07d8d35f97d	0.40237368383522903
87	0x3fdc767a1eccc312	0.4447312641887474
88	0xbff21eeb3f1502f8	-1.1325485672134032
89	0xbfe28377c89cb7e1	-0.5785483282286316
90	0xbfe22361228e0036	-0.5668187785049728
91	0xbfea85324aa354a4	-0.8287593324445379
92	0xbff48af67e26ee02	-1.2839264800849155
93	0xbfe3dc312faed9ee	-0.6206289225872845
94	0x3fe59afdde212740	0.6751698816744707
95	0x3fbba305d529675d	0.10795628027099498
96	0x3fc420e83e03b62e	0.15725424793292703
97	0xbfe51183bf8d91b0	-0.6583880177754988
98	0x3fe17e70d009e75e	0.5466846526389693
99	0x3fbaed3632e5d2a8	0.10518206350918524
100	0xbffebe6e33c0e8de	-1.9214918157218146
101	0xbfffcdd84b638f93	-1.987755102622917
102	0xbfc8ecdcd8701aef	-0.19472847526795742
103	0xbfe1c739dccc38ae	-0.5555695831733567
104	0xbfeb07b0f6973ab4	-0.8446888748383885
105	0xbfc6261a481eefb2	-0.17303780099416383
106	0x3feee10c60bc8542	0.9649717225440002
107	0x3fc32358ee054154	0.14951621648880098
108	0x3f8f671d166a3f29	0.015333392378380122
109	0xbfd17d098c13d6e8	-0.27325667075579796
110	0x3fae890c65c56c2e	0.0596393465263748
111	0x3fd23aecc5a504ca	0.28484648991804973
112	0xbfda7dad03f2d7bc	-0.41392064462285894
113	0xbff1cb6bdae817d2	-1.112163405517539
114	0xbf907c8db2bb7fa6	-0.016100133928261727
115	0xbfec0ee8f128655a	-0.876820059787103
116	0xbfe272490deee013	-0.5764508506899823
117	0xbfd1a94edd8eb466	-0.2759587443968655
118	0x3fdc0dc2ffc84216	0.43833994845138713
119	0xbfef155424ac37c0	-0.9713535991920637
120	0xbfc03f2ed8485a42	-0.12692819176364095
121	0xbfde110e7d61853a	-0.46979105228645646
122	0xbff68d3df398af6f	-1.4094829097257067
123	0xbfb36feb8798e107	-0.07592651424863926
124	0x3fbd921e9ca3ba8b	0.11551085781295904
125	0xbfda932e37f9eeca	-0.4152331873553804
126	0x3fd575679fa2c46d	0.33529081906733077
127	0xbfe6926fb1b4a17e	-0.7053755255520142
128	0xbff8ffff90b1839c	-1.5624995853506567
129	0x3faae7dbd2dc7516	0.05255019139279164
130	0x3fb0d23360fe745a	0.06570740812317535
131	0xbf9f9d8c8e0c787b	-0.030874439401593606
132	0xbfae50348b19f370	-0.05920566747679501
133	0xbfe7f1fb539c9e73	-0.7482887871783092
134	0xbff3290e1455aa22	-1.1975231928178194
135	0xbfa4bf3ac199899a	-0.04052146542814512
136	0x3fc4ec7a864b5a14	0.16346675450650194
137	0xbfdf89dee6ee8c37	-0.49278996040283424
138	0x3fde52ef302e16f3	0.473811909724062
139	0xbfdab6628640b7c8	-0.4173818884909193
140	0x3ff22de4bbc1b335	1.1362044653171328
141	0x3fc3694ebe589d88	0.15165123266454494
142	0x3fe90e715f95eb7d	0.7830130450159768
143	0xbfea3b3acce85e17	-0.8197301866629826
144	0x3fc88d5800516fa1	0.19181346908123678
145	0x3fe2dac8232e270f	0.589206761085025
146	0xbf88e393eebc4809	-0.01215282032311295
147	0x3fd5b5414022de1b	0.33918792022038396
148	0xbfd7721b0abc7c27	-0.3663394551130658
149	0xbfbb2715f3e87468	-0.10606515126024052
150	0x3fdd2a45180b55b2	0.45570494983743537
151	0xbff4cbb71fb9208c	-1.299735187452856
152	0x3fef5c518354cdec	0.9800193371833621
153	0x3fca050ec0feb40a	0.20327934669094844
154	0xbfd6c9b6c1bc8f4b	-0.3560616390188797
155	0xbff4cba3442a3bd1	-1.2997162497228951
156	0x3fbfb823486d156a	0.12390347021308448
157	0xbfb334a3d03024fe	-0.07502197106090944
158	0xbfa76928c2252d19	-0.045724176120154954
159	0x3fb7a426b15e7ea7	0.09234849767971785
160	0x3fd1e50ec50463ec	0.2796055721278765
161	0xbfe1fad4421c3375	-0.5618687907423082
162	0x3fc5f3176405cb52	0.17148105987470302
163	0xbfbf898e13ba6641	-0.12319267255443213
164	0x3ff5ff706e0695a4	1.374863080776188
165	0x3fcf87efaa4eb611	0.2463359433726713
166	0xbff632eca3cf8903	-1.3874327086310252
167	0xbffe2aa29196d914	-1.8854089438514778
168	0xbfc951c487f5a0ee	-0.19780785215994662
169	0xbfe8be39ac94b2b6	-0.7732208605499042
170	0x3fc9e95038ef7e6b	0.20243265895895787
171	0xbfd5ccf959539bee	-0.34063562129307356
172	0x3fa4c61bd02f9c20	0.04057394901592937
173	0xbfec1e41d9de382f	-0.87869350960114
174	0xbfe1e77868a0c3f9	-0.559505657531303
175	0xbfe851541f645689	-0.7599278081058439
176	0x3fcf0c4be6818a15	0.24256275897194315
177	0xbfd90dac162c8876	-0.3914594856779624
178	0xbfb2e1cc28fb94eb	-0.07375789642863466
179	0x3fd70ec13795e69b	0.36027555874134415
180	0x3fcaf71637b3685d	0.21066549033895657
181	0xbfde4c6fd4ded0f3	-0.47341533458826673
182	0x3ffc0252ae79cb88	1.7505671325168084
183	0x3fd99bad18f9fdab	0.4001267188941379
184	0xbfe5b71354c3d27c	-0.6785980849804925
185	0xc000a326afd017f7	-2.0796636329059726
186	0xbfac465805095a81	-0.05522418080788772
187	0xbff73cb27d52ade8	-1.45231865839275
188	0xbfdf21a979d4280e	-0.4864295663579704
189	0xbfd455ae035ff910	-0.3177294762571288
190	0xbfd82473fb529914	-0.37722491782405254
191	0xbfe82aa8a582948e	-0.7552073700541244
192	0x3fe87820e515a593	0.7646641229923027
193	0xbfd56eaef0373bc6	-0.33488057573861985
194	0xbfbdbd7ef8ffac70	-0.1161727292925876
195	0x3fe4d954808b5892	0.6515295515662436
196	0xbfd27ff7f7b83da7	-0.28906058493972825
197	0xbff374dbd759aa63	-1.216029969417513
198	0x3ff6c1f5cb5b3937	1.4223535483939267
199	0xbffc984c2df24611	-1.7871820254116566
200	0xbfe11fe4a9723ebd	-0.5351432141778428
201	0x3fe121eed1248ee4	0.5353921971149842
202	0xbfe938204c5eab1a	-0.7881013385388969
203	0x3fcfa04de93ff7e0	0.24707960023073294
204	0x3ff570a369cd3327	1.3399995930551059
205	0xc002ec506d5430fd	-2.365387777454201
206	0xbfee8ac1a0e808d8	-0.9544380324080306
207	0x3fb381d7bd515512	0.07619999286665216
208	0xbfc825e0dc399bb9	-0.18865595582175645
209	0xbff08524170e514b	-1.0325051212904153
210	0x3fda77ddcf94bdbf	0.4135660674246217
211	0xbfec857ef16da12a	-0.8912958827395745
212	0xbfe2b1e18e273c94	-0.584213998454191
213	0x3fe408d96d295cf8	0.6260802394926079
214	0xbfe43fa21b70e051	-0.6327677284198306
215	0xbfffa347c9bccfff	-1.977363384282398
216	0x3fe963a94f5d69f0	0.7934156942458781
217	0xbff5a633d73c419d	-1.3530767829543955
218	0x3fe33c336d1cd944	0.6010987406832915
219	0x3fe367a1d6944b0b	0.6064004126550072
220	0xbfefcb37d4dfc5cb	-0.993556895990133
221	0xbffd3118c67cc13b	-1.8244865182314942
222	0x3fe7d4f8203c0be0	0.7447472219067741
223	0xbff29195070352ea	-1.1605425142235455
224	0xbfbd128435282f95	-0.1135637883928083
225	0x3fdaba6c9c58b87e	0.41762843387812854
226	0xbfd8e15f7da44296	-0.38875567693416124
227	0xbfe0be282f04418e	-0.5232125204366171
228	0x3fe3df6e8b9da56e	0.6210243918296052
229	0xbfea9075aaddc58f	-0.8301342332107867
230	0xbfc718c5727084fc	-0.18044345939509998
231	0x3fe3e00dc17fab5a	0.6211003093024872
232	0xbfee26b2e098dad5	-0.9422239672338387
233	0xbffb6c82c334dc80	-1.7139918923619746
234	0x3fee46de2a8fdc43	0.9461508590019395
235	0xc0054787f8dd37e8	-2.65992731499772
236	0xbff671b3326ceb78	-1.4027587861771433
237	0x3fdfd57e71ba0f3a	0.49740563493854817
238	0xbfc62bc3cfa95b9c	-0.173210598370784
239	0x3fda8fbbd1f2f6b3	0.41502280714835676
240	0x3fdcb2c61367ccf4	0.4484114827639154
241	0xbffe1f73fb42ab0b	-1.8826789679394007
242	0xbffa3c7b51cea463	-1.639766044196471
243	0x3fd267bb298e400d	0.28758124406977076
244	0xbfe46e0870d7538b	-0.6384317592552277
245	0xc0001397ac9dfe75	-2.009566639491647
246	0x3ff6cdc01d2fe212	1.4252320423239593
247	0xc0013f840a92fa04	-2.15601356755292
248	0xbff6a2e6919655cc	-1.414770668697531
249	0x3fee642cd355eaab	0.9497284057282135
250	0xbfc56fadc7cdabb9	-0.16747066741967645
251	0x3fd424e21b36502a	0.3147511735671765
252	0x3fd4db6f3fc2eac9	0.32589322306345686
253	0x3fdb36a241caffee	0.4252095835217905
254	0x3fcf1491f4885a78	0.24281525077886434
255	0x3fbca1215955aa5b	0.11183365279217965

gru.weight_hh_l0 f8 [96, 32]
0	0xbfcf49640d80c930	-0.24442721041993698
1	0x3fcfe967fdbc61cc	0.24931049241491932
2	0xbfe55f6dadc80de0	-0.6678989786309408
3	0xbf93843121338acf	-0.019058959628533153
4	0x3fc0562aa83cafed	0.1276295968503968
5	0x3f8fecb43937ea08	0.01558819579712624
6	0xbfd8ca566ce1c1a8	-0.38734970696443805
7	0xbf992367169b3d42	-0.02454911303976571
8	0x3fcdeeb2be8baf26	0.23384699157701866
9	0xbfd1bc90558f231e	-0.2771340213335395
10	0xbfd78aa60a3b2bd3	-0.36783743857512013
11	0x3fd8fc1fe59d270c	0.3903884641955393
12	0xbfa5631991df98d1	-0.04177169709855522
13	0x3fa9f43eeeaf3a11	0.050691572796143565
14	0xbfccbb6100e39b56	-0.22446835082447575
15	0x3fd825b35d14c631	0.37730106439548466
16	0x3fc4b7d0f397f09e	0.16185962576117147
17	0x3fd8385727f49f6f	0.37843874837789476
18	0x3fd1f51e91d3b65d	0.28058590165060143
19	0x3fb2ea31c537fc6f	0.07388602318677483
20	0x3fbbd6594309f54d	0.10873945128147007
21	0x3fc5d2e22b9d4fc8	0.17049815301527205
22	0x3fcc32e2b8a8df33	0.2203029061945415
23	0xbfb0ea142af2e113	-0.06607175873330488
24	0xbfbd8c34a7d50a47	-0.1154206189867547
25	0x3fc2afb0dfa96644	0.14598666115743886
26	0xbf9106272e2f64da	-0.01662503451720885
27	0xbfa18ada7f233809	-0.034262493152354585
28	0xbfcbb60f92bc970f	-0.21649355568768455
29	0x3fca41afe6aaa2e6	0.20512961161627813
30	0x3fa3580837611688	0.03778100658432232
31	0xbfcd4ff86cf98ef5	-0.22900300332104676
32	0xbfb7fccf36a9f078	-0.09370131573263218
33	0xbfd3fac0ccc5192f	-0.3121797561365324
34	0x3fd0c95d64471505	0.2622903327249591
35	0x3fbcd64c49bc0d44	0.11264492798004705
36	0xbfaaa5529e502a8c	-0.052042562318168256
37	0xbfb74926aeb866c9	-0.09095994725830815
38	0xbfcdb94d9d61bad8	-0.2322175043550121
39	0xbfcb838a676762ee	-0.21495180176750445
40	0xbfa0e8d83b3bbcd5	-0.03302646372855526
41	0x3fdc0c0887b1da30	0.43823445559920327
42	0xbfb3ffc6a40b516d	-0.07812158112512231
43	0x3fc498675763f971	0.16090099112620806
44	0x3fde12be423779d2	0.4698939940116392
45	0xbfd3e568d6e4ec6d	-0.3108770464493265
46	0xbfa34de0d75c1492	-0.03770353917028858
47	0xbf9312d739b25be2	-0.018626559158828722
48	0x3fc91824c507457b	0.19604930515792404
49	0xbf23adcd2308250c	-0.000150138178938421
50	0x3fd33acdda1bad55	0.3004641180002257
51	0xbfddb89d9d99473c	-0.4643930472421862
52	0xbfd33247739f59e5	-0.2999437932134284
53	0x3fc067cbceb1c65c	0.12816760628224955
54	0xbfaa71bccb5ac45b	-0.05164899809222653
55	0xbfb67e661727b642	-0.0878661924868647
56	0xbf9ed64dd0336320	-0.030114379723133244
57	0x3fbbce2ebd5e1e41	0.1086148464511263
58	0xbf7d1508f408217d	-0.007100138639096418
59	0xbf854e60c97943d8	-0.010403400562752838
60	0xbfcfec0b5ea2e872	-0.24939100380817397
61	0x3f909f234dcba7c9	0.01623206293417193
62	0x3fb82bddc306c17e	0.09441934596430276
63	0x3fc531f7970ace8c	0.16558737635715592
64	0xbfc0309ec169ad9b	-0.1264837688826049
65	0xbfdc2af8ec5929f6	-0.4401228244866212
66	0xbfd6003e404cfcf1	-0.34376484183663
67	0xbfb5c52e5eb6281a	-0.08503999531072318
68	0xbfd92fa4a322189d	-0.3935329049203434
69	0xbfdfc18bc0203ceb	-0.49618810426996046
70	0x3fca7634ec199662	0.20673238304441371
71	0xbfdaad0935a5d2ab	-0.41681127776181864
72	0x3fb33cb4a8ebed56	0.07514504550993215
73	0xbfc3da516bf189f6	-0.15510003824881807
74	0xbfcd6509799cae90	-0.2296459049042494
75	0xbfd431683a95ea50	-0.3155155727505745
76	0x3fe09102ca274cdd	0.5177015255270835
77	0xbfb3de802f306ce6	-0.07761384155348913
78	0x3fe9c7b49aaa6cee	0.8056281109633383
79	0x3fa3a526e4f77625	0.03836938424113282
80	0x3fc4f78353a99b66	0.16380349717220638
81	0x3fc0dfdce0dc5a52	0.13183175067452396
82	0x3fceb4d225576ea1	0.23989321540181144
83	0xbfdff387d38920b2	-0.4992389264848597
84	0x3f3036e5cb83d2ee	0.000247412779131025
85	0xbfd555ed1be1bb28	-0.33336951945141147
86	0xbfcabe775a7fc2af	-0.20893756789111737
87	0xbfc7c06b52b884a8	-0.18555966891384412
88	0x3fdb725ed140855f	0.4288556140400796
89	0x3f9e3527c934ab94	0.029499646812080352
90	0xbfb0ae0a79fe3bcb	-0.06515565374705472
91	0xbfc3f14fa65f095c	-0.1558017313346437
92	0xbfc31dedab7820cf	-0.1493508422138405
93	0x3fca8f271de2eda7	0.20749367675112504
94	0xbfb8fe7c0879ddc9	-0.0976331253713091
95	0x3fd3a127e73d297c	0.30671117383885593
96	0x3fc65b91f5e94765	0.17466949946770707
97	0xbfc93f3fb2dede63	-0.19724270090022164
98	0x3feb9800ba419e6b	0.8623050344294375
99	0xbfcd40d7ed4d7fdc	-0.2285413654999492
100	0xbfbc488471a0bfa7	-0.11048152708167312
101	0xbfc7b715381c5db6	-0.18527474632058522
102	0x3fb9b01a37131561	0.10034335941880591
103	0xbfd2a4de17a3ac0a	-0.29131271656541513
104	0xbfd00973a2e9bf81	-0.25057688626747426
105	0x3fd697a118e3f290	0.35300471716599535
106	0x3f68f172217f4c84	0.0030448178403986188
107	0xbfd5c37ed4411117	-0.3400570938868141
108	0x3fc23a66cbed3f70	0.14240727383957674
109	0xbfd184a680fe71f1	-0.27372133824408623
110	0x3fcbe4c5dd53b2cb	0.21791909510593252
111	0xbfe1820cc824a093	-0.5471252354664266
112	0x3fc69929d0f2a845	0.1765491743329354
113	0x3f70ed9abac52245	0.00413284722555624
114	0x3fcdb1f5383b362f	0.2319933437888024
115	0xbfc093ab8a078848	-0.1295065330478471
116	0xbfd244690c5bf52b	-0.2854254360862167
117	0x3fb94557d5110f50	0.09871434165785087
118	0xbfd2e24ccb075004	-0.2950622542095973
119	0xbfcb667ec10b84a0	-0.2140654032328131
120	0x3fccf49d87bb5e46	0.22621506812605413
121	0xbfdae10faa71b120	-0.4199866451733829
122	0x3fb0ea7603e97bfb	0.06607759089955316
123	0x3f8523a1eb6c63af	0.010321869847347146
124	0xbfc182c2783339bc	-0.13680296773095602
125	0xbfa87841dc460db5	-0.047792490137932665
126	0x3fa0ab216f5ee603	0.0325556229067381
127	0x3fd2253d71947d57	0.2835229500942282
128	0x3fa158a9d049c678	0.03387957255916957
129	0xbf7461c79a801f72	-0.004976062489738685
130	0x3fe9a0640683d823	0.8008289458509846
131	0xbfc6c3a172483248	-0.17784517364670394
132	0xbfd45f31b17acb83	-0.3183101876449472
133	0xbfbfa53d958e8360	-0.12361512090002469
134	0x3fdb78336791f385	0.4292114745547269
135	0xbfbf38fe1a00e2ff	-0.12196338782167614
136	0xbfd8c2da506c8e45	-0.3868928704634736
137	0xbfc50ea309e77d2e	-0.16450918181997437
138	0xbfc1f3bbfa65dbdb	-0.14025068022212292
139	0x3fa5f203452b2d81	0.042862035935821836
140	0x3fa9979faa5c84c2	0.049984921976155686
141	0x3fceaaa9ccd3e260	0.23958323003150195
142	0x3fc8665e77db838f	0.19062405445495442
143	0xbfe4f24c621c03fe	-0.6545774379920883
144	0x3f790f7696115616	0.0061182625077740495
145	0xbfcf23bb8365df55	-0.24327796855845443
146	0xbfb7a0eb6a1f269a	-0.09229918804990192
147	0xbfcc4108ac93506c	-0.2207346766141457
148	0xbf96ff55822c694e	-0.022458396978529742
149	0xbfd376add92608e5	-0.30411859708705286
150	0xbfc40a518f83235e	-0.1565648985618066
151	0xbfc0c7d0b6210ee6	-0.13109787838958836
152	0x3fbd1fcc510eac3d	0.11376645068109865
153	0x3fa2ccd22cb62125	0.03671891017717347
154	0xbfd36d1ba46ef424	-0.3035344224734351
155	0xbfb0e86d36d728f0	-0.06604654873732207
156	0x3f95fcc1eb435617	0.021472005829158727
157	0x3f74ee8348a5ccbe	0.0051102760574963085
158	0xbfcbb05ba5d6dfe9	-0.21631951902031624
159	0x3f9b8998a3d041b6	0.026892075537092906
160	0x3fc0e18cafa47ff7	0.1318832261686109
161	0x3fd09213f11bd84b	0.25891588731554255
162	0x3fda79dc52014559	0.41368778236672693
163	0x3fd34d646fca2a6c	0.3015986530014405
164	0xbf9b45bbc9656261	-0.026633199851263337
165	0xbf9e2efc84f2742e	-0.029476113905378458
166	0x3f638a9337fd2db0	0.002385413681542402
167	0x3fc59dfc8bcec246	0.16888386560960295
168	0xbfc1878a9170868e	-0.13694889165440255
169	0xbfc07a34fab9bf80	-0.1287294601675022
170	0xbfc11c52782936a3	-0.13367682330356442
171	0xbfaf7187addb84a7	-0.06141304013522957
172	0x3fa5d71c8abc93e9	0.04265679544031526
173	0x3fc676a349bb55be	0.175495539666981
174	0xbfd0647146f7922b	-0.25613052301767664
175	0xbfc3b6b1fa5cc5a3	-0.15401291584707363
176	0xbfccabdac5f90d29	-0.22399458567279254
177	0xbfc3469c81257ac9	-0.15059238725640103
178	0xbfa39d0614e37f59	-0.038307371187100876
179	0x3fb497da68be2935	0.08044209534833587
180	0x3fccc135b8f41ab3	0.22464629679617118
181	0x3f9d8618804cb96f	0.028831847029488097
182	0x3fba15a3bc208dba	0.10189269392917924
183	0x3fcc5abcde3cea5e	0.22151909686529597
184	0xbf8f41ab86bcd6a6	-0.015261974381796616
185	0xbfcadf07d6ad0236	-0.20993135435311822
186	0x3fd3d386ed557a71	0.309785587092768
187	0xbfc6a0d825d06fa1	-0.17678357931515357
188	0x3fc03f720759da6f	0.12693620070395492
189	0xbfd719742c4992cf	-0.3609285767072778
190	0xbfcbe4822c0e9f1a	-0.21791102553583458
191	0x3fc40f55aa7d3e00	0.15671797585171987
192	0x3fc9f36d3d6a7669	0.2027412938959288
193	0xbfaeff06767b033d	-0.06053943821235073
194	0x3fbeeeadc792e61a	0.12082944986732294
195	0xbfbb73a8a8c6eff4	-0.10723356361899034
196	0xbfe3445264e9f683	-0.602090069863792
197	0xbfd2a273de674696	-0.29116532057842315
198	0x3fe0ca6079c28d59	0.5247042062878037
199	0xbfc7ffba68e54479	-0.18749170419554043
200	0xbfcbf785473f4fed	-0.2184912298095009
201	0xbfc2002240320551	-0.14062908300915436
202	0x3f94fe4ef83a6b29	0.020501359844824627
203	0xbfd774b7f88be155	-0.3664989402018553
204	0x3fc918dc1e69159e	0.19607116207968728
205	0x3fb50de8b4982eed	0.08224348458332616
206	0x3fd887e9e21639c5	0.383295508182439
207	0xbfd177d49a244dc4	-0.2729388718882684
208	0xbfa336c81660d6e6	-0.0375273253743396
209	0xbfe3820a4aad4302	-0.6096240480929682
210	0x3fe7b64480026c3f	0.7409994602379654
211	0xbfc56e4c0dccc546	-0.16742849992582814
212	0xbfd344cb756b9ed2	-0.30107389895281955
213	0xbfce235e813e3e9e	-0.2354543810911211
214	0xbfc93327bd49e595	-0.1968736337910683
215	0xbfcebfea8753dcc1	-0.24023181541244834
216	0x3fc46c06c6853a41	0.1595467061365117
217	0xbfd072d2f2c9efdc	-0.25700830182881673
218	0xbfd16b4c4f4a0d79	-0.272173955374647
219	0xbfb10833343d012a	-0.06653137231206033
220	0x3fe1c860e26792fd	0.5557102605785925
221	0xbf9a4e84e0373493	-0.02569015139106463
222	0xbfbeb494387ba059	-0.11994291666963032
223	0x3fd2b5c15bdd0da6	0.29234346362155816
224	0xbfa277547a459a4d	-0.03606666557862024
225	0xbfd521f84d228351	-0.33019835980126283
226	0x3fdde963763e572b	0.4673699049684383
227	0xbfc4b76b8397c81f	-0.16184753346857492
228	0xbfa4934100038db4	-0.04018595814866491
229	0xbf81588af1638013	-0.008469663135144889
230	0x3fa7dc11ba5008fa	0.046600870126001184
231	0xbfcee83b9e5bda25	-0.24146218521464494
232	0xbfcf24ade4187a1a	-0.24330686223488912
233	0x3fca56f54d856c10	0.20577875409330249
234	0xbfc0049eae57a0f0	-0.12514098656470862
235	0x3fabcf95ae28551c	0.05431812048861159
236	0xbf85281098a42541	-0.010330323847045466
237	0xbfc462b5f8186e09	-0.15926241506609554
238	0x3fb3ac313b915230	0.07684619621552069
239	0xbfd0e2571594f963	-0.26381470782862076
240	0x3f910cabf488b931	0.016649901199508214
241	0xbfd33db4a102e88b	-0.3006412098290034
242	0xbfa0ff75d99bd54a	-0.033199007810177664
243	0xbfc6bbdc7f88d48e	-0.1776080725409525
244	0xbfa71cc86e421976	-0.04514147134709649
245	0xbfcaf66ef34dfae9	-0.2106455505381384
246	0xbfc307f3a027199d	-0.1486801654811644
247	0xbfc4f78c731c0e08	-0.16380458469949155
248	0x3fc0af6cb50bc499	0.13035353508124528
249	0x3fa5f93422366360	0.042916897941899235
250	0x3fa4f6eb6ab8974d	0.040946347024415
251	0x3fb7e510ca86aef6	0.0933390135239128
252	0xbfcbcc13d56fadcd	-0.21716545030299841
253	0xbfd72ca0bc66d951	-0.36209886931046237
254	0xbfc5ef9a6f9abc28	-0.17137461137233
255	0x3fc1832c7561a713	0.13681560260311496

gru.bias_ih_l0 f8 [96]
0	0x3fb4ec74b94d3425	0.08173303150142937
1	0xbfa978fa8a008e12	-0.049751118989913704
2	0xbfd63ff18bf0ba3a	-0.3476528040509127
3	0xbfd68398c9e15000	-0.35178203310829304
4	0xbfb965f1db1ecb8a	-0.09921180343262229
5	0xbf83505fc02583ed	-0.009430645037982155
6	0xbfd49f35768b6e81	-0.3222173364317556
7	0x3fc88671769c12c7	0.1916028813503969
8	0xbfd5cd88ea13d877	-0.340669849959688
9	0xbfc99d9455f1f89a	-0.2001214427618308
10	0x3fd5743ec3150465	0.33522004176126635
11	0xbfa50acd1f245c2a	-0.041098032046811575
12	0x3f84ebaedd93542a	0.010215154778430675
13	0xbfe7335ce1225479	-0.7250198743009967
14	0x3fdbe6ed72458cc1	0.43596969756454135
15	0xbfe3469e741a05be	-0.6023704784021715
16	0x3fd1b509a842373c	0.276674665751546
17	0xbfcca6c0d2242aaa	-0.22383890400700085
18	0x3fd1014dcef02d44	0.26570458611304937
19	0xbfc22c1c9c77de1e	-0.14197118415880622
20	0xbfbf8e343cc856df	-0.12326361164044951
21	0x3fd47e5554163692	0.3202107735786309
22	0xbf4d0c29dc3ef1c6	-0.0008864597698373048
23	0x3fdb778c5ecdb00b	0.4291716504874336
24	0x3fd8c464ff9ff0f3	0.3869869705520294
25	0x3fcec223b90ec799	0.2402996686556065
26	0xbf98b4110a5a6c79	-0.02412439943018938
27	0x3fd6dc68e6b3c03c	0.35720274476534875
28	0xbfdcc3c90b062785	-0.4494497878700872
29	0xbfde6dd1f531dcee	-0.47545288986971357
30	0x3fce1c537ab23b1e	0.23523944369340993
31	0xbfe00f40b8a929ca	-0.501861916223157
32	0x3fdfcb83abe41e38	0.49679652963866117
33	0x3fdfd6d6cf03a6cc	0.49748773781048494
34	0x3fc2f13486a5ea29	0.1479859979115912
35	0x3fb42df3f45173e1	0.07882618632125073
36	0x3fdf752edc767765	0.4915272858578333
37	0x3fdf93f4e758b2ae	0.49340555756024684
38	0x3fde33e4841da8ca	0.471917275447265
39	0x3fd7c60afc5be158	0.3714625801508382
40	0xbfa7122e429e5204	-0.045060582763799345
41	0x3fdfb6336d5d9972	0.49549565963970743
42	0x3fd4b16d266e1f06	0.32332924607224844
43	0xbfbbd4370f4c117d	-0.10870689509835603
44	0x3fbf67ac94fba175	0.12267569196013091
45	0x3fc850ae3e3737be	0.18996217763782214
46	0xbfb4ee8d33da0c20	-0.08176500812446408
47	0xbf947305e8a68b1a	-0.019970028233397753
48	0x3fc72e592ee6ae50	0.18110194006054536
49	0xbfb561f59624a313	-0.08352599063495018
50	0x3fdd591b34ef9937	0.45856361550831387
51	0x3fdeaa1ad1d6d9e1	0.47913237087359845
52	0xbfe7bddfad563569	-0.7419279466136405
53	0xbf17f9782a80f341	-9.145542083017785e-05
54	0x3fd7029055f4742e	0.3595314826396273
55	0x3fdd9de893bb8903	0.4627629702282691
56	0xbfc8bf7d056b7b4c	-0.19334376110688323
57	0x3fd4ed0b2500992f	0.32696798909673225
58	0x3fd2ac62e88ba6f7	0.29177162847064103
59	0x3fcea7d607f0e82d	0.23949695003267504
60	0x3fe16004b8ec705f	0.54297100179566
61	0x3fc21cae6d7e09a2	0.14150028559022326
62	0x3fde44009cee1ae7	0.4729005367775429
63	0x3fe1dac4c46db23c	0.5579551540846022
64	0xbfb753e81d21ca29	-0.0911240645525956
65	0x3f9aba2d3b77207a	0.02610083270499828
66	0xbf884ab44b3920d3	-0.011861237092617582
67	0x3fa2d834c6c63199	0.03680577207987596
68	0xbfc4b0b1bc43d94c	-0.16164228146198878
69	0xbfb59f1100565c20	-0.08445841081844252
70	0xbfb5b1f01f4a825b	-0.08474636806432427
71	0x3fc6a053d467bfc7	0.1767678057799442
72	0x3fae297fab6a6613	0.05891036002612906
73	0xbfba3b3919b70e81	-0.10246617200669485
74	0x3f9ac7ca5ca0b826	0.02615276518206868
75	0xbfb413fcef1d5c65	-0.07842999303589833
76	0x3fad51241c48cece	0.057259682133375386
77	0x3fc5d656434a27d3	0.1706035450518458
78	0x3fc0ba4851f216aa	0.1306848907590184
79	0x3f938213335ed144	0.01905088425674363
80	0xbfb910ad52981309	-0.09791072145896974
81	0x3fc293d92d4d677e	0.145136973495763
82	0xbfb816d5890fa8e3	-0.09409842106075277
83	0xbf8e3748a036873d	-0.014753882779419686
84	0xbfb2bacf14ed10e1	-0.07316297779931659
85	0x3fa2a8089a5f89e7	0.036438244671234625
86	0x3fb7459e96fde5be	0.09090605913470193
87	0x3f983254cfa06beb	0.02362949864628298
88	0x3fd3def95971698b	0.3104842542139969
89	0x3fbbebffe6a783a6	0.10906981831750659
90	0x3f9c533823d4e8e7	0.02766120642375194
91	0x3fa3e9ca893fbc30	0.038893059972786026
92	0xbfbd6fa0d9191fa3	-0.114984562876201
93	0x3fb8c177ce206aed	0.09670208723438707
94	0x3fba7263cc04db86	0.10330795031482695
95	0x3fba0478a977ecee	0.10163072717107344

gru.bias_hh_l0 f8 [96]
0	0xbfa61c248d65987b	-0.04318346239124168
1	0xbfcf360502802382	-0.24383604642960327
2	0xbfd848c803f0ba08	-0.3794422186355466
3	0xbfd5cec949e15021	-0.3407462331281313
4	0xbfd3d7b3d6c7b2b1	-0.3100404355489373
5	0x3fc9033de3fda7d3	0.1954114306675466
6	0xbfe0a07a9345b6e9	-0.5195896984493774
7	0x3fb47f452d382594	0.08006698945987117
8	0xbfe3fcd36509ec92	-0.6246125195897483
9	0xbfc5f735d5f1f89c	-0.1716067595152183
10	0xbf8a57779d5f77c8	-0.012862143030300546
11	0xbfaa1c921f245c55	-0.0509992278113535
12	0x3f95b8df6ec9aa8f	0.021213046204517524
13	0xbfdf0f430244a919	-0.48530650350098054
14	0x3fd8cf96b2458cad	0.3876702061590532
15	0xbfdf288f00340b70	-0.48685050029614896
16	0xbf82ee9cf7b919f4	-0.009244180974872208
17	0xbfc7365b42242a9d	-0.1813463280635305
18	0x3fd1ad86eef02d6d	0.2762162526493828
19	0xbf917040e3bef272	-0.017029775524621767
20	0xbfb8457a5cc856b7	-0.09481014981460133
21	0x3fcb2cb1c82c6d50	0.2123014666948202
22	0x3f952ea7b11e0afd	0.020685787377725074
23	0x3fc8adf27d9b5f46	0.19280844815397752
24	0x3fc4109eff3fe2c9	0.15675723517758502
25	0x3fcd794c990ec7a1	0.23026425813219212
26	0x3fbf10387d6964db	0.12134125768479313
27	0x3fdad42286b3c02e	0.4191976848078437
28	0xbfc26d6bb60c4e16	-0.14396425618234393
29	0xbfdacd2a9531dcee	-0.41877235956003644
30	0x3fc4d0d00ab23b73	0.16262245676304196
31	0xbfdf5d69615253a7	-0.49007639411984844
32	0x3fd201e1bbe41e59	0.28136485432375974
33	0x3fc85b1b3e074c80	0.19028034714446918
34	0x3fcfcb1b86a5ea40	0.24838584971060307
35	0x3fd623ccbd145cd5	0.3459350439529321
36	0x3fd3e8014c76777f	0.3110354658800744
37	0x3fd937c99758b2b6	0.39402999668053995
38	0x3fd6374abc1da959	0.3471247517651555
39	0x3fe001b0f62df0b8	0.5002064521973102
40	0xbfc51f59b0a79497	-0.1650192368098586
41	0x3fe50d88ceaecd18	0.6579021488927621
42	0x3fcb48eeccdc3e30	0.21316323283143523
43	0xbfd164d5d3d303e3	-0.27177949605908064
44	0xbfc7967815822ede	-0.18427945184918476
45	0x3fd9a6fedf1b9c86	0.4008176020419757
46	0x3f7aaf48c25f3b14	0.00651482030475738
47	0x3fcd3920a2eb2ee8	0.22830589251531497
48	0x3fde991da773572b	0.4780954489955202
49	0xbfc6257b6b125216	-0.17301886299232255
50	0x3fe6c12b3277ccee	0.7110801683142236
51	0x3fe2419710eb6c95	0.5705066042386472
52	0xbfebbf2945563578	-0.8670851091607537
53	0xbfa3007f7c15401c	-0.03711317434010672
54	0x3fc783b80be8e8a2	0.183707242789585
55	0x3fd478b013bb88fd	0.31986619879729955
56	0x3f72025552909715	0.00439675644978423
57	0x3fdace4405009986	0.4188394593096735
58	0x3fd8c5bf688ba716	0.38706956109545965
59	0x3fda3e3e43f873ae	0.41004902494187945
60	0x3fd002b961d8e157	0.2501662688769292
61	0x3fc5856ced7e09af	0.16813432308488305
62	0x3fdf7f675cee1ae5	0.4921511085052955
63	0x3fddf1db98db6455	0.46788682868424775
64	0xbf858f8abc5f1312	-0.010527690766943407
65	0xbfd2829bcb0868ad	-0.28922171428133475
66	0x3faf6db69d58449a	0.061383921343925965
67	0x3fc4552d4dafed78	0.15884939473458437
68	0x3f92226732203d75	0.017709362444347804
69	0x3fb9f48ac48c63fe	0.10138766573471966
70	0x3f9f78f2ee3e55d7	0.030734821120480618
71	0x3fc193209bfabfb1	0.13730247131524956
72	0xbfc6b52734659c15	-0.17740335520213138
73	0x3f841963cc58c380	0.009814052270572082
74	0xbfaca82af0f6b86a	-0.055970518030662955
75	0xbfcbdfcba79f3064	-0.21776719746265194
76	0xbf83babc6b295f7f	-0.009633514423668775
77	0xbfb043f42b3a73e5	-0.0635368924653928
78	0x3fbb682b54316e6a	0.10705824666495692
79	0x3fc22c0aaeac1ef1	0.14196904686854553
80	0x3fa832bbce17dce3	0.04726206675325686
81	0x3fc8b8639865521f	0.19312710705948263
82	0xbfc0921e85d5638e	-0.12945920500603986
83	0x3fa7959f9cc8a786	0.04606341160645315
84	0x3fd0f1df2301d9df	0.2647626726024139
85	0xbfd7a2a4a9f9b4c1	-0.36930195426141316
86	0x3fb046cbb80ea4ad	0.06358025783142081
87	0xbfbd7a2d010650c3	-0.11514550471321443
88	0x3fb680b3d1b0b767	0.08790134305374196
89	0x3fc46690030bcb34	0.1593799605248819
90	0xbfba5e25e3abb6a0	-0.10299908455246021
91	0xbfc2d9cc744627dc	-0.14727168729251516
92	0x3fc1248e132953be	0.13392806945435426
93	0xbfbe1bbca7f35367	-0.11761073208192628
94	0x3fba66245ad60aad	0.10312106340101464
95	0xbfa661f5af06d7de	-0.043716123214309496

gru.weight_ih_l0_reverse f8 [96, 6]
0	0x3fd6fb5c2ebd69df	0.3590918022579483
1	0x3fd6cb19cd1972ee	0.35614628819693805
2	0xbfe65a1dfb006fbf	-0.6985006239296964
3	0x3fa96ead11228c37	0.049672516194981524
4	0x3ff4a6eb065ac699	1.2907514808870586
5	0x3fe5123eea5452ab	0.6584772660013035
6	0x3fdaefd1b5ea4495	0.4208874012484299
7	0xbfda9d9178cc6d0f	-0.4158672027276262
8	0xbfe21fa096875d0f	-0.566360754014484
9	0x3fd3a0da403a85f7	0.30669266006779544
10	0x3fd0126bb6baec8e	0.25112431378119815
11	0x3fd52a8d464209eb	0.3307221590149811
12	0x3fc0ae62983e49d1	0.1303218119979435
13	0xbfd82702c36f7879	-0.3773810299443379
14	0xbfec6285e8f33e7b	-0.8870267438705491
15	0x3fd1a8eb4ad74415	0.27593500431709234
16	0xbfe72dc7ff48650b	-0.7243385301582362
17	0xbfe0ef500701653e	-0.5292129647088257
18	0xbfb73c7452dcbca1	-0.0907662107754157
19	0xbfdd12df2d294964	-0.4542768422153556
20	0xbffdddcc0f6acd3f	-1.8666496851190713
21	0xbfdfecdd5ecb7de1	-0.498832075665602
22	0x3fe450e2220238f2	0.6348734535438594
23	0x3fca7b982b71cd70	0.2068968021518276
24	0x3fd67e8b2a962425	0.3514736095317537
25	0xbfe3419baebdb452	-0.6017588055525585
26	0x3fe6e131d3bc5907	0.7149895797217888
27	0x3fd7671e0f96d9fc	0.36566878816975623
28	0x3ff1fbc85ea0b0b6	1.1239703842539206
29	0x3fe1a7f6e585900b	0.5517534716459535
30	0x3f82070f3eda1989	0.0088025275283712
31	0x3fc06aa0cd8b339e	0.1282540324813483
32	0x4003b85fb0cab8e2	2.4650262653222947
33	0x3faea56c45d9ea0f	0.059855826880227274
34	0x3fe8f6baeeba978f	0.780118433253607
35	0x3ff420fbaed4fb4b	1.2580525235532203
36	0xbfbdb37372ed6aa5	-0.11601945453495917
37	0x3fd606b43f80d2d8	0.34415918542371804
38	0x3ff82db886af1930	1.5111623059361357
39	0xbf60174b7348ca63	-0.0019642327918288223
40	0x3ff276c271af9b52	1.1539940300806006
41	0x3ff191c1a356ca14	1.0980850582533366
42	0xbfdca5df5208f2f4	-0.44762404452539717
43	0xbfb23ba0894e62fd	-0.071222337266942
44	0x3fd0db422d322efa	0.2633824769370531
45	0xbfe230387cbd9e62	-0.5683863102285154
46	0x3ff68f0a7bb5e0bb	1.4099221069755419
47	0x3fee5bca675a0bc9	0.9487049120510785
48	0xbfb38f5f1d532092	-0.0764064261048836
49	0x3fe579c71ac248fd	0.6711154482493665
50	0x3ff9c99b4ee5fc6d	1.6117203790634236
51	0xbfbe27b01442adcd	-0.11779308790817496
52	0x3f9b98493e1013b7	0.026948112881672617
53	0x3fed7d251bc293d4	0.9215264837445099
54	0x3fc3751315d773ff	0.15201033178792042
55	0xbfe7ba3f2559d232	-0.7414851884373717
56	0x3fa9a0e2e84fece2	0.05005559049456011
57	0xbfa5deaa063c754e	-0.042714417706728555
58	0xbfe8f271de55dbeb	-0.7795953123558069
59	0xbfedc16454a7d821	-0.9298574117117405
60	0xbfdae4364f574b83	-0.4201789641203321
61	0xbfe91d21b114d25f	-0.7848061045284104
62	0xbfd55272dd69c9a8	-0.33315726873766005
63	0xbfcd02ec0f57cbab	-0.22665167569320252
64	0xbfca00c01620ad65	-0.20314789848758177
65	0xbff127b7775a4a41	-1.072196451398341
66	0x3f92d839015a7126	0.018402949054334837
67	0xbfe2c92a0175b120	-0.5870561626921109
68	0x3fde60a750e87c69	0.474649266254295
69	0xbfe0117803df884c	-0.5021324229858322
70	0x3ffdf3f97df92ae1	1.8720641060669367
71	0x3ff2ae65fad2e47b	1.1675777242474215
72	0x3fcbd83b40c7fffb	0.21753636038920363
73	0x3fe43298bec96a77	0.6311763502411186
74	0x4003edb2ef9565cf	2.4910639493434483
75	0x3fd4233d64852593	0.3146508676187178
76	0x3fdefc1f1e6d7f9c	0.4841382786889825
77	0x3fe30f5205130d5e	0.5956201647863215
78	0x3fbecf0c30f5daf7	0.12034679599114982
79	0xbfe8c9e910c8bd8a	-0.7746472671332623
80	0x3fa62a96cb26e23e	0.04329367856866327
81	0x3faf57c880bd4321	0.06121660777592398
82	0xbfcfde630b23c1ec	-0.24897420925073221
83	0x3fd866afbf28ab8b	0.38126748721941145
84	0x3fe1ef65459058c5	0.5604730948132547
85	0x3fd3dc84bed6b2fb	0.3103343833598015
86	0xbfe405bcd11c3142	-0.6257003864462052
87	0x3fd72dd5fe79c603	0.36217260218754194
88	0xbfda8fdfa20816f9	-0.415031345590577
89	0xbfee446308214501	-0.9458480032718911
90	0xbfe065dabbcb11ca	-0.5124334018551562
91	0xbfdf397795884924	-0.4878825149800312
92	0x3fb0c29e7fd57203	0.06546965237561868
93	0xbfde559ae07c707c	-0.4739749138113962
94	0x3fe7c1695201f4f4	0.7423597909652515
95	0xbfeeef0481cf060e	-0.9666769538236524
96	0xbfd2747be87b2b27	-0.28835962012515143
97	0xbfd7cb79e3ea65ba	-0.3717941976297784
98	0x3ffeab1f18779419	1.916777701925872
99	0xbfcd773070dc7cc4	-0.2301998663979018
100	0x3feedc8f8bc1ff41	0.9644239167828134
101	0x3fdc5c503f30ae32	0.4431343667117488
102	0xbfb6c35e3c929331	-0.08891858080694416
103	0xbfe94b987ed67e49	-0.7904779889394798
104	0xc001ab84bbb1af5a	-2.208749262199416
105	0x3fc444326493e57a	0.15833120261212824
106	0xbfec8661a2da8981	-0.8914039784179267
107	0xbfe5bab5da7abd89	-0.679041792600331
108	0xbfd720caf3d32b15	-0.3613765126325899
109	0xbf9c3cd58897a62b	-0.027575813733994686
110	0x3feca8fd80c8c369	0.8956286921803499
111	0xbfd88393e7407305	-0.38303086836985784
112	0x3fe5a4df9d69212a	0.6763761591364859
113	0x3fd8e79ca5dda4ec	0.38913646886665165
114	0xbfccaab79fe458ad	-0.22395987803674214
115	0x3fe6f86e72f334e6	0.7178261036985105
116	0x4005ec4bd22a8895	2.7403789920072747
117	0x3f6ea20c62c4f37c	0.0037393800650122305
118	0x3feddbeea167359b	0.9330971863179686
119	0x3ff2433a0cc30344	1.1414127825266442
120	0xbfd1bf259f2a2ff5	-0.27729168456494274
121	0xbff065d8e380fe97	-1.0248650442953584
122	0x3fc252b4ba2ab417	0.14314898576904575
123	0xbfae69e76790c380	-0.05940173281886185
124	0x3fda183cff1a7be0	0.40772938644835044
125	0x3ffdd44b47def921	1.8643296058140282
126	0xbfcc0615113f92cf	-0.21893561689571192
127	0xbfd3c119c8270130	-0.3086609320271405
128	0x3fd2e1194b2cf297	0.2949889406334391
129	0xbfd638168897396e	-0.3471733411687613
130	0xbfbf58fecbceeb26	-0.12245171047008493
131	0xbfe78bc71ebef364	-0.7358127213006864
132	0xbfe43ee6843db717	-0.6326782782395836
133	0x3fed1ff001f7e8d1	0.9101486242718925
134	0x3fe7c51381fe569b	0.7428071536002848
135	0xbfe0b90ee735929e	-0.5225901141935372
136	0x3fe686337e4c6447	0.70388197581918
137	0xbfedd83391add80f	-0.9326417775434964
138	0xbfc629698688f747	-0.1731388003262799
139	0x3fe08b51a09cee56	0.5170066964123616
140	0x3ffa6bc5a68a4c0a	1.6513115411260082
141	0xbfcfe5cea7c98097	-0.249200660636238
142	0x3fff7c34a0f18035	1.9678236281252002
143	0x3ff464d18f40c380	1.274613914091077
144	0xbfb8880bb84a307b	-0.0958258938719058
145	0x3fc66abd93c8a4d2	0.17513246265415333
146	0x3ff2ee556284415e	1.1831868980699123
147	0xbfdca3a15d5b5ad5	-0.44748720280533166
148	0x3ffda8bd6d24ceff	1.8536962760380786
149	0x3fefaeff94ce7e1f	0.9901121050242557
150	0xbfe1718347822034	-0.54510654417482
151	0x3fe094791cb60543	0.5181241570245806
152	0x3ffe27577e4718fd	1.8846049244617114
153	0xbfc6804d9e2f9194	-0.1757905027763057
154	0x3fe0f872e55962e5	0.5303282241321453
155	0x3ff2f729662e1944	1.1853422156724074
156	0xbfbc9a905ee3a807	-0.11173345867760541
157	0x3fa451d3d323bb4c	0.03968679382693682
158	0xbfd1ec5a48035695	-0.28005082161448885
159	0xbfcabc1053e8eee2	-0.20886425110972257
160	0x3fec58fa44a9a7e4	0.8858615246838295
161	0x3fed4db03e40a26f	0.9157334533566209
162	0x3fa235c170ae9f15	0.035566372876301745
163	0xbfced7716c96854b	-0.24094980051180878
164	0x3fb367015490ad87	0.07579048456744007
165	0x3fb5667c584043ae	0.0835950580078719
166	0xbfdb7c2fd85b63c4	-0.4294547665463677
167	0xbfe558b5a0517276	-0.6670787936414644
168	0xbfc36a3f5f8dafe2	-0.15167991796204122
169	0x3fd543fbe1108b54	0.3322744081398714
170	0x3ff874794ebb00f6	1.5284360003861912
171	0xbfc22e3f634aafd6	-0.14203636501531375
172	0x3ff557d60afd116b	1.3339443616142386
173	0x3ff54c519dabe6c8	1.3311325224917017
174	0xbfabc80ff4e0cdd2	-0.05426072944865336
175	0x3fc78bbc0bf38572	0.18395186027104732
176	0x3fe10a272184b072	0.5324893622069011
177	0xbfbf434528aa9ea5	-0.12212021105608047
178	0x3ff45d754353692c	1.2728169088282568
179	0x3fb5bb8f9ad01903	0.08489320306407326
180	0xbfc0f049311fbf61	-0.13233294390328879
181	0xbfb16e4ed128ef16	-0.0680894146580012
182	0xbfcf13b495159603	-0.24278886107929062
183	0xbfde2ae1de36f496	-0.47136732769633605
184	0x3ff91f0bbf364ca0	1.5700795621130865
185	0x3fe6eedefcd3dc0f	0.7166590631521802
186	0xbfc3fbbb85cf4c91	-0.15611976655654705
187	0x3ff0027cefa2fff5	1.0006074295815754
188	0x3fe2d3a45c9406be	0.5883352096718324
189	0x3fc6c378cbcb7a72	0.1778403277484873
190	0xbff3d7b3f88aab35	-1.240161867967527
191	0xbff15975794ae9f7	-1.0843405473702867
192	0xbfde295a92c13af7	-0.4712740357544329
193	0xbfc7a4fb50f599af	-0.18472234204382462
194	0xbff3a2db5c370b30	-1.2272599794529917
195	0xbfde40774cc0819b	-0.4726846932917625
196	0xbfb3e78828221ee3	-0.07775164584938525
197	0xbfdf40f933fbaf85	-0.48834066463927456
198	0xbfe2f4a40d5afdc4	-0.5923633824203809
199	0xbff00410bd9310e0	-1.0009925275090197
200	0xbfe697d492512a26	-0.7060339792017813
201	0xbfdc88d203c95bc6	-0.44585085267811697
202	0xbfed6bb52c564cff	-0.919397913547442
203	0xbfaad2da34b82074	-0.052389925895170913
204	0xbfd681dcfb6f44b5	-0.3516762214104106
205	0xbfec2d7564271bce	-0.8805491405590773
206	0xbff74d4d336b7915	-1.4563724526011061
207	0xbfdeb3579da723d9	-0.47969618221082794
208	0x3fb72a903fea6f50	0.09049321709102043
209	0x3fd95b307789f8c9	0.3961907546398718
210	0x3fb4cdcec6f2cd86	0.08126537663593156
211	0xbfe204e041be3fde	-0.5630952152296194
212	0xbff1387eee47cceb	-1.0762929256277924
213	0xbfd465a2b99cee2b	-0.31870334745665
214	0xbfb90e955f5613bc	-0.09787877633614434
215	0x3f9a455f9ee4957e	0.02565526397042594
216	0xbfe22dde44bce63b	-0.5680991499459148
217	0x3fd2d3f7cd66fea1	0.2941874986536082
218	0xbfe10c70f5a2777d	-0.5327687070418815
219	0xbfd80e906b9e17a4	-0.3758889246895427
220	0xbfc7ccf465a4de47	-0.18594222033583405
221	0x3f71487319bd62d1	0.004219483958728802
222	0xbfe8ab54191385b0	-0.7709141244669606
223	0xbfd4154b2e70fe52	-0.3137996629265888
224	0xbfea8f33a7a7c155	-0.829980685664888
225	0xbfecd810e0323196	-0.9013752344922519
226	0xbfc7057e7d0ef215	-0.17985516649595526
227	0xbff39f9d5ce3d197	-1.2264684322845818
228	0xbfcf9d65702ddfe3	-0.24699085214137914
229	0xbfe7451c13770f43	-0.7271862392594602
230	0xbfe5c4a3b34dee67	-0.6802538396872934
231	0xbfbea1e3ab4f6fa8	-0.11965773517971334
232	0xbfca13ece0443fff	-0.20373307180898334
233	0xbff430ec9df9271e	-1.2619444056348992
234	0xbfe766ddb94f2a25	-0.731306898052314
235	0xbfd2794db510677c	-0.2886537807659051
236	0xbfdafb2c2a110bbb	-0.42158035381379094
237	0xbfee7900f16513b9	-0.9522709574454132
238	0xbfc05ba792d6eed8	-0.12779707593823875
239	0xbff8453a9ef09297	-1.516901608332011
240	0xbfe7a7ec84242067	-0.739248521888851
241	0xbffc802e44256b03	-1.7812941228827988
242	0xbfdfb0d2cc180790	-0.4951674454788355
243	0xbfea8fb2c348e924	-0.8300412954479595
244	0xbfeb2bbec504040f	-0.8490899894678722
245	0xbff05d2ab10204c2	-1.0227457918520462
246	0xbf7846634bf876d4	-0.00592650211140518
247	0xbff1969cd72dfaca	-1.0992706685498654
248	0x3fc4b822e2fd3fea	0.16186939319095411
249	0xbfd0b7bdb1836386	-0.26121466002728544
250	0xbfea96c7428759f9	-0.8309055613888737
251	0x3fc6312427001411	0.1733746710234816
252	0xbfc48a7c87d3f83c	-0.16047627098299866
253	0xbff5950b4ce25c1d	-1.348887729958512
254	0xbffd1cb1fb31718a	-1.8195056736213666
255	0xbfef657654eddbbc	-0.9811355265400077
