results/Bidirectional_GRU_Long/models/checkpoints/3/Bidirectional_GRU_Long-3-850.pt (torch_old, 215055 bytes, 18 tensors)

gru.weight_ih_l0 f8 [96, 6]
0	0xbfb5194cad491ba2	-0.08241729002575807
1	0x3febf0dfa7b7187c	0.8731535220802153
2	0x3ff214467c22a2ad	1.1299500321421576
3	0xbf69073f77b999ce	-0.0030552138903658715
4	0xbfc6718436155eb9	-0.17533924713892704
5	0x3f96ceebeb8e58f2	0.02227371812076568
6	0x3fcfd787455d68de	0.24876490485150432
7	0xbfca4f15b24fabde	-0.20553847509958606
8	0xbfe5b286c992162e	-0.6780427872587944
9	0x3fd079699e18e051	0.2574104350965217
10	0xbfb3294e3c8ac458	-0.07484902360990142
11	0xbfb944bc79454376	-0.09870508156497046
12	0xbfbf943ee6c332e5	-0.1233557999978064
13	0x3fd7f3fa4a9f862f	0.3742662171117414
14	0x3fd4093c41b8f453	0.3130636827298236
15	0xbfd06444d6003323	-0.25611992739213657
16	0x3fe7833eafe6d2fd	0.7347711024836766
17	0x3feae405f43f8891	0.8403348703834742
18	0xbfd22153bccff6fd	-0.283284124743531
19	0x3fdaeb70a67eecab	0.42062011966090534
20	0x3ffc10730b1c6be3	1.7540159639381663
21	0xbf723b3df30c5759	-0.0044510288141930915
22	0x3f9e64a8080b8dd4	0.029680848589931433
23	0x3fcad46e0f13460e	0.20960784660432846
24	0x3fc3e90f59fd6b81	0.155549925747291
25	0x3fad44046643ffc6	0.057159554942699795
26	0x3fc6fb8fa717bd15	0.179552036846396
27	0x3faf6711e16d0df9	0.061333235519239034
28	0x3fc05e88b20def18	0.12788494772018377
29	0x3fd7ef52e6b6e321	0.37398216753676833
30	0xbfc6e4bc211908c9	-0.17885543457129519
31	0xbfe626c846771c54	-0.6922341705584452
32	0xbff517269102d0ce	-1.3181520142070897
33	0xbfa1dc56d2e09fdc	-0.0348841793459653
34	0x3f9d597d22b52bf9	0.028661685222044018
35	0xbfe5ad6577af3a9c	-0.6774165475452096
36	0x3fdbf4b397e9123e	0.43681039652827625
37	0xbfa40b39fc21c5cc	-0.03914815142423897
38	0xbfe8c8751f65647e	-0.7744699109272373
39	0x3fd1e6c55d12c8b7	0.2797101410789184
40	0x3fdc03a7495c6d68	0.4377229896942567
41	0xbfed51bebae038f3	-0.9162286424559895
42	0x3fb3936e9ad11370	0.07646838454918536
43	0xbfc1040f2ee38e34	-0.1329363802861835
44	0x3fc3e6572f987f81	0.15546693634041378
45	0xbfaea9a9d0057518	-0.05988817848513345
46	0xbfdc5deda0a3b279	-0.4432329243416358
47	0xbf6fd38401521ec1	-0.00388503820665051
48	0xbfc2a0396a7bf0ba	-0.145514657015047
49	0xbff3ded16c576aff	-1.2418989402855798
50	0x3fd50b716e287cc7	0.32882343061096403
51	0x3fab39033147cfcf	0.05316934563225539
52	0xbfb87b5c4179711e	-0.0956323299264494
53	0xbfeee8980140a4db	-0.9658927940810388
54	0xbfd73480b4569a50	-0.3625795136562475
55	0xbfe78490800ea5fc	-0.7349321843259413
56	0x3fd064a6747c949d	0.2561432015957708
57	0xbfdcbc595bad84f8	-0.44899591401015426
58	0x3fba993fcf207402	0.10390089804464256
59	0x3fcae2c0c5afa8f5	0.210044952894641
60	0x3fd4b0d308f3958e	0.3232925021569252
61	0x3fb7c05a13523f28	0.09277880641661496
62	0xbfee4cbc1f17ff6f	-0.9468670470523487
63	0x3fafc8f87c61f55b	0.06208015936224839
64	0xbfa9cd6517ccae90	-0.050395163684098354
65	0x3fb49dc6b83e033a	0.0805324744997166
66	0x3fa6f6a1bc00fa73	0.04485040111511731
67	0x3fbc80b8a16de043	0.11133912984030396
68	0xbff1b7f9f26aff9c	-1.10741610235707
69	0xbfc857c78ff96ea2	-0.19017881898877415
70	0xbfd33ef08add2e06	-0.300716529473647
71	0xbfc0caa05db29522	-0.1311836678989176
72	0x3fcb435f62a475e9	0.21299354855084054
73	0xbff26d5e8d913ddf	-1.151701500890219
74	0xbfbbd6735f1840a6	-0.10874100753449287
75	0xbfc379ab33d9b918	-0.1521505358863997
76	0x3fd1460c092ca11b	0.2699003305047129
77	0x3ff017d841fbdd8f	1.005821473836338
78	0x3fb33bfe5e07e85d	0.07513418002773294
79	0x3ff26bd01502d433	1.1513214894050747
80	0x3ff5fbecc169da3a	1.3740050845350553
81	0xbfbd24cb2ad25a08	-0.11384267611934018
82	0x3fda573c85334bbf	0.41157448776101185
83	0x3fe5a8730af246c1	0.6768126691624375
84	0x3fe54a6a5b3707cb	0.6653339177648773
85	0x3fd55428535f523b	0.3332615675147143
86	0x3fe0b73d1a9391d7	0.5223680037566351
87	0x3fe553dc7e9cd883	0.6664869759467965
88	0xbfe0de0467e5e62e	-0.5271017102488196
89	0xbff722706a37d7d6	-1.4459079884668333
90	0x3fc74dea2451ebfc	0.18206526540220114
91	0x3fe63848457d6a16	0.6943703992104158
92	0xbfe818e587ff537e	-0.7530391365240658
93	0xbfbfd47909b96998	-0.12433582770737528
94	0x3fbb33e40364fd3f	0.1062605388915374
95	0x3fa3e58836faee2c	0.03886056586403827
96	0xbfc6cd413426c8fb	-0.1781388764043824
97	0xbfc5951d954bc927	-0.16861314573140726
98	0x3fdd8fbc100e7077	0.4618978649903122
99	0xbfa63b3b82cd298b	-0.043420657841653464
100	0xbfd2e74db5627180	-0.2953676482518617
101	0xbfc187b89da97769	-0.13695438097323212
102	0xbfc0cc7d0db8e9f7	-0.13124049348864705
103	0xbfecc927af807fd6	-0.8995550563595269
104	0x3fe2cc0d7fa46aee	0.5874087803852868
105	0x3fb7521d59c85502	0.09109672014195172
106	0xbfd9d1325ca6b893	-0.4033933548734094
107	0xbfdd11cded24020c	-0.45421169431941233
108	0xbfa97b1392bc3dee	-0.049767123853708614
109	0xbfebbcfe720b6ce3	-0.8668205478128609
110	0xbffdc3a575d6514e	-1.8602652171149034
111	0xbfbd4400487e31c6	-0.1143188645348295
112	0x3fc7d979959d1f20	0.18632430844649495
113	0xbfb40f43875e5eda	-0.07835790686510383
114	0x3fd0bbc31fcbc2ab	0.2614600954539507
115	0xbfed573c52c84947	-0.9168988816111686
116	0xbfe50b8f45b08a53	-0.6576610909581383
117	0xbf77adafcaf16e4b	-0.005780874910751142
118	0x3fc1b69b2dd9b153	0.13838519800936896
119	0xbfaec9b4a0fbe146	-0.06013264145980428
120	0x3fd36dd48cf2391e	0.30357850803638253
121	0xbfc03f39a8c697e2	-0.12692948094371476
122	0x3fe5f2401a3e8ec2	0.6858215820870657
123	0x3fcf872dd05cff72	0.24631283449161462
124	0x3ff32bb10a646c41	1.198166885943252
125	0xbfc00721ebd7f401	-0.12521766677664917
126	0x3fd25d8ff852cec8	0.28696059465731283
127	0xbfcb994e6496ccd1	-0.2156160346181424
128	0xbfe86b37cfd5ce15	-0.7630881366043832
129	0x3fc316f39693c481	0.14913792469409162
130	0x3fd73186ab5c7e36	0.3623978303384975
131	0x3fe1ea608cd7070d	0.5598604918270397
132	0x3fe0ba5eed9752f0	0.5227503433657983
133	0xbff1117787c76fe4	-1.066764383685034
134	0xbff15a5793269a46	-1.0845561740949434
135	0x3fd6c44c7b6029c4	0.3557311253395279
136	0x3fa4b8ca42e4086f	0.04047233644998093
137	0xbfed1765934d2832	-0.9091060521107066
138	0x3fb5e46b43a13223	0.08551664734950086
139	0xbfe17d25a0934c2e	-0.5465267311323083
140	0x3feb6e718d3d5a8a	0.8572318800532497
141	0xbfc57644d111fa03	-0.16767177780634776
142	0x3fef07ee38218df8	0.9697180839834223
143	0x3ff29aa9579b482b	1.1627591535693778
144	0xbfcda7e1b3459941	-0.23168584111699356
145	0xbff2455a0a619154	-1.1419315724861763
146	0x3fc075bfc393620a	0.12859341668696828
147	0xbfc091b92e29cb7e	-0.12944712404313558
148	0x3f8e2d280bf7237f	0.014734566559938987
149	0xbfab9aafe829cfde	-0.0539145441915989
150	0xbfcd7da053a5c42f	-0.2303963097033672
151	0xbff60a2d3a3e40a7	-1.3774845385669694
152	0xbfda50b371f5fed3	-0.4111755955600362
153	0xbfd28ec489ad2196	-0.28996385045004425
154	0x3fb60307004d7a89	0.08598369367016735
155	0xbfcff6f43a8022d7	-0.24972393852683325
156	0x3fa87b738011b0fb	0.047816857703624614
157	0x3fca1f7314ce29dc	0.20408476367840833
158	0x3ff49aee9ac0937d	1.2878252072343621
159	0xbfc64a3c490fd27c	-0.17414048736067744
160	0x3fe6146b4642ba7b	0.6899925586966015
161	0x3fe2bfa7ab8263c8	0.5858953809539509
162	0x3fa263605a6b775c	0.035914431607791925
163	0x3fec600e0d59a6b8	0.8867254505869004
164	0x3ff682b8fe1c34bc	1.4069147039584058
165	0x3fa7a10e317aa044	0.04615063051215931
166	0x3fe7e32286f28233	0.7464764247598111
167	0x3fe009e0df448433	0.5012058602043282
168	0x3fdb734a5c3e7516	0.42891177185249896
169	0xbfdf52e2beb749f2	-0.4894339430294671
170	0xbff261651c77ed98	-1.148778067784269
171	0x3fd1c660dac825f1	0.27773305287754996
172	0xbfd7be0044ab27d7	-0.3709717436400956
173	0xbfe2d3a598cb5b9d	-0.5883357986702894
174	0x3fd1348ae2afaa59	0.26883194100688496
175	0xbfcb9ffa0c00e07a	-0.21581960283379314
176	0xbfeeee16f611deb8	-0.9665636831332085
177	0x3fceb8d6432f3550	0.24001577644814143
178	0xbfdae0bdd3b6af3c	-0.4199671332851158
179	0x3fdb382212fcbfbf	0.42530109266499133
180	0x3fc695c1625c44b9	0.17644517233614979
181	0xbfaebe37077494ed	-0.060044974956591314
182	0x3ff93e57707f60fc	1.577720107501647
183	0x3fb2a3e16ccace5e	0.07281311899242257
184	0xbf9ce6a7e8774121	-0.028223632396305768
185	0x3fa356877049f514	0.037769539315357786
186	0x3fe472e323e412dc	0.6390243245119467
187	0x3fe3fecfce1ee832	0.6248549485965269
188	0x3fe98f5debd76d5d	0.7987508398322621
189	0x3fe2bb8dcefc33fa	0.585394768016726
190	0x3fce0083edfe9789	0.23439072724175627
191	0x3fdfcc57b8a77c1d	0.4968470862640418
192	0x3fe34ce3ca1e5999	0.6031359622600575
193	0xbfe61c89682c2654	-0.6909834894770008
194	0xbffbf849cc12bd31	-1.7481172534570073
195	0xbfd3e1b977b3f7ee	-0.31065212907549167
196	0x3fc65a2a833ee9f4	0.17462664993747945
197	0xbfe33a631eed07a1	-0.6008773426076354
198	0xbfa0ef08464248d8	-0.0330736718907631
199	0xbff0cfee72c1fe2a	-1.050764511368366
200	0x3fc51e4dfd83996e	0.1649873245107289
201	0xbfdacd97d11b55f3	-0.41879840298255927
202	0x3f9cd3ca079b051f	0.028151661600309127
203	0xbfe99ad1e8fddb59	-0.8001489210717906
204	0x3fe58fe8be973c1b	0.6738170359111594
205	0xbff7e1bd63207fc6	-1.4926122543474647
206	0xbfdde09c8eabb385	-0.46683420117079094
207	0x3fb3537ccaacf605	0.07549266765723679
208	0xbfdd7ac45e835050	-0.46061810712604245
209	0xbfef8d642c91fae0	-0.986009680796851
210	0x3fd7b8754b320555	0.3706334337549227
211	0xbff56b2cde02cc81	-1.3386658356000967
212	0xbfff50c23102c2b3	-1.9572164453967786
213	0xbfcb0e1e2bc31bd7	-0.21136834275077263
214	0xbfa98c5b65f70391	-0.049898964115988716
215	0xbfe263c5eaebba9f	-0.5746793354317851
216	0x3fc67cdcf77c5bb9	0.17568552097574555
217	0xbff1402e762b5a38	-1.0781693092336706
218	0xbff8da32ada83c69	-1.5532709868891976
219	0xbfcdd00106c386eb	-0.23291027860891886
220	0x3fc4dd150b2978ac	0.16299689335841572
221	0xbfe4d762810be803	-0.6512920875968579
222	0x3fe8ec6d98cb0ac7	0.7788608535996325
223	0xbff2f1487b86cd66	-1.1839070153481202
224	0xbffbf6e292fa6a58	-1.7477746716819151
225	0xbfd12a6a8484d072	-0.26821387234964
226	0xbfe20a732bd68f93	-0.5637756210530703
227	0xbfc5024f0e9a6f93	-0.16413295949029968
228	0x3fd7a7bfced5fa27	0.36961360167325313
229	0xbfda67eeae643f31	-0.41259352713040004
230	0x3fd6f83e2d5fca54	0.3589015429599034
231	0x3fe027fd92297991	0.5048816542364866
232	0x3f7e02527f4600a1	0.007326433424509699
233	0x3fede6ea6e01226e	0.9344379566692405
234	0x3fe77ac65ad50762	0.7337371610703765
235	0xbff6f25dcfb201a8	-1.4341714966868526
236	0xbfee1b834b6b5125	-0.9408585045844445
237	0xbfe1b35572a06699	-0.5531413306045635
238	0xbfa052c13a8e65c9	-0.03188136901662692
239	0xbfcda8451d76ff76	-0.23169769228661224
240	0x3fe7f8b5ca54fd05	0.7491101218983266
241	0xbfefea01aaf2ca4d	-0.997315248378365
242	0xbffeb9f5bbbcf508	-1.9204003652114938
243	0xbfe0e20a7087b152	-0.5275928686001328
244	0xbfceafc82ee8b85d	-0.2397394398735199
245	0x3fdbc824d5c7835e	0.43409081341638067
246	0x3fdfb1006a6bfdfc	0.495178321769316
247	0xbffc810a3735bace	-1.7815038830410006
248	0xbff6c480c721b5c6	-1.4229743746358152
249	0xbfd3a0ed94c50d4a	-0.3066972687558588
250	0xbfc3c3540054b0e8	-0.15439844146874937
251	0xbff65d2001082108	-1.3977355995467082
252	0xbfb1100aeb21d3b9	-0.06665104141741453
253	0xbfe5c7213a19d892	-0.6805578360351936
254	0x3faece8c0f187402	0.06016957935592161
255	0xbfe61df6fccab262	-0.691157811864809

gru.weight_hh_l0 f8 [96, 32]
0	0x3fd0d8c7af97b4d1	0.2632312025805961
1	0xbfce192caf96cffd	-0.23514326642691677
2	0x3fd57e7b7d6e40cc	0.3358448719891498
3	0xbf8b0846aae9e95f	-0.013199379053948133
4	0xbfaddc52a2639d4e	-0.058321554491892344
5	0x3fb8b56521d9ce88	0.09651786877094015
6	0xbf7af13aee6582f2	-0.006577711296217302
7	0x3f9bba211c7ae449	0.0270772145874825
8	0x3fcf8004943093d2	0.24609429584339054
9	0x3f908b2d9248e8fd	0.01615592198707193
10	0x3fade12e6f305d0c	0.058358622620454964
11	0xbfca519fe0efe955	-0.20561598284968832
12	0x3fcf26043fbc4c4c	0.24334767448508143
13	0xbfd6b65b17638984	-0.3548801163107316
14	0xbfd8fd94a68fe466	-0.3904773356039811
15	0xbfb61e6031a20454	-0.0864009972738285
16	0xbfc89545e7d237fc	-0.19205545253174694
17	0xbfc53a79f6135c73	-0.16584705844318
18	0xbfd08ddb4258905a	-0.25865823248955666
19	0xbfcd992f769390b3	-0.23123734750618538
20	0xbfc6d2028b12d101	-0.1782839945859749
21	0xbf766521b42b3342	-0.00546754041233727
22	0xbfc19194c51e250d	-0.13725528359308506
23	0xbf9f05a201cac5d3	-0.030294925078754375
24	0xbfb92628140eba0b	-0.09823847284017277
25	0x3fc4603a455256c3	0.15918663391919638
26	0xbfc457355b632c76	-0.1589113899447942
27	0x3fcc054d7e78651b	0.21891182589823974
28	0xbfae3b692ca56854	-0.059047018718687255
29	0xbfcb17e50e0fa0c3	-0.21166670977186727
30	0xbfa19c13d0fdfe0d	-0.03439390112088967
31	0x3fc9687b992baa2e	0.19850106219321745
32	0xbfa7677beaa5ff36	-0.0457113956390444
33	0xbfb2994d250505d2	-0.07265169290351217
34	0xbfb296ec1614cc59	-0.07261539019673204
35	0x3fc3d24289d9940b	0.15485412341072932
36	0x3fd8ee1110dd364e	0.38953043600927095
37	0xbfba48fe089be5fc	-0.10267627439670685
38	0x3fb727ee5b76e29f	0.09045304997460811
39	0xbfa9c8e75f7ac813	-0.05036089935801171
40	0x3fcdf7895d02566f	0.2341167167802953
41	0x3fb60333440ec59a	0.08598633204998976
42	0x3fba6a5d2b380bf2	0.10318548493528093
43	0xbfb83ffb6591f515	-0.09472628812541857
44	0x3fd404640c9c0307	0.31276799422634877
45	0xbfdf6d86f71e84a6	-0.49106001026854995
46	0xbfdb7851e4f7f48a	-0.4292187438985101
47	0x3fade9144ddfeaa0	0.05841887903803422
48	0xbfa782c2adb575ec	-0.04591949816197513
49	0x3f80045e7f018210	0.007820833445465275
50	0xbfb0f83afd9f9411	-0.06628769580818551
51	0xbfc49edbd5806b5c	-0.1610979835976093
52	0x3fb29b4a1c59b6f9	0.07268202964925398
53	0xbf8e95b0796abfc5	-0.014933947282173574
54	0xbfb1e07efe73ab2e	-0.06983178817942523
55	0xbfd3997778ea237b	-0.3062418633276633
56	0xbfc88359e1397747	-0.19150851723946458
57	0xbfaf1c219597c583	-0.06076149893841445
58	0x3fb4fb0443876b26	0.08195521019608218
59	0x3fc0fe64afdf1059	0.13276346766918115
60	0x3fbbbae5cfd94e6a	0.10832058262286073
61	0xbfc4eb7b7b698178	-0.1634363510702419
62	0x3fb607ca771bb977	0.08605637939374398
63	0x3fd77cc657f24495	0.3669906481600916
64	0xbfd74f344bec1487	-0.3642092458179111
65	0xbfb218b5bb084eb4	-0.07068954292509028
66	0x3fc500d527d4fc55	0.1640879101268832
67	0x3fa987ff717a0975	0.049865706064354955
68	0x3faa3b30cb4adf35	0.05123283845517649
69	0x3f9ffce88847ed00	0.031238206212930386
70	0x3fc679f1d48e149d	0.1755964553705426
71	0xbfc1b901abb80199	-0.13845845112520008
72	0x3f90e2d1bfd8f566	0.01649024709171467
73	0xbfc009c4a41172e0	-0.12529809962406713
74	0x3fb69b21944f82e3	0.08830461378921543
75	0xbfbd73bd8a174444	-0.11504730817183978
76	0x3f91a3ab5ba59451	0.017225911587406554
77	0x3fb026bf70d1c5c8	0.06309124473934624
78	0x3f975e2c0770b93b	0.022820175127145275
79	0xbf911f02b8864616	-0.016719858658296692
80	0xbfa8e68deaa58697	-0.048633990186101865
81	0xbfd52f7ea4afebb3	-0.3310238464616148
82	0xbfc809e7c389c3a7	-0.187802286603554
83	0xbfcc2087ca379d08	-0.21974274991882958
84	0x3fa2a30e09c60837	0.03640025967889964
85	0x3fc33ee24ccad46f	0.1503565669023916
86	0x3fe106c4f1145607	0.532076331003453
87	0xbfb04b1fb640f1fc	-0.06364629935792004
88	0x3fc4e6d9d34c88af	0.16329500977832853
89	0x3fba0fc1247686cd	0.1018028940220816
90	0x3fd55bce7b628837	0.33372842835717925
91	0xbfd5749377c49c96	-0.3352402371987834
92	0x3fa6d3adf812b44e	0.04458373692737237
93	0x3f5df705f6b92722	0.001828914474474926
94	0x3fcfd979f5e0a330	0.24882435327278918
95	0xbfb2c181ddedbacf	-0.0732651869600247
96	0x3fc060ab43302ee4	0.1279501035754641
97	0x3f916ded4741cbca	0.01702090022486028
98	0x3fd2597ce0bcbd4d	0.28671190211294545
99	0x3fc39a47331f9070	0.15314569469694872
100	0xbfc5d2c232f54a63	-0.17049434173766817
101	0x3fb50ef59740807e	0.08225951140093632
102	0x3fd3a3be3442581c	0.3068690786689119
103	0x3fb4f78056140b61	0.08190157033463442
104	0x3fc2dd601a6b1e3d	0.14738084115946207
105	0xbfbb6175059b3051	-0.10695582758779777
106	0xbfafbca243beae08	-0.06198603703463951
107	0x3fa5cdcf856b3d70	0.04258583549164541
108	0xbfcec8bfea5912eb	-0.2405013937260699
109	0x3f996f5af379f281	0.024838849173181025
110	0x3fccd291dea0e02a	0.22517608042267173
111	0xbfb20230a434f116	-0.07034591683345001
112	0x3fa3b73a50ef1f7c	0.03850729215588353
113	0xbfc6977d73edbff5	-0.1764981094415813
114	0xbfc72aaa171976b5	-0.18098951461700144
115	0x3fd0de58796b08d1	0.2635708986018815
116	0x3fc64ba568892630	0.17418353657039765
117	0x3fd085947be4344c	0.25815307711383606
118	0x3fc36b282d9078d9	0.1517076704485081
119	0x3fc9b4d459255870	0.20083097794367033
120	0xbfc777e23c9be95e	-0.18334606131959225
121	0xbfbea557c3d33185	-0.11971043139346278
122	0xbfbe5eeaa825ce90	-0.11863581280868574
123	0xbfa267bcc3bb6526	-0.03594770325953282
124	0x3fd437aa47d9c386	0.31589753166832
125	0x3fc6c01c9c85e37e	0.17773778574681026
126	0xbfc1db1a51224353	-0.1394989868317916
127	0xbfc0f863221fbdd1	-0.1325801769848867
128	0x3fca676c8be1359f	0.20628125028671904
129	0x3fddea4e2c7f012f	0.46742586465190333
130	0xbfe0161a9885a7b2	-0.5026982287356445
131	0xbfc448a3b6779e97	-0.15846678170713765
132	0xbfe0a9dcddbdcf45	-0.5207352000129296
133	0xbfd758eb6d757f65	-0.3648022240577034
134	0x3fd26eb28ab25f19	0.288006434866007
135	0x3fc17c5445af6621	0.1366067257174999
136	0xbfdab5888fc27986	-0.4173299220946308
137	0x3fc2f5168eeedccc	0.14810449580338625
138	0xbfe95f539615a887	-0.7928865367259882
139	0x3fe357183a310dab	0.6043816696696259
140	0xbfd5e644aa94c0d8	-0.34217945726687793
141	0x3fe6cc011395acf1	0.712402857066449
142	0x3fe6ed0d1dca0e91	0.7164369184324234
143	0xbfdeb5fc6793730f	-0.47985754122582674
144	0x3fe037793fd5672d	0.5067716833829984
145	0x3fdfe64c293c5ff6	0.4984312441533797
146	0x3fe88b57b100633f	0.7670095879612758
147	0x3fcafc23e0f80bd1	0.21081970677195597
148	0x3fd2e147ec7322f9	0.2950000580863584
149	0x3fd8cdb03d1f8018	0.3875542256264466
150	0x3fdb679253465e55	0.4281965077620716
151	0x3fc34af0b77276ab	0.15072449643496574
152	0x3fb93b66404caeab	0.09856261319935793
153	0x3f71901b9844787e	0.00428782252518378
154	0x3fa0a01a6a263857	0.03247149034278667
155	0xbfd7b53faa50e4f8	-0.37043754227086323
156	0x3fcc9261e6302f60	0.22321723689708062
157	0x3fe410cc3fa8ea03	0.6270505183559297
158	0xbfd0c859f6dd1120	-0.26222848041313007
159	0xbfe8d60fcff92044	-0.7761305868125494
160	0x3f67f0504c70e158	0.002922207673261717
161	0x3fd35db8df847f9f	0.30259534671676563
162	0xbfc3a70246baa2d8	-0.15353420690123332
163	0xbfd0b7af9cb35346	-0.261211302783796
164	0xbfbeafc5528f6a48	-0.11986954942350636
165	0x3fbe2a70be9084a5	0.11783508923010062
166	0xbfd0ffd7c316bf6f	-0.26561540652891485
167	0x3fa0d552b730aee8	0.032877526151734504
168	0xbfc6c5d74555dfc3	-0.17791262517471126
169	0xbf8d98f404a26f04	-0.01445189131873504
170	0xbfc5497f9c48e3ef	-0.16630549555864557
171	0x3f8d58312b46b481	0.014328369267639697
172	0xbfd1da25064c3077	-0.2789394914150373
173	0x3fd7dd4197cab5bc	0.3728794081060547
174	0x3fbf9b9a74a084d3	0.12346806857432861
175	0xbfbcdd875a72c8e6	-0.11275526006901124
176	0x3fd5cd1d36102a69	0.3406441715202733
177	0xbfa434461103a4a0	-0.039461316658909285
178	0xbfb417b20775ca79	-0.07848656351215223
179	0x3fc2fc2989d1e3f1	0.14832038144575635
180	0x3fc1b9bb288fb023	0.1384805629780895
181	0x3fcb1f344dbc5505	0.21188978000342487
182	0x3fde74d184b5106f	0.4758800312013198
183	0x3fc3585b379c79e3	0.15113392081634833
184	0x3fc2fb1b35de1e1e	0.14828815584427074
185	0x3fc6cc4c54ebd1af	0.1781096853880064
186	0x3f8b3ce692fd5232	0.013299752579464561
187	0xbfe0d077a53fd603	-0.5254476764227437
188	0xbfc7d287bb5a4ed3	-0.1861123719032692
189	0x3fc54c89607ee7f4	0.16639821254449283
190	0x3f35c1ba1e444d97	0.00033198160078137237
191	0xbfc83d7322eda64e	-0.18937529759868926
192	0x3fb65c7404a31b9d	0.08734822381221226
193	0xbfa25f00c23b8129	-0.03588106509210071
194	0x3f9177aa062665ce	0.017058045029988915
195	0xbfb04d3f608579fd	-0.06367870432357133
196	0x3f938188c9cdf829	0.019048821751759846
197	0x3fd2dee339843d2c	0.2948539792714253
198	0x3fdc1f9ee6db29da	0.4394299749807523
199	0xbfa7c6145f784ae1	-0.04643310227779352
200	0x3fd03e2c27171a26	0.253794706510606
201	0x3fc729b3db8ede01	0.18096016140565044
202	0xbfc00a29702afda9	-0.12531011559438568
203	0xbfb5afef3e680e82	-0.08471579812617772
204	0x3fc2a4e46fa8ba36	0.1456571145258338
205	0xbfd9c06b7433848c	-0.40236936900880305
206	0x3f8959ffbeac2997	0.01237869072567292
207	0xbfbac11d4b99a82d	-0.10450919242580943
208	0x3fd33c3b79fe0337	0.3005512896852908
209	0xbfcf57e056ac5bea	-0.24486927253812435
210	0x3fd3900cdcb2b8c1	0.3056671290641014
211	0x3fc5539ee0a07ced	0.16661439865217834
212	0xbfb507f6b3378a32	-0.08215276599325064
213	0x3fc26f65ba5258d0	0.14402457807290725
214	0x3fc0c363f45e005b	0.13096284324638216
215	0xbfa765653886d281	-0.045695460462785505
216	0xbfc69cc49dcd6756	-0.17665918069070113
217	0xbfe04c4890649923	-0.5093119449782403
218	0xbfce7ae8044e71f1	-0.2381258030917617
219	0x3fe0c6c743c58c48	0.5242649387040581
220	0xbfc414100e45fc2b	-0.15686226555769286
221	0x3fc111e5152b9738	0.13335860761361018
222	0x3fa75416266d3584	0.04556340426516228
223	0x3fda26035b3941d5	0.4085701361518919
224	0xbf8b539ccffd0f30	-0.013343072030358977
225	0x3fd0bee0e65b3ec2	0.2616502999853588
226	0xbfe166fc5bab0e74	-0.5438215055841753
227	0xbfa55b97c61f8286	-0.04171442311758704
228	0xbfb6db29904fc900	-0.08928165219530015
229	0xbfc408ff750b3ad9	-0.15652459349663309
230	0xbfb180ae84b1759f	-0.06836977710323432
231	0x3fa4b3137e9e5bdf	0.040428742605562944
232	0xbfad7e4602aa7824	-0.057604015183855745
233	0xbfb8f253ec4ec97e	-0.09744762915832969
234	0xbfd54ba37f21e235	-0.3327416173483784
235	0x3fd774bbcba8c436	0.3664998520717434
236	0xbfc1e2e6faa58993	-0.13973700750927928
237	0xbfb4576e24ade29c	-0.07945907969941363
238	0xbfaa3c65141d5644	-0.051242026048083505
239	0xbf75af7f44f184df	-0.005294320245498001
240	0xbfc5136ed621339c	-0.16465554671813443
241	0x3f9d6881247bb790	0.028718965389024798
242	0x3fc4247b57c5ceca	0.15736333642745698
243	0x3fc6fe14d7b901ab	0.17962894948324268
244	0x3fa8cd1a13e51b16	0.0484398030553647
245	0x3fc9fa355f806a4c	0.20294825709500441
246	0xbfbf7fc2c55ee31b	-0.12304322546596007
247	0xbfb476762c9750a9	-0.07993258083962708
248	0x3fca64bc67afaa5a	0.2061992174415817
249	0xbfbc4102b0ba51d6	-0.11036698164600209
250	0x3fca0ae927295321	0.20345796978167477
251	0xbfd206c12cb41af6	-0.2816622673566792
252	0xbfa83a6f42191cb2	-0.04732082063542843
253	0x3fb2361573b4c938	0.07113775324686322
254	0x3fb1a4617fc53279	0.06891450280563473
255	0x3f9fca6ad73650bf	0.03104559839773979

gru.bias_ih_l0 f8 [96]
0	0xbfcacb74ee70f243	-0.20933400766979746
1	0x3fcca6e1ebf84482	0.2238428499408976
2	0xbfd3aa0e4a834f8a	-0.3072543838181835
3	0xbfb1a5ff299b1208	-0.06893915906682235
4	0x3fbdc2ab8b3ac10c	0.11625167988927759
5	0xbfd459573a5005d7	-0.31795292563046246
6	0x3fcdba5c8d0f29e5	0.2322498024717127
7	0xbf9e7428ce12b096	-0.029739987924287968
8	0xbf9f72007c0c46ce	-0.030708320208822575
9	0xbfe0f39a94c8d57b	-0.5297367959926044
10	0xbfa805361891fa1d	-0.046914759158415566
11	0xbfc2b1e6e9117cb2	-0.14605413799561046
12	0x3fa854b4bdc5c695	0.04752125565108859
13	0x3f4b0e9ceeebfb90	0.0008257166171857667
14	0x3fd8923438bda011	0.38392358342253013
15	0x3fc99653419907f5	0.1999000616361283
16	0x3fb11b8a49500467	0.06682647981507871
17	0xbfb2652ba753585e	-0.07185623965355734
18	0xbf5f511dbcd15aa6	-0.0019114294439270068
19	0x3fabf69ee429c858	0.054615941383318656
20	0x3fd4989505b32f6a	0.321812873426771
21	0x3fbf43a71685735c	0.12212604808651178
22	0x3fd17d3deb3013f4	0.27326915710028676
23	0x3fb24979b950c917	0.07143364691072339
24	0xbfd77ffd984fa663	-0.36718692659505886
25	0xbfdde98f0aa0c316	-0.4673802951611362
26	0x3fc47595f87bfd20	0.15983843453430158
27	0x3fc55f306b4f1bc1	0.16696744193742855
28	0x3fc3bdc90f1bac6a	0.1542292903680818
29	0x3fcba90a85bacea3	0.216096225068772
30	0xbfba709364df0d58	-0.10328026974371107
31	0x3fd8aec5f3f61143	0.38566731285415673
32	0xbfaaac4f0f60a7bd	-0.052095862033027164
33	0xbfd0dc60ea745aff	-0.2634508409113749
34	0xbfdee0f054b2ac15	-0.4824791743400863
35	0xbfc3bb50f5c1006d	-0.15415393829062243
36	0xbfcc3a70147c58c9	-0.22053338051109098
37	0xbfcf6b1f776c6d81	-0.2454566319582732
38	0x3fda23da447a5396	0.40843826949395046
39	0xbfe556980799664a	-0.6668205402776917
40	0xbfcb05ec9647f794	-0.21111829126305948
41	0xbfd9b72cf995a051	-0.4018051564548886
42	0xbfd8bb61fdfd059b	-0.3864369373660225
43	0xbfe4087ca5f8a97d	-0.6260359994533214
44	0xbfdd1043d861dfce	-0.4541177380665403
45	0xbfd42bca41297150	-0.31517273295846326
46	0x3fcbe24f2374d266	0.2178439067007673
47	0xbfe24866820dd7cd	-0.571337942134727
48	0xbfcafdc4e67bb4ef	-0.21086941961349434
49	0xbfb14076b90c8201	-0.06738988893312838
50	0xbfc2c8c111130ba8	-0.1467515309687688
51	0xbfc7ea480517c9de	-0.1868371987216752
52	0xbfd570d9c147a732	-0.3350128543375944
53	0xbfd1622cf542a2ac	-0.27161716414642956
54	0x3fdab4c7773d6a15	0.4172838844730518
55	0xbfddc1311c50019c	-0.46491649403471924
56	0xbfdf4e7fc8895587	-0.48916620811117933
57	0xbfd55126fbe74c00	-0.3330781421656752
58	0xbfc36446ddbc82f2	-0.15149770571681348
59	0x3fda89991d717b08	0.4146483218700472
60	0xbfee39959ea53e5e	-0.9445293520493114
61	0xbfce2cfceafb9825	-0.23574792360085542
62	0xbfdcc466cd7f34b3	-0.44948740070396836
63	0x3fc56f0a87a749aa	0.16745120643333894
64	0x3fc0660b19458d39	0.12811411603898096
65	0x3f854f9840d9653b	0.010405721167603068
66	0xbfa0cb8e5245c852	-0.0328030085974126
67	0x3fb73fc0eb0f48cb	0.09081655253183667
68	0x3f8bb14fbc8fbf15	0.01352178854173717
69	0x3fa688c1a7122251	0.04401211895407598
70	0x3fb111f9b46c8d7d	0.06668053297885553
71	0x3fb4d34482bdb3a4	0.08134868804854861
72	0x3fb8ae8884bad895	0.09641316643214488
73	0x3fb1fc77f961e619	0.070258615860347
74	0xbfabe904d0fac80c	-0.05451216746349993
75	0x3fb12a5eeec91ce1	0.06705277757383811
76	0xbfc047984ab74f04	-0.12718490265125848
77	0x3fb2e9baa2b7e767	0.07387892220131463
78	0x3fb0f2dfdb540dec	0.06620596985526789
79	0x3fb4a1a307b79b97	0.08059138239296569
80	0x3fb844e643c4a082	0.09480132250303266
81	0xbf592091f5b568f1	-0.001533644236437367
82	0xbf9ea297dd6c5d85	-0.029917118920904002
83	0x3fc0044b196ac179	0.12513102284493607
84	0x3fb6523cddb92314	0.08719234860576491
85	0x3fd71b1ef09c5090	0.3610303258622105
86	0x3fa08ebe98c712f7	0.03233905425034849
87	0x3fb0bb36ff5a859e	0.06535667165964873
88	0x3fa9a6834bb69988	0.05009851741060617
89	0x3fa6b8c2beb6d320	0.04437836244634341
90	0xbfb8afa5b5305eed	-0.09643016503866493
91	0x3fc6127d5022e06a	0.17243925488378703
92	0xbfbc9ac3c42fa063	-0.11173652209947842
93	0x3f9543bb624d21aa	0.020766189455828567
94	0xbfc32771883d4abf	-0.14964121963801877
95	0x3fbc6791f111a842	0.11095535407517423

gru.bias_hh_l0 f8 [96]
0	0xbfcceed6ee70f242	-0.2260388054145484
1	0x3fd52d7ea5fc21f7	0.33090177735769494
2	0xbfbc8033ea0d3f4e	-0.1113312193313025
3	0xbfbaeecce99b1217	-0.1052063055349851
4	0x3fcbb118059d60c7	0.21634197496564964
5	0xbfb9cfbba94017f5	-0.10082600481118205
6	0x3fc94e456d0f29ed	0.19770114731939206
7	0xbf951146ce12b0bb	-0.020573717429827037
8	0xbf813fecf8188d3a	-0.008422709771429216
9	0xbfdc04813991aad6	-0.4377749502370255
10	0x3face8efe76e04aa	0.056464669228270495
11	0x3fad687c5bba0d4f	0.05743778819762701
12	0x3fc58355cf7171d1	0.1680705321222278
13	0xbf77ec0c62227eed	-0.005840347645204008
14	0x3fe052adfc5ecff4	0.5100927285297971
15	0x3fc10604c1990829	0.1329961724569
16	0x3fc46cea44a80204	0.15957382538182696
17	0x3fb71bbfd8aca76b	0.0902671722402865
18	0xbfbc32be96f3450a	-0.11014929948148136
19	0xbfb5b8c6edeb1bca	-0.08485072430185805
20	0x3fd5d427fdb32f70	0.3410739877260687
21	0x3fc405218b42b991	0.15640658664547094
22	0x3fdd74991b301448	0.46024158148822325
23	0x3fc2f6235ca86459	0.14813653969102594
24	0xbfc78c35f09f4cd0	-0.18396639107832025
25	0xbfd7d47a22a0c320	-0.37234357244146743
26	0x3fc05f28f87bfd29	0.1279040540029908
27	0x3fc954d96b4f1bc7	0.1979018949479878
28	0x3fc8d7970f1bacdc	0.19407928693485743
29	0x3fc3de2585bacf26	0.1552168753602185
30	0x3f9744296c83c9ab	0.022720954178063895
31	0x3fe29af4b1fb08dd	0.5814155079063102
32	0xbfcc0bd8e3d82a17	-0.21911154866423097
33	0xbfde98b0f2745af7	-0.47806953122328316
34	0xbfdf8e4634b2ac0e	-0.49305873056681626
35	0xbfb8041fab820115	-0.09381292283251626
36	0xbfcee75e147c58fe	-0.24143577575950553
37	0xbfc92bf1776c6d79	-0.19665354090907863
38	0x3fb68ee851e94f2b	0.08811809539593855
39	0xbfe825481799664d	-0.7545509777948581
40	0xbfd297477b23fb9e	-0.29048335099644784
41	0xbfe0edb45ccad024	-0.5290166675899894
42	0xbfdb4f189dfd0595	-0.4267026465277806
43	0xbfe75cefadf8a995	-0.7300947568776787
44	0xbfcf88e530c3bf56	-0.24636521226011138
45	0xbfd46c63f129714f	-0.3191156249138389
46	0x3fd11d2f21ba695d	0.2674062566162741
47	0xbfd9fb2c7c1bafeb	-0.4059554302209551
48	0xbfd1d36fe33dda77	-0.278530094066276
49	0xbfcce8e6fc864145	-0.22585761385244943
50	0xbfcb37db51130b65	-0.21264211138449265
51	0xbfdcaea1c28be4ee	-0.44815868376424717
52	0xbfbf043b251e9c4d	-0.1211583104728657
53	0xbfd5bbce1542a2b9	-0.339587708246238
54	0x3fc588c16e7ad4be	0.16823594946405324
55	0xbfd8ecc5a450018a	-0.3894514183630454
56	0xbfe061fd2c44aab3	-0.5119615425695286
57	0xbfd48236e3e74bfc	-0.32044765716744883
58	0xbfb41bddfb7906d7	-0.07855021848174758
59	0x3fdd74c2bd717b01	0.4602515077621519
60	0xbfeecb6ecea53e59	-0.9623331104321081
61	0xbfd3bc75857dcbdc	-0.3083776286723017
62	0xbfe33be5babf99f2	-0.6010616919928096
63	0x3fbbabf26f4e93c2	0.10809245316939012
64	0xbf8af328fb0f3d71	-0.013159103547791347
65	0x3fb02f42e5929104	0.0632211504440115
66	0xbfca4aa37b5a1960	-0.20540278933567446
67	0xbfd07ab6e28c50b8	-0.25748989223326246
68	0xbfceeeda1f0fb48c	-0.24166418568293968
69	0x3f9ecec7d0727ed9	0.030085680101023058
70	0x3fb75c985a66d19e	0.09125663954802696
71	0xbf4d9382f5d6f20a	-0.0009025945143359981
72	0xbfbaaf3cc4436586	-0.10423641006072701
73	0xbfb2a7160b036788	-0.07286203163985594
74	0xbfa8ea9bc68b4329	-0.0486649207938455
75	0x3fcad45125889e8d	0.20960439999293037
76	0xbf8744b74c5dee46	-0.011361534135850292
77	0xbfc7a9a6a7848b2b	-0.18486483745172086
78	0xbfb8a44683192703	-0.09625664425507456
79	0xbfb520c6e0dde5d8	-0.0825313853255446
80	0xbf709ccaa0933cab	-0.004055778038675554
81	0x3fbf8192fef6c617	0.12307089543062265
82	0xbfc330e6cb89a088	-0.1499298566661802
83	0xbfb889eab8544c48	-0.09585444450594693
84	0x3fb329e80deea204	0.07485819187298409
85	0x3faa7ef67b05b509	0.05174989940392478
86	0xbfc60222bb5135cf	-0.17194017549847593
87	0x3fc7b023c54f7f16	0.18506285795501104
88	0xbfb6f92df7df52eb	-0.08973967839785828
89	0xbfae389c1d550086	-0.05902564867074127
90	0x3fc3c1424f13ebad	0.15433529721471242
91	0x3fb83af6c4e32091	0.0946497183496169
92	0xbfa781c1b1195cae	-0.045911839359797355
93	0x3fc60abe5ad8bcbf	0.17220286785002334
94	0xbfb1ff83f3db7397	-0.07030510619683948
95	0xbfc14d9cfbfbde87	-0.13518106750392553

gru.weight_ih_l0_reverse f8 [96, 6]
0	0xbfc6c8d43b607221	-0.17800381564383463
1	0xbfb82ddb1675d41c	-0.09444970415445691
2	0x3ff39d2624a74e6f	1.2258664542941025
3	0xbfc75bdb42bbe3e1	-0.18249073751920178
4	0x3fd7826b580f7b71	0.3673351631131743
5	0x3fe925397bcc12d7	0.7857940118707017
6	0xbfae577f6e0013b9	-0.05926130502488242
7	0x3fb65b3a867bf24a	0.08732953818611935
8	0x3fdd4ae6ffb63fbe	0.45769667598596786
9	0xbfced3d6dc0540e0	-0.240839822227378
10	0x3fdb7ec871570193	0.42961321895929777
11	0x3feb1c8d45da2058	0.8472353328989
12	0xbfabf4e9047d9392	-0.05460289172950818
13	0x3fd85c03110dc973	0.38061596551337756
14	0x3feec4440aa0c4fd	0.9614582259729613
15	0x3fb654a52bac8f4a	0.08722908321629777
16	0x3fe3c62cea2ed1ad	0.6179413389095793
17	0x3fe226813d656217	0.5672002982274219
18	0xbfbc0ccab885db93	-0.10957018856957594
19	0x3fe314539ba0fb7d	0.5962312736154299
20	0x3fead33901a3b14d	0.838284018709183
21	0xbfc15f26cf0d4ecf	-0.13571629629097123
22	0x3fe636f203282934	0.69420719734743
23	0x3fdf521c710ebad0	0.48938666382575224
24	0xbfb7ccd3093bbee0	-0.09296912169861171
25	0xbfcf9416c5f7ed6b	-0.24670681635312106
26	0x3fcf73bcb449243b	0.24571951678288592
27	0x3fc5d3cd627c2bd8	0.17052619274940528
28	0xbfe3e19652edd470	-0.6212875003535725
29	0xbfe33f5d66a595dd	-0.6014849667378105
30	0xbfc3aaef008b04ea	-0.15365397955432708
31	0x3fd311f45cf35ff6	0.2979708583566202
32	0x3fef4c0fe349c317	0.9780349196645116
33	0xbfc2df2c6e2a223f	-0.14743571642999773
34	0x3fc2c045d08a62f1	0.14649269755025032
35	0x3fdc93c2764251f5	0.4465185313104308
36	0x3fdf3016656d49c9	0.4873100271699085
37	0xbfe6ed5a999ca04c	-0.7164738655310514
38	0x3fdea376489da25d	0.47872693148977935
39	0x3fe2110e1fac3e35	0.5645819300279472
40	0xbfcf6e5a9fdc6190	-0.24555523687082514
41	0x3fe448869d4bf1eb	0.6338532516670602
42	0x3f9e664307180fc6	0.029686972911818342
43	0xbfcaa9c037246db0	-0.20830538456435255
44	0x3fe3f14e4c320512	0.6232062805358132
45	0xbfb0f3f703b8f0a5	-0.06622260895614092
46	0xbfc1532727b3848a	-0.13535012663399854
47	0x3fc5db1cdc00636b	0.17074928991567204
48	0x3fa4af7bc8fc3e46	0.040401333126393754
49	0xbfe42755a56cfe4f	-0.6298015814754282
50	0x3fbe79fb40652cd0	0.11904878923558049
51	0xbfcb19adcaeef085	-0.2117211571584258
52	0x3fa388f9d8e69c0c	0.038154418685103136
53	0x3fe813020b3f8910	0.7523203105631939
54	0x3f9038011901664b	0.015838639403545945
55	0xbfd8c59e98eed231	-0.38706173834660534
56	0x3fe737fc80403894	0.7255842690372156
57	0xbfb8682d385a1da8	-0.09533960939199082
58	0xbf893db2e9259d12	-0.012324712505416478
59	0x3fd45f5da2970e52	0.31832066419540184
60	0x3fbfbcf0f08c1d8a	0.12397676346528477
61	0xbfe29e0c9c0f30e4	-0.5817931221040706
62	0xbfdd89f0c2555893	-0.46154421785230076
63	0x3fc1de5f3caf24ef	0.13959875548452014
64	0xbfc70b1126e3a379	-0.18002523802649842
65	0xbfe051ce5643a1cc	-0.5099860844466604
66	0xbfd0901d976661a7	-0.2587961176409643
67	0xbfe9ce4f3e482548	-0.8064342705194258
68	0x3ff3826c119c0a48	1.2193413436767901
69	0x3f8cec0e6b1c460b	0.014122116702796303
70	0xbfcccbbe6d24e241	-0.22496776894856121
71	0x3fd24375a60e66b8	0.2853674050944437
72	0xbfbc00d533a3e44d	-0.10938770781275871
73	0xbfe6cff6abc0e531	-0.7128861765442364
74	0x3fe1ade121e1fc58	0.5524755155346481
75	0xbfb6b9ec4b394362	-0.08877446018710836
76	0xbfb14712a9001857	-0.06749073625550871
77	0x3fd6d8535e143cf7	0.3569534701100134
78	0x3f70b78e51a067be	0.004081302578947841
79	0xbfe73f92e32a4982	-0.726510471040726
80	0x3fc59034650c3c54	0.1684632771871032
81	0xbfd93823a316eb91	-0.39405146528923135
82	0x3fe184c1631a9f70	0.5474554954171094
83	0x3fee2bfc5754a0ad	0.9428693490672423
84	0xbfd2f31feba70224	-0.29608915341308006
85	0xbfd07cd94cd2f67a	-0.2576201677546589
86	0x3ff008ab67c481e9	1.0021165898725661
87	0xbfc45d05fe30fa11	-0.15908884917912805
88	0xbfc293462c57fce7	-0.14511944928378925
89	0x3fd83ca4e09aaca5	0.37870141920093153
90	0x3fd57d3eab942025	0.3357693362781922
91	0xbfce0c5f120c8238	-0.23475254422466363
92	0xbfe76d7df21a1935	-0.7321157196572928
93	0x3fb31836953daf2c	0.07458821433618529
94	0xbfe75e80d0c3553a	-0.7302860333826751
95	0xbfe9f03b58ec24d8	-0.8105751740232803
96	0xbfa5592ae1925e15	-0.04169591907082918
97	0xbfe54be31f5e8200	-0.6655135739020466
98	0xbfda53f5084654f3	-0.4113743382270762
99	0x3fa77486bf7ef88d	0.0458109005698911
100	0xbfe9e08d1756d377	-0.8086610275118876
101	0xbfe8f0e26b00137b	-0.7794048395013385
102	0x3fc7b8ce48d107ba	0.18532732539648383
103	0xbfe368c25a3a9738	-0.6065379869730583
104	0x3fd1c66f7e9e75ee	0.2777365433229012
105	0x3fc8b42567130334	0.19299762280390953
106	0x3fdcbc3ab0064a2f	0.4489886015882431
107	0x3f509f375485e732	0.0010145225843118497
108	0x3f99bb08c0ffabc9	0.025127541331965184
109	0xbfe6ecd0b35161a0	-0.7164081098845152
110	0x3fdcfb7add729234	0.45284911752449664
111	0xbfdb668dbfee608c	-0.42813438170697604
112	0x3fc8378c8fb1f1fa	0.18919522301065667
113	0x3fe41573d23510f7	0.6276187043772826
114	0xbfc549638af336e5	-0.16630214962645265
115	0xbfc74d5960185686	-0.18204800789014913
116	0x3fe5e33eb4429b97	0.6839898606020708
117	0xbfa20308ecebf8ec	-0.035179404183496604
118	0xbfbf01a3036e5d7f	-0.1211187251450294
119	0x3fd72dce28865867	0.36217073400019334
120	0x3fce9237a2dce044	0.238837198756075
121	0xbfbfa42f10092cae	-0.12359899655818893
122	0x3fc45e9213fc9247	0.15913606620701357
123	0x3fc59f925bc08ba4	0.16893224220356473
124	0xbfd7780dbaa44061	-0.3667024920150706
125	0xbfd59f661ecc0f61	-0.3378539372208618
126	0x3fd5b61fd5c99aaa	0.3392409885185922
127	0xbfdbafee08fa542f	-0.4326129043268478
128	0x3fce066f48f240f4	0.23457137166815978
129	0x3fd8c2a53d6906a3	0.3868802165708109
130	0x3fc6a53fb483b09b	0.17691799463444088
131	0xbfb4588a17b341f4	-0.07947600439661767
132	0xbfc4c02cac44dfc6	-0.16211470042776294
133	0x3fe080f784b76f40	0.515743025981898
134	0x3ffdaf44b38665c8	1.8552901280112213
135	0x3fc231589811a578	0.14213092255821969
136	0x3fc614abdecf576c	0.17250584010497094
137	0x3fe4071e9a932c91	0.6258690852204315
138	0x3fa3061672ead3f0	0.037155820396414074
139	0xbfda5d8bb87c6c04	-0.4119595815297432
140	0x3ff2ad8ec902913d	1.1673724986986393
141	0xbfb2166ce9d1c036	-0.07065468510131798
142	0x3fb6c7ce96ae1078	0.08898631266316837
143	0x3fe1d6a4a8cf6b3f	0.5574515626025017
144	0xbf8253c2760c682f	-0.008948821284821743
145	0xbfd5713d8f382abe	-0.3350366495730376
146	0x3fe0378f97117ed7	0.5067823362878369
147	0xbfb815a179ee84df	-0.09408005930756101
148	0xbfca75afdc748491	-0.2067165209237243
149	0x3fd18db0281621b1	0.2742729560345892
150	0x3f967f77d5f904ac	0.021970627245768412
151	0xbfae85c04c679588	-0.059614190413223744
152	0x3ff905014e994213	1.5637219496021586
153	0xbfd0c7b6fb2fec14	-0.2621896222114526
154	0x3fd7f732c82124a5	0.37446279090779405
155	0x3fef64c398faf8d3	0.9810502994439737
156	0x3fb6bf3d3520b154	0.08885557696402674
157	0xbfeca4736d037d49	-0.8950745705769033
158	0x3fe63e52fb433291	0.6951079280348315
159	0xbf8e0b0bcc60273c	-0.014669506239460277
160	0xbfcfad2d1ebac1f0	-0.24747241974320344
161	0x3fd667a49014c210	0.35007585592669077
162	0xbfc6d3a60e147417	-0.1783340042829031
163	0xbfbdf5fc7cdf0456	-0.11703470276462843
164	0x3fd81ef7101ec85a	0.3768899590896858
165	0xbfcf9dc4b32a7196	-0.247002208216952
166	0x3feaa3f83157b8f5	0.8325158084606118
167	0x3feebd1a02303620	0.9605836909046879
168	0x3fcda7c54d20dff2	0.23168245569263451
169	0xbfdb435e7ef14c5e	-0.4259868850396681
170	0xbfb1af345aa0ee27	-0.06907965862858899
171	0x3f93a79962f0f250	0.019194027580157702
172	0xbfdf6b17e28f4d0b	-0.490911456346297
173	0xbfd84290b41c771e	-0.3790628203295102
174	0x3fd918a591dece07	0.3921293186678842
175	0xbfe7f38effcb64b3	-0.7484812732683593
176	0xbfe0d7def9bd12e5	-0.5263514402109563
177	0x3fd5008f42148ed3	0.3281591553988907
178	0xbfccf4ed83e92b60	-0.2262246030898849
179	0xbfd21d1b9a64cd96	-0.28302660062328167
180	0x3fc8408fc8bcd4a0	0.18947026540414402
181	0xbfda65e429a1b17f	-0.4124689489897477
182	0x3fb3f2271cb50d7f	0.07791370821819575
183	0xbf858a105d9c0cdd	-0.010517242295014767
184	0x3fb817e6bb01fe89	0.09411470475787999
185	0xbfb0501fcc7a6030	-0.06372259847773942
186	0xbfd3daefd9bcd52c	-0.31023784888687334
187	0x3fd402ed63e86a17	0.31267866856220067
188	0x3ff1f0f1f02fe515	1.1213244802768874
189	0xbf9295bfeb091726	-0.018149374695233388
190	0x3fdf155877c8054a	0.48567783067126824
191	0x3fed7f6966870c65	0.9218031885615231
192	0xbfe27ecdb03c65a6	-0.5779789392574244
193	0xbff339a2d347b767	-1.201571297944122
194	0x3fd97ab127bed5a8	0.3981135261668336
195	0xbfe21c1205d7e814	-0.5659265627030003
196	0xbfbada1d98b84253	-0.10489068010816398
197	0xbfdcc18a8d25e619	-0.44931281837452414
198	0xbfa3cebf6bd498a7	-0.03868673507013059
199	0xbfe3ff50ff6e4cce	-0.6249165524372076
200	0x3fd3e419d1686997	0.31079717111574595
201	0xbfdd51bc681b5bef	-0.45811376730620074
202	0xbf8a9c6e981fe9d8	-0.01299368287799478
203	0xbfe23a0a254fa73b	-0.5695849159940062
204	0xbfd0ebee2ca96317	-0.264400046934996
205	0x3fa77bc77965baa0	0.04586623532201384
206	0xbfb798a1ba29ae7d	-0.09217272562971775
207	0xbfc4d04b95a142b7	-0.16260666662357945
208	0xbfd6584301e79833	-0.34913706956865836
209	0xbfe399ce384bf815	-0.6125250911279659
210	0xbfd9348852136656	-0.3938313294907848
211	0xbfda5f2945423bd0	-0.4120581795077074
212	0xbfac7ac40a5539e5	-0.05562412859091007
213	0xbfe54474c1a475d3	-0.6646064550474712
214	0xbf836f379b227a45	-0.00948947374518839
215	0xbfec4b7f98b6f162	-0.8842161162097393
216	0x3fb7c1beb0089089	0.09280006215755256
217	0xbff1706b607cff74	-1.0899461525986824
218	0x3fb2cc4f30ba5b60	0.0734300130810488
219	0x3fa18b762e08e918	0.03426713287304234
220	0x3fd9d6956e70874f	0.4037221506606458
221	0xbfb41c3dae8c09b3	-0.07855592261697701
222	0xbfd97ac9d294b622	-0.3981194073156492
223	0xbfe5febeb4de7602	-0.687346795329802
224	0x3fd3d06fdd6d8edd	0.30959698318313916
225	0xbfca58ffabfb1262	-0.20584102532861254
226	0x3fdeb2e6b819df8b	0.4796692655431733
227	0xbfc80f30765e324d	-0.18796354083714775
228	0xbfd427b97c4595b8	-0.3149245942680312
229	0xbfe823b31d1d2164	-0.7543578690174795
230	0x3fcffa044a2434fc	0.24981740589320356
231	0xbfd44abb85ad24eb	-0.3170613103325894
232	0x3fde60073064bceb	0.47461108900001986
233	0xbfdf56ea8d3b7a0f	-0.4896799449178681
234	0x3fde3f95e8d9f4d7	0.47263095607179423
235	0x3f7427ecdfa84850	0.004920888221493128
236	0xbfb1f6866dd55fb2	-0.07016792470437741
237	0x3fd7ea951e042df0	0.3736927788856681
238	0x3fd3f39999def823	0.311743164314864
239	0x3fe4731941946a0c	0.6390501290182455
240	0xbfc0b3cfbe23832e	-0.13048741134755332
241	0xbfc13d4823aa04e3	-0.13468267194188063
242	0x3fdc8bc1fe70f6ce	0.4460301384714115
243	0xbfdf11fec579f92c	-0.4854733398896254
244	0x3fe05afcafa6e60f	0.5111068182661159
245	0xbfd2860f246400be	-0.28943232110760764
246	0x3fe0cbf276d5d151	0.5248958893776409
247	0x3fd45c370b1c6d45	0.3181283577448151
248	0x3fa8f2e89c0bcadd	0.04872824578150923
249	0x3fe0ab04e986dc91	0.5208763657636998
250	0x3ff0830cc67f21b2	1.0319946054242846
251	0x3fe31d52cd8c9985	0.5973295225747256
252	0xbfc47ea5a7ec99af	-0.16011496257233435
253	0xbfe7b06975156459	-0.740284660986741
254	0xbfad6c7bb73a0222	-0.057468286625411716
255	0xbfc3f01819eb68cd	-0.15576459184268857
