results/GRU_Dropout_10_Long/models/checkpoints/10/GRU_Dropout_10_Long-10-250.pt (torch_old, 83659 bytes, 10 tensors)

gru.weight_ih_l0 f8 [96, 6]
00000000: 439f 836b a3fc c3bf c3cb 51d1 1efe c8bf
00000010: 2d2d 71d3 d982 f0bf 34b5 03f9 100c b23f
00000020: fc73 630b e497 d9bf 3694 1827 1ffb d2bf
00000030: f044 5b12 a371 c73f 41f4 e09e d17f e5bf
00000040: da7e 1213 8bdf edbf 9ddc 761a 97a0 c13f
00000050: 0be2 79b8 6b18 bc3f 5b04 7925 0056 e43f
00000060: 0f95 4ffb 7482 a7bf ef90 96fc d13f e8bf
00000070: 1f7c 7f84 fbd5 be3f d346 f188 22ad c33f
00000080: 82b7 3c2e 9d7d d43f 57e5 5aa6 e627 cc3f
00000090: a013 9bfc 9a50 babf 2b90 ef6b c97e ca3f
000000a0: 4115 5c76 98ac e23f 9bae b790 7f53 cb3f
000000b0: 1b43 d81e 7ffb e23f ef46 6b8b c53c e63f
000000c0: dd35 d60a 0b33 a3bf 3f49 a8d2 fdde 5ebf
000000d0: ab8c 80a9 bfd3 f4bf c959 a5c3 1bb9 b9bf
000000e0: 9d5e 488b fc03 e93f eefd 603a 0cd5 f13f
000000f0: 36ea 2812 ff4e cd3f dba0 0848 27b3 d8bf
00000100: 73d6 23c5 5f15 f2bf c11f f66a 6f06 bc3f
00000110: c691 e986 afff da3f 2273 e140 7a08 e13f
00000120: faaf 3457 af76 a33f 814f 2202 65f4 99bf
00000130: c532 f7c3 4270 f33f ed85 b52a e9f0 d43f
00000140: 695f 1f32 9dcb ea3f 6c9c 23a1 96e6 ec3f
00000150: 3bdf 80bc e784 b2bf a95c 1841 9dff e2bf
00000160: f8ff 631b 5f54 f0bf 2afe 0585 acee 493f
00000170: 2e9d 5fa2 3111 d6bf 8f15 957f f934 d3bf
00000180: 6cbb 7113 3ded c0bf c285 979c 99a0 ea3f
00000190: 593f 034c f441 d0bf 54dd 4864 82c7 c0bf
000001a0: 8975 115b 751e e0bf 63c2 9e48 fdc5 dbbf
000001b0: 47f8 759e 558e b4bf a8b0 0643 78f8 d8bf
000001c0: 8838 eed9 fe79 f0bf 36ce 2d81 a6fb 793f
000001d0: 4c18 3ddc 18d2 dd3f 5365 af63 478a e43f
000001e0: ce5e 732b fbb7 d33f ada7 2af7 127f d3bf
000001f0: 8257 fb81 166d e3bf e29d 053e ae0b c03f
00000200: 709b 2e77 dc6f e2bf e0c8 0b7a a50c debf
00000210: e52b 08ed fd79 c43f b60a d630 4f35 d4bf
00000220: e592 cda9 fc7e f2bf 8371 4b29 7fd4 523f
00000230: df38 2964 3f10 c93f cfab 09d6 32e9 c63f
00000240: 5b42 3a60 cc51 d53f 684b 98c0 2ad0 f2bf
00000250: 6f56 5a6b d283 ddbf 158b 4ad1 9069 d33f
00000260: 5e4e a64a c4b3 bbbf 8f45 fcac f790 b0bf
00000270: ba9e da1c e623 b63f bc90 d294 e696 d3bf
00000280: f3c8 89c2 acba dc3f 3492 9fbc fe3f d53f
00000290: 3650 7832 c7cb cdbf 0706 4167 cf9e ce3f
000002a0: e28e 65ad 5a9f babf f152 b366 6588 d8bf
000002b0: b3a1 5b56 1f82 e93f 08b4 57a5 954f ac3f
000002c0: 233e ed93 3a81 d23f 6709 cc03 0ac2 e23f
000002d0: 6fa1 e0f7 530d d23f 0fa3 72e8 ddda d8bf
000002e0: b557 e850 9baa e2bf bf46 245e b5ac b63f
000002f0: 3068 3850 11b5 e0bf 9c41 7363 8f58 dfbf
00000300: 028a 8fac 979d b33f 18f2 3a4e c564 e3bf
00000310: d632 ca38 a848 f9bf ca3a 29ac 8115 cbbf
00000320: 18f9 b7af e103 dd3f f8f2 0b96 725e e13f
00000330: 25ba 1829 f3f6 b63f 3ad8 fbcd 9878 d03f
00000340: 77fe 6e64 b6f2 f13f f6b5 49c3 aaa3 93bf
00000350: 8198 ea0c 56be d93f a32f 5ebd ebf3 e03f
00000360: 7dcc 76af a80b c53f 9f8f 9e75 69f3 d8bf
00000370: e739 d1e2 1b49 d83f 98ec 66eb 5aa9 c53f
00000380: 3309 5c7b 33a7 d03f 9ba6 273b 025a e43f
00000390: 6321 94b6 a7a8 c5bf fcf4 69ab 0b42 ab3f
000003a0: 8066 917f b241 e7bf 3fd5 923d ecee a33f
000003b0: 33c0 4c37 4ba8 c93f 19fd c9ca b093 d43f
000003c0: 028b 1e9f 9870 c0bf a27e eadd c351 963f
000003d0: 2e7b dbca ab5a ef3f 4811 7f8c 3fd6 973f
000003e0: 3211 9c95 085c de3f f565 28c9 1988 ea3f
000003f0: 65f2 417b 6ec2 cb3f be22 02aa dd5d e7bf
00000400: 0604 2931 35d3 f0bf 7479 774a 2423 903f
00000410: 7113 0635 d602 e03f 7faf 4014 efb6 e83f
00000420: fff8 a98a 802a d83f 2338 79b9 b478 d1bf
00000430: e104 db46 341a f2bf f910 7023 f78d d73f
00000440: 147c 4da8 93b9 c93f b60c 24c1 8f1e 97bf
00000450: fa7c 42cd c320 c93f ec82 0b3e 07ed c63f
00000460: 90fd 04e9 1d2a d2bf 7e29 4edb dbcc be3f
00000470: e867 e3c9 2c05 e13f d7ef 9eff a6d4 dd3f
00000480: 5ab8 6cea 1daa b9bf a22f 782f fd31 99bf
00000490: 0e63 3c96 a966 f03f 0604 c271 45e3 c2bf
000004a0: a2d3 c0e8 df7f d73f 207b ceb0 a5a6 e83f
000004b0: 4c9f ecd6 84a7 d2bf f3e4 6020 5d47 f3bf
000004c0: fcfd 45fb a4d5 ca3f 4e7f aed5 e4b8 cdbf
000004d0: cc28 765d 17a9 c7bf 3a7c f718 e54b d73f
000004e0: c227 9728 c16c c9bf b378 71a6 f8d7 cd3f
000004f0: e50e 1dcc 9369 fe3f 7b8a 79e9 6406 3abf
00000500: 0ad9 aaf1 dd11 d4bf ab01 8ffd 7376 d13f
00000510: 5072 bb3b e97a b13f 0978 6129 4075 c13f
00000520: a8e9 7d7c fbe3 b13f 4658 f91b 6146 d43f
00000530: c861 8743 fa3d d03f bf03 bd07 341c e23f
00000540: e481 4d4a fde8 c23f 9bb0 ba58 4120 f3bf
00000550: 04b5 674b 9617 d03f 57e7 2a13 53ab b7bf
00000560: cb52 509a a0d9 b8bf 944c a52f dc5b ba3f
00000570: 789d fd69 79ed d93f 6a27 dd55 e0e8 f0bf
00000580: 6f34 e80f 623f d9bf 11d6 7f76 1bf2 c43f
00000590: fe97 30e5 90ca cebf 563e 3d9b 4735 b6bf
000005a0: 9af5 f2f9 26f6 973f 78b9 02e9 0227 e5bf
000005b0: 4484 eeeb 7802 f3bf 7bec 95ed 6e2a c2bf
000005c0: 1336 db73 7558 d03f 2121 c22a 4a3b c93f
000005d0: 7cbd 2cbd 1ceb c9bf 9fe4 f580 79bc c73f
000005e0: a28c 6956 7d74 f23f 90eb daf6 d9f0 bb3f
000005f0: 07d7 078b 7f61 e53f 4458 41a6 36aa e83f
00000600: 55d2 ad49 ca11 d33f 603e 171e 563e d9bf
00000610: 438a f975 b8b8 e4bf 0e05 9bdb 4204 b53f
00000620: 696e ea1e 4473 ca3f 1834 5c63 0cfd cdbf
00000630: 2fca 40fd 9cf0 e03f 6f12 6da4 4f9c edbf
00000640: a020 5d53 6f34 ccbf 666e b8f3 1475 d03f
00000650: f565 b5c1 6817 c1bf da30 ce72 06e5 e0bf
00000660: fe77 927e d0bb f13f fc1e b9d9 fc97 f6bf
00000670: dc8e 23d8 ba10 ebbf 0197 6803 5673 e13f
00000680: 973f 7372 5ef5 d4bf a331 562f d65b c73f
00000690: c8fb f004 06fb e03f e099 9e7a 0868 ecbf
000006a0: a4e5 7344 cbdd ddbf ef91 5742 9115 db3f
000006b0: 84f1 ea61 2e29 a3bf 7660 fba3 647e d6bf
000006c0: 30bc 0302 28c4 dbbf 7fd3 438b 755d d1bf
000006d0: 61ff 0535 84c9 7e3f ac25 264b 2910 d7bf
000006e0: 6666 1d8b da2b b1bf 50d9 ec96 5767 debf
000006f0: e3ff 3d54 bfd6 e63f 83bd 3339 611b f1bf
00000700: 0bb4 341a d79e d3bf 82c8 22cb 10f9 d43f
00000710: 4089 414f def7 b03f dd05 dc25 a453 c1bf
00000720: 0c3a 19cc ccb3 cc3f ab63 2b18 db2b c83f
00000730: 2d74 535b d2fb e4bf 19d3 db8b 0c1e d33f
00000740: d4de 0bb7 b6d3 e8bf 6db3 9271 723f e2bf
00000750: 53d0 a920 ae35 f03f ca6d 4c3f a323 f6bf
00000760: 176b b89f 4489 e2bf 0de9 45df 6905 d93f
00000770: 452c 7971 417a d5bf 2a41 87ba 752f e4bf
00000780: fae6 00c2 0a45 6e3f 3e54 8ee8 a025 bfbf
00000790: 276e 949f c9f7 dfbf 08cf df0b 429a d93f
000007a0: 77a5 2d80 5e16 c8bf cc39 2916 6afe c33f
000007b0: 6b8e ec64 0c78 e33f 1e2e 9d43 b584 e8bf
000007c0: fdd2 2ce7 8817 c0bf 41c4 7b7d 1d09 733f
000007d0: 68da 9082 2d05 6fbf ae96 cab2 b863 d0bf
000007e0: 7267 06bd 475f e43f fe23 faa1 fa00 ecbf
000007f0: 8358 55f3 ec86 ecbf 43ed e035 8290 ca3f
-0.15614741086687375 -0.19525513859443153 -1.0319460162598475 0.07049661712126892 -0.3998956786361416 -0.29657725160570025 0.18315542599024282 -0.6718528845882547
-0.9335379955773206 0.13771332542612394 0.10974763158618132 0.6354981166733852 -0.04591718261489507 -0.757790559135655 0.12045261368574288 0.15372115790028448
0.3201668693098939 0.21996768114858398 -0.10279244105465901 0.2069942261724703 0.5835687934601667 0.21348566595348903 0.5932002642094604 0.6949184153583853
-0.037498803208204846 -0.0018842200030389636 -1.3016964551141352 -0.10048078085433255 0.781736633335601 1.1145136146950523 0.22897327791891237 -0.38593465837995006
-1.1302182865887545 0.1094731937538418 0.4218558137420384 0.5322848574829531 0.038014869113197805 -0.02534635377430972 1.2149074225337 0.32720402880485616
0.8373552302318618 0.9031479975937038 -0.07234047271856252 -0.5937029143705291 -1.0205985135980864 0.0007913915997476751 -0.3447994313887247 -0.3001083131715285
-0.13223994683672957 0.8321044977603196 -0.2540255300818806 -0.1310885419531852 -0.5037180689502502 -0.4339593133145511 -0.08029685133621554 -0.390165391402443
-1.0297840607559312 0.00634350815640832 0.46594830997162684 0.6418797442412746 0.30810431712369 -0.3046309865700277 -0.6070663965899572 0.12535646465697342
-0.5761549308561893 -0.46952187460477823 0.15997289727997024 -0.3157537438311623 -1.1560026772432874 0.0011492959794657538 0.1958083380763531 0.1789916558367097
0.3331175746652996 -1.1758220217932038 -0.4611707733505232 0.3033182185992456 -0.10821177313328564 -0.06471202824857002 0.08648527340357762 -0.30608524831246675
0.4488937282359437 0.3320309488320021 -0.23278131450990863 0.23922150174807674 -0.10399405225103522 -0.38332495717376874 0.797134083431095 0.05529468196241544
0.28913750120134035 0.5861864160690801 0.2820634766271927 -0.38835857105236554 -0.5833260135866484 0.088572822078528 -0.5221029822162162 -0.48978028022704634
0.07662342036159234 -0.6060511138853739 -1.5802385538437895 -0.21159382730771475 0.45336191329978837 0.5427792482947487 0.089705655606601 0.2573606502113567
1.121755974119791 -0.0191790277189536 0.4022421957146279 0.5297754953949049 0.16441830222683854 -0.3898566864611385 0.379462214947948 0.1692308091568051
0.26020514532878564 0.6359873919838778 -0.16920944609615693 0.05323826281981245 -0.7267696849405212 0.03893221141462754 0.20044841957269596 0.3215143185006624
-0.1284361626577138 0.0217962841221594 0.9798182451303086 0.023278229665963296 0.4743672810584655 0.8291138581145662 0.21687108057439555 -0.7302082367396776
-1.0515643997498514 0.0157590551806321 0.5003462825412567 0.7723307986793627 0.37759412328149716 -0.27299230682990777 -1.1313975112719208 0.368039879424273
0.20097585409072904 -0.02257752052629477 0.1963124038929676 0.1791085293725908 -0.2838206077176091 0.12031339744695477 0.5318817084437315 0.46610426867459637
-0.10025202725657448 -0.02460475542288488 1.025064074381763 -0.147560768647992 0.3671798489552264 0.7703426793339965 -0.2914745425100491 -1.2049227967057135
0.20964491147240938 -0.23220501359628049 -0.18484775603821502 0.3640072578254522 -0.1986314247317847 0.2331534207068607 1.9007757161315848 -0.0003971096389020834
-0.31359051323251264 0.27285480271896273 0.06828172405534727 0.1363907053045639 0.06988498486854289 0.31679561359249353 0.2537828120671546 0.5659427786960051
0.14773527267517672 -1.1953748193728078 0.25143964160709253 -0.09245795457800675 -0.0970707298986994 0.10296417391991702 0.405119279390838 -1.056854567914764
-0.3944935946790968 0.16363852773763246 -0.24055682364377157 -0.08675048389454196 0.02339993382041925 -0.6610121298779594 -1.1881036010820631 -0.1419199619375354
0.25539909662333676 0.19712187850769516 -0.20248755681084762 0.18543928906345727 1.1534398437004616 0.10914385105836133 0.6681516375963107 0.7707780120060836
0.2979608268281358 -0.3944297117095399 -0.6475488952822349 0.08209627019370577 0.2066426421123311 -0.23428492404528423 0.5293717333173101 -0.9253309451529058
-0.2203501851129248 0.2571461086351746 -0.13352689226557826 -0.527957176427232 1.1083531326507905 -1.4121063713845947 -0.8457922193014968 0.5453291002820323
-0.3274761312177303 0.18249013244020515 0.5306425186644157 -0.8876993555939485 -0.46666223225437364 0.42319137076108765 -0.0374235624817372 -0.3514644242654933
-0.43384742924439745 -0.2713292942055929 0.007516399797509483 -0.3603614076497148 -0.06707540413244714 -0.4750575040701692 0.7137142796855155 -1.0691845163781586
-0.30656983908812724 0.32770175778853894 0.06628217158280325 -0.1353650269375483 0.22423706022023315 0.18883837394858224 -0.6557399543486376 0.2987090459640043
-0.775843961250724 -0.5702450006698264 1.0131055141364598 -1.3837006065940494 -0.5792563552416564 0.3909554176713222 -0.3355868919504171 -0.6307934420711139
0.0036950311769289286 -0.12166791608463343 -0.499498754348425 0.4000401607474804 -0.18818265207964277 0.15620161134797994 0.6084043475315871 -0.7661997147164958
-0.12571822440954597 0.004647364803291033 -0.003786648642314195 -0.256086515999736 0.6366308872122615 -0.8751195109954322 -0.8914704086880793 0.2075350535468293

gru.weight_hh_l0 f8 [96, 32]
00000000: 6856 5896 e994 a53f e3c4 6ed9 8492 ce3f
00000010: c4d9 412a 121c bd3f 9fb7 2873 d04c d5bf
00000020: 73ea 9940 848f bb3f c606 3e5c 2fa4 70bf
00000030: 6464 46be 5277 b3bf 59b2 79db 128c a63f
00000040: 383d f9d4 aa15 cabf 0de7 06cd 5add b43f
00000050: 885f f1cf 707c c73f c244 cda5 3777 a7bf
00000060: 2bbe f526 b0f3 d13f ba87 cc10 4f0b d6bf
00000070: f308 2349 af7c c1bf bb6e ec28 8069 d9bf
00000080: aed1 07fc bf0c a43f 5c17 6deb 9ac0 b03f
00000090: 6908 ef23 3877 c13f 2930 c42a eb78 b43f
000000a0: 0e1c d397 903f bf3f 9f4c 3620 bbe4 bf3f
000000b0: 5dc0 d385 6a53 c3bf cd0b 7d5c 8495 c13f
000000c0: 1d68 1310 c8bb c13f 5c8f 0894 a07b b5bf
000000d0: cc6b 70bd bfb2 b83f 4d7c 35ec c98d c5bf
000000e0: 5159 5a2f eed8 9a3f 98bd fc00 0368 cd3f
000000f0: 92a5 ebef f9bc b0bf ae74 9c98 8f4a b43f
00000100: 5e3a 4361 5802 253f b8ff 1a97 eb3d c33f
00000110: 9107 acc6 d880 c4bf 2e6f 6ab4 423d c4bf
00000120: 1189 fc98 2481 9cbf 9e37 4ea8 2b66 babf
00000130: 2538 f623 9ed7 d2bf 7613 7653 b30c d03f
00000140: 4420 6261 73dd bbbf 6fb1 4c96 711f aabf
00000150: e386 87b1 6628 c03f ac5e b378 5161 b6bf
00000160: 4846 30ff b651 d93f 8566 1e6e 01cb ccbf
00000170: 3b2c 455e 5cbf aebf cdf3 272f 188c d8bf
00000180: ca60 9f94 c8af a33f 8bcd 15b5 0f27 bf3f
00000190: 2fd7 9ef5 9c7f c53f 8f43 743c 7189 a03f
000001a0: 4ee6 998b db00 babf 398c bdb2 0ece ab3f
000001b0: 1cb3 0e8e 071c cabf f768 469f d0c7 c6bf
000001c0: 43c6 1b2f 7712 b2bf 3b40 7810 51cf abbf
000001d0: 1070 ac7a 06e0 b5bf 64f3 60e3 cb8e c5bf
000001e0: 97c2 655a 7a03 c33f 12aa b69f f8bd da3f
000001f0: ece9 ea39 2f9f b6bf 4be3 568c e37a c1bf
00000200: f626 ecf5 8919 c03f 010c 7829 7514 bf3f
00000210: 5472 c77c ce1f b33f e7c0 e192 5b8b a4bf
00000220: 21bf 3923 4881 b93f b0d2 061f 09b9 c43f
00000230: 95a5 f04f 1a35 c73f c63b 8905 a7f6 7bbf
00000240: 137e bcca 9598 c53f 0515 9fd4 25a5 b93f
00000250: a389 b7a1 3c8b b13f 7fe9 68ba 10df 96bf
00000260: f413 8073 82e6 bcbf 76b7 c81d 6765 bdbf
00000270: f69e 4c89 2815 a83f 5ebb 2f63 35a4 c2bf
00000280: ca87 a3e4 00d6 bc3f 08f3 e8b1 4d0d bebf
00000290: 794c 5862 5227 a53f 5211 a2e6 a233 a13f
000002a0: 3880 b8ce 2838 c6bf 6c86 bd38 4fda a63f
000002b0: f97c f230 9a60 d23f 18db d7f8 ea37 9ebf
000002c0: 309e c37d 77f0 c2bf 51d9 8bf8 ddfb b6bf
000002d0: b2e1 a8c4 ecaa a2bf 27c3 0f47 0468 bc3f
000002e0: 893a 2aa4 5021 b63f 1695 57e9 51a5 bf3f
000002f0: b6bc 4860 381e b13f b1d5 beff 4fb6 bc3f
00000300: ef84 9419 20e5 af3f 8f8c 3cec de62 c03f
00000310: f9db c334 53a6 c63f 16c3 8427 f424 c0bf
00000320: ef57 d783 5872 70bf a963 1b00 4526 81bf
00000330: 6931 dfe2 9c30 8d3f ec27 d9ed f52e 953f
00000340: e143 7ff4 63e9 c0bf c238 2bae 6de0 c03f
00000350: 3e2c 855e 6cdf a8bf f5eb b07d 2ccc c1bf
00000360: e782 395c 59ba a5bf da7a a3f5 f780 bd3f
00000370: 5541 3e40 fea5 813f 1737 e4cf aa2b c6bf
00000380: d2c0 182c 97ea babf 4ffc 2ccc a50b bfbf
00000390: 67ff 37d8 438b b63f fd22 9387 3f45 3dbf
000003a0: 75b2 3655 7ebe ccbf 8724 6cca a143 c23f
000003b0: ace6 cfb9 e3ee a63f 748a fc11 781c 90bf
000003c0: b2fa 8337 de00 d2bf a518 fe94 fddb bebf
000003d0: 44be 6826 b0fb c53f 8396 e15b acbb 9e3f
000003e0: fc0b 0bab 4a69 8b3f b92a b07a 51bd b2bf
000003f0: 9918 5534 1048 85bf 54ba ddd8 c80c 8b3f
00000400: 5aaa 274b 9267 9fbf 8a75 c117 2b82 823f
00000410: ec54 b3fb 5826 bdbf 255a 0db9 5465 d6bf
00000420: 2569 06d8 4a1d ad3f fcea 3165 1469 bcbf
00000430: 54e9 5b0a f41a ccbf d54f 470c 0e2a b83f
00000440: 92ec 1c85 2938 d2bf fe60 cf46 fc26 c6bf
00000450: ff7a ca89 6636 c93f e6da d633 674a cabf
00000460: f33e 1673 1262 d93f f54f 4eba 30a1 d2bf
00000470: fc4c cb37 0b46 d2bf 77e1 9273 ec06 ccbf
00000480: a3da fe2c 10f4 b13f 4af0 a152 fe2c a63f
00000490: 6e18 b930 6f8d bbbf d9da 22fa f271 c2bf
000004a0: 7115 1340 9b28 c33f ee4c a589 abd0 d03f
000004b0: 0168 abfb c8f8 cabf 76ef 47ee fff0 b0bf
000004c0: 5d43 0023 500c d0bf 8a63 83dd 5676 d5bf
000004d0: 9da7 675b 14a0 9abf b95c 7e5e 99d6 c2bf
000004e0: 2b0e 6971 bfe7 d73f a224 4d40 8bac cc3f
000004f0: c6c9 bff6 fe87 cc3f 7b0d c186 7866 c13f
00000500: 6be6 2978 4d8d 7a3f adc0 e8e2 448f c23f
00000510: 0a42 07f3 4929 b13f f147 4f2e d2f6 d5bf
00000520: 3e7e 7361 c471 b7bf f651 aaa9 dd95 aa3f
00000530: e4ef e624 c9a6 d1bf d17a 0f68 8ebe b1bf
00000540: 3540 ce4b aa3c d5bf 727b 6bc0 2ccc a83f
00000550: 4b13 6b66 a0d4 a93f 4f05 1417 1999 a2bf
00000560: bf9c 0c6a e2d4 d23f 3890 90d4 d78e d8bf
00000570: cdb0 1d65 2389 b33f 0cda ec4c d627 d2bf
00000580: 9e21 e780 b33f d13f 2db4 6ec6 ed04 ca3f
00000590: 65c5 524e 2c11 c93f 839a 36fa d60d abbf
000005a0: b66e f947 89fa ad3f 85b6 5237 9230 c03f
000005b0: d159 e217 03d2 77bf 0273 7606 4d69 b2bf
000005c0: e19f d1c2 75e8 923f 52d2 f3b5 a732 bbbf
000005d0: b630 7b19 fb51 a23f 2de4 5cee d32b 84bf
000005e0: 1653 1c11 7f5c b3bf 999b 92e3 6252 c93f
000005f0: 2f48 b4ed 2ea2 8ebf 791a 402c c5e4 d4bf
00000600: 94c2 bafe 2b79 bf3f 8ad1 fc03 f3a6 d3bf
00000610: cf6e 8499 60e4 c03f 3e21 0785 fab2 bbbf
00000620: f82b d076 9ced db3f 2d28 19a5 236d 65bf
00000630: b7af 9fc1 6605 c93f a795 e4f8 b265 b8bf
00000640: 6e06 d971 dda1 b53f da0d 2da2 82ad 6d3f
00000650: fd29 3b77 4775 babf 9908 0498 928a a13f
00000660: 550a 1566 aec4 a1bf 166a ab45 d0b7 91bf
00000670: b506 09d1 b70b c1bf 5d97 1a2a 8f9c c43f
00000680: 45e7 175a ff8f c0bf 3462 4cec fec5 bc3f
00000690: c565 2d67 4684 b33f 982e 48fb 3aaf d4bf
000006a0: 2308 5d8b 803d d0bf 730b fbe3 4fe5 96bf
000006b0: 95e9 7495 5d5a c63f ad4d 0c48 8612 d53f
000006c0: 4093 16e1 20a0 c9bf 1e48 aa6d 3c04 cdbf
000006d0: 8bd3 d95c 37eb abbf ff4f d6a2 51b0 b43f
000006e0: afe1 48a0 9e63 bd3f 0858 82eb 0d24 a03f
000006f0: 7a29 0d05 fac4 b2bf 37b6 acf4 e0ba bcbf
00000700: ee87 646d e462 c23f 5708 21d6 14e9 d9bf
00000710: 0afc 502d dabc a2bf 8ac0 010f 2a14 a43f
00000720: 327d 4440 38a8 e03f 63b3 23df 6e27 d13f
00000730: 07b2 0c16 cf7a 61bf 62c1 62d0 1c1d a9bf
00000740: 45f6 064f 0aa8 b9bf 1293 88d9 2218 cb3f
00000750: f51e add4 d8b5 cabf f147 95d1 a7ce a93f
00000760: 2e18 99c6 e9cb cbbf 7080 b87a 7288 aabf
00000770: 1ba2 cd43 9718 b83f 5732 d5f0 875e ac3f
00000780: 210f 99f8 275b d13f d528 cf4c 85bc c5bf
00000790: cebc b07b 47b0 893f fc13 f788 a2b0 bd3f
000007a0: 8722 0a67 3cf1 cc3f 77d8 e575 85d0 d2bf
000007b0: b581 7d2b e57b d33f c4e3 72c3 76ec b63f
000007c0: 4f66 2f8c 8028 b23f 9667 6693 d500 a63f
000007d0: 8281 e4ee af6a c4bf 3f31 6baf dcb8 bdbf
000007e0: 8633 5273 b2ca c33f 2822 7301 288b a93f
000007f0: 5061 6691 78e1 d3bf e13a ac20 1e28 d0bf
0.04215173683421086 0.23884640328245785 0.1137095788161338 -0.33281337018967777 0.10765863969019467 -0.00406282901883665 -0.07603947778115266 0.0440374272264747
-0.2037862338934049 0.08150260453740206 0.1834851279588714 -0.04583143137882352 0.28049854092293697 -0.3444402374317367 -0.13661757537017358 -0.39706424709741456
0.03915977431816785 0.06543892142971458 0.13645078425003312 0.07997007173634131 0.1220636721292154 0.12458390747478852 -0.15098315748719218 0.13737539783514166
0.13854313645316632 -0.0839176522645721 0.09647749304751513 -0.16838954957617816 0.02621814884204216 0.22973668621260113 -0.06538354976114238 0.07926270938738142
0.0001602871785792601 0.15032715681263453 -0.1601820917203978 -0.15811952409136992 -0.027836391294052968 -0.10312149867078665 -0.2944102622212788 0.25077517652999093
-0.10884781959077922 -0.05102114639007282 0.12623294514110403 -0.08742245861810244 0.39561247750052475 -0.22494523884670428 -0.060053717143624806 -0.38355068783840524
0.03845049680939068 0.12168977900528526 0.1679569434469896 0.03229860175100107 -0.10157558592063617 0.05430646831407455 -0.20398039280316815 -0.17797286774732132
-0.07059426212415425 -0.05431607557341108 -0.08544960494003839 -0.1684203014609934 0.14854363836231663 0.41784492108368554 -0.08836646236424145 -0.13656277039060635
0.12577938564236718 0.12140590917992712 0.07470408007015666 -0.040125714950478834 0.09962893352507908 0.16189683928464182 0.181308068307129 -0.0068270229608761775
0.16871902846558892 0.10017620507194998 0.06853083561103417 -0.022335301759292655 -0.11289229698020603 -0.11482853390836376 0.04703642536179402 -0.14563624709213746
0.11264043409349181 -0.11739049523835032 0.04131562662600969 0.033597078946544415 -0.17358884900841232 0.04463431899672518 0.28714613704683206 -0.029510184705908576
-0.14796346321894438 -0.08978068655037431 -0.036460303312597545 0.11096216902639054 0.08644584663327683 0.12361633250073498 0.06686737394987827 0.11215686792168957
0.06229496299989445 0.12801729712473217 0.1769508369104356 -0.12612773828143337 -0.004015298616158332 -0.008373774591221865 0.01425287787778791 0.020686953203302424
-0.1321225112756386 0.13184901241624486 -0.04857958463488686 -0.13904338967571986 -0.04243735552586774 0.11524915453945131 0.008617388091608428 -0.17320761824560613
-0.10514206720904731 -0.12127147898444089 0.08806251553323606 -0.00044663239493707136 -0.22456339989493626 0.1426889646902831 0.0447913326569965 -0.015733600709732135
-0.28130298062743997 -0.12054428946985014 0.17174341082999167 0.030012791736587118 0.01338442167742037 -0.07320126767460068 -0.01039135608392554 0.01320797836134805
-0.03066853126248712 0.00903733888861315 -0.11386638779670805 -0.3499347502851456 0.05686410796188771 -0.11097838850575309 -0.2195725489216992 0.09439170646447732
-0.28467786788287086 -0.17306474168322689 0.19697267273019034 -0.20539560347761848 0.39661084402995 -0.29108827775894436 -0.28552513550421543 -0.2189612926793065
0.07013035868190313 0.04331202276895903 -0.10762686671759678 -0.14410245145491876 0.1496767104019159 0.26273621026957883 -0.21071731842567945 -0.06617736403853577
-0.2507515279585755 -0.3353478587355815 -0.02600127990618938 -0.14717404474206378 0.37351976466399844 0.22401562347139242 0.22290026710795824 0.13593966083326933
0.0064824129245778335 0.14499722556638997 0.06703626807507859 -0.34318975946837244 -0.0915796983640513 0.05192463585004596 -0.2758047924396563 -0.0693139080098988
-0.33182771113297643 0.0484327301871791 0.050450336935262095 -0.03632429510799772 0.2942434344899531 -0.3837184501483111 0.07631131380702812 -0.28368146431185504
0.26951301181954956 0.20327541531642748 0.19583658050900535 -0.0528399639545585 0.058552064929896216 0.12648227406809923 -0.005815517504876814 -0.07191926391392303
0.018464889541433997 -0.10624168579290341 0.03578171430635406 -0.009849220000989057 -0.07563013236751845 0.19782672988841624 -0.014957777623326588 -0.32646302529648313
0.12294268578512862 -0.3070647753659378 0.13196952339136778 -0.10819974658727902 0.4363776359829781 -0.002615518206572373 0.19547733740125547 -0.09530180527197861
0.08450111417280379 0.003622775214724189 -0.10335203801074751 0.03426035028134428 -0.03470368381615133 -0.01730275559644142 -0.1331701059989904 0.16102780872204905
-0.12939445399370633 0.11239617604258784 0.0762371065042294 -0.32319521464590073 -0.25375379190166053 -0.022359131135782428 0.1746327380913725 0.32925564800208457
-0.2001992320121193 -0.22669177393669399 -0.05452893265184063 0.08081541276470715 0.1148013249702504 0.0315250730501902 -0.07331812499356785 -0.11222654317381218
0.14364295331421267 -0.4048511592010348 -0.0365970783536725 0.039216341335191876 0.5205346350884723 0.2680318049522638 -0.002133755173778565 -0.0490502361657288
-0.1002203410089005 0.21167407628777163 -0.208674529882266 0.050404781659963656 -0.2171604366032524 -0.051822259407573124 0.09412522702553654 0.055408714436087685
0.2711887290681592 -0.16981569529008902 0.012543257200461257 0.11597648471713734 0.22611193686704587 -0.29397713197193504 0.30443696257682556 0.08954565307330059
0.07093051359643109 0.04297511505428912 -0.15950583614995756 -0.11610202105220412 0.1546233237353613 0.0498898031015112 -0.31063665579997224 -0.2524485892362645

gru.bias_ih_l0 f8 [96]
00000000: 0c0e 4802 78ff b03f 6741 629f 8a89 263f
00000010: d966 099c c037 b33f 1faa c096 0350 ab3f
00000020: 6757 44bb a6f5 b7bf c4ba 1217 b65c 6d3f
00000030: 21eb e98d c226 d23f 16af 244f 3be8 c3bf
00000040: 661a ce96 7c56 b43f ce11 450d af85 923f
00000050: 85d6 163f e775 d03f 0a2c 18f7 2be1 9ebf
00000060: 5b11 d690 9120 ce3f 8d5a ad62 8da0 b73f
00000070: 8382 d7e8 8ee7 ac3f 5ea9 32a4 ad3e b03f
00000080: 881c 8786 78df 7f3f 1f76 dca5 675f cb3f
00000090: d9e2 86b5 5f1c a93f fb45 1f4f deb7 823f
000000a0: bbd7 271b d5a0 babf 17ed e306 746a ba3f
000000b0: 7867 081d 6ad4 d73f 0e11 aa4c d026 b5bf
000000c0: 9f36 757b 11a7 b93f bb35 b11e 1941 d5bf
000000d0: 5ac3 f39a 7684 a23f 57a6 f224 aef4 b23f
000000e0: 2266 a06a 811b c73f 00ef 38d5 d97f c63f
000000f0: 36b7 0d80 688b c43f 7667 3f40 8662 ad3f
00000100: f354 b5ea 1b1b b93f 577a ffec 5eb2 ba3f
00000110: fcb7 48c9 708a da3f 5da8 ac3c a61f d93f
00000120: 8d30 8205 0101 e0bf 8c92 8425 6e5f aabf
00000130: 5a58 100b 4191 d03f defd 1025 2953 d33f
00000140: 602c 93d7 4cb7 c63f 703c c9dd a192 c1bf
00000150: 3695 6926 5439 d83f 076b bb95 1f41 d8bf
00000160: 90ea 2d01 8346 d73f 79ec 22c5 b3d1 da3f
00000170: 6fb0 e75e dc70 a13f 1c7e 0f7c 31cd b13f
00000180: 321c d0f6 c1e1 d23f 2505 cb6a 0b73 d43f
00000190: 6ac0 0b5c a12c d4bf e8ca 9402 80e2 d5bf
000001a0: efdc 30c1 de83 d73f 18d3 456e 6257 e2bf
000001b0: efbd f6a6 546c dabf af36 3966 053c a33f
000001c0: 9415 1bac 8006 e13f 691e 222b 7b87 de3f
000001d0: ecd1 18e6 2d8d d63f 1c96 54be c2e5 d83f
000001e0: 214f c80d d40a d53f 59b9 f5a4 4ad1 c23f
000001f0: 7246 5acb deab b03f 6037 35a9 e1ef e03f
00000200: 8a23 e9c6 8d82 56bf 427d c10b b6b1 c1bf
00000210: 2a1a e4d7 2a63 a83f b0cd 27e9 c0cf ba3f
00000220: b57a fc9f 58f9 ca3f 2c13 fb83 02b8 b13f
00000230: 1c88 b037 0767 b8bf dafa 9a79 1e9c adbf
00000240: 092b ece8 0d3b 91bf 53e4 418a 0c19 bd3f
00000250: 19e5 e34b 35e5 973f e40d 9897 ce44 77bf
00000260: dd66 9702 8071 c0bf ec32 4886 0de1 a93f
00000270: 6af4 081f c1c3 c2bf 3559 386c 5af7 c2bf
00000280: 0877 a408 c76d af3f 4f52 9b40 4db2 8f3f
00000290: 010f b9eb e6c9 a83f 127d 0794 afe6 c6bf
000002a0: e938 d6a0 3571 b63f af87 20cb 15c3 b13f
000002b0: 2d33 bc59 236c bd3f f41b c8be 25e7 b23f
000002c0: 3a93 3ccd 1312 bfbf 6d5a 1bef 4275 833f
000002d0: b93b d71b 2b28 b2bf a823 54ca 4665 83bf
000002e0: 7209 eb50 822b c33f 418e 033a 6743 ab3f
000002f0: b1e4 a80b c9c9 ba3f 4eeb 3a94 aae1 b5bf
0.06639814429950536 0.00017194573564839196 0.07506946382036563 0.053344833519379124 -0.09359209129283173 0.0035842472503511986 0.28361572130931917 -0.15552464832705287
0.07944468194737339 0.018088088211941238 0.2571962467294287 -0.03015583701748529 0.23536891529159729 0.09229358347998069 0.05645414917285498 0.06345639475572315
0.0077814777400312465 0.2138490257138281 0.04904460040001419 0.00913976363145518 -0.10401660836200126 0.10318684738370042 0.37233975253331364 -0.08262349960029189
0.10020550979717278 -0.3320982742050906 0.03616686479097693 0.07404602434203277 0.1805269022595875 0.17577670012712332 0.1605044007550817 0.057392306654675915
0.09806990127738739 0.10428422247012158 0.4146997419037459 0.3925567238353603 -0.5001225574101383 -0.051509325103585274 0.25886560516790313 0.30195072765124376
0.17746887708776438 -0.13728736237905848 0.37849906684126056 -0.37897481558108875 0.36367869486972726 0.41904920817950814 0.03406418474682559 0.06953725127049676
0.29502915480447023 0.31952176503189583 -0.31522401799066435 -0.3419494652945745 0.3674237143163301 -0.573167052628011 -0.4128619795328338 0.0375672995838675
0.5320437776032798 0.47701911174997363 0.3523669001617964 0.3890234812446083 0.32878590913718325 0.14701207213097225 0.0651225325075531 0.5292824082223255
-0.0013738998928991297 -0.13823581289305237 0.0476315868891571 0.10473256771347539 0.21073444187000737 0.06921401712595515 -0.09532208547219095 -0.057831718773277266
-0.016826836911643137 0.11366346717285696 0.02333529735276327 -0.005680853844299592 -0.12846374632390836 0.05054514183220768 -0.1465989495790468 -0.14817362102685086
0.061384410672173984 0.01547680238164975 0.04841539027668596 -0.1789149735259135 0.08766493965797263 0.06938301285893432 0.11493130627441124 0.07383953006511473
-0.12136958847675042 0.00950100223728364 -0.07092542104440626 -0.009470513391095128 0.1497652907474492 0.053248620826505284 0.10464149984990702 -0.08547464484119624

gru.bias_hh_l0 f8 [96]
00000000: 251c 9004 ef3d a23f 78c4 3e15 e867 913f
00000010: 4399 f663 15ae bfbf 8e2a b065 859a ca3f
00000020: 82a8 bb44 3aa4 bf3f c22b 7161 e37c a33f
00000030: 4fd6 d35b a878 cd3f 5b43 6d43 f06a a63f
00000040: 701a ce96 cebd b83f 77bb aedc e1be b1bf
00000050: 02ad 2dbe 3634 c93f 95fa 1cd1 5208 c63f
00000060: 5a11 d6d0 c3df c93f 12b5 5a85 41e6 a53f
00000070: 9be0 35fa 57f7 c53f 4baa 0c79 0106 d33f
00000080: 628e 9737 c06d bdbf 2076 dc45 3370 c13f
00000090: b1b8 610d 2c11 c43f a7d1 c793 6507 a43f
000000a0: 9d50 b049 5c3d a43f 0eed e3c6 396c bd3f
000000b0: e9ce 10ba 793d cc3f 5d8b 5065 a9ca 89bf
000000c0: c564 4522 f56a cbbf d135 b15e 0a21 d3bf
000000d0: 440f 4399 a28e c3bf 95a9 3ce9 1976 d13f
000000e0: 1c66 a0aa 9b4d c83f a477 9c3a 230e d53f
000000f0: 6f6e 1b80 6e58 b53f e2d9 0f10 2d8e c43f
00000100: 0bab 4a15 a0e9 b4bf 540b 01a6 d7ab a1bf
00000110: 0db8 48c9 d376 d23f 4ea8 ac2c 6829 d43f
00000120: a030 8231 8805 e2bf 5c49 c212 61f3 b1bf
00000130: 5758 10cb 6a9f d23f dffd 10b5 6614 dd3f
00000140: 0d96 c93b ecbe d23f 4a0e dbc8 630d a03f
00000150: 7854 a659 918a b43f 036b bb45 eaab d8bf
00000160: 5ad5 5b02 6dd7 c93f 66ec 2225 a998 df3f
00000170: 21f6 dcbb 25b3 d33f 79df 033f 0d11 d13f
00000180: 241c d0be c8af d03f 320a 9695 6bea cb3f
00000190: 6ac0 0b2c c5b5 d2bf fdca 94fa f194 ddbf
000001a0: efdc 3081 24bd d43f d3a5 8b6c ea03 dcbf
000001b0: f0bd f686 6806 dbbf d064 e36c 5fbc b2bf
000001c0: 0e57 6c50 0cc1 ce3f df3c 4496 1ded ce3f
000001d0: f2d1 1816 582d df3f a02b a9fc 0c0b ca3f
000001e0: 234f c88d b383 d23f bb72 eb09 d9d4 b83f
000001f0: 6346 5a4b a663 b53f eb6e 6a32 a07f db3f
00000200: c1ff 85d6 0c6c bb3f 9cd0 8496 7476 933f
00000210: 81ab 352b 0a78 af3f 65ea 8c46 09b8 c0bf
00000220: d4fc ec8c 3a2f ae3f 61ae cb5b a172 96bf
00000230: 86a5 fcd8 18b9 623f c23a 25a9 7dac a8bf
00000240: 8493 38d2 ffa3 80bf 7106 bfb5 e6d9 a2bf
00000250: ab8e f213 6f34 69bf cf63 67d5 380d b03f
00000260: 9a82 9d4d 80d4 8e3f 6145 d2be f42e b73f
00000270: 6fbe 8193 dd15 b7bf da46 1bcc d29c a6bf
00000280: 3344 21f1 c86e 95bf 2e9c 0327 e7a5 b8bf
00000290: b6e6 5d5b 5231 a63f 6a91 55de e944 c6bf
000002a0: 551b 804f 4c37 b8bf dad1 19ed 69ef adbf
000002b0: 09de 04ad 3aaf ca3f 014c cd5d cade 8a3f
000002c0: 371b 5422 50de c13f 9688 2a6a 1d1c be3f
000002d0: d33d de13 f08d babf 710e 60be a30b cabf
000002e0: 5440 9811 33ef b83f d69e 0df1 afb6 ab3f
000002f0: 6a0b 4818 ec6f bc3f 70c1 667f b8b5 c83f
0.03562876635265181 0.016997934624388894 -0.1237500542689292 0.20784060921899478 0.12359966447880491 0.038062196392807404 0.2302446792961512 0.04378462622719922
0.09664622480168261 -0.06931888234860915 0.19690593992286415 0.1721290131626644 0.20214126298027218 0.04277233841762941 0.1716108295183901 0.2972415620921864
-0.11495591504313432 0.1362365809554129 0.15677405026821625 0.039118933000199356 0.03953064345856314 0.11493264299126713 0.2206260832332341 -0.012593577770592718
-0.2142015855159 -0.29889163253105006 -0.15279037936681494 0.27283332612082606 0.18986841040968805 0.32898789142370277 0.08338060977569638 0.16058886799119337
-0.08168983955208035 -0.0345141782895754 0.2885026422180779 0.31502727854479395 -0.5631752936328844 -0.0701199217603849 0.29098005133108046 0.45437019045126975
0.29290300215356596 0.03135215594150205 0.08023937643732093 -0.3854928666093402 0.2018867742078026 0.49369267107585413 0.30780928941735125 0.2666657557851902
0.260729013767959 0.2180914383316846 -0.2923443727622784 -0.46221589537451263 0.3240443479184724 -0.4377389965071334 -0.4222661321645935 -0.07318684013752663
0.240266360539572 0.24161119305833886 0.4871425834456026 0.2034622415252132 0.28928841443961256 0.09699779979878091 0.08355178203262308 0.429664658769737
0.10711746442211646 0.01900655907338998 0.06146270539723898 -0.13061634011122006 0.05895407648358178 -0.02192165491844234 0.002285526781538652 -0.04819100084079288
-0.008125303843437022 -0.03681870430547186 -0.003076760243475215 0.06270175180487957 0.015053751343374434 0.09056024225926286 -0.09017739154091385 -0.044165217795706105
-0.020930423467067704 -0.09628147795193406 0.043345044758962656 -0.17397807460941844 -0.0945937818615737 -0.058467207138992186 0.20847257087892526 0.01312025164376074
0.13959695507238631 0.11761649934718074 -0.10372829899846829 -0.20348021312394196 0.09739989451941372 0.05412816827339177 0.11108279793556411 0.1930456754757972

gru.weight_ih_l1 f8 [96, 32]
00000000: f536 0bbe 37fd d53f 30ce 655d f40c c63f
00000010: f636 758c 14f7 b03f 5431 8ba3 d0ff d2bf
00000020: 46ea 2ab5 bf6d c0bf 9d76 a164 d803 9e3f
00000030: 77fa 8017 e632 c2bf 9637 c151 421c bbbf
00000040: 5091 4dfd 5b60 b43f b45f 17c9 9cd8 903f
00000050: 0a2e 64c7 66f3 bb3f 7a34 40db d0da c73f
00000060: 4b5c 89e2 b3b5 c23f b3e0 48ca 1183 c93f
00000070: 157f ce4b 85be b5bf 2c61 fe18 2f46 9ebf
00000080: 177b da77 9dfb e2bf 4008 bf52 c859 d3bf
00000090: 5a8a 0a1a 28ed b53f 1bf4 0758 c06d c93f
000000a0: f41c b3e0 add0 ccbf 8349 bb29 31bb a33f
000000b0: 6738 033c 6844 bb3f 03c3 a5ce 01b8 c13f
000000c0: df19 9bcf cf49 bb3f 0125 9e5e eb4e b83f
000000d0: ee76 3a4f a957 cb3f ed02 d702 d2ee 903f
000000e0: 2154 d2e7 4eba 9fbf ab6a fabf 4f93 ba3f
000000f0: 4820 2764 161e 993f 0607 0546 e7d2 dd3f
00000100: 6745 6667 21b8 c4bf 7e87 4b6d cb8f d53f
00000110: 727b 78da ca90 d8bf 2fc9 7087 6634 903f
00000120: fd17 053a f211 c1bf 146b fefc 3d7b d1bf
00000130: aa8c 3660 409e c3bf d06a a261 0019 943f
00000140: 8ca2 2d32 47a1 adbf 4103 6de0 1990 cfbf
00000150: efc8 29be 1eb4 c33f 054a e7fe 699e c4bf
00000160: 74d9 d5fb 7074 d43f f8de 243e 04d1 963f
00000170: 316d 0911 bb0e 9dbf ed7b 6cd1 e58d d8bf
00000180: 2012 309f 9efb d1bf 3836 fe71 9faa c03f
00000190: da32 9f10 1645 9bbf 27ba 262b 5065 cb3f
000001a0: d34f 6c77 dd78 c1bf db70 bca0 a1c4 b23f
000001b0: d026 3b53 3229 dabf 2545 cd1f deed c4bf
000001c0: aba7 d3c0 b8f3 9b3f 96da 3ac6 11d8 b3bf
000001d0: f39d 6caa 3d1c b33f f494 f573 1418 c63f
000001e0: ccc1 57e4 f72b c73f d235 126a 6a4e d63f
000001f0: d780 8631 4b5a c63f 9348 c97e 3fd7 86bf
00000200: c66a 4c0e aa3d bbbf 66f8 77f9 580f c53f
00000210: 87e0 e6a6 d847 a8bf 2596 afc0 8bc8 a13f
00000220: ae28 b4b8 eb5f b0bf 9df8 b705 ab29 a3bf
00000230: d6aa 8786 0dd3 b93f 5f91 80ac 31c9 a63f
00000240: da0c bcc3 c7db c53f ff38 a1e8 382d c23f
00000250: 3dcf 5eec 1f04 c3bf 3b2a 8bb3 c292 afbf
00000260: ce92 c558 a42b c7bf 1795 8dc0 e495 cf3f
00000270: 3f71 c794 c7d9 94bf 61c9 3cfc 9dfb c0bf
00000280: 9717 584c d6f9 b2bf 391a 31c9 0126 b7bf
00000290: 47ae b810 a242 b6bf b700 f6d0 ec86 c33f
000002a0: d53a b309 9867 c73f f6e3 d8f2 078b a3bf
000002b0: 3fd2 c47b 26e8 69bf bf8c 88a3 9951 a1bf
000002c0: f3a8 c20a 9c9b c2bf 3558 2db0 d648 c1bf
000002d0: bc86 0048 b35f 9b3f cd36 f5d7 1a89 c43f
000002e0: 51d0 9ee6 dac7 aabf bc75 df63 1d73 c2bf
000002f0: cf4b 037b 0e3f c63f 524b ff41 0f1c b03f
00000300: 2444 2eea 65cd d23f 6334 cfea 0989 ae3f
00000310: 0d0b 1627 7166 cc3f b566 e516 6b25 c53f
00000320: 8b61 732c cc6f d73f 812e 2ce8 b77c c53f
00000330: 19dc 72c5 adc4 7a3f 05f1 f7f8 aa5d b23f
00000340: bb05 9a9d af67 c6bf 1cf6 0c59 b67b 99bf
00000350: 095b 6418 2302 d33f dfdf ce50 d6d7 adbf
00000360: 3946 5849 4d86 993f 03d1 2b18 77aa c63f
00000370: bdea 653c 4138 cdbf c769 b9d0 484b be3f
00000380: 45be 0209 b08d a43f 18d3 f18f 097c cd3f
00000390: 5fbe 7857 ff08 d63f 60f4 579d 2cc0 cabf
000003a0: c0b8 4eea afa0 933f 5143 e8f4 095d c6bf
000003b0: 18e1 a419 1d0c ac3f 03bc efc5 d8e3 c53f
000003c0: b071 81fc de6f 9f3f e1cf b83f 33fe c2bf
000003d0: a935 904c 4da7 c63f b64d dcda 27ce b6bf
000003e0: f606 e179 e173 c03f dfbf 0ce3 019c cebf
000003f0: aa36 8e30 eef3 cabf bcb8 bd6a 094e b13f
00000400: 9d6b 33cc ccea cc3f eab5 9c35 c914 c63f
00000410: 1b4a b7c4 15d4 c03f 12c5 3ec6 7519 b13f
00000420: 9fda f828 007e 91bf cd3c a545 3d2d bebf
00000430: 396d 7b53 993d c5bf f2f1 bf21 e0ec b9bf
00000440: 3522 488c 60d7 c0bf 4949 a7f2 b5d7 d0bf
00000450: aee7 0b7d 1e26 bb3f fe9a 7ad0 3d77 c03f
00000460: a15d 6364 6311 c53f f7fa 8324 63d3 9bbf
00000470: 1a84 6171 2892 a33f 8480 9c45 cec7 c5bf
00000480: 8914 8412 1d0e d8bf b77e 1b34 c67f 9cbf
00000490: e30a 55ae 6e43 c53f 085a f437 0ad0 b2bf
000004a0: 3c44 fbe2 36d4 d5bf 486e bb50 fd9a 8d3f
000004b0: 1e25 356f 98f3 b8bf 9c0c 1edb 419c c7bf
000004c0: 5a36 f596 d784 b23f 3ff0 621a 3908 a73f
000004d0: 1aab a997 0c9a dd3f 6794 0ae1 e383 70bf
000004e0: 1d24 3e48 f028 c3bf 9b9c 4a95 3b4f b9bf
000004f0: 3fcf 9a99 d63c d13f 19a8 fde2 2016 c23f
00000500: 2e1c 622e febb ad3f 0a35 4516 5023 be3f
00000510: 914c c02e 15cd d03f 7385 d890 03e4 d5bf
00000520: cd6c 4b50 4cce c33f 95fd 5168 b507 c4bf
00000530: 7438 aa8d 09b7 d5bf 9e9e f71a e716 9e3f
00000540: cb09 0ef9 e9bf a63f 5c12 5e52 a9e0 c4bf
00000550: 01b8 327f 84b6 c53f dc78 c2c5 1041 c03f
00000560: d4b7 320f 292c b23f 2b47 dcfc 0a9f 86bf
00000570: 9742 1b02 ba23 cbbf 6d4a bd9a 4c21 c9bf
00000580: f288 270c ee32 b7bf 8317 7a15 2dc7 cebf
00000590: b33c 5a66 2a0f a63f 0c5c c544 b342 acbf
000005a0: deea 925a 3605 c6bf c2e5 46ea f99b b93f
000005b0: cd3f 81f4 f0a7 b8bf a73b bed9 c835 bc3f
000005c0: 3d7b ce9d e102 c33f 5d80 23f8 70c7 c83f
000005d0: 96f6 c2ab 803a b5bf 5dbd 444d 108f c6bf
000005e0: 60c5 6b5e 28da c3bf 8b98 e792 0ea9 c93f
000005f0: dfa2 7845 7ada ce3f 4638 6a15 5a05 d63f
00000600: 7752 ac54 1dc9 c33f 8c7e ad2f cb00 c33f
00000610: 7f1e b537 4f49 cc3f 5152 b917 1727 cfbf
00000620: d815 7349 a3c9 c03f d061 db99 9a15 cebf
00000630: c562 49dd de7b dabf 182e 233e 3054 a53f
00000640: 39ec 6677 62a1 aabf 18e2 b5b5 7428 d5bf
00000650: ca68 353e e229 c23f 2f69 77a0 3c63 bc3f
00000660: 87ae 638a 3f1b 50bf 0026 351c c326 b1bf
00000670: 9505 3c5c 63fe d7bf 8141 ced8 c53c bbbf
00000680: 7c92 c52a 899c e1bf 4918 8a82 afa0 833f
00000690: eac5 9ef8 5e8e bd3f 18fb f026 90e1 b4bf
000006a0: 5b8e 3b33 04fc d3bf 842e 918f 5a40 b33f
000006b0: fe12 54a6 07f5 c9bf 20d5 49ab ffe7 a5bf
000006c0: b077 3da6 4462 c83f c5c4 9dba 0d21 c73f
000006d0: da7b 273b d39f d43f 42c8 b75f 177d c0bf
000006e0: 376c cc85 02b9 bebf 8787 e403 05b6 ab3f
000006f0: 22e8 4e1c 648f cd3f aa42 caba 9684 d43f
00000700: d8e6 2366 f907 c73f 720b 7ebc 6262 d6bf
00000710: 7c6d 80b6 7051 d03f 0e68 c15f df70 d03f
00000720: c514 86fd 76df 9ebf 3bd3 64a7 ba1d d33f
00000730: 0cb1 e0d7 7fa9 9b3f dc33 403d 798f cfbf
00000740: dd41 f298 d734 d53f 0985 48d9 ac7e aa3f
00000750: ca2c f01e 43d4 b63f 4fdc 8925 0024 aa3f
00000760: 18eb 266c 1575 cdbf b8ee 9458 f9df df3f
00000770: 841f 2a8a 8b7e cb3f f3f9 5651 bd5b abbf
00000780: 2758 5dc6 090b d83f 0f03 f279 c208 b2bf
00000790: fd8c 351a 15a8 bfbf ce4b 8269 85b7 c83f
000007a0: 1002 58fc d376 bcbf 50e1 70c5 7c0e cbbf
000007b0: 80c1 5fc9 5325 cb3f 205b 194f 801d 8cbf
000007c0: 2310 64c5 0cd4 ad3f ab9d d9b2 78b1 823f
000007d0: 198f ccc0 b0fc 813f c209 0926 a91a bb3f
000007e0: d961 90d9 f495 adbf 13b3 2d7e ab4f cebf
000007f0: 3bd8 b4e0 5c79 cfbf 750e 1671 359c 56bf
0.3435801845451885 0.1722703414958331 0.06627014569422926 -0.29686370822016284 -0.12834926935268437 0.02931154360009335 -0.1421783079876666 -0.10589994903531727
0.07959532674937475 0.01645131089557568 0.10918276184036571 0.18636522966008667 0.14617012559276285 0.19931242348844122 -0.0849383649897358 -0.029564605617992942
-0.5932147351157678 -0.3023548896854926 0.08564997325678672 0.19866184519187943 -0.22511838409102547 0.03853753694933728 0.10651256051207413 0.13842794981203363
0.10659502810003783 0.09495421466830935 0.2136127125603972 0.01653602735837272 -0.030984146975772234 0.10381029545753033 0.02452883707317735 0.4659975227151424
-0.16186921643069782 0.3369015281042421 -0.3838374265196115 0.015824892059933034 -0.13336017449381635 -0.2731471033709323 -0.15326695154098974 0.019626623114713138
-0.05787107932593924 -0.2465851159886601 0.1539343288928374 -0.1610844130178323 0.3196070155458053 0.022281709950418865 -0.02837650577053558 -0.38366074992694515
-0.28098264260941797 0.1302069956404226 -0.026630730404394544 0.2140293322276687 -0.13650101023870195 0.07331285642834777 -0.4087644398501711 -0.1635091452867893
0.027296911973202203 -0.07751570787045589 0.0746496716570773 0.17260986005854984 0.18102930688429664 0.3485361133433261 0.17463054579002943 -0.011152740532598215
-0.10640967225155426 0.16453087025724072 -0.04742314374328865 0.03473316886065118 -0.06396363505715172 -0.037427277038646546 0.10087666067526455 0.04450373869647949
0.17076966340400795 0.14200507506252077 -0.1485633758689974 -0.06166656915373322 -0.18101934752043863 0.2467618885231466 -0.02036201329779996 -0.13267874542504912
-0.07412471164579269 -0.09042369043263755 -0.0869542399238351 0.15255508616610822 0.18284893487585543 -0.038170097727238714 -0.0031624557142555794 -0.03382568475014968
-0.1453738262692422 -0.1350353584518317 0.026732255239159328 0.16043410820787188 -0.052306023265743413 -0.1441380250607106 0.17379933363426267 0.06292815552960221
0.2937865054055371 0.059639272607093806 0.22187628181935573 0.1652044164464336 0.36619858113183373 0.1678686031012724 0.00653522376449358 0.07174175813992541
-0.17503924556153358 -0.02488598745843805 0.2970054376796019 -0.05828733192851109 0.024926383592236177 0.1770771854422791 -0.22827926110388388 0.11833624931151752
0.04014349088663186 0.2303478196005464 0.3442991594519977 -0.2089896934775508 0.019167660404200815 -0.1747143216930689 0.0547799199870857 0.17101583161226594
0.03070019165203214 -0.1483825741903493 0.176980650314744 -0.08908318608546648 0.12853640032886177 -0.23913596712509297 -0.21056916590571478 0.06759699684127701
0.22591552706475407 0.17250933759480286 0.1314723215605945 0.06679473962755747 -0.017082216740358033 -0.11787779760674084 -0.1659423501613249 -0.10127068351716398
-0.1315727887124624 -0.26316593834521435 0.10605040123837625 0.12863896064410335 0.16459314729466448 -0.027173565963489712 0.03822447189373453 -0.1701600875758268
-0.3758614235706053 -0.02783117001570076 0.16612037193598103 -0.07348693719936972 -0.3410775391212757 0.014455775285958997 -0.09746697154072989 -0.184456092825802
0.07233951030249255 0.04498461196041647 0.4625274163324079 -0.004032030251129282 -0.14968684699513882 -0.09886524576960413 0.26933827400647553 0.14130030711686528
0.058074896966950326 0.11772633117398726 0.26251725736182957 -0.3420418657788879 0.15473321838985613 -0.15648524850619752 -0.3392967112967036 0.02938424207778089
0.04443293729038408 -0.1631061222252751 0.1696324940762111 0.12698564201577411 0.07098633404777327 -0.011045537797631141 -0.21202778914313988 -0.19632871204028693
-0.09062087818850609 -0.2404533724658756 0.043084454530906945 -0.05519638266076052 -0.17203406736901788 0.10003625840808808 -0.09631257981641213 0.11019568744653317
0.1485254307308085 0.19358646503588064 -0.08292392915151434 -0.17624095700146372 -0.15509514437102734 0.2004717080409971 0.24104240791464002 0.34407665339756865
0.15457502970152223 0.14846172168744365 0.22098722667782408 -0.2433804384078422 0.13115349851993474 -0.23503429901644646 -0.4138104592325756 0.0416579318858476
-0.05201251704735239 -0.33059423203624894 0.1419031909707143 0.11088923375738056 -0.0009830589784155812 -0.06699771345770245 -0.374901619026866 -0.1063960699377784
-0.5503583751092971 0.00958382718205199 0.11545365876988681 -0.08156681967464541 -0.31225686076343145 0.07520071034485382 -0.2027902185583556 -0.04278563466952279
0.19049890629952193 0.18069621669886807 0.32225495125561354 -0.12881748365140494 -0.12001052633824903 0.054123074269468545 0.2309384477828767 0.3205925773736832
0.17993085372272932 -0.34975498588044396 0.2549707205050351 0.25688919402239285 -0.03014932558427998 0.2986895212846325 0.027013776351098293 -0.24656596651803298
0.331350230561865 0.05174770500549115 0.08917636399580711 0.05105591257318364 -0.23013561039791663 0.4980452885681461 0.2147993492728767 -0.053434292010468364
0.37567371722741644 -0.07044616200620289 -0.12365848436234113 0.19310062076382767 -0.11118817244278767 -0.21137961998625565 0.21207663853375536 -0.013728144086753213
0.05825843724781545 0.009127562482901327 0.00878275001884492 0.10587556055637662 -0.057784701879601115 -0.2368063322168373 -0.24589119884484653 -0.001380016507341345
