results/Genotyping_Perceptron_Long/models/checkpoints/5/Genotyping_Perceptron_Long-5-1900.pt (torch_old, 26540 bytes, 2 tensors)

out.weight f8 [4, 810]
00000000: 0af0 9b27 7a6b efbf d0b8 1024 0671 ee3f
00000010: 4463 36ad fc6a c8bf 9c8d 2dc5 ba79 87bf
00000020: 830e cd31 39ef 2040 6f41 481e 269a d7bf
00000030: 5ef1 0e4b 7a68 e33f 911b 0c93 a958 ac3f
00000040: 89c9 80c0 0a76 d1bf d34b e220 4b01 0fc0
00000050: 361a d72e b295 ec3f d333 7855 bf29 d5bf
00000060: c539 605f c063 efbf 427d 4261 e77a d33f
00000070: 63e2 dffd 3df1 2740 7375 f1fe d6a3 b33f
00000080: 727e 2251 951b ed3f 7350 709f 8270 dfbf
00000090: a3ae ac68 9eef dabf 856a 0caf 3090 27c0
000000a0: 2432 be85 f925 e23f ab59 bb91 2cdb eb3f
000000b0: 9242 8b80 407f d13f 6235 fbb7 6aa5 fbbf
000000c0: d164 613b 292c ee3f 6d34 12e5 b6d0 f83f
000000d0: a17e 038f 0318 eb3f 8612 afde 8622 de3f
000000e0: 85c8 72cb fe73 03c0 44c3 8939 bd01 23c0
000000f0: 3e31 293a f0a5 d3bf ab1a f059 9fa6 e23f
00000100: d056 9f35 60ec e5bf fbe3 5f36 0213 db3f
00000110: 3542 013f 6ae8 ee3f ca02 9b70 6b83 e6bf
00000120: d635 d68a 803b db3f 3fdc c687 ff62 a93f
00000130: 0bce 005c 27e7 c53f a04f a205 0d92 3140
00000140: 3db7 1cae 86eb e93f cd4b 4612 10d9 eabf
00000150: c15d 64ac 1e82 ffbf 0f5d d47d 1c54 fe3f
00000160: 580a f06b 4cb7 1e40 9a26 f86e d6a6 f93f
00000170: 5c7b a10a c45b d8bf ec42 9537 ea78 c2bf
00000180: 7740 3440 ffab efbf f2c4 ce71 bef3 22c0
00000190: bc4f 46d6 d924 d6bf 227f 216f 8835 cc3f
000001a0: 14e3 3eda cc32 d53f 05c3 11cb f751 c5bf
000001b0: f2d9 d995 c4a7 05c0 c75d 4d68 f671 f3bf
000001c0: 18b5 a21b 9e1b eabf 821c e719 384f f63f
000001d0: 97b1 0491 25fc d33f 1d6a c76e db38 27c0
000001e0: 22c7 196b 8b51 01c0 ee7a d077 350e a8bf
000001f0: a3b6 36cd 562c f63f 4226 ea0e 7048 e73f
00000200: d55a d727 eb30 2dc0 0ffb bebe 83d5 eabf
00000210: abf2 558b ec46 f43f ef0a 3919 f460 d63f
00000220: efa8 5210 ac35 e6bf c2da b368 537a 18c0
00000230: 1cb3 b584 8190 bd3f 34f3 8e16 c5f6 f1bf
00000240: 55e8 e5be 332c e33f a766 2e77 76ae d23f
00000250: be2c 60fe 908d 1e40 2ba7 bdc1 3dac c5bf
00000260: fb72 7ec2 c834 c7bf 67ca 2396 ef49 e5bf
00000270: a6c1 64e5 4e69 f13f 99f4 b82d 4cb7 23c0
00000280: df40 5637 7766 e6bf 1b41 72d3 eb3a ec3f
00000290: 9c5b 801d d35f f0bf a2b8 abd6 b77b eb3f
000002a0: 6c59 3bdb ceb4 2240 e4cf bff4 f0e4 a33f
000002b0: 997f 947d 364b a7bf f91b ae68 911f f33f
000002c0: f2d1 16df e680 f4bf 557b 1a0d 82c7 2140
000002d0: 36a5 49c3 0da4 e7bf 1a1b 7254 dea5 e43f
000002e0: 41f0 7e4f fd10 a6bf b1ea d933 4072 b9bf
000002f0: 6ecf 19fe bada 0740 caac 3451 bbaf b83f
00000300: 1160 dced 7319 fcbf 4ed3 f778 88fb e13f
00000310: d263 b150 2717 ec3f b2ba 249b 34ce 2040
00000320: 0d11 51bd 4908 df3f c6e9 2264 78a8 f53f
00000330: 2d65 bcc7 d944 f3bf 1cbb fe12 cf17 e0bf
00000340: e152 0edb 35ff 19c0 5002 783c 0490 f3bf
00000350: 8eaf 0d6c 69ce ba3f 8f5b 5c46 9b57 e43f
00000360: 3c5b 9ce5 f1c6 d83f 5741 0003 6474 2540
00000370: 74ee 4d75 e791 cb3f 1740 ef3b e42d 00c0
00000380: 5358 7dec 7dce d33f 03f4 ee4a 8a18 fa3f
00000390: 99b0 165b f184 23c0 072b 8ccd 2dce fa3f
000003a0: 3969 3606 10d1 f6bf daf9 8487 e821 cf3f
000003b0: a42a 4572 b19c e0bf 825f afc5 2b71 1340
000003c0: 73c0 c7c0 d79b e5bf 073a 694d a43a ff3f
000003d0: 9315 6e43 5d76 edbf 9fe1 a5d1 a1c3 cabf
000003e0: 2c5a b0ac 9da9 23c0 f7da 57cf d1f0 dc3f
000003f0: e71d 546a 27ed f1bf 6c1a dddd 2968 ef3f
00000400: 2563 0a9e 7a98 d8bf 207f 735f 995c 2340
00000410: 4dcf f0b0 7d29 b6bf 0c97 ab24 8558 0440
00000420: 6761 1ad0 b6ae f4bf 3d95 f0d1 c54e f3bf
00000430: 6850 454a 6406 0940 d561 8ea9 5324 ffbf
00000440: c1ef 3cb8 c920 e5bf dc92 eebb f6f7 d73f
00000450: 2153 646e 6cf4 fe3f 12fe fe04 a3dc 30c0
00000460: 6168 b00c 9b02 0040 f7e3 3c72 e7a6 eb3f
00000470: f682 6a41 c823 f6bf 2f0f 523f c6f5 f1bf
00000480: ec7d 9ede 8c05 2ac0 2ccf b81e b63c a23f
00000490: ea4e 8af1 9b7b f03f 3a0c 89cc 8d6b f4bf
000004a0: f347 8fc9 0577 da3f db0a 10c7 15a1 17c0
000004b0: 3ee0 80ec cc80 ef3f f764 c5b6 3754 e3bf
000004c0: 44c1 79a1 1ded d23f e5c3 88eb 0b5f edbf
000004d0: b0d6 dfa7 7ded 22c0 6634 f15d 51f9 d83f
000004e0: 3c52 d29d b6b3 f6bf a2c4 bbc8 2b55 a3bf
000004f0: 2f19 bb16 669a eb3f b323 50ff ca14 db3f
00000500: 8f56 25ea 3071 e1bf e6a4 bb81 c8b4 d4bf
00000510: 0792 58a5 89ec fa3f e1b6 9a8b 0266 f1bf
00000520: 8bea 6298 0e52 ea3f 0c61 a906 e4c3 e83f
00000530: ba19 f6b9 987a f6bf b577 f0a0 520c b2bf
00000540: 531f 7848 ef02 e03f 524d d39d a6a3 22c0
00000550: 4dc0 72fb 8eff f1bf 353f c9b8 37f1 d6bf
00000560: ec96 db45 c2c2 d6bf 5cc3 d4c2 617a fb3f
00000570: e9dc ea4b 74e7 2fc0 aa88 bcab 7927 e93f
00000580: 1736 f47e 12de e4bf 6068 4bb0 97ee debf
00000590: 4393 0b8d fecb d33f 70c1 ae0e b79c 1840
000005a0: 67dd 84d7 c2c1 c0bf 7cdd 56e7 24a2 f13f
000005b0: f5fa 7da0 7745 923f 3aed baa2 fbc8 eabf
000005c0: 445f 260f 8376 05c0 532f 7f22 c665 f13f
000005d0: 688e d1c2 0cb4 ecbf 9b39 89a3 ae62 ddbf
000005e0: 5074 2688 1ead d13f e54d 66c7 4f3f 1240
000005f0: 6a52 3fc5 1e2b eb3f de1e 6ff0 c94f ff3f
00000600: 9215 04fa eed1 03c0 57c0 cb9c af98 e5bf
00000610: dc59 c6b4 9093 1f40 0c1c fff0 1cf1 edbf
00000620: ab10 39f6 0e9c f03f 42e6 9681 cc71 f5bf
00000630: 7e59 8951 501b f03f 3ebc a006 c845 1e40
00000640: 8940 c17f 9bc4 d0bf aa49 d40d bf3c c3bf
00000650: 98b3 58ea 6945 f23f 4194 0d66 460d e2bf
00000660: edc8 48e1 c5d6 25c0 5529 f9fa 0db2 dd3f
00000670: 4722 773f 1b38 e6bf e98d eeea 67d7 cb3f
00000680: 93ed 73db 80e7 a9bf 237c 6725 0497 29c0
00000690: 4650 8663 9c91 e63f 2704 f577 e31b fdbf
000006a0: 9c67 dad4 77ee d13f dd2a cbee e395 e33f
000006b0: 392b 4580 e16d 20c0 5aaa 3cbe ab7a eb3f
000006c0: 2fb6 5d36 7869 f23f 5276 ea2a ccaf f5bf
000006d0: a273 8015 d606 e8bf b759 ea1b 8c01 29c0
000006e0: 8473 7b8b 98dd f5bf 2955 3027 7b95 e13f
000006f0: bd65 4349 3d03 d33f 30df 5cee 9b26 d33f
00000700: 48f7 8318 2b09 27c0 695d dcc1 cbbc f53f
00000710: 653a d8eb 9af5 dc3f 9123 a6bf 666f fdbf
00000720: 8738 58f0 e4f0 a5bf 1e68 d910 b0af 1540
00000730: 0bab c18f a19b e63f 01fb 227c 3828 b3bf
00000740: 5325 466e ac26 d8bf 85b6 2adf 6a2c cdbf
00000750: a00a e038 7e5a 27c0 c747 642d 3e70 83bf
00000760: c122 4360 5d14 d23f db70 67d2 1fd9 a33f
00000770: 2a5f 87bb 9a9a e2bf f535 8c48 207b 2a40
00000780: b381 6eea 0bc4 ff3f 3fc2 9244 d0f6 e5bf
00000790: 2891 1298 1555 e4bf 578f 8877 3499 e3bf
000007a0: 3d01 d9cb 8f25 ec3f b9d9 3008 3d3e e63f
000007b0: 0fe3 0534 297e e7bf 3e9b d8c9 15e0 f9bf
000007c0: aa40 8b60 d0bf f63f 8fae 458f 1e9c 1a40
000007d0: 4f75 6204 389b ec3f b843 3b64 bfc5 92bf
000007e0: 5056 e160 d46f bbbf 3229 c065 62cd e9bf
000007f0: 9215 47c1 faf0 21c0 7664 4d97 7840 e03f
-0.9818697713485574 0.9512968735123426 -0.19076498468055025 -0.011462649481194735 8.467233234673818 -0.36878350217104744 0.6065036264404104 0.055363940429791765
-0.2728297119057506 -3.875631577402126 0.8932734408234129 -0.33067305895457116 -0.980926691323298 0.3043764543344488 11.971176084117536 0.07671874736975841
0.9096170982993057 -0.49124208040416945 -0.4208751699650099 -11.781621427789341 0.5671355831305545 0.8705046507191602 0.2733918433487271 -1.7278849779862289
0.9428907546781834 1.5509556720819788 0.8466813843951578 0.4708573507926207 -2.4316383261112287 -9.503396795336478 -0.3070030754068006 0.5828396565055604
-0.685104469996725 0.423035195446175 0.9658709745945716 -0.7035424422575371 0.4255067210986828 0.04958342106277102 0.17111675255146994 17.57051120007202
0.8100007439258899 -0.8389969212461154 -1.9692675336899443 1.8955349841324425 7.679002462888626 1.603231843446713 -0.3806009391609473 -0.14431503023163061
-0.9897457365023133 -9.476062351694484 -0.3459992020154876 0.22038369585333678 0.33122559845973965 -0.16656396308419388 -2.706917925558849 -1.215322883062855
-0.8158712901837673 1.394340611632089 0.3122648159212757 -11.61104913887271 -2.1648167006723193 -0.04698340499475316 1.3858249679719072 0.7275924960424123
-14.595544095076017 -0.8385637975223704 1.2673154299547302 0.3496675726238853 -0.6940517729574632 -6.119458805062722 0.11548623552307585 -1.122746551626915
0.5991457680204443 0.29189836157602617 7.638248419399302 -0.16931888542176785 -0.18129834648870954 -0.6652753765504941 1.0882100067793572 -9.858003071620532
-0.7000080185698855 0.8821925287066138 -1.023394694557033 0.8588523094929494 9.353140688891209 0.038856058003062605 -0.04549570353469718 1.1952070321146933
-1.2814701761645861 8.889664086802137 -0.7387760938847012 0.6452476167040431 -0.043098369554599454 -0.09939957872294759 2.9818019725443525 0.09643145306170023
-1.7562140742720695 0.5619547236116007 0.8778263641389634 8.402745102151446 0.4848808621211596 1.3536304389550522 -1.2043092539009408 -0.5029063578602719
-6.499228880643131 -1.2226602899610448 0.10471209419273306 0.6356941580041723 0.3871426336567543 10.727325528889805 0.21539014079813834 -2.022407978285638
0.3094782647580178 1.6309912612043724 -9.759653898734813 1.6753366498184634 -1.426040672557589 0.24322229973945647 -0.519127581771802 4.860518540219234
-0.6752737775077676 1.9518168472164932 -0.9206987683289064 -0.2090952180549381 -9.831281086470959 0.452198460086421 -1.1203989175281721 0.9814652760768019
-0.3843065780034059 9.68085764202948 -0.08657060212936792 2.5432227005829926 -1.2926548127198545 -1.2067316246769473 3.128120975723551 -1.9463688491142552
-0.660252437438878 0.3745095095894564 1.9346737205680216 -16.861862480405826 2.0012722960791938 0.8641240340431285 -1.383735900432098 -1.1225035165270574
-13.010840374800829 0.03561944127105074 1.030178016201655 -1.2762582769071416 0.41351456340373643 -5.9073096374074465 0.9844727153022246 -0.6040304727313516
0.29572239655592036 -0.9178523636129482 -9.46384930236249 0.3902171533016542 -1.4188753285317395 -0.03775917840347033 0.8625975078546498 0.42314410145678066
-0.5450672696267292 -0.3235341326640778 1.6827484568431161 -1.0874047711653747 0.8225167251869875 0.7739124422178363 -1.4049308075060325 -0.07050053052122858
0.5003582396902665 -9.319630558055596 -1.124892217845644 -0.3584727577735863 -0.35563713857696544 1.7173783884611202 -15.952059147281448 0.7860687593677274
-0.6521084289140074 -0.48331253258004914 0.3093258263964353 6.153042058387982 -0.13091311953915438 1.1020859753315042 0.017843121691380543 -0.8370340517352937
-2.6828671630463834 1.087347159150302 -0.89697874117378 -0.45914808245006505 0.2761913613883893 4.5618277698699545 0.8490136959540682 1.9569796935992865
-2.477506592988626 -0.6748884260578148 7.894106697660813 -0.9356827456439318 1.0381002061922497 -1.3402829229438713 1.006668394567526 7.568145850716119
-0.26199996448577473 -0.1502913301015501 1.1419467119369298 -0.5641204827521805 -10.919478454718467 0.46399259099111606 -0.6943489303167291 0.21751116725236777
-0.05059435538165782 -12.794953507311282 0.7052747672883093 -1.819308727819825 0.28017993723335066 0.6120471633851953 -8.21461106151911 0.8587244716230302
1.150749409072329 -1.3554193188096133 -0.7508345050770127 -12.503022072179062 -1.3666005562328971 0.5494972005277862 0.2970727172338135 0.29923151280989924
-11.517906919583439 1.3585927555739892 0.45249054938986993 -1.83969759810336 -0.04285350259679981 5.421570075292065 0.7064979369873482 -0.0748324683254218
-0.3773604466337776 -0.2279180135423539 -11.676744248722855 -0.00949143005394494 0.28249296570406207 0.0387659019795323 -0.5813726103469652 13.240480677714894
1.9853629262434935 -0.686378606731587 -0.6353862733999778 -0.6124517759931035 0.8795851689720063 0.6950974616982456 -0.7341505065988673 -1.6172082790960327
1.421829583287073 6.652460325840038 0.8939476094853179 -0.018332472317357434 -0.10717513432731463 -0.8063213336293187 -8.97066310875633 0.5078700022815059

out.bias f8 [4]
00000000: 66d4 f15f 9818 74bf 2391 7c51 3b45 803f
00000010: eb5e e7da 531f 713f 14f9 1b3e 527d 9e3f
-0.004906268323897489 0.00794454901149117 0.004180266913372792 0.029774937668656312
