results/Bidirectional_GRU_Long/models/checkpoints/2/Bidirectional_GRU_Long-2-1450.pt (torch_old, 215055 bytes, 18 tensors)

gru.weight_ih_l0 f8 [96, 6]
000000 8f 68 c0 8f 82 82 ad bf 6f 4c e2 84 96 0b d7 bf
       -0.057636337325861146 -0.3600822732634645
000010 ad 63 95 35 5c 5e f6 bf e4 38 f5 cc 5d f9 ac 3f
       -1.3980371564013965 0.05659001471450312
000020 57 11 a2 92 ce 52 e6 bf c3 37 51 ab f5 da f4 bf
       -0.6976082672049796 -1.3034569446640354
000030 96 d3 ec 7d af 52 b3 3f 58 7c 92 5f c1 0c e4 3f
       0.0754804308351836 0.6265570513386463
000040 90 45 cb 7a b9 ac cc bf 3a 4a db d3 4c 2e c7 bf
       -0.22402113433649307 -0.18110046715317357
000050 34 a3 c1 ab 80 28 de bf c1 fb a9 3e 35 0c c3 3f
       -0.4712220837887344 0.14881005821004403
000060 57 ec f1 38 97 4d b5 3f 57 af 27 1b ca df c6 bf
       0.0832151903177175 -0.17870451284340547
000070 80 31 f2 f7 3e ec f1 bf bc 47 c7 28 98 da b8 3f
       -1.1201772389786981 0.0970854854161009
000080 90 fd 16 c4 98 36 ed bf 6f f9 1e 80 d7 0f f8 bf
       -0.9129146413687739 -1.5038676266409217
000090 0d 4c 56 9f 3a 73 d1 3f 56 ac 97 b1 b7 a2 dc bf
       0.2726580196405742 -0.44743149130835513
0000a0 4a fd 3f d1 17 60 e6 3f d8 ce db 0c 21 e0 ca 3f
       0.6992301070130591 0.20996487739431902
0000b0 4e 0a 8a 24 aa 63 bf bf 62 50 32 b5 85 bb dd bf
       -0.12261451141424937 -0.46457045264219776
0000c0 5c fc d1 ac 22 ea c0 3f 17 75 42 38 ab 1c f2 bf
       0.13214524687279805 -1.1319992253914444
0000d0 53 91 66 e0 0a a5 e8 bf ab b3 8e e8 d6 9f ba bf
       -0.7701467879128735 -0.10400145700141532
0000e0 49 ec a6 a8 3a 5e f8 bf 0f 1e 47 41 be bc fb bf
       -1.5230051601381709 -1.7335798787988812
0000f0 f3 86 92 96 92 69 b1 bf e4 83 30 46 c4 52 dd 3f
       -0.06801716018756192 0.4581766782230814
000100 97 f7 a7 e0 1a 52 e5 3f 3d 3f 34 a3 48 8a 99 bf
       0.6662725818457486 -0.024941573105990534
000110 c1 4e 69 00 16 48 00 40 17 aa db 35 68 48 f2 3f
       2.0351982147347774 1.14267750776583
000120 27 70 de f5 7a 4b d6 bf 9e a8 3f de e9 df d9 3f
       -0.34835695276865625 0.4042915983578811
000130 6c 58 2e 7e 38 fa f8 3f be df ce b4 55 0e c0 bf
       1.5610890320727107 -0.12543746307869513
000140 85 27 dc 50 f0 55 f2 3f 87 89 21 fb 82 93 f2 3f
       1.1459811361878292 1.1610135850720285
000150 12 0d 8e bd f1 f9 d5 bf 92 41 92 80 e1 6d d0 bf
       -0.3433803893205588 -0.2567065959529141
000160 65 b3 1c 1c 6d eb ed 3f e9 b1 2f b9 97 40 c7 bf
       0.9349885510506338 -0.18165871183681695
000170 dd 70 b8 93 03 6d e5 3f 94 9a f6 c9 15 08 ff 3f
       0.6695573697247955 1.9394739045325524
000180 e1 7b c2 bd 5d 81 c8 3f d3 93 19 05 b4 16 e2 bf
       0.19144794240580068 -0.5652713870628027
000190 99 ec 71 f0 80 dc f0 3f 6c 5e 3a c7 75 04 aa 3f
       1.053833903539987 0.05081527764303648
0001a0 26 99 0f bb 1f cc fb 3f 65 92 3f da 91 95 f0 3f
       1.7373349482600786 1.0365160489392562
0001b0 de 83 05 7c 86 22 cc bf 56 a8 6e bb 2f a6 de bf
       -0.21980362945308135 -0.4788932161706091
0001c0 83 20 74 f2 c5 65 f2 3f 3f cb d0 a4 92 d9 b3 bf
       1.1498469801754545 -0.07753864787882224
0001d0 30 dc 99 4b 53 2c e1 3f 00 30 8d 7b 83 b9 e6 3f
       0.5366608120519967 0.7101457036128522
0001e0 7e e4 51 fd b4 31 94 bf 4e d3 42 a9 d4 de b6 3f
       -0.019720867120188938 0.08933762676572352
0001f0 cb 37 cc 67 ac 73 e2 3f 6b c3 8e 01 bf 80 b0 3f
       0.5766202952670424 0.06446450984982526
000200 43 2e a1 37 1a a3 dd 3f 02 aa a0 ef 5e cf d7 3f
       0.46307998116092025 0.37203191186077345
000210 6c 42 ae 81 30 7c c6 bf 4c 9d 78 9d e2 95 ec bf
       -0.1756649621206806 -0.8932965350731279
000220 02 94 52 2c 0b 2f d6 bf 0b 5c 20 44 6d 36 cd bf
       -0.346621316226731 -0.22822347475514024
000230 90 c2 ff 34 f1 33 cc 3f 36 7c 9d 58 df cc e1 3f
       0.22033515060276843 0.5562588434949081
000240 32 42 f8 28 01 d0 bb bf fd 99 58 23 19 0f b2 bf
       -0.10864264726866038 -0.07054288018171202
000250 c8 3f 28 5b ff b2 ee 3f a3 98 5d e5 58 17 c7 bf
       0.9593502788939015 -0.18040000152104083
000260 35 03 b6 5d 93 4c ff 3f 1f a0 60 60 54 08 f2 3f
       1.9561952267251403 1.1270335926765325
000270 a7 61 ec c1 31 4c c4 3f 4e 60 62 eb c7 51 d8 bf
       0.1585752674952918 -0.37999151217218674
000280 18 22 c4 ba 84 3f de bf 18 77 34 47 85 cc d5 3f
       -0.47262686003571863 0.3406079478607906
000290 3a 11 eb a2 c9 0b 07 c0 87 e2 a0 1f 50 37 01 c0
       -2.8807556846606106 -2.1520082922909896
0002a0 7c 76 f3 b8 9a 16 d3 3f 61 01 2d d6 61 a6 e9 bf
       0.298254662147748 -0.8015603240128649
0002b0 9a 48 50 05 87 7b e7 bf ff 39 30 2a ff 61 be 3f
       -0.7338290313512232 0.11868281154622905
0002c0 1e d0 cc db 1f 5f f6 bf 41 6a 98 8f 2b 5f ff bf
       -1.3982237420978048 -1.960734902305049
0002d0 93 e4 78 40 0b d5 c1 3f 78 12 f7 f9 11 4d dc bf
       0.1393140854650353 -0.44220399294525903
0002e0 a5 c3 28 9b 5a 34 e2 3f be 43 56 eb b7 d0 c3 3f
       0.5688908606008353 0.15480708113730474
0002f0 d1 8e c0 3c 92 1a f5 bf 84 42 b7 05 42 35 ec bf
       -1.3189871190196991 -0.8815012084615579
000300 d8 7a d0 73 65 0d cf bf a7 62 e8 fa c3 15 e4 bf
       -0.24259632258414032 -0.627656927160463
000310 b3 bc 70 56 5d 17 b3 3f 96 96 99 68 86 a5 d2 bf
       0.07457526550637077 -0.2913528462871481
000320 b7 3b 8a 3d 6c fc f0 3f 54 a0 14 74 b0 65 ef 3f
       1.0616266635804388 0.981163241119257
000330 72 1e 20 b1 56 6c c1 bf 7d 30 80 0b 45 39 db 3f
       -0.1361187329168732 0.4253704654991067
000340 8a 5f d8 84 91 8d f8 3f 9c 03 64 80 25 31 a9 bf
       1.5345626057878428 -0.049203082964601935
000350 65 de 5c a9 df 7c ee 3f f0 72 5a 5f 2f 54 dc 3f
       0.9527433688990185 0.4426382476029138
000360 10 cc ac 30 fd ea c0 bf 92 4f da f0 35 22 d9 3f
       -0.13217129589756427 0.39271305580882043
000370 57 30 c6 14 73 cd f1 3f 75 b7 e0 56 48 0a ba bf
       1.1126585780612197 -0.10171939965286277
000380 47 27 0d e7 2d b8 f2 3f 17 ac d9 98 e1 b7 f8 3f
       1.1699656510777048 1.5448928805078646
000390 d9 ad 35 ad a1 82 c3 bf 2a d5 ab 63 f2 ae a6 bf
       -0.15242405850891208 -0.044303488413712636
0003a0 0f ce d9 23 6b a5 e1 bf 50 44 08 a5 35 5b c3 3f
       -0.5514426899157473 0.1512209945508709
0003b0 2c 66 82 a4 3c 94 f3 bf 35 49 2d 65 7b e5 f0 bf
       -1.22369064580415 -1.0560258819792356
0003c0 53 aa f4 78 1f 1f 89 bf 59 23 17 07 3d da e1 bf
       -0.012266393545890574 -0.5578904283985181
0003d0 28 e4 e9 50 7b 09 d6 bf 55 8e 93 25 99 1d 83 3f
       -0.3443287172481768 0.009333797892799792
0003e0 13 d0 4f 01 17 38 d8 bf b2 65 e1 57 64 7e ef bf
       -0.37842345359899915 -0.9841787067809291
0003f0 bd eb 09 5f 81 e3 a0 3f ee b4 04 b4 99 72 c8 3f
       0.03298572812214882 0.19099732675514453
000400 5f 52 77 b0 70 65 e5 bf 85 94 f8 a6 c4 05 b4 bf
       -0.6686328360179451 -0.07821301533165766
000410 6a f7 0a dd cc 51 e3 3f 8e 68 b9 82 bb 8f d6 bf
       0.6037353818171429 -0.3525227333644886
000420 65 35 35 5b 9d 3b cf bf 7b e0 12 99 71 a1 ce 3f
       -0.24400679543979745 0.23930187200835804
000430 1b cc 40 74 82 99 b9 3f 9b 50 c5 43 3b 98 c0 bf
       0.09999862039767075 -0.1296457367813034
000440 03 07 ab 5f d4 e2 db 3f 50 6f 99 c7 ab 0d e1 bf
       0.43571957914910814 -0.5329188249993226
000450 7a 14 85 74 59 c8 d0 bf cd b7 98 56 cb 60 da bf
       -0.26222835902110087 -0.4121578546208838
000460 3e d8 a0 c8 8a 53 dc bf 64 ef 9d e3 b3 47 d2 bf
       -0.44259900658233053 -0.28562638500419824
000470 60 11 85 0e 7b 2e fa bf 0a f3 c1 d1 d0 c1 f4 bf
       -1.6363478247813745 -1.2973182862908197
000480 13 76 94 bc b0 8d c5 bf e0 78 80 1a 0c 74 d0 3f
       -0.16838654716495735 0.2570829638297152
000490 fc 50 09 05 49 12 d2 3f 08 c6 27 23 c2 db b3 bf
       0.28236604205927995 -0.0775719962910203
0004a0 9d a4 dc e7 7d 25 d5 3f a1 ee 17 0c 1a 39 f0 3f
       0.33041331904184706 1.0139408562089687
0004b0 1a 27 46 90 25 70 b9 3f dd 08 5d 30 aa f9 f0 bf
       0.09936747333827292 -1.0609533204265553
0004c0 79 b8 14 d8 12 c0 de 3f a5 5d 38 5c 05 94 bf bf
       0.48047324277548104 -0.12335237027615749
0004d0 ee 0c 59 e1 90 1b d1 bf 0b 6a d7 46 31 21 cf bf
       -0.26730749136568377 -0.2432004543214393
0004e0 cc a0 b8 01 23 6e af 3f c8 f2 91 f7 ca 89 cb bf
       0.061387151680095536 -0.21514260376343075
0004f0 cf f3 dd 92 e5 25 f0 3f b5 f7 9f aa 10 70 d1 bf
       1.0092521416656728 -0.27246491110406207
000500 70 11 20 1f 41 85 f5 3f 09 4d 1d 33 d0 54 e3 3f
       1.3450328079062182 0.6041031835870011
000510 e0 77 fe 98 fb d1 8f 3f 37 a2 2c 1a e2 ac e1 3f
       0.015537229162699562 0.5523539077012803
000520 18 1a d7 6a 5b 81 c0 3f 70 6b 57 f3 d1 e1 bd bf
       0.1289476653748387 -0.1167269915671747
000530 dc 2e ca 0a a5 4b e1 3f ee 0a 01 75 8c 0f ed 3f
       0.5404839716661303 0.9081480298267175
000540 47 35 3d b8 9e 69 bf 3f 87 77 a5 9d c5 91 a8 bf
       0.1227053832819439 -0.04798715161699279
000550 84 de 10 ad 1b 3f e0 bf e7 2f 25 0b 72 8a cf 3f
       -0.5077036266511219 0.24641252083017592
000560 03 79 f6 25 af 10 e7 3f e7 76 0f f7 f2 3b d2 bf
       0.720786642213881 -0.2849090016078279
000570 5d 27 5e 15 ed a3 72 3f 0e 25 d8 12 b0 a5 eb bf
       0.004550863368317196 -0.8639755600026164
000580 ac 7c 84 32 cb ae e3 bf 1c a0 8f 5e 2b ac bf 3f
       -0.6150871264143425 0.12372084673518241
000590 47 86 b7 09 f4 db 00 c0 42 8a 8b 47 0a b9 01 c0
       -2.107399059212898 -2.215351637788701
0005a0 d5 25 7d 6e 80 a6 d1 bf e4 a2 49 97 de 5f d8 bf
       -0.2757874564163932 -0.3808514096659066
0005b0 22 79 32 2b 37 9f db bf 0c 13 27 22 ce 6d d5 bf
       -0.43159274309609164 -0.3348269780656643
0005c0 a8 b8 c4 b9 fa ca be bf 69 95 3d 63 77 e6 e6 3f
       -0.12028471980440492 0.7156331003467759
0005d0 51 e2 fe fb 6c eb d2 3f 1d 58 8f 37 9d 68 e6 3f
       0.29561924561452196 0.7002702794222874
0005e0 11 01 aa 59 01 e5 ec 3f 18 08 c6 55 68 f4 c4 3f
       0.9029547454120196 0.1637087267700401
0005f0 9a 1c 19 8a 50 63 c6 bf ab 89 7e 2c cf 29 c1 bf
       -0.17490584128447467 -0.1340884177453295
000600 57 7d 29 da c0 57 e0 3f 6f 06 c5 07 94 12 d0 bf
       0.5107120762803942 -0.2511339259982383
000610 83 13 d6 dd 87 9e e4 bf e8 90 c4 9a 52 24 d6 bf
       -0.6443518955935449 -0.3459669600872659
000620 52 49 58 b0 ad f5 d7 3f 51 80 5d 8e 9e fa dc bf
       0.3743700239293918 -0.45279659178595916
000630 72 80 60 c1 b2 4a d0 3f fe 41 74 b0 fb 8c e2 bf
       0.25455922016590826 -0.5797098585481419
000640 24 56 d9 dc b1 52 d5 bf 57 01 f5 78 da 54 c6 3f
       -0.3331722885826329 0.17446452051263847
000650 40 8f 34 5a b8 a4 d8 bf 1a 53 cd 64 a2 b0 e9 bf
       -0.385053718653797 -0.802811810378077
000660 d3 88 d5 93 35 3e b9 3f df b2 cb 2b 71 ad e9 bf
       0.09860548838836118 -0.8024221282372216
000670 b0 1d a9 2f 0d 64 db bf 08 13 5a b9 12 d5 b1 bf
       -0.42798165945392963 -0.06965748810950967
000680 76 9d 07 5b c1 75 e8 bf 82 4d 28 66 74 99 e8 bf
       -0.7643744256901488 -0.768732261205898
000690 20 6b 40 d5 6c 53 c4 3f 88 43 b7 9f bf fe 7d 3f
       0.15879593289067717 0.007323025255986056
0006a0 cc 44 af c0 5c d1 cf bf 29 f5 7f 2f 2a 92 cc 3f
       -0.2485767308085428 0.22321059531524526
0006b0 84 7c 1a 13 1a 15 d6 3f 3d 7e 47 69 0b 2a eb 3f
       0.3450379549557925 0.8488823944316618
0006c0 b1 86 96 19 0b db f1 3f ef 43 81 e5 ed df e6 bf
       1.1159773826151815 -0.7148351175802626
0006d0 33 65 0c c0 08 1e e4 bf 5a 91 84 93 44 60 dd 3f
       -0.628666281790322 0.45900072485007615
0006e0 75 d3 3b 43 f2 61 d0 bf 72 c3 c5 3e f6 54 f1 bf
       -0.2559781700686508 -1.0832426502276715
0006f0 57 fd a2 7e 7c 62 8c 3f 95 9c 04 0c b9 33 c2 bf
       0.013859722723622054 -0.14220345579926588
000700 6e 34 48 dc bd 12 db bf 91 09 7c 5a 7d 49 e1 3f
       -0.42301889907759616 0.5402209059978295
000710 e4 ef 45 94 b1 0d ec bf 92 66 95 c8 2e a5 d4 bf
       -0.8766715904198432 -0.32258195484392005
000720 ae b8 40 7b 76 4b f1 3f 66 d0 8a df 8d 71 e1 bf
       1.080923539596863 -0.5451115957316801
000730 bf 66 47 86 16 10 dc bf 56 af cb 91 2e ae e1 3f
       -0.43848193276572184 0.5525124404498267
000740 8a 12 0a 88 fc 44 ba 3f 2b 70 4e 10 da 09 dc bf
       0.10261514970086175 -0.4381013068430117
000750 3e e8 2e 5e f0 ad b7 3f b6 04 3e 5a 87 b9 e1 bf
       0.09249784755130094 -0.5538975489181641
000760 b3 21 76 50 16 18 c9 bf 90 ff 2c 4e c4 ad c1 bf
       -0.1960475819471533 -0.13811544243980878
000770 c0 f4 52 b2 36 f6 d3 bf 9d b1 a3 f6 64 a3 f1 bf
       -0.31190268911798213 -1.1023912081101124
000780 da 45 ac 2b 5a f4 c2 3f bd c0 ce 61 4c f4 b9 bf
       0.14808203823535743 -0.10138394725686602
000790 15 2f ae e6 8d 05 d6 bf 21 61 9b 76 f9 34 cf bf
       -0.34408900763877287 -0.24380415240626355
0007a0 bc b9 43 db 86 ab d6 bf 39 89 62 5c 45 e0 e5 bf
       -0.3542191640143775 -0.6836268238442137
0007b0 3a c7 d2 78 4f c2 ab bf 6f 53 67 47 d7 a5 da bf
       -0.05421684598822059 -0.4163721272755571
0007c0 69 8e cb 65 57 d0 d6 bf 8d a0 8c 04 c4 03 da bf
       -0.35646614972049534 -0.4064798397471428
0007d0 b0 a1 29 44 f7 a8 e1 bf c8 23 04 2c cc 28 fb bf
       -0.551875718240856 -1.6974603385335616
0007e0 46 0a 6a 16 c9 fa db 3f 96 fb 7e 91 79 81 d8 bf
       0.4371817320717678 -0.3829025193080552
0007f0 d6 3f 68 e4 9c d3 e6 bf 22 ab 9a 07 e9 67 cb 3f
       -0.7133316479757876 0.21410858985230968

gru.weight_hh_l0 f8 [96, 32]
000000 7e e7 2b f0 5d fe be 3f 1c 1c 1a 7e 39 12 c2 3f
       0.12106883157312429 0.14118117005657005
000010 08 a0 53 12 33 4a b4 bf 9f 90 b5 0f 37 69 c7 3f
       -0.07925719449451674 0.18289840952923428
000020 fe 49 9f 47 63 93 52 bf 8a 7f 50 d3 d2 92 cc bf
       -0.0011337728051229452 -0.22323069875801266
000030 77 5c 63 02 5b c6 c8 bf 2b 9a d7 30 f1 2e cb 3f
       -0.19355332962615865 0.21237006077645168
000040 f1 11 7e 07 49 24 a1 bf e1 be 63 8d 53 0e cc 3f
       -0.03347995964489659 0.21918720630446045
000050 4b 04 0d 8f 81 b0 9e 3f 74 03 68 0e ae 3e c7 bf
       0.029970192295199188 -0.1816003389685893
000060 33 f5 b3 e2 ba 22 d4 bf 17 af 1c b1 25 29 77 3f
       -0.31461975230179745 0.005654475435033188
000070 e4 8e 42 ee 54 e7 c7 3f 73 b0 c0 9e cf 2f c2 bf
       0.18674718507565224 -0.14208407641979512
000080 1a b3 ec 19 09 6a d7 bf 46 30 a8 87 f1 34 d5 3f
       -0.36584689647388446 0.3313564133429775
000090 e1 b2 20 23 fe af c9 bf 11 8a 87 15 88 50 d2 bf
       -0.20068337168904463 -0.28616525747762106
0000a0 e4 e9 7b 5a 1d dd cb 3f 80 58 89 e7 6d 00 d9 3f
       0.21768538396993542 0.39065120326029756
0000b0 e6 4f 49 86 01 f2 dd 3f e8 c3 8e 50 a7 1b b3 bf
       0.467895871295012 -0.07464071003666073
0000c0 e1 7b 68 50 f4 2d ab 3f fa 54 15 26 c1 13 c4 3f
       0.05308497888130837 0.1568528591111898
0000d0 84 bc b1 2a 45 0d 9e 3f 3d ea ce 4a 17 2d bc 3f
       0.029347496729709835 0.11006303383229805
0000e0 fa 51 d0 67 87 28 a3 bf a5 6f 4b 4f 9c 60 bd bf
       -0.037418586180283556 -0.11475541053681455
0000f0 aa be 66 bd 21 a0 8f 3f f4 0a 85 6b a5 21 d3 bf
       0.015442145912714384 -0.2989285993573241
000100 d9 84 9c a1 59 a4 6a bf d4 05 31 77 18 f0 2e bf
       -0.0032521963702413057 -0.0002360372414802874
000110 98 9c 05 65 d8 54 ce bf a8 d6 b7 84 f1 9a dd 3f
       -0.2369642728110406 0.4625819965434439
000120 cb fb 52 84 a0 e4 d0 bf 40 52 17 cd ed a8 dd bf
       -0.26395428583412855 -0.4634356024592172
000130 ee 5a f8 11 27 80 c5 bf 63 17 13 4b 52 25 b8 bf
       -0.16797340753028983 -0.09431948025584584
000140 84 4b 76 30 e4 68 c1 3f 90 00 f8 39 0b 50 d2 bf
       0.1360135304099367 -0.2861354890919836
000150 71 26 01 99 2c 3c da 3f 20 71 7d ae fd 90 d3 3f
       0.40992274228901865 0.30572454490699563
000160 9c db 3b ff e4 6d cc bf 49 e0 7b a9 ed 21 c0 3f
       -0.22210371458615163 0.12603541160183543
000170 a5 93 fd 94 f6 ad d0 bf 1e 68 c6 4e 46 3e b8 bf
       -0.2606178717599568 -0.09470023558824933
000180 08 f5 74 a1 88 79 d2 bf 5c 38 26 fe 56 d8 d9 3f
       -0.28866782920142997 0.4038293344427808
000190 e4 9d 82 19 92 48 d5 bf c6 6b e2 50 3d ed ad 3f
       -0.3325543641207942 0.05845061886176199
0001a0 a8 df a8 45 17 10 dd 3f 58 6f 89 e2 56 01 b3 3f
       0.45410711100293577 0.074239187533235
0001b0 fd ff 4d d6 fa f3 e2 3f 68 50 80 d1 d5 70 86 bf
       0.5922826944006371 -0.010957403617830333
0001c0 9b 66 39 e4 63 c3 b0 bf 5e 71 eb 4e a3 dd d2 3f
       -0.06548141786461274 0.29477770525934044
0001d0 20 78 36 00 2f d8 99 3f bf 64 7b 65 f1 95 bb bf
       0.025238737476335982 -0.10775669791782415
0001e0 7d a1 10 44 6b 28 be 3f 28 09 96 da c8 a2 b3 3f
       0.11780424510710037 0.07670264565061713
0001f0 2e 7e a3 cb f8 03 d1 3f a7 02 fa f8 d4 e6 ca bf
       0.2658674229296335 -0.21016943127690021
000200 d2 99 e1 81 59 c0 b9 bf f5 30 56 d5 ae 8c c8 bf
       -0.10059127255372083 -0.19179330269651698
000210 e6 0e 58 1b 97 ad 92 bf fc e4 74 f5 a6 02 e9 3f
       -0.018240319293922357 0.7815737527918425
000220 ed 2f 88 7e 49 ec b9 3f 02 7a 5e 0b 63 0c e3 bf
       0.10126170481834125 -0.5952620718051664
000230 2d b4 00 c6 b0 6e dd 3f 6f 29 d8 98 31 14 bd bf
       0.4598810132618521 -0.11358938199569989
000240 9b 00 bb 04 72 e5 cc 3f c6 27 25 92 b0 42 d3 3f
       0.22575211745243426 0.3009454180906882
000250 bf 49 77 f3 0a 76 d4 3f 70 23 bf 6b 29 58 d5 bf
       0.3197047593686441 -0.3335059692586162
000260 b2 55 eb da 24 5c d2 bf d5 b3 b0 91 1c e3 c0 3f
       -0.28687402132831175 0.131930895936789
000270 0a 2a 68 06 5c 8c 96 3f d8 83 12 c9 21 c7 c0 bf
       0.0220198038969475 -0.13107702558502754
000280 b6 0e 83 85 c0 54 e2 bf 26 71 db c7 3f f9 c4 3f
       -0.5728457076697484 0.16385648020412552
000290 d3 36 fe 17 94 28 8c 3f da 82 c9 d0 8d 24 c5 bf
       0.013749272329529749 -0.16517803854642105
0002a0 f7 f1 55 5a 7e e7 c4 3f 5d b0 42 c5 f4 94 c5 3f
       0.16331462298320762 0.16860828048573043
0002b0 58 7d ad 7f d8 9d e1 3f 81 37 50 55 ed 6e b7 3f
       0.550518273706909 0.09153636296124824
0002c0 3c ec 36 e5 da af d9 bf 4d 67 56 4b f5 58 c3 3f
       -0.4013583410666717 0.15115228823270357
0002d0 0e 33 50 fd e8 7e 9e 3f 36 db b9 18 54 b8 b0 3f
       0.029780998669639173 0.0653126297346319
0002e0 2e 26 a8 b5 48 25 bb 3f c3 26 42 7f 6b f9 c1 3f
       0.10603765902501358 0.14042419160641914
0002f0 04 16 c7 11 a6 5d b3 bf d0 7b 85 cd b6 ec e0 bf
       -0.07564771589303382 -0.5288957609262699
000300 04 da b4 14 96 be d6 3f 43 b8 ea ee fc c5 a0 bf
       0.3553824617587511 -0.03276052872148274
000310 06 8f 01 65 84 96 ca 3f e9 d2 15 56 fb 91 b1 3f
       0.20771841937959595 0.06863375522318517
000320 cd 2c 6a 72 fa 79 d0 3f c5 0d 84 b8 d3 f9 c3 bf
       0.2574449651080613 -0.15606161603510152
000330 86 e7 60 1c f3 70 dc bf 20 e6 eb 5f ca 25 cf 3f
       -0.4443938996442899 0.2433407753340342
000340 83 99 83 b9 f1 1f a9 bf f4 82 3b ab be 9b 9f 3f
       -0.04907184018684332 0.03086755676384008
000350 fd 2b b0 22 57 f6 dc bf 96 9b 33 a0 45 f0 a3 bf
       -0.45253542315975875 -0.038942504697664734
000360 27 f0 11 25 99 be be bf ae 8e f7 e1 51 d8 dc 3f
       -0.12009579806357405 0.4507031161030949
000370 9f b5 08 3c 57 7e c8 3f dd 21 49 7c a4 94 c1 bf
       0.19135561400746057 -0.1373487097610128
000380 a8 0f 19 d0 11 37 b5 3f 6a 0a 63 c1 5c 44 d4 3f
       0.08287154512896555 0.31667250523984214
000390 79 bb 37 a0 b4 57 ce bf 65 ab d4 ef 6e 7f d6 3f
       -0.2370515615761766 0.3515279142472337
0003a0 0d dd b3 16 72 89 a7 bf 9b 2e d9 19 ca 96 a7 3f
       -0.04597050215846297 0.04607230725795582
0003b0 ba d9 cd fc 41 3c da 3f 87 d8 78 13 2e 9a da 3f
       0.40992784202481014 0.4156603994519021
0003c0 a2 59 45 17 62 ed a4 3f 36 ae 1a 75 20 19 b4 3f
       0.04087358984058943 0.0785084043406464
0003d0 25 f2 ac 84 ad 93 aa bf 01 32 42 25 78 9c d7 bf
       -0.05190794224333598 -0.36892512930424465
0003e0 5e f6 e6 ad de cf d0 3f 7a 55 94 76 1d ae b7 bf
       0.26268736822735217 -0.09250053544049833
0003f0 5a 52 2d b4 13 99 b8 bf d0 7f ff b8 94 d0 b4 3f
       -0.09608576916554892 0.08130769268564042
000400 99 0e e8 5f 50 19 ca bf 9b 15 9d 4f 4a e6 c3 3f
       -0.20389752085622062 0.1554654015291533
000410 3f 98 13 22 99 92 bb bf 88 a5 41 36 3e 40 99 bf
       -0.1077056606478388 -0.024659130155134018
000420 a7 68 d5 17 db d4 d0 3f 3a 8a 68 ee 7b 74 b7 bf
       0.26299168899061914 -0.09162115641132909
000430 12 fa 48 d8 99 cb b3 bf be 7a 27 31 09 c8 cc 3f
       -0.07732545404812921 0.22485461139782176
000440 bc 6f 25 49 5e 5c aa bf 0d e1 e2 9a 91 b4 c1 3f
       -0.05148596423052207 0.1383230215340138
000450 01 db 71 4c 36 06 cc 3f 2c 40 f4 3f 2f 1a e1 bf
       0.2189395783677455 -0.5344463585952375
000460 78 f4 3f 3b e6 40 cf bf 7b dc 73 34 8f f6 dc 3f
       -0.24416807072694602 0.4525487911445862
000470 6b b0 87 34 56 8d dc 3f be 40 36 2e 5c 28 cd bf
       0.4461265099514608 -0.22779419189874334
000480 81 54 3e 8a d6 3c e3 bf 09 64 f3 f7 23 41 cd 3f
       -0.6011765194003972 0.22855043036432246
000490 8b 14 4a 2e 54 25 be 3f 88 80 40 4f 00 2c c1 bf
       0.11775709276305883 -0.1341553103420703
0004a0 53 87 9a 75 ae 01 a3 bf 1b 55 0d 55 bc b1 d2 3f
       -0.03712220368949084 0.2920981245600431
0004b0 24 5f 03 20 93 13 f0 3f e1 93 6f af 83 5a d4 3f
       1.0047789812578651 0.31802456028373
0004c0 72 21 80 42 de 4c d2 bf 23 bf 50 94 0d fe b3 bf
       -0.28594166273298705 -0.07809529181463097
0004d0 06 96 11 7c 50 f0 a7 bf 29 e3 46 5a 15 f3 c1 bf
       -0.04675532831678812 -0.14023081691791475
0004e0 63 6f de 16 01 87 a2 bf 4f 5e a5 be d7 2b df bf
       -0.03618625072632999 -0.4870509492661527
0004f0 ff 56 c7 60 c3 a4 d1 bf 34 2c 36 3d d9 61 c2 3f
       -0.27568134738008604 0.14361110199783556
000500 7c 36 c4 c5 5d 2c d2 bf 19 f9 c6 df bf b3 c9 bf
       -0.28395790398722176 -0.20079801966307612
000510 00 57 34 82 19 6d d6 bf 4f 1f 20 63 7d c9 cb 3f
       -0.3504089137580735 0.2170864805232164
000520 99 1e 49 8c 32 15 93 bf 8d e4 ee 8e ed ba b3 3f
       -0.0186355493663358 0.07707104434565988
000530 2b 94 ec bb 85 02 cd bf 6a a7 a9 8f 99 51 c3 bf
       -0.22663947750075528 -0.1509277297475891
000540 ab 76 29 4e 63 97 a5 3f dd 02 d5 ac f6 68 c8 bf
       0.04217062310338567 -0.190703234091436
000550 4b 02 72 82 8f ef a8 bf cb 28 8a 4f 8e da 95 3f
       -0.0487027022109073 0.021341537098614787
000560 f0 95 09 cb 7f b8 b2 bf 9b 1b 85 d4 ac c0 c1 3f
       -0.07312773425072527 0.13869247796011738
000570 32 94 c5 e9 57 dc b7 bf b4 12 e0 e7 af db 9b bf
       -0.09320592362708238 -0.027205227401298784
000580 68 00 40 42 54 22 d0 bf 0b 23 0f 9c ad 27 d3 3f
       -0.2520952841732709 0.2992967628493239
000590 45 72 35 60 49 30 c3 bf 3d 29 56 98 7c 5d ca 3f
       -0.14991109082883916 0.20597798765477107
0005a0 8c 58 7b 0a f2 cc e2 3f 06 01 c5 d4 6a d0 e4 3f
       0.5875177578661961 0.6504415660529339
0005b0 9a 36 a0 70 7d a3 ae 3f f2 8e cd e7 5e 1e c1 bf
       0.059841079710264825 -0.13373934095863366
0005c0 8b ec 28 9c f6 bb bf bf e5 29 0a 57 61 aa c9 3f
       -0.12396184265610281 0.200512092113356
0005d0 e2 69 fc 76 84 f7 c5 bf a3 ea 82 75 f3 8e cc bf
       -0.17161613283026528 -0.22311251867161727
0005e0 d2 26 a4 2f 58 8b b0 bf aa 26 ed 00 cc 2b c4 3f
       -0.06462622798076303 0.15758657498581857
0005f0 03 c1 21 96 fb 09 d6 3f 22 d8 c5 13 6f d0 bc bf
       0.34435929929078685 -0.11255544884429061
000600 d2 38 fa 7d 8d 73 c0 3f ea 52 73 6f 92 f3 ca 3f
       0.12852638865701366 0.21055822793882523
000610 34 be 04 db ed fe af 3f 77 2b a9 19 75 90 c7 bf
       0.06249182985845572 -0.18409599068612767
000620 66 4b c6 d2 21 f4 cd bf 1e 25 c5 ff 40 2d b1 3f
       -0.23401282111862115 0.06709676975619458
000630 40 ee 82 5a 10 37 b5 3f 01 1f 40 8a b5 a7 c1 bf
       0.08287145814659258 -0.13793057680617696
000640 a8 b0 c4 5f 12 1a b1 3f 4d a2 fe 0f a9 0e ca bf
       0.06680407369703067 -0.20357239991177992
000650 7f a4 6d 34 ea 8a 9b 3f 41 6f f6 31 11 dc c0 3f
       0.02689710564610381 0.13171591701108734
000660 a3 9e 78 00 6b 61 b7 3f 4b 5a 33 22 38 34 a7 3f
       0.09133023034575642 0.04532027642715216
000670 b6 64 0d 9b 88 5a b2 bf 2e 87 9f 9a 2c b0 cb 3f
       -0.07169393334824545 0.2163139109607583
000680 a0 38 89 a7 2a 4f c0 3f 74 3b 86 c9 98 67 a5 3f
       0.127415973477075 0.04180600605024312
000690 03 88 d4 b2 50 ce d6 bf b7 0d 14 c8 f6 06 bc bf
       -0.35634248222243076 -0.1094812620613571
0006a0 d6 34 17 e7 d4 c1 d2 3f 5b 95 ab 9e 77 a0 ba 3f
       0.2930805451149586 0.10401103614602418
0006b0 b2 81 7f 2b 2a 13 c8 bf 5e b4 c5 db f3 8e 8a bf
       -0.18808486102990468 -0.012967972893159704
0006c0 93 3d 3b 58 e2 be cc bf 80 98 ae 4c 31 b5 d5 3f
       -0.22457532222913965 0.3391841172073171
0006d0 95 a5 c8 77 d1 1c b3 3f 36 f3 9c 83 c2 97 91 bf
       0.07465848135384186 -0.01718048027327087
0006e0 57 42 28 11 3c 8c d6 bf 7a ca 43 a6 52 ba a0 3f
       -0.35230924296869176 0.03267153052901946
0006f0 28 a9 64 65 02 eb 93 3f d9 8a 05 a0 35 9b de 3f
       0.019451177061605623 0.47822323443521736
000700 7a 38 4c 89 02 b7 e4 3f c3 0e 1a fc e2 9c 90 bf
       0.6473400765987798 -0.016223475110122686
000710 ab 6a 76 ab 7c 4e 98 bf 0f 6f 30 1c 0d 64 b1 3f
       -0.023736904111141637 0.06793291032994041
000720 a1 47 31 80 85 f5 b3 bf 8e cb 99 12 5f 29 d9 3f
       -0.07796511058520973 0.39315010849457444
000730 f0 a9 ae 12 c7 ee e4 bf 8f f8 7d ea f1 74 d2 3f
       -0.6541476597679416 0.2883877553903255
000740 13 f8 8e bc 50 b0 8e bf 4b 4a 58 0a 94 14 ca bf
       -0.014984732393596578 -0.20375299935456534
000750 a3 ec a4 de 5c 21 ce bf 1c 4b 63 79 41 83 e6 3f
       -0.23539315100956512 0.7035224314553008
000760 2d e5 e6 6b 92 50 ca 3f 95 fb 7d 74 1d b8 b6 3f
       0.2055838610520281 0.08874687284513379
000770 0a e6 f9 f4 fc 8c c9 bf c4 9e 2f 26 fe a5 cc bf
       -0.1996151157543838 -0.22381569733192042
000780 dc 50 08 1c 4f a9 de 3f c8 d7 7c 16 6d 1b d2 3f
       0.479083802581284 0.2829239577871445
000790 41 65 aa 0d ae 67 e0 bf e7 49 b4 3d 8d e9 d0 3f
       -0.5126562373072049 0.2642548658924668
0007a0 68 bd 7c 35 f7 17 c0 3f 13 37 33 8a 7a 42 d4 bf
       0.12573137389834277 -0.31655753608798526
0007b0 19 6d c2 32 c9 59 dc bf 12 21 db 95 80 5f d0 bf
       -0.4429800983140964 -0.25582899698612593
0007c0 b7 28 2a af 70 ca b6 3f 19 c7 a3 e4 37 23 b7 bf
       0.08902649189454591 -0.09038113910699187
0007d0 de c3 2a 2c ab 77 d1 3f 00 cc cb b6 be 33 c5 bf
       0.2729289943045482 -0.1656416313704483
0007e0 ac 6c d6 69 4d b1 ce bf 1c df c6 af 18 4c d3 3f
       -0.23978583972789147 0.3015195576258394
0007f0 ba bf ad 5a 5d 7e d1 3f 4c da df e6 79 2e d3 bf
       0.2733376870664831 -0.2997116808541349

gru.bias_ih_l0 f8 [96]
000000 23 6f 86 d1 66 d9 b7 bf 0a a7 15 93 e9 2d b3 bf
       -0.09316103568420124 -0.07491931763584261
000010 ba 82 8f ba 3b 68 c2 bf 06 3b 21 c2 1b e6 ce 3f
       -0.1438059483471273 0.24139735201830365
000020 a4 c3 51 ba cc 59 a8 bf 9a 01 bf 62 60 07 9b 3f
       -0.04756011747748026 0.02639532664011455
000030 41 cd f8 8a 19 6e a2 3f 9d b1 8c 14 f1 3d d1 bf
       0.03599624463495355 -0.26940562254710604
000040 d8 39 78 94 dd de a9 3f 0c 78 3a 1c 64 46 c6 bf
       0.050528454183325244 -0.1740231645425755
000050 ab d7 37 4b 20 f2 c1 3f da ed 1e 28 28 e3 dc bf
       0.140201603629689 -0.4513645545773365
000060 73 d0 97 c7 f5 04 b8 bf 24 77 24 bb 5a 14 c7 3f
       -0.09382568476559232 0.18030866754355046
000070 6b 14 17 3d 58 fb bb 3f 6a 7b b2 c0 17 24 bc bf
       0.10930396548708791 -0.10992573217889193
000080 e7 4d ce 9a f3 2e d2 bf 0c 1b b2 5f 3b bd c0 bf
       -0.28411569707642886 -0.13077490017550308
000090 f5 7a d4 e2 7f f6 d0 bf 7c 9d 4e c4 3f fb b4 bf
       -0.2650451388489466 -0.08195875685361459
0000a0 9b 43 83 0f 71 e3 b4 3f 55 a0 12 b7 7e 22 99 bf
       0.08159548405389076 -0.02454565040957875
0000b0 f2 b0 4f 45 57 04 b8 bf b6 98 f4 4a c2 60 d3 bf
       -0.09381623689813859 -0.3027806980120532
0000c0 d9 fb aa 3b c1 e2 d0 bf 95 36 af 59 eb 5e ae bf
       -0.26384001566833387 -0.059317927072339995
0000d0 48 e2 20 78 1f 53 87 bf 88 32 90 4e 57 45 cb bf
       -0.011389013150720065 -0.21305362068268985
0000e0 0a 19 45 51 91 8e d5 3f 95 b4 91 94 fc 62 b5 3f
       0.33682663856997463 0.08354166629006195
0000f0 a4 19 2a c4 6c e5 c3 bf ee 47 cd 3d ef 68 d0 3f
       -0.15543899134008854 0.25640469584789016
000100 8b 0b 95 47 45 4e b7 bf 17 fb d1 df 20 17 c3 3f
       -0.09103806493389592 0.14914332321856058
000110 37 d5 c1 78 c4 27 de bf f6 c1 d4 8c f0 66 cb 3f
       -0.47117721359912274 0.21407896877782634
000120 0d de fe a1 80 ca d4 3f 68 1f 22 d6 83 08 ab bf
       0.32485977001076166 -0.05279933918887886
000130 58 96 39 e4 3c f7 e0 3f 2d 2c 2d 68 33 18 c1 3f
       0.5301804025190888 0.13355105005970938
000140 6f e8 e6 0f 9f 64 dd bf a8 2c 85 74 25 3c eb bf
       -0.459266438988954 -0.8510920787606624
000150 35 0f da b3 26 b3 b4 3f 8c d7 5a a2 43 bf d8 3f
       0.08085863009369805 0.3866738400932881
000160 a7 80 12 49 fc aa e7 bf cc 44 7e 58 93 81 db 3f
       -0.7396222521965868 0.4297836651031275
000170 a3 02 4b 34 c1 99 dc 3f ce eb 67 fd 51 51 d4 3f
       0.44688444239367636 0.3174633955638314
000180 f1 20 59 9f 0a b3 c3 3f 99 ad c0 45 69 ef cb 3f
       0.1539014127795393 0.2182437506283861
000190 90 fe d5 73 6a 9f d2 3f ca 94 dc 03 e2 9f d2 bf
       0.2909799700937379 -0.29100847603906443
0001a0 df ec 9f 7f ee 17 d1 3f 66 c6 fe 0c 86 f3 d4 bf
       0.2670856710753479 -0.32736350316108653
0001b0 7e e6 2e 6c 47 83 d7 bf 22 2c 44 48 a4 f9 dd 3f
       -0.3673876339413268 0.46836192185645775
0001c0 8e 91 2e 93 ab fb cd bf eb cf f9 18 49 9e db bf
       -0.23424286543480516 -0.4315359825043276
0001d0 7e 98 07 c5 5f 5f cf bf 87 ff cf 32 c4 66 c2 3f
       -0.24509808655347237 0.14376118165091276
0001e0 17 c8 a1 e4 9d dc d4 3f 46 69 c5 70 6a ca e2 3f
       0.325965379022024 0.587208957916382
0001f0 95 70 53 72 0a c5 de 3f 30 22 bb 7d 20 7d e2 3f
       0.48077641644136665 0.5777742820437819
000200 a6 7a f0 b3 d3 e8 c1 3f f9 98 09 62 ae 4a c6 bf
       0.13991781507589457 -0.17415408884989583
000210 18 58 21 45 22 9c ba 3f f6 59 13 61 61 e9 c2 3f
       0.10394491374731307 0.1477472042085563
000220 ff 9d ec b5 dc 50 ae 3f 01 96 d7 cb 35 46 c1 bf
       0.059210679252199576 -0.13495514348248608
000230 8e f1 07 b8 41 1f 94 bf 98 c3 82 e8 00 5e c6 3f
       -0.019650484902727743 0.17474376061502706
000240 9a d5 d0 f8 9b 4c ac 3f a7 71 71 56 ea e3 a0 bf
       0.05527198231031179 -0.032988856365338486
000250 2c bc 5b c0 fa 74 b8 3f 95 47 cb 12 db 4e cd 3f
       0.09553496547935997 0.22896898667982826
000260 1f 66 24 4f d2 e9 b4 3f c5 72 9b d0 fb 2d af 3f
       0.0816928332536908 0.06089770242190221
000270 e0 7c bc e6 ca a6 93 bf 96 c6 a9 9f bc c0 88 bf
       -0.01919095071127408 -0.01208636629346253
000280 a0 90 34 54 8b 4d c0 3f 17 6f e0 71 e8 84 bd 3f
       0.12736646281803576 0.11530926494782211
000290 9d 4c 2a 87 37 de a4 3f a2 72 2f 56 6d b2 b4 3f
       0.04075788044897275 0.08084758142599438
0002a0 02 bf 5b a3 69 f0 ad 3f cf 26 ef 94 b5 61 d1 bf
       0.05847482794876947 -0.27158870262483686
0002b0 d3 5d 43 8e 72 bf 8b bf b2 73 5c 2b 3f 35 b2 bf
       -0.013548750845457846 -0.07112498100873557
0002c0 66 5b 55 d1 eb d6 aa 3f 88 e6 d5 3e 49 ea b8 3f
       0.05242096834506675 0.09732492240973489
0002d0 89 47 0c cd 08 e5 c0 bf 12 15 51 8b ba 8a c2 bf
       -0.13198957454784147 -0.14485866358351324
0002e0 b5 c9 d5 45 86 c8 c5 3f 79 61 66 87 05 f2 9d 3f
       0.1701820221893066 0.02924355162540013
0002f0 10 c7 e1 12 8d 5e a0 3f 30 d5 06 c4 04 3f bf bf
       0.03197136741154172 -0.12205533777053712

gru.bias_hh_l0 f8 [96]
000000 96 9b 61 04 93 b6 d1 bf 46 d3 8a 49 f0 1b c7 bf
       -0.2767684500490132 -0.1805401190846629
000010 eb f9 e0 4a 1e 21 b8 3f fe 3a 21 e2 9b 92 c6 3f
       0.09425534561248809 0.17634914914602712
000020 08 79 5c 8b 71 42 9d 3f 0d e0 57 8c be e8 c7 3f
       0.028573774462636897 0.18679029324243893
000030 b6 e6 a0 6e a2 30 d2 bf a0 63 19 69 f5 02 c2 bf
       -0.28421841434065287 -0.14071529037280772
000040 27 74 f0 28 f1 02 9a 3f dd bf d3 e1 7f f7 93 bf
       0.02540184795735825 -0.019498823316950954
000050 f8 ae 6f 96 f9 a8 bc 3f d7 ed 1e d8 39 9d d4 bf
       0.11195335314522115 -0.3220963106684542
000060 18 e8 cb 83 50 22 cf bf 0a dc 91 6c 87 8b aa 3f
       -0.24323469577194667 0.05184577179255008
000070 ad 28 2e 3a d2 34 a2 3f 3a c2 a6 9f 1d d6 c8 3f
       0.035559243776405715 0.19403429313162396
000080 65 7d 93 b3 c6 bc 7c bf 66 94 37 81 d0 a8 ad 3f
       -0.007015968492140122 0.05792857720715787
000090 11 4d b8 d2 9a b9 90 3f 70 75 3a 11 e9 52 9f bf
       0.016333026038478474 -0.03058971564916163
0000a0 53 5e 3e d8 e4 d2 c2 bf c7 ac 1d 49 37 19 c9 3f
       -0.1470609718205532 0.19608203001130262
0000b0 78 d8 a7 42 d5 9e cf bf 57 4c 7a ed ea 7a e3 bf
       -0.2470346999613786 -0.6087546003567564
0000c0 d5 fb aa 8b 8b 63 d0 bf ab 91 0c 65 6a 9f 66 3f
       -0.25607575072711813 0.0027615621587690673
0000d0 b1 e3 fb 50 11 4c b0 3f c2 9a df e2 9d 05 b2 3f
       0.06366070010325477 0.07039820469763483
0000e0 0e 19 45 71 a4 88 d7 3f a4 47 1b 49 d9 fd 78 3f
       0.3677149873878002 0.006101464053886039
0000f0 50 33 54 08 12 19 b5 bf 8e 8f 9a 3b 75 c9 c3 3f
       -0.08241379454939346 0.15458550844516278
000100 35 86 ca f3 58 1e cc bf 66 09 5c a0 5f ce b5 bf
       -0.21967613128531274 -0.08518026032473855
000110 ef d4 c1 08 d8 8e d2 bf f1 83 a9 99 ac ac b7 3f
       -0.2899684987563224 0.0924785494949132
000120 1e de fe e1 a1 a6 d3 3f 2f 88 88 55 a7 7d c2 bf
       0.30704543180351773 -0.1444596450465396
000130 1d 96 39 94 9e 00 e0 3f 39 c4 d2 82 d8 c3 8a 3f
       0.5000756163614742 0.013068858616266709
000140 52 e8 e6 df 34 3e df bf 9a 2c 85 2c 0f dc ec bf
       -0.488171785978584 -0.9018627042327296
000150 14 08 ed a9 b7 11 c6 3f 93 af b5 24 04 5b c2 3f
       0.17241569325602824 0.14340259354082416
000160 af 80 12 89 92 bf e5 bf dd 44 7e 68 5e cc d4 3f
       -0.6796353032296077 0.32497368053834724
000170 4a 06 96 68 22 45 c7 3f 2a d7 cf 1a c2 c2 c7 3f
       0.1817973147081367 0.18563104924367596
000180 e5 90 ac ef eb e6 d2 3f aa ad c0 85 82 36 ce 3f
       0.29534433751747563 0.23603850870982274
000190 d4 fc ab 87 0e ba cd 3f b8 a4 e4 1e 23 7b a9 bf
       0.23224050163842114 -0.04976758720506197
0001a0 7e b3 7f 3e 5a 9f b6 3f 36 c6 fe 0c e7 e3 d2 bf
       0.0883690264306107 -0.2951600672632567
0001b0 34 99 bb 10 34 57 bd bf 15 16 22 c4 21 9a e0 3f
       -0.11461186798587591 0.5188149290776801
0001c0 b9 48 97 39 c4 d5 df bf eb cf f9 78 22 a2 db bf
       -0.4974222719585089 -0.4317709142117098
0001d0 15 cf f0 35 48 6e b3 3f 4f f8 ff 59 fe 92 73 3f
       0.07590152089033737 0.0047788558586017845
0001e0 72 90 43 89 b5 df cb 3f bc d2 8a 31 ce 73 dd 3f
       0.2177645607217787 0.46019320333588687
0001f0 13 e1 a6 24 7c a0 cf 3f 44 22 bb 25 91 9a e0 3f
       0.24708511151926213 0.5188680397923879
000200 0c d6 b4 2b 30 ae 98 bf 2f 63 e4 2c 7b 1e ae 3f
       -0.024101975124002847 0.05882630274772393
000210 35 c2 26 e3 3c 3d b4 bf 9a 87 8a a2 27 4f b4 3f
       -0.0790594152993059 0.07933280676164003
000220 92 37 6d be 00 29 c0 bf 4c d1 86 c5 c8 08 c5 bf
       -0.12625130937743428 -0.16433057446341548
000230 39 06 3d 67 c9 41 b4 3f 34 e9 10 09 79 8f 91 bf
       0.07912882585971993 -0.017148867777202884
000240 c7 de 5b b9 2d 32 84 3f d7 6e e4 22 bd ce c3 bf
       0.009861333102420556 -0.15474666789747601
000250 ba 16 be 5c a5 43 ca 3f e5 46 6e 96 9a 99 cb 3f
       0.20518939045375878 0.2156251177335015
000260 5c a3 7d fb 02 c5 c5 bf 7b 87 89 df 4d 44 ba bf
       -0.17007481841872163 -0.10260473926021334
000270 4b 1a 39 0f 49 eb be 3f 6c 5e c5 20 94 66 c8 bf
       0.12077767011315037 -0.19063045120377653
000280 4f 4a 4c 84 ec 06 bc 3f a1 47 2a e6 0c c6 b1 3f
       0.10948065023357255 0.0694282590796136
000290 74 39 7b ce e8 b4 c4 bf f8 ce 72 24 63 72 87 bf
       -0.1617709167680449 -0.011448645162409829
0002a0 21 d3 28 42 00 84 a6 3f 2c ea 9e ea e0 02 b6 bf
       0.043975837780101175 -0.08598142364545741
0002b0 55 3f 75 63 40 0a a4 bf 27 22 b4 35 c1 65 c1 bf
       -0.039140712872380114 -0.1359178077912173
0002c0 d5 f2 d0 2b ed 0d b0 3f 75 31 cd 05 f5 51 ad 3f
       0.06271250076037956 0.057265908201403905
0002d0 9a db 5c 4d b6 bd aa bf ae 90 43 d8 6f 62 91 bf
       -0.05222863859528744 -0.016977069449141062
0002e0 60 c3 21 55 70 0c c7 3f f6 c1 81 0c a5 51 c7 bf
       0.18006710202055398 -0.18217909918486414
0002f0 7b 1d d2 3b 3b 5c 68 bf 95 52 99 45 65 a0 ca bf
       -0.0029736668498718233 -0.2080198850477656

gru.weight_ih_l0_reverse f8 [96, 6]
000000 82 92 da 3d ab 38 d2 bf 0b b1 0b 0e 36 8e cd 3f
       -0.2847087959328648 0.23090243993591061
000010 bb a0 52 99 31 ec eb 3f 71 c6 1c dd 66 4d d0 bf
       0.8725822443566565 -0.2547242316532908
000020 eb ae c0 db df 9a dc bf f5 99 ec 78 1c 69 d1 bf
       -0.44695278606626115 -0.27204047974592466
000030 67 b3 fb 7a d0 34 d3 3f 21 f0 41 94 49 97 eb bf
       0.30009853372648937 -0.862217702451293
000040 19 d4 de 93 d1 69 ec bf 44 f2 36 da 39 1f ba bf
       -0.8879173172086922 -0.10203897073274343
000050 a2 97 52 69 b2 10 bb bf e3 c0 a3 9d 3e 54 ce 3f
       -0.10572352477410488 0.23694594094514007
000060 e1 c1 46 04 a4 4b b9 3f 09 9e 93 01 bb ba e4 bf
       0.09881043533710666 -0.6477942496102865
000070 46 fe 06 d6 55 59 f9 3f 84 8c 01 65 c8 65 bc bf
       1.5843103752557837 -0.1109280821415713
000080 85 ee 85 16 50 b6 e4 bf 10 1d f6 5d 43 ba f8 bf
       -0.647254985800331 -1.5454744024626201
000090 ef 09 ed 14 8a 9d d2 3f 57 89 b8 2a 42 f1 e4 bf
       0.29086544078395965 -0.6544504961387173
0000a0 3e 83 48 ce bb 8c f5 bf 48 d6 64 cb 96 b6 b3 3f
       -1.3468587930621676 0.07700483766242272
0000b0 ef 91 95 2a 64 cb 7b 3f 7e 1a 29 cf 30 38 e1 3f
       0.006785765909942828 0.5381092115502069
0000c0 21 be 72 28 bc c4 c7 bf 71 af cf a4 9a 8f de 3f
       -0.18569137549410278 0.47751489729738866
0000d0 8b d6 99 8f 85 af f8 3f d7 89 b5 be 56 24 bf bf
       1.542851983014233 -0.12164823680863122
0000e0 86 1f d0 b7 f5 97 a4 3f 30 1b ea 8f b0 ec e1 bf
       0.040221861541851076 -0.5601427851514469
0000f0 34 23 e9 15 76 69 d3 bf 98 1e cc 11 33 70 c7 bf
       -0.3033118452045074 -0.1831115567113002
000100 1e f7 7d c1 19 2e e8 bf 20 9e a0 34 55 84 dd bf
       -0.7556275157109871 -0.4612019552173212
000110 7a f0 7c 0c 0f f7 e0 3f a4 c8 89 43 7b 04 d7 3f
       0.5301585430056683 0.35964852901009636
000120 25 13 95 b9 0c 84 b1 bf 90 9d c8 55 0e e2 e9 bf
       -0.0684211686212391 -0.8088447261297222
000130 5c 05 58 dc 12 94 e8 bf 44 2f 70 b8 bd 72 b8 bf
       -0.7680753997412171 -0.09550081017385731
000140 e1 b2 a2 23 48 02 d4 3f 84 4d 99 9c 52 71 dc 3f
       0.31263926963838 0.4444166688237703
000150 5d 42 25 a5 da c5 d0 bf 1d fc 3d 5b 53 9e c7 bf
       -0.26207605483526725 -0.18451921420270959
000160 4c ed bd 38 4c f0 f7 3f 04 56 96 1b 35 5b aa bf
       1.4961664406281043 -0.051477107637008884
000170 b4 98 e3 7a 7d 54 d7 bf ab 0d 6b 88 46 94 a1 bf
       -0.36453186989673303 -0.03433437743435815
000180 be 89 24 20 a9 2d bf bf 79 3f a3 e6 af 8a e4 bf
       -0.1217904761765913 -0.641929579223855
000190 11 d1 7d 9c f9 e5 ed bf ed 89 df 2f 14 41 c3 bf
       -0.9343231255029726 -0.15042354905661118
0001a0 fe ed c0 53 c7 d7 76 bf 45 47 ca 1a a7 b7 a5 bf
       -0.005576876279572483 -0.04241678430584143
0001b0 2f c4 84 1b b2 c5 d7 bf f1 b5 9a d8 1c d8 ae bf
       -0.37144138991704073 -0.060242558899840655
0001c0 cb 8b e1 53 6f 33 d8 bf db de 75 1d 25 38 d1 bf
       -0.3781393355513358 -0.2690518176745919
0001d0 24 fc dc 58 e5 ba c8 3f 80 2d 3b f9 81 1f f2 3f
       0.19320360983871965 1.13269231182025
0001e0 c4 92 d3 a1 38 09 b8 bf 5f 0a 55 6c 37 ee e5 bf
       -0.09389070463982835 -0.6853291622031285
0001f0 1a 79 b2 c1 76 d1 df bf 76 2e 7c df 20 36 e0 bf
       -0.49715966144312207 -0.50660747193747
000200 fb fb e6 12 3a 00 d7 bf 83 c4 c8 7c be db eb 3f
       -0.3593888458817102 0.8705742299263338
000210 cf d1 07 2a 42 98 c2 3f 41 fd 57 6f 7d 0b dc bf
       0.14527155926010812 -0.4382012927380466
000220 b2 c1 1b cb e6 4f e2 3f 16 5d 24 05 b0 84 ce 3f
       0.572253605552808 0.2384243035419124
000230 26 3c b4 2e 12 28 d5 bf f5 8c 8d 80 31 ac b0 bf
       -0.3305707412809532 -0.06512746227740591
000240 f1 96 fc ab 53 fb 44 bf 13 b8 08 f1 0e ef d8 bf
       -0.0006403120569060378 -0.3895909646843176
000250 99 00 5b 3c c7 b0 e1 bf de 12 c7 25 2a 2a d6 bf
       -0.5528293780153205 -0.34632352532598343
000260 09 17 bc 58 6a 91 b8 3f 72 05 b0 22 ae 8f c0 3f
       0.09596886316657217 0.12938477224092143
000270 2b bc 6a 39 a8 8c c9 3f fa f5 dd 33 97 43 81 3f
       0.1996050148349878 0.008429700155597953
000280 3e 4b c5 51 ef 83 78 bf 6e f3 71 4d 0c 2e b3 bf
       -0.005985197869750545 -0.0749213875842096
000290 39 e1 36 df 4b 7e e0 3f 05 f3 9d f4 d8 c1 db bf
       0.5154170379310364 -0.43370651138666033
0002a0 30 2b 3b a7 4c f6 de bf dc 21 0c 5f 97 be e7 3f
       -0.48378292399563616 0.7420155388254517
0002b0 79 05 85 b5 81 4b f2 3f e8 9b bf 2f 83 d8 d8 bf
       1.1434342470750762 -0.3882148710530928
0002c0 cb ec b3 4e 82 f1 d7 bf ba 79 09 0f 02 e0 ac bf
       -0.37411554036925726 -0.05639654573018356
0002d0 fc 53 1b 78 f1 11 ca bf 6f 2b fd 92 60 bb ec bf
       -0.20367258419597067 -0.897873198592931
0002e0 69 ef bf 6f 71 33 fe 3f a6 03 b4 c0 c0 a2 c4 bf
       1.8875593533730017 -0.16121682557425493
0002f0 ec 2b 8e c9 49 85 c7 3f df d6 a9 23 c2 e7 d5 bf
       0.18375513402528953 -0.34227040751225773
000300 4c 8f 13 c3 0a e2 d2 3f dd 7f 8d 65 dd d3 ca 3f
       0.29504651117735103 0.20959060152654177
000310 bf fd 8a 3c 2a 0d ec bf a0 ef 52 2c 3f 95 9b bf
       -0.8766070539931475 -0.02693651874572789
000320 ab a5 82 58 4a a3 f1 3f 21 92 df 64 aa c1 b5 3f
       1.1023658235011264 0.08498635256507515
000330 3e 0a e5 f5 e0 0a d4 bf d5 fc b6 3b b4 04 b7 3f
       -0.31316398633149223 0.08991552789574382
000340 9c 21 b8 18 77 bd f3 3f 09 4e 85 10 86 18 d3 bf
       1.2337561574550824 -0.29837180722572093
000350 8f 6b 4a 63 dd e1 c3 bf 41 b6 b9 7a e4 82 b0 bf
       -0.15533034656695263 -0.06449726101137633
000360 e2 f6 19 df 7c c4 dc bf 9d 74 9f f2 de 52 aa bf
       -0.4494926623082006 -0.051413504712152426
000370 8b 85 b9 1f 83 55 f5 3f 06 c8 1b f1 bf 1c b4 bf
       1.3333770026441438 -0.0785636867183542
000380 7d bb 04 88 6e 48 d9 bf 1d 6b c4 38 52 6d ea bf
       -0.3950458839707876 -0.825844870446733
000390 21 1f 80 05 42 2c bc bf 37 21 b7 34 4b 49 ec bf
       -0.11005032190598431 -0.8839469937893573
0003a0 b1 43 a7 90 92 1d ca bf 32 ce 10 e3 e8 e9 d3 bf
       -0.204027481681377 -0.3111517159879639
0003b0 e2 21 71 8f 69 d0 df bf 83 95 37 76 89 fe d4 3f
       -0.49709548004150694 0.32803570313111424
0003c0 0d b9 4d cd 53 9c c5 bf 18 b2 36 2d 1b 29 e6 bf
       -0.16883323216047366 -0.6925178416327666
0003d0 71 99 16 e2 1b 7c c5 bf 83 c3 ca 53 45 0e c8 bf
       -0.16785000361887684 -0.1879355105534409
0003e0 92 bd dc 51 69 fe d9 bf 42 59 a1 ec f2 96 d6 bf
       -0.4061530398784835 -0.3529631911127532
0003f0 c4 58 1a 13 9a ae b4 bf 09 5f 15 6b ea 45 b9 3f
       -0.08078921285991486 0.09872307886450583
000400 14 3a 02 02 0c 19 e9 3f f6 67 60 7b c8 8e c3 bf
       0.7843074835998913 -0.15279489540336016
000410 23 34 76 d8 29 93 c4 3f 91 40 91 b7 d9 a7 c1 3f
       0.16074107236309584 0.13793488944293533
000420 2a 1d 6f 7b a1 a6 99 3f 04 f4 ff 48 f7 1b e7 bf
       0.025049708517852633 -0.7221638131883314
000430 36 46 df be 2a 03 f2 bf 4f 73 04 6e 0b 42 d5 bf
       -1.125773187250514 -0.3321560453785439
000440 2a 92 d4 64 e0 c3 c1 bf 2d b2 70 a0 4f 79 d2 3f
       -0.13879017756802742 0.2886542383955966
000450 9d 06 19 15 6f 05 c9 bf 7a f7 99 6e 1d 38 e7 3f
       -0.1954783299461739 0.7255999717888095
000460 d2 9e 15 df da ab f6 3f c6 57 eb 58 25 8a a6 3f
       1.4169567789303312 0.04402271948281071
000470 a0 fe 20 32 db 82 da 3f fe 10 ae 18 fb 6c 69 bf
       0.41423683066748573 -0.003103723929088641
000480 6b 4b 98 9d 5e ed db bf 2f 68 88 72 8b 86 ce 3f
       -0.4363628901493743 0.23848097889350714
000490 2c 03 b8 7c 5d ee f5 3f 27 13 a7 00 8a 6d b3 bf
       1.3706946250751555 -0.07589018360074516
0004a0 14 18 e3 72 03 e1 a4 3f c6 45 89 39 2f ad e6 bf
       0.04077921655111552 -0.7086406825784983
0004b0 87 28 29 01 23 6d d3 bf bc ba 6e 4c 8d 1f e2 3f
       -0.3035361777625742 0.5663515560935006
0004c0 5d 59 8d dd e1 61 f7 3f 3a ea b9 00 eb 3c a3 bf
       1.4613970426922471 -0.03757414230218044
0004d0 82 77 f1 61 34 6f c8 bf 4c 7a b1 94 e8 51 9d 3f
       -0.1908936956633021 0.028632768703000175
0004e0 03 28 d4 0b 1d 36 c6 bf 49 29 9b f2 da 1f c9 bf
       -0.1735264117963312 -0.1962846455192653
0004f0 ab 3d 51 4c e8 ea e4 bf eb c7 65 1a 65 05 d2 bf
       -0.6536752214978397 -0.28157928064240306
000500 46 c4 25 f3 53 88 9e 3f 9e 89 71 cd 08 d6 e5 3f
       0.029816924777552843 0.6823772442406157
000510 b2 65 40 9b d2 bf df bf 24 1b c8 e8 b7 8a ce 3f
       -0.4960829273346362 0.23860834947864717
000520 fc 45 65 95 da a6 ee 3f 22 b9 2d 03 bd 5c c0 bf
       0.9578679006464763 -0.12783014922337893
000530 cd 6d 5c e1 47 5b a8 3f 1a 72 d1 00 09 99 cc 3f
       0.04757141710271249 0.22342026271771048
000540 58 44 61 62 c8 fa 92 3f 69 a4 94 86 9a c0 e0 bf
       0.018534785275111737 -0.5235111835983278
000550 a9 e0 57 cd ea c1 f9 bf b8 98 3f f5 86 20 b4 3f
       -1.6098430653783373 0.07862132537374833
000560 9f 45 19 91 4c 31 cb 3f 01 19 09 c8 e4 25 ca 3f
       0.21244198880098694 0.2042814232574486
000570 43 42 97 f8 a1 e1 ba 3f fa 78 3f e7 33 04 88 3f
       0.10500538176644007 0.011726766104342524
000580 30 68 6c f0 17 e4 00 c0 13 6c 83 ee 8f 56 75 3f
       -2.1113737853129564 0.005209505303549927
000590 9d f7 02 a7 41 79 e1 3f 4a 59 2b 2d 66 d6 e9 3f
       0.5460518133111126 0.8074217683995724
0005a0 30 d9 6a 96 10 ac d7 bf 32 0c 81 60 67 29 b5 3f
       -0.369877001659364 0.0826630220990843
0005b0 af e6 68 36 bd a7 f5 3f 1a f6 d0 57 61 42 c5 bf
       1.353451931512989 -0.16608826434996687
0005c0 9c 14 bf 1c 30 a7 e1 bf 6d 22 5c 1e 04 40 e5 bf
       -0.5516586839154516 -0.6640644638983538
0005d0 23 d7 59 bd 7f 93 c5 bf 8a 1d 5c ef 9c 73 d3 3f
       -0.16856381173754995 0.303931459188299
0005e0 4b f6 f0 7b e5 67 7c 3f 4f 59 8e c9 6e bf c1 3f
       0.006935020849650873 0.1386545643005754
0005f0 12 05 b9 86 5f c3 b8 bf 29 85 45 01 03 f3 d2 bf
       -0.09673115767602194 -0.29608225940872274
000600 09 d7 65 d5 fe bb b6 3f b5 3c a0 96 bb a0 e9 bf
       0.08880608282001047 -0.800870699111235
000610 24 76 01 ee e6 c5 e8 bf 98 6c c2 6e 5f 7d b7 bf
       -0.774157967429066 -0.09175678686226474
000620 a8 2d 22 aa 74 b6 c8 3f c0 95 87 aa d4 02 b3 bf
       0.19306810672092678 -0.07426194346734061
000630 b5 58 a7 40 91 04 d3 3f a5 57 ef ab 31 41 e7 bf
       0.29715377153241757 -0.7267082555870173
000640 0a 75 5b fc 2c 22 e0 bf 23 f1 53 e9 7c 29 b8 bf
       -0.5041718415119771 -0.09438305565339937
000650 04 04 8e 8f a6 21 d9 3f 73 41 49 58 e8 3d d8 3f
       0.3926788713361591 0.37877853986449067
000660 ed 7f 2e 93 8a ab c2 bf 88 cb c4 ac 9a 51 7b bf
       -0.14586002527812472 -0.006669620703450792
000670 76 f6 28 2f 23 d2 e8 bf e7 51 34 1c 4f f1 bc bf
       -0.7756515427679023 -0.11305708349784248
000680 21 b9 9c b9 11 ed ea bf c3 e6 55 8d a2 17 c4 3f
       -0.8414391160238531 0.1569712820162775
000690 1a d5 bd e0 bd 64 d2 bf 8c 0b 84 0f 62 89 e2 bf
       -0.28739878604331326 -0.5792703917544357
0006a0 05 71 51 8c f6 e6 e4 bf 9a 87 29 c5 35 a3 e3 bf
       -0.6531937351788036 -0.6136731005501475
0006b0 3b a1 9f 14 be c4 79 3f 1d c3 cb a3 0d 83 e6 bf
       0.006291143896284541 -0.7034977149142808
0006c0 ce 69 5f 0d 2a 5b 9f bf 28 eb 9e 30 4b 08 e7 bf
       -0.03062120157833608 -0.7197624158501172
0006d0 5b ec 73 f9 9a 0a eb bf c2 cb 56 af 97 84 cc bf
       -0.8450446006894582 -0.22279640256382832
0006e0 1c e1 4d ca 24 10 9b bf 45 10 73 31 bf 14 b4 bf
       -0.026428770873708193 -0.07844157178175333
0006f0 22 f4 f4 a5 00 19 cf bf ae 91 30 2b 08 fd ce bf
       -0.2429505167328055 -0.24209692105172337
000700 5d d4 00 f7 16 24 e1 bf 18 87 9b f4 84 d0 d4 bf
       -0.5356554817468681 -0.3252270115609561
000710 42 a5 2f 2f 12 e7 92 3f a6 3c 92 61 4c db cc bf
       0.01845959103585427 -0.22544245495052911
000720 80 85 c3 d6 29 e1 b7 bf a4 0c 69 7c 1f bc e4 bf
       -0.09327947133308179 -0.6479642324342376
000730 20 74 66 59 bd d3 db bf 6d ac f1 81 21 0b db bf
       -0.4347985623406334 -0.4225543755516757
000740 31 02 56 65 99 99 d7 3f b2 c2 ff 55 a4 bc d0 3f
       0.3687499513253299 0.2615137901148429
000750 37 ee 5b 3e de 03 b7 bf 27 c0 15 d9 87 2f da bf
       -0.08990277311743787 -0.4091510410280556
000760 22 4e ab 09 c6 3e e4 bf c7 ff 93 07 d2 7c ca bf
       -0.63266279114254 -0.20693421716714352
000770 af 65 c9 83 1f d2 97 3f fb 5f f5 8c 17 87 d7 3f
       0.02326249353277426 0.36762036099889855
000780 97 72 aa c3 84 db d1 bf ec 6c 3b 15 ce 85 e6 bf
       -0.2790233526991783 -0.7038336195650152
000790 2c 2a 1f a0 3c ae ec bf e7 b5 13 68 df a4 a6 bf
       -0.8962691428544693 -0.04422662873717425
0007a0 05 53 f4 fd d5 0e cc 3f e9 55 0a db 97 d2 db 3f
       0.2192027559291533 0.4347285880151888
0007b0 9d 30 e2 9c e8 e4 e4 bf 19 d9 37 fc d8 ad 95 bf
       -0.6529429496890945 -0.02117098845879992
0007c0 0b 09 2a d4 eb 63 e4 bf af fd e8 06 13 04 df bf
       -0.6371974128562966 -0.4846236770135545
0007d0 ab d9 b9 5c 3d 15 f0 bf e0 a3 2e 6d 61 2f ec bf
       -1.0051854726894855 -0.8807837612595186
0007e0 7d 8e 2d 00 b8 48 d2 3f 8d 0d f0 74 12 01 da bf
       0.2856884004342886 -0.40631543559739997
0007f0 66 52 52 f8 a9 c2 e7 bf 15 3b 41 9a 86 b0 8a 3f
       -0.7425126886397038 0.01303200872658076
