results/Transformer_Long/models/checkpoints/1/Transformer_Long-1-1900.pt (torch_old, 229179 bytes, 14 tensors)

transformer.layers.0.self_attn.in_proj_weight f8 [18, 6]
-0.02509687464152216 -0.9805072141143937 1.785869830591823 -0.009013063885248371 -0.017767506795445927 -0.8895114655199339 0.3164874565487948 0.8879545328857974
-4.124134622018886 -0.19186373411062613 -1.2236085800527847 -0.018873330295577653 0.024106304364430314 0.756802740118647 1.451428402812304 -0.1383296524798881
-0.18849026760856466 0.0788739452723175 0.20100076600771738 -0.4131561629210541 1.6309684425914557 -0.07764427878348697 -0.2607135298845778 -0.2797374817945845
0.2376374334316071 1.1927255352526012 2.863644781901961 0.10584929302661623 -1.2308503680968805 -0.2532159778927837 -0.2572670678811882 -0.08042131282434041
-0.7385397000198529 0.19846470058224386 -0.196149658345221 -0.40824425721563484 0.0737117516539952 0.49486196822529444 -0.011440822378643948 -0.022840416252092995
-0.7074523856508785 0.04912321151115725 -0.7761395284205903 1.443917080967486 1.0905286096443758 1.7084498334541283 -2.166736925886112 -1.5179227551854686
-0.3068389758439456 0.05958507735218871 -0.005287014473615193 -0.24603205300401612 0.10066013631112397 0.18288037393678097 -0.1354441811262935 0.008617991369579915
0.3011926973561 -0.07788871583555197 0.2680348379159404 -0.3247441399426501 -0.4096973793999762 0.5234279359136003 -0.11969369684663828 0.6251105994885119
-0.36707477041727465 -0.11136133935736846 0.26450375209933374 0.04197205103187499 0.18321724837507727 -0.3316383895592639 -0.4687348448261018 -0.03877963409167313
-0.04664839984857185 0.07515807656209521 0.37613534439701213 -0.2713510470110936 0.31455117862871884 0.35176992402460566 0.20220226423689808 0.5999728771700032
0.36180115798399254 0.03944993896021244 -0.4806710064043299 -0.6194638645403868 -0.03192666373006364 0.29397993894000807 0.30923787463851904 0.09523433597130981
-0.42230026839834595 -0.22600813249112828 -0.15366372476279064 -0.23931478113503923 -0.21153968224752337 0.21075382870217035 0.27656198115539504 -0.03463643146502475
0.47897804710292097 -0.06411742737516776 -0.1200149961406587 -0.3799290456729607 -0.31919340317586725 -0.31491836157357433 0.02215938595785158 -0.14045976449348405
0.325641487162506 -0.2718302470619751 0.4546042949088518 0.18291186335939302
00000000: d0c2 44bf feb2 99bf e5a0 43aa 5060 efbf
00000010: 09e1 543e ec92 fc3f 85bf fdf4 7075 82bf
00000020: 42ba 7832 a531 92bf 9c67 babf e076 ecbf
00000030: b129 de9a 5441 d43f e88a e29f 1f6a ec3f
00000040: 607d 7725 1d7f 10c0 fe93 a5a7 fd8e c8bf
00000050: 47e8 2697 e693 f3bf f460 8bc1 8753 93bf
00000060: 0898 7db3 52af 983f 1aa6 4a61 ba37 e83f
00000070: 9e07 29fd 0c39 f73f d2ec bb3a c9b4 c1bf
00000080: 071d 7ff7 7220 c8bf 207b 7337 1531 b43f
00000090: 22af 3ca2 64ba c93f edc0 f88b 2671 dabf
000000a0: 4ed0 9b5d 7218 fa3f adb9 18d6 7ee0 b3bf
000000b0: 9da7 1ecd 87af d0bf 0f7b f109 38e7 d1bf
000000c0: d672 7246 e76a ce3f 6a39 f05e 6715 f33f
000000d0: 300a 6d98 bee8 0640 35a2 da73 f018 bb3f
000000e0: 3dee d327 90b1 f3bf 52f2 f7c9 b034 d0bf
000000f0: 0dcd b84a 1077 d0bf 995f 7bbc 7d96 b4bf
00000100: df40 4c02 1ea2 e7bf 34a1 3493 4a67 c93f
00000110: 1b6e db97 6e1b c9bf 7857 6185 ac20 dabf
00000120: f54d affa c5de b23f 09f5 6388 d1ab df3f
00000130: 751c a52f 496e 87bf 42ae 5163 7a63 97bf
00000140: 6220 7b2f 73a3 e6bf 3b6f d475 ad26 a93f
00000150: a660 7690 22d6 e8bf 1842 0ecc 481a f73f
00000160: 2c66 9c20 ce72 f13f 8eac 187e cf55 fb3f
00000170: 3ebb 5d2b 7a55 01c0 4903 f65e 6949 f8bf
00000180: 08d3 98f1 3fa3 d3bf e853 1d6d ef81 ae3f
00000190: cd5b 1f24 d6a7 75bf 29c2 b572 fa7d cfbf
000001a0: 1499 77d9 dcc4 b93f bec1 91c4 9f68 c73f
000001b0: ab7a 2f24 3c56 c1bf 2169 b738 4fa6 813f
000001c0: fa0f 3cbc bd46 d33f e5ba 3dcf 83f0 b3bf
000001d0: 7268 c297 7b27 d13f ddc3 27a5 9bc8 d4bf
000001e0: 46e8 715b 7b38 dabf 6cf9 51f1 ebbf e03f
000001f0: d45f 7e01 3fa4 bebf a3f4 a5f1 e700 e43f
00000200: f23f 882d 277e d7bf bf22 943e 2d82 bcbf
00000210: 46e6 3b25 a1ed d03f f54e 0e55 5c7d a53f
00000220: adc2 eaac a973 c73f 5154 5039 9039 d5bf
00000230: fd84 416f c0ff ddbf e962 5998 ecda a3bf
00000240: 434c 858f 4ce2 a7bf 734d dd48 8f3d b33f
00000250: e482 c3fa 9912 d83f ec78 29c8 d05d d1bf
00000260: 023b 4844 9b21 d43f c7bb d9ff 6583 d63f
00000270: 668d 0988 c3e1 c93f 7ed4 bd51 fa32 e33f
00000280: 2b8e 4c0b c027 d73f 329d 534b c832 a43f
00000290: 9616 2953 50c3 debf cb26 e8e1 a5d2 e3bf
000002a0: 3899 2e11 b158 a0bf b65a db3b 91d0 d23f
000002b0: 7a72 90a7 8dca d33f 38fb 7306 4761 b83f
000002c0: 0d3a 77b4 f706 dbbf 98f7 d6a0 d5ed ccbf
000002d0: 9307 38c0 40ab c3bf 7452 36e3 dda1 cebf
000002e0: 9b98 8778 bb13 cbbf 7e2c e440 fbf9 ca3f
000002f0: ed47 1806 31b3 d13f 26ec c8c8 ddbb a1bf
00000300: 8bc6 f389 93a7 de3f 8614 aeed ff69 b0bf
00000310: 6125 7483 4db9 bebf 98d0 7dea c150 d8bf
00000320: 9150 ef2a aa6d d4bf f293 f757 9f27 d4bf
00000330: d822 f437 f3b0 963f d3a1 73e7 95fa c1bf
00000340: 715c 6564 4fd7 d43f 5477 4cb1 aa65 d1bf
00000350: 504c d09c 3c18 dd3f ece9 96eb a769 c73f

transformer.layers.0.self_attn.in_proj_bias f8 [18]
-0.2501439661079123 -0.16385471457365258 0.025641110011887493 -0.12457419277899841 -0.014962651704601343 0.1711590615922009 1.4133196012859434e-12 -3.3662533208769037e-12
1.6711340887125873e-13 3.362318382386031e-14 2.153149533898208e-14 -3.828901285773432e-12 0.21605261421551392 -0.2056781584594757 -0.07527534629777828 -0.03988135141466492
0.04274505659496365 0.19091157401852543
00000000: ef69 6ed6 5b02 d0bf 06d3 31f8 30f9 c4bf
00000010: 9a9d bcc3 a941 9a3f 5951 e923 18e4 bfbf
00000020: 9092 dc1d bda4 8ebf 3eed f945 8ae8 c53f
00000030: 7b20 ab8f 06dd 783d a0dc faeb 209c 8dbd
00000040: fb23 7224 e584 473d 99a0 ac88 9ced 223d
00000050: 75d4 a8ef 073e 183d 9d9c 68a8 f5d6 90bd
00000060: 10ae 22b0 9ca7 cb3f c5df 0a72 a953 cabf
00000070: b545 8bbe 3e45 b3bf 98b0 1718 546b a4bf
00000080: 2236 4818 aee2 a53f 9031 6b5b ca6f c83f

transformer.layers.0.self_attn.out_proj.weight f8 [6, 6]
-0.06372529153664937 0.17193160896315135 0.0711495854752179 -0.05757585158401181 0.020565034148425462 0.1950975744560779 -0.13388577453312855 0.30721087241278755
0.052981265136074186 -0.08511803398893333 0.16359921331795046 -0.08355730621643638 0.051780939929747936 -0.14758239660981476 0.08116991740469649 -0.09539381983166136
-0.1624163787631539 0.1253330092980401 -0.08525380798779111 -0.14747616410675915 -0.002113890580574116 0.01396760382454121 0.03339223377608702 0.10706556710716995
-0.14423223172108124 -0.16269345190626305 0.018109583624581628 0.006214893080501259 0.08754190783750504 -0.03397530125843754 0.16792917357961143 0.16071171983041618
0.010519298660857953 -0.001474741178261635 -0.2693677546916911 0.1123530182996537
00000000: 25f6 13fb 4c50 b0bf 529c d2de da01 c63f
00000010: c971 bdf6 db36 b23f d273 2fff 947a adbf
00000020: 9c37 6f14 000f 953f 00ad e812 f5f8 c83f
00000030: 407c 8247 2b23 c1bf 6c44 7fca 57a9 d33f
00000040: 25cb 1e42 5c20 ab3f d643 48a4 4bca b5bf
00000050: e00b 6dab d1f0 c43f 959c 8af9 0264 b5bf
00000060: 5bdb 1b07 0883 aa3f 34c5 73df fae3 c2bf
00000070: d114 ac3c 8dc7 b43f 65e1 6ab8 ba6b b8bf
00000080: eaad 8f55 0fca c4bf 22ad 057c e90a c03f
00000090: 3ec2 2a8d 31d3 b5bf 7597 e3ba 7fe0 c2bf
000000a0: 2eff 255d 2651 61bf 4103 0a0d 0c9b 8c3f
000000b0: c071 0470 c918 a13f d7c3 4025 a668 bb3f
000000c0: a4b4 22a7 3376 c2bf d0f9 9a97 23d3 c4bf
000000d0: 2aa3 a595 518b 923f f254 76a8 c974 793f
000000e0: 2008 317f 2569 b63f 75b0 8def 3565 a1bf
000000f0: 6bcc 4802 b47e c53f efb5 609e 3392 c43f
00000100: 6b4b cd5d 248b 853f 1a5c 5d48 8329 58bf
00000110: 5ddb 3f40 523d d1bf ef32 34db 2ac3 bc3f

transformer.layers.0.self_attn.out_proj.bias f8 [6]
0.018819328967226035 -0.005548673573889992 0.008195893309597035 -0.01202993463904028 0.011812022104804708 0.0006872755384154834
00000000: 7da0 c9c9 5f45 933f 7c9b 93b8 34ba 76bf
00000010: c64e cf2d 02c9 803f 9d14 c87e 26a3 88bf
00000020: 463d 1ec5 e630 883f a0a6 fcfa 4885 463f

transformer.layers.0.linear1.weight f8 [2048, 6]
0.22400108238293023 0.42820026794577 0.4702902426993033 -0.4690925216480611 -0.037620846181237524 0.13979428370608973 0.08599383566201815 0.06043188435994127
0.3944413406214195 -0.471727240253197 -0.11031744875087213 -0.07936714914725057 -0.1977399587109436 0.11533933326184546 -0.28515903611025445 -0.1427232986875152
0.028590985805910712 -0.10156972104468347 -0.46456108248897365 0.5615064356698602 0.6531601678054283 0.1539360409243449 -0.09214444536588713 0.022221085802528195
-0.3479798396770322 0.2870079188955698 -0.29601867266531184 -0.09001206470471021 -0.45383477612743794 -0.3659357794046633 -0.4190881764292368 -0.4142573893186974
0.31199712355453363 0.13128807115710203 -0.14173705005331563 -0.07543608616564643 -0.43206609165265575 0.4261559695074011 0.6577343707190367 0.45178011614446484
-0.0018612698990263098 -0.16396525958921365 -0.18229448616480706 0.11653682997471226 0.8675191962086592 -0.08476234563614411 -0.07753783513172836 0.2741257821409297
-0.21795264903891703 0.25123126950164243 0.21274428839705714 -0.07826441128209687 0.308838709570489 -0.11873565329040493 -0.3530079063459632 0.4827239374193035
-0.06619953030266955 0.18276672015014353 -0.23795561798941342 -0.23688520243639052 -0.38554344975235355 -0.23321365088072732 -0.17838289593874357 -0.43563864902763744
0.10752070872348238 -0.05902683481233535 0.12322259037492064 0.1595695606560715 -0.13485920015755073 -0.4926435411086539 -0.30875673935592807 0.49450935714603617
-0.4351094977951564 -0.15578439206097602 0.11713612926609612 -0.4319739695516623 -0.0209166907387153 -0.10358897720336026 -0.3545502511125058 0.2702297412537764
0.7439018845381199 0.1436277579326975 0.077919647499746 0.022017780940577752 0.0277349305646233 0.35227462034004897 0.46072992302953086 -0.5339315771420061
-0.14734036567813957 0.02201248100822922 0.15583128178157507 -0.48454222233841315 0.12687558345631814 -0.06052678896823519 0.4856702267287342 -0.02025284564923844
-0.09668389613915039 -0.22988062105696505 -0.3500478843576217 0.15235814460620392 0.15929515395928637 0.24384019985452596 -0.5818539693406263 -0.18956061842719082
0.28805801643868034 0.4694810934548207 0.0036723900205339792 0.028815873696644078 -0.4787962372718304 -0.14480644421842298 0.08162623937741835 -0.5280527714869685
0.13875901182042627 -0.217754681003625 -0.5211038992641963 -0.04356713607579002 0.23478875233098145 -0.7514808458688838 0.536085301780844 0.26701992513284384
0.14360605442312155 -0.03967215352960679 0.08333935525923432 -0.17284845566433218 0.07779353196373923 0.3169330719350923 -0.17880160313061647 0.27422006422348516
0.18036754145568146 -0.44261901078708715 0.025214529344034307 -0.2958277455698559 -0.09650172598269581 -0.12065335317453568 -0.21899991563434748 -0.49458395437999747
0.14889323842118368 0.20772784696368 0.04599216831533015 -0.14457632048151456 0.1390279196093031 -0.021063174308226205 0.11985132687072891 -0.08056680375955338
-0.26280807898605707 -0.14558570923957723 0.15972668655400368 0.09325879663996117 0.07567881009350864 0.29315463076417153 -0.3336188981899298 0.7101514633985091
-0.20025457162094654 0.5724093353975891 0.18915876810739599 0.33569723236441823 -0.029660808330239482 -0.15137501440357634 0.14113733716044263 -0.07665087857433495
-0.12332801800619032 0.2493209086222867 -0.3940080484047882 0.17061759148641273 0.6789610001414771 -0.3272264755770619 -0.04987861411832125 -0.2739732515617936
-0.023309001625054886 0.41895162282880793 0.480279966103187 -0.23582676581628637 0.20836684830925908 -0.16398873022541854 -0.5824072905608828 0.29140249759911824
-0.0560805495917534 0.09471942091074416 -0.1759173017452876 -0.006240890446919319 -0.16364963509558705 0.39355809182331447 0.3933183231820674 0.2724883656185091
-0.12192727466097007 -0.19938904729225473 0.09558656389522525 -0.5648028225214949 -0.4278322242624507 -0.13276188036741055 0.4478851484643717 0.2990494845501358
0.11162249703228046 -0.5370105063239186 -0.058560369704423056 -0.5142331140959236 0.2798867675357695 -0.24882996242201985 -0.5296598797757247 0.3102908027956437
0.28159713419752125 -0.6387857745592186 0.5045604168613538 -0.11721810662519565 -0.28310166614874316 -0.11620007514558525 0.47637077475018547 0.25498257007002184
0.12461807926878919 -0.006638084846853548 -0.23370516013133072 -0.5532087541299265 0.03574596002640681 -0.32770717470697347 0.16023458488837894 -0.21097617108951966
-0.5064825201624196 -0.06364762557750374 0.6007137733794259 0.33770459216075893 0.15022804582092983 -0.1571832205518564 -0.38347101110794996 0.002010403186417012
-0.0801936033108473 -0.019786346255432 -0.3251296636637346 -0.09162904341518233 0.03599580971611155 0.2168837885053585 0.2139679394179005 0.12606404520367384
0.2421552721272708 0.7622506913601514 -0.4213029250558202 0.22200848428260883 0.3106586538841148 0.36442535285203487 0.1022269346158261 0.2718529523538192
-0.06639324895637352 0.10280739518314276 0.2271856207654478 -0.5181898305028612 0.045175283428805016 0.10057084779628675 -0.27478446951340935 -0.22355432723196375
-0.3273984986017381 -0.10754203631215196 -0.131484637241822 -0.2605353500400551 -0.48800654830113704 -0.11495657035831605 0.4224014879038517 -0.08075480207420967
00000000: 8338 8d45 11ac cc3f 11cb bd18 a267 db3f
00000010: ca5e 013f 3c19 de3f b9b3 d1a3 9c05 debf
00000020: 0216 fe1f 0a43 a3bf 39bb 5772 c7e4 c13f
00000030: 8a72 d327 b103 b63f 0d57 ec8d edf0 ae3f
00000040: 7f33 8ae4 863e d93f aa44 6173 c730 debf
00000050: b82a 90aa c33d bcbf 84d5 f6cd 6751 b4bf
00000060: 7750 e3ff 8a4f c9bf 8b54 4de8 e086 bd3f
00000070: bf27 90af 0b40 d2bf 2cbc 1ece c144 c2bf
00000080: a8b5 fc93 f446 9d3f 1b98 2626 7900 babf
00000090: 4035 1268 5ebb ddbf 2c42 3658 dcf7 e13f
000000a0: 23c6 f826 b0e6 e43f 490f b91a 2db4 c33f
000000b0: 65c3 5a43 c796 b7bf 73c0 36d3 1fc1 963f
000000c0: 9d21 c53b 4d45 d6bf 175e 5676 565e d23f
000000d0: fd94 864d f8f1 d2bf 5ef4 26da 070b b7bf
000000e0: 184f 5004 a10b ddbf d7ac 3ee7 7d6b d7bf
000000f0: aed8 f936 57d2 dabf 6002 d06c 3183 dabf
00000100: 0138 87c8 c2f7 d33f 1fc2 fc29 0cce c03f
00000110: 0d25 4e8d 7024 c2bf 5e0a 0583 c74f b3bf
00000120: dcf4 5689 f8a6 dbbf b0e2 01b0 2346 db3f
00000130: 5b30 76f3 280c e53f 2db5 f425 f7e9 dc3f
00000140: 3d2b 1a56 bb7e 5ebf 4ad3 ce49 d0fc c4bf
00000150: 09d4 28fc 6c55 c7bf d059 8591 5bd5 bd3f
00000160: ecc9 0b9e b7c2 eb3f 3d82 702e fcb2 b5bf
00000170: ede9 1702 85d9 b3bf 2349 52dd 468b d13f
00000180: 7a6f d955 dfe5 cbbf d67e 8f51 2c14 d03f
00000190: 5fbf 8970 343b cb3f 6bb5 e5ee 2209 b4bf
000001a0: 9c05 566f 03c4 d33f 4161 c0b3 7565 bebf
000001b0: db0f 3f79 ae97 d6bf a795 0df1 f2e4 de3f
000001c0: 4718 a9d1 73f2 b0bf 51c8 eb5e e664 c73f
000001d0: f3fd 9466 5475 cebf 0771 af1a 4152 cebf
000001e0: 6ce5 f76e beac d8bf e4b9 c1e5 f1d9 cdbf
000001f0: 9c80 1c30 40d5 c6bf f9a0 9ced 80e1 dbbf
00000200: 6e2f 9c27 7a86 bb3f aaf3 35ea c338 aebf
00000210: 7ee7 c903 848b bf3f ab3a 3a7e c66c c43f
00000220: 25e6 1ef7 1043 c1bf 5d6d 69c6 7887 dfbf
00000230: fc02 7da0 abc2 d3bf 8086 2093 0aa6 df3f
00000240: 3863 cd81 d5d8 dbbf 7787 9032 bef0 c3bf
00000250: ccbe 6024 a2fc bd3f f1a6 fc25 76a5 dbbf
00000260: 883f a75a 2f6b 95bf 8184 50a5 ce84 babf
00000270: 7446 5489 f3b0 d6bf 54db 45af 714b d13f
00000280: 8dc4 3053 0bce e73f e232 8ff5 6462 c23f
00000290: 882d bac1 8af2 b33f cbf5 4744 d48b 963f
000002a0: 0574 edae 8b66 9c3f 9e90 64d9 aa8b d63f
000002b0: e2d3 ec5b 997c dd3f 400d c4ac f715 e1bf
000002c0: f0f0 fb91 0cdc c2bf 4ffc 2298 708a 963f
000002d0: 420a 7989 47f2 c33f 9660 9e61 bd02 dfbf
000002e0: 058b cd88 753d c03f 9509 4d06 5efd aebf
000002f0: 5f36 1c93 3815 df3f 9a8f db76 29bd 94bf
00000300: d7ae f79b 46c0 b8bf 3040 b66a ba6c cdbf
00000310: fe65 d63d 2f67 d6bf 0173 2ec0 7880 c33f
00000320: 3f4d 559a c863 c43f 33a3 e9d9 2736 cf3f
00000330: 71b4 2b37 8c9e e2bf 8b8d 60b8 8543 c8bf
00000340: d41a fde3 8a6f d23f 3ea4 9e6d fa0b de3f
00000350: eac7 2961 8f15 6e3f 63f0 878c e881 9d3f
00000360: 8cf1 21f9 98a4 debf c286 157f 0489 c2bf
00000370: 4319 9f0c 75e5 b43f 7a28 03ed cee5 e0bf
00000380: 10a2 e5f4 dac2 c13f d611 bba8 62df cbbf
00000390: b60c a515 e2ac e0bf f475 4081 6e4e a6bf
000003a0: 7e77 5dce 8e0d ce3f 0479 128f 210c e8bf
000003b0: 027b e05c 9c27 e13f 15dc 74bd da16 d13f
000003c0: aba0 a0e5 ae61 c23f 486f f193 e84f a4bf
000003d0: 11e2 4e5d ba55 b53f 6107 1ff0 e51f c6bf
000003e0: 2ce5 9fe3 46ea b33f b1d9 bea6 a148 d43f
000003f0: 1d8d f58e f8e2 c6bf 05cd ef4f d28c d13f
00000400: 1cf2 e799 4816 c73f 3dc7 faaf de53 dcbf
00000410: d6a8 aa6b d6d1 993f 4434 1e7f d7ee d2bf
00000420: 696d 1a4d 56b4 b8bf fc90 095e 23e3 bebf
00000430: cbf6 bc71 3008 ccbf 7c0f 4c75 43a7 dfbf
00000440: 6aa8 ce02 ef0e c33f 45b8 967a d396 ca3f
00000450: 40ac 9215 498c a73f 533f 1f14 7a81 c2bf
00000460: c6f7 f9b7 aacb c13f d611 37b3 9591 95bf
00000470: a4bf 4a99 93ae be3f 4860 4aab 06a0 b4bf
00000480: 2aa9 17fa d8d1 d0bf 2b77 f971 8da2 c2bf
00000490: 3821 868f ec71 c43f e008 a2f9 cedf b73f
000004a0: 8110 5abe af5f b33f 8965 f3a3 0bc3 d23f
000004b0: 4d69 4314 035a d5bf b419 d08f 8fb9 e63f
000004c0: 2944 fe19 f1a1 c9bf cfa5 ee61 2d51 e23f
000004d0: d5ee 62c1 5a36 c83f 9339 973e 107c d53f
000004e0: 8f55 0127 675f 9ebf efbe 25a8 4160 c3bf
000004f0: cc9f accb c910 c23f 40ba af58 649f b3bf
00000500: c95f 04cc 6c92 bfbf dff0 5e5e bfe9 cf3f
00000510: 3299 9088 6d37 d9bf 1f39 c717 ccd6 c53f
00000520: 3fbf 5b6b 0cba e53f e348 bf50 47f1 d4bf
00000530: 8be4 d090 b089 a9bf a3f2 db1a c788 d1bf
00000540: de63 ba9e 50de 97bf 90f9 a977 1ad0 da3f
00000550: 4e94 d52e e8bc de3f 44e8 594b 922f cebf
00000560: bf88 87cf c3ab ca3f de88 9d2c 95fd c4bf
00000570: 9826 3d9d 14a3 e2bf b34c 4aa9 56a6 d23f
00000580: 2767 e0fc 96b6 acbf 8992 1b2f 883f b83f
00000590: 23f6 e548 7584 c6bf ef05 e145 0c90 79bf
000005a0: dc72 5ea3 78f2 c4bf 6a44 5d47 0e30 d93f
000005b0: ac02 bf9d 202c d93f a4ce b70a 7370 d13f
000005c0: 4fc6 2839 a036 bfbf a581 a68e 9485 c9bf
000005d0: 29f4 dd6d 5c78 b83f d262 6d5e dd12 e2bf
000005e0: 5e75 d868 9a61 dbbf e4af 2a5f 57fe c0bf
000005f0: 6f30 4178 26aa dc3f cad2 0173 a023 d33f
00000600: 6962 40be 4a93 bc3f d2a0 48a8 302f e1bf
00000610: c5bf 71f1 9ffb adbf c7fd f100 9974 e0bf
00000620: e18d 4930 aae9 d13f b909 6f03 a9d9 cfbf
00000630: 1f7b b446 f9f2 e0bf a470 90f4 cddb d33f
00000640: b1a4 81fc af05 d23f 4d38 5cdd ee70 e4bf
00000650: 0ed2 28e3 5b25 e03f 234a 747e 0102 bebf
00000660: 5953 6373 561e d2bf 1604 8bc2 49bf bdbf
00000670: 679f 94d8 db7c de3f a70c e069 a251 d03f
00000680: 1f25 f36e f8e6 bf3f 6077 3455 8930 7bbf
00000690: 39d3 d5f9 0cea cdbf 832a 5bd8 e2b3 e1bf
000006a0: cb19 8e62 4b4d a23f 0ffc 8183 27f9 d4bf
000006b0: 0c51 e41e 9182 c43f f64a 8865 4401 cbbf
000006c0: edfb 82d4 1a35 e0bf 6bcc 52f6 354b b0bf
000006d0: 067c 5d17 0c39 e33f cd86 c2b8 f39c d53f
000006e0: cb16 df2f ac3a c33f d805 e06b 941e c4bf
000006f0: 7b0d ebfe c98a d8bf 3a78 fffd 1e78 603f
00000700: 5488 9167 9187 b4bf cb32 4c38 df42 94bf
00000710: 474b 19a6 ecce d4bf 22fc d440 0075 b7bf
00000720: 6827 0cf3 0a6e a23f 50e0 5415 d9c2 cb3f
00000730: 4ca0 182b 4d63 cb3f 97f5 acdb dd22 c03f
00000740: 0f99 2ba7 f1fe ce3f 02d9 d78f 5b64 e83f
00000750: 8fba 348b a0f6 dabf aed3 b625 c66a cc3f
00000760: bdb4 a9d5 d4e1 d33f c74b 15b7 be52 d73f
00000770: 68ff f15c 8b2b ba3f 9590 ebec 0966 d13f
00000780: 065c f1e0 25ff b0bf 513a 19e0 9551 ba3f
00000790: 2c8f a71d 6b14 cd3f 7425 e4d6 0295 e0bf
000007a0: 5a18 d4f9 3621 a73f be4e 37d6 02bf b93f
000007b0: 3790 8099 1196 d1bf af97 2b9e 6d9d ccbf
000007c0: fe40 10d5 18f4 d4bf 7feb e7f8 df87 bbbf
000007d0: 73a5 7014 7dd4 c0bf c8ee f775 9cac d0bf
000007e0: 8bfb 4bd1 7f3b dfbf e637 2636 cb6d bdbf
000007f0: c60a 1540 a008 db3f cd57 e7c1 58ac b4bf

transformer.layers.0.linear1.bias f8 [2048]
-0.3125182779227522 -0.31026881008186863 -0.04911022233719745 0.47621624516881805 -0.2874804152772179 -0.24376569682567265 0.0627098791016599 0.00635152586775323
-0.4175721545470119 -0.34307904164005826 0.222318532305739 0.02563726516133279 0.10818925157274778 0.004305690121340923 0.00783418298819672 -0.22626182042967471
-0.23092884468608113 0.5794276459400304 0.23370221665112736 0.3566862978017331 -0.46152343616293523 -0.406330836409465 0.26270870852527856 -0.43649751221956556
-0.04291733188712892 -0.2634367144095727 0.1956807309975813 0.14502436947673458 -0.31287421063895393 0.09494312588026932 -0.2780048625762807 -0.11217545862636585
0.025093200058098366 -0.1966641585716557 0.19038122511726388 -0.19070640292550614 0.037281275949863704 -0.41616264081179405 -0.16595532020238576 0.4500449767386486
0.13883178243877387 -0.207699454524152 0.44888060275847935 0.04309959137012287 0.4020704323499359 0.23498873141050328 -0.4583755396262341 0.08602694635721933
0.009918804004145139 -0.08871790817255704 0.024050636621259978 -0.06893868087058753 -0.26331358061996585 -0.04461769114887364 0.4523405184644217 0.05850429771608714
0.050523465609481524 0.2550212041361952 -0.08314331973288042 0.1752074218094087 -0.21244236932425561 0.2356340236321689 -0.19394064813290315 -0.32453120322336554
-0.11335899813755496 0.08683801489936101 0.06923743516805204 0.05904371257716825 -0.06595192197842914 0.010314217361380268 -0.04554543126303719 0.349090995558022
-0.050313763332678965 -0.38348143606433754 -0.40542647572931245 -0.36181792265745566 -0.44775532981031246 -0.26546489892709596 -0.2224732167691447 -0.07442830210416665
-0.19260985923379664 0.024929112648670853 0.08035267861121549 -0.10052520713691485 -0.3205004472891507 -0.13713577450396075 -0.15803259481902268 -0.4970912521363425
-0.07307662346719165 0.01569639392307037 -0.2945929885235242 0.007699174984717509 -0.03693143543374965 0.00670520990300147 0.0880765331841175 -0.5563407950236967
-0.09391308178784934 -0.4518200700216336 0.39616368252821055 -0.3843939105576561 -0.10100734188620666 -0.10861357591805722 0.35800599419529633 -0.11298688263885032
-0.145479763312883 -0.024573082166640905 -0.15015027679432097 -0.12376479431863002 -0.2894473923412722 -0.18660145259010408 -0.5001281877011523 -0.32271241919610594
-0.22248681775942367 -0.15044951039343848 -0.33112553731533667 0.28247238637274114 -0.12334306313222668 0.006938902665355634 0.001414458604358727 -0.2304442938215365
-0.21890205604369664 0.18576030744387484 -0.07260687353143677 0.015325847410543623 0.13161053566607117 0.19866409127602172 -0.049511578662387104 0.06419533185036168
-0.384336250268985 -0.244882493678526 0.04656129960294183 -0.1370544177519784 -0.1666287079983954 0.016058457618446747 -0.5775967824811478 -0.04068847375398756
-0.3087993103673458 -0.06529763086155832 -0.38736184304456733 0.03754562858002857 -0.11270459966535944 0.2539894951046435 0.14552598457468777 -0.04763059874025285
-0.21431448265239322 0.1966368176873653 0.09570807010442116 -0.20283105626762907 -0.007027251485080391 0.113986377958767 0.20645955942428007 0.12626521012651973
-0.2611341610028011 -0.5006187241778076 -0.20194257711339755 0.05846892886819435 -0.09659182791702646 -0.05002296985436423 -0.2628895752313457 0.05176648070146967
-0.3058866838064379 0.16218465901011342 0.09996772056417183 0.10068601049320888 0.21040310860238892 0.31538195042724737 -0.15262376873112465 0.011614262009546166
-0.265169365461225 0.20921348272961554 -0.5256679452317796 -0.11713764622960336 -0.2173913103702531 -0.3762774676026055 0.06390392974224496 0.012346473086206818
0.0979002940145331 -0.0880766317220372 -0.3309998241255649 0.11877762288796392 -0.3754678592127826 0.13613450072219155 -0.08392592849440218 -0.3276963308825224
-0.2219417393575164 -0.02894026590738127 0.22238139972787255 -0.3053085158646167 -0.25059142854521504 -0.00197398343321624 -0.26436272731456156 -0.1776794426325269
-0.1247573152891544 -0.044847510705539835 0.07315037194104178 -0.30564726280412796 -0.4360684526189916 -0.12743454436088586 -0.21168244763186975 0.16413071738983306
-0.17313255942197406 -0.32735236082266916 -0.1073864214617027 -0.24990828948974986 -0.25426018932412425 0.11759897450003129 0.0601785171148088 -0.4582560606537798
-0.40006924596891125 0.022163342515913186 -0.1922778589310484 -0.31125078594093314 0.41767439562127334 0.03314813764375188 -0.24404478801515395 0.14232330972575208
0.2245689929594163 0.09861330715606499 -0.4438143718652985 -0.5356373179078263 0.05233039065940054 0.33834689514177096 -0.10013478295617635 -0.39217667217163055
0.02825337663632488 -0.2700291067832511 -0.15248798525583546 0.34469791432451047 -0.4393223229912562 0.13504830962705433 0.08465814766550628 -0.22977305244756985
0.002945742132149505 0.5242707590127746 0.18355884355462568 0.1565404459253099 -0.4310179257321205 -0.1608063543697666 -0.053269445374144506 -0.00806621305244902
0.14625770869703197 -0.08037747582378561 -0.03619279538688623 -0.223767581877364 0.13080111254962004 0.08750878387112541 0.020853269209852972 0.04741433781013843
0.26363434681985326 -0.5217132056762792 0.19265193820749146 -0.10078682385226033 -0.14349205053623834 0.12427178653010047 -0.17633014324051666 -0.23899019500665183
00000000: 4026 c5a9 4c00 d4bf 3b4f 11b6 71db d3bf
00000010: 95d3 ac9d f924 a9bf 47bc b4b3 537a de3f
00000020: 28cb 7641 1466 d2bf 855f e0df b633 cfbf
00000030: c6b3 e02f c10d b03f 836f 1bbe 0e04 7a3f
00000040: a8fa df8e 80b9 dabf 655f f2cb 01f5 d5bf
00000050: 8e20 c604 ef74 cc3f 3d0c b5bd a740 9a3f
00000060: 7c9e 4871 4ab2 bb3f ce3b 20e4 d7a2 713f
00000070: 832d cd3d 5e0b 803f a918 8ab7 25f6 ccbf
00000080: b19c d08d 138f cdbf 09be b6d8 ab8a e23f
00000090: 6178 c248 f4e9 cd3f 3c58 ffc3 f2d3 d63f
000000a0: 0812 2a98 9989 ddbf e209 6f0d 5301 dabf
000000b0: d363 df2f 38d0 d03f 602d f142 93ef dbbf
000000c0: 370a c6b1 42f9 a5bf 8e1b 3daa 25dc d0bf
000000d0: 2bc6 0bf2 100c c93f b846 0396 2890 c23f
000000e0: 1c31 9d8d 2106 d4bf b0c1 a254 314e b83f
000000f0: ef38 39e8 d4ca d1bf 7ccb 36e6 87b7 bcbf
00000100: 47f4 6726 08b2 993f c628 ae88 4a2c c9bf
00000110: 0156 d377 695e c83f e9f6 d941 1169 c8bf
00000120: da66 ea09 8816 a33f 35a2 06a1 68a2 dabf
00000130: ffe7 6e20 063e c5bf b694 3472 89cd dc3f
00000140: 5e26 9c66 3dc5 c13f d204 4a4e e595 cabf
00000150: 0d03 2ab5 75ba dc3f 40b0 cf4e 2611 a63f
00000160: 666b 689f 85bb d93f 0117 2b5a 1c14 ce3f
00000170: 28c9 fe5b 0656 ddbf 2ad3 2da9 dc05 b63f
00000180: 8482 8156 4f50 843f 9cb0 2b82 37b6 b6bf
00000190: 69f6 f1e6 baa0 983f f9bf c423 f7a5 b1bf
000001a0: 15bf 5634 21da d0bf e668 9d48 21d8 a6bf
000001b0: ca76 5da5 25f3 dc3f d369 bb7a 46f4 ad3f
000001c0: e254 f230 36de a93f c04b e374 4452 d03f
000001d0: 2433 226f e148 b5bf b30c 5861 326d c63f
000001e0: b726 44c2 4f31 cbbf 749b a974 4129 ce3f
000001f0: 3945 8c12 0cd3 c8bf 7f0e 1886 1ec5 d4bf
00000200: 9447 b565 1805 bdbf 3dd5 0a22 043b b63f
00000210: 01a9 b467 8bb9 b13f 3352 1b3d fa3a ae3f
00000220: 5875 01a4 39e2 b0bf 3df9 01d2 9e1f 853f
00000230: 5a90 8313 bb51 a7bf 7dfc 4fc2 8157 d63f
00000240: 8ae6 1ac0 b9c2 a9bf 953e a1b8 f58a d8bf
00000250: e427 8ce3 81f2 d9bf 51e8 3a5c 0628 d7bf
00000260: 7347 89f8 05a8 dcbf 3f2e c87c 60fd d0bf
00000270: dd33 219b 007a ccbf fa27 6fb3 bb0d b3bf
00000280: d2ed 259b 70a7 c8bf cb67 2d6e 0487 993f
00000290: b5fa c73e fe91 b43f faa0 131d 05bc b9bf
000002a0: 2275 dd4e 1483 d4bf 1096 4d41 aa8d c1bf
000002b0: 7990 397d 693a c4bf f568 c3d3 57d0 dfbf
000002c0: 26c9 e44b 26b5 b2bf 0f46 422a b712 903f
000002d0: 62b9 d58c 9cda d2bf 05aa 3f8c 2b89 7f3f
000002e0: 8fbb c356 ade8 a2bf 6176 f013 ec76 7b3f
000002f0: cb22 9205 2f8c b63f 5cd6 0136 8bcd e1bf
00000300: d304 f20e b00a b8bf 92d6 1aba 9eea dcbf
00000310: f294 14eb be5a d93f 8f1b a8ea e899 d8bf
00000320: 4aa1 0efe 9ddb b9bf 393c 786c 19ce bbbf
00000330: 12cf 35f9 91e9 d63f 0494 cf55 b5ec bcbf
00000340: bf4e d4b4 149f c2bf 2411 12a1 af29 99bf
00000350: 0692 28d0 1f38 c3bf 84a3 feaf 0caf bfbf
00000360: ed2a 015b 4e86 d2bf 105b 2170 8ee2 c7bf
00000370: 8e7e 3fd4 0c01 e0bf d875 9dfd 51a7 d4bf
00000380: dfae 08b3 727a ccbf 5965 6bf7 ed41 c3bf
00000390: 76f2 682a 2931 d5bf af9d 5f0f 0714 d23f
000003a0: 7a64 5736 6993 bfbf c607 4980 f76b 7c3f
000003b0: d203 a05c ab2c 573f 47b4 c1d8 327f cdbf
000003c0: 1d0f de89 fb04 ccbf 7ce4 ae66 fec6 c73f
000003d0: b646 4833 5d96 b2bf ac4e 4b6b 2863 8f3f
000003e0: 2c56 3f31 9dd8 c03f edc4 752f d36d c93f
000003f0: 72ae 41e6 9459 a9bf 6369 daf2 1a6f b03f
00000400: daa4 6412 f798 d8bf 3c29 db3e 4f58 cfbf
00000410: db97 1bf6 e1d6 a73f 522f 02c9 ff8a c1bf
00000420: 86c3 b6e9 1654 c5bf 6b85 2ed9 a071 903f
00000430: dd00 613f ac7b e2bf 93ef 31a0 1ed5 a4bf
00000440: d386 c32e 5ec3 d3bf 2482 0e75 58b7 b0bf
00000450: 980f e653 89ca d8bf f7cc b73d 2e39 a33f
00000460: dbe6 ab69 35da bcbf b420 c027 5d41 d03f
00000470: c3b5 3b70 98a0 c23f 8bae c1af 0963 a8bf
00000480: 568d 062f a86e cbbf 5410 942e 652b c93f
00000490: c7cf 0ff7 5280 b83f 532c a438 5ef6 c9bf
000004a0: d06e f274 9bc8 7cbf f9bb 8515 362e bd3f
000004b0: c440 d64f 446d ca3f 1dd8 0e5a 7529 c03f
000004c0: 0907 580e 6cb6 d0bf 577c 038f 1105 e0bf
000004d0: b79d 2f1e 41d9 c9bf 0460 a4b2 a3ef ad3f
000004e0: b7e8 f6f5 3dba b8bf 0a86 2557 9c9c a9bf
000004f0: 52fd 04cc 2ed3 d0bf 999d 48db 2281 aa3f
00000500: 3ac1 cebd a593 d3bf ae40 2e87 77c2 c43f
00000510: a291 7a0a 7c97 b93f d6a8 3bf2 8ec6 b93f
00000520: 8645 3633 7dee ca3f ae5b b5c6 372f d43f
00000530: ee6e a5f7 2c89 c3bf b643 fcdb 37c9 873f
00000540: 6fa6 23ee 88f8 d0bf e25c 1ae5 81c7 ca3f
00000550: b26e 2a95 45d2 e0bf abc2 af97 bbfc bdbf
00000560: fec6 3c7c 7ad3 cbbf 00cb 6416 ee14 d8bf
00000570: cc2d 5408 025c b03f 7176 0291 1b49 893f
00000580: 14ab 0f61 fe0f b93f 72b9 c9ac 308c b6bf
00000590: a777 e6e2 192f d5bf bae8 ccd5 3568 be3f
000005a0: 7627 0158 aa07 d8bf d3c3 3af6 da6c c13f
000005b0: 097e 2b6e 2b7c b5bf 5b37 0a08 faf8 d4bf
000005c0: b535 1440 9668 ccbf 5761 705e 84a2 9dbf
000005d0: 01f3 8863 fe76 cc3f 7c0b b5ba 2c8a d3bf
000005e0: 9b9d 90a1 b009 d0bf 6278 3b49 be2b 60bf
000005f0: ee3b 06a5 51eb d0bf 6d9c a331 33be c6bf
00000600: b48a 1a6d 18f0 bfbf 7119 93bf 40f6 a6bf
00000610: 8f50 2d97 fbb9 b23f ebc2 7689 b98f d3bf
00000620: 9d37 b4a7 8be8 dbbf b490 3470 c64f c0bf
00000630: 99a9 db12 6918 cbbf 43ab ba3f 3c02 c53f
00000640: 358a 4b2c 3529 c6bf c41c 0051 57f3 d4bf
00000650: 7565 3630 ad7d bbbf 9ccb 2dad fefc cfbf
00000660: b799 7487 cc45 d0bf 5651 8565 f71a be3f
00000670: 3e19 dcf5 b7cf ae3f e8e9 6c3a 1154 ddbf
00000680: 4099 e409 bc9a d9bf d383 1abd fcb1 963f
00000690: d347 ed95 8f9c c8bf 621e 9e6a 88eb d3bf
000006a0: cf79 6463 2dbb da3f 5cd9 34ee caf8 a03f
000006b0: 3865 a40f dc3c cfbf c683 5d74 a637 c23f
000006c0: 9669 3a40 adbe cc3f 298a 2fc1 b83e b93f
000006d0: d4ff 2965 7467 dcbf f5cc 5ddf f023 e1bf
000006e0: 9824 f088 0ccb aa3f 3092 55bc 79a7 d53f
000006f0: 5524 fde1 6ea2 b9bf 12cd 4e2f 6c19 d9bf
00000700: c04b 9e02 74ee 9c3f b689 a629 2848 d1bf
00000710: 9276 daee b984 c3bf d27b 41d7 870f d63f
00000720: c89c 6960 db1d dcbf 4a38 9d54 4349 c13f
00000730: a833 9007 28ac b53f 08d8 e110 3469 cdbf
00000740: 2a4c d743 ab21 683f d6af 8678 d3c6 e03f
00000750: 9bb6 fa2e db7e c73f 280f e06f 8409 c43f
00000760: f896 c035 cc95 dbbf c6e9 8078 4d95 c4bf
00000770: c619 84fb 2146 abbf 384a 1aca 0485 80bf
00000780: 7e21 d295 92b8 c23f 5f89 ff45 9e93 b4bf
00000790: ae32 13b1 dc87 a2bf 6cbd 0887 6aa4 ccbf
000007a0: 192c 5742 17be c03f dbd6 d6c4 f966 b63f
000007b0: 9f81 1535 8f5a 953f c817 832c b146 a83f
000007c0: cd63 6c98 62df d03f 8cab 88e4 dfb1 e0bf
000007d0: 335c 0e97 d1a8 c83f f72b 5050 2acd b9bf
000007e0: fb01 2590 f25d c2bf a557 f69a 46d0 bf3f
000007f0: 882d 4273 fc91 c6bf 3b22 cf0f 3b97 cebf

transformer.layers.0.linear2.weight f8 [6, 2048]
-0.1698407213735622 0.0007312617113113927 -0.10259439014617312 -0.11200415627937257 0.22055648482125617 -0.2752023697402975 -0.05963872118067264 -0.04010215500950641
-0.14958187667604228 0.04249839455105658 -0.10337999417331971 0.41242908059756367 -0.1436745378577034 -0.05653882520922556 -0.15508811719226975 -0.3287457362494934
0.037617654545150196 -0.1178605669646588 0.13012325015652415 -0.14671174231237677 0.1548983588830801 -0.22382961877697335 -0.10244796626978019 -0.006870612385094354
-0.03694801250846342 -0.28515386553227184 -0.04051344772471599 -0.22866081160011625 -0.07192483522379592 -0.10667379728942258 -0.023988172971417848 -0.3940355918781262
-0.6543201341421744 -0.14047068883556224 -0.03739007927662767 -0.16731179247953437 -0.1340963614461716 0.05050542364556522 -0.020292958891244186 -0.03409548628118423
-0.1285316051792763 0.021736610700484545 -0.14295698909834564 -0.027683668934963136 -0.20930431851548398 -0.09445291757781701 0.060957381661089945 -0.16208935002435734
-0.05675828552724857 -0.031090807537026918 -0.026039069256633945 0.25120768094940804 0.002918754463044867 0.056495627549814166 -0.1680109529097576 -0.09634773313818264
0.09133415676266012 -0.12269347852540709 -0.07892022302396684 -0.09200069327462058 -0.0377093698423102 -0.03586025303669246 0.5114197686612858 0.15740334675769396
0.15545358557856517 0.08456794721896531 -0.0633622304413783 -0.22772071930348 -0.28341244177479635 -0.17869866319750033 -0.06392708347141533 -0.2522608516610052
-0.05617045753427636 0.020429706042911885 0.04368331315119025 0.09613057525421564 -0.009962153982137881 0.03144886932138286 -0.2682279920054047 0.041662986792080525
-0.06568482121447038 -0.1459575047685211 -0.07499059094897303 0.09674954044412509 -0.20129882516816572 0.01586698846063721 -0.1234050542242528 -0.0681051838268145
-0.11357083237247112 -0.023152581425342628 0.171793012409486 -0.12493957814294106 -0.039230834347116286 0.15490915808750047 0.5600106762634742 -0.044921243046358486
-0.03757039694743686 0.024668419535084054 -0.23270473443467504 0.40864776318453266 -0.04401434542404923 -0.3493686878026857 -0.11050353475971038 0.11825465271519905
-0.03997114477195132 -0.5004817174053833 -0.1042934986154898 0.04017489689313068 0.012151271600788062 0.7709798852315745 0.021804927530008962 0.044450693194832545
-0.0072981120294953825 -0.06513317599810882 -0.08961468450833182 -0.08216619925838288 -0.06936335522964339 0.05197747457654389 0.2074904252505222 -0.08433751294087782
0.10928597484922885 -0.15638356718341356 0.0469168764339639 0.13786397205452952 0.02297755311913907 0.3927865365210631 0.1561991269775582 -0.1432297064139223
0.034547832699304226 -0.06888781894336832 -0.08427248631596257 -0.0654611374553368 -0.06280038692993718 0.03591849026496806 0.07683405470146223 -0.04028624488248815
-0.03343498460589668 -0.006410805212498668 -0.007858242756752974 -0.12669784526450545 -0.1340803815760412 -0.03746203947531983 -0.11156523731137018 0.05021428956802294
-0.016600292840277857 -0.171673355680171 0.23670344634437934 0.259905890575017 0.39824817815532254 -0.050473090169046296 -0.010861917940610113 -0.07508742857585357
-0.10410123369550256 0.07077902614956877 -0.04438304702019711 -0.06372639695268635 -0.060472140520108485 -0.0752269567075922 -0.08838607511432589 -0.3048658615884835
0.14113715924810005 0.5310688257852741 -0.16582371665415543 -0.05223580164490152 -0.0862900428520246 -0.3546730028125572 -0.012627786103741332 -0.1520290195957469
0.02691003310434185 -0.05666392862084715 -0.05362878673467335 0.1511655676885024 -0.004928095864511266 0.011805446184627429 0.2027307339318364 -0.03546196250817716
-0.0657304233812011 -0.14309427718973156 0.40950086075776415 0.04443085095736647 -0.1151533088686513 -0.030540641888771456 0.04522611022315236 0.011186888590783907
0.3462205759759122 0.7283209547052807 -0.16113645653303585 -0.0333637316183336 -0.11265094627082799 0.008849999752770805 -0.048259848308207835 0.03169072059487748
-0.11468365992382115 -0.09395397668623645 -0.03372246316943813 -0.07156666018317423 0.05375216911442412 -0.18423827083313443 0.32245328235164084 0.05773904712190652
-0.15528298690735598 0.04810089706820181 0.036158577151786345 0.09940125433185187 -0.2773911117729505 -0.03732124688770494 -0.10806502714663796 -0.03409715870717327
-0.002500356443138089 -0.039699134649877246 -0.18711253930517427 0.0035577143443735405 -0.2085907282604402 -0.048784654620995835 -0.058040768231708256 0.055678120213766544
0.2605582757999442 0.08083253087519393 -0.009670889820888484 -0.2834617319837337 -0.19734545412050722 -0.10784582583358775 -0.08356606946841286 0.0054672716941983465
0.029620729646560998 -0.26631181265722637 -0.19234968705199293 0.07067720466564105 0.03849214389207721 0.0906094073836465 -0.10667541025252986 -0.23700737577674072
-0.04688704711554992 -0.661365123797121 -0.020677345754598342 0.06763148676994311 0.16123414219580168 0.00985875989855313 0.11849646920831398 0.02035315504045615
0.003772497323057034 -0.06291729523866649 -0.3104619030953336 0.05571302915504478 0.03520971352730275 -0.15020920777531002 -0.020399500124409112 -0.008341459455128963
-0.3901740939612831 -0.0019198781699336094 -0.7363286751513115 0.004495463132175007 0.046491196296335725 0.07271026499668062 0.1400982071612306 0.03138541329515672
00000000: 380c ea3b 57bd c5bf 6562 4491 44f6 473f
00000010: 094e 6e3e a043 babf 1269 3cec 4dac bcbf
00000020: 9e2f 9de4 313b cc3f e53d 7466 ea9c d1bf
00000030: 47ae 176a f788 aebf dea7 8708 4588 a4bf
00000040: 9cee 32ba 7f25 c3bf d765 757d 59c2 a53f
00000050: ebfa 087e 1c77 babf 207f 45f1 3c65 da3f
00000060: aaf1 ae60 ed63 c2bf 3bad 742a a8f2 acbf
00000070: cf64 ab6b edd9 c3bf 6706 798e 2b0a d5bf
00000080: 4f1b 0c08 9f42 a33f 0cea 9930 1c2c bebf
00000090: 408d efef e0a7 c03f 02de 954b 73c7 c2bf
000000a0: e7ae cd9c b5d3 c33f cbf9 42ee 72a6 ccbf
000000b0: 73a0 aba8 073a babf 0ca6 f5f7 5b24 7cbf
000000c0: 8989 c092 d9ea a2bf 7080 b2ff f53f d2bf
000000d0: a03d 0dba 2dbe a4bf 3683 d9e9 c144 cdbf
000000e0: ba6f 0e7f aa69 b2bf 76bd b256 f94e bbbf
000000f0: 1bb4 9c09 5b90 98bf 48e6 240f e137 d9bf
00000100: bb28 28c7 30f0 e4bf d833 4c8b f1fa c1bf
00000110: b63c 60df ca24 a3bf 86a5 770a 796a c5bf
00000120: 6e42 76cf 112a c1bf 921a a8cd d8db a93f
00000130: 079d 1b6b adc7 94bf a5ad 09ad f674 a1bf
00000140: 04aa 5f40 b973 c0bf ef7d 5640 1f42 963f
00000150: 2cbd 7424 6a4c c2bf 0af9 d592 1b59 9cbf
00000160: cac0 77e1 7bca cabf 8e2d 0200 112e b8bf
00000170: b94b 5e51 ce35 af3f ad37 b104 58bf c4bf
00000180: 1cae 3b08 6c0f adbf 8fa0 4fc6 44d6 9fbf
00000190: cb88 805b fca9 9abf 22a1 8b61 c913 d03f
000001a0: acb5 d75e 12e9 673f ad0b 63b1 feec ac3f
000001b0: 9200 0f06 6281 c5bf 754a dfba 3eaa b8bf
000001c0: 29a9 4de0 ac61 b73f 55f8 b2fd d668 bfbf
000001d0: d886 e1a0 1d34 b4bf 09e6 d280 5b8d b7bf
000001e0: 8e73 737c a44e a3bf 7caa 096c 465c a2bf
000001f0: 10b3 9dfd 8c5d e03f 9c78 4df9 ca25 c43f
00000200: 4d8d 0d31 e7e5 c33f 3f66 98b7 3ea6 b53f
00000210: 2d1e 8cd3 8138 b0bf 6fd8 03d9 f325 cdbf
00000220: bdf1 2cf0 6d23 d2bf e2d6 2209 99df c6bf
00000230: cba0 d67c 865d b0bf ec7c fcb2 0a25 d0bf
00000240: a9de 38cc 5fc2 acbf afe8 485d 86eb 943f
00000250: 2307 bbc2 a85d a63f 50ce dc6c 039c b83f
00000260: d571 68ac 0967 84bf 6989 76f2 101a a03f
00000270: d43c 62bd a52a d1bf 788a 73db d954 a53f
00000280: a7b2 f56e b8d0 b0bf 7814 cb4a bcae c2bf
00000290: 8430 a257 9532 b3bf c84c 1cf0 93c4 b83f
000002a0: ee05 69ef 28c4 c9bf 6d08 1992 6f3f 903f
000002b0: cce4 0d40 7997 bfbf 8f67 3961 576f b1bf
000002c0: 20bb d162 fa12 bdbf 88c7 2870 4fb5 97bf
000002d0: c172 fd3c 50fd c53f 8597 194a 0afc bfbf
000002e0: 5204 085d 1016 a4bf 4319 eb33 10d4 c33f
000002f0: 84cc 7e82 9beb e13f f23e 8fcb eaff a6bf
00000300: c8bb 5f54 6d3c a3bf e7b9 969c ad42 993f
00000310: c6b9 02cc 44c9 cdbf 0083 9df2 4827 da3f
00000320: 0d62 4d5c 0c89 a6bf 5af9 167c 0e5c d6bf
00000330: a5a6 e2ab f549 bcbf 5ef9 02da ef45 be3f
00000340: 848e 280f 1977 a4bf ac10 103c f203 e0bf
00000350: d32b bd8d fab2 babf ee65 8dd8 cd91 a43f
00000360: 67a5 0a11 c4e2 883f b530 1e02 deab e83f
00000370: 423b 88ea 0754 963f 03d8 1cc3 3dc2 a63f
00000380: 8adf d307 a0e4 7dbf bde6 cb5c 91ac b0bf
00000390: 7c63 34eb fcf0 b6bf 71c0 a612 d808 b5bf
000003a0: d58c 40fe cbc1 b1bf d0ae dea2 ca9c aa3f
000003b0: 6c91 57d7 0b8f ca3f 3c34 e8ab 2497 b5bf
000003c0: 0790 e367 2afa bb3f 52a0 5771 6004 c4bf
000003d0: 6e25 d423 7d05 a83f 9dab a2d1 86a5 c13f
000003e0: 2056 c17c 6d87 973f 5eb1 2a24 6a23 d93f
000003f0: 7f24 043f 55fe c33f 7086 6edc 5955 c2bf
00000400: 98b0 2ee7 40b0 a13f 7c5c 74d1 a1a2 b1bf
00000410: a4fe adb4 e192 b5bf fa95 87a4 0fc2 b0bf
00000420: 414c 0aa8 af13 b0bf 9efb 048a e863 a23f
00000430: 5a6f 2988 65ab b33f 4674 7f10 66a0 a4bf
00000440: d263 d9ea 631e a1bf d6c9 a86b 3742 7abf
00000450: cc7d 277d fb17 80bf 7c3e f18e a237 c0bf
00000460: 09c0 f3c2 8b29 c1bf a6a2 c674 392e a3bf
00000470: bb70 9f15 8a8f bcbf ca1a f9f6 afb5 a93f
00000480: 1e7d 69cb aaff 90bf 26d6 1e7c 64f9 c5bf
00000490: 1826 736c 4c4c ce3f 4ead 0351 4ca2 d03f
000004a0: a698 37ed e57c d93f 4b4e 35df 9bd7 a9bf
000004b0: 4e32 9df2 c53e 86bf 6ef3 1202 ee38 b3bf
000004c0: 2408 32e2 60a6 babf c81c 8e02 931e b23f
000004d0: ddab e5ee 5fb9 a6bf 69bf cd86 5f50 b0bf
000004e0: 1bba b453 34f6 aebf 0b33 d6e6 1242 b3bf
000004f0: 2caf 0946 78a0 b6bf 1e1f 4c1a ec82 d3bf
00000500: 8e47 9c4d c810 c23f 2f88 d50c 84fe e03f
00000510: 6923 f727 b639 c5bf 348a 7da7 a6be aabf
00000520: 2217 05b0 1a17 b6bf bea8 f664 f6b2 d6bf
00000530: e50d b1c2 98dc 89bf 5d74 9ad9 af75 c3bf
00000540: 6b3e 78c0 4d8e 9b3f 732e 94f0 0d03 adbf
00000550: d695 4c7a 3b75 abbf 276f c0b0 6459 c33f
00000560: 0533 1da9 7b2f 74bf 44a7 382a 742d 883f
00000570: edce 10a8 14f3 c93f a5fe 7202 1228 a2bf
00000580: 2345 c682 b5d3 b0bf ec27 63cc e950 c2bf
00000590: 50dc 2819 4335 da3f b636 97f7 a3bf a63f
000005a0: 9af6 9def af7a bdbf b9c9 71c8 0b46 9fbf
000005b0: bede aa70 e027 a73f d49c 21c5 26e9 863f
000005c0: 7334 c158 7a28 d63f f46b 2ebf 674e e73f
000005d0: f358 8091 1ea0 c4bf 0eb6 5810 0d15 a1bf
000005e0: abbe 1842 b1d6 bcbf cae3 0fdc f21f 823f
000005f0: 2f29 63cc 83b5 a8bf 1756 1521 c439 a03f
00000600: 5a26 c288 e85b bdbf ec4f 3229 5e0d b8bf
00000610: 1b17 e818 1244 a1bf 667e f850 3152 b2bf
00000620: 8bfb de80 6785 ab3f 0630 f3a1 1e95 c7bf
00000630: ac0a 8c17 13a3 d43f 377c 2eee f88f ad3f
00000640: 9036 321b 50e0 c3bf 88e3 a147 aea0 a83f
00000650: 0a73 ac84 6083 a23f 0064 8950 5c72 b93f
00000660: 8e04 51a6 c6c0 d1bf c842 a83d c51b a3bf
00000670: 54a8 6f4d 26aa bbbf 4652 11cb 2e75 a1bf
00000680: 3c14 daa4 a07b 64bf ca5e 00ea 7153 a4bf
00000690: d15d 7ebe 4df3 c7bf b136 3e58 1125 6d3f
000006a0: 174f 10da 19b3 cabf 66a4 4960 4dfa a8bf
000006b0: 54a1 c702 85b7 adbf 167e d7b2 d781 ac3f
000006c0: 7ed3 509e fcac d03f 98d6 8fd4 70b1 b43f
000006d0: 400f 08dc 54ce 83bf ea68 22ad 3c24 d2bf
000006e0: cd1d bba7 9d42 c9bf 9322 f7b6 c89b bbbf
000006f0: 920e 6cff 9564 b5bf efb4 ff91 d964 763f
00000700: 9469 7684 e554 9e3f 58ae 79b3 400b d1bf
00000710: d75e a41f ea9e c8bf 9593 9cba e617 b23f
00000720: 4ebb 5606 3eb5 a33f 3e36 6c99 2d32 b73f
00000730: 846e 5266 144f bbbf e599 eff7 4156 cebf
00000740: b041 ef3b 9401 a8bf 588e 2d31 e729 e5bf
00000750: 00e7 222f 712c 95bf c754 db0f 4c50 b13f
00000760: f062 dd03 52a3 c43f 8849 bf5a d430 843f
00000770: 25f1 f0db c855 be3f 10a3 131d 75d7 943f
00000780: b48f 0e14 80e7 6e3f 1e21 670d 591b b0bf
00000790: 3eb2 1c9a 9bde d3bf a830 5d0c 6b86 ac3f
000007a0: d2dc 33f0 0107 a23f bdfc 7929 0e3a c3bf
000007b0: 516c 8e47 9be3 94bf 734a 7cbc 5315 81bf
000007c0: 5ed9 53c3 9cf8 d8bf 0357 f07c 8d74 5fbf
000007d0: 7338 5c27 0190 e7bf 2a09 21b2 d569 723f
000007e0: 4513 4aaf b1cd a73f 4e86 3ed2 239d b23f
000007f0: 052c fef0 bcee c13f 1a29 59b7 bf11 a03f

transformer.layers.0.linear2.bias f8 [6]
0.10558191234641018 -0.008796404622786842 0.05207158485497146 0.15809338543755586 -0.09769874553191352 -0.5709883165631096
00000000: 54b4 938c 6a07 bb3f 7703 6b71 d903 82bf
00000010: 1488 0174 20a9 aa3f 6688 1570 673c c43f
00000020: aa77 ebf4 c802 b9bf 3e2c 414a 8945 e2bf

transformer.layers.0.norm1.weight f8 [6]
1.150997909890448 0.7861240372277567 0.9644066591933023 0.9639071061978858 1.292843717580925 0.9441622876371157
00000000: b9e6 cbc8 7c6a f23f 36c4 cf98 ed27 e93f
00000010: 8af4 a85a 6bdc ee3f b70f 30b7 53d8 ee3f
00000020: 0d96 dde4 7caf f43f 1b93 70d4 9336 ee3f

transformer.layers.0.norm1.bias f8 [6]
-0.13796116758890353 0.34339405454887195 0.345721250204317 -0.28267026048493854 0.14542891792570814 0.1534788604170478
00000000: c4c6 7427 b6a8 c1bf 5e68 7b0e 2bfa d53f
00000010: c039 ca05 4c20 d63f 496a 1501 4517 d2bf
00000020: 4d19 312f 6a9d c23f 472d 0fff 31a5 c33f

transformer.layers.0.norm2.weight f8 [6]
3.804995662613729 4.190826970903149 3.156896895255366 2.3796134190750498 1.9311250567716267 2.296147623371223
00000000: 54c8 e290 a170 0e40 24e5 3c25 68c3 1040
00000010: d3b9 cf28 5341 0940 9166 a0c2 7209 0340
00000020: de1f 3563 e3e5 fe3f 1957 29a5 825e 0240

transformer.layers.0.norm2.bias f8 [6]
-1.4081735673275568 -0.4399253647819391 -0.6173763775392291 -2.0407554836616297 0.12543905045242887 -0.053774588710492385
00000000: 5737 ac01 e187 f6bf cad5 9ab7 bc27 dcbf
00000010: 7653 db1a 8cc1 e3bf c6ac 6b9c 7753 00c0
00000020: 1cd0 aa05 630e c03f e61d bcc7 5788 abbf
