results/Genotyping_RNN_Long/models/checkpoints/4/Genotyping_RNN_Long-4-100.pt (torch_old, 30647 bytes, 10 tensors)

rnn.weight_ih_l0 f8 [32, 10]
0	0x3fd31e5413cf6931	0.2987261002978299
1	0x3fc0ef5662ae311a	0.13230399912243557
2	0xbfc7581945eb10d1	-0.1823760596654496
3	0xbfa293017287212e	-0.03627781413121266
4	0x3fd659cecc6084f6	0.3492314334744856
5	0x3fd2c58f6551d402	0.29330811399933066
6	0xbfd419c5f43f1f59	-0.31407307483867936
7	0xbfb80b09d1cc510c	-0.09391843196891986
8	0xbf2b95ca634ec7b1	-0.00021045775943445485
9	0xbfd29e2c13194a91	-0.2909040628921185
10	0xbfb34a9ce2088be5	-0.07535725134270839
11	0x3fb70258fb2efa89	0.08987957127008363
12	0x3fda796fd0a534f6	0.4136619126846449
13	0xbfcd506a1164906d	-0.22901655053385941
14	0xbfc6fb21d0c006ef	-0.17953894322277317
15	0xbfcecc2cc14b240a	-0.24060592115554896
16	0x3fc4a38e4a2fb4a8	0.1612413274992026
17	0x3fb5617fac4a473d	0.08351896244337538
18	0xbfc3702e9e80a4c9	-0.15186102618580424
19	0xbfdafa257797d744	-0.42151772192970705
20	0x3fbf7fbdb973b003	0.12304292466768633
21	0xbfd8aa170b1062ef	-0.38538147049398125
22	0x3fb9e0fd237cdb5f	0.10108930698775741
23	0xbf9859cf467e7fd6	-0.02378009670030664
24	0xbfdf9a002def4bb8	-0.4937744568425688
25	0x3fd0225f71acf91c	0.252097950946238
26	0x3fd1bcb787025f2c	0.2771433657121516
27	0xbfcd1a8337e9c845	-0.22737159948479949
28	0xbfd5408b57faaaa0	-0.33206447211947854
29	0x3fea9b4d6cf7b3f0	0.8314578178666334
30	0xbfc8f673ee13339a	-0.19502114414936217
31	0xbfd2e1666f38c0c9	-0.2950073324345906
32	0xbfbd52c57431d9e5	-0.11454423987183977
33	0x3fd93ec836c16e90	0.39445691439844044
34	0xbfc7bc36c0a9ac63	-0.185431331704737
35	0xbfd7979e4d8479e2	-0.36862905092303155
36	0x3fbecb43cd58aa3c	0.12028907550180973
37	0x3fd09770aecc341d	0.2592431742676256
38	0x3fc9f59383ad0d5b	0.20280689172259767
39	0x3f8fedf353264aa8	0.015590573287032797
40	0x3fcd8c6ca0e7bc81	0.2308479104681034
41	0xbfcb089eac9c091b	-0.21120055607031749
42	0xbfaab5410c756d85	-0.0521641090114953
43	0xbfa459a57be2a069	-0.03974644791861765
44	0xbfe66c82cce84cf2	-0.7007459642503859
45	0x3f98d3bf9d8cb38a	0.02424525641542944
46	0x3fa428c85480cb12	0.03937364608318296
47	0x3fb6b650f5975b24	0.08871942516212222
48	0x3fbe6380a04852b2	0.11870578683039915
49	0xbfe12abd69488bc8	-0.5364672714534828
50	0x3fc2c2d8b15e194b	0.14657124195600554
51	0x3fb06e7000afd43c	0.06418514267700542
52	0xbfad53bc7b2214f7	-0.05727948191728587
53	0xbfa2900fb2393405	-0.036255350595276105
54	0x3fe0208e9817fdf3	0.5039742441730922
55	0xbf9640447a46e353	-0.021729536021413875
56	0x3fc8d49ec8f97f75	0.19398865521634048
57	0x3fc7d61925668990	0.18622125936697076
58	0xbfe0792901e44d7d	-0.5147900616597522
59	0x3fc86333bd94b2a9	0.19052740818860528
60	0x3fdacef6be2091fb	0.418882070227738
61	0xbfd5ce032bba7746	-0.34069899816846705
62	0x3f566a11c10f1bb9	0.0013680623417131456
63	0xbfbcf7cf710279c5	-0.11315628537202034
64	0x3fe56ae3dd6f98fa	0.6692981076164692
65	0x3fc13c14ce57dce9	0.13464603495933794
66	0xbfc9357bfd4c985f	-0.1969447123348713
67	0x3fcd59ea34d08e5d	0.22930648402062817
68	0xbfc5a77c7c2de798	-0.16917377532427902
69	0xbfd5cd51bf3ba6f8	-0.3406566970357825
70	0xbfc321753a94439f	-0.149458554843048
71	0x3f8b706cb3817cb9	0.01339802668388611
72	0x3fd0ec490c3516a5	0.26442171280028
73	0xbfd14b9ee5a49c9d	-0.27024052072597177
74	0xbfe7644793b88a7f	-0.7309911618397819
75	0x3fc74404595536d8	0.18176321374851656
76	0x3fd4948654aa3083	0.32156523006484167
77	0xbfcb48ebdacb592a	-0.21316288169209346
78	0xbfcf1b5e62c123ec	-0.24302272626871912
79	0x3fcaa39cd4c196c0	0.20811806095587393
80	0xbfb39d8ab9adcd1b	-0.07662264855553184
81	0x3fd40b087fbe8081	0.3131734130383919
82	0xbfd3bba83a283f80	-0.30832868270316993
83	0xbfd09c9f0d19d5ef	-0.25955940513026027
84	0x3fad83d8a6466e7a	0.057646532342201476
85	0x3fd5e835bbbe954e	0.34229796728535156
86	0xbfbfb3fc082b4a5d	-0.12384009551468851
87	0xbfcbf712edb1099b	-0.21847759824784138
88	0x3fca414e5c027f8a	0.2051179837480926
89	0xbfe9b8dbd8af8c97	-0.8038157684462871
90	0xbfbc6614e0f132ba	-0.11093264095070313
91	0x3fd639be9f01db56	0.3472744515233236
92	0x3fc7361a4507a905	0.18133858080484103
93	0x3f4f731f1fcb62f2	0.0009597684835070659
94	0xbf8455305a18402c	-0.009928109883759438
95	0x3fd6e7133b13877b	0.3578537060658317
96	0x3facaed36b7ece3e	0.056021315452565265
97	0x3f572fc167fdc4c3	0.00141519439054276
98	0xbfbca47c0e8d1b99	-0.11188483577016796
99	0x3fc050fecf1eabb4	0.12747178185722208
100	0xbfc384596860482d	-0.15247647854317972
101	0x3fafc468b3004282	0.06204535660811407
102	0x3fcd64818fbe6cb3	0.22962970274679648
103	0xbfcc1fa34d8861b5	-0.2197155121400677
104	0xbff136fc21c80a19	-1.0759240455232713
105	0xbfc46c812aff783f	-0.15956129645832282
106	0xbfa9d9119902bf3d	-0.05048422806555528
107	0xbfc309f67d0ffa92	-0.14874154192508066
108	0x3fcd02526028d8e2	0.22663335509577737
109	0x3fc645caa92370d6	0.1740048719283382
110	0x3fb5d2729ea0d89d	0.08524242756615981
111	0xbfbd70f7047ca1fc	-0.11500495776693492
112	0xbfd565dae1b75e3d	-0.33434173624616276
113	0x3fadef529721974f	0.05846651167739358
114	0x3fe7e02a868c9e2f	0.7461140277782244
115	0x3fc8efdf19665c79	0.19482029667117098
116	0xbfa0a21a741f53fb	-0.03248675029286826
117	0xbfc08955b288d195	-0.12919112412931769
118	0x3fc4368c85976000	0.15791470072758784
119	0x3fd77f9d04d4c477	0.3671639010600027
120	0x3fe02a06c3a1e8af	0.5051301785417958
121	0x3f782e81659e98b4	0.005903726059761794
122	0xbfbe4b647f4fc91d	-0.11833789928622136
123	0xbfd038be3fbbe236	-0.2534633276368682
124	0x3fed8cb4e7edb30e	0.923426106438997
125	0x3fc4647d0c071a19	0.15931666457454766
126	0x3fd5d6e64c81ff95	0.34124143096414034
127	0xbfa2619135cbeb2b	-0.03590062886902098
128	0x3fca393e75e5d9e9	0.20487194782954468
129	0x3fe5e6e28023e5e9	0.684434175752526
130	0xbfc9d8f5cd3414bb	-0.2019335987062386
131	0xbfc02b72f38f1bb0	-0.12632595913438882
132	0x3fc9afc63495d96d	0.20067670409816732
133	0x3fcfd9c52b8fdb09	0.24883331896827368
134	0x3ff1257a1d290ad6	1.0716496600222647
135	0x3f8267956a2b327c	0.008986632635605611
136	0xbfd039f0af908706	-0.2535363878724727
137	0x3fb488aca9df1f03	0.08021048686270764
138	0x3fcb326f99a79306	0.212476682688383
139	0x3fddf35ff0df4405	0.46797941706341845
140	0xbf5e066ac7c56d53	-0.0018325846459309083
141	0x3fcaeea3d2b5c308	0.21040771282743997
142	0xbfcbeaa085e6a64d	-0.21809774912007854
143	0xbfd18427618219dc	-0.2736910297611794
144	0x3fd74f160d4dcf89	0.3642020349427573
145	0x3fd425a169fa08d6	0.31479678487097595
146	0xbfc3c1510043cc33	-0.15433704865390183
147	0xbfc55eb37618b173	-0.1669525457995281
148	0xbfa03d9806a5fb02	-0.0317199237933803
149	0x3fd64bce916f08fe	0.3483768863917617
150	0xbf97826fed0e2a63	-0.022958515971860282
151	0x3f86bcf8568d5f6d	0.011102619305958428
152	0x3fc3decdf8b383fd	0.1552369560586441
153	0x3fc543dc9910a610	0.1661334750545369
154	0x3fe905f65e32e5b8	0.7819778289623889
155	0xbfbb970297f7842e	-0.10777298174026903
156	0xbfd1055ddba50ea3	-0.2659525532692248
157	0xbf9b384398b4ff62	-0.026581817813393534
158	0x3fd2cbb0e2c503e7	0.293682309584311
159	0xbfba1393b98615c2	-0.10186122207058815
160	0xbfc5a71f2210e931	-0.1691626468980956
161	0x3fa9b7ac8299c1b6	0.050229445402581716
162	0x3fc9bff8efd56e4b	0.20117103300695968
163	0xbfc555586cbe4ec2	-0.1666670351956921
164	0xbff3fec06680538e	-1.2496952060657551
165	0x3fd0dd50e034b87f	0.2635080518256316
166	0xbfb27aa3691aba1d	-0.07218381229424904
167	0xbfbf120fdc06bf4a	-0.1213693535016748
168	0x3fc6a13a60c0af8d	0.17679528927089586
169	0xbfda155e86ca1041	-0.40755427516001325
170	0x3fbca05803e5c85a	0.11182165236621824
171	0xbf6ea5ebc1005a27	-0.0037412266319834134
172	0xbf96a22a2be2b13e	-0.022102984360274684
173	0xbfb6fa9869f78fb6	-0.0897612818440042
174	0x3ff2436c2c7d68fb	1.1414605844389019
175	0x3fa108b44275a585	0.03326953231119049
176	0x3fbd86eaab283dcb	0.11533991507189183
177	0xbfa10679f0935813	-0.03325253545487796
178	0xbfc5fff904eded4a	-0.17187416783040482
179	0x3fd17f6665ceab64	0.27340087835425764
180	0x3fda72d7e29243b4	0.4132594788180157
181	0xbfc16513e3d244bf	-0.13589714645471493
182	0xbfad484bc51b671c	-0.057192199526708815
183	0xbfc5d7e1beb1b1ea	-0.1706506901858938
184	0xbfc2342ad2a66935	-0.14221701894423125
185	0xbfd83af2bbba3113	-0.3785979111933255
186	0x3fb1f340aea1b45d	0.07011799109905455
187	0x3fdb2ca06c42de7c	0.4245987946737626
188	0xbfa70c5594a948bd	-0.045015978238227096
189	0xbfd1647b152f4fa7	-0.2717578608401205
190	0xbfd8c80462808857	-0.3872080766615275
191	0x3fd1ad423984d066	0.2761998712260322
192	0xbfb2ffbb60a58d5d	-0.07421465978182114
193	0x3fb700aac6cb5515	0.08985392907500896
194	0xbfe7707f2b6a1fa4	-0.732482514184984
195	0x3f2aead62a0d66f4	0.00020536293325328742
196	0x3fb96b4ebe062573	0.09929363383539229
197	0xbf8d89917cd7c0e9	-0.014422546980285183
198	0xbfcd3ca1749b9e48	-0.22841280168289502
199	0xbfe0e7421779fd84	-0.5282297571683761
200	0xbf98a2c958536855	-0.024058481231670054
201	0xbfcb19f7336b5249	-0.21172990809158623
202	0x3fd251662d64fa5d	0.28621820862819
203	0x3fcdbc69c125618d	0.23231241160352703
204	0xbfdb7005b641b844	-0.4287122993326913
205	0x3fc89eabc96e4b50	0.1923422559308059
206	0x3fc5cfe99eb470ed	0.1704074883390442
207	0xbfc0ca05edb20fb2	-0.13116525751331448
208	0x3fbd9ea9a58af0b2	0.11570225040026363
209	0x3fe4c7105e6d086f	0.6492997974639944
210	0x3fc1dafd461f05f2	0.13949552463422737
211	0x3fc06fb9ed9a7203	0.12840961553310146
212	0x3fc92b6a03d986c9	0.19663739383672965
213	0x3f90c6228ff4332b	0.016380825077294475
214	0xbfa619d235542aec	-0.043165749559269745
215	0xbfb105f4a3e3840f	-0.06649712563695707
216	0x3fa0d42b56448340	0.032868723183361315
217	0xbfc296cd2fec4593	-0.14522709693896427
218	0x3fa4b936df528d82	0.040475573311847604
219	0xbf88da7965ec3841	-0.012135456488547304
220	0xbfd2f3ee44977134	-0.29613835047145476
221	0xbfc089eebf7a39cc	-0.12920936917767134
222	0x3fbc90f57f80019f	0.1115868984488828
223	0x3fd10bcfa6b1e239	0.2663458946113085
224	0xbfe79e896f772ce7	-0.7381026436864006
225	0xbf82294bcd7cd554	-0.00886782856796723
226	0xbfd2f8f397652a6f	-0.2964447954624693
227	0xbfb679bea7e277fa	-0.08779517744775936
228	0x3fcf99f214048107	0.2468855474226148
229	0xbfbabeb24c7c89d4	-0.10447229735704094
230	0xbfb392a12fefb24f	-0.0764561407119768
231	0xbfd2f0e273c1056a	-0.2959524279031799
232	0xbfbfc49f82227280	-0.12409398009408257
233	0x3fc219b530f7cf33	0.1414095391370381
234	0xbfc6ff7eabc98b36	-0.17967208278704455
235	0xbfd0baf926ac8643	-0.26141194130659445
236	0x3fccf5ab69d86ccd	0.22624724071724814
237	0xbfa0fea0b1d259d5	-0.03319265528368801
238	0xbf94342d4a6ecce0	-0.0197302891426262
239	0x3fccbde65d7e4329	0.22454528393839127
240	0x3fc2118557485caf	0.14115969430779304
241	0xbfd262c2f12f9ee0	-0.28727792313882894
242	0x3fce2d5e8054787d	0.23575955644713878
243	0xbfc1271dd5ea4568	-0.13400624222826285
244	0x3fe18ab4859e9b59	0.548181782699298
245	0xbfd572900e8c6816	-0.33511735363720285
246	0x3fa17a5cf314ac4b	0.03413668124479637
247	0x3f91f2223c4a5a3e	0.0175252293871273
248	0x3fe13797459fe98a	0.5380359992844188
249	0x3fd26cbf6878824f	0.2878874321195654
250	0xbfc2ed69a28471e2	-0.14787025866907216
251	0xbfaa5784e3b2f000	-0.051448967738423335
252	0xbfb2f8fee0591976	-0.07411187150237261
253	0xbfa46014bb210a39	-0.03979553970613776
254	0x3fac662c2f06d202	0.05546701501899422
255	0x3fc419b44d254477	0.15703443304895234

rnn.weight_hh_l0 f8 [32, 32]
0	0x3f83a9cb351247ff	0.009601199681387838
1	0x3fc0717dc2323a3a	0.12846347791897178
2	0x3fc84bafc1816953	0.18980977009307284
3	0xbfb858a35db704e7	-0.0951025108143032
4	0x3fc991c58e681cb0	0.19976109937144804
5	0x3fa293d036dc84fa	0.0362839762658584
6	0xbf8821a39390ee02	-0.01178291124425979
7	0xbfb60890288ba8e0	-0.08606816282159313
8	0xbfb5706a80f4674b	-0.08374658249195226
9	0x3fd69e81d61b1cae	0.35342451008586806
10	0x3fc055745d23d211	0.12760786578986985
11	0x3faf6b407623c9a5	0.06136514131675889
12	0xbfbfa8b2631d4c16	-0.1236678592661494
13	0xbfa987dfba076d4a	-0.049864760836238434
14	0x3fbc05648e0dcf08	0.10945728748430039
15	0x3fd2a7b27bbf81e1	0.2914854248502064
16	0xbfc06e634006a78c	-0.12836876512784234
17	0xbf4fe47009dc21ec	-0.0009732768118917968
18	0xbfcdcceb2fef58a8	-0.23281612244199335
19	0xbfcbdadf9ea4da82	-0.21761698957717007
20	0xbfb9f75fff5426d8	-0.10143089278804085
21	0x3fd63a5ff90ad21a	0.34731292076620124
22	0x3fd014aec3107b99	0.2512623696256298
23	0xbfb96773074d0448	-0.09923476150744748
24	0x3fd98d5f01a2eb5e	0.39925360832028456
25	0x3fa6328be060ef44	0.043354388370487246
26	0x3fc560f0c526f7d1	0.16702088953564823
27	0x3f965b66114d30e8	0.021833033376695093
28	0x3fda2468b9e1feec	0.40847223427407076
29	0x3fcabe85d6fa7233	0.20893929478633452
30	0xbfc49ac26bdc379f	-0.16097288385975347
31	0x3fa8875d5384e1f4	0.04790774960060054
32	0xbf7b693cabc447a5	-0.006692158695175286
33	0xbfb92d3ade4ec3bc	-0.09834640433724834
34	0x3fd677d42bd9c7b7	0.35106376917166976
35	0x3fcef463ed84d324	0.24183320138549746
36	0x3fc8ef925bf2c996	0.19481114854495435
37	0xbfbb359f5e3f29e5	-0.1062869649023593
38	0x3fb66dcbd72a3275	0.08761285784766833
39	0xbfb808a3a67cc1b5	-0.09388182463295076
40	0xbfc803c14411b320	-0.18761459182442142
41	0xbf9473fc6ab71733	-0.01997370148980977
42	0x3fa1adeb04938297	0.03453001433240848
43	0x3fae6d6f98af1eaa	0.05942867983645546
44	0xbfb5398ecc06b61b	-0.08290951233967585
45	0xbfc9b98d5a762ae0	-0.2009751025874129
46	0xbfce8a7f78168ee1	-0.2386016212814104
47	0xbfc7407111ed1536	-0.18165410399721232
48	0x3fc1de545ee997db	0.1395974601211368
49	0xbfc10ad07c8a42f9	-0.1331425293069726
50	0x3f85f31c6fda2b2e	0.010717603839358238
51	0xbfd4c259e1b34b10	-0.32436224976588424
52	0x3f754624e1ac2cf6	0.00519384772156716
53	0xbfca7c0c08c540bd	-0.2069106142830658
54	0x3fbb8849039dbec9	0.10754829729352901
55	0xbfba3f73c448d551	-0.1025307039461343
56	0xbf92b86d38d0b7e8	-0.018281656830531207
57	0xbfc83a255ff5784c	-0.18927447495929284
58	0x3fb375b909fe8a40	0.07601505750657456
59	0x3fb86ccc527d3714	0.09541012777227947
60	0xbfcb31e10c3166bf	-0.2124596890960699
61	0x3f9f2bfa073ddf79	0.03044119519424224
62	0x3fa84dc8f16f836c	0.04746845195018676
63	0x3fcaa92db5038126	0.2082879194122224
64	0x3fb802e7a1082cd6	0.09379432374423699
65	0x3fb0766d4c704c1b	0.06430705181291822
66	0x3fc504a46cbbc001	0.16420417126892065
67	0xbfaa6008eac62994	-0.05151393762487824
68	0xbf8aa9b4a22f37ca	-0.01301900024364135
69	0xbfd02e4e89aee81e	-0.25282634206416954
70	0xbfc97786a69672a6	-0.19896014341511153
71	0x3fc6383b7cadf79d	0.1735910757815277
72	0x3fc33a6e4efe6186	0.15022066933739725
73	0xbfaad3a3cecb0b9c	-0.052395934098533575
74	0x3fd06b2f97bfecef	0.2565421087198975
75	0xbfab523f06f2a76f	-0.053361863706711136
76	0x3fa92e96bfac46ae	0.04918356981046422
77	0xbfd343f30660a487	-0.30102229712299117
78	0xbfa9a762f5eb015f	-0.050105183142934655
79	0x3fc6439d9167ece1	0.17393846130276017
80	0x3fd734014b8f85a9	0.3625491369149026
81	0xbfa2c7b2093c2581	-0.03667980540019312
82	0x3fa228d3a1d8cdb4	0.03546773291273145
83	0x3fa33a6bfede8ba5	0.0375550984020017
84	0x3fba0732d1480140	0.10167234048276885
85	0x3fbf54fd01de5397	0.12239056869141361
86	0x3fb0e1eae562b262	0.06594722843392156
87	0x3fc0ff48821660b5	0.13279062606739492
88	0xbf7bc1bc0e7f4359	-0.006776556583603399
89	0x3fb0d4433fb866ad	0.0657388716284923
90	0x3fc89899c79af92e	0.19215700384479234
91	0x3fd3f33fc259ac1f	0.311721744342039
92	0x3f9ae6cae01fc1e1	0.026271028451391735
93	0x3fca6bc6b8ae1fd8	0.20641407029711334
94	0xbfcd36dcc864f6da	-0.22823676857836156
95	0xbfd2d9cdbebf3dbb	-0.2945436823619862
96	0xbf90949477d2db55	-0.016191787541824116
97	0x3fb64b01e84fd700	0.08708202287365552
98	0x3fc0a752659ba965	0.13010625802355516
99	0xbfc1368a1da16c43	-0.13447691389851188
100	0xbfb820aec7e536b2	-0.09424869899995761
101	0xbf9895f6b6df7203	-0.02400956622283169
102	0xbfd000b38afbc61f	-0.2500428063641226
103	0xbfc38ed7061a6ef6	-0.1527966289330533
104	0xbfd407b1ef2c9426	-0.3129696689305227
105	0xbfc148f3e758ff1a	-0.13503884121200188
106	0x3fbde320b4ba9635	0.11674694454503583
107	0xbfa33a7ea1edeea8	-0.037555653826499225
108	0xbfcac14bcdcbd2ee	-0.2090239291061588
109	0x3fb5df38aaeadd94	0.0854373376158633
110	0xbfbf8a8567cbe758	-0.12320741447538575
111	0x3fbbeac9ca30ecb0	0.1090513342505115
112	0x3fa8864241ca9fdd	0.047899313479603946
113	0x3fcc25888bccc4a4	0.2198954279533939
114	0xbfb3f5ee53e1f213	-0.0779713587562088
115	0xbfcf86b43bf7539d	-0.24629834106476958
116	0xbf7bc4c8f377139d	-0.00677946564195944
117	0xbfb1070c4bf890d9	-0.06651379446754237
118	0x3fbeffae56ae166b	0.1210888826008955
119	0x3fc0f29f477817bb	0.13240424146368732
120	0x3fd2937e0137e708	0.29025220984441136
121	0x3fccbfdd32ff8c8b	0.224605226422771
122	0x3fc9dd1e9d83bc07	0.20206053439275726
123	0x3fcd759f471b3488	0.23015204402910094
124	0x3fbd01fc453833eb	0.11331154527597646
125	0xbfc3a2b4d845ce55	-0.15340290603818355
126	0x3fba10bdf9219d4d	0.10181796390826499
127	0x3fc1ae28c3eebab5	0.13812741820352917
128	0xbfd1f08a61d03ac8	-0.2803064303597407
129	0x3fcad769fe1fb7db	0.20969891460793985
130	0x3f4cf115dbb2afbf	0.0008832318047970951
131	0x3fa30ac28a262429	0.03719146667851476
132	0x3fd2651ac57a2429	0.2874209335792011
133	0x3fa282e769119fe3	0.03615496785715757
134	0x3fcce524d13e6033	0.22574291436171876
135	0x3f904fb71b446446	0.015929089583640164
136	0x3fa93540706dcac9	0.04923440334723279
137	0xbfd4045be0677f44	-0.3127660457084753
138	0xbfa6b0ca3610ca61	-0.04431754980068515
139	0x3fc4ec794e166159	0.16346660912382552
140	0x3fb0f52d6f31a163	0.06624111141866744
141	0xbfa4e2aee53cc8cf	-0.040791955454908206
142	0xbfd870cce8c1344e	-0.38188479165984723
143	0x3f7175a8a619fcc8	0.004262598785884815
144	0x3fc56e5cf4cd7e86	0.1674305148435346
145	0xbfb9eba170091059	-0.10125168786277196
146	0x3fc6653e91906b5f	0.1749647341501612
147	0xbfc36800ff19004e	-0.15161144691410516
148	0x3fc9423269d83669	0.19733266990845102
149	0xbfd14536549bbcf4	-0.26984937918218965
150	0x3fce1d9cc6a2336c	0.23527869891077147
151	0xbf919f93c15423f4	-0.01721030108913975
152	0xbfb718ff16261231	-0.09022516527881731
153	0xbf92a7c6e91dbc22	-0.018218143442421682
154	0x3fcca9b6ef59d64a	0.22392927825028358
155	0x3fd34b50be74d3df	0.3014718875813837
156	0xbfd3416fabf4b229	-0.30086890976488917
157	0xbf98baa140bddb91	-0.024149436546817397
158	0xbfa511010bab9ea2	-0.04114535586796576
159	0xbfc06fb7a55e6f76	-0.12840934347775218
160	0x3fbe521b1354b8ec	0.1184403345293707
161	0xbfc94ed0764b7d28	-0.19771772171132196
162	0x3fc1bbe6409197fe	0.1385467353131275
163	0xbfbd73e8bf0167e5	-0.11504988349170693
164	0x3fb1d29ef653b5ee	0.06962007058947225
165	0xbfc68c30b71613be	-0.17615326823957206
166	0xbfd7183b3d0a0ef1	-0.36085396729343616
167	0x3fcc5f7663bb2abb	0.22166328305896407
168	0xbfbe6b1d69e1063d	-0.11882194361626204
169	0x3fc869b01babebdc	0.19072533942366376
170	0xbfad63ef630dacc5	-0.057403069344979886
171	0xbfab8e0647114f74	-0.05381793611073152
172	0xbfb816790ca59941	-0.09409290846597164
173	0xbfa6482f3ba5a6d4	-0.04351947405923587
174	0x3fd5b6c927d1dd22	0.3392813576569599
175	0x3fcdb233b7cd08ff	0.23200079416898942
176	0x3fd11d982f20bd03	0.2674313030465358
177	0xbfc24255e24777d2	-0.14264939831531237
178	0xbfd2e071b0fed45d	-0.2949489811392761
179	0x3f729df030602fa1	0.004545152891306887
180	0x3fba97b5b1ade5e8	0.10387740695832515
181	0xbfaa1743cf72c324	-0.05095874697997818
182	0x3fcc79fd82a9c005	0.2224728477481223
183	0xbfd41253f02e4707	-0.3136186452403397
184	0xbfa48201f430d58b	-0.040054379518930615
185	0xbfc0718be8321d3f	-0.1284651645439485
186	0xbfc752f94f5352e4	-0.18221966145815494
187	0x3fca4c9baed0ad64	0.20546289478202617
188	0x3fd177bd7575e5a8	0.27293335409884856
189	0x3fc018be4225cf81	0.12575510244243662
190	0x3f8befa47ddbb65a	0.013640675631417288
191	0x3fb8f514b36ed95c	0.09748963719070985
192	0x3f9344d4cc47ca5d	0.018817257850921688
193	0xbfbf1617547dee82	-0.12143083393851309
194	0x3fa30e9bab502788	0.037220825826877635
195	0x3f8df463858107ac	0.014626290809363805
196	0xbfa32b9f5e748b97	-0.0374421885301423
197	0x3fd2c554a1b52881	0.2932941035438788
198	0xbfa7975b7bd00f67	-0.046076639999255424
199	0xbf8bcb8e70ba6fd6	-0.013571846785730129
200	0xbfc02cf354d79b87	-0.12637178080259678
201	0xbfdb63ed484a70d4	-0.42797405299803626
202	0xbfd68ff85f5d1dc5	-0.35253724396576686
203	0x3fa1afad28783696	0.03454342955602134
204	0xbfc19532ef3df47d	-0.13736569101084575
205	0xbfc407ce9beca763	-0.15648825276849285
206	0xbfa4a59ab6d89634	-0.04032596094138477
207	0xbfca6efd30d68cc8	-0.20651211628601218
208	0x3fbdeab65dcccbf2	0.11686267652548546
209	0x3fcc725a897a443f	0.22223979676030756
210	0x3fca714500306983	0.2065817118571652
211	0xbfd7935d09ee7f6d	-0.3683693501461594
212	0x3fd293439844ce31	0.29023828382489386
213	0xbfbafbbc5a6e863c	-0.10540368278318452
214	0x3fc122b791b53b58	0.1338719808067832
215	0x3f88fc598348aee3	0.012200068778006784
216	0xbfd2df23386d3dd4	-0.29486923704550105
217	0xbfaf980e8b4574b9	-0.06170697641457807
218	0x3fd94027b263cbc9	0.3945407144630591
219	0xbfc9be829921d1fd	-0.20112640835908727
220	0xbfd97d526fa4081b	-0.3982740488282858
221	0xbfa2d57445c03d65	-0.03678477622463098
222	0x3fcccef37d61f10f	0.22506564733692655
223	0x3fd74fb5428d16e8	0.36423999308713784
224	0xbfa2b8eb7ca020eb	-0.036567076647829065
225	0x3fc64f5aad1a3d79	0.1742966981150678
226	0xbf8dc8cbd8683357	-0.014543144742697285
227	0x3fc0d685e3dbe0e9	0.13154672265932923
228	0xbfd0b09179313634	-0.2607768710630325
229	0x3f910dd6732aab5e	0.016654349116531512
230	0xbf4f8c585d075799	-0.0009627753698235763
231	0xbfaf35103482c6bd	-0.060951715860381374
232	0x3fc3b4fc698fd2f2	0.1539607539595163
233	0xbfd559939c9f9e0e	-0.3335923223043843
234	0xbf56b3ec799611db	-0.001385670597614844
235	0x3fb0aa678ffd4340	0.06510016694415999
236	0x3faaa3999ba1b5ac	0.05202941918183099
237	0x3fc460d04478cc7d	0.1592045149169258
238	0x3fb1bc84cbda34aa	0.06928281761993796
239	0xbfc7ef0d5afb5ec6	-0.18698279325939476
240	0xbfda39c17074ba79	-0.40977512342480044
241	0x3fc064933040b71c	0.12806930404752215
242	0x3fa3a96b94430ae2	0.03840194878423177
243	0x3fbbdaed5c0061c0	0.10880931373720326
244	0xbfc713a59469da62	-0.180287072627567
245	0xbfb98179b6c73a1a	-0.09963188850745333
246	0xbfb9c3a74d276f25	-0.10064168580668971
247	0x3fad6b4cbdbf7ec0	0.05745925728092294
248	0x3fb68eeceae42d60	0.0881183694329386
249	0xbfb15d7c943a5856	-0.06783274287076443
250	0x3fb9e4ff06de10cb	0.10115045468961907
251	0x3fc16b290bf72918	0.1360827740121031
252	0xbfbdd178af0f2710	-0.11647753023057938
253	0x3fc589bb80dd7b5a	0.1682657603477889
254	0x3fcc04db048ab02c	0.21889817926182908
255	0xbfcbd513c157dc79	-0.21744009914957355

rnn.bias_ih_l0 f8 [32]
0	0xbfb66827549fd871	-0.08752675834679892
1	0x3fc67885def78f64	0.17555306803762527
2	0x3fc8d1264c7fc8d0	0.19388273940382428
3	0x3f9039f5d708db9b	0.015846101045294252
4	0x3fc02cc3236d37ea	0.1263660357457746
5	0x3fc588b581386d53	0.16823452767935496
6	0x3fb307a9112c26b1	0.07433563870668071
7	0x3f88e48e94dd1b1f	0.012154687803229756
8	0xbfb5531715d252b4	-0.08329910547974856
9	0x3fc22989dc4343de	0.14189265494363118
10	0x3fb20c2b048cdc78	0.07049816952791044
11	0x3fb3dd6fb86c749b	0.0775976014378607
12	0xbf9a5ca86c23deef	-0.02574408683810153
13	0x3fc586ff99d49859	0.16818232547047066
14	0x3fc1f50694957478	0.1402900910860898
15	0x3fc5e5c8a5487c1a	0.1710749442144966
16	0xbfca1a2ba896b1fb	-0.20392366153591
17	0x3fb3e6ca5dfbcfda	0.0777403335048911
18	0x3fbf7af9514670c0	0.1229701827455214
19	0x3fa0ce23bdfa12ab	0.03282272047093689
20	0x3fb7d45483320375	0.09308365061771247
21	0xbfbeb3820b6a128d	-0.11992657450361772
22	0x3fc2641825539fa6	0.14367963621702734
23	0xbfac35b3e1c19fb0	-0.05509721880736096
24	0x3fa7bcbdb8aa5691	0.04636185530868631
25	0xbfc19636e92907cb	-0.13739668259409962
26	0xbfbc1bd2050a0920	-0.10979950545337092
27	0xbfb3a23977b0e2c5	-0.0766940991606005
28	0xbfc00d40c433d53d	-0.12540444927405217
29	0xbfb35f43576f7594	-0.07567234882977508
30	0xbf6b7990cf4a8422	-0.0033538654627851697
31	0xbfa009b5ffcaa4d1	-0.031324088549192226

rnn.bias_hh_l0 f8 [32]
0	0x3fb42305ab602790	0.07865939554190349
1	0x3fc563a45ef78f64	0.16710333478033157
2	0x3fc657524c7fc8d0	0.1745398400813145
3	0xbfae3e8c147b922c	-0.05907094717057179
4	0xbfbfa2d219259039	-0.12357819665845761
5	0x3fc5ef3681386d53	0.171362698646457
6	0x3f7bd57d12c26af1	0.006795395438667682
7	0x3fc46c98d94dd1b4	0.15956411943956328
8	0xbf7276bb5d2529d9	-0.004507762804062365
9	0xbfa012a38ef2f066	-0.031392203521563286
10	0x3faf6cf50919b8d5	0.06137815223779489
11	0x3fa5663070d8e8de	0.04179526689081724
12	0x3fb25c0224f7084d	0.0717164364096174
13	0x3fad873ce7526165	0.057672408330463644
14	0x3fc21a4c14957478	0.1414275265223386
15	0x3f73b8aca90f8423	0.004814791159305751
16	0xbfb14a31b12d63ff	-0.06753836227052544
17	0x3fae8299bbf79faf	0.05959015292665925
18	0xbf9113ffbae63cd8	-0.01667785242312622
19	0xbfbf5a6aa102f6da	-0.1224733965964008
20	0x3fd077aa00cc80e6	0.2573037154961767
21	0x3fb7bf4cf495ed77	0.09276276561097584
22	0xbfc2a68beaac605d	-0.14570759733828967
23	0x3fb5d414cf1f301a	0.08526735359845397
24	0xbfc287f911d56a5d	-0.14477456446441553
25	0x3f9db676b6b7c19a	0.029016356374940246
26	0x3fbac9a8baf5f6cf	0.10463957371208753
27	0xbfa40d966f61c5c1	-0.0391661654438269
28	0x3fb03c30f7985589	0.06341844601441528
29	0xbf84cd05bb7bac79	-0.010156674179105917
30	0xbfb8ed1ce67a540b	-0.09736805560017119
31	0x3fc48b4e100d56bf	0.1605012491588038

rnn.weight_ih_l1 f8 [32, 32]
0	0xbfd3b564cf7e158e	-0.30794639838162474
1	0xbfbab778039d5808	-0.1043620117974059
2	0x3fb6c5609be0f9f4	0.08894923978457553
3	0x3f9258056d97ac9f	0.017913899244302752
4	0xbf7dc2336554c951	-0.0072652824067510205
5	0x3fb506d69b99a8f9	0.0821355943568597
6	0x3fd03db5e32603a9	0.25376650984258703
7	0x3fc171efcb3c87ae	0.1362895719876724
8	0x3f8919780afe2577	0.012255609355423342
9	0x3fb7d569d471a184	0.09310018002145709
10	0xbfc49a24bdce5142	-0.16095408695094632
11	0xbf9a13eca7b64bca	-0.02546663068421732
12	0xbfa4847e2eb3b93e	-0.040073340607579486
13	0xbfb1d9c66b46da8c	-0.06972923392354796
14	0xbfb2259094d12c7c	-0.07088569291333785
15	0xbfae6cf1f1dd0bee	-0.05942493512568335
16	0x3fc640e1e848157f	0.17385505525468756
17	0xbfcd11cfa89a2727	-0.22710605366256084
18	0x3fcf7953b3531aa3	0.24589010482869353
19	0x3fd793792dc7224e	0.36837605925078243
20	0xbfb82913861aaeff	-0.09437677406338806
21	0x3fc82b673294e6c1	0.18882455797011313
22	0xbfca9dbeb3e4a3b4	-0.20793899329990284
23	0xbfb3b4aed55fe1b6	-0.0769757529195719
24	0xbfc9ff773f2a8ce1	-0.2031086977413912
25	0x3fc611db2c067723	0.17241992616339372
26	0x3fa69e5d32e71096	0.04417697187776175
27	0x3fc21aa10c483046	0.14143765544611336
28	0x3f914e2c0ef28bdd	0.016899765407867185
29	0xbfb2b27e9a6f02fe	-0.07303611059525036
30	0xbf93bd9ea50c8820	-0.01927802927378519
31	0xbfb0d1cbda7b5ec0	-0.06570123752623669
32	0xbfa90f0cb3d2b858	-0.04894294448000441
33	0x3fb4bdf2ede547a9	0.08102339084623957
34	0x3fc9e8eab2a59d67	0.20242055628771569
35	0xbfc348b3c9157a1b	-0.15065619772481473
36	0x3fbc838f2ffdc108	0.11138243600521858
37	0xbfb63728b7842d40	-0.08677916031245037
38	0xbfc9b9e72b4b8355	-0.20098580945980396
39	0x3fbf8b2a157308fa	0.12321723006883536
40	0xbfdb2a2cc9f61c3e	-0.4244491550711621
41	0x3fb29a61698185c2	0.07266815973118582
42	0x3fbe602de517e974	0.11865507929898006
43	0x3fabd1335e57606c	0.05433044935824757
44	0xbfb0f5ee83cf837b	-0.06625261991531588
45	0x3fc3e157e92b4b13	0.15531443486414584
46	0xbfc08326a3ffb2dc	-0.12900240905528093
47	0x3fc83dfb832da9fa	0.18939155488199316
48	0x3fad6a2d9312f656	0.05745069904649529
49	0x3f8598d963049bc5	0.01054544289998017
50	0x3fb990f8e6a88a9d	0.0998683512812399
51	0xbfc9aa4075e6f268	-0.20050817257824183
52	0x3fe06779781ee08b	0.5126311632257211
53	0xbfd1dbfabf3f2802	-0.27905148197589835
54	0x3f82791dbe6fddf9	0.009020073293853225
55	0x3fb0e646c9a9e878	0.06601374076299915
56	0xbfc488711b8553ff	-0.16041387409009641
57	0xbfc0c6a907e8abec	-0.1310626305215402
58	0xbf93f4356a40a7aa	-0.01948626957906866
59	0xbfcf13171f5f7e22	-0.2427700904072348
60	0x3fd22d9c11a8f0ed	0.2840337917766778
61	0x3fc7ecbd564cacc3	0.18691221917956655
62	0xbfc513609ad13c4a	-0.16465385016860729
63	0xbfc6c7a2b2cbac66	-0.17796739320997118
64	0x3fbaaca3f91a336f	0.10419678527450825
65	0xbfc0a8b295746dea	-0.1301482419738556
66	0x3fcf0b9f2c90bda1	0.24254216838879208
67	0xbfb707ec9f7895b0	-0.089964665349348
68	0xbfd30dce182bf48d	-0.2977175937701951
69	0x3fd267af1037daf4	0.2875783594494543
70	0xbfd867d746bd504c	-0.38133794696955614
71	0xbfaeca5b769c7bc0	-0.06013761351481817
72	0xbfc4f45f710f09ff	-0.16370766659208866
73	0x3fcf4462df0494aa	0.24427448167367533
74	0x3fd3779a89f18bf2	0.304175028524866
75	0xbfa2d79fabce3eaa	-0.036801328394287694
76	0xbfd5708d9d8d3edf	-0.334994701251146
77	0x3f62eead472dd9bb	0.002311075624159301
78	0x3f972e5c0639dc61	0.022637784843450585
79	0x3fd71698d6c9dac4	0.360754213098897
80	0x3fac314b2831b50a	0.05506358018542741
81	0x3fcb0bcb74f0f07e	0.2112974473001294
82	0x3fd5d8011a88d2a6	0.34130885688072465
83	0xbfaba2750db71a7d	-0.05397382538244686
84	0x3fd54f17a4d8466f	0.3329524144947759
85	0xbfd8f754487f9af8	-0.39009577827384545
86	0xbfcb40221fb768f1	-0.21289469288496535
87	0xbfb5fe2377df2805	-0.08590909649424823
88	0x3fb8ec2cfaa74bf2	0.09735375518293646
89	0x3f833d4d2cc2e957	0.009394267014034936
90	0x3fd28bf5c170e55a	0.2897924794265997
91	0xbfd4706d7302f29b	-0.31936203223794174
92	0xbfd2b8f6d88f8e46	-0.2925393214083879
93	0xbf9f611a417b0a49	-0.03064385437643072
94	0xbfbfb51ca72c6206	-0.12385729867344972
95	0xbfd2555d5fff3520	-0.2864602506131906
96	0xbfcc71bdd6baec9a	-0.22222111687537877
97	0x3fd040421b16030a	0.25392201085200894
98	0xbfb1b94b72f54885	-0.06923362309069787
99	0xbfaf1c15e01825fb	-0.060761149983658634
100	0xbfba989520202548	-0.10389072450938841
101	0xbf43f0dbef76e20b	-0.0006085466292722897
102	0x3fc4ffe36ff1b3fa	0.16405909505866118
103	0x3fc57ffdaaa6b9bc	0.16796847183782215
104	0x3fa0cf368cd688f4	0.03283091038908195
105	0xbfdd5de894dc07af	-0.45885672127780713
106	0x3fd9766d4db5e453	0.39785320843617916
107	0xbfc7954bfa41b6bb	-0.18424367637219582
108	0x3fc66dd3c7dde526	0.17522666224594124
109	0x3fc847ecb0de75f6	0.18969496380024936
110	0xbfb0ad25b115d9bc	-0.06514201711056605
111	0x3fb2bac94dd142e1	0.07316263341750641
112	0xbfc6b22d718ef22c	-0.17731254620402248
113	0xbfca6b7300b91ca9	-0.20640409026439002
114	0x3fd82de2873b08c0	0.3778005905734396
115	0xbfceb703157d9d19	-0.2399600844321206
116	0x3fc8dbfdcf691572	0.19421360614266409
117	0xbfc504dd1c3380a5	-0.1642109286976893
118	0xbfc21b8367e3e84e	-0.14146463940397996
119	0x3fab7e54d4836d14	0.05369820684583196
120	0x3fb353d165efeb3b	0.0754977105970455
121	0x3fd39f61e420b2fe	0.3066029289064288
122	0xbfd063aab9ccd150	-0.25608318466699576
123	0x3fbe5f486538d9b9	0.11864140006296155
124	0xbfbaeeca150f5ccc	-0.10520613683853525
125	0x3fa55e6e5945c649	0.04173607673409358
126	0x3fd13b893e4a4d79	0.2692587955763979
127	0xbfd3c06450abcd97	-0.3086176669887321
128	0xbf708ba334631464	-0.004039418714630736
129	0x3fbab2412b9bb508	0.10428244890836791
130	0x3fd23898c6504745	0.2847043930679443
131	0xbfcb6a8a0aec6be1	-0.2141888192498689
132	0xbfb57fa21026fbda	-0.08397877592413697
133	0xbfa7412bf1f42cca	-0.045419095311524396
134	0x3fd4a3274c96f6df	0.3224581001230557
135	0x3fdc629c87fb6fb2	0.4435187652541074
136	0x3fa41fab250fdf88	0.039304111742182235
137	0x3fc2716a7e24fc26	0.14408618125341482
138	0xbf98c48d70849755	-0.02418728827719659
139	0x3fc0e36df909c8b0	0.13194060001439345
140	0x3fc75f0229904dae	0.1825869276950533
141	0x3fb1f1be5316a6c3	0.07009496239211459
142	0x3f9af9f7c2f995c5	0.02634417655499079
143	0xbfc0709334b95cf0	-0.1284355170671243
144	0x3f8b432cd187b472	0.013311720032073125
145	0x3fb0aa9284693bf4	0.06510272724811711
146	0x3fd343a359fbffb1	0.30100330150161897
147	0x3fb3ea723da8e6be	0.07779611592641353
148	0x3fa0461809d56c34	0.031784774017716094
149	0xbfc1ba5b27e45a66	-0.13849963615276123
150	0xbfcff72e3918dd66	-0.2497308520121166
151	0xbfc4d4bd5082577d	-0.16274229460821835
152	0xbfb2bd4b910e99b3	-0.07320091525489296
153	0xbfc3f82d4529b271	-0.15601125599950508
154	0xbfd90eca1295a13b	-0.3915276700486349
155	0x3fb7d93e88dcc589	0.09315863458029673
156	0x3fcaab2fa9950706	0.20834918766382077
157	0xbf4a813e92887344	-0.0008088641671438542
158	0xbfd31982813b44dd	-0.2984319936777647
159	0x3fb611b06ff4258e	0.08620741589779454
160	0x3fcda7622fa1c3ec	0.23167064023758088
161	0x3fba2edd218053e7	0.102277584723495
162	0x3f8dd865417af54e	0.0145728979690555
163	0xbfb13063cff9f18c	-0.06714462115809833
164	0xbfc4f10dea0b9b1a	-0.16360639503474134
165	0xbfcf9cd50472b5f1	-0.24697363583747703
166	0xbfd3de79a44736aa	-0.31045380633154684
167	0xbfcf73fc39545310	-0.24572708892142048
168	0x3fcdbff59fdf2c3c	0.23242063814390856
169	0xbfd0657b8b2db601	-0.25619400588661284
170	0x3fb885c5cc206853	0.09579120858725902
171	0x3fd391c06e52fab2	0.30577097677079756
172	0x3fa7a82c346dc514	0.046204930686949336
173	0x3fc6675978ae6849	0.17502897637024464
174	0x3f8bbabf2ba22fbb	0.013539784926500311
175	0x3f815dba613ea61f	0.008479553311036501
176	0x3fb0dd2d85b4ff84	0.06587490572291982
177	0xbfb7de8d64a94e29	-0.09323962886383498
178	0xbfb2405cf1f8b450	-0.07129460246569974
179	0xbfaab10270231a3b	-0.05213172549115482
180	0x3fc66a44fc022bc7	0.1751180868635329
181	0xbfb991ec1082c742	-0.09988284495446201
182	0xbfc2a927c5b35e65	-0.1457872119269609
183	0x3f8a024463cd2588	0.0126996367413479
184	0x3f9fda99ddad2d16	0.03110733428483766
185	0x3fcb066b6f0c12c0	0.21113341257309592
186	0x3fd0d9d133f708a5	0.26329450678543714
187	0xbf97dd8f5293b0d9	-0.023306121268363043
188	0xbfcb191515a64d00	-0.21170295292959196
189	0xbfa965b87791be01	-0.049604191394674764
190	0x3fcd5d9447513214	0.22941831095012388
191	0x3f8b6d734ca90789	0.013392353798852745
192	0xbfaa177b0b9882a2	-0.050960393109794624
193	0x3fc69a0f7791ce47	0.1765765508495056
194	0xbfab4e6487e6b930	-0.053332463826665566
195	0x3f6b4873f292b4ae	0.0033304466820341582
196	0x3fb0e50b5c484f50	0.06599493983258964
197	0xbfc15da3de0196af	-0.13567016925951722
198	0x3fd03fe6f67446f5	0.2539002806453106
199	0xbfc3cc89ece89d6f	-0.15467952792935644
200	0xbfb0da085bf6efe5	-0.06582691426495975
201	0xbfc4d970073d219e	-0.16288566926438092
202	0xbfbb24b4383645eb	-0.10602880833018673
203	0xbfc1b057153cf375	-0.13819397484794718
204	0x3f9c0e66c754bbc8	0.027398687282751216
205	0x3fb2ec6228b9405d	0.07391942495564892
206	0xbfcc37c2bad65608	-0.2204516804019223
207	0x3f90bd7d60173e89	0.01634784602157294
208	0x3fa9a7f65ab13fe4	0.05010957581600886
209	0xbfbf705f71077291	-0.12280842313288988
210	0x3fc2669eb8d5a39c	0.14375671410678315
211	0x3fa1f91021b405d9	0.035103324999009984
212	0xbfb29a1598706c17	-0.07266364070567054
213	0x3fa192f00f78a559	0.03432417096002877
214	0x3fcaa0a7ea38aa30	0.20802782951916887
215	0x3fc548e639bc23d6	0.1662872106465147
216	0x3fd2760c979ea777	0.28845515066733846
217	0x3fb089f38c802877	0.06460497074309211
218	0xbf9ef36b7b2ba594	-0.03022544802926104
219	0x3fcb976419e137d7	0.21555758727703164
220	0x3fc178c1dcd45b58	0.1364977195996413
221	0xbfb43d36b6c860d1	-0.07905904734105042
222	0xbfd157c1d1ac7427	-0.2709812686533177
223	0xbf73644a6980d860	-0.004734316513397813
224	0x3fc96eb4b27bb88d	0.1986909743786253
225	0x3fae22b8c6511d1e	0.058858656128501816
226	0x3fb3e012576eef3f	0.07763781199076634
227	0xbfb29578cd74836c	-0.07259325996393579
228	0x3f9f5157ef78725a	0.030583738318556854
229	0xbfaf29f98c0237aa	-0.060867117253209216
230	0xbfd41bbde7884b02	-0.314193225961546
231	0x3fa9bd12f953d102	0.050270646033739666
232	0xbf9916ac07c8322d	-0.02450054929254202
233	0x3fc53e3681da41ce	0.16596108761269907
234	0x3fd1a97921e01b24	0.2759688216032592
235	0x3fdcd555af55b8ca	0.4505209171537784
236	0x3fd0ac216e83c9c2	0.26050601761303593
237	0x3fd17826d14d010d	0.27295847358256325
238	0x3fd0e1aee0f3bfe6	0.2637746044920263
239	0x3fbc7c6c32710917	0.11127353888972312
240	0xbfabadc71f7bbc0f	-0.05406019458120436
241	0x3fc434a24bb62f5a	0.1578562612233963
242	0xbfd051b065610405	-0.254985903742693
243	0xbfc7f6c4748a8ade	-0.18721824350821853
244	0x3fc5557a4d450e1e	0.1666710736554799
245	0x3fb92e4415737dc4	0.09836221240720194
246	0x3fc44797e2804e45	0.15843485412243488
247	0xbfb009011ff5173b	-0.06263739614686596
248	0xbf89c814e288b511	-0.012588656581181941
249	0x3fa8485706c27df6	0.0474269099952344
250	0xbfc010cc01062c07	-0.12551260042195642
251	0xbfb7d9b33254ed6b	-0.09316558817675051
252	0x3fb237c3de743709	0.0711634080982685
253	0x3fa08322945f568d	0.032250481235377305
254	0x3fc3fa588994a9f3	0.15607744901474482
255	0xbfc6726b143d4d89	-0.17536676872496695

rnn.weight_hh_l1 f8 [32, 32]
0	0x3fc6dadd2874ac27	0.1785541961229182
1	0x3fcaaf8328a9ce37	0.2084812115241321
2	0x3f87bc8ea9f4812e	0.011590113221757816
3	0xbfd6b9cf28bc97f8	-0.35509089449112663
4	0xbfe08b783d940ae0	-0.5170251085949893
5	0xbfc22e240b41b567	-0.14203310536997124
6	0xbfc47bbb7278808e	-0.1600260075510999
7	0x3fc3add6e1c0bdf3	0.15374265692797415
8	0xbfb248f1a99159de	-0.07142553701246565
9	0x3fda4683705aa912	0.4105537984093114
10	0xbfbc2bd8c193239a	-0.11004404760309541
11	0x3fbfc3e889459b6d	0.12408307410588089
12	0xbfca41609debab03	-0.2051201602074216
13	0xbfb2bc9aa8a531d7	-0.07319037072483724
14	0xbfc1cc69612a2010	-0.13905064815867307
15	0x3fbf3f6bda42bcc6	0.12206148222570609
16	0xbf81f0ef13d66f8c	-0.008760326187988964
17	0x3fd0cafe74a80322	0.2623897685262354
18	0x3fccb137985ef4c4	0.22415823879229013
19	0xbfbc3dede06318c1	-0.11031996467781637
20	0x3fc03d6e1607689b	0.1268746955455001
21	0x3fc351acd34cf57f	0.1509300262204469
22	0x3fcb3a071209a4b0	0.2127083623957211
23	0xbfc556ab4ae88c0b	-0.16670743138919905
24	0xbfc5b209260ae041	-0.1694957195047682
25	0x3fc1b27e8f45598b	0.138259715992444
26	0x3fa1d16df4ddac6e	0.034800945416315496
27	0x3fb6664e073c51fd	0.08749854733134295
28	0x3f99eb5b523dc42f	0.02531187715016275
29	0x3fd7e4e772095e80	0.3733461965216307
30	0xbfa0d5d7925cdc6f	-0.032881485573334916
31	0x3fc3d458755026dc	0.15491777160814635
32	0xbfc2a76bedb3ffb0	-0.1457343016299979
33	0x3fc2f84e0a01f1fa	0.14820266235973617
34	0xbfbe8f2d86b19877	-0.11937222040578087
35	0xbf441f51647dc434	-0.0006140849518329107
36	0x3fd665f90d5ad8ab	0.3499739294451369
37	0xbfbba3700e86df85	-0.10796261171969775
38	0xbf87c76a6db90eae	-0.011610824082829065
39	0x3fd31b08c591d68d	0.2985250405684859
40	0x3fd847ff39a1bd2d	0.3793943465052106
41	0xbfd23b24bda1026a	-0.28485983389331315
42	0x3fbd0d2fed7af911	0.1134824709688227
43	0x3fbe1495a992d4d7	0.1175015963552427
44	0x3fdacfd1770bd641	0.4189342176972311
45	0xbfd2e283907b5341	-0.29507531270546755
46	0x3fad65ba4bbbef43	0.05741674589623227
47	0xbfdffc39ae893352	-0.4997696117832692
48	0xbfb6d6b2462b0a14	-0.08921350682343415
49	0x3fc6d1748b2d3f53	0.1782670669149363
50	0x3fafa6b753c1364f	0.06181881806751887
51	0x3fb77eb2205d6cc7	0.09177697458419508
52	0x3fc082f022959b31	0.12899591149035808
53	0x3fc1ff82902370e2	0.14061004674920868
54	0xbfd3f0868e36dab4	-0.311555518036964
55	0x3fc3642d73cbf34e	0.15149467615256146
56	0x3fbe4458418ee8cc	0.11823035812895738
57	0x3fbe6a32880341a3	0.11880794354079298
58	0xbf9f447b570b7487	-0.03053467482356045
59	0x3fd5aa0bf2a7a2ed	0.33850382515679095
60	0x3f80274d7687c588	0.007887463741073089
61	0x3fb8f287fdd57388	0.09745073268045534
62	0x3fc74b57b52884ab	0.18198677392596116
63	0x3fbed55f1714a4e6	0.1204432898854467
64	0xbfc2e95d2e116e80	-0.1477467036191804
65	0xbfd7454c18720a5c	-0.3636045683598803
66	0xbfb2c13f3bb3e95a	-0.07326121528231991
67	0xbfc895ebb03e5825	-0.19207521539345965
68	0x3fdd84615411b9a6	0.461204845522753
69	0xbfd2e2f5492e28ce	-0.2951024260188547
70	0x3fd1d2c3f8a77057	0.2784891060125622
71	0x3f9461326a896032	0.019902026894073006
72	0x3fd8b1e163d15123	0.38585695979897333
73	0xbfa580a2cda8087b	-0.0419970394177804
74	0x3f51c10361f0a418	0.0010836155922879839
75	0x3f9dbdf8a426f9d3	0.029044995326097677
76	0xbfd033c2c48e1d68	-0.2531592292293312
77	0x3fb4639a29ef224e	0.07964480899603041
78	0xbfbdde20d6b4bf9a	-0.1166706585106553
79	0x3fc2b7e8d378ab23	0.14623747182607713
80	0xbfbcd78a0a659d37	-0.11266386751014044
81	0x3fb35c8d700fcbd2	0.07563098894006196
82	0xbfc6939fb04b107e	-0.17638012035434153
83	0x3fc509d11d88d23e	0.16436208669769486
84	0xbfc64b07dcc20e3c	-0.17416475562287015
85	0xbfcdb19017b6a44a	-0.23198128850825334
86	0xbfd50672ba77890e	-0.3285185643163836
87	0x3fd88318e12ec31e	0.38300153723234753
88	0x3fd1345fda4649d0	0.26882168117404337
89	0x3f9dbd172d8690fc	0.02904163565985217
90	0xbfd3d5a2c474eb41	-0.3099142950556378
91	0xbfd222b9dee10722	-0.28336951032189195
92	0xbf937c92d4f6777e	-0.01902989792653597
93	0xbf8a3829ef6cb63f	-0.012802436465416565
94	0x3fdace7234d4591a	0.4188504711068092
95	0x3fa35dc090b7d269	0.03782464758470356
96	0xbfc7c11b493729bc	-0.1855806453225578
97	0xbf6b1e37ad407c26	-0.0033103072583027414
98	0x3fbd2482fac7b3c0	0.11383837339935976
99	0xbfaf69fb02889151	-0.06135544210363498
100	0xbfccb3e378e7a0e9	-0.2242397632937874
101	0x3fd04a420971b5bf	0.25453234598429825
102	0x3fb362eb2dec24ed	0.07572812911179812
103	0xbfae2fbd00eed01b	-0.058957964290499563
104	0x3fa2ba9d7d47dc16	0.03658001093202061
105	0x3fc13f1621557e8a	0.1347377455485808
106	0x3fa79dff101cd1f5	0.046127291409366146
107	0xbfd0af71794af911	-0.2607082066059699
108	0x3fd0a68c35af6c22	0.2601652645368536
109	0xbfccb941b41ec5b0	-0.22440358443195185
110	0xbfcab653b0241800	-0.20868917561182343
111	0x3fdb4dd20aa2cba2	0.42662478483833344
112	0x3fc74bbb85c3d484	0.18199867278568516
113	0xbfb5b7e7c3db45a4	-0.08483742267278288
114	0xbfd3b7b029b471f8	-0.3080864341043532
115	0x3fd292732918e457	0.29018858922387863
116	0xbf713f78e06deb71	-0.0042109224076466315
117	0x3fc42757f6d4be56	0.15745067169472077
118	0xbfd4ffb6b07c2f7f	-0.32810752138970395
119	0xbfc0fd9b3730fb63	-0.13273945040597387
120	0x3fb2bdddb1ba8827	0.07320962513998151
121	0xbfc78be0dd69e246	-0.18395624934398053
122	0x3f70013c82fdf49d	0.003907429097918994
123	0x3fd846803265f084	0.3793030254526075
124	0xbf9f4c4bb81ed12e	-0.030564482796493646
125	0x3fcd815012d15522	0.23050881308396592
126	0xbfd745a0e5a0a820	-0.36362478661124165
127	0xbfc2577b379c7104	-0.14329471793542592
128	0xbf5d58432a2ad7e5	-0.001791062918227387
129	0x3fc0ea48addf376b	0.13214977731552877
130	0x3fbdade74ff0f2a4	0.11593480779351722
131	0x3fd227d1300bc4a5	0.28368024532307806
132	0x3fc7db1ba1309ab6	0.1863741433200709
133	0x3fb8dbe5d39dd4ce	0.09710537353915358
134	0x3fd85d8173cfa83a	0.38070713338550244
135	0x3fb6ebfb2b9c1374	0.08953828634919409
136	0xbfe186850f47996b	-0.5476708696776716
137	0xbfb7548c0f26d794	-0.0911338364593049
138	0xbfc751b523396e14	-0.1821810171121433
139	0x3fbca27c39bef362	0.1118543282490925
140	0xbfbe2fe0d1568ba2	-0.11791806326668433
141	0xbfcfa9f4ce95f8d3	-0.247374153968798
142	0xbfa72e708588ffd1	-0.045276180554082786
143	0x3fd1bfa9008f210f	0.2773230081043189
144	0x3fcc2906c3641af8	0.2200020269449039
145	0xbfa8a678d1251a95	-0.048145080118549156
146	0xbfd5f7da34a2de95	-0.34325270786528367
147	0x3fc931882f8ace98	0.19682409593007288
148	0xbfb9df8ee399f23f	-0.10106747681306504
149	0x3fc7b71b145f2ff3	0.1852754449340633
150	0xbfc9452a693a0251	-0.19742326868073914
151	0xbfc0c862d1d098ff	-0.13111529583802192
152	0x3fc9c54590a5cae3	0.20133275568840422
153	0xbfbe757b03396a2e	-0.11898011044233023
154	0xbfcf17c003f4a4e4	-0.24291229432245764
155	0x3fd4e515453a5846	0.326482122044926
156	0xbfc53a8647911365	-0.16584852690189247
157	0x3fd75c0673bb1be2	0.36499177266926897
158	0xbfd4bdca7f4062d7	-0.32408392359643073
159	0xbfd1bf0eb1e77801	-0.2772862183900316
160	0xbfb2f0271b01ff37	-0.07397694024438982
161	0xbfc38357262eca71	-0.15244569172280678
162	0xbfcc6e9277098de6	-0.22212439358109676
163	0xbfca91c64b96c102	-0.20757368746627242
164	0xbfd04bbda0c8b2ca	-0.25462284757194864
165	0xbf92f812212876c5	-0.018524440072829735
166	0xbfb959a6bd0aac2d	-0.0990242206122935
167	0x3fbec46a9a3e3309	0.1201845766610853
168	0x3fdce7c8459f9631	0.45164686965140094
169	0x3fb07adad9ba39fb	0.06437461677180771
170	0x3f80690a5ddceedb	0.008012848844024692
171	0x3f454c6944d9a125	0.0006499780663036565
172	0xbf58f4c01a0ce8ba	-0.0015231967920060056
173	0xbfe644ff8b2148aa	-0.6959226338751894
174	0xbfaed71217b6391c	-0.060234609026439595
175	0x3fb1157c40a57f6b	0.06673409059794515
176	0x3fc9fa630d809849	0.20295370253842496
177	0x3fd79b192803ff50	0.36884144695067267
178	0x3fa15e946acd70ee	0.0339247112630988
179	0xbfa0aca4fdd31632	-0.03256717298931412
180	0x3fc98fb0e85e279e	0.1996976027115211
181	0x3fc57017846a0576	0.16748327222380127
182	0xbfbf3b0a61a9f953	-0.12199463734029807
183	0xbfa50373dd7fd0c9	-0.04104196623657825
184	0xbfaf79a2a3d69220	-0.06147487878778102
185	0x3fbddb2b3bbdd390	0.11662550171406694
186	0xbfc508442365f752	-0.16431476334030976
187	0x3fd0ee7ebcafaf3a	0.26455658365624724
188	0x3fb5c303a9a8dcd5	0.08500693218308027
189	0x3fda8197593d81d8	0.4141596194731654
190	0x3fd36f5f5c2d0034	0.30367263795415345
191	0x3fa9866ae6ebf028	0.04985364979617685
192	0x3fb428b4ce846d27	0.07874612848211325
193	0xbfc02542f818b648	-0.12613713373268554
194	0xbfca30d187b4b276	-0.20461482168447603
195	0xbfb8138ef3fdd1e9	-0.09404843766043992
196	0xbfd41f9ebaa2d668	-0.3144299337976464
197	0x3fd7f9ac02af4138	0.3746137644020737
198	0xbfa96609d43c557a	-0.049606616170573894
199	0xbfc14383334d43d1	-0.13487281804057585
200	0xbfe26dc8f3d71fcb	-0.5759014856821464
201	0x3fc01799c574bdf6	0.1257202352658024
202	0xbfa9ef18460db792	-0.050652273704016385
203	0xbf8cf588612a6ebb	-0.01414019152189582
204	0x3fd5319ca13b6ab5	0.3311530661136815
205	0xbfd918f27c756ad3	-0.3921476569573034
206	0xbf96804cb53e4aa0	-0.021973799288000806
207	0x3fc33e7c45fa38b5	0.1503444043814334
208	0xbf90b9a6ed04abac	-0.01633320638317641
209	0x3fb93679865602b8	0.09848746804892528
210	0x3f8060b68066deaf	0.007996965211403887
211	0x3fd0b17958d5b673	0.2608321540381901
212	0x3fe38e99553e8770	0.6111570992400015
213	0x3fc0887b96594ce8	0.12916512337924435
214	0xbfc9330895f46b54	-0.19686991998681924
215	0x3fcee6113b42d4dc	0.24139609712225407
216	0xbfcd340f67801aa9	-0.22815125039797593
217	0xbfd49f21aacf3c8e	-0.3222126167356202
218	0x3fb1b5b851f937e9	0.06917907716089612
219	0x3fcca3157d0c8e67	0.22372692685995618
220	0x3fcdce0672eb92e3	0.23284988986338026
221	0x3fbd8ad8079baefb	0.11539983926530432
222	0xbfa01c56640411d9	-0.03146619768998322
223	0x3fd5a3d85ed20418	0.3381253171901917
224	0xbfcb789fed3395bf	-0.21461867410759614
225	0x3fcc48de7c1bcdb0	0.2209737878798541
226	0x3fba2e7aca13de11	0.10227172311339695
227	0x3fd6bff47597e573	0.3554659984943875
228	0x3fd2b2b40287473f	0.29215717551152304
229	0xbfc61194291c82c8	-0.17241146094695226
230	0x3fdcc39e84e5bb43	0.4494396493745862
231	0xbf6624609b604978	-0.0027028929571397096
232	0xbfadfa855bb4fc2b	-0.05855194801778681
233	0x3fb210744831d583	0.07056357157292407
234	0xbfba503c4b6d31b4	-0.1027867969652963
235	0x3fc3cc7ed0629791	0.15467820334486906
236	0xbfbf1b65efe4ef60	-0.12151181322854887
237	0xbfda8998e71e20c2	-0.41464827127539305
238	0xbfc4f4ca764ab65d	-0.16372042442292215
239	0xbfd248f801a45a3c	-0.2857036605868506
240	0xbfd7a24aea66c03b	-0.3692805565906416
241	0xbfc91a964542c769	-0.19612387067678164
242	0xbfcd628fac691e47	-0.2295703498696062
243	0x3fb5fcc3a30f86f8	0.08588812571499804
244	0xbfa3daf516536041	-0.03877988717584958
245	0xbfc41938dc9b9e0c	-0.1570197179018894
246	0xbfa23f054c37a171	-0.03563705973994303
247	0x3fc4d4e1b038b3f4	0.16274663071217754
248	0xbfc0e0cb93085e5a	-0.13186020545321037
249	0x3fd0400af422fe54	0.2539088615558047
250	0xbf6874f4322f82e8	-0.0029854554609162094
251	0x3fb690b5ce648377	0.08814560212023347
252	0xbfcff342c3c81e42	-0.24961123046544925
253	0x3fc202aadc75d156	0.14070640339526602
254	0x3fd3a230cf7d0cac	0.30677433264299725
255	0xbf99cf41ab852e77	-0.02520468339325396

rnn.bias_ih_l1 f8 [32]
0	0x3fb411a0cde715e4	0.07839398409767956
1	0x3fc69917186ca4e2	0.17654694264027798
2	0x3fc57c55f65286bd	0.167856927179903
3	0xbf81bd7e7cab2b64	-0.00866221254309147
4	0x3fd1cbe775272dd2	0.278070320517796
5	0xbfb3a59ecd2a7ce1	-0.0767459154981114
6	0x3fd0483a7b582097	0.25440847440086983
7	0x3f86945a76c125d1	0.01102514910612032
8	0x3fa347f04d4903cb	0.03765822356627487
9	0xbfcf26bfc602420c	-0.24337002914809636
10	0x3fcd302d169de181	0.22803271869976174
11	0xbfc09b8c798ea229	-0.1297469705143766
12	0xbfb9e74125832175	-0.10118491330934438
13	0xbf793ab75ab525ea	-0.006159511783445629
14	0x3fa6b162725c9c19	0.044322086773085974
15	0xbfc046e5d25a9d82	-0.12716362734975567
16	0xbfca6d2a787b8e1b	-0.20645647890988603
17	0xbf9b605c4b023f5d	-0.026734773710415428
18	0x3fc49317403c98dd	0.16073885571058258
19	0x3fc9cc4874547033	0.20154672317664932
20	0xbfad99fae71aaa35	-0.057815399847943295
21	0x3fc7d5e930215f0d	0.18621554231753415
22	0x3fc096eba0c7f58b	0.12960572577132398
23	0x3facd18b7ebd56f5	0.056286200734275406
24	0xbfb8df5c5ea25698	-0.09715821562198312
25	0xbfd384bdef1aafab	-0.30497692441962937
26	0xbf9da1fb0c121acd	-0.028938219653833742
27	0x3fb6bb9d71b112fb	0.08880027795482796
28	0x3fc8127fbb49a17e	0.18806454319861737
29	0x3f9d4ab88c3cdce8	0.02860535007422707
30	0x3fc3b29eea49a8c5	0.15388857307272566
31	0x3fb3bcadb4134f2f	0.07709775587437372

rnn.bias_hh_l1 f8 [32]
0	0xbf615106431d442a	-0.002113830786506306
1	0xbfa8acf81e4d6c87	-0.04819465036299513
2	0x3fc1b90f365286b5	0.13846006538829206
3	0xbf82eae87cab2b6a	-0.009237114243111317
4	0x3fcf656daa4e5b76	0.24528284850813592
5	0xbfc68ec4c6953e68	-0.17623195358690968
6	0x3fb2a7f46d60824c	0.07287528677307725
7	0x3fd1f44263b60929	0.2805334066143979
8	0x3fbe7aa466a481d9	0.11905887132571226
9	0xbfb574b66c0483d3	-0.08381214272641495
10	0x3faceb985a7785dc	0.05648494819957836
11	0x3fab7f5d99c57789	0.05370609762279261
12	0x3faff93574f9bceb	0.062448187379112806
13	0x3fa37a8654a95b39	0.03804416449991383
14	0xbfc4545f4368d90a	-0.15882483283503063
15	0xbf94f93012d4ec58	-0.02048182597102896
16	0xbfd2aceb943dc708	-0.291804213301575
17	0xbfac0072e5811fd5	-0.05469092418257985
18	0xbfbfee6bff86ce48	-0.12473177898828525
19	0x3fc14e5c74547033	0.13520389251869033
20	0xbfa2d8b4e71aaa40	-0.03680959054084498
21	0x3fc20b0530215f0d	0.14096131181826657
22	0x3fcc0a5160c7f582	0.21906487680091052
23	0x3fd2af743fd7aae6	0.29195886835684204
24	0xbfb905c77ea25693	-0.09774443475392962
25	0xbfbbf2413c6abf0a	-0.10916526532195917
26	0x3fb8fed7dcfb7970	0.09763859887195792
27	0xbfbb7e59ee4eecfe	-0.10739671772073575
28	0xbfc0e6b4e4b65e82	-0.13204060714337024
29	0x3fb51941e30f3741	0.08241664689486773
30	0x3fcd2b090a49a8d5	0.22787583353357968
31	0xbfa243c057d961a7	-0.03567315170647883
