results/Genotyping_Perceptron_Long/models/checkpoints/4/Genotyping_Perceptron_Long-4-600.pt (torch_old, 26540 bytes, 2 tensors)

out.weight f8 [4, 810]
000000 89 20 35 dd ef 6c de bf a4 1e d3 86 ac 43 df 3f
       -0.4753989849309695 0.4885054890296294
000010 66 38 7b 0e 53 5b c3 bf 4d bb a0 78 5a 60 b9 3f
       -0.15122450072380217 0.0991264862538916
000020 41 73 76 c4 14 a3 04 40 b1 6a 49 3c 69 62 a5 bf
       2.579629454483808 -0.041766441926218596
000030 8d 63 9b b9 64 b1 d0 3f 62 dc cb 7c fc 86 a1 3f
       0.2608272373741379 0.034232988580634297
000040 55 8b 2f 87 c4 19 c9 bf 66 05 21 01 d3 87 fe bf
       -0.19609886742463326 -1.908160213861572
000050 3a 29 aa fc 50 38 e5 3f 0e c6 da f1 0a a7 dd bf
       0.6631245550973184 -0.4633204805241754
000060 36 9b d6 27 65 b7 df bf 18 ed 57 af bc 07 cc 3f
       -0.4955685509725528 0.21898611604397256
000070 b8 96 82 99 5a 91 00 40 56 ef 08 76 e7 ed 98 bf
       2.070973586366417 -0.024345032290724454
000080 fd ea f0 52 7e 49 e2 3f 26 ae b1 f9 44 9f d7 bf
       0.5714713687842444 -0.36909603485284703
000090 f4 3b 13 fc 3f dc b2 bf 3a ac 84 36 1a 2b 0a c0
       -0.07367324737718645 -3.271046091007091
0000a0 3d 88 02 23 16 c9 c6 3f 81 d3 dd f7 7b 18 d0 3f
       0.17801167211024618 0.2514944000789044
0000b0 b3 3c 87 bb 67 10 59 bf bd e9 d1 11 bd fb dd bf
       -0.0015297902119646822 -0.46848990192634316
0000c0 af 38 7b e0 48 aa 08 c0 0c 89 d2 71 44 21 ee 3f
       -3.0831468141178315 0.9415609572500059
0000d0 73 c9 50 7b 7e ca d6 3f 41 bd c0 00 08 62 79 bf
       0.35610925715004454 -0.006197005521286159
0000e0 b1 10 54 81 98 6a f2 bf 4d 2c c0 ed c7 82 0b c0
       -1.151024346531852 -3.438857896258503
0000f0 65 43 23 5a a2 1b b6 bf ce cb 83 38 85 bf d1 3f
       -0.08635916424397079 0.27731447714830615
000100 0b 70 3f 2c fa e2 c4 bf 11 cd 54 15 f5 39 98 bf
       -0.16317679558312678 -0.02365858977027552
000110 bc 6a 89 1d e5 c2 01 c0 13 bd e4 d3 70 00 cc bf
       -2.2201635654031104 -0.21876345011103435
000120 6f 5c 7a 0d a5 fe b4 3f 1e 99 64 6d 0c 5a c0 bf
       0.08201057032634805 -0.12774806348279183
000130 c2 b6 55 aa fd 36 cb 3f e9 e5 0e bc 7c 48 13 40
       0.21261568848733786 4.820788324746425
000140 4f 16 1f bc 58 1d d3 3f c2 60 97 ba 4f 1c d5 bf
       0.29866617556794933 -0.3298529932194577
000150 7d 14 9a d5 09 36 ed bf c0 46 d8 68 c1 44 ea 3f
       -0.9128464862739204 0.8208930061102464
000160 b7 08 b3 33 fd 18 f7 3f ca 96 c8 46 78 26 e1 3f
       1.4436008471971442 0.535946024178622
000170 88 3b eb c4 1d 85 cd bf 85 90 cb 91 f2 cf a2 3f
       -0.2306248866575198 0.03674276380277867
000180 cd 54 fc 89 19 8b d3 bf 80 4c d2 9f ec b7 0c c0
       -0.305364975692396 -3.58980679379016
000190 25 5d 3e 0c b6 1f c0 bf 9d 0a 61 5a 89 33 9b bf
       -0.12596774671394786 -0.026563783780384587
0001a0 4a 98 f9 7a 23 25 c3 3f f5 c6 9d df 30 3c a8 bf
       0.14957087998044677 -0.04733422021571513
0001b0 70 0a 73 24 3a 97 06 c0 9e 9a b9 53 e5 d1 da bf
       -2.8238413665397317 -0.4190610234858613
0001c0 dc 8e a8 dd f1 7e dc bf 07 39 57 24 f8 df e2 3f
       -0.44524809500056306 0.5898400029925889
0001d0 15 87 f4 80 20 28 bb 3f d9 04 2d 97 61 f7 08 c0
       0.10608103893585182 -3.1207916079152764
0001e0 fc ea 2c 35 16 7f f0 bf c9 0b e1 76 fc 6e b6 3f
       -1.0310270383039883 0.08763101484605253
0001f0 fa dc e5 26 d5 81 e4 3f 94 b4 4f 55 c7 59 d4 3f
       0.6408487090801878 0.31797965365587655
000200 e6 34 e6 b1 ba 19 12 c0 57 73 87 53 07 44 db bf
       -4.525126247096727 -0.4260271373475936
000210 00 ee 86 c7 14 2b e0 3f 70 be d4 8d a1 19 ca 3f
       0.5052589318287914 0.20390719819396308
000220 d2 5f 20 16 ae 8c d3 bf d0 46 31 03 50 3b fe bf
       -0.3054614273146373 -1.8894806027132525
000230 7c fd ca 94 b6 2c 9c 3f b1 81 c7 26 12 d1 de bf
       0.027514317351913217 -0.48151067530673247
000240 f5 01 54 12 17 10 c8 3f 9c 40 b2 23 c2 5e cb 3f
       0.18799103159837185 0.2138292955683071
000250 61 c2 24 82 16 e3 0e 40 91 9f 66 53 8f 14 a9 bf
       3.8608827750652357 -0.04898498433186583
000260 fd 5f ce d6 0e 8a b2 bf d2 7f 1b 30 ff 71 d0 bf
       -0.07241909736910652 -0.25695781419744634
000270 67 e1 11 1c ff 41 db 3f 00 03 ef e2 e8 50 0a c0
       0.4259031080360018 -3.289506695670184
000280 be 97 e4 c5 c9 47 cd bf e1 69 91 2b e5 8f dd 3f
       -0.22875330126515608 0.4619076657742465
000290 9e cf e0 74 41 ca d6 bf c1 3f da de ac 3d b6 3f
       -0.3560947076214179 0.0868785900186131
0002a0 32 69 e2 56 29 e5 0c 40 b4 d3 76 5e ff 14 af 3f
       3.6118952548833017 0.06070707347991036
0002b0 cf f3 d2 9b 05 ed a2 3f ae f8 04 95 44 b0 dd 3f
       0.036964583655823106 0.4638835387485284
0002c0 81 47 73 c1 bf 8e e1 bf 64 60 15 b6 58 03 07 40
       -0.548675420601498 2.876634047057495
0002d0 4b 66 f1 c0 be 1c ba bf fe ee c5 cd a9 9a d8 3f
       -0.10200111589929255 0.38443989844357407
0002e0 9e d6 f2 ba 4f 26 d4 bf f0 d1 df 97 7c 84 bf bf
       -0.31483834511468867 -0.1231153364931925
0002f0 e3 e4 7f db 53 c1 0a 40 ec c4 fa 06 93 fd b2 3f
       3.344398226585882 0.07418173714065163
000300 46 ce fa 49 60 09 ea bf 21 a0 a5 ef e1 f5 d1 3f
       -0.8136445469776354 0.28063248065018526
000310 8d 0a 1b 9d b3 7f d5 3f ca ea 25 4a 64 e5 c8 bf
       0.33591928808542876 -0.19450048084748622
000320 7f 4a 5d 68 5c 58 a6 3f 8d 77 f6 ba 6f 44 ec 3f
       0.04364289068202697 0.8833540584198417
000330 26 4b a5 3e 73 9b e4 bf 93 c9 e3 35 e9 1e c9 bf
       -0.6439758513973615 -0.19625582820260642
000340 21 26 43 c8 0a 3b 04 c0 82 8f 4f 0c 9b 17 e3 bf
       -2.528829159306739 -0.5966315498776427
000350 8d 23 18 e3 fe e6 b4 bf 88 51 75 77 f5 f4 d4 3f
       -0.08164971393865823 0.3274511019310684
000360 47 ec c8 3e 2d 59 d4 3f 21 39 9e 41 6d 73 0e 40
       0.31794291621526266 3.8063607336436154
000370 ef ad 31 33 30 e5 af bf 4a c8 8e c3 4e 8f e3 bf
       -0.06229544281890386 -0.6112436122405225
000380 1b 50 52 ee 78 02 cf 3f 67 9c a1 55 e7 3f df 3f
       0.2422629512481088 0.4882753692858785
000390 60 14 a4 41 94 bc 0b c0 9b 6b 05 b6 47 c8 e1 3f
       -3.4670796516607396 0.5556982569790877
0003a0 b3 56 1a 73 06 13 e5 bf 21 a3 05 be 2c 0d c8 3f
       -0.6585724113562804 0.18790206221026387
0003b0 c6 42 3a d5 8f 72 c4 bf ad 6d c2 2b ab c1 f4 3f
       -0.1597461501264858 1.2972823819498942
0003c0 09 12 80 dc aa 0a c2 bf 13 43 af 59 7e c8 e5 3f
       -0.14095054403891563 0.6807243110325508
0003d0 d7 4c f8 cd 17 be e0 bf c6 fd 3b 60 3e af 99 3f
       -0.5232047102785157 0.025082563995054284
0003e0 4f 36 a7 fa 72 3b 08 c0 3b 71 66 7c 4e fe 8a bf
       -3.0290278990058037 -0.013180363818542254
0003f0 44 83 42 a5 91 27 de bf 30 b5 f7 a0 f0 ea e0 3f
       -0.47116509569791654 0.5286791938685038
000400 55 33 73 28 80 e5 be bf b1 c4 a4 a6 91 f9 0a 40
       -0.12068940150784375 3.3718598383935263
000410 89 cb 4d d0 27 8a c0 3f e2 ad e7 a4 6f a3 f0 3f
       0.12921617194259863 1.0399013940431066
000420 95 3e ac 90 80 d7 e3 bf 64 3b a1 fd 6c bb de bf
       -0.6200564218178949 -0.4801895596364629
000430 0f 99 3e 32 67 66 d8 3f 3b f2 50 60 6a 4a eb bf
       0.38125018984500597 -0.8528339272666651
000440 7c 46 5e b3 39 79 e0 bf 8e 8e 7b dc e4 46 c4 3f
       -0.5147980216299426 0.1584135128569994
000450 ff 6d 1c 61 92 d4 f1 3f 7d 42 7c ef ca c4 12 c0
       1.1143974107170604 -4.692180387458049
000460 7a 8d ff 28 c8 51 ec 3f 6c e1 98 0b f0 8f d3 3f
       0.8849831391093368 0.3056602586034589
000470 3f b6 3c 3e 82 b2 e3 bf c9 00 d5 98 30 7d df bf
       -0.6155406203813029 -0.49201598095897886
000480 cd 6c c4 5b 1e f1 07 c0 a0 3d 2d c4 7d e5 a5 bf
       -2.9927336854285387 -0.04276650447593089
000490 bd 53 1b 74 c6 8f d6 3f 16 51 37 85 0e ee dd bf
       0.3525253423552462 -0.467654829114751
0004a0 8f 4c 9a 97 ff 6d ce 3f b2 82 eb f2 c3 42 f9 bf
       0.23773188497998318 -1.5788001526890807
0004b0 c4 06 e9 79 d8 a4 d9 3f 8b 72 e1 eb ae fd cf bf
       0.4006863775758627 -0.24992929952249585
0004c0 c3 34 08 c3 30 07 d3 3f 28 7d 50 d0 e3 64 da bf
       0.29731387182330254 -0.41240783065036846
0004d0 be 2d 5c 25 09 5a 10 c0 ce ea a4 83 dc 4e b9 3f
       -4.08792551398386 0.09885957921953123
0004e0 c0 1d bc 1d 97 47 e6 bf 12 37 52 92 9b 3e 6f 3f
       -0.6962390499838236 0.0038140333659332304
0004f0 77 dc 7a 6b 0d 8e dd 3f 99 b3 bd 8e 84 34 03 40
       0.4617951917275102 2.400643458523018
000500 60 38 96 65 4d 19 d3 bf a6 e5 de 2e f2 6c d1 bf
       -0.2984193317469188 -0.2722745378228758
000510 68 15 11 69 2c 03 e6 3f 2c 5f e8 7d b2 0f d2 bf
       0.6878873874745013 -0.28220808311151546
000520 e7 e9 04 da 87 ba bc 3f de 02 33 d2 b5 9e e3 3f
       0.11222123215421896 0.6131238084272714
000530 35 e1 43 b4 d0 00 e5 bf 35 af f4 0a 3c 96 c9 bf
       -0.656349517898923 -0.19989729437781426
000540 ef a8 a4 d8 ca a1 c4 3f d5 d2 f9 94 9a a5 ef bf
       0.16118751123696692 -0.988965311974051
000550 a9 07 f7 e6 da 1b db bf 8b 67 a9 e1 cd 01 98 bf
       -0.4235751395718759 -0.023444382570552185
000560 92 fd f2 85 aa ed d8 bf 76 86 36 d8 8c 6f ec 3f
       -0.389505987939594 0.888616964617724
000570 3b 00 75 64 1b 43 16 c0 2f 23 c3 6b 55 5f dc 3f
       -5.56553418125264 0.443318705784395
000580 cc 40 90 a8 ac 1c cb bf d7 64 a6 1d 0d 44 d1 bf
       -0.21181257467879389 -0.2697785176802205
000590 28 74 14 e2 17 6b 7b bf 37 2a 95 2a 60 27 c8 3f
       -0.006693928998427835 0.18870164946777532
0005a0 9d 71 8a 72 31 09 b8 3f 71 20 5a 65 a4 c1 c5 3f
       0.09389027639776377 0.1699719900973409
0005b0 b4 23 eb 8c de 47 d2 3f 81 1c 70 70 9e 74 e1 bf
       0.2856365562589034 -0.5454857059529702
0005c0 2f 40 17 ef 95 ca 05 c0 47 fa 09 62 f0 df e3 3f
       -2.7239187888117367 0.6210863032172903
0005d0 c6 ac 74 bc 12 eb d1 bf dd 8d 5b 46 ef ea d3 bf
       -0.27997272876627866 -0.31121427412855757
0005e0 7a 5d 8f 90 62 c5 90 3f 13 2b 8e 7b 34 dd f4 bf
       0.016377964089625753 -1.3040051294689803
0005f0 58 dd 57 9f ea 08 d7 3f d2 13 3a 68 41 3a f0 3f
       0.35991921959744877 1.0142225333558952
000600 11 02 5a ae 25 a8 f0 bf ef f7 83 4b 1e c9 d9 bf
       -1.0410515604600088 -0.4029002892929147
000610 a9 58 f6 f5 05 e6 03 40 fd a6 c4 f8 2f 65 dd bf
       2.487316056805032 -0.45930098813788317
000620 40 a8 ff eb b4 21 e1 3f cf ee e8 a3 d1 2e e7 bf
       0.5353645905827378 -0.7244651986470333
000630 b1 4d bb f4 dd 68 e3 3f 7d 69 90 e1 59 12 02 40
       0.6065511493601915 2.258960497111899
000640 0b c5 d4 c9 92 c3 8c bf ff a3 9f 00 ad 18 d2 bf
       -0.014044901642224624 -0.2827560907449537
000650 54 b9 87 68 01 64 e0 3f 47 73 50 fb ec 61 ce bf
       0.5122077027897753 -0.23736345549778035
000660 cc c8 76 02 37 3c 0a c0 d1 c9 00 11 9d d8 d1 3f
       -3.279401797533046 0.2788460413022707
000670 26 c1 b6 40 e8 2b d9 bf ac 9c ca 8c e9 29 b6 3f
       -0.3933048850986033 0.08657703101435982
000680 97 58 02 97 ca fe 86 3f 24 38 6a 73 40 c2 10 c0
       0.011228163464960068 -4.189698985441314
000690 45 d5 1e ed 40 2a d4 3f ac 9f 62 13 e8 3c ed bf
       0.3150789561871828 -0.913684881078543
0006a0 97 4f 63 91 58 57 c5 3f 7a bd 86 b6 26 dc d7 3f
       0.1667280874158876 0.3728119642718962
0006b0 fb c9 38 a7 1c 9f 01 c0 0c e2 32 68 30 08 c9 3f
       -2.2026913704114555 0.19556241119222795
0006c0 cf ed 36 fb 41 ee d4 3f 9e 77 cb 5c 55 47 d9 bf
       0.32704209835693815 -0.39497884809486006
0006d0 4d 96 ca a9 b8 51 ca bf 6c 8d ed 6e 31 8e 10 c0
       -0.2056189374026637 -4.138860448121118
0006e0 04 f6 40 d8 a2 c6 e0 bf f9 b5 38 5a 3d 64 d4 3f
       -0.5242475722986346 0.3186181431836697
0006f0 8f 8f 1a 84 ca 11 d5 3f c1 4e 35 4b 32 db d0 bf
       0.3292108812404359 -0.2633786901908302
000700 de ac e5 b1 e7 6a 0e c0 4a 97 4c 70 ad 28 d9 3f
       -3.8021997354713752 0.39310775725094926
000710 58 39 34 5e 4c ad d1 3f d4 fe 5a 35 c4 92 e2 bf
       0.27620228957757353 -0.5804158250902796
000720 e0 54 90 60 05 4f 6c bf 7c d7 91 b9 eb b2 05 40
       -0.003455648901317873 2.7123636720306745
000730 63 86 ec 76 ad 64 d5 3f 46 2b a3 3f c3 ef bd bf
       0.3342698727957211 -0.11693973830840063
000740 1e a5 17 2d ba 26 d6 bf 5e 32 cc c0 6e 2c a8 3f
       -0.3461137237887487 0.04721399405943737
000750 f8 45 1c 45 9e 3d 13 c0 fb b8 3d d2 9d 00 86 bf
       -4.810174064493815 -0.010743363359975158
000760 9d 5c 03 4c 05 3e b9 3f f9 56 82 6c e7 d2 9c bf
       0.09860261064328531 -0.028148284910080233
000770 e8 c3 a4 b4 df 68 c9 bf 5c 6e d0 64 25 4d 12 40
       -0.1985129959153078 4.575337958547234
000780 69 a0 e0 af dc 16 eb 3f ba 3a e5 33 cd 22 c8 bf
       0.8465407786470794 -0.1885620597262994
000790 35 0a 7c 20 91 24 c5 bf 88 65 07 9d c2 c9 db bf
       -0.16517843328627327 -0.4341894658551486
0007a0 d8 bd 02 7d 18 81 f7 3f a7 da aa 04 ab 7b d5 3f
       1.4690174945097763 0.3356730981426303
0007b0 f1 a8 f9 ca b2 7d d2 bf e7 05 ea c7 12 db e0 bf
       -0.2889220220737477 -0.5267423538754742
0007c0 40 bb 7c 0f 3f ef da 3f 82 ef 06 f6 f2 33 05 40
       0.4208524371378424 2.6503657551638193
0007d0 c8 1c b7 61 63 96 e1 3f ab bb b5 6b e4 1a af bf
       0.5496079357625598 -0.060752046726398966
0007e0 bf 17 33 80 75 63 b7 bf 42 54 2e 26 28 3b d7 bf
       -0.0913613737094172 -0.3629856465207163
0007f0 a2 00 f0 85 38 45 04 c0 01 62 e8 04 8a 0a c9 3f
       -2.533799215685648 0.19563412894855506

out.bias f8 [4]
000000 53 1a 30 02 35 86 95 bf 70 30 68 90 39 77 95 3f
       -0.021019771822489663 0.02096261924639048
000010 c8 42 14 b5 ca aa 9e 3f 8a 6b 6c 96 cd e6 98 bf
       0.02994839410991082 -0.024317943864939497
