results/Perceptron_Long/models/checkpoints/1/Perceptron_Long-1-1700.pt (torch_old, 12276 bytes, 2 tensors)

out.weight f8 [3, 486]
0	0x3fb3ab911e6eba3c	0.0768366526888053
1	0x3fe3e86a2e147ec6	0.6221209430695687
2	0xc013db64fc3b4c94	-4.964252415770847
3	0x3f9c3971b649b2bc	0.027562882185906842
4	0x40029843c87e6f1d	2.3243480361542326
5	0xc013bd71f9707cbb	-4.935005090227771
6	0x3f92d0939791c858	0.018373781324449417
7	0x3fc6346714377ab8	0.17347420203346586
8	0xc01720680732f731	-5.781646835790341
9	0x3faab8beb7edd581	0.05219074244716194
10	0xc01f3d2a5381662b	-7.809731774113554
11	0xc020899a92d66c62	-8.268757427859047
12	0x3f8996155b742c9d	0.012493292668770467
13	0xc01d7a691a728bdc	-7.369541562310555
14	0x3ffb8e6040d31e4a	1.72225976297513
15	0x3fb954864e5c33a7	0.09894599354829713
16	0x3fd4b437799925f4	0.3234995543940322
17	0xc006730806376673	-2.806167648854904
18	0x3fa15e8f1c35b5b0	0.0339245531020923
19	0x3ff1046da0b41224	1.063581111667312
20	0xc00f0755cf44d043	-3.8785816376567097
21	0x3faed82b4cb8325f	0.06024298964994012
22	0x3ff89c0be96ea050	1.5380972975199434
23	0xc014cfa8ee120c72	-5.202792854167557
24	0xbf7329bf4e921807	-0.004678485195773525
25	0x40111c4ac7055f5f	4.277629003241457
26	0xc013c5eaa7e19046	-4.943277953283603
27	0x3f8aa47bf64134ef	0.013009041264150116
28	0xbfcde2f9d53450aa	-0.23348925505036294
29	0xbfeec40f482458aa	-0.9614330681822782
30	0x3fbd509f3daf1d9e	0.11451144462545534
31	0xc03126c2bab2fdf2	-17.15140883321687
32	0xbfab7fa25fb7f16e	-0.05370814722479876
33	0x3fb0f0d511f094b1	0.06617480934126509
34	0x400820a46011853f	3.015938520941432
35	0xc007d371b3d348cd	-2.9782442139486194
36	0x3f81131be5d4ef56	0.008337228728684625
37	0x3ffa7166604fd39d	1.6526855241947722
38	0xbfd9598673a16b3b	-0.3960891846851841
39	0x3fae1ae370429692	0.05879889245379134
40	0xc0055c82e0ae1157	-2.670171504318357
41	0x3fc41bf658f05080	0.15710334150992722
42	0x3f9f606dfcbe1cd3	0.03064128737562728
43	0xbff9ba74f256493d	-1.6080216852465832
44	0xc00602874ea1994c	-2.751234640413861
45	0x3fae811a33357707	0.05957872271640779
46	0xc00cbda57a72ba2b	-3.5926007810842484
47	0x3fff7fe89c0468f1	1.9687276930258657
48	0x3fbb71c311285363	0.10720462006459068
49	0xbff71ee99966df55	-1.4450469963321286
50	0x3fd847bcc801d2a5	0.37937850505776743
51	0x3f8b10dd9bf454fd	0.013215762445307972
52	0x40147a95a86892cc	5.119711524374633
53	0x400ce04b20b57094	3.609518294846632
54	0x3f83125084b1cfb2	0.009312275933758805
55	0x400759427ef2d986	2.9185838621007774
56	0x40111ef05330d2de	4.2802136419820425
57	0x3fa4352114337e32	0.03946784373851776
58	0x3fee4b3af0be6bac	0.9466833784130038
59	0x3fdd19b0bc0734c8	0.4546930156910318
60	0x3fa45a42c970f698	0.03975113591193952
61	0xc00004701734e5d3	-2.002166920949756
62	0xc022c9c3b35f4b6c	-9.394071202643055
63	0x3f862d31aa646270	0.010828388225989388
64	0xbfe390dbd7c038cc	-0.6114329542049517
65	0x4002e205ff73f944	2.360363002516495
66	0x3fa390ae40cd195b	0.0382132009604443
67	0xc0097b80317955b8	-3.185303102984758
68	0x402f6a33cca72cbd	15.707426448256564
69	0x3f20bc70a24d1541	0.00012768626143092913
70	0x40034b0c6d3d2610	2.4116447958265397
71	0xbff8a10f6244451f	-1.5393213118116547
72	0x3f7347976aeb9bbe	0.004706946826195711
73	0x401094d63dbf0846	4.145348515305221
74	0xc0113dbbff361fa9	-4.310287463835189
75	0x3fb7605dea09b222	0.09131419147315303
76	0xbff76602f64718d1	-1.4624051685546429
77	0xbfddab975fbef7a1	-0.4635981020945739
78	0x3fad36187beecb54	0.05705334198810044
79	0xbfc4afeb75027694	-0.16161864484177058
80	0xc005c5310eea2976	-2.721284977456146
81	0x3fa4c7ccdb97f99e	0.04058685474955158
82	0x401955a222a2a3ce	6.333626309563398
83	0x4014385c103c14cd	5.055038694064206
84	0x3f971070aabc9fc6	0.022523651524494225
85	0xbffe8de835f2b609	-1.909645281538703
86	0x401964714ea6905c	6.348088482776884
87	0xbf62ee1fc7cfb5f8	-0.0023108120644710316
88	0x3fdcdc91e94937b3	0.4509625223334936
89	0x40048f4642fdb1c2	2.569958232276094
90	0x3fb0f01e8fe575b8	0.06616393101781781
91	0xc022259020fd1d72	-9.073365240953283
92	0x401a5e3b85b1204c	6.59202393430321
93	0x3fb1afe90e6b996a	0.06909042932566015
94	0xc0105fa5afd204ed	-4.093405482476766
95	0x4002e6245493c172	2.3623739821998067
96	0x3faf954b4ed3a673	0.061685899135977794
97	0x400fc9e5fa0137db	3.973583176767517
98	0xc012983b8a324fb0	-4.6486646264274185
99	0x3f862e2962c1bc67	0.01083023388511446
100	0xbffb8af9ebfd2265	-1.721429750281595
101	0xbff8f4f72237d9b5	-1.559805997528753
102	0x3f81dc4f160617b5	0.008720987186062826
103	0xbfedb6e20cb82d68	-0.9285745857645624
104	0x4000723ff16fb9b9	2.0557860243054304
105	0x3fab4a3ca4b599ab	0.05330075750935078
106	0x3ff4669dbdd15575	1.2750527777437501
107	0xbff2ffe22ebe81c0	-1.1874715639061009
108	0x3fb4f21e83f6b053	0.0818194458176447
109	0x40027a0af1a1126e	2.309591186264064
110	0xbff8fd3311fb8369	-1.5618162825050723
111	0x3f887e1696ca574a	0.011959244229085581
112	0x4010ae38e819bad4	4.170138956613943
113	0x400c9d89ae173413	3.5769227600890274
114	0x3fba4cdd0f758c61	0.10273534419461462
115	0xc0004983e51745a5	-2.035896100781161
116	0xc01c6164201b3374	-7.095108510647027
117	0x3fa11fbea66ed9f4	0.033445318047075207
118	0x4004696ed084b60e	2.5514808931827764
119	0xbfdcf8ce59ce199d	-0.4526859166147917
120	0x3f9185aecf97ae80	0.017111522121850076
121	0xc01f8334e0dc5284	-7.878131402442367
122	0xc01d42c524d49aa5	-7.315205169178317
123	0x3fa75693f5caedae	0.04558241248511351
124	0xc006589fd7f4f54c	-2.793273627436667
125	0xc01e6750d33351b0	-7.600894260413426
126	0x3fb55c13d9cb78bd	0.08343624179130678
127	0x3fff47b997fdf9e7	1.95501098033821
128	0xc0172cdcba9ca252	-5.793810764131722
129	0x3faf265e24d86aff	0.06083959769985902
130	0xc003a3039bb8a677	-2.4545967260099206
131	0xc0006eb987987c58	-2.0540648072633694
132	0x3fae7a450663dc5f	0.05952659323696063
133	0x400c48e2e5f7ee01	3.5355890241896764
134	0xc007b5cdda051a61	-2.963771537094815
135	0x3fae6a0b71fcdeb8	0.05940280691578209
136	0x400069b1fb4778d0	2.0516090041338444
137	0xc01973ce660994ae	-6.363092035612835
138	0x3fa4b195fe755338	0.04041737300091203
139	0xc00ef38525168d32	-3.8689062974459825
140	0xc01e67dab4b96e5f	-7.601420234506434
141	0x3fb89976e85cebaa	0.09609168217586608
142	0xbfe5d5cff8ffa4ab	-0.6823501456502944
143	0xbfb8fde318db230d	-0.09762400967441583
144	0x3f7709ba45d27a58	0.005624511363889605
145	0x4021ce8c2ef4a96b	8.903413264623586
146	0xc009779230191e71	-3.183384300009316
147	0xbf563c9253c0f7f8	-0.0013572148300364777
148	0x3ffb2ba902509b1b	1.6981592264580232
149	0x3feb7595aeccaabc	0.8581036008884761
150	0x3fb499f544f77b3a	0.08047421392209922
151	0x400cb3e0460c38d8	3.5878301117401
152	0xc01554941fe28964	-5.33259630031748
153	0x3fac1f2c1c7d3e88	0.054925325849237316
154	0x4013ab95a3265dc4	4.917563008515064
155	0xc0081cd5edd7cf83	-3.0140799123273054
156	0x3f9865dd6d2d1f4c	0.023826083935346618
157	0xc00373f42ea2e064	-2.4316180842834445
158	0x4005c571a0faca9c	2.721408136037395
159	0x3f9d6746212fdf54	0.028714271331380672
160	0xbfe9521659a59f74	-0.7912704230229637
161	0xc01705b000925950	-5.755554207737376
162	0x3fe55d7cfdab8024	0.6676621393671707
163	0xc01c5f83f2fd7d13	-7.093276783677783
164	0xc01757c6e5ba93b3	-5.835719670784715
165	0x3fa72dd728312681	0.045271609932183494
166	0xbff20b8c3eb1db9f	-1.1278192948354684
167	0xc00d01fdd0944aa2	-3.6259723944907174
168	0x3fb280b74e7119e9	0.07227655091364905
169	0xc0023cba05235c8d	-2.279651680127762
170	0xc01d11e90a12945e	-7.267490537055975
171	0x3fa546eb29634dcd	0.04155669098113499
172	0x40084d70d0b188e8	3.0378128341845816
173	0x3ffc07b5a0cd3b60	1.751882198459235
174	0x3fcb45ced415148e	0.2130678687628102
175	0xbfe0c78e7d033a1b	-0.5243599359180878
176	0x3fd1f59a44f7f1d7	0.28061539397438423
177	0x3f758a140851504b	0.005258634807507499
178	0x401100e11d090aca	4.250858739544762
179	0x4006bbf35159ed5d	2.841772685582028
180	0x3f98c8310fd9ae3e	0.024201170532633258
181	0xbfd359b289819dbf	-0.3023496954760638
182	0xc0083737f58ff87c	-3.026962202507148
183	0x3fa4e3d78b674961	0.04080079628660616
184	0x3fe1feaa42e21709	0.5623370462714955
185	0x40105b7408229104	4.089309813604135
186	0x3fb2914b7ad1d12b	0.07252952335858669
187	0x3feabcea1cd0b19e	0.8355608523175311
188	0xc0182e257e7ad818	-6.045064903495607
189	0x3fac58d840c5c1d8	0.0553653315608959
190	0xc00fdea98fc3a777	-3.983721850546256
191	0x4006459cb47367b4	2.7839902970999564
192	0x3f92d13b337216b8	0.018376278891557546
193	0x40072c8cef1a9389	2.896753185270829
194	0xbfe150114c13c546	-0.5410238729365708
195	0x3fb236982fdb5431	0.07114554565789956
196	0xbfe1c27f84344568	-0.5549924451935739
197	0xc01e3c09a29ce1cd	-7.55863050539524
198	0xbf5f35868b634659	-0.0019048513327572152
199	0x3ffddf05572375b4	1.8669484523628457
200	0x3ffdfc1a03d8b38f	1.8740482473615179
201	0x3fa7c2bf094f7948	0.046407670866516926
202	0xbff5da5c2e885472	-1.3658105676343237
203	0xc01015fe3b4c9218	-4.021477629230979
204	0x3fa66d14472f1441	0.04380095833725096
205	0x400750a55015a103	2.914377809200347
206	0xc013d4a7a6d130ed	-4.957670790212643
207	0x3fa9c811314311eb	0.05035451628058126
208	0x400497e8c83ca69f	2.5741744655141043
209	0xc01348b0a094b626	-4.820986279560691
210	0xbf85f203ae8c3dd6	-0.010715512050892533
211	0x4016f7392cd8480e	5.741429043484471
212	0xc020777dfd6bdd40	-8.233383101861023
213	0x3fa80eb011d8e971	0.04698705880987831
214	0xc001481c7923bc75	-2.16021055832203
215	0xc0204fccc86ca5f7	-8.15585924459718
216	0xbf83f96316241bf6	-0.009753011811438821
217	0x40157c8e5ce6b569	5.3716368213475585
218	0xc011b7b994262518	-4.429418864086323
219	0x3fa1eb2e2e540d42	0.034997409015000716
220	0xc01a89946d81dbc7	-6.6343552694806425
221	0xc01b75f836ed25c8	-6.865204675888386
222	0x3fa575cc46a6ecee	0.0419143520589048
223	0x3fd41f9c2b02a743	0.31442932319861344
224	0xc018f1e3b92d6bc9	-6.23622025813797
225	0x3f9e68700ddc2ff3	0.0296952732524431
226	0xbfcf9a2c75ca580c	-0.24689250709042232
227	0x3ffb97120c1c59dc	1.7243824456287404
228	0x3faf6c90e24b8f87	0.06137516748802257
229	0xc02508a9eb96f888	-10.51692138879686
230	0x3ffba62c5fc5ee0c	1.728069662202759
231	0x3fac4b759bfc7d61	0.055263209620757044
232	0x40127938065b990e	4.61837778028554
233	0x4012b8235b61e263	4.679822376107583
234	0xbfa43313b3fdc10e	-0.03945218631895574
235	0x400fccb64d38758a	3.974957087789055
236	0x402f42fbf5c68a39	15.630828552709419
237	0x3fbb3da1d2ea8ea4	0.10640918158838503
238	0xbfe395c57a0866b0	-0.6120326407865004
239	0xc0227a146832066d	-9.238436943155842
240	0xc027bd94b137107c	-11.870275056812027
241	0x40252753561b24d0	10.576807680905773
242	0x403bc1b95bb9da70	27.756734593271574
243	0x3ff4f624807f216b	1.3100934047125417
244	0xbff0f0c7481ad241	-1.0587837998001677
245	0xc01e5e893d10121c	-7.592320398431664
246	0xbfb261c1cc69a4c6	-0.07180415382903779
247	0x3ff2b4c17ccb6370	1.1691298365387546
248	0x402809e1e2031480	12.01930147445296
249	0x3f824545d2afdcc0	0.008921189777522875
250	0x3fda209bb42a92a4	0.40824024767270317
251	0xc012e0de8110c427	-4.719598786018685
252	0x3fa5101fc3808663	0.041138641943928154
253	0xc00eaddd4ffc8b94	-3.834894776243752
254	0x4024dec2b339f41c	10.435079193901451
255	0x3f99bf6d32ab5ad7	0.02514429685364913

out.bias f8 [3]
0	0x3fb2148353ca9343	0.07062550349890011
1	0x3f50c684013fcffa	0.0010238923177867663
2	0xbfb2fccf8a1830c1	-0.07417008515784841
