results/Perceptron_Long/models/checkpoints/10/Perceptron_Long-10-400.pt (torch_old, 12276 bytes, 2 tensors)

out.weight f8 [3, 486]
0.04463626171622997 0.5819014295718589 -0.9303204004575111 0.03662721935525372 1.0856962985770144 -1.601548433670671 0.05506049050514475 -0.5776120067285149
-0.39111256626275537 0.03254320815885867 -1.0162588946973392 -1.6352149130973945 -0.01645821114570914 0.17020368833343574 1.3261758346872448 0.05565351984388633
-0.724222783381521 -1.116339210408773 0.029736870977965957 0.07558884998012975 -0.5099665250250951 0.049752579425890835 -0.24707363696968232 -1.22695020726798
0.020081094042316953 0.7733173468953468 -1.4270171474855806 0.06470510721678424 0.25014964183738064 0.5848803509225966 0.05402106413978395 -2.5816952604844303
-0.37355609957674346 0.0014706657480506333 0.2458235269944616 -1.6166044545935137 0.05085902334961379 -2.886209420670697 0.528801819007527 0.048989302019577706
0.7453768801764156 0.021415421439657398 0.004171559068702085 0.3691837435472453 -1.3130631182384964 0.03704264471507177 0.0893513996004491 1.0847812690039311
0.054059365580472044 -0.4087426587245322 -0.6044316021745406 -0.025847382775212226 1.1621333761619572 0.8279296410168323 0.05358912707104699 1.3259191540563715
0.611387081499575 0.02277870306807287 0.919341149371797 0.21359146470807547 0.015065962737369001 -0.16549727119131913 -3.113429719408614 -0.012963609578500138
0.6675775038424555 1.2107092016691894 0.047994357917354256 0.033300501394285115 4.438386109436354 0.06295298569587769 0.6291032551438215 0.21315150285549384
0.01699385727366018 1.001876730713498 -0.7001595558922629 0.022489886676491804 0.38622316388362543 -0.30643393785415285 0.030504981540809408 0.7961044304886067
-0.8202453207946803 0.025125167644606854 0.4814957311456036 1.9917497234864525 0.006970465333242625 0.6594920451166445 1.6094257809705559 -0.019269969211385792
0.3942826412894192 1.569847539532036 0.06928290334790575 -2.054877677613771 1.3946524936153573 -0.00038084673585003797 0.31378395493250116 0.5901975304457069
0.024108097006128953 1.5034002110268196 -0.7686037242966187 0.07453780982017409 0.2776672619115503 -0.5555638760747608 0.02974443196036039 1.0897598006972704
1.4402753476101626 0.017799134753859 -1.4384615518036818 -0.40748100087963657 0.004159613452428599 -0.5817186005474826 0.001543622010835281 0.052635384632472366
0.6743341364377995 1.2717338912499407 0.002179020842532567 -0.23390735216581537 -1.4479235825787973 0.02187085433760414 -0.014372604455239786 -0.5459264081916523
0.04046387006433182 -0.4199237216397154 -1.8908523233888466 0.05227749006374523 -0.007039718617327835 -3.3328707101489803 0.011626958794139407 -1.40482065813093
-1.6432032956254172 0.013249344983248342 -1.2909692005955702 -0.6974114677697707 0.039476925554301226 0.7452073768717984 0.2703357397492195 0.011629771918507247
0.42485910290929385 -1.5378773688067633 0.048697018575999264 -0.26458899378237016 -2.7645956265956144 0.025767379225183594 -0.012867776408103899 0.5832013019088219
-0.021749377952355375 2.1058895509647395 0.7139154394406132 -0.0224833902903699 1.0792222187101719 1.3103918564637211 -0.003821799909279365 0.5984481506428806
-0.791710826177707 0.005571439594791419 0.4687712056633161 -1.121853463559871 -0.04134679423290205 1.0520311285470823 1.2810713889359586 0.0284435138751997
-0.31956803291685365 -1.4880624550461452 0.06508585070877271 -0.3760651022570523 -1.4308326076349778 0.03618206105362795 -0.03222016301279178 -1.2512596839802752
0.026913227839210147 -1.4816247771630382 -1.8707704056335102 0.039609185046633466 0.5357691328217792 0.6139486090679409 0.020184075322173763 0.9479394541011409
-0.7882595093171965 -0.0012214885808946706 0.5189941014932627 1.9358307033221354 0.04542900747495565 0.2599984677101374 -0.6438035630439686 0.014729580312112916
0.0487602525267296 1.397272297043151 0.03646640529700526 -0.8012002594219787 -1.0175560431602901 0.010405144480232078 -0.6625334427450141 0.9342640236983452
0.07230103945373381 1.017394144254186 1.414512165677476 0.0707311678623174 0.04996073025650785 -1.6483801338988127 0.0038643270286015576 0.7453470224066189
0.6301211019548407 0.028646829975702184 0.34344656086368597 -0.8754547052288925 0.07796072373525766 -0.12019199206882089 -0.9512918773276388 0.061409804815949924
0.3401218835233866 -0.9019660510134634 0.035673514570477086 1.5095610183910388 -2.5743064847518795 0.06444561062177087 -0.11885427545908586 -2.383230117177033
0.013647831750749545 1.3467916453989568 0.8574920550823246 0.041049898378985455 -1.0960381234080456 -1.8940584085093108 0.07237181939985597 -0.7200936361121799
-1.2533612708753183 0.05104537789698183 -0.7825112000177634 -0.15832183764286023 0.062214975973567364 -0.6609471736336389 1.366251489302 0.0500299385222659
0.0953247335276262 0.12278081944570764 0.01726933399252051 1.3213957529999973 6.365729590107222 0.07266164022921325 -0.2772464321774059 -2.8655413139466432
-6.488189004395279 6.435837465419354 9.086431299080411 1.7915046321381982 -1.6633676469272731 -2.187688986286154 -0.0029316927329313103 0.6284275484621062
4.513494703810148 0.0540033284491205 -0.028932892123352816 -0.7428425697364008 0.04646215502187085 -1.065543239865451 3.9935282572313175 0.037620057992662916
00000000: 27e5 9268 90da a63f 8d37 30bf ef9e e23f
00000010: 4388 d849 2fc5 edbf 4268 8c8a cdc0 a23f
00000020: a96c fc14 035f f13f 7b35 1940 f19f f9bf
00000030: d4e9 0a7c e330 ac3f 00a1 d52c cc7b e2bf
00000040: 7ecd 4900 fd07 d9bf 8d99 7fdd 80a9 a03f
00000050: 29e8 cfaf 9842 f0bf e8f4 da1c d729 fabf
00000060: 2866 7cda 6bda 90bf ca7c 8605 3cc9 c53f
00000070: b0a2 eb26 0438 f53f df07 463f 9e7e ac3f
00000080: 0389 3442 d52c e7bf 982b ff80 86dc f1bf
00000090: 00cb 57a1 5773 9e3f 4b5e 9b76 ca59 b33f
000000a0: 9a33 6151 a551 e0bf 5f3b 0d8b 2b79 a93f
000000b0: 3489 3ee3 1ba0 cfbf 1495 608a 96a1 f3bf
000000c0: a1f6 b768 2390 943f 410a 4b05 04bf e83f
000000d0: 2982 b4ee 0fd5 f6bf d858 618f 8390 b03f
000000e0: ea0c b3a4 7302 d03f 4623 69ff 56b7 e23f
000000f0: 150d 8d1f a6a8 ab3f 9026 40d8 4fa7 04c0
00000100: d7d1 b9d7 57e8 d7bf 896d a352 6b18 583f
00000110: b3a8 8334 2577 cf3f c0c0 f0a1 9cdd f9bf
00000120: 8176 fca3 310a aa3f 8380 f9f6 f416 07c0
00000130: 067c d6ca f1eb e03f db4f 0e34 2015 a93f
00000140: c0ab 719d 20da e73f cc81 da9a eced 953f
00000150: b9e0 5f5c 3216 713f 6b04 30da b4a0 d73f
00000160: a2b0 e678 4e02 f5bf dd97 37e7 40f7 a23f
00000170: eec0 22bb bbdf b63f d6f6 9a9a 435b f13f
00000180: 6ad8 6b4e abad ab3f d4ec ecf7 d628 dabf
00000190: ea45 80f1 8057 e3bf 17b1 d37e bc77 9abf
000001a0: 6f4a c32a 1998 f23f 55cd 714d 667e ea3f
000001b0: acf6 61b8 0870 ab3f 5efe bc00 f736 f53f
000001c0: 1a9a 07a4 7b90 e33f 0a03 e4e2 4c53 973f
000001d0: c967 4d21 3e6b ed3f 391e d011 f756 cb3f
000001e0: 6804 eb49 e7da 8e3f d606 acbb 032f c5bf
000001f0: 1f09 3ad7 4de8 08c0 e812 6c39 aa8c 8abf
00000200: a18e 517f cb5c e53f c02a a29c 105f f33f
00000210: 5b8c 4b6b b792 a83f 2493 db68 c30c a13f
00000220: 0333 cc49 e8c0 1140 6fd5 bfd6 af1d b03f
00000230: a1cb 5426 9d21 e43f bac5 ed66 8c48 cb3f
00000240: d89e e474 d666 913f 209b 10e5 af07 f03f
00000250: be40 5103 b567 e6bf 4bab 10bf 9607 973f
00000260: d69e 755c e1b7 d83f 12f5 5d17 9d9c d3bf
00000270: 47d9 54a8 b23c 9f3f d4c6 a4ff af79 e93f
00000280: 6653 701d 733f eabf 2b44 5c75 69ba 993f
00000290: 44c6 9b78 d3d0 de3f cc0f 43f5 34de ff3f
000002a0: 728e 4e0a 108d 7c3f cdf0 b70f 8f1a e53f
000002b0: 89b9 693f 35c0 f93f 7f37 3bbe 81bb 93bf
000002c0: cdfc 6d42 ed3b d93f 47f0 1f74 181e f93f
000002d0: 671a 0d3c 86bc b13f 790d 35b5 6370 00c0
000002e0: 10ce 1522 7f50 f63f 03b8 7746 8cf5 38bf
000002f0: d374 1c4c 0915 d43f 8137 6eee e5e2 e23f
00000300: 8829 d700 cbaf 983f 168e 3261 ed0d f83f
00000310: 4702 6ed6 6698 e8bf cf3c 7eef e814 b33f
00000320: 4f1e 45e8 4cc5 d13f 2290 d2e4 2dc7 e1bf
00000330: 8808 080a 5375 9e3f 15d8 07f9 a76f f13f
00000340: e887 b329 5e0b f73f 29e1 a8b6 ef39 923f
00000350: b7cd 9842 f003 f7bf a03d 2131 2b14 dabf
00000360: befa dfbb ab09 713f 4271 9a53 709d e2bf
00000370: ab7a 7383 6b4a 593f 29bb 376f 06f3 aa3f
00000380: be74 d22e 2594 e53f 1022 02a3 0559 f43f
00000390: 6dfc 30e8 bcd9 613f 0c4e ec15 adf0 cdbf
000003a0: 8987 24eb b12a f7bf 1a5d 7630 5065 963f
000003b0: b7b0 bf50 626f 8dbf ad96 a6a8 3a78 e1bf
000003c0: 9e19 312d aeb7 a43f b975 d0be 07e0 dabf
000003d0: d654 a85d ee40 febf 7a10 487c 1dc4 aa3f
000003e0: c85e c013 aed5 7cbf de16 6f1e b8a9 0ac0
000003f0: 2ca1 2efe dfcf 873f 3fae f639 257a f6bf
00000400: d83f f689 8f4a fabf 31fa 2bfb 7822 8b3f
00000410: 4538 0b52 cfa7 f4bf 14a6 bdda 3151 e6bf
00000420: 7a9a 67d0 5136 a43f d0df 0c24 bdd8 e73f
00000430: 616c 4a46 2e4d d13f 8c40 6690 59d1 873f
00000440: eccf 193c e430 db3f 8a89 c44c 259b f8bf
00000450: 8dab 64cc d0ee a83f 2351 cbac 06ef d0bf
00000460: 7024 d74f e41d 06c0 c69c 4d8c c362 9a3f
00000470: caa7 c2b6 6b5a 8abf 3ddb d5c6 95a9 e23f
00000480: f009 0e0c 7845 96bf af0d f39e dcd8 0040
00000490: 8b38 1031 65d8 e63f d459 00c8 e205 97bf
000004a0: c2a0 6784 7e44 f13f 734d 8773 5df7 f43f
000004b0: 4a26 e933 e54e 6fbf 7f9c 6bbc 7c26 e33f
000004c0: 0a51 4af1 b155 e9bf ddcb 9eed 13d2 763f
000004d0: 0259 68f1 5800 de3f b74d 0e9e 1cf3 f1bf
000004e0: c8ac 0c32 682b a5bf 32bd b797 1ed5 f03f
000004f0: cb23 75b6 447f f43f 3a5c 82e7 4b20 9d3f
00000500: 6265 8e7a cd73 d4bf 3542 ad93 1acf f7bf
00000510: 08fd 3960 77a9 b03f 9119 d75c 7311 d8bf
00000520: 697b 7dbb b0e4 f6bf ecba da81 7486 a23f
00000530: 36ce d244 297f a0bf 2cfa d7df 2805 f4bf
00000540: 05c9 9825 248f 9b3f 91bc ad2e bcb4 f7bf
00000550: 4c54 e8f2 acee fdbf 7002 cbb4 a747 a43f
00000560: 55a0 f54e 0525 e13f 4ae3 ab8d 77a5 e33f
00000570: f28b a25d 22ab 943f d37a 3e1f 8555 ee3f
00000580: 60e8 a801 6c39 e9bf 38ea 7860 4b03 54bf
00000590: ff5f 9784 999b e03f aec7 959d 29f9 fe3f
000005a0: b812 ca8a 7842 a73f 4bcf f49c d0a3 d03f
000005b0: cd4e 0aee 099a e4bf c36d cbcd 8a2a 8e3f
000005c0: d7dd e493 1af7 a83f 9c83 3632 3a5b f63f
000005d0: cc7f 4e84 b9ab a23f a073 f8b9 6ea3 e9bf
000005e0: 9f87 73d8 e847 f0bf aea2 05da 4a4f 853f
000005f0: 7313 a355 7933 e5bf efa3 73aa 7de5 ed3f
00000600: f2ab eb27 5282 b23f 0d6b 0b15 3f47 f03f
00000610: f20f 3682 d7a1 f63f 4acb c614 701b b23f
00000620: d46b 12ed 7394 a93f 458b e7d8 c35f fabf
00000630: 6c3f afc6 14a8 6f3f 7b09 adff e1d9 e73f
00000640: f64b adba f329 e43f 94d3 8437 9855 9d3f
00000650: 3a53 b548 07fb d53f 17cc 0296 b903 ecbf
00000660: 89bf d0e6 3bf5 b33f b63a 2d03 e7c4 bebf
00000670: 2b53 c2a9 fb70 eebf df2e ad1e 1b71 af3f
00000680: 6dc2 9893 8ec4 d53f 1f90 66e8 e7dc ecbf
00000690: 92c0 d384 cc43 a23f 3de5 5474 2927 f83f
000006a0: d01e 8fff 2d98 04c0 f6c2 fded 817f b03f
000006b0: 1628 16da 3b6d bebf dbf0 a0f3 da10 03c0
000006c0: 7009 3ff8 64f3 8b3f 973b 7865 758c f53f
000006d0: bc11 a52d 9370 eb3f 746f 1506 7e04 a53f
000006e0: ec4e 7345 5f89 f1bf 472e 9430 104e febf
000006f0: 4372 79a5 f586 b23f ee1a 25cf 010b e7bf
00000700: 47b8 478c c40d f4bf 31e7 5ba9 9e22 aa3f
00000710: 6e8f 9aed 540a e9bf 2c98 75d5 e343 c4bf
00000720: cb7b 412e a4da af3f cd7b e4af 7a26 e5bf
00000730: 389d 8a85 2adc f53f b14c 8c2b 869d a93f
00000740: 1346 00a5 3367 b83f d16b 1854 906e bf3f
00000750: 01e5 e262 0daf 913f 2055 83df 6f24 f53f
00000760: 90c2 52d1 8176 1940 dd4b 7508 f499 b23f
00000770: f39d c8d1 67be d1bf d0e6 a5ec a0ec 06c0
00000780: fe93 80d1 e7f3 19c0 0064 312d 4cbe 1940
00000790: 65cd 25b9 402c 2240 3ba8 dac2 00aa fc3f
000007a0: 0e6f cc64 279d fabf ef58 4f15 6380 01c0
000007b0: 7b94 1d8d 3404 68bf 409b 1117 141c e43f
000007c0: 9a22 3e8e d10d 1240 33d4 2003 53a6 ab3f
000007d0: a042 cb85 95a0 9dbf a905 e3c7 5dc5 e7bf
000007e0: f927 a438 e3c9 a73f cc22 7b11 770c f1bf
000007f0: deae 63f1 bef2 0f40 a514 81ad ef42 a33f

out.bias f8 [3]
0.005868978274014847 0.05277585351851053 -0.024119978483375465
00000000: cd1a f7db 110a 783f 7dcf c2c9 6f05 ab3f
00000010: 88b6 105b e8b2 98bf
