results/Genotyping_Bidirectional_GRU_Dropout_10_Long/models/checkpoints/6/Genotyping_Bidirectional_GRU_Dropout_10_Long-6-1550.pt (torch_old, 221491 bytes, 18 tensors)

gru.weight_ih_l0 f8 [96, 10]
00000000: d016 d94f 2d07 c8bf 225f c32d c3a7 c4bf
00000010: 599d 3a40 45d5 f3bf 4ca3 9ce2 b5c8 c73f
00000020: 7f13 6f31 58a7 dc3f 7986 1995 32e2 c2bf
00000030: 38bc 7855 1dc1 d9bf 194c 5855 1cb6 da3f
00000040: ec66 3317 744d edbf 4009 4b8b 6fd2 ff3f
00000050: 2ea4 283a a16a c73f 6e1c 49c0 c066 e23f
00000060: ac03 5b7c c399 bebf 0081 34b8 bec9 cd3f
00000070: 52b5 9945 15d6 f53f fbff 9bd8 6428 ca3f
00000080: 8888 db98 451f 953f 82cc 8468 20ce d43f
00000090: a503 50fd d575 c13f 47c1 82d7 1421 f83f
000000a0: e4c1 2c50 ba9b e23f 7954 b3ba ca2a ccbf
000000b0: 61ad 9266 8787 d0bf 1920 af6b 1b5e e73f
000000c0: fe21 7d21 b3bd ebbf 4163 390d 30af ccbf
000000d0: d1d2 24f1 0a7a f03f 17aa cb40 e46f ea3f
000000e0: e05c a169 8d95 debf 504a f8d0 650a c33f
000000f0: 7725 e160 2356 97bf b870 3559 6389 d23f
00000100: 09b3 79b6 17c0 e4bf e077 00d6 a115 e23f
00000110: d1d4 54a6 013b f0bf a373 13b3 e45a cd3f
00000120: f4ce 2762 e143 dabf 3ef0 d552 2a8b d83f
00000130: 729f 9642 113f c2bf 2402 9f99 aea9 edbf
00000140: a5ba 6414 b1a6 dcbf 5172 49e2 5cf2 d03f
00000150: 8609 cf8f 559c a4bf 5cd1 ab4b 18e8 d83f
00000160: 832a 2b30 72ca 02c0 0480 5241 9d5d d03f
00000170: 92c4 17fa a52a d6bf 5280 6378 d5da d13f
00000180: 00c1 302f d674 cd3f dfe5 d861 68f1 07c0
00000190: a742 7715 1f4e f23f 1ada 4979 4cda efbf
000001a0: 28a3 9aed e76c c6bf 2fd9 633a 1526 c1bf
000001b0: 4389 8100 6213 a53f dd0f 8497 72d7 d53f
000001c0: 70e9 51ba adfa d7bf 1b9c 5e93 9010 d3bf
000001d0: 579f 1e15 d5a1 c83f 86e7 66ba 362f 07c0
000001e0: 2f20 f7b4 08bd afbf 17e0 d38a a9a7 c03f
000001f0: dddd dd97 55e9 d93f f102 f071 5c0f b5bf
00000200: b89a 713f 38ce d23f f222 ae61 8e1c e2bf
00000210: ba1b ac97 3204 e03f a948 f672 de1e d2bf
00000220: 2509 0930 7816 f43f d35b 54fe 7f50 f63f
00000230: ee00 5a38 5857 f1bf 82c1 e15f 5e2f e4bf
00000240: 7d1a fcfd 11e2 e13f 06fa 7c68 0c47 913f
00000250: 4782 9b9f 2e2e e1bf 6e4e abac 4fdb f0bf
00000260: 15cb 93cb 050b b7bf 94fd 878a 2274 e5bf
00000270: 32fd eee1 86dc e73f 4a33 252c 285a f1bf
00000280: 6c60 dea3 ad8a d43f 35ea d63d 9768 d2bf
00000290: 273a f40f c68e db3f 8c09 f6b8 5ec3 c5bf
000002a0: c7e9 8218 219d f23f dbaf d905 8e51 e83f
000002b0: 9091 3a0c a4ca d93f 9379 f6bc 584e d23f
000002c0: e74c cfd8 0d19 e4bf f7b0 7335 fc18 f13f
000002d0: 22aa 7be8 a8db e5bf 03ef 08fb 7c51 d03f
000002e0: a3a6 90f0 766a c8bf aaa1 87e9 d260 de3f
000002f0: 5443 0c56 115c e4bf c12a 2dcf a875 ccbf
00000300: 7061 961c c4e0 f2bf bd1f 4c31 b4d6 db3f
00000310: 0496 f7d7 a3ef e23f 6611 e39b e869 f4bf
00000320: 971e 99ae e730 e33f 7777 10f0 22bf b4bf
00000330: 2c03 6820 69d1 f1bf 0445 4650 9d11 f63f
00000340: 3353 004a 3eec ddbf b593 446c ad07 e8bf
00000350: 1988 583b b015 9c3f 3de6 fa8a 55a0 e03f
00000360: a5c0 ff8d f773 e93f ee84 dd15 0c48 fdbf
00000370: 1b73 856a 6ce2 e43f 3c99 2ea3 a358 dcbf
00000380: e595 756e 8c61 de3f a75b 1c86 9251 e7bf
00000390: b90a 2567 9c29 dcbf c94a f3af dc38 e33f
000003a0: cb62 b972 ed3b d13f 3509 2da8 3b96 e3bf
000003b0: cd51 eecf 200c cabf 8ef7 34c3 c5a5 c53f
000003c0: 44dc 6d5c 7cb0 d73f b1d0 1de6 284f cebf
000003d0: 28f2 ae73 82a4 e8bf 7a2d caaf 2106 f33f
000003e0: 6bf7 6f50 06d2 f13f 2ce3 fa85 1929 d23f
000003f0: efcd 8131 a05d c83f effa db5a 9131 e73f
00000400: f4c1 3db3 68db e1bf d0fc f7fc 5d8d e4bf
00000410: 3278 c0ab feaa b73f 42cf 0dac 8d5c ddbf
00000420: d333 8cdd da6b dd3f 254b 8aff b8c8 d13f
00000430: 6099 cd41 9a95 cd3f fade 8399 4601 e13f
00000440: 7c5b e2f8 0c42 933f c704 c0a2 090d dfbf
00000450: f29a f32c a663 e03f 09ab e71d 2d31 d13f
00000460: d585 eb0e c5ff dabf f6fa 68c8 baf5 cfbf
00000470: 4b4d 9342 d3f1 e03f c71f dcde 1e3c b23f
00000480: ea45 5711 0323 e8bf a354 5fca 6625 c83f
00000490: e117 703e b635 c0bf 4069 9e13 476b d8bf
000004a0: 2f29 a59a 58c2 dd3f 60a8 1b63 1bcb 8ebf
000004b0: 8f50 4a3f 7e7e e03f b7c2 2c09 2bf9 c3bf
000004c0: 1ae5 e85f 5aa5 d23f 13e0 2ad5 d256 a13f
000004d0: 2712 43f1 c6ad d7bf 9331 3c56 ea4e e83f
000004e0: e251 db84 7ae6 cdbf 5fc1 5532 5541 da3f
000004f0: 3c70 7bad a53c e5bf ccc4 e1af 411b cd3f
00000500: fe26 a181 a05b e43f e440 92ac 768f d8bf
00000510: 4580 0886 6d6c dbbf 7bcc 15eb f081 d13f
00000520: 46b2 1f1b 95ad e0bf c1d9 893d 7c60 e3bf
00000530: f623 2ceb 1a86 d3bf 9540 fcb8 e86a d73f
00000540: dd1e debf b64c d83f fcc1 3616 83c2 ff3f
00000550: 04d6 26e4 6b66 c03f ebfc 1315 9861 f0bf
00000560: e979 68e0 b7f4 b93f a42e 1b1f d837 d3bf
00000570: fce4 f027 e834 e3bf a64c c753 0ffc e53f
00000580: b6d5 b41d cb7d c7bf a36a 0712 959e d4bf
00000590: 9fea 2a0c 1f8c ddbf 67b0 0cda 117a eb3f
000005a0: d935 2233 173d eb3f 745e bc0a 1008 eebf
000005b0: d6b1 4c79 364b d8bf 9e84 9808 8e0c aabf
000005c0: 64cb 246c 5708 9abf 0526 3712 62cd f23f
000005d0: f54a 4709 ce00 e7bf e3e6 40c0 ac7a ebbf
000005e0: 6437 5700 8390 e6bf e613 9df6 1a46 e3bf
000005f0: f4a0 84e2 3237 db3f 4b00 882f 39f6 c6bf
00000600: 34d2 be9e b4fc e8bf 166e b8e6 29f1 c7bf
00000610: fbaf 443d 83e0 f7bf 1a1c 5fa8 f0d0 b6bf
00000620: c549 3354 dda3 cd3f 64ae fa2e fc5c d13f
00000630: 524e 3a7d f61f f2bf 7f3a 0d14 45c6 f8bf
00000640: 168c caed d287 d43f 4a24 467c 1058 cfbf
00000650: 9abc 37f8 8b48 b73f 8e77 8f35 a06f d13f
00000660: 6ce8 805e a0fe f63f 45b4 4ec3 d418 a7bf
00000670: 4677 4202 6d1b d23f 91b2 7dc7 abe6 d83f
00000680: 6b03 ac02 6bf0 d9bf f0e9 4c4b 6adf e33f
00000690: b00f bfd2 2857 80bf 34d1 c39b 5438 babf
000006a0: d2e0 9b1c 6a34 e83f c6cb 5219 44ac dabf
000006b0: ba81 5630 c46e 0240 3a39 7e43 b32d e33f
000006c0: 7f41 cd51 d25a e63f 2edf 198b 2736 e5bf
000006d0: 2a76 aff5 5233 d53f 2d3b 0617 f566 e2bf
000006e0: fbcd 28ff 22bd e53f 0335 adfa e24d e3bf
000006f0: acf1 8d5e 2fc7 d3bf fc9a 8148 ebbb a8bf
00000700: fda9 6ece 9306 fdbf 04cc adcd 8fe3 b8bf
00000710: 174c 99f9 8ed0 e13f fbff 436c 0d28 c2bf
00000720: be7e 57d0 f337 e5bf 588d 1beb f602 f5bf
00000730: 1efc 4847 ae25 c23f 3adc 9a05 07b8 ec3f
00000740: e525 872c e2c1 bf3f a4c0 875f 7cc9 e1bf
00000750: d785 6148 bbfc fd3f 1498 91dc 36a2 b53f
00000760: 57b9 b81f f245 ebbf 35ac 7c22 d108 e03f
00000770: 2f68 a052 581c da3f d6fb 8ddd 6abf f0bf
00000780: 4d2c 1830 e2f0 b43f 1239 1e1b 3d92 cabf
00000790: bae9 c88f b68d e03f 5530 d4c8 e8ae c9bf
000007a0: 0828 e27e 7f9b b13f 6075 a4c7 991f ef3f
000007b0: fd8c 15e2 2d2f e43f 9591 605a 77ad e2bf
000007c0: 7ad9 bb20 9748 e1bf 2abe bb20 54c5 12c0
000007d0: 49a6 b798 150d c9bf 15c3 373f d92c f9bf
000007e0: 1fec 424d 9a0d e43f 8e42 daaf 8aed e33f
000007f0: 3902 7465 c7f4 0740 bbc7 bfe5 5d2b eebf
-0.18771902464702928 -0.16136970266847422 -1.2395679959243664 0.18581269803078226 0.4477138979676098 -0.14752800255068957 -0.402411778896695 0.41736515364135723
-0.915704770387689 1.988875908006392 0.18294158305914848 0.5750430827691966 -0.11953374658607058 0.23271926874532056 1.364766380192425 0.20435772492055534
0.02062710519283731 0.32508096892269844 0.13640856617715005 1.5080765169514778 0.5815097394861906 -0.22005590549693801 -0.2582720281304401 0.7302376845555073
-0.8669067052915691 -0.2240963043757578 1.0297955913239785 0.8261586442507135 -0.4778779536768081 0.14875481322867978 -0.022789528644613335 0.2896355029277049
-0.6484488071415352 0.5651406459544397 -1.014405870181964 0.22933634513802045 -0.4103930910634823 0.3834939774458269 -0.14254966498742366 -0.9269631386196733
-0.44767405501890273 0.2647926530678762 -0.040255235485818594 0.3891659487701611 -2.348850609128307 0.25571376208426977 -0.34635304854516236 0.27898155934054103
0.2301280718252272 -2.992874874526691 1.1440726126203715 -0.9953977936664302 -0.17519854642639499 -0.13397469855380836 0.04116350418259398 0.341274879421915
-0.3746752090006771 -0.2978860320239975 0.1924387314913882 -2.8980536043790748 -0.061989090052123046 0.13011664656346575 0.4048665984223286 -0.08226564199140875
0.2938366527145422 -0.5659858615700541 0.5005124056195804 -0.2831340906788094 1.2554857136133901 1.3946533140894999 -1.0838243676408257 -0.6307823059742506
0.5588464699402064 0.016872590901806837 -0.5368874661763322 -1.0535427803887631 -0.09001194210194925 -0.6704266267478709 0.745669785763232 -1.0845109676767657
0.32096425059126577 -0.28763371504797713 0.43058921392449395 -0.17002471953680887 1.1633616406894463 0.7599554170860715 0.4029932135984149 0.2860318990077754
-0.6280583605352178 1.0685999000516497 -0.683063940113531 0.2549736453545252 -0.19074904199924445 0.47465966039319574 -0.6362387352583974 -0.2223406802753143
-1.17987452666247 0.43497948469348185 0.5917529314144194 -1.2758565987906763 0.5997198495978918 -0.08104151116319068 -1.1136256471510917 1.3793004165384568
-0.46754414774595715 -0.7509371866805085 0.02742648470133 0.519572040029011 0.7954061292093867 -1.8300896505464226 0.6526395874494456 -0.44291010795349783
0.4747038916305811 -0.7287075633383794 -0.4400397307655726 0.600691169407889 0.2692826862672006 -0.6120889935193988 -0.2034951224601528 0.16912147552096396
0.3701468374851553 -0.23679076419978665 -0.7700817355576577 1.1889969698703156 1.113775552948449 0.28375852664935297 0.19035723130546908 0.7248007559390696
-0.5580333233647807 -0.6422567311091374 0.09245292370948802 -0.4587740116323752 0.45970794330133663 0.27787613825892016 0.23112800801318212 0.5314057348577699
0.018806650820433188 -0.4851707543712788 0.5121641996346098 0.2686264793434679 -0.42186094719917594 -0.249686572891697 0.5295196819592233 0.07122986737169788
-0.7542739237489375 0.1886414039751446 -0.12663915680621954 -0.3815477077092915 0.4649869451719892 -0.015035833322560588 0.5154410587442885 -0.15604150722494634
0.29134234777628054 0.03386553623334989 -0.36998151360265513 0.7596332248954688 -0.2335961483683056 0.41023759761357853 -0.663653220016847 0.22739430511459202
0.6361849338365742 -0.3837563214556339 -0.4284929093282737 0.2735559745553428 -0.5211892633211128 -0.6055279924319664 -0.3050601288419438 0.3659002119538937
0.3796822427470781 1.984988295338666 0.1281256546041477 -1.0238266776430531 0.10139035443032864 -0.300283460976724 -0.6002083568666019 0.6870190273570145
-0.18352641058451774 -0.3221790958465737 -0.4616773241829523 0.8586510905056571 0.8512073515609543 -0.9384842118915473 -0.3795906242910666 -0.0508770356648338
-0.025422445273942343 1.1751423560657497 -0.7188482457371196 -0.8587249522163031 -0.7051405913023072 -0.6023077789947109 0.4252440654841074 -0.17938914128171954
-0.7808478451248164 -0.18704723134656892 -1.492312659577691 -0.08912567244179606 0.23156324969620648 0.27130035960974497 -1.1328034297665863 -1.548405721976138
0.32079003545567397 -0.24487501209321955 0.09095072565081566 0.27243809919843265 1.4371646586937699 -0.045111321297874464 0.2829239389483188 0.38907904130500365
-0.40529895077638994 0.6210223646842774 -0.007978743487804113 -0.1024220352445056 0.7563982542769969 -0.41676428292265333 2.3040851379775775 0.5993286436294405
0.6985866162959126 -0.6628606526200878 0.3312575721045926 -0.5750680398649358 0.6793379767972846 -0.6032576461817886 -0.30903228982767916 -0.048308708763945746
-1.8141058028946866 -0.09722231646973972 0.5567088007904911 -0.14184730326087433 -0.6630801266837449 -1.3132237609759922 0.14177492600171687 0.8974642858000899
0.12405217730624647 -0.5558454385591358 1.8742020442372131 0.0845064438341015 -0.8522883052408287 0.5010762857031127 0.4079800421619692 -1.0467327742078303
0.0818005912225754 -0.20758785080074255 0.5172989662453837 -0.20065030866715242 0.0687789616369231 0.9726075076356828 0.6307591834742251 -0.5836750760250192
-0.5401111258823186 -4.692703734835542 -0.19571180302527783 -1.5734493703313934 0.6266604908954639 0.6227467951412835 2.994520943262867 -0.9427937972343367

gru.weight_hh_l0 f8 [96, 32]
00000000: fa3c 5352 730d e0bf 2393 6b4d 7c75 d23f
00000010: 512e d005 9f1a c23f 9c8e 04dd d393 d0bf
00000020: 05b2 b1c3 6c38 99bf 9632 ac7a d848 dcbf
00000030: 5c23 1103 aef6 c7bf 36bf befe a7df bb3f
00000040: fa63 51cb 57d3 d93f 9bb2 5a1b 1cc0 c0bf
00000050: 4c4c a350 870d d83f 7047 5675 b7da d03f
00000060: b8c5 fd4a c155 da3f 4028 487f 3fd5 e5bf
00000070: 6462 c49b 4956 c1bf 10b1 7c8c 3d89 d6bf
00000080: 3dc8 071e 5023 c13f ece9 c8b1 284a d03f
00000090: a47c dc71 82f9 e0bf 3b4c 0c77 6388 acbf
000000a0: 87d8 e4fa 1e84 e4bf 159a 8669 5400 a1bf
000000b0: 188d b6c3 a223 d33f 1dac 16a6 d807 e43f
000000c0: 7291 e9ad 6363 dc3f 1088 9d35 276e d3bf
000000d0: f34d 54ab 931c e93f 8f74 876f 69cf da3f
000000e0: a633 de56 1a07 ee3f 823a 82d0 c069 e23f
000000f0: 9694 6ad8 2e96 c8bf db63 3e9a 46cd bcbf
00000100: a476 2b56 047a e43f 8294 9f03 2878 c9bf
00000110: 44b0 fd1a 3910 b4bf 183c 0eaa 3069 d0bf
00000120: c631 7674 fb27 b3bf fd0e 1fce 6519 a93f
00000130: 9684 e5ad 607b e03f 42f3 1e2e dc56 d6bf
00000140: dd37 7d2c 1e4e d0bf 8571 8464 d85a 9f3f
00000150: 22e7 a103 9bb9 d53f 9cfe 0edb 64cf a2bf
00000160: d3a4 334c 1fd6 c93f 6a2e d4ee 986b d8bf
00000170: 356b c8b2 7496 d73f cdf5 67b3 b927 e5bf
00000180: 5375 319c cf5d d53f 2c4b cb7d dafd c23f
00000190: 36e1 4430 942f c43f f4fe f762 a0ca c93f
000001a0: e72c 9cf1 d9a6 ae3f b33f 6805 b7a2 c23f
000001b0: 01e5 709b a973 94bf 9c05 af89 92b9 d2bf
000001c0: 4d27 f2ce d454 d5bf e85a 11fa 18c1 ce3f
000001d0: 3b73 4c7f d0b0 c1bf e2c0 ebfd b9ca d33f
000001e0: 28da 87ba f05e d13f 943c 21ee 0d1c c13f
000001f0: 6612 4cd0 1079 d7bf 5fa4 eda9 8767 c1bf
00000200: ed17 9cee 1a67 d43f f200 1d38 3224 ee3f
00000210: 8215 7bdd 8012 e93f 1851 cd82 ba08 dc3f
00000220: a550 aa4a 9cbb b8bf ac1e ad61 3f4f d2bf
00000230: 90b5 293f d242 e9bf 48df 8774 bd79 d0bf
00000240: ccbb 59aa 0fe8 99bf 9af1 d1c0 1683 e9bf
00000250: e497 bc40 0a1c ecbf 50c4 7dd4 e243 e33f
00000260: 89ec e675 4ebb b33f eba2 5a81 1d90 6cbf
00000270: 882b cf2f 221a ddbf 0f80 5d29 a112 acbf
00000280: 4d46 ca4e d84b 823f 8f53 70e2 9367 cabf
00000290: 1819 05b0 37d9 f0bf 5cdb 220b 3394 9a3f
000002a0: 81ea f337 f136 d0bf 846b 50d1 6025 e5bf
000002b0: 823c 8d57 31d2 e9bf 4e1e 50ea aafc f43f
000002c0: d19a d9f8 f783 db3f ab0d 3eb1 53ea d43f
000002d0: 2033 274d f9f4 e5bf 7f48 e7be 3ecc e1bf
000002e0: 0f52 ec3b befb a3bf bafe f134 983d d73f
000002f0: fc4f cf29 7c77 e2bf 45d9 f77e f3e7 9abf
00000300: d669 563d 4a85 d0bf 1c3c 7515 5512 d0bf
00000310: d0f2 9835 981a ee3f 72a4 ab22 0e29 793f
00000320: 5a1a 120e bd6c a23f f6d5 846a 689e a4bf
00000330: 7151 aac6 bde9 d03f f072 a99e 3107 d23f
00000340: c9c6 af99 f928 c63f c2bb a56e c796 6b3f
00000350: 0c2c fb90 962f d6bf 2f19 d27c 097e e43f
00000360: 77f5 6013 ab36 d03f 5439 3d07 2f65 dbbf
00000370: 9f4d b58e d38f d4bf e22e 7cd9 8a17 ecbf
00000380: 89f5 15dc 830c d93f 35a3 f032 01aa d13f
00000390: 744a ff66 b3f2 eebf b7dd 5005 e382 e2bf
000003a0: 2f64 4701 bd8a d4bf 2981 de23 24e5 f2bf
000003b0: 5163 5a69 e3ce dbbf 741b 6de2 e6bd d03f
000003c0: 9aa3 0cf6 9cf6 c53f ccf2 86e9 c8f6 d93f
000003d0: 397e 7097 65d9 e43f abe7 c65e 8c8a 833f
000003e0: 6c18 ff56 06aa c9bf 052a 0b45 bf75 d83f
000003f0: 75b4 5b7e 1c73 c9bf 4184 11fc 4a42 bdbf
00000400: c1cf 510e f62d d9bf ea6c 0d53 a39e c8bf
00000410: 86cf a953 e0f9 e3bf 7fa6 430f e947 e8bf
00000420: 85ed 49fa 11fe a93f 8892 c334 b059 7c3f
00000430: af27 8cbe ef99 bbbf e3a6 a5d3 d109 c5bf
00000440: 173d 921d 297a d0bf fb56 9119 bfe4 d23f
00000450: c5df 6918 9178 de3f 00f0 4dc5 ed60 ddbf
00000460: 47cc 169d 7d36 e0bf 8f0a 6142 8e70 db3f
00000470: 5b20 4477 fc97 c9bf 810d 568d a41f bcbf
00000480: 5d10 fc76 efdb d2bf ffbf 079c 88d9 e4bf
00000490: 7325 3604 b1c4 bbbf 15b1 53d5 8c74 d03f
000004a0: f04f a56d 9988 99bf 079f 4cd4 51dd a93f
000004b0: 09aa 0196 0b19 d73f 5f92 2ea6 1999 db3f
000004c0: 4a1f 272d 974b c73f 33cb 7776 133b e13f
000004d0: c968 5621 5beb c33f cb06 89b3 18a3 e73f
000004e0: ba81 bad8 2017 cebf 7bf2 fd13 5893 9f3f
000004f0: f74b 1c7f 0456 ddbf 2ca1 1da8 dd95 c13f
00000500: f57c dba0 67ab db3f 1f85 e522 38be d33f
00000510: e7a0 fb91 88ee e3bf 38c0 16ea 3ef6 d03f
00000520: 8d27 b89e 78cf d03f 99b2 78e4 2e63 c7bf
00000530: 7e58 865c 1eb2 c4bf 5113 54d7 cdff dbbf
00000540: b1f3 0322 ca2b cb3f 360d 35b0 ae57 ba3f
00000550: 0b01 dd6c da05 ca3f 3dbf 8eab cfcc b43f
00000560: 1dd0 c84c 3ec3 cebf 1593 8738 fb70 d3bf
00000570: 1dad 243c 3e09 e13f 415d 5ea7 392b 9abf
00000580: 7707 6272 4df1 ce3f c3e5 b304 c82e c8bf
00000590: 3042 143e 56ab ce3f 93c2 eac1 b4e3 d63f
000005a0: 9cca 618e f0a9 d3bf 346e 4088 9732 b7bf
000005b0: e2c2 44c3 1a74 c73f 2ae5 af2e 52c8 98bf
000005c0: ef75 c2f2 e342 e6bf e783 567e 0bd2 cfbf
000005d0: 6e2d 0575 ee42 bb3f 06a1 d4f4 344b b43f
000005e0: 0190 d8df edbc bfbf f863 0fb0 6ddb e3bf
000005f0: cfed f726 907b dfbf fff1 362d 0a3c e03f
00000600: 5536 1431 a506 8abf a7ff 776d 5290 8cbf
00000610: 0157 4d64 1b29 d9bf 9250 e777 2188 bd3f
00000620: d6ed e762 dfb0 b83f 3c9a 5787 af2f d63f
00000630: 5877 605f f758 cf3f d334 d750 81fd ad3f
00000640: 7c39 efed 70c7 b63f 5e29 eedf c013 c8bf
00000650: a838 5d79 e9aa d5bf 0d3f 7ddd 99f5 dabf
00000660: 55ec 10af 2ebb d7bf 0b4e 61bd 4d78 d6bf
00000670: c8a3 5b91 4d30 c03f d1eb c6f2 69b3 cd3f
00000680: 2f50 ac13 695d c2bf a37f dcee 684c a9bf
00000690: a00a 841e 501f e3bf e5a8 4801 6202 92bf
000006a0: 3268 f485 b554 c33f 5c89 8bc0 825e e03f
000006b0: 7300 d8a5 4007 a53f 2fa5 c4fb 083c c5bf
000006c0: 2674 32b5 9bf7 dfbf 3098 f490 7d43 e2bf
000006d0: ef97 251e acaa de3f 1bf2 4fdc aebc de3f
000006e0: 06a2 76cd 3b1a e5bf 9869 a923 8aa5 d53f
000006f0: 685d 3553 ad02 dbbf 1548 42f4 1074 d13f
00000700: 2425 20a8 0441 ebbf c746 e907 b970 c03f
00000710: 3ed1 e96a 5b88 e5bf 2d60 4df4 f237 c03f
00000720: 3dbe 442b cf13 e6bf 0a7e 22a0 f447 e1bf
00000730: d76b 663b ec60 e43f 25ac eac4 1e5c d43f
00000740: 536c d281 733a d43f 04b7 13fe be8c e4bf
00000750: c8e7 d672 f334 b93f 7861 e11c 4ea5 e33f
00000760: 469f 33db 109d d0bf 1f91 227d bb12 ddbf
00000770: cb50 d047 7053 d1bf 864e 98e4 16fa c9bf
00000780: 19bd 7526 6366 c3bf 221a 21ca 9400 e73f
00000790: 3d33 f9b1 d815 e3bf f807 16fa a518 b9bf
000007a0: 90ee ff5b 77b2 edbf ab9c 2301 8997 d9bf
000007b0: f750 0aef f29a ecbf 4792 0511 18a9 d83f
000007c0: ff4f bacc 3270 e13f 3ed9 0201 6dc6 da3f
000007d0: a268 f070 afcb d7bf 3ded 6779 4ad6 c73f
000007e0: a61f 555c a07d cb3f fef4 0200 6393 d13f
000007f0: 162e 97df ca7c c13f 22c1 b799 468a c83f
-0.5016419036782331 0.2884207492882515 0.1414374140152739 -0.25902268012780794 -0.024629306263181067 -0.44194614391089126 -0.18721556806328976 0.10888147324908179
0.4035243497397115 -0.1308627255979403 0.37582571863930947 0.2633494039410982 0.4114840729081055 -0.6822812543844137 -0.13544578653160777 -0.3521264907783612
0.13389016596153339 0.25452630388067976 -0.5304577087262214 -0.05572806194518206 -0.6411280536911058 -0.03320564067989921 0.2990500365505837 0.6259577983777295
0.4435662458766024 -0.30359821544527765 0.7847383829379723 0.418909415164145 0.9383670517578266 0.5754093239246034 -0.19208322112277604 -0.11250725999560933
0.6398946459773538 -0.19897937943384042 -0.07837254437407731 -0.25642029387467025 -0.07482883065512799 0.049021893893522496 0.5150607487122609 -0.34905151847833704
-0.25476793617860755 0.030619984755604363 0.33945346216897765 -0.03673854040198174 0.20184699269092352 -0.3815672237694573 0.36855809649721333 -0.661099291231659
0.3338507676433739 0.14837199346819696 0.1577019916237618 0.20149617035348621 0.05986672472325854 0.14559066547417174 -0.019972467529645325 -0.29257644124671756
-0.33330269059716927 0.2402678700479648 -0.138208448560272 0.3092484454819112 0.2714196988667106 0.13366865279610762 -0.366764262595359 -0.13597198292999033
0.3187930421994441 0.9419184776270682 0.783508713321382 0.43803274892458566 -0.0966127092636407 -0.28608688868232934 -0.7894068940783416 -0.257430423545419
-0.025299305698748317 -0.797252060510391 -0.8784228577030686 0.6020368719310998 0.07707682016818941 -0.0034866882586651513 -0.4547200648200307 -0.054829632091014095
0.00893372526596461 -0.20628593975621043 -1.0530316234376809 0.02595596080274319 -0.25335340942516643 -0.6608127678076561 -0.8069082937235097 1.3116864350175947
0.42992972661742807 0.32680218037441006 -0.6861540324112845 -0.5561822632391936 -0.03903002244456754 0.3631344334644201 -0.5770855728719648 -0.026275448441049027
-0.25813537588115076 -0.2511189183759954 0.9407464072060865 0.006142668930558691 0.03598585888635304 -0.040271056177896655 0.2642664375391837 0.28168907636954454
0.1731254578040107 0.0033677954826809306 -0.3466545501548246 0.6403853834060892 0.2533366860623895 -0.4280507631964572 -0.32127846657132325 -0.8778738258128806
0.39138885967971554 0.27600126242264206 -0.9671265613236089 -0.578477392561516 -0.32096791386499296 -1.1809426690234182 -0.43450246132265585 0.26159069168027504
0.17158853544358693 0.4056875496424197 0.6515377004433908 0.009541603700984632 -0.20050124404787384 0.38218671553173095 -0.19882541818461488 -0.11429279951109185
-0.3934302463378537 -0.19234124713225437 -0.6242524751710199 -0.7587781236772598 0.050766526987867024 0.006921470933069281 -0.10781763460195636 -0.1643621715004918
-0.2574560917646109 0.29521157738541576 0.47610881218087925 -0.45904106395732924 -0.5066516941209408 0.42874485475855634 -0.19995075057545617 -0.10985783053006594
-0.2946737920722223 -0.6515543982950475 -0.10847002365894358 0.25711365540225134 -0.024935147588010353 0.05051665989441117 0.36090364121506063 0.431219494139702
0.181994339988018 0.5384614290072477 0.15561999442872423 0.7386592394397778 -0.23508081991623248 0.030835510463918397 -0.4583750954927263 0.13738604267860788
0.4323367186425025 0.30848506362788614 -0.6228678561429007 0.2650296484016539 0.2626630353921591 -0.18271433025201558 -0.1616857482701483 -0.4374880411926841
0.21227385197553653 0.10290042688307185 0.20330362620917017 0.08125017107408623 -0.2403333544658616 -0.30377083321063597 0.5323783087418722 -0.02555551609074525
0.24173896870712117 -0.18892765264153696 0.23960378676612626 0.3576480764122973 -0.30724729446880317 -0.0906157214780528 0.18323072943305535 -0.02420166406588923
-0.6956653348349259 -0.24859756153912757 0.10649004322947572 0.07927256562527782 -0.12397658076275776 -0.620535701625271 -0.4919166927863587 0.5073290713403934
-0.012707987365980925 -0.013947147336693734 -0.39313397212150397 0.1153584401830037 0.09644886173912623 0.3466605016423363 0.2449025359828123 0.058574715727084524
0.08898073014208835 -0.18810282644364923 -0.33855664112059936 -0.4212402976017849 -0.37079970451640537 -0.3510927533545504 0.12647409055287384 0.23203777651164484
-0.1434756609020282 -0.04941108623302106 -0.5975723835002391 -0.01758721478305682 0.15102261582143367 0.5115369568486972 0.04107095741710589 -0.16589462560049514
-0.49948780722644626 -0.570738585582836 0.47916701263454703 0.48026629938957094 -0.6594523442227576 0.3382287357577751 -0.4220383942205985 0.2727091203061048
-0.8516867908194041 0.12844002615252334 -0.6728951538230274 0.12670742920704595 -0.6899181218231615 -0.5400336387282902 0.6368313942106124 0.31812257032533103
0.31606757810522373 -0.6421809160653713 0.09846421769807912 0.6139288486547647 -0.2595865383759598 -0.4542683336278674 -0.2707176877313599 -0.20294462358343796
-0.15156211259770982 0.7188209483945835 -0.596416804890033 -0.09803235393158605 -0.9280354306096843 -0.39987397299996513 -0.8939146679645366 0.3853206793049008
0.5449460981931223 0.4183609495043078 -0.37180696515282297 0.1862271397402341 0.21477131374763053 0.27462077141883856 0.1366208640814512 0.19171984201194286

gru.bias_ih_l0 f8 [96]
00000000: 4e3a c8c1 1154 cabf a07c cd2e 39ac b73f
00000010: a716 25b3 61c7 be3f 654d 7447 a54c b63f
00000020: d8ea 9af9 e0ac c93f 1fae 86fe 3738 943f
00000030: da75 cd6f 16bf a83f c889 dfb0 b05c 9ebf
00000040: fe91 ec60 13b0 b93f 2d7b f2ac 341b b0bf
00000050: 723d 324d 4baa 87bf a917 2b2d 91fe a93f
00000060: e3c3 4b52 924f a73f 1fce 861e ec33 aabf
00000070: e747 a89e 7c30 933f 469a 60b4 84d2 cf3f
00000080: 7ea9 0499 1174 8c3f b813 b42c 6bc9 cbbf
00000090: 8f8e 5a4c c440 d1bf 57f8 5923 269f d0bf
000000a0: 10b8 3d23 e51c 9dbf dbe1 9c24 33ab d03f
000000b0: 82b3 fe13 c256 d1bf b91c 47ec 4c70 95bf
000000c0: 05b0 487f b41f a3bf 9f60 2118 e7c3 d1bf
000000d0: 3515 c210 d7f8 d33f 1e10 85ef 5a2a b23f
000000e0: e5ff c901 fcd4 633f 8e32 be42 62b7 a93f
000000f0: fb19 3cc0 37fc b23f c06f cbe7 5860 bbbf
00000100: 14e2 f346 9bce d5bf 20e4 d613 bb95 e23f
00000110: 0e55 ca8f 0e92 cf3f e3cf aa78 5873 9abf
00000120: a41f ad7b 232c 8bbf d638 5ae0 1eb1 e63f
00000130: a142 a16c 1c4a a2bf 8b91 d77c 84fe d1bf
00000140: 44d9 dd91 62a8 e73f ecd7 94e5 02a2 91bf
00000150: 7eeb 0898 abd4 c43f 57c6 a110 2354 d03f
00000160: 53d3 92d6 6c1a e0bf 7308 e126 cfc8 e13f
00000170: d255 3e64 d717 b63f 8150 7b9b 61db c3bf
00000180: 9fdf c175 7b26 b93f c0a8 0494 5333 c6bf
00000190: 2492 ffdf 605e c73f 8a49 dad2 f2b6 d43f
000001a0: 7599 9fa4 4773 d23f b606 b213 a425 9b3f
000001b0: 516e 73cf ac6d d83f 0fa1 2bf9 d29a cabf
000001c0: 8ea5 292c ebb8 d33f dcd0 4508 f895 cf3f
000001d0: 14d8 96cf a6ef ddbf 2df2 5f58 19ca dcbf
000001e0: f9f9 b705 a5c8 e33f b5a1 e2ef f0b5 8e3f
000001f0: 2ce3 ce7c e43c a23f dd2b 7663 5f71 95bf
00000200: e261 fefb 7988 b53f 389c 4fde 7ed2 be3f
00000210: 4c50 fc53 ae6e c7bf 5179 688d 15c1 b1bf
00000220: c665 7aad d5e1 bebf 9df3 1919 1e4b a7bf
00000230: 1659 b173 13a6 a33f 3793 f603 2ca4 c3bf
00000240: 7953 e5ec c1d6 92bf 975b 3e45 d484 833f
00000250: b660 e51e 3aae a9bf 387a a29a a3de babf
00000260: 8638 0b91 2596 43bf 811e eebe 673a b03f
00000270: e28d f3df 205f bd3f 7ab5 705a d3a8 bb3f
00000280: c894 eac2 625c c6bf 2ccd 36c7 24fb bebf
00000290: da6a d681 fc24 9f3f 99aa 1b27 de9a aabf
000002a0: d5f1 8f1d b600 ba3f 4579 fb6b 3096 8abf
000002b0: 5c22 657e f3e4 c6bf a67a 3160 ec96 c63f
000002c0: a672 b4bd 5cea bebf 0d9d f5d2 e865 98bf
000002d0: 438f aef3 2a7c ab3f 2014 460f b6ff b33f
000002e0: 1233 6b40 2676 bdbf 679e eb11 fa1b b2bf
000002f0: 902c c78d 3e77 a1bf 95c7 2952 ef0c aa3f
-0.20569059335726297 0.09247167008060098 0.12022982238439771 0.08710701937188998 0.20058834254981295 0.019745707426109257 0.048332883022094555 -0.029650460048182642
0.10034295193015194 -0.06291512701362185 -0.011555279057829469 0.05077031780596936 0.04552895788754776 -0.05117738602293919 0.0187396499478111 0.24861201102722158
0.013893258554692475 -0.21708430941376178 -0.26957805115146355 -0.2597136826733552 -0.028430538440652298 0.26044920516463116 -0.2709202952635722 -0.02093620483517775
-0.03735126546629889 -0.2775819526336906 0.3120629943517373 0.07095878932619867 0.0024208948146338 0.050227232596715785 0.07416103785735821 -0.10693889292764336
-0.3407352631470826 0.5807776820648805 0.246644802293908 -0.02583063351148941 -0.013267781459617663 0.7091211683162111 -0.03572167230652679 -0.2811595172081744
0.7393048142392122 -0.017219586622751068 0.16274018214775404 0.2551353132649629 -0.5032257262124439 0.5557628402095943 0.08630129048682214 -0.15513248531226867
0.09824344277319462 -0.17344135978175323 0.18256770074289463 0.3236662921055077 0.28828612400538783 0.026510776235687948 0.38169403323056367 -0.20784985701107714
0.30816153824579195 0.2467641868967182 -0.4677521731604213 -0.4498351443324136 0.6182427512829342 0.014995462723462841 0.035620823130960794 -0.020940294690756523
0.08411371614636878 0.12039940764917467 -0.18306521511897456 -0.06935248091074199 -0.12063346371942094 -0.045494976581699854 0.038376434204723406 -0.15344762986674151
-0.01839735992810485 0.009530695307871357 -0.05015737177990458 -0.10495970273266486 -0.0005977328711084396 0.06339119349842727 0.11473279445231513 0.10804482419981368
-0.1746943904628664 -0.12101964820503913 0.030414529251724477 -0.05196279742616134 0.10157335492835469 -0.012981775565489637 -0.1788620345271451 0.17648081490456952
-0.12076358443705235 -0.02382625377267993 0.05368169998771901 0.0781205928124824 -0.11508406708453503 -0.0707393926382963 -0.034112887198341046 0.05087993505448122

gru.bias_hh_l0 f8 [96]
00000000: 071d e488 3981 dbbf 3af9 9add d093 a33f
00000010: 9745 c98c 89ff d43f 409a e88e 931c a93f
00000020: 36aa 6b66 d3c0 a63f d3d5 d09f 8455 c23f
00000030: 6750 9481 06fe 78bf 6cf1 1bf6 ac24 c9bf
00000040: 0e49 76b0 8d59 c43f e9c1 8649 894d c73f
00000050: 16dc 2c0b 8cff c13f d839 b5c4 4c16 ccbf
00000060: 38f0 9234 f39e ce3f 8f4c 5eb8 14a9 c33f
00000070: faed 5578 75b6 b3bf 4334 c1a8 c575 b83f
00000080: 6eb5 6f66 2794 c5bf 080a 5ad6 91e5 d6bf
00000090: 608e 5a2c f9d3 ddbf 34f0 b386 ffab ccbf
000000a0: 976d cfa8 cb6c b4bf 9de1 9cc4 658a d13f
000000b0: 0e67 fdb7 d3df c8bf e238 ee84 4c3d b63f
000000c0: d9a1 6e01 7783 9a3f 4e83 85e0 0098 b7bf
000000d0: f52a 84d1 13fa cc3f 0df0 7ad0 7a26 bdbf
000000e0: ccaf f19f 23b2 bebf a873 509f d011 c1bf
000000f0: fd19 3c40 80f2 bc3f 7390 34d8 ed1d b43f
00000100: 16f1 7903 ed58 e4bf 3be4 d6a3 1ee0 e23f
00000110: 802a e5c7 7d43 d73f ef60 aa0e 80dd 823f
00000120: 5a6f 29c2 aab1 903f d038 5aa0 8071 e43f
00000130: b650 289b f2fd c7bf 2523 af09 155b c7bf
00000140: 44d9 ddf1 966c e83f b3ca 9a86 e3db b03f
00000150: 83d6 1130 b3f2 b63f 60c6 a1b0 401e d13f
00000160: 98a6 25cd 0910 debf 8d08 e1c6 3854 e53f
00000170: 3853 83b7 bbed a1bf aa50 7b5b 36ce cdbf
00000180: 8110 1f85 da69 c9bf 9da8 0454 ff2e c2bf
00000190: fec8 ff6f b547 d03f 734d d296 aa13 a23f
000001a0: 5199 9fe4 1ea7 d63f 627e 13fb ba56 b6bf
000001b0: 3f6e 730f e225 d63f 33d0 95ec 6af9 dfbf
000001c0: 93a5 292c ed58 d33f fae7 22c4 04c7 d43f
000001d0: 1dd8 960f c074 dfbf 76f9 2f44 92f4 e3bf
000001e0: 46f4 6fab 8d6d d23f 972a fe4e 9b96 c93f
000001f0: 9247 cc60 cb55 c0bf 878b dd98 11d0 b6bf
00000200: c245 179d 7b25 7c3f 1b16 ac78 3bde bd3f
00000210: f869 a622 1e4a bf3f c862 db77 dd28 91bf
00000220: d0fc 4ce5 522f 683f 52a4 3f6c 03dd c23f
00000230: 5ceb 09a1 5335 c6bf fe7d 521f d1e6 ce3f
00000240: e325 e224 3923 af3f bf73 c3bb 435e cc3f
00000250: a0ff fff0 f293 b3bf 062d d329 779d c1bf
00000260: 2a92 a8f3 9567 c1bf 6d1c 431e 7664 c0bf
00000270: 9898 2095 bd29 c0bf 700c aaed cb7d c2bf
00000280: e1d7 9485 b195 ac3f 3f0e 630d aa18 c7bf
00000290: 1b1b 06e3 33a6 993f 153a 839c 140b b3bf
000002a0: 0670 9a69 61ec c2bf aa92 56e2 be4e c4bf
000002b0: f933 fa4e 9533 b7bf dcaf 9125 5018 c1bf
000002c0: fd40 cc6a 54dc cbbf 0267 2985 86d1 c0bf
000002d0: 3550 01f4 f911 85bf de44 1a29 427e adbf
000002e0: b3a5 6773 f0de 9f3f 66b6 25aa 395b b0bf
000002f0: 555f afbf 009e cd3f 60e3 f300 f120 923f
-0.4297622525050006 0.03823712067741032 0.32809675930647003 0.04904614562501708 0.04443989396334695 0.1432348041868595 -0.006101632513736722 -0.19643175141380753
0.15898295513449806 0.18205371942668983 0.1406111769262856 -0.21943053822401626 0.2392257696827771 0.15359744074212187 -0.07700285137064347 0.09554705972659953
-0.16858379842544075 -0.35776182110581134 -0.46606282550258094 -0.2239989669541288 -0.07978508826584228 0.27407211494894473 -0.19433065875892236 0.08687284703612222
0.025892123663341458 -0.09216313821299346 0.22638175707137234 -0.11386840429162266 -0.11990568785557726 -0.13335616854683718 0.11307527130347945 0.07858168152285021
-0.6358552043816725 0.589858360289447 0.36349434395803115 0.009211540648991405 0.016302745915126017 0.6388552791484248 -0.18743736816452888 -0.18246710751398001
0.7632555698353731 0.06585523639914008 0.0896408073766342 0.2674714779778693 -0.46972889932531237 0.6665309795719324 -0.03501688590191637 -0.23285560099487174
-0.19854289531770422 -0.1420592460866076 0.25437675416391403 0.03530629244883245 0.35395023657328745 -0.08726090078152418 0.3460621977698998 -0.4995982466127799
0.30230264008295044 0.3246471324342789 -0.4915008690107941 -0.6236049014840279 0.28793660871435056 0.1999086509425367 -0.12761823870146977 -0.08911237699571305
0.006871683946387321 0.11667224594210561 0.12222469659756274 -0.01675745052384306 0.002952253251720195 0.14736979280067658 -0.1735024010011682 0.24141897229581838
0.060815606834761636 0.221626726800336 -0.07647627242840693 -0.137617965147321 -0.13597368619333966 -0.12806583860057988 -0.1262738207016738 -0.14446400742244547
0.05582957034714276 -0.18044019368800154 0.02504807541984198 -0.07438782521351357 -0.14783876091394194 -0.15865312625569078 -0.09063084772260756 -0.1335544761126347
-0.21766143049945433 -0.1313942098811865 -0.010288193472810384 -0.05760390044918905 0.031123883289102938 -0.06389198688494843 0.2313843666040564 0.01770378654780147

gru.weight_ih_l0_reverse f8 [96, 10]
00000000: 43d1 a3c1 9e1c e53f 2714 9522 d222 bbbf
00000010: 26e0 47a4 c3bb d7bf 9341 99b2 a6b8 a53f
00000020: 9d30 6e50 8017 d03f 6fd6 976f 7629 f1bf
00000030: 8145 046f 8ce1 ed3f c848 4a86 e66b b83f
00000040: 49e9 84e7 f185 d9bf b3e2 3f10 45e4 f7bf
00000050: a017 967e a4dd e4bf 20eb 5e07 1182 b83f
00000060: a128 a901 8085 b3bf 3115 d22b 2589 c2bf
00000070: 524b 9cfc ca67 00c0 b90a ad97 9df6 d33f
00000080: 76a1 9934 cd7e b8bf bc6d 0cf3 a6e3 c9bf
00000090: 9af2 6748 51b7 e1bf 7c04 7d8d 8550 01c0
000000a0: 86d7 1f35 bcc9 d9bf b24c 4552 ba8b d93f
000000b0: 6ef5 ada0 5fde d7bf 75b1 b8a7 795d cabf
000000c0: a41c dfeb 545c f4bf d4f4 836b 9b54 62bf
000000d0: b2f5 9bb4 1a64 e0bf e1ea aa90 aeb9 cabf
000000e0: 30e5 67c1 72dd dabf c954 e239 9f6d edbf
000000f0: 2571 0233 9ea0 e13f ac73 b9f0 af7d e13f
00000100: 94ad 8423 d7d0 dbbf 729f 6e1e 0b94 c9bf
00000110: 2e49 2464 9830 ed3f f991 7fdf dafb a23f
00000120: 483b 2f89 a996 e33f 14fe f494 50bf eabf
00000130: c760 8371 9a4b d23f 7291 adea 4fa6 f53f
00000140: 8b95 4677 b9b7 e43f 5958 c383 25c1 e1bf
00000150: 65cf 5944 55d4 adbf 41ec 45d0 ffed e03f
00000160: dd42 5b55 74b4 0d40 d543 b47a eea9 803f
00000170: 02db 7e59 6233 d13f 8faa 0244 301f d13f
00000180: 346c 5eff ee6c d7bf 4bf5 8954 feb0 b1bf
00000190: 2f7f b536 1f40 f5bf 5fd8 53d7 fc73 d13f
000001a0: 941c 6526 3c46 d53f 0851 f105 3670 d6bf
000001b0: 9529 108c 8a11 edbf 5e19 173b 3da2 d0bf
000001c0: 2a8e 3b17 6a4e d13f dc4f 8f65 54af cfbf
000001d0: 70f9 b9ad cb35 bbbf fc1b fa25 d3d8 febf
000001e0: 8771 9d65 b9ad dbbf 9ee8 2708 0359 bd3f
000001f0: 9da4 6f4d e04a d5bf 906b 6bcd 5730 b0bf
00000200: 19b4 1f7a 54d2 f0bf 1f12 245a 78a9 cc3f
00000210: ca42 49ac 416f c5bf ec6f a346 e1a7 e0bf
00000220: 6353 f123 52ac ddbf 0bc6 d4e9 6efb ebbf
00000230: cce7 2241 9f0f e7bf 1f55 6629 380a b4bf
00000240: 7ec8 6cf6 f809 c63f a069 ad67 1b85 d33f
00000250: 8e0e 2a2c 53ea f2bf 280c e2fb 93fb cdbf
00000260: 0091 44e0 fb1c d13f 9524 ecd8 6b43 d1bf
00000270: 2f48 358f 42c6 bc3f 426a 1e26 4d80 f4bf
00000280: 5379 af25 ad92 c9bf 4a92 3ff8 725d 9ebf
00000290: 9bf8 a8ba bdbe a13f 418b 3f9b d4af c33f
000002a0: b400 fe42 0e6c ed3f d3f0 8272 ea17 de3f
000002b0: 985a d619 c8b9 bd3f 1942 1088 5816 d23f
000002c0: d34e 343e 7b7a d5bf 20db 03b2 f030 e93f
000002d0: 42d1 99eb d372 ddbf bd90 0411 9d33 e0bf
000002e0: 1731 53b8 c2bd b63f 35ee aa21 d11d babf
000002f0: 8eca 3a65 2717 f13f 830e 62ef 93c3 c23f
00000300: e5f4 4b16 2b7d 903f f225 854a 3a39 e5bf
00000310: 35aa c34f cad5 e2bf 4cff ebb4 a871 ecbf
00000320: 7166 fcff 2607 dfbf b714 7d48 3629 d03f
00000330: 3f31 be18 95ec dbbf 2c27 36dd fdb7 a1bf
00000340: fa4c 1954 559f f93f fc28 3437 2d05 f2bf
00000350: 3838 39ff bf68 b73f 6efa 897c 74d1 b03f
00000360: d706 75a4 4905 de3f 95ba 325a d714 e8bf
00000370: da2e f020 ccb9 df3f e06a 571d c5e3 da3f
00000380: 8b59 fb4d 622c e4bf 0f77 be8f 720e b93f
00000390: 5c04 c446 675a e13f caf8 f691 b4b9 e2bf
000003a0: 4b2d 9422 28e0 d7bf 6dc4 4240 cd1b ee3f
000003b0: c43f 2cfd 12d6 cabf 55b0 e63a 7f8f ffbf
000003c0: 5073 f597 9ee2 cdbf 9ab4 98c9 934d cdbf
000003d0: 0570 bb8c 9a19 e23f 7e39 069d ac8f d6bf
000003e0: 7fe1 c0ad 2360 ee3f dba7 808c e542 e13f
000003f0: bebf 8d15 1aaa e2bf cef8 7db6 693e b43f
00000400: 6eae dd33 bc56 d3bf 6892 f021 1cd3 eabf
00000410: 9485 ae25 0879 d03f a66e 6c3a 3c6b 9c3f
00000420: 5b07 f12a 703c 8f3f a43e a60f 8a7e db3f
00000430: 5d05 6176 068a f73f ade4 4109 24f3 d93f
00000440: 25b0 b3b4 2bb3 d8bf b7f8 8eb8 b5af e13f
00000450: bc9a eb8f 9f9c e5bf 875c e693 bbfa e13f
00000460: 4e30 d8ed c63f d23f 5c93 5fcc fb66 da3f
00000470: 54c2 c77f 1dfc d83f de7e 9e92 7803 f2bf
00000480: 4808 4a49 5c2c af3f d7b6 d168 a6e0 9f3f
00000490: bb53 ff4f 3035 c73f 3ada 825c 104f c3bf
000004a0: 22e9 fc1a db19 d23f 3490 493a c7a2 e13f
000004b0: 6972 c4b1 33ca dbbf 275d f623 4b28 b23f
000004c0: 59b3 037a dae6 a63f 606e 0068 7207 ecbf
000004d0: 077e 4bb3 ef41 eabf 7f96 5f83 a07c d13f
000004e0: b089 915d c7a4 cf3f d8a2 f3e1 77fe d9bf
000004f0: b473 3437 521e f1bf 35b5 e75d 7dcc e43f
00000500: ebd5 0df0 307c af3f f303 6383 5b53 d83f
00000510: ca35 9ef0 4564 e23f 251c cbb4 ccde e1bf
00000520: 3dd6 e880 75f3 f33f 41c5 6583 5052 d33f
00000530: e50d f85c 29dc bfbf 8078 6db5 e6b3 dd3f
00000540: d1e4 1f0e 7451 d6bf 23b8 83bd 6501 ff3f
00000550: 7107 4470 5946 f2bf 6057 5ebc 189c c5bf
00000560: e78e 3451 0667 873f baac df7f e6b8 cabf
00000570: 961d 8905 2007 ffbf a3ef 9023 8e65 d4bf
00000580: ed2d 913f 85a7 bfbf 44ad 602e d075 e7bf
00000590: 9cc8 4ea5 4180 ddbf 1842 170a 2c4a b9bf
000005a0: 50d9 1c27 c5a4 e8bf 00f3 63e7 ec2a e13f
000005b0: 2829 7b9d 41fc b93f 2f34 81f0 ffb7 d9bf
000005c0: ae69 c433 9dd2 0040 9891 a520 0200 f1bf
000005d0: 7117 1b6b 89e0 c3bf 729e 97ce 5caf d33f
000005e0: 206d 29cc 4529 b6bf eea7 4d1e 75c9 c2bf
000005f0: 1667 ec00 2f6e c0bf 19d0 2290 49ef e23f
00000600: 4498 02b8 5f3d d2bf 7ac5 7516 70de e2bf
00000610: 41e4 3f2f 8691 e5bf 7571 9019 a7af dcbf
00000620: c52c 8f43 e53e eabf 6f20 4986 0238 c13f
00000630: 9a47 f70b 04d4 de3f 6f37 42c1 d124 f7bf
00000640: 3aa6 7670 afe7 bcbf e419 4460 e62b dcbf
00000650: 129f 0d4d 9bf0 d33f 90fb 70a2 0aa6 f5bf
00000660: dbe8 cacf 0e4e f33f 0650 641e ba3d c73f
00000670: adeb fcf1 f4ac d4bf c529 15e1 7abc e6bf
00000680: ff63 80b7 d74b dfbf c8ab 59d2 a56c b83f
00000690: d3b7 83e7 2eb5 e83f 89a7 462f c92b e3bf
000006a0: 119f fad6 61f5 dabf 759e efe0 572e d7bf
000006b0: 085d c4ef 4c51 d43f 34b5 c26d 0390 de3f
000006c0: 829d 3fe3 a273 e9bf 5461 1b67 edcb d2bf
000006d0: 5b4e 57a5 b81f 73bf 5e12 7247 a47b ccbf
000006e0: 58a0 3e40 8fd9 f03f 4a88 9f98 b8cf e0bf
000006f0: fe0f fed0 034e e0bf b501 95b9 399e b2bf
00000700: ae62 2ef8 2f2d bbbf 4ca1 af27 68ff c8bf
00000710: 9de8 49a7 4f7a d9bf 247f 3c56 a949 c53f
00000720: fa78 4c67 60b8 ddbf 553b 3f45 e126 cbbf
00000730: d043 71f9 0c2d eebf 1d86 9bd6 34f6 d43f
00000740: 02be 9d38 2b56 de3f a789 c66f 2c33 e5bf
00000750: 0f8b 3dc8 e4a1 f3bf d574 9c01 72e5 c53f
00000760: 2fac e240 817b c9bf f212 cb8a 794b e1bf
00000770: 19d5 1ee8 62b8 cf3f 1b44 a879 021f f7bf
00000780: 819d d8a1 24b1 efbf e7f3 895a 1d50 ba3f
00000790: c91f 7084 6ac5 dc3f 29a3 d695 9dee b33f
000007a0: 8173 77d7 f42c 02c0 662a 334e 9f4c c3bf
000007b0: 0aaf f3f1 14ff d03f 1960 b928 1905 e2bf
000007c0: 41d0 b0aa dc26 d7bf df73 4b01 d442 d4bf
000007d0: 492c f38a afc8 e03f 5c2f 4f98 3ed3 c1bf
000007e0: fd81 2b63 47c9 d4bf d551 a9eb e4bd c23f
000007f0: 1713 840c bd11 f13f 00ea f9c6 24a4 813f
0.6597436697034386 -0.10600007385535602 -0.3708352188400589 0.04242440157088647 0.2514344010785495 -1.0726227149110874 0.9337827842993393 0.09539643076485327
-0.3988003502778566 -1.4932299265621338 -0.6520559761417992 0.09573465757322852 -0.07625579872652334 -0.14481033935241208 -2.050680135268899 0.3119272214136504
-0.09568483862097374 -0.20225989215474083 -0.553627625864084 -2.164317231538517 -0.40293793857505766 0.39915330919502445 -0.3729476040969847 -0.20597763719105058
-1.2725419248325034 -0.0022376094385650833 -0.5122197654269967 -0.20879156173562932 -0.41976612937249325 -0.919631588988204 0.5508566852836664 0.5465926839493611
-0.43462160557347684 -0.19983042703574544 0.9121820407765762 0.03707775095225325 0.6121413878807767 -0.8358538541141933 0.2858644588973331 1.3531035582646749
0.6474273042301076 -0.5548274587151908 -0.05826059779511076 0.5290526454767887 3.713112513396807 0.00813661872828845 0.2687612413387087 0.2675285972751817
-0.36602377832759037 -0.06910695613801925 -1.328154767710611 0.2727043249900642 0.3324118018103459 -0.3505988176377888 -0.9083912597282501 -0.2599022938778911
0.270411036193965 -0.2475381370446702 -0.10628960601204596 -1.9279357417560723 -0.4324782841047398 0.11463946293943869 -0.33269507944221194 -0.06323765530707548
-1.0513500948393413 0.22392181779299933 -0.167457780002698 -0.5204931621224183 -0.46364263067271433 -0.8744425360693538 -0.7206569931215596 -0.07828093538985968
0.1721793368574857 0.3049992096399823 -1.1822082257430426 -0.23424005316710006 0.26739403630405434 -0.26974006828147284 0.11240020748417189 -1.2813235749259921
-0.19978870716199512 -0.029653355028033603 0.0346583643299578 0.1538034208343451 0.9194403942529079 0.47020970518839283 0.11611605292123739 0.28261388099147805
-0.3356006724800242 0.7872241474968611 -0.46013353355307995 -0.506300481069523 0.08883301735039982 -0.10201747009244218 1.068152804783185 0.1465935629713507
0.016102479205973536 -0.6632358031721977 -0.5885974462410731 -0.888874390948311 -0.4848115444052388 0.2525153835197886 -0.4363148442869437 -0.0346068699391949
1.601399734984453 -1.126263824119234 0.09144210797350716 0.06569603004934674 0.46907273350016737 -0.752544094246178 0.4957151719724898 0.4201519762552106
-0.6304179690439907 0.09787670144438841 0.542285574163667 -0.5851691103814798 -0.3730564439471961 0.9408937697500172 -0.20965802537875622 -1.9725334454369847
-0.23347837848532516 -0.22892997115687735 0.565625452868972 -0.35251918157964457 0.9492357629415408 0.5394160980406427 -0.5832643910380211 0.07907734589932433
-0.3021688944342945 -0.8382702505956106 0.25738719634872465 0.02775282007779247 0.015251995382758279 0.4295983460260493 1.4711975692919943 0.40546513465921913
-0.38593571325941617 0.5526989559800971 -0.6753690539306585 0.561857022158521 0.28514264323235217 0.4125356193383618 0.3903878925184803 -1.1258474089917665
0.060885318705019176 0.031130409381538406 0.18131069093820237 -0.15085033909936546 0.28282811770954386 0.5511203897881445 -0.4342164264687996 0.07092733028399732
0.04473002185282011 -0.8759090453417677 -0.820548868356071 0.2732316286986602 0.24721614903235212 -0.4061565119323354 -1.0699026256981883 0.6499621233066707
0.06149437837931856 0.38008773642292154 0.5747403811998819 -0.5584472209092196 1.2469382319954 0.3018990786723244 -0.12445314903020906 0.46410529820958146
-0.34872151736597085 1.9378411677275913 -1.1421751389866268 -0.16882619092637707 0.011426972726048713 -0.2087677120574421 -1.9392395225748706 -0.3186984393430469
-0.12364990999156307 -0.7331314950764996 -0.4609531511624796 -0.09878802534445474 -0.77011354102323 0.5364899176925917 0.10150537581208552 -0.40185545431887965
2.102838901931327 -1.0625020289672644 -0.15528981904770547 0.30757827925706416 -0.08656727060718028 -0.14677299480109646 -0.12836253686037286 0.5917098822742474
-0.28499596566905816 -0.5896530569718117 -0.6740141795008939 -0.4482209920550056 -0.8201776809231879 0.13452178532520828 0.481690417943463 -1.446489100376734
-0.11291023727121621 -0.440179437646661 0.31156046414115324 -1.3530374856343066 1.2065570942782446 0.1815712593457876 -0.3230564463771611 -0.7105078121324416
-0.4890040676123703 0.09540783296112842 0.7721170923011819 -0.5990949557646995 -0.421226940098209 -0.3622035690918673 0.31746219076872295 0.4775398799782409
-0.7953657568404398 -0.2936967379478308 -0.004668923638252299 -0.22252324570230803 1.0531151303821584 -0.5253565770074229 -0.5095233041652134 -0.07272682934581705
-0.1061582547103039 -0.19529439866824772 -0.39809027992999707 0.16631046972997254 -0.4643784531380245 -0.21212402230454566 -0.9429993507311512 0.32752724607243683
0.4740093281643284 -0.6624967749706244 -1.2270248243227717 0.17106461599988756 -0.19908157032236448 -0.540463229256231 0.24781452497487846 -1.445070719932352
-0.9903739129121477 0.1027849527399237 0.44954932149311994 0.07785973461308217 -2.2719513734177217 -0.1507758266291887 0.2655689585505888 -0.5631223483460445
-0.36174694699298376 -0.31657886625708714 0.5244977678170325 -0.1392591708848795 -0.32478508648458143 0.14642011172203576 1.0668306816962223 0.00861386043765311
