results/RNN_Long/models/checkpoints/4/RNN_Long-4-50.pt (torch_old, 29358 bytes, 10 tensors)

rnn.weight_ih_l0 f8 [32, 6]
00000000: b2f8 58e6 86e5 9f3f 0ad4 9cae f38a be3f
00000010: 2f42 4475 ecdb b13f 26e8 7439 80c3 c4bf
00000020: 759c 56fc 68d0 afbf 5ba3 961e e185 afbf
00000030: 0419 4b71 729d 983f bd95 961f fefe a5bf
00000040: 1b8d e660 a67a c0bf bf5b a0c0 a4f8 ae3f
00000050: 3735 7eff dd88 d1bf 97f8 933e 984a cdbf
00000060: 3e27 6370 4d36 c1bf 70b1 e3ea c012 cbbf
00000070: d0a0 b1b8 2899 bf3f 95d2 3051 0c55 adbf
00000080: 04df aa94 4698 733f f85c 478c e902 953f
00000090: ab07 a914 a313 c33f ddb0 5647 9b68 e33f
000000a0: 0431 4dee 585f c33f cbe2 608a 186b 8e3f
000000b0: 69d0 5f1a 51aa d03f b351 a049 42c1 adbf
000000c0: 64e0 dcf3 406b b03f 8609 4ec0 3ecd c43f
000000d0: 3944 8f22 3e5d c7bf 5469 9b28 6a8c afbf
000000e0: a971 9b86 fc6d b53f 3d38 a084 e5c2 7c3f
000000f0: 3948 a3ab 6988 bfbf a9b1 2b86 efa6 ddbf
00000100: 27a1 ba75 ac54 b33f af98 78eb 709b b03f
00000110: 9451 b3e5 7a52 b9bf a92c 8bfe f954 c5bf
00000120: e806 286b a8c1 c23f 8662 f1d3 cefb d63f
00000130: 2f00 45bc 02c7 af3f 96b4 49a5 e3af c0bf
00000140: dbd4 0ded 8277 db3f a59b da1f 0314 823f
00000150: 2dc6 1b07 b212 c9bf 6de0 3d1a eb41 b83f
00000160: 0620 7f0e 3d23 b3bf 83bf 43af c50c b73f
00000170: 4037 32f0 25c9 bf3f 8903 b77f e824 a0bf
00000180: 2d06 369f da71 c63f 34f3 d6bf 3d40 d63f
00000190: 2626 edab c44f c6bf fac0 937e 2fed a13f
000001a0: dda9 bb28 5521 cb3f 2c2a 8d63 3c39 a7bf
000001b0: c802 85d8 6ebf b23f f12b 5912 3716 c83f
000001c0: c50e b8e2 4a0a 8f3f 2471 5689 82c7 69bf
000001d0: 004e 921f e200 aa3f 1039 044a 3db4 6abf
000001e0: 822a da27 2c82 9b3f 8e37 8fd8 35b6 d33f
000001f0: b0f5 394f 43a3 c63f 2a22 caaa a444 c3bf
00000200: 2b15 dfd7 4a3c da3f 7e5e e22d 9709 b2bf
00000210: f52f 8b5c e017 cbbf 4046 b54f d1c6 c53f
00000220: efe8 18f8 fd10 873f 5275 9e1c 13f0 b6bf
00000230: 438c 4314 dbd2 bd3f c1cc 15fb e8c6 b9bf
00000240: 9347 eba1 f1ba 603f 7c92 f2f1 e42b a5bf
00000250: 342a ea5b c3be a53f 5508 d1bf a562 c2bf
00000260: 7306 5f1a 3717 a73f 88ad 5dc5 d374 c5bf
00000270: 054c 73a6 666c c7bf c4fe 727b 54d1 9e3f
00000280: e144 2c7e f3b8 c73f 0c13 5dcd 4fb2 c9bf
00000290: eb66 0c1b c51d bd3f 7d6f d329 99fe b0bf
000002a0: c681 9b42 7e37 983f fd6c 5dfa 2ce1 d83f
000002b0: ee5f 3ad2 9f40 c0bf addf 5c74 ce4d c3bf
000002c0: ee87 a1a4 ba1e b13f af22 621a fb0f a13f
000002d0: 1b51 bcb9 02fc b23f c222 6579 a1af e63f
000002e0: 1c04 b3bd 77de b5bf aa38 5d49 660a bbbf
000002f0: 5e65 0d25 42de d13f 919a 18e5 e280 cebf
00000300: f268 eca3 7816 663f 6f4c c4d9 87f4 d6bf
00000310: 811b 38ac 9ab4 c33f add9 47bd eb56 b8bf
00000320: c190 937a 542e dabf 12f4 ec8b fab4 c0bf
00000330: 0816 4f97 2488 bfbf 726a 87d3 a334 ca3f
00000340: 7aba de6b 41a4 a3bf 144f 52d9 eeb3 afbf
00000350: 9645 326f 1bb2 d13f 0d7a a79b 684f d33f
00000360: 4374 347b 1662 c03f 793a db6f 9772 c1bf
00000370: 2d2c 368a 971c bfbf 1345 bacd 6c1f 8ebf
00000380: b430 ac96 9e45 c1bf e9bf b5b8 448a 913f
00000390: 2d7a 4780 9978 9abf d068 eec5 21fe d4bf
000003a0: e8ee 4f00 56b3 953f 33aa 3c12 e54e c73f
000003b0: 294d e488 acde 82bf b8f3 68bb 2e23 c6bf
000003c0: e2a8 6a50 7417 743f 02a9 5bca a164 bb3f
000003d0: 8dc6 12d1 f6b3 943f a0d9 f7bc e029 aabf
000003e0: 4063 ccd6 dcdb c03f 7baa c79d 1f1d d3bf
000003f0: 3905 10c2 ec45 aabf 9794 d2e5 c030 cabf
00000400: 723c 5207 27b6 c6bf 8782 8184 27b2 84bf
00000410: 4531 27c6 8d4e 83bf 6c77 7703 d252 bcbf
00000420: cd42 fde9 0b04 babf 6ba3 5d50 6fc8 dabf
00000430: 40b5 8d53 e32e b33f 9d85 8ed7 aefd c1bf
00000440: df86 d2d4 594b adbf b0f2 a618 5268 c9bf
00000450: fea3 f3f6 83e3 aebf 6983 ce07 3bb2 db3f
00000460: d6dc e1a1 8d02 adbf 74ea 673e b392 b6bf
00000470: 2406 d951 8f36 dd3f fb81 bbf5 f1b3 cb3f
00000480: 1256 9a41 007e 883f ea56 5c0b e6cf 92bf
00000490: d698 a3ac f32d babf 5d3c a316 ed1a 803f
000004a0: 4463 c083 1165 c4bf b307 1d9b 31ae be3f
000004b0: d5e7 0637 d4e1 b13f 4fdc e7c1 2b88 96bf
000004c0: 2634 d6f0 43cd c5bf 7398 b415 8f41 c23f
000004d0: da2a 25b1 9f3c c43f 1a81 3d34 9206 c6bf
000004e0: 5a93 8c55 74cb b6bf 5c15 409f 59ed e03f
000004f0: 3e05 dbb9 87ae c33f 8fde 21ce 0193 bbbf
00000500: c682 8263 e146 d63f cb7a 8043 b255 c5bf
00000510: 7256 ce76 eb67 bb3f a347 bc85 908a dabf
00000520: 6763 3e15 7636 b5bf 1d56 1807 5082 7c3f
00000530: 365c 9e78 a351 c7bf 6129 be67 67f1 b13f
00000540: 9230 f84a 81e8 b8bf e037 b5bf 92da d93f
00000550: f299 bbd1 e162 8d3f baf7 a207 629e a83f
00000560: 00bc c02c 59f3 cb3f 5f22 9c46 de6f b9bf
00000570: 21c3 f498 0f95 77bf e15a 8c2e e7f9 ab3f
00000580: 2840 0f2d 803a b9bf 23ca c12b e212 973f
00000590: d2db cbae b591 ce3f 7309 59ed ce61 9dbf
000005a0: bb1d 07da 5de9 c03f 3746 2b4b e2d7 df3f
000005b0: 5ded d22c 38e8 bb3f b16e d7d6 72b2 c8bf
000005c0: 3886 5e0a 7b3e d13f 74d1 fa72 1109 b33f
000005d0: 083e e887 c66c c5bf ccd5 7d05 9137 d0bf
000005e0: fd66 1034 4b80 c13f 6a73 de7d f2f5 bc3f
000005f0: 0e26 5fd5 cfae d4bf 4f80 60ca dcd2 b5bf
0.03114901333741988 0.1193077374744719 0.06976201880412057 -0.16221621327878316 -0.062136917880075616 -0.061568293556155416 0.02403811279762015 -0.04296106467817704
-0.1287429783961692 0.06049074984928592 -0.27397870970237953 -0.2288389497334193 -0.13446968066846837 -0.21150981396875634 0.12343077191474383 -0.05728949061486791
0.004783893304810997 0.020518922030388048 0.14903677471926122 0.6065193551380862 0.1513472713071523 0.01485270664498852 0.26039531303036384 -0.058115073669032034
0.06413656190568556 0.16251358404049315 -0.18253304183466115 -0.06161815400783391 0.08370950971897763 0.007021805338821405 -0.1231752437627457 -0.46331394293408806
0.07551076769107522 0.06487184284978541 -0.09891479595109437 -0.16665577820672198 0.14653496963733592 0.35911913583326116 0.06206520603382192 -0.1303677136487848
0.42916939878280197 0.008827232751469636 -0.1958830389699399 0.09475583449045795 -0.07475644687576741 0.09003863839074992 0.12416302789844469 -0.03153158720988986
0.17534954809166106 0.34767097219792054 -0.17430933375207863 0.03501270694857968 0.21195473183554628 -0.04535855021693566 0.0732335356342545 0.18817795177378074
0.015156350177682918 -0.003146891550114843 0.050787989000266265 -0.003259772973371551 0.02686375611532777 0.30799623630888895 0.1768573891494447 -0.15053232516608378
0.40992995339577715 -0.07045884008618405 -0.2116661502717531 0.17012993232724405 0.011262878545597902 -0.08960074852662572 0.11649865383837814 -0.10069137697228127
0.00204226678702297 -0.04135051206074977 0.042471032114083235 -0.14363548151055974 0.045098993271960895 -0.16762778412826784 -0.1829956352945318 0.030095405611745077
0.185331760986208 -0.20075414206998976 0.1137355032955402 -0.06638486167088149 0.023649189772983602 0.38874363374425497 -0.12697217717209192 -0.15081196481491813
0.06687513846694035 0.03332504937231328 0.07415787729798178 0.7089393015858934 -0.08542583829240907 -0.1056274346458134 0.2791905748213902 -0.23830829798062728
0.0026962620025986423 -0.35867496744430744 0.15394910248889107 -0.09507630702123633 -0.4090777585063386 -0.13052303154282235 -0.12317112630906746 0.2047314436775483
-0.038362545411804796 -0.06191965487337661 0.27649579867382934 0.30172171784025253 0.127993402632372 -0.1363095565961492 -0.12153002857500957 -0.014708375957783326
-0.13493711812077935 0.017129014753152125 -0.0258506760163703 -0.328010981838486 0.021191924828584258 0.182095178513309 -0.009213779380422853 -0.1729486861312617
0.0049051803131680855 0.10700427236921331 0.020217758665870767 -0.05110075289478577 0.1317096756763707 -0.2986525574512268 -0.051314734162597415 -0.2046128389530721
-0.1774338517902581 -0.010105427485713093 -0.009427173242237638 -0.1106387384856739 -0.10162424528722198 -0.4184835705587406 0.07493420400506512 -0.14055429005842948
-0.057215506772321005 -0.1984961147662907 -0.06032955541179062 0.4327533317792161 -0.05666010476209642 -0.0881759669645506 0.45645506852096873 0.21642899035124671
0.01195907783702935 -0.018371195262338803 -0.10226366963215425 0.007863857510896627 -0.1593343633001273 0.11984548603962146 0.06985212653572088 -0.022003825864853884
-0.17032670268636813 0.1426256996139191 0.15810009145419351 -0.17207553435128703 -0.08904196823693891 0.5289733991964272 0.15376373839357343 -0.10771189959074888
0.3480761977935284 -0.16667774482717443 0.10705444002663869 -0.4147073083887511 -0.08286226290364383 0.006960213287603459 -0.18217891110973178 0.07008978159698166
-0.0972977455168709 0.4039656517169288 0.014348758900678302 0.04808336585254787 0.21836390195082345 -0.09936322425722598 -0.005757389953303244 0.054640983993683674
-0.09854889965140556 0.02253297226020313 0.23882170710541445 -0.028693421589431844 0.13212178369415803 0.49755151119925095 0.10901213735899291 -0.1929458188086435
0.2694385148298326 0.07435711915133486 -0.16738206516355114 -0.2533915094021182 0.13672771494093885 0.11312785695049646 -0.3231696685512312 -0.08524875584453294

rnn.weight_hh_l0 f8 [32, 32]
00000000: 8f34 96cf dd6b c1bf 0cc7 9ab2 8c31 c3bf
00000010: 72b9 a114 80bd c83f 86c8 b5d3 342f acbf
00000020: 2a67 fd0a 08c5 c73f 5173 3bb6 a00c b43f
00000030: c642 7f37 9e57 8dbf e527 a1ef b2be a3bf
00000040: 6182 5558 e401 abbf fc1b 1636 d9c0 c1bf
00000050: ce03 3983 2787 c03f cd49 e161 0490 a9bf
00000060: 7f14 bf5b 13bd 8d3f df14 2b93 4364 7f3f
00000070: c750 6ce2 1e39 b83f fb0b 8ad1 bfda bbbf
00000080: 6053 9199 219b b9bf 9022 5c7e a00c c73f
00000090: b29a 3b08 fdad b1bf 652e abda 91b3 b5bf
000000a0: 8491 7fb6 c410 ba3f c1b0 d7eb 57b4 b53f
000000b0: ff31 dc4c 5dce 993f 6510 fa41 3cdf c03f
000000c0: 604a ca99 a2e7 b4bf bba8 7102 940f c7bf
000000d0: 66b8 393c 6c1c c0bf 0c2e 613b 9e5f afbf
000000e0: 474c d471 cf4a b43f 65cf 26a8 4e26 213f
000000f0: f7e1 9ef0 b869 c5bf fd0b c723 febe af3f
00000100: 7104 450d 7cf0 bdbf f469 28b5 c63d 843f
00000110: 03df 3b22 459e c6bf c2cd a6f5 5f2a c5bf
00000120: 1ce9 ff44 94f2 babf f6d4 dc6f f772 9fbf
00000130: 8474 8205 db12 c93f bb79 2399 f2e9 c5bf
00000140: e551 74ee 846e c63f a740 db54 775e ac3f
00000150: cbfc 58f6 2ada b2bf c5b7 901b 04ac c2bf
00000160: 2e87 8b63 22d3 c0bf 6c01 b779 373d b9bf
00000170: ba5f cab9 ed91 c8bf 3fef 8702 f5eb bd3f
00000180: b991 a8ac d2d9 bdbf 8b5a f281 c63e c3bf
00000190: fa44 c784 c08c c63f e9a1 1961 8c56 b43f
000001a0: 2a1f 96f0 5fa3 9d3f 3903 2935 2b04 b43f
000001b0: ede4 325c 9cc8 b9bf 2cbc d7b6 ca06 c5bf
000001c0: 2b3a d750 a00d c23f 135b 0e1c eb1b c93f
000001d0: 2e57 a408 bbb4 abbf 6423 a901 3f53 b3bf
000001e0: dc87 dbaf 26b0 8a3f 1f5e e303 b01b c1bf
000001f0: 67ad 6503 0508 bfbf 90dc e52b 1d1e bd3f
00000200: 95ba 9df8 d0bc b1bf 7090 eea1 3150 c13f
00000210: 01c0 bfd4 67ae bd3f f953 0f56 75b2 a0bf
00000220: 6fde 42f5 0aec b33f f875 d446 302e c33f
00000230: dee0 29b5 3d6a a93f 3556 7152 09a4 bbbf
00000240: 97e4 d725 0b6f 72bf d585 e22b 4bae b63f
00000250: 05d5 0b1b 841b 72bf 8958 2aa9 94a6 89bf
00000260: fec3 9c92 7c86 b0bf 2d7c e015 671b c93f
00000270: 9c89 af79 8a54 b63f b45a 33f1 45dc a43f
00000280: ab30 f83c 0345 8fbf 0f08 5bf0 17d8 bcbf
00000290: 301a 1cc5 f0f8 43bf 9e1d 1e43 5ca1 c23f
000002a0: 6e5c 895b 02c3 b7bf b6c3 3e26 0639 703f
000002b0: e7a8 9fcc 0a38 c53f 727e c3ea 728a 943f
000002c0: c33f 6395 793f c43f 43ee 56cd f4b1 bdbf
000002d0: 7808 3a6e c9db b73f 9f9b 719b bfc1 c1bf
000002e0: 0fa1 c132 24c0 c1bf 7af3 13cd 3ebd b2bf
000002f0: ba7b ca3a 3c00 bebf fbaf 6e3e c06e c2bf
00000300: 9974 4c91 af07 ba3f 0ca0 ae76 1ad6 bf3f
00000310: 39dd 672d 1527 a53f 8e46 06d6 5dd0 b0bf
00000320: c995 f644 7514 a33f b64c 5dbc 6c11 bcbf
00000330: 1801 045f 7034 99bf ac01 079f 327d be3f
00000340: e022 335f 6415 aabf 4e07 d2d8 0228 c3bf
00000350: dcc9 d2c5 c995 b3bf 66eb b319 55b6 a33f
00000360: f585 9715 a59c c8bf c116 a965 6426 b43f
00000370: 4e73 88b3 5a9e 773f 5033 e95a b946 c73f
00000380: 2c8d 5432 fef2 8f3f 43bd 4de4 9ca6 b63f
00000390: 2f20 8cb8 d417 62bf aeb4 e8e7 71c9 be3f
000003a0: d388 b101 5ac3 c1bf 3cd7 8007 d5fa bd3f
000003b0: 21e6 6987 f2a9 9f3f f7f4 9e03 0389 b93f
000003c0: dd40 1668 1ad9 c43f 2b19 0821 4005 b03f
000003d0: eb1a f17f fad7 bd3f 6e24 bc9b e404 a13f
000003e0: f6ba 6dc5 ac5e c2bf bd59 b4aa e470 c53f
000003f0: 1cf8 ea54 5e60 b3bf 6b3e 974c 0af4 b03f
00000400: b11d d5b5 cfa8 c4bf d159 e94e 75b5 bc3f
00000410: 2e7e f14a 8c60 b53f 8ae8 1253 5f4d b2bf
00000420: eb8e 1867 d47f b3bf ed08 35e1 4cbc bcbf
00000430: 267b a53b 7971 a2bf 86ba 235d 817e a5bf
00000440: 6c2d d11f 968f a9bf e4bd 3765 1284 a4bf
00000450: bb96 3059 17cd b23f 6137 4ded dce4 8a3f
00000460: a91b 6209 9205 c3bf 2f7a 9cc8 7204 a23f
00000470: 2b56 0330 0226 b1bf 53b2 60dd 0bb3 9b3f
00000480: 3aa0 4638 d029 bfbf 5e23 a767 0736 b03f
00000490: d5cc 63b7 cd5b b0bf df3b 8d36 fc9f ae3f
000004a0: b6ce 57ee dc79 c53f fcbf 82fc f493 ae3f
000004b0: 87cc 2b5a 09ff 83bf 840b d756 a636 b0bf
000004c0: acfd 5b5a 7032 95bf 4357 58ac 735c c93f
000004d0: e756 dd6e 10ce b73f 3c1e f13a 9271 ad3f
000004e0: 8ffd da6c c86c 01bf f7f4 cb99 4582 b83f
000004f0: b369 bf07 7816 ba3f 2354 1715 648a c1bf
00000500: 6c78 6f2d a815 b03f 2be2 b560 357f b63f
00000510: f8f4 8214 78fc bfbf 7d9c d30d a2e0 a73f
00000520: 16f5 6f43 728d c03f 0a9d 0a9c eadb c23f
00000530: 4386 1bdf 7952 c23f 94bb 80cc 2a04 87bf
00000540: eb08 46c0 ca0c b5bf b5b3 2eb6 ad65 aabf
00000550: c669 a9e3 43c1 a63f ada7 4eeb 6b2e b3bf
00000560: 1b32 cab0 a593 abbf 52fa 5d19 6e8a ac3f
00000570: 1af9 9056 7848 ab3f 239b 17f4 3165 963f
00000580: a100 ece4 66d4 b7bf c712 da34 9162 b7bf
00000590: b5a3 a301 58f7 b43f af54 f1fd e514 8c3f
000005a0: 9521 c094 7bc7 a1bf ba71 30f8 9a6f b93f
000005b0: d738 eb3d f1f3 a43f 4349 b8c1 538c bc3f
000005c0: 3836 6d3e a2d6 923f ed6f 370f a46c b6bf
000005d0: bdfb ebeb 6d15 c13f fe8c ddfc b3fc 96bf
000005e0: 99a9 4b73 78a4 aa3f 0833 a70c 52a0 9c3f
000005f0: e22c c49b 91a5 cb3f 4e8d 60f6 dc0f b1bf
00000600: 27ee 9814 24d4 b83f f5bb 2c32 adb3 a73f
00000610: ea8c f324 3fc7 91bf b66e c2a8 2777 9cbf
00000620: dc7a 07f2 a9a3 c13f 872e e95f e9ae c23f
00000630: 6acb 4c00 9428 b3bf d12e e58c 6bcc b63f
00000640: 9cc5 0a3e 3307 b43f 207d 9460 f91e c53f
00000650: 6216 6ab3 191e c2bf 4796 3a82 14a9 af3f
00000660: b41f daaf c274 a53f ff40 dc49 5af7 c03f
00000670: cdab 9c51 d863 a9bf b62f 90a0 13d8 c5bf
00000680: 0ab0 776d c1f0 b33f f63e 95b9 980d c2bf
00000690: 56af e7d6 2a96 9c3f a552 f9c9 3123 c63f
000006a0: 9a38 a53e a6b6 bcbf f251 acb5 9a07 a93f
000006b0: abcc eb24 1087 c13f d806 e1d0 5a68 cbbf
000006c0: 5717 0127 2429 b2bf 4c0a b161 2c31 b2bf
000006d0: 2ee5 06b6 c4f3 7ebf 7c6f ac82 ed1c c23f
000006e0: b999 81ad b7b6 c73f 6f72 be60 6281 c2bf
000006f0: 38bd 043a 8485 cbbf 664e 3e79 71ce ab3f
00000700: bdc4 202d 43ee 8dbf 984b d36c 6197 883f
00000710: 7e34 047a 792f c53f 7e15 1c28 d47a b33f
00000720: 3b94 ec2a ed5a b0bf cc5b d8d0 d7cc bbbf
00000730: 7aa4 48b5 4f5f afbf 1e96 0e06 a7ec c1bf
00000740: d8fd ac82 90dc bd3f ad2e a3d0 6916 96bf
00000750: 0996 5b2d 9faa ca3f f182 3a48 2d8b c2bf
00000760: 221b b427 148f c8bf 4fb9 916a 7e26 b7bf
00000770: a437 ceb9 3699 b4bf fd38 a2b7 e590 9f3f
00000780: 2958 693c 5acd 88bf d800 fe8b d4bf b6bf
00000790: 06c0 ba85 dedd bb3f 8c7c 8ae3 f53a c3bf
000007a0: 24d4 83b9 e15e c8bf 699c 7696 b4db bb3f
000007b0: cdef 660f 953a b73f 3cd7 cd72 719d a2bf
000007c0: 9fae 10b4 6036 bb3f cff6 647e e02d b5bf
000007d0: 1f90 901a cb20 c1bf 774d 6fcb 922b b0bf
000007e0: b245 a6af ebd5 af3f 8591 91ca 85c5 62bf
000007f0: 9cd5 52fd e50f bfbf 7381 a844 ac78 c0bf
-0.13610432277747406 -0.14994963379790993 0.1932830906620882 -0.05504765591003129 0.18570042168249162 0.07831768464116108 -0.014327274387967558 -0.03856429267086962
-0.05274880960746909 -0.13869776860175864 0.12912458331450555 -0.04992688841652502 0.014520789372804764 0.007663978542671062 0.09462159183414363 -0.10880659928993446
-0.1000233650132265 0.18007284326474293 -0.0690611023997956 -0.08477126682844867 0.10181836562657592 0.08478307254671603 0.02520128041855862 0.13181260320209556
-0.08165947203296176 -0.1801629077847958 -0.12586739483544135 -0.06127638316010228 0.07926651505504011 0.00013084135214358052 -0.1672888922601172 0.06200403391587626
-0.11695075344052143 0.009883453753947592 -0.17670501872611774 -0.16535567755418695 -0.10526396450578485 -0.030712000086357848 0.19588792580626457 -0.17120201566190282
0.17524778025894175 0.055408219440893185 -0.07364147676797754 -0.1458745131107532 -0.1314433084544872 -0.09859034272722561 -0.19195338794520272 0.11688166915695052
-0.11660496440214886 -0.1503532537942259 0.17617041095085267 0.07944562311752858 0.02894353776858264 0.07818861053330019 -0.10071732760379222 -0.1642697708880133
0.14104083964635214 0.19616450185704845 -0.0541132400559675 -0.07548898497146933 0.013031294099565764 -0.13365745725489916 -0.12121611912669082 0.11374075242734905
-0.06928735799531645 0.135259822910601 0.11594246810977894 -0.03261152911696991 0.07782047736952234 0.14984706362240252 0.049638679852195486 -0.10797174704324493
-0.0045004306280073325 0.0885970098629721 -0.004420772588436654 -0.012524758732336732 -0.0645521028461786 0.1961487633534217 0.08722749205438735 0.04074305123656555
-0.01526834993185163 -0.11267232530647696 -0.0006095100054331389 0.14554932858685005 -0.09281935438899477 0.003960632344317474 0.16577277175321756 0.020059390620075175
0.15818710130997546 -0.11599664700673266 0.09319743100243894 -0.1387252339365803 -0.13867619016969754 -0.07320015436921593 -0.11719108996702135 -0.14400485084968281
0.10167977616625236 0.12436070821297579 0.04131380252141032 -0.06567942118842948 0.037265457790720165 -0.10964088057271479 -0.024614101218504464 0.11909786589149601
-0.05094445860010466 -0.14965854250845684 -0.07650433616326019 0.03850046099429143 -0.19228042177478213 0.07871081811853299 0.005766252805668183 0.18184582652102188
0.015600191031416154 0.0884798104650502 -0.0022086291031691223 0.12026130592194548 -0.13877415735902918 0.11710864480195665 0.03092173530101239 0.09974688375855921
0.16287546236390585 0.06258011633335474 0.11657682059840695 0.03324045563756149 -0.14351424827642462 0.16750772795849214 -0.07568921635808618 0.06622375841038212
-0.16140171412028573 0.11214383293677278 0.08350445584937269 -0.07149310854120663 -0.0761692763995218 -0.11224823473188268 -0.03602198460679622 -0.04198078405339793
-0.04992360247032476 -0.0400701283032239 0.07344194343076087 0.013131834022398871 -0.1486074968163085 0.03519018839709919 -0.06698621437257006 0.027050195109199326
-0.1217317712204257 0.06332441597545599 -0.06390081145564193 0.05981434026636356 0.1677814639839334 0.059722572158875636 -0.009763787330916663 -0.06333388919942534
-0.020700221552940753 0.19813390651023086 0.09298804003386928 0.05750710458283634 -3.3235422603801396e-05 0.0957377911072007 0.10190534772065156 -0.1370358565315267
0.06283045872939547 0.08787854777427444 -0.12494612217684054 0.04663568896085566 0.1293165997775893 0.14733631724559643 0.14314196962281941 -0.01123841702073295
-0.08222644037417452 -0.051556995858255496 0.044443246403449474 -0.07492708678060352 -0.05386083396033233 0.055743637653894354 0.05328727776258031 0.02187040378876327
-0.09308474625504683 -0.09134776630714746 0.08189916648883762 0.013711735546318186 -0.03472505751421121 0.09935921248729232 0.04092363243909041 0.11151622275818789
0.018396887836664017 -0.08759522792337267 0.13346647281283977 -0.022448360737496557 0.05203606040398085 0.027955324194226555 0.21599025827195023 -0.06664830222193993
0.09698701384416407 0.046292698263975675 -0.01736162817986734 -0.027798289942991793 0.1378071243079465 0.14596287902019275 -0.07483792311977103 0.08905670347047169
0.07823486580561795 0.16500775543043122 -0.1415435911223311 0.061836853882863134 0.04190643688804077 0.13254860502684804 -0.049589881861116326 -0.17065663661958091
0.0778923885588371 -0.14103993474645166 0.027916592947732376 0.17294905054099732 -0.11216200856617534 0.048886141468901814 0.13693429758823092 -0.21412215422792857
-0.07094026520016193 -0.0710628260140222 -0.0075566944146257375 0.1415078056387492 0.1852635953138824 -0.14457349513840564 -0.2150121005338208 0.05430941205045485
-0.014614605726907088 0.012007485517107772 0.16551130731423663 0.07609296778908534 -0.06388742731049117 -0.10859440659292757 -0.06127404296814461 -0.1400345592093552
0.11664679708791625 -0.02156987510606594 0.2083319636796406 -0.14487234141144925 -0.1918664163460671 -0.0904311189822 -0.08046285663860303 0.03082617696105049
-0.012110428780186382 -0.088864597490104 0.10885420575027646 -0.15023683176420766 -0.19039556082103204 0.10882118867321967 0.09073764444377659 -0.03635744596878829
0.10629848857996159 -0.0827312763767296 -0.1338132743559308 -0.06316487757367449 0.06217896002921054 -0.002291451750851605 -0.12133634028108137 -0.12868264534428028

rnn.bias_ih_l0 f8 [32]
00000000: 886f aaf6 4340 adbf 5715 d8a1 5409 b1bf
00000010: 15f1 75e4 4e78 a5bf 8b93 f93f 21bb c23f
00000020: ce07 bc33 4c8e ac3f 665a 7d5b ddd0 93bf
00000030: 5901 467b dff6 a73f 0295 aef7 98f7 c1bf
00000040: 19a6 1b8d b710 a33f 39e0 e47e 1746 b23f
00000050: c34a 0cc1 a878 b1bf 4f12 2e8e 57fb a2bf
00000060: a227 1f9e b5de c93f 6777 7e66 6730 b73f
00000070: a4c9 c06a 42e4 c6bf edc5 6856 4abc bebf
00000080: 3b00 67cd a0d1 c73f dcd0 9e7b d4de c2bf
00000090: 700d ee00 0acc a83f 1a88 afc9 2eba b4bf
000000a0: b18a 7044 226c b63f 813a 8365 a46d c9bf
000000b0: add1 a505 c527 ac3f c162 0b54 1860 b33f
000000c0: 4c2f b1ed 68e2 c7bf b8e9 a421 fd62 b33f
000000d0: e96d 0358 c604 c7bf b162 fc37 31fe c3bf
000000e0: bc74 9bc9 68cb abbf 5544 4a16 fe26 c9bf
000000f0: 996c a96e 8a7e 813f 46a2 13cd 37d4 a53f
-0.057130931721274314 -0.06654862357398393 -0.041933503521223305 0.146335750806568 0.055773145022626744 -0.019351443013272983 0.04680536632349925 -0.1403685769447876
0.03723691556463055 0.07138201568602733 -0.06824736321531603 -0.03707383738131808 0.20210905285631237 0.09058233501715805 -0.17884092533638551 -0.12006058320618936
0.18608484296237457 -0.14742523227835747 0.048431694615852616 -0.08096592353788915 0.08758749171151227 -0.19865851360960465 0.05499091810171151 0.07568504382960396
-0.18659698110638556 0.07572919913665188 -0.17983321473626226 -0.15619483216939536 -0.05428626500154496 -0.19650245750793496 0.008542138578539403 0.04263471964242575

rnn.bias_hh_l0 f8 [32]
00000000: b737 55bb 4ee8 b4bf 5715 d821 0697 b1bf
00000010: 8ff8 3ad2 d277 b2bf eab1 1980 7856 aebf
00000020: 30f8 430c 7602 a8bf 18ad bead 4fea aebf
00000030: 4580 d1de 2064 c53f 2e2a 5d4f 5e1d b0bf
00000040: 01d3 8d06 cda5 bc3f 2470 72bf 8554 c63f
00000050: 39b5 f33e 52ff ba3f cbf6 e838 9cee b83f
00000060: a227 1fde b4f0 c73f 88dd f999 aafa 9f3f
00000070: a56c 7e6a da2e b23f eac5 6876 e1ca b2bf
00000080: 3b00 670d 4c05 c63f 4c5e c2c8 2115 b43f
00000090: 7ee2 1adc 01bb 193f 04f0 a02c 2c84 a13f
000000a0: 4e45 3882 a718 c33f c48a f934 c986 be3f
000000b0: 8eb9 68e9 6162 88bf 449d f46b b92e b0bf
000000c0: 4c2f b1ad 64cc c6bf d158 6cf9 39a1 96bf
000000d0: 3790 e43f a5f7 983f 4f9d 0368 8323 c13f
000000e0: 8b45 329b 0a4f be3f abbb b509 7f8b c13f
000000f0: 185b aa1b ccb5 a83f 3389 4e34 7f60 883f
-0.08166973184162783 -0.06871069265624406 -0.07214086182190925 -0.05925346912121994 -0.04689377689099705 -0.06038140293034128 0.1671181762676516 -0.0629481261977751
0.1119049206734637 0.17445442054747773 0.10545839344896003 0.09739090337185556 0.1870332798555952 0.03122965397639413 0.07102742290446658 -0.073408214005006
0.17203665403758514 0.0784474482664958 9.815405703762246e-05 0.03421152157577015 0.14918989046467818 0.1192441706021255 -0.011906399665431857 -0.06321295629151275
-0.17811258774815497 -0.022099405144296484 0.024382192635258284 0.13389628008665475 0.11839357651685682 0.13706958746067008 0.048262003304605894 0.011902803214813495

rnn.weight_ih_l1 f8 [32, 32]
00000000: eeee fdd9 88dc c8bf d88f 071f eff2 a13f
00000010: fa13 6a28 51c5 a23f e311 d492 04a2 bfbf
00000020: b5d2 bd18 ef2b b63f 58bf 0e1c a9e5 c03f
00000030: 1849 5846 0a45 c0bf 96b6 ee22 28ba cabf
00000040: 4cfc 62d3 2d18 a1bf 1bee edfa 5860 bf3f
00000050: 77a7 32ac d16c 9f3f 9053 cedf b9b2 64bf
00000060: 670a 8d97 1b9d c73f c61d 956f 4b81 cabf
00000070: ead6 47e4 dfa2 7f3f ff28 7ea8 2428 a23f
00000080: 4a90 29db 235c b63f 7972 b5b9 897e bb3f
00000090: 5721 b0ad 2a08 ca3f 42ae 4be5 819c c03f
000000a0: 8dbc def9 7832 963f 91a7 27b5 5451 91bf
000000b0: fb03 aa6a 41ec a83f af2a 3666 065e c2bf
000000c0: cdd5 4820 8c8c b0bf 99e1 64d7 8e1f bbbf
000000d0: 7097 cf54 42f0 c03f 5711 ded2 6096 b5bf
000000e0: 4b14 60d6 8e9a ca3f a681 d52b de70 b0bf
000000f0: dbbf 1ee7 154a b3bf 2828 b053 f0ec b2bf
00000100: 8f98 ac13 193d a23f 0e30 ac37 3d43 9ebf
00000110: 75af c80f db4f b43f 6ca6 70f0 5778 bbbf
00000120: 4b94 3571 2d19 883f 5909 de34 925e a63f
00000130: 83a1 a886 cb99 b3bf ed7f 16de 7da6 abbf
00000140: 7bbd 2c61 b195 a33f 9445 77aa 465f b73f
00000150: 5164 59eb 13d8 c23f 9bf4 194c f316 9fbf
00000160: bc49 f47b c10f b53f 7e56 fdb0 30a5 a8bf
00000170: 9f38 c413 e320 bb3f 97f0 6ceb 11f0 bd3f
00000180: a9ab 99c2 9fd5 af3f 16c3 b353 6230 863f
00000190: b168 273e fe38 c5bf 1685 14fc bea3 b13f
000001a0: 83eb 1f2b d7cb 91bf 17fa 91ef 8dae b7bf
000001b0: 9b34 828a cc6b 913f 2ee5 b0f7 e62b b63f
000001c0: 7d01 d694 e398 a4bf f07e 27f3 4bf4 c3bf
000001d0: 7018 e73a f60d c83f 8314 9919 b178 903f
000001e0: 081a 925d 7eef acbf a00a c3db e538 8c3f
000001f0: 625e ff3a 2055 82bf a41f 4753 2408 b03f
00000200: 9771 b554 db4a c23f 3a6a 05c6 a5cb 93bf
00000210: 2e52 ce1f b50c b7bf 6fa1 66a3 f87b ba3f
00000220: a50f b22a eb66 c13f 8e67 058d 3dfc a0bf
00000230: 4dd5 2238 7392 c1bf 69d4 2b70 b71b bf3f
00000240: 39c1 47bb 7533 c73f e5f1 9801 e247 a6bf
00000250: 626b 95b4 3135 99bf 7691 f14b 975b c73f
00000260: 541c db77 4d71 bdbf aabf e2b8 365b be3f
00000270: 153e d12d 954a c03f 4b5e 05f8 6640 ab3f
00000280: e582 ddc1 d4f7 c13f b59f c2d1 3cc7 b23f
00000290: 3636 bc50 a80c bebf d2f8 1c5a 9129 bd3f
000002a0: 754d 4a02 36b5 723f 73b4 26e2 a083 c13f
000002b0: 9385 17ce 79c7 b23f 7225 edfa d856 c13f
000002c0: 21b1 2078 5d4f b23f 5523 51e5 7363 98bf
000002d0: c43b 862f dcc7 9bbf f1b4 a7ca 5691 ba3f
000002e0: 1971 e8cc ffd6 adbf bbcb 9a24 829f 7abf
000002f0: 5cc1 d333 7e7d 85bf 17cc a5b8 4159 bb3f
00000300: cf00 6dad d99f b7bf a06a 2d87 1f0b 72bf
00000310: fb84 0517 772e 95bf 416e 23c4 9991 c43f
00000320: 5271 e41f 17cc a4bf 8142 095d bdad c73f
00000330: dd23 c00d 9d62 7bbf 8b88 b484 4e8b 923f
00000340: b6ae 512a 2f07 b03f 9db6 1e20 a218 babf
00000350: 5dea bce5 6983 bbbf 61c9 e80c a216 b43f
00000360: 5a3d db60 8f1d c0bf ad8b d7ef 8c41 97bf
00000370: c9e2 cbd3 5d6e 5ebf 300b 0a8e 23ca aebf
00000380: 5fc4 b62f c4d8 9dbf 68b2 e980 9ec6 b03f
00000390: 11cd 52bd 5827 90bf 1368 d279 1e35 c6bf
000003a0: 0841 e630 7697 b8bf 0309 ef99 00a1 c03f
000003b0: b581 baf7 df13 95bf 084b 3500 3115 9fbf
000003c0: 5065 96df ad8e c33f 77d4 163b df0e bebf
000003d0: 2889 cbfc 2567 be3f b3c7 8819 6584 be3f
000003e0: 8e81 92c8 b167 c4bf 203a eb5e 1781 b7bf
000003f0: 7f18 a47b d806 c23f e569 72e8 b262 a9bf
00000400: 0bf0 57a5 bd96 bdbf b9f4 da76 d3c3 b9bf
00000410: e1e7 4d3b 4ffd 67bf ea1b 3edc 2c5d c5bf
00000420: 98c6 36fc 1535 a1bf d5ec c41c 82ae c0bf
00000430: 850d 13e4 d39e c6bf 518a 1a36 f2ac bebf
00000440: 0ecc 5042 fb5f 8fbf 8f50 d79d 3bf3 a33f
00000450: da08 a63d 1773 b53f b0c3 8c4a a9db c33f
00000460: 9839 e004 2ed4 bf3f cf22 b47d 82f9 c73f
00000470: bba8 4cba b9e2 c93f 5f14 7e90 58e5 c0bf
00000480: fa29 a45a 3ce9 c8bf 040e 1f00 1246 c63f
00000490: 3019 6327 b5e4 cabf c394 6901 3e63 bc3f
000004a0: a7fa 112c 67ba c2bf 5f47 8c81 ce62 ca3f
000004b0: e5c8 6658 b562 be3f ad6d 2da3 e6e0 81bf
000004c0: 6878 ad6f d9a7 c93f 21a4 1d25 07d0 c7bf
000004d0: 40ed 62d4 5aba b9bf d33c b487 ef78 c43f
000004e0: 09f1 7ba0 7912 ad3f a742 ae25 4454 a83f
000004f0: e3a3 3ba7 6a32 c4bf d48d 03c2 a812 c7bf
00000500: a1d7 e8a3 b2ae bc3f dce3 8506 32cb bb3f
00000510: 6f67 4f9b 7bc3 c3bf c7d9 3aac f734 c7bf
00000520: 5f27 af09 2fc1 a23f 39bd 279d 3726 b8bf
00000530: cf4c 16dd a9f5 b93f e89f 77c0 b3b1 c3bf
00000540: 7fe1 f352 6c8e b03f 7eef e4a5 ee29 c83f
00000550: 038b b920 929f 8ebf 29c2 ab31 f15b b33f
00000560: 6907 106d 3432 8d3f 74bb 1473 f53b b3bf
00000570: bf5b 412e c150 78bf 0ef9 ca07 fa20 c0bf
00000580: 9716 ee20 3f02 b8bf c1ec 9df4 6bbf bc3f
00000590: 28d3 760f ff48 b8bf ca42 7dfc c572 bdbf
000005a0: 0333 4bb1 308b c53f 520a d605 d9b2 ccbf
000005b0: 3b9c 17af fb39 afbf 7e6d 971c e544 aabf
000005c0: 25e9 9853 634f b1bf 4f81 bf58 4d43 8a3f
000005d0: 1cb3 1817 2e33 cbbf 3313 e5b3 fbce ad3f
000005e0: a05b 9ebf 069b a63f d038 f325 e487 c9bf
000005f0: 9301 e646 a238 c03f 361b 6b31 e69f 9c3f
00000600: 791a 84fd f57f b03f 6fb4 2d5f f843 c43f
00000610: 508d 8613 396b 72bf e60c 97c9 1cdb 763f
00000620: 2d96 b471 afc5 b83f 5e6b e2e2 94fa b4bf
00000630: 098b 2ccb 63de b23f eb3c 34ba b7dd cabf
00000640: a720 1f9e 5055 b6bf 4fa5 f6fc 20d6 c73f
00000650: da0d c607 679d ab3f b4f0 cd05 f6d4 c6bf
00000660: dda0 6208 b248 b2bf b2f7 13c6 1a1d c3bf
00000670: 680e 30ec 0d84 b5bf b1c3 3a0f bfae b83f
00000680: 1aeb f806 b47c 623f 9072 ca42 617e a9bf
00000690: e253 fd95 e382 a4bf 3b05 6c8e b2bc b5bf
000006a0: 0a50 cd87 03c2 c13f ab6c a7aa a67a c8bf
000006b0: 1e90 af34 0d5e b4bf b0ad 33e0 8eda 54bf
000006c0: df81 3366 19c6 aebf 11db d768 bf61 b33f
000006d0: 06d2 ff3e 9dca c9bf 87d5 e775 dd7d a1bf
000006e0: 7a8c 752c a101 c03f 8809 6087 993d c5bf
000006f0: 5764 2034 7778 b7bf 2d00 f22a d695 b3bf
00000700: 55c3 8027 38f1 bfbf 38a2 51e3 ae2d b53f
00000710: 6b6b 9e6f 5f1c a0bf 6bc0 0430 4f13 c6bf
00000720: 6e3d d446 ff4c a53f 5a25 627f 307c c5bf
00000730: 5ed7 78b5 4077 b93f d45f 11e6 4259 9c3f
00000740: 8d57 7600 dff1 b73f adc2 c986 22eb cb3f
00000750: 6b57 03c5 fd34 a5bf 8e37 f8bf e5a4 a2bf
00000760: d408 d27a 2ba9 c83f 6ca2 4fcd dcbd c7bf
00000770: a879 7a76 1ed1 aabf 791c 31e1 781d c1bf
00000780: 03d6 f117 13aa c03f a644 f753 25ac a13f
00000790: bf88 21d4 4157 cb3f f167 46fc 75bc c63f
000007a0: f990 7686 9b2c b53f 3abf 1015 080a c8bf
000007b0: 61a7 b80c 3631 bfbf 5a42 e084 8a8b a8bf
000007c0: 2c3a 2fca cb90 b0bf 0692 19f7 ad00 9fbf
000007d0: 7676 fa6a 77ee 453f af9e f4eb 04e2 c6bf
000007e0: 99b3 d150 5bcb bbbf 8408 b90a f621 c1bf
000007f0: 2dba 4a0d b911 c5bf fa87 83a1 8482 a83f
-0.19423018116128027 0.035056564843926885 0.03666165941562123 -0.1235659464328545 0.08660787920036735 0.13200868482590056 -0.12710693774040105 -0.20880605416953263
-0.03338759618190376 0.12256389738279731 0.030688549170612114 -0.0025266294819154614 0.18448204898784867 -0.20707076023448517 0.007723688675914645 0.035462518280001014
0.08734344578403 0.10739956649690353 0.20337422829494287 0.12977622695994923 0.021676912546976502 -0.016911815220658936 0.048677486677668434 -0.14349441519546732
-0.06464458263584234 -0.10595028647083495 0.13233212605626532 -0.08432583950167803 0.20784173457664887 -0.06422222681204079 -0.07534920590001042 -0.07392789881865325
0.0356223904148446 -0.029553371928202003 0.07934350142812525 -0.10730504627340459 0.011766772286771273 0.043690270379573355 -0.07656547582212707 -0.05400460563691909
0.03825144110885056 0.09129754697575826 0.14721917144450683 -0.03036098625169768 0.08227166439272698 -0.04813530121343222 0.10597056610660836 0.11694442746824261
0.0621766972588696 0.010834472827328006 -0.16580179247723018 0.06890481619167974 -0.017379152304765732 -0.09250723933107739 0.017012783006567927 0.0866073946680401
-0.040228950422718214 -0.15589284298675166 0.18792608142956935 0.016085402667404224 -0.056514691278653884 0.013780399102306717 -0.008951427269422389 0.06262423546934187
0.14290944706125394 -0.019331541262866937 -0.09003765131485217 0.1034541510513287 0.13595332703345978 -0.033174441780558714 -0.13728180161494166 0.12151667107157639
0.18125793118043435 -0.04351717252254498 -0.02461698212332964 0.18248263557610372 -0.11501011062783678 0.11857931150257053 0.1272760843007609 0.05322572496032459
0.14037570444181494 0.07335262414073791 -0.11738063784670136 0.1139155240061627 0.0045673475002730906 0.13682948153055782 0.07335625916996084 0.13546287777198135
0.07152351553731197 -0.023816882010837166 -0.02712959327760324 0.10378019759783165 -0.0582809388763243 -0.006499775286715466 -0.01049326511062592 0.10683069952010303
-0.09228287204769291 -0.004405139118569906 -0.020685063152431998 0.1606933791834866 -0.04061958565054859 0.18498961489469326 -0.006685842028681469 0.018109537934954772
0.06260962279491875 -0.10193837436846782 -0.10747396334492394 0.07847035231751455 -0.12590210179630895 -0.02271099294547312 -0.001857368114711532 -0.060135947312139115
-0.02914721051428548 0.06553068778311799 -0.015775095515619123 -0.17349606464705455 -0.09606112188180671 0.12991340175910446 -0.020583629126692055 -0.03035427631159407
0.15279172341687763 -0.1174144286404316 0.11876141950373109 0.11920768617053916 -0.15941450398987594 -0.0918135267959106 0.14083391225011962 -0.04958113753783148
-0.1155813721342726 -0.10064431812039033 -0.0029284045689878945 -0.16690598253282413 -0.03360813812049662 -0.13032556919811236 -0.17672203670927558 -0.11982644863977866
-0.015319788895885391 0.03896509458323393 0.08378739600269416 0.1551410306942933 0.12433135623016367 0.18730193269609294 0.20223161312725843 -0.13199908309266825
-0.19461779046862643 0.17401337629245017 -0.21010460303495782 0.11088931593401967 -0.14631356860987418 0.20614034009536916 0.11869367035140817 -0.00872974572637627
0.20043485596665112 -0.18603600799841138 -0.1004997986337246 0.1599406635873267 0.05678157886538499 0.04751790008515871 -0.15778859296486222 -0.180256933911649
0.11204067708680877 0.10856926593068245 -0.15440316279892438 -0.18130393895780925 0.03663012498107209 -0.09433314883039125 0.10140477798113355 -0.1538605394155177
0.06467320466243186 0.18877966976458177 -0.014952794669800712 0.0756216760889933 0.014255914285971465 -0.07513364848703735 -0.005936388599443398 -0.1260063684512222
-0.09378428033786644 0.1122958633622373 -0.09486383559744793 -0.11503255285539207 0.16831024796410796 -0.22420800003972602 -0.06098925125461859 -0.05130687688844214
-0.06761761465978518 0.012823681136013091 -0.21249939086683234 0.05821978159887067 0.044151507273617385 -0.1994595704367783 0.1267283292945761 0.027953717008837496
0.06445252837520767 0.15832428595914247 -0.004496787027537266 0.005580055666942507 0.0967664387322535 -0.08194857157870447 0.07370589933684014 -0.20989128677363253
-0.08723930225744657 0.186222194211306 0.053935260485584016 -0.17837405475063906 -0.07142174439161715 -0.149325701444409 -0.08404624000837091 0.09641641732993268
0.00225672875947448 -0.049792327311682816 -0.040061103877327545 -0.08491054513071543 0.13873333102185398 -0.19124301274027763 -0.07956011329912413 -0.001272811438691384
-0.06010512707303283 0.07571026143692118 -0.2014957959760439 -0.03416339935567252 0.12504973097665922 -0.16594237432589076 -0.09168190977688205 -0.07650507496327981
-0.1247744652216743 0.08272831964280492 -0.03146646726164345 -0.17246427387863447 0.04160306682217195 -0.16785246105090829 0.09947590284795413 0.027684254924991894
0.09353441010747883 0.21811324674083235 -0.041419916438527014 -0.03641431778315428 0.19266265389530324 -0.1854816439147443 -0.05237670131940614 -0.13371191974349353
0.13019026440785816 0.034516493320219596 0.213600376681887 0.17762636964908965 0.08271190674583186 -0.18780613926491602 -0.12184465227678977 -0.047939614029137004
-0.06470941244263234 -0.030276029783992818 0.0006692965598237971 -0.17877255936877165 -0.108571727019536 -0.1338489105565409 -0.1646033587362167 0.047870773998297936

rnn.weight_hh_l1 f8 [32, 32]
00000000: a37c c163 7b61 b8bf ea36 90fb 66e6 bc3f
00000010: f10d e46a 5ef9 c5bf fb0f 67a5 b8c6 c4bf
00000020: 0d99 1142 6f1a c5bf ae0f 7533 4acf c13f
00000030: 2781 bd0b 341e c63f b80b 0c78 55bc b9bf
00000040: af0a 2e10 04c6 bebf 1739 23eb e8e2 c23f
00000050: 4efe 77e1 df3f c1bf 55ba 5a60 605e b8bf
00000060: 9d33 f8d4 9f1b cabf 3162 1366 87ac c0bf
00000070: 3049 1446 e421 61bf e6e4 a1cb f3ba c03f
00000080: 7ef2 6431 1a50 b0bf 808b 77eb 8db3 91bf
00000090: 5893 4801 dc43 ba3f 9285 a9fb af3b b4bf
000000a0: 46d6 b1ef b526 b8bf 663d e6a5 c40c b5bf
000000b0: 7306 b5ae bb7b be3f 1a01 fd3b 187b 90bf
000000c0: 54d8 2255 43da b1bf 3787 eccf ec53 c63f
000000d0: e116 642b 07fa c13f 0894 4f8b 33b0 c43f
000000e0: ae1d 73b9 6cdd ae3f 7492 af43 4450 b7bf
000000f0: 041a 50cf c384 b1bf 9948 e66a 9563 c43f
00000100: eadc 767e 888b c1bf f2b2 a70b b52f b03f
00000110: 1644 ed31 0240 bf3f 8b76 0c40 b6c9 c3bf
00000120: cc72 116a e694 bc3f 2e44 ff08 d735 ae3f
00000130: 5870 6902 9f79 c1bf b43c 2072 8b39 91bf
00000140: 3a3d 8ba6 5ad4 bb3f f35b 60e9 04b4 a43f
00000150: 7169 76a5 b895 8c3f 480a ab7b 4534 75bf
00000160: e7fb 8ac1 3885 b23f 6da9 5fc8 017f c63f
00000170: 6ab4 9b97 b419 a63f 75db d5f6 e055 bd3f
00000180: 8226 525b 34de c4bf 977a 3716 5aa2 c73f
00000190: 31af a9cf 07ec c13f 18e3 2566 1990 b43f
000001a0: e8e1 5013 f82b c33f e800 5190 7c86 bbbf
000001b0: 05cf b1f8 68d6 b03f 2442 1db1 8969 b8bf
000001c0: 0924 9e97 760e b83f dd2c 9f7b bd4a bbbf
000001d0: 3724 e990 a3f5 b43f fb77 82ed ce7f c9bf
000001e0: c501 a4cc 7e25 65bf a33a 4a46 45c0 b33f
000001f0: 759f 8dae a2e8 6bbf bf3c 3baa a31e b93f
00000200: b87b b229 271a b43f e129 65d6 610e c83f
00000210: 63af b546 acaa b43f c35a 620b 022b b7bf
00000220: 198a 1a4d 5772 94bf 33f8 6db2 badc b83f
00000230: 6430 8c1d 5705 b63f 1af8 7fcb d775 a33f
00000240: 06bd d9aa 826e b63f a5b3 2fc2 8626 b73f
00000250: 0052 ee5b e6d5 c1bf fb1c d4b6 20aa c1bf
00000260: 78eb 19ea f5c8 c2bf f77b f18f 4bc4 ac3f
00000270: 8cb5 1795 799d b0bf 7929 7b65 35ae bc3f
00000280: 98d3 de62 0869 af3f cee1 564e c9fe c03f
00000290: 40d5 73eb d927 a03f 9333 52ed fe1e 873f
000002a0: 57d7 bd8a aef0 af3f 01e7 f531 5501 8dbf
000002b0: aef1 c840 97f4 b0bf 2f45 9e24 a332 b5bf
000002c0: 5d1f d0f3 0461 ba3f 1ded bf26 5e44 c6bf
000002d0: e090 33bb 984e b53f e750 b127 2280 c2bf
000002e0: b4f3 aa22 9244 7cbf 52e1 a271 8b7c bdbf
000002f0: c98a ba1f 13f1 a43f 5c6e 6ee2 4790 053f
00000300: 4589 e8a6 4eb1 bc3f 23b6 b460 3dc0 a83f
00000310: a346 baa0 b233 ae3f 4ba3 d19b b34f a43f
00000320: 043a 17cc 7815 b4bf 21bd 29dc 2150 b0bf
00000330: 77e3 f877 4cea b43f 518b 98e1 ce3c 9ebf
00000340: 0f97 604c 915b b5bf 4af8 f4d0 997c c7bf
00000350: 153b feb5 4318 ca3f 7d20 9c71 6323 ca3f
00000360: 49ed ff13 52f6 b93f a5c0 de9f d627 b3bf
00000370: a19e e608 d72f b23f f867 7387 61e0 c0bf
00000380: 80f0 f860 32a7 8fbf b9c6 f7e4 08d2 59bf
00000390: 9c9e 9977 e148 b2bf cf50 ccad dcbb c0bf
000003a0: d66e f623 2000 b5bf 5411 ae64 a52f 773f
000003b0: cf15 1476 b54b babf e432 d663 78b8 a0bf
000003c0: 6f7b 6126 7bbf b1bf 23b3 e326 38f6 bc3f
000003d0: 3912 c887 d108 ae3f 195f c5dc 7127 bbbf
000003e0: ec0a c459 aa96 943f fac7 0ecd 9c95 b03f
000003f0: 5f60 8804 75de af3f 8b8b 49a9 c89e b0bf
00000400: 38c6 a907 fd79 bfbf d675 a6f3 89c8 c43f
00000410: 2f99 ddc0 38c8 bdbf e917 667c 8f6f a03f
00000420: 5ef3 1420 91cb bc3f c0cc 4d71 82c7 76bf
00000430: 4e21 772e 437d ac3f 7cf7 8bd0 d21c b0bf
00000440: ff73 ba2d 014c c53f 2390 3809 1112 903f
00000450: 910e b3a6 3457 c1bf 455b 1621 d1c1 babf
00000460: 2907 e399 8d9c b5bf a52d 0f78 92d8 a4bf
00000470: 0e6a a28f d8e1 b13f 18ac 7cec ebab b83f
00000480: c895 b3d6 1322 bbbf 864b 5bd2 b37e b6bf
00000490: 7118 c1d0 60a0 b8bf 24a6 bcaf d24f ab3f
000004a0: 8c16 a263 6160 a7bf e90d c4f5 6b07 88bf
000004b0: 7633 dd97 e598 623f ba55 c9de 1d90 83bf
000004c0: d87d 93b0 a01a b33f 924d 80f9 adc0 8d3f
000004d0: f684 06c1 987f c13f afca 5741 7f94 c1bf
000004e0: 7edf edb6 62ea b9bf 17c2 6614 2d98 c8bf
000004f0: 41bc a905 6753 c3bf 10f6 8f58 c1dc 7fbf
00000500: 99b2 0c2e ba9b acbf ba8a be57 48bc a43f
00000510: 65f1 672c 5004 c33f 340a fd7d 45f7 98bf
00000520: 0b3d db20 c770 bd3f 135e e587 ec10 c1bf
00000530: ae2a fac8 88db a8bf 483f 33c1 1215 92bf
00000540: bcce e905 23f1 c5bf 2737 3438 a468 ca3f
00000550: 27c5 4981 882c ad3f 9f82 7f0c a8de 83bf
00000560: 2572 ed78 1f5f b7bf 47a3 a72e 1692 c3bf
00000570: b206 000f 6703 bd3f 7212 978a 7db3 b3bf
00000580: cac2 6eef 4837 a8bf 6639 93e7 341d b8bf
00000590: f851 39ee 0dff 903f f416 ff63 6086 c13f
000005a0: 1bf7 c7ef 49d4 b33f 33fc b8b6 03f0 be3f
000005b0: a82e f2c6 85d8 c0bf 9212 3959 e14a c2bf
000005c0: e1f9 c35f ce80 9e3f 6c98 db03 32b4 c83f
000005d0: 240a 11b6 c835 b03f 0dda 9056 c92b ca3f
000005e0: 3e14 a5f4 49b0 b63f 5ed3 0851 8991 c63f
000005f0: 90fe 0391 499a 803f ca08 f9fd e316 c03f
00000600: f5a7 5ecd 4471 c53f a964 1f89 b1ed c6bf
00000610: 1ee9 5a6c d0ac 873f 11d6 9f62 bcea 883f
00000620: 2365 60e5 ba74 c9bf bf36 0684 5f0f bbbf
00000630: 7cf9 a4a9 4151 b8bf c166 8b17 abcd babf
00000640: a083 ad22 cca7 c6bf 57d8 0377 c9ec b33f
00000650: eb5a 0d5c a56b b93f c81c 44ef 059f bcbf
00000660: f50f 7e89 640c a43f 14d1 112d 8156 b83f
00000670: 697c 62ac 0f56 9cbf 69c7 6d63 f5af bdbf
00000680: db50 4f46 866b bbbf 135c 1a94 d944 bcbf
00000690: afd3 2bd0 e17b c8bf 4ff8 4eea 07c2 b8bf
000006a0: 21a8 496c 2cd2 b4bf 173c 3713 b5c3 c43f
000006b0: 34ae 0a06 b261 b7bf 5354 023b 3ac1 b4bf
000006c0: 34c4 0ee1 5846 a2bf c573 568e 13c9 c0bf
000006d0: da98 bb49 f07d b23f 6f70 a8fb dee4 c13f
000006e0: 33d2 42e4 7dc4 87bf ab71 c58d 8377 bcbf
000006f0: e92a f415 3428 c53f b9dd 6773 1e6d af3f
00000700: c762 7644 28ca acbf f74e d038 4c30 c23f
00000710: be90 bf6e b85e c8bf 2c50 9260 2b0d b33f
00000720: 78b4 ebc0 4807 c03f 05b0 d2ea edc7 c33f
00000730: ffc0 3911 e21d c53f 2b7c 6f65 20bc c73f
00000740: 5e65 291f 57af a1bf 4e87 d72a 7b0b c0bf
00000750: 7c91 90cc f44c b13f 242b 3d57 1948 c4bf
00000760: 9ff4 0f7a 4c89 973f 8b9e 918b 98d9 bdbf
00000770: 6183 47b6 cacd b03f 3b62 382a 2b49 c13f
00000780: 823c 5779 1211 c33f e6e7 9a01 010a a6bf
00000790: f38d 8667 d68c b4bf 4125 53a5 3526 b73f
000007a0: 6423 f925 0b1f a4bf 8f53 f01b 70ba ba3f
000007b0: c58c ccfd 788a a63f 799a 273e 07b8 ac3f
000007c0: be24 d1ca 481a c3bf 6993 c290 d3a8 ad3f
000007d0: d28f 8df0 fa05 c7bf 7760 7340 f568 bbbf
000007e0: c189 3185 ed4b a33f 045e 853a 203d 7fbf
000007f0: 603a f4e6 d66e 9e3f de53 5386 8888 613f
-0.09523745713657887 0.11289065972979598 -0.17167263240126787 -0.1623144919996092 -0.1648692200280454 0.13913848412096058 0.17279673169378748 -0.10052999668918872
-0.12020898242011911 0.14754973870589858 -0.13476179608550115 -0.09519007065203174 -0.2039680280580826 -0.13026516422429915 -0.0020913561317083204 0.13070533221233588
-0.06372226434627667 -0.01728650808025689 0.10259795218787582 -0.07903575796219389 -0.094340678233345 -0.08222607660558409 0.11907551780043395 -0.01609456888331904
-0.06973667934912103 0.17443618919883772 0.14044274920177371 0.161627238295438 0.060283086431407326 -0.09106852200017973 -0.06843208133077644 0.15928905219749792
-0.13707071471228655 0.06322795424030028 0.12207044333378322 -0.1545932591188158 0.11164703454546582 0.059004516456873865 -0.1365240823532783 -0.016821078148549787
0.10870901647580392 0.04043593739350362 0.013957445668712794 -0.0051768030340917995 0.07234530186813935 0.17575094493742985 0.04316486693083095 0.11459165598158257
-0.16303114375141453 0.18464208683777336 0.14001557960306735 0.08032377952430314 0.14977932875787237 -0.10752085231161213 0.06577163764614731 -0.09536037992553098
0.09397069169621387 -0.10660919445142576 0.0818731526170645 -0.1992129001345687 -0.002581355719599029 0.07715256658614549 -0.0034068276767590896 0.09812376886405881
0.07852406280515722 0.1879389092303674 0.08072926260291306 -0.09049999978956706 -0.019967426377329376 0.0971180616015495 0.0860189864289978 0.038008445349973566
0.08762375517993712 0.09043161621930425 -0.13934020508590095 -0.1380043881147016 -0.146757830912829 0.056185113259509416 -0.06490287675815959 0.1120332119709583
0.06134821135439167 0.13277546239056764 0.03155404090095226 0.011289588563409036 0.06238313144323964 -0.014162698352027105 -0.06623215991652984 -0.08280391353607251
0.10304289772477433 -0.17396141902995846 0.08323053903911015 -0.1445353215991709 -0.006901331750381812 -0.11518165134737515 0.04090175401986113 4.112929700924854e-05
0.11208049368773228 0.04834167294971461 0.058988172645638735 0.039670574923383294 -0.07845263464626134 -0.0637227213389804 0.08170011452683733 -0.029528839606551675
-0.08342846026115701 -0.18349001601194664 0.20386549364453602 0.20420496985775918 0.10141480434679297 -0.07482663539008401 0.0710424801569567 -0.13184756387528274
-0.015455621322978397 -0.0015759550914222055 -0.07142457170413724 -0.1307330940841269 -0.0820331657218348 0.005660673205856465 -0.10271772511267517 -0.03265739649495972
-0.06932801901846884 0.1131320090241386 0.058661029648679315 -0.10607062950054703 0.020105993012303466 0.0647829056386228 0.06224408798533498 -0.06492284901609773
-0.122955145235914 0.1623699607561508 -0.11633639057763355 0.0321011390069968 0.11248118432281504 -0.0055613608754924715 0.055643176481285125 -0.06293981162522572
0.1663819764407037 0.01569391840725144 -0.13547380580540794 -0.10451991136356494 -0.08442006117823254 -0.040714814334559514 0.06985238558483095 0.09637331508263036
-0.10598873130546516 -0.0878708256307573 -0.09619717690029163 0.05334337611413911 -0.04565719929909759 -0.011732905805280818 0.0022701725237425597 -0.009552224503901797
0.07462505637112515 0.014527663399383415 0.13670644211837385 -0.13734427156994886 -0.10123269048733438 -0.19214404579317154 -0.150982740178252 -0.007778887994388764
-0.05587560474518689 0.04049898215386834 0.14856912773383182 -0.024380765738223967 0.11500210334928711 -0.13332897792382478 -0.048549913915015494 -0.017658513109210433
-0.17142141140685918 0.20631840462049775 0.05698038652634301 -0.00970202720776686 -0.09129521086055854 -0.15289571073597072 0.1133331691380828 -0.07695755609081248
-0.047296790340060804 -0.09419565824211915 0.016597955384286295 0.1369133461250197 0.07745802024870978 0.12084983073235449 -0.1316077443519721 -0.14291016441906784
0.029788231463493523 0.1929991263234031 0.06332067913994216 0.20446125723692923 0.0886274549748842 0.1763164182354115 0.008106779802346226 0.12569856549277453
0.16751918819255676 -0.17912882991257575 0.01156008558915694 0.012166473159577003 -0.19887481880213284 -0.10570332501648759 -0.09498987571439516 -0.10470074963395871
-0.17699577039004755 0.07783183246269353 0.09929879662864109 -0.1118015011926331 0.03915704897283937 0.0950699553521342 -0.027672047516372453 -0.11596616437398456
-0.1071094438223698 -0.1104255663470755 -0.19128058113679233 -0.0967106768648318 -0.08133199352019506 0.16222251356381953 -0.09133446357253022 -0.08107341709758602
-0.03569295642172002 -0.13113636446078494 0.07223417091481413 0.1397970894621525 -0.011605247047875888 -0.11119863711559812 0.16528941223108198 0.06137938650857273
-0.05622983775828554 0.14209893011194882 -0.19039063842422438 0.07441969974235069 0.12522229595143464 0.15453885999647823 0.16497445908635908 0.18542866661934573
-0.03454086547271616 -0.12535037605180793 0.0675805091310106 -0.15845028648103565 0.02298469061860386 -0.11660149962846782 0.06564013433627515 0.13504542886291113
0.1489585010990347 -0.043045073934493236 -0.08027400996666482 0.09042678152322471 -0.03929934347667688 0.10440731699084281 0.04402521227009396 0.05609152444576621
-0.14923963454410755 0.057928668423562986 -0.17987000222922106 -0.10707028220656577 0.03768865824601476 -0.007626653569182466 0.029719693991007268 0.0021402994631025537

rnn.bias_ih_l1 f8 [32]
00000000: 8018 6686 45f6 a5bf 224b 64c7 5a5e 9f3f
00000010: 7776 086e 0469 a3bf 9e01 529a 54e8 c8bf
00000020: 7c53 8784 696e 85bf 8907 06f0 49bc 7bbf
00000030: 89f9 c38d 7d13 b9bf 6725 252b ce0c ab3f
00000040: 9538 57ab cd31 c9bf 029e ea76 6e49 97bf
00000050: 9d90 2ab6 1f82 b23f 901f 0b2c 61b1 c0bf
00000060: 8fc5 8325 1a9d a6bf 1417 ca3e 80f4 a8bf
00000070: 9a0f 7bb2 b88f bfbf cb21 d8b2 b8de c5bf
00000080: 4ba8 791a f540 c2bf 0437 4943 74a9 c7bf
00000090: 6b72 a931 bca7 903f 125c b565 1e51 c1bf
000000a0: d877 913f 771d b83f e7f3 896f b826 c23f
000000b0: 7721 fcf1 28f0 90bf 24c7 e76a 468f ad3f
000000c0: 5fc9 096d fd7b c9bf 930d 2231 0717 85bf
000000d0: 470c 4587 8b1c b2bf 71af a088 f0b8 bd3f
000000e0: 3b79 1b53 e1e3 86bf ba93 56fd e5dd c73f
000000f0: 6851 0abd a66a b83f 2568 770e da1a c43f
-0.042894528061013126 0.030633371753604817 -0.037910593444604616 -0.19459016356632913 -0.01046450076766247 -0.006771363085478551 -0.09795365058014317 0.052832072035537796
-0.19683237901921716 -0.022741056449971715 0.07229803273600273 -0.13041319513854122 -0.044167344169078075 -0.04874039427254054 -0.12328676564635402 -0.1708594201338783
-0.14260734360442692 -0.18485883031319628 0.016264858752366978 -0.13528804746849282 0.09419961263617382 0.1418066544173648 -0.016541137475571923 0.057733727025960385
-0.1990963728345134 -0.010297828852577939 -0.07074806263430942 0.11610320411335608 -0.011176834439024055 0.18645930166272057 0.09537737002603353 0.15706945139282982

rnn.bias_hh_l1 f8 [32]
00000000: b5f3 ccfc 727c b73f 4e89 ec38 1cd6 c13f
00000010: 7676 086e 5c3c a8bf cefc 5bcb 2604 be3f
00000020: 5dea 90f0 0f44 b9bf 7460 001f aa27 bcbf
00000030: 9333 e091 3dbc 803f 6825 252b e5e9 a73f
00000040: 3871 ae16 0cc2 b2bf 8658 45e2 1bda b63f
00000050: d52c a48a 1dc4 5f3f 8f1f 0b5c 5565 c9bf
00000060: afe2 c1d2 9557 b1bf 3f2e 947d 8bf3 91bf
00000070: cd87 3db9 9feb c4bf 5e87 60cb 8cf8 a1bf
00000080: 7850 f3b4 3b94 b0bf f047 b6e5 28d3 903f
00000090: 68a3 9533 75ca b3bf eb7e 5449 8b08 7a3f
000000a0: 5710 dd00 054e a3bf 190c 76d0 8f65 c6bf
000000b0: 3aef 0187 e97d aa3f cdf1 b93a d686 c13f
000000c0: e9d4 c65e 4a8d 7e3f 19df ed6c 891b c83f
000000d0: bcf3 baf8 42b4 be3f a257 5084 4833 c53f
000000e0: a9bc 8da9 d057 99bf ba93 567d 8e6f c73f
000000f0: 4dd7 7ac1 566a c0bf 2568 77ce 86b6 c53f
0.09174269363297934 0.13934662608614662 -0.04733551829506848 0.11725084748103429 -0.09869479773707597 -0.10998023278114194 0.008171540273929334 0.04670635368035897
-0.07327342561479078 0.08926557802382903 0.0019388473979827143 -0.19840495104130837 -0.06774269481128202 -0.017530612506602813 -0.163440671395675 -0.035099410845090814
-0.0647618595861007 0.01643051054049488 -0.0773080111445218 0.0063558045269755765 -0.03770461688557763 -0.17497441939130523 0.05174188397447073 0.13692739360329967
0.007458963879277671 0.18834035700614818 0.11993807384983673 0.1656275411666544 -0.024749050472959642 0.18309193725613487 -0.12824520537622633 0.16963276940697472
