results/LSTM_Long/models/checkpoints/10/LSTM_Long-10-1000.pt (torch_old, 110776 bytes, 10 tensors)

LSTM.weight_ih_l0 f8 [128, 6]
00000000: 0afb 986a 159c ccbf 8127 f02f 06ad f03f
00000010: 8cef da69 dcef f03f 7c83 0ba1 5808 c0bf
00000020: da59 def7 a8e2 06c0 d220 a1e9 a51f 10c0
00000030: b434 ef8e 059c d03f 9c76 0fab 2001 e7bf
00000040: 975d b7f5 f2eb e9bf 466a 36a9 51f0 be3f
00000050: 8b14 52d7 c1a4 e3bf ba40 a420 a39d d53f
00000060: b1d9 645f 6ec6 c0bf 0321 4f98 6bbb 0340
00000070: 46b6 1a89 f2ba 0d40 9b88 c785 3ed8 b7bf
00000080: ca23 57a5 f19d e0bf c0de 85fb ec06 88bf
00000090: f780 7ca3 7898 cabf 3702 9c7c 0bc1 e7bf
000000a0: d5cf c589 f4c4 f1bf 3129 0b19 6114 a73f
000000b0: 220a 6946 ef6b fbbf 90d8 d8e8 0bc7 06c0
000000c0: a37c cc2a 761a cc3f cade 0826 4ade c7bf
000000d0: e7bb 249e 4ab2 05c0 84f4 807a d4af be3f
000000e0: df12 b925 351f edbf a286 84cc ae37 f5bf
000000f0: a12d 1893 5683 b73f eb55 99ca c8b4 ef3f
00000100: 1d1c aaf6 ef00 01c0 317e 9c1a 2ba3 c43f
00000110: 8808 1bac d251 c83f 25ac fb03 9990 c53f
00000120: 5cef 39cd 360d 803f 4a5e 1ad7 771a f23f
00000130: f570 69a1 46fe fd3f ffb0 ca83 080f b2bf
00000140: b2f1 70ab 563a 92bf 2bc3 9db4 fb9e e33f
00000150: c963 7fea af71 b3bf 0b8b 75cf 0cb4 efbf
00000160: 51aa 644d 29ac 41bf 370d f684 bd42 cdbf
00000170: cd4e 9cd5 c667 ddbf 5e24 d1f0 ec90 ccbf
00000180: 2dac 1a0f e700 cb3f 36b1 5520 6d51 0540
00000190: b19d c2ec 623c 0240 d8da 16a0 c6d5 cd3f
000001a0: aeda a700 0ac1 d13f d7ab a822 821f f63f
000001b0: dd52 a647 b62b d73f 3b6d 0e30 736d c73f
000001c0: 9f48 db51 6f29 c5bf 0b0d 65b7 c962 ab3f
000001d0: 5e37 d72a fb9a e03f 7344 52ae 8894 e43f
000001e0: 4541 5dcd 64c4 9a3f 0ff5 8263 f753 fa3f
000001f0: fbd8 21dd 8051 c7bf 81cf c2a9 47ca a53f
00000200: 8f76 6f66 934f ce3f 7cd5 8a90 7d63 e83f
00000210: c56a a55b 3086 ca3f a5fc 4c9d d8f8 d0bf
00000220: 5cf8 5228 751b f83f 4a72 e3a4 9137 be3f
00000230: 446f 167d c220 debf 81db 64e5 6aaa cebf
00000240: faef 6daa 77e4 d53f b9ce 4006 b170 f73f
00000250: e4ad a254 368c 0840 9526 8057 804e d83f
00000260: 7e21 e635 be34 0640 0fbf c8ac 0f17 0640
00000270: c242 1cc7 ff28 b4bf 958f 71b9 760c ff3f
00000280: 09e5 23a1 830a 0c40 cd0b 63d9 9d92 c23f
00000290: a3f2 e064 f3ed 03c0 676f b578 2dc7 d2bf
000002a0: 54f3 8a76 95c8 ccbf 4a8e f13b e956 fd3f
000002b0: f750 e76a f8d2 f33f b1d3 7b72 4bba b13f
000002c0: 8af3 26bd 6214 e4bf b6cc 25b6 e9f2 dabf
000002d0: 3734 0260 95ce 953f f250 8977 ef13 f83f
000002e0: 2fa6 e799 4dfe f73f 4bd3 a790 d188 b2bf
000002f0: 4030 079f 7a06 d4bf bfbc 7dea bed4 de3f
00000300: b351 f03e e449 c43f 600d 4186 3a91 f83f
00000310: 0db7 a39b 0b9a 1040 f165 9f94 4ceb c03f
00000320: baa1 4514 0942 0140 83a8 348d c8bc eb3f
00000330: 10eb d921 cd9f b9bf 969e 03dc c43f f53f
00000340: 796d 2852 0e0d 0740 5e7e f633 6d28 adbf
00000350: 7807 3b99 6214 c03f 40c4 1a52 dc7e ed3f
00000360: 402f 0469 3bcc b63f a98f 1d08 597a ba3f
00000370: 895b 1b92 d7ec f4bf f5a5 7e01 2458 a0bf
00000380: da0c a561 4ef0 e4bf c23e 1fa4 3366 f0bf
00000390: da0a f0ce 10ee c83f 499f 4a8d a5a1 f4bf
000003a0: 513f 69f4 6482 e0bf 25ba 0593 bf05 ba3f
000003b0: 47db 7fd2 8f5f ce3f b183 7d51 22c3 e23f
000003c0: 7870 8ba5 1bd4 af3f d484 c586 547c f23f
000003d0: 0a45 2616 cabc fe3f 7efa 6711 6434 c3bf
000003e0: 8287 1a4f 4061 e43f e482 51dc 2428 f43f
000003f0: 8818 9c83 2921 bb3f 96d9 4979 9ec2 f73f
00000400: ee95 5e5f 280f fd3f fb31 4f80 bb2e c13f
00000410: f613 1d64 99d7 0240 d175 28f1 2334 0540
00000420: 972c fbf6 798c 9ebf 80f8 0d13 0225 0240
00000430: e4a6 beb4 8c0c 0840 719c 2ea8 66e1 b63f
00000440: 6ab3 0f85 915a e93f 894b d09b 44bd d53f
00000450: 6b83 3a7f e086 983f c080 117e e312 ccbf
00000460: 9766 88ba 1295 c83f 01be b73a 207d b0bf
00000470: 81d9 5d7a 8d16 9cbf d9bc a963 142a d13f
00000480: 1a78 c0a4 b4e1 b6bf 6e04 38bd 2452 fd3f
00000490: 7cb3 291d 2cb0 e4bf 1911 3458 66d0 b23f
000004a0: 508a 0f7b 9009 0740 f5a4 a9e0 661b 0140
000004b0: 6e74 a370 7db5 d33f 0000 042e c6b1 e93f
000004c0: 5060 15e1 d54f f2bf a3a4 3163 ebae d03f
000004d0: 05dc 7310 53b9 d0bf e0af 38ce 21bd e5bf
000004e0: b959 6d98 0774 8fbf 0046 2fd5 a7eb f23f
000004f0: 4396 6672 49a1 01c0 47c7 a5df b9ef cebf
00000500: 2286 7401 e0b8 cbbf 2a89 28db c6a7 c7bf
00000510: bb5c 2dff a78d dfbf 0ae3 fa67 42ef 0b40
00000520: d45d d529 1903 fd3f 0126 b608 d18d d73f
00000530: 35b5 1db2 7208 e03f bb85 dad0 d18a e83f
00000540: c6ca 10c6 afaa 70bf fb24 4348 a3b2 fc3f
00000550: 2d10 1b29 dfbd 03c0 4503 fcc8 d55d c0bf
00000560: 0b4f 5dba 0dd6 f0bf 9397 342c 2f88 e5bf
00000570: b72f 7693 a1cb c0bf 7571 0830 9f05 0740
00000580: 7e55 8627 920a 0240 3bdf db1f 6d27 a6bf
00000590: 4c7e 476d bf14 0f40 db32 90fd 7b63 0740
000005a0: 0582 d8d5 95a8 d33f ef18 eb45 2af0 f6bf
000005b0: d005 f48a fff9 f7bf 14b9 33e1 1611 e23f
000005c0: 4c31 bc28 08b6 d4bf 25e2 87e9 fc91 fbbf
000005d0: 21ce 22f3 d320 c13f 3f4a 1a0f 0b54 d0bf
000005e0: 065f b336 091f f9bf 61e9 1ebc 3095 acbf
000005f0: 5dc4 b15b df12 d93f d7df 0533 f236 0dc0
00000600: 2101 431c b477 81bf 0ba7 b846 3512 fcbf
00000610: b318 eaaa a9f9 e1bf 72f1 a1b1 479c cb3f
00000620: 938e 35d8 c098 01c0 de51 522e 3f00 0bc0
00000630: 4af7 92d7 1fad c23f 5f95 fb13 b39e 0ec0
00000640: 1ff7 4770 5bf3 f5bf 07a4 71ad 1f56 bf3f
00000650: 2574 dfab df72 f5bf d441 073e 114a dabf
00000660: bd70 688b 6433 d03f ff3d 27e2 194f 07c0
00000670: 7fcc 214a 62bf f5bf 31a8 55bb 3c87 b3bf
00000680: b05b b317 8231 02c0 53c0 3ee9 040e f5bf
00000690: e456 bd8a 2876 b2bf c988 8bec df7b 07c0
000006a0: a426 6fdb bb42 03c0 95bd 868d a820 b0bf
000006b0: d730 d88a aae0 00c0 f647 20d3 b77b 01c0
000006c0: 8e91 2d74 4306 a0bf db70 9564 22eb f1bf
000006d0: 3ec3 81a6 26ef 09c0 6711 c176 931f b6bf
000006e0: d0aa 7332 16f7 f3bf 46fe ee18 a0df 10c0
000006f0: 6e07 fd8c 780c c7bf f75f e7e8 464d fabf
00000700: e604 2b91 0168 0cc0 c3d7 9f1f 09df c3bf
00000710: 25c8 3560 cfc9 0ac0 b022 f967 86f1 10c0
00000720: e0d4 96cf e096 b9bf d846 a28d 15a6 e63f
00000730: 025d 0e60 b325 fd3f 6532 84ea 9702 b03f
00000740: e7e9 2430 f657 d93f 995b 639c 966a e03f
00000750: 1764 dd7d 8015 abbf 021a 160e f41a febf
00000760: 7eee 8cb2 60b5 d0bf 1fde 3be5 cdcb b0bf
00000770: 0872 241c 6eb3 e9bf bd8c 6575 d3fb f2bf
00000780: 8339 b488 e1ae b63f 859c fda8 b6c0 eabf
00000790: d4b2 8a4c 2247 fd3f b929 f71a ffe3 c03f
000007a0: f7df 6a3b a6b8 00c0 abde 0fa0 6caf e5bf
000007b0: 3daa 47fa 7f88 d03f b78f b11c df16 f4bf
000007c0: 6ae8 a2b7 baa8 d2bf 9ac0 260d 6108 ca3f
000007d0: 2dd0 e736 d429 f3bf aab8 43f9 acf3 e1bf
000007e0: cd3a 2d68 353f a1bf e149 f13c 2e8e fabf
000007f0: 6c72 c798 14ad f5bf 666d b5f6 6110 c33f
-0.22351329522094715 1.0422422287542477 1.058559812066025 -0.12525470603489086 -2.8606738438349852 -4.030906343898282 0.259522809585927 -0.7188876477263935
-0.810052375712007 0.12085447674909586 -0.6138619618874527 0.3377464121595143 -0.1310556379118686 2.4665138148449173 3.716282912376104 -0.09314337507342645
-0.5192802647881021 -0.011731959749098464 -0.20777805311900696 -0.7423150476243511 -1.1105847722765152 0.045077356631355044 -1.713851237335469 -2.847190684430707
0.2195575436571505 -0.1864712415424406 -2.7120563845596624 0.11987045279325242 -0.9100595223213438 -1.3260944355937814 0.09184781161473278 0.9908184010516242
-2.1254576941169163 0.16122950362567814 0.1899970379218454 0.16847527212607463 0.007837703836450487 1.131461944814776 1.8745790772582585 -0.07054188935825677
-0.017800668920459457 0.6131571319257082 -0.07595347857512914 -0.9907287647186832 -0.000539322058817968 -0.2285992526268303 -0.459459026912765 -0.22317277678147013
0.21096504437932265 2.664758923163528 2.279485559167107 0.23308642212733477 0.2774071699526911 1.3826924661504927 0.3620429706291313 0.1830276474619071
-0.1653269910517041 0.05348806728081897 0.5189185940487098 0.6431315808023456 0.026139807733956095 1.6454996001405708 -0.18217478558990038 0.042558898422981
0.2368034601376405 0.7621448348133266 0.20722012019071748 -0.26518836366080684 1.5067035269890061 0.11803541446301682 -0.47074949470128424 -0.23957573128583579
0.34206954616070073 1.465012573648819 3.0684630024095316 0.37979134125689856 2.7757534228186946 2.761260366321842 -0.07875059710591883 1.9405429119005693
3.505133875759047 0.14509938349337262 -2.4911868935726758 -0.2934068373485758 -0.22487133300992446 1.83371852317295 1.2390064407273351 0.06924888176929646
-0.6274884886148453 -0.4210762289796536 0.021295865998173204 1.5048670453443802 1.4995857250127178 -0.07240018636350702 -0.3128954461105913 0.48173497104194135
0.15850499222928036 1.5354562038708863 4.150434905879377 0.13218075997319503 2.1572438796758577 0.8667948491977459 -0.10009462429472316 1.3280685991575516
2.881374971255067 -0.056949055283663993 0.12562210542642638 0.9217359164814596 0.08905383409381518 0.10342937896854089 -1.3078227717685158 -0.031922459776364244
-0.6543342501758176 -1.0249515925424224 0.19476518730524256 -1.2894645232390352 -0.5159172795920118 0.10165021266377801 0.2372913148717208 0.5863200751883736
0.062165130575267236 1.1553540482057558 1.9210911622251978 -0.15003634309683272 0.636871485232618 1.2598007780254017 0.10597476447228094 1.4850144136267764
1.8162006116266372 0.13423866047959607 2.3552730389951604 2.6504591789696197 -0.029832750033886937 2.268070362914898 3.0061277504618023 0.08937684637077027
0.7923057173589829 0.339677002107401 0.023952014699378504 -0.21932643562013787 0.19204935176894786 -0.0644092696527352 -0.027429781526245648 0.268193337752519
-0.0893814947343973 1.832554568420416 -0.6465054101550858 0.0734924283352182 2.87967010632682 2.1383798171779014 0.30795227050641116 0.8029509447806049
-1.1444910805057766 0.26067623793512434 -0.26131130797097085 -0.6793374088060737 -0.015358027781684368 1.1825331046605925 -2.203753370052057 -0.24169085903445817
-0.2165794379334765 -0.18480764103976216 -0.4930210105862433 3.491825878471336 1.8132564195747038 0.36803079462751503 0.5010312537030247 0.7669457511112151
-0.004069029441825028 1.7936127493615561 -2.467710801256564 -0.12786361993496534 -1.05225918577793 -0.6728740561854799 -0.1312143297221817 2.877745032556215
2.2551615798826665 -0.04326954854872019 3.8851307427828825 2.92357633682546 0.30716462977764564 -1.433634064787437 -1.4985347202167425 0.5645861052014731
-0.32361034372367636 -1.7231415865227373 0.1338143288790983 -0.2551295897948513 -1.570077146219718 -0.05582573219676835 0.3917768855527067 -3.651829146019718
-0.008529097664336906 -1.7544453394461381 -0.5617264116451878 0.21570678876367883 -2.1995865718216208 -3.375120508086396 0.1459083368881074 -3.8274900017883478
-1.3719133745175396 0.12240789398642003 -1.3405453408988788 -0.4107707124467457 0.25313676466044993 -2.9136235874391327 -1.3592245956213274 -0.07628230641935897
-2.2741739131556287 -1.3159226523530563 -0.07211545359799804 -2.935485694893121 -2.4075848716064048 -0.06299832778198884 -2.1097002837396803 -2.1854092115618142
-0.031297786647686995 -1.1199058465054381 -3.2417729385710166 -0.08641931199332974 -1.2478239031576557 -4.218384160601607 -0.18006808170508343 -1.643866452961445
-3.550784238934841 -0.15524400753173326 -3.3485400692379863 -4.235864281254791 -0.09995846813292841 0.7077739492690069 1.821704268664519 0.06253957248208904
0.39599375440198376 0.5130112699942969 -0.05289842163501406 -1.8815804052588878 -0.26107041775296824 -0.06560980650453317 -0.803153090444142 -1.1864809594924701
0.08860597217083037 -0.8360245991324439 1.82986669444215 0.13195790115999076 -2.09016081256777 -0.6776641012392778 0.2583312935009053 -1.2555838700145452
-0.2915484231303994 0.20338071005017327 -1.19771214911908 -0.5609955662200907 -0.03368536850631685 -1.6597120647971837 -1.3547559707577888 0.1489374594337775

LSTM.weight_hh_l0 f8 [128, 32]
00000000: 5d8b 3aff 2467 c3bf 5714 a4de 284e d03f
00000010: e09b f2e0 dbc3 d03f 2e7b 2f70 8156 d0bf
00000020: 0d7c d87a cd12 b13f 1431 7f47 42e5 ad3f
00000030: 2a56 8b42 6b26 c4bf ef8d bcab ccce c33f
00000040: 00fd 5ff1 4762 d13f 4314 cfe3 a654 d03f
00000050: c60d 734c 0630 bebf fe0f 24b0 832a a2bf
00000060: 8b05 6788 8f47 68bf 550b 9e1a 8028 bc3f
00000070: 8ad5 f72b 782f b2bf 0bf8 1c11 1c51 d93f
00000080: 9ef0 d893 0005 c13f 6b28 b0bd dd64 ccbf
00000090: c1cd 0f1a 811a d53f e6e3 a22e 2be2 c33f
000000a0: 17a5 c7c4 09cb d63f d6e5 f1c2 218a b2bf
000000b0: fa8e a34b 721a c63f feb2 7826 2020 b3bf
000000c0: 0ae0 91df df57 ab3f 4b88 881f db50 c4bf
000000d0: 0ab8 cdad ad18 84bf 9ee0 0f64 1b3b cc3f
000000e0: 5800 d5a8 8361 c8bf af7e 6a86 436b cc3f
000000f0: 680e 1b81 6c1f ccbf 1b4d c39f 6d5a c7bf
00000100: 3f38 dad4 def4 babf 72eb 54d7 b08d c53f
00000110: f961 9034 acd5 d43f 2f0c fe2d d205 c8bf
00000120: 548c 9e2d 460e cebf 2738 3485 cc27 da3f
00000130: ffa1 b19f 16dd b93f ec87 6190 3e21 c03f
00000140: 1e04 3727 fe1e 743f bd38 326a f072 c3bf
00000150: 67cc d365 d589 b03f d9bb 49f5 8912 d93f
00000160: 386e 8c22 85e3 ccbf 7ae3 8ee6 fa30 c53f
00000170: a09c 6987 770c a3bf 0b23 3fb2 db02 d53f
00000180: f62a a0cf cca4 b43f 0c59 d40b 7683 b6bf
00000190: 8b60 64a9 f2b3 d73f 913d 0fb2 97da 693f
000001a0: d350 07d1 b25e d73f 3b15 6d0e c4c1 c9bf
000001b0: 72f6 285d 505f b63f 7e47 d93c 2755 c33f
000001c0: fe2e 7c14 af88 b13f 3b82 aade 3322 c43f
000001d0: 30af 7758 a4cd bc3f 4adc d0a5 e5d7 d6bf
000001e0: 962f 3358 958b cabf f612 f696 348a c03f
000001f0: 90be 15c6 27ac c13f eba1 501c 2e16 c23f
00000200: 68cc 8685 4846 acbf c351 5686 51f6 bf3f
00000210: 495d 7e30 6a94 913f 8793 f2fb 83b0 80bf
00000220: abe1 9ebc f87a dfbf c7d9 368b 2b8b b23f
00000230: b924 e8bc ead2 c53f 8603 0c6b c547 c53f
00000240: 2f79 dfad d52f b2bf e681 78c4 192e 883f
00000250: fedd a11f 73c9 c5bf 0545 dc6d 7daa d5bf
00000260: 6dc7 23ce 834a c03f 0d47 9fa9 c848 ca3f
00000270: e724 7e61 0a78 cc3f e1c7 ed9c 3f17 d53f
00000280: 9b6f e74e 1274 d4bf 539a 9f0f 8d45 d7bf
00000290: 7794 5364 2f8c e03f bcd6 d8ee fbce e13f
000002a0: e13b 174f de74 db3f e54e 71f9 d7b1 c83f
000002b0: de29 ae34 a824 d03f 7fa5 48a6 79a1 d33f
000002c0: be76 22dc 19ac d63f eff9 dea2 7b0b c3bf
000002d0: 3888 10ad 376e d63f ecf1 6a03 55b7 c4bf
000002e0: c7d1 60bd 03f7 d8bf 01a9 4a03 3b8e ca3f
000002f0: a4ca 9ca7 92a8 9ebf 7009 4bc2 0048 81bf
00000300: 4f68 08ff b88b b13f 72cf 5341 1538 d3bf
00000310: bf68 2f15 b1e5 c0bf 933a 4f72 e8a5 ca3f
00000320: 11fc 2370 f7f9 d0bf 954c dd63 ab3a a13f
00000330: 22ac 27b2 7b2a d6bf 0a85 13cc d4d7 7b3f
00000340: fd31 eaa8 7a6a b5bf 9f87 df5f 8ec7 a8bf
00000350: 8866 f4e6 ecac b33f d2eb 960d 613b a0bf
00000360: d7eb 86b9 a3ab bc3f 95f4 532a 2ecc c53f
00000370: 794f 51ad 94c9 a93f 366b c6fd 7dbc d0bf
00000380: a59d 9b76 c3b3 bcbf 0ee3 522c 99d6 9a3f
00000390: 784f 3c11 bc4e c6bf 7938 a41d 8cef ba3f
000003a0: f471 2142 d6d4 d4bf 8d88 fa2b 5d1b a43f
000003b0: 70d4 cec0 6a5c c63f 5793 bb54 9bc3 c73f
000003c0: ffbd 49da 2dcf cebf e50f 1aa0 8485 b83f
000003d0: ecd2 74b3 47ba db3f 923e 8316 838f d1bf
000003e0: ca33 d4e3 2b56 b5bf 9c12 fd1f 841b b53f
000003f0: a2d9 2724 ba29 e13f ecb6 8929 287f cb3f
00000400: bd1f c302 9656 b5bf 5a2e dab4 ee41 d1bf
00000410: 4d08 dc0a 7eea b2bf 831a 43cf 416a 90bf
00000420: e4be f434 4830 363f 54e8 6e32 a6d4 cbbf
00000430: 52ab 094c 362f dfbf a623 e04a dae1 c4bf
00000440: 90fe fcfa 20b5 cfbf 8dc2 11e8 a960 b7bf
00000450: 2dd4 89c7 b02d bb3f aa74 8674 aaa5 ca3f
00000460: 72aa 58dd 31da c7bf bc93 4f4d ef89 bb3f
00000470: 1388 2f7e 4202 a0bf fba1 43b9 4226 c3bf
00000480: 6edd 9e71 cb79 d03f 11d2 72d5 d141 9f3f
00000490: c566 3eec 21ed cbbf d933 f86b 4829 c4bf
000004a0: 1134 26d5 9097 c1bf dcde 7ab6 0716 9dbf
000004b0: 4d5e 3d1a a69a b2bf a4d8 2f3a 6765 c9bf
000004c0: 4a25 3404 39be babf aa71 4a7b dcc5 a73f
000004d0: ba2e 259f 1daa c33f a9b2 725b 0422 c43f
000004e0: 9ed6 f271 2815 d3bf 3148 a95a 5c7d d43f
000004f0: 9325 9ea0 95d1 c2bf 4422 3997 ef6f cf3f
00000500: a743 c3f7 9667 c3bf 86a5 8f0b 114c 86bf
00000510: 6b9b d693 fdca 643f 279f 8323 75b5 c23f
00000520: fc21 70e9 2398 b1bf d3ff 6e4f a1ed b63f
00000530: 388a afeb 2445 9c3f e6aa 7386 5c16 d1bf
00000540: 679a 67a6 a2f2 a93f 7899 65b9 4f53 d63f
00000550: 5745 c21d 4a98 6dbf 4150 424f 93b9 d8bf
00000560: c161 94dd 4a5a cbbf f361 300d 63b1 d33f
00000570: a8c1 1da5 917f 98bf b4da ba9a ca9e c03f
00000580: 2d7f dcea 23cc c03f fde6 699a daa2 d3bf
00000590: a6f4 c720 f6a7 cc3f ec2d e770 0114 c0bf
000005a0: 26db 04e0 28a2 b63f 98b5 c4e9 dcd5 993f
000005b0: 0e07 8382 74e3 b8bf e754 54eb f686 bdbf
000005c0: 6d9d f8bf 8511 a5bf d8c5 a7d3 c6ca ddbf
000005d0: 5a7a 5ba7 2b08 bd3f fd93 9f28 e686 d73f
000005e0: 1c6f 793a 9d02 6ebf 70b9 0612 500c a7bf
000005f0: 7264 cf6a bade c8bf 3acf 9dcc b0c2 5fbf
00000600: a9ba 1366 46fb c93f d5e9 cca3 e4ac d0bf
00000610: 8f3a 2fe4 296e c6bf 193e 4a06 c9bc b83f
00000620: 23ad feae 1253 cc3f dc0f 6d13 82f2 c1bf
00000630: 432c c8aa 42ad 7f3f 6384 e1c8 5fbd c0bf
00000640: dc80 8a3d b348 783f cf8b 663e 1194 c43f
00000650: bf4c ef89 512f d2bf 7d70 b6b5 8960 c73f
00000660: c161 8180 954e 7e3f bd65 27e2 cba0 b0bf
00000670: 32a4 43a7 3b3e aabf 1fda 01fc 89cb c5bf
00000680: ec6b 0fb3 145b babf b2a2 2c55 5306 ccbf
00000690: 8035 d094 e26d c0bf 6074 085d 44c5 abbf
000006a0: 54c7 b156 a780 cebf 46d2 0f53 1463 a73f
000006b0: a902 6a41 c4f3 94bf 631d ec46 7f22 cd3f
000006c0: 28ce 8bd9 1faf b4bf 60fc 7e83 4b6d 933f
000006d0: aa3a c77d 366d b1bf 7ae3 9380 250a e3bf
000006e0: d0c4 f940 2044 76bf cce0 7607 51bf d7bf
000006f0: 0057 78d4 965a 783f 29b4 9bac 09ed c33f
00000700: 65e5 7154 fdeb c43f 039d a671 2eba c23f
00000710: cf6e ea3d 3f0e aa3f 9669 a545 359f d1bf
00000720: 2a10 f2ab 446b d9bf 6f83 7d63 ec84 a43f
00000730: 010a dc61 8b90 b53f 3e62 58d8 b7c7 b6bf
00000740: 702f cb6d 3ab8 d03f cb57 73d1 9543 ab3f
00000750: 8931 a9c0 f6b8 bbbf 77a4 00ac e90c afbf
00000760: 0610 ab0a 777b aa3f 6597 a9d5 e772 da3f
00000770: 91e9 72d3 9536 bcbf 69f6 1812 b38d 693f
00000780: 025f 822d f592 d13f 1858 80a2 72c3 c2bf
00000790: a2cd 4d0d 5450 b4bf 594b 9206 0196 a5bf
000007a0: cab8 9bb7 3a3d c43f 1f62 c453 ff6d d33f
000007b0: c020 6755 3b1f da3f c06b 5649 ddef cb3f
000007c0: a968 40c7 7bf0 8cbf 80f4 9e16 b3e0 923f
000007d0: bc90 030f e133 c63f a061 776d d378 e0bf
000007e0: 81e7 40e3 7548 dcbf 17e1 32af 04e7 b0bf
000007f0: 0079 771e 5652 d03f 142f 4670 ee90 c13f
-0.1515852209314187 0.2547704862811932 0.26195427863643594 -0.25527988391506795 0.06669315575753405 0.05838973162426178 -0.15742245434982866 0.154748519759877
0.27162359782956 0.25516674277270485 -0.1179202973026384 -0.03548060918004124 -0.002963810288947049 0.10999298715436841 -0.07103682588043206 0.3955755393143369
0.13296515673744563 -0.22182819139590335 0.32974269433108466 0.1553396203724155 0.3561424657514904 -0.07242022523305222 0.17268208211236652 -0.07470894755597254
0.05340480426906431 -0.1587175277682625 -0.009812695375980968 0.22055380235520244 -0.1904759001135996 0.22202343047410042 -0.21970897964466762 -0.18244715023920652
-0.10529892632095626 0.16838655962223076 0.32554154523089057 -0.18767764325829847 -0.2348106119871739 0.408679132539762 0.10102979086662599 0.12601453828671028
0.004912369523879993 -0.15194516358719126 0.06460317359942423 0.3917565246001096 -0.2256933611578107 0.1655572534343966 -0.037204489974834276 0.3282994499864322
0.0806396490953992 -0.08794343746953731 0.3703581480235775 0.0031559908679594313 0.3651549378676126 -0.20122576431655567 0.08739187502302473 0.1510361716378234
0.06849188089489286 0.15729378101697641 0.11251284751750457 -0.35692731087641916 -0.20738474661481793 0.12921769496110586 0.13806626484028017 0.14130188353125503
-0.05522371892893646 0.12485227136341508 0.01716772004109871 -0.008149176718072372 -0.4918805925367688 0.07243606709275872 0.17049917434659337 0.16625278212452715
-0.07104239935822386 0.011806680019675175 -0.1702102570013579 -0.3385308812003845 0.12727401318948797 0.20534618646939187 0.22241334686649525 0.32954397511559647
-0.31958444314454376 -0.36362005735137365 0.5171124419690746 0.5565166153889645 0.4290080807085684 0.19292735748114534 0.2522373690086662 0.306730663668155
0.35425421235582266 -0.14878793194470982 0.35047714138829944 -0.1618448511780025 -0.390076575221681 0.20746553097462342 -0.02993992946648895 -0.008438116006236313
0.06853824831378684 -0.3002980363810287 -0.1320096352999993 0.2081881101753039 -0.2652567477343278 0.03365073770569286 -0.3463429679674751 0.00679762958427089
-0.08365599273583509 -0.04839749260260295 0.076857382188246 -0.031703026684645544 0.11199401168316513 0.17029358927530738 0.05036606422132101 -0.26150464804384244
-0.1121179737634664 0.026209252672489795 -0.17427779046613145 0.10521770213765248 -0.32549053628989033 0.039271270388114045 0.17469534315538082 0.18565694463100144
-0.24069760473820165 0.09578732403502917 0.43324463391336 -0.27438428114417335 -0.08334612190465332 0.08245111256571608 0.536343641869099 0.2148180201360711
-0.08335244719921682 -0.2696491972098777 -0.07389056935429146 -0.016030338549877243 0.0003385711942937976 -0.21742703878936942 -0.4872565977627136 -0.16314247756988925
-0.24771511321340656 -0.09131872096782896 0.10616593238394563 0.2081807202311315 -0.18634627635886464 0.10757346761199832 -0.03126724043228548 -0.14960512205222173
0.2574337586952059 0.03052451958929409 -0.21817420993175154 -0.15750985404920817 -0.13743791968991606 -0.02840435076970392 -0.07267225399606865 -0.19840708104283522
-0.10446506836537597 0.04643143658651934 0.15362901945842627 0.1572881170772196 -0.29816638114730576 0.3201514134754034 -0.14702101080574134 0.2456035126108579
-0.15159880731382921 -0.010887272992436758 0.0025381996808450566 0.14616264566506595 -0.06872772645159125 0.08956344785019547 0.027607514271844574 -0.2669898331647985
0.05067928582484598 0.3488349257007921 -0.003612656362812199 -0.3863266252531084 -0.21369300669972627 0.30770183837878945 -0.02392413683213737 0.1298459296719635
0.13122986762845681 -0.30681481437169095 0.2238757762969829 -0.12561052334636658 0.08841186017239674 0.025229884880152292 -0.09722068964313399 -0.1153406452688902
-0.04114931076429227 -0.46550150556057934 0.11340592227814153 0.367608585044138 -0.0036633559100617396 -0.045015814018699696 -0.1942971250089474 -0.0019385077052591197
0.20298080429298196 -0.26055255886208545 -0.17523692743130367 0.09663063434185694 0.22128518623990442 -0.1402132601598386 0.00773359338610208 -0.13077924069060307
0.005928707273284508 0.1607686571779525 -0.2841380927104175 0.1826336037892168 0.007399162284933814 -0.06495355864844661 -0.05125605027007686 -0.1702740173820567
-0.10295228358829406 -0.2189430395021837 -0.12835342661166393 -0.054239403111048246 -0.23830119832160312 0.045677790774707946 -0.0204611458707428 0.22761527026180337
-0.08079718648132739 0.01897161474311948 -0.06807270594365869 -0.5949885855944637 -0.005436063758325463 -0.3710520337003913 0.005945767573867888 0.15567131927619585
0.16345183013235523 0.14630680608136268 0.05088994627769027 -0.275342290891467 -0.39717213431890974 0.04007662500840225 0.08423682345532059 -0.08898495704523499
0.26124439928093235 0.053250009362883675 -0.10829107478747892 -0.060645391699218835 0.051723213245651364 0.4132632814929507 -0.11020790493322453 0.003119325396965068
0.2745945877481831 -0.14658959326396892 -0.07935071301272115 -0.042160064747028776 0.15811857190369089 0.3035887067831328 0.40815623607751306 0.2182575805753384
-0.014130560892273119 0.01843528581206444 0.1734582255659286 -0.5147492540373158 -0.44192263787009983 -0.06602505948365366 0.25502541518461896 0.13723545534264103

LSTM.bias_ih_l0 f8 [128]
00000000: 07ed 37b2 226f 9c3f dc13 efc6 3f1d bb3f
00000010: 3e6c d201 0589 d0bf 74c4 13c6 a204 a73f
00000020: 391b 2f61 9588 87bf 93bb ab27 a7aa b63f
00000030: a509 7bf6 892d b0bf 7ec2 b35e 331b a03f
00000040: ac38 9e20 759d c93f e320 70b3 b6c4 b73f
00000050: 7853 1f27 606a c03f d969 1b2b 42ec c03f
00000060: 127f 3a73 fdb0 d23f a0bb 3ad9 6c83 c13f
00000070: 07e0 33f9 ce2e a0bf e4ed f4b4 f6d9 93bf
00000080: 645f d77c bd0e c33f 0bc6 2caa e00b cb3f
00000090: fdea 2740 0582 d13f 0052 7873 8747 a1bf
000000a0: 1411 aabc 57ab c6bf e835 978e 12da d93f
000000b0: eb27 dc26 121b ce3f 5d68 319e 6829 b93f
000000c0: 3358 17b7 5177 bdbf 2a32 7520 cd2c d23f
000000d0: 0818 1560 9eee d0bf 1033 dc73 fd48 b23f
000000e0: 3282 4f38 a604 b93f 6b1a 4b9a b95f b7bf
000000f0: 9e1c 9870 bb7b d23f 5312 cd03 b84b a63f
00000100: e767 9de4 992d bfbf 0f50 9dc8 0af6 c53f
00000110: 3740 9a5f 3824 663f 53e2 c465 2ccc d3bf
00000120: d4c1 ae75 6c12 bd3f 8c21 3dd5 df18 c0bf
00000130: d69e 4f68 3da9 c7bf a9dc 700f 0be8 b33f
00000140: 96e0 d86c 0c14 cf3f 096d ef1d 5549 d13f
00000150: 1b9c 1a47 ae49 bd3f 31f1 7ab8 6a79 c0bf
00000160: 230e fa7c a104 bc3f b9fc 32ca ff5d c13f
00000170: 837c c3b1 83d0 a8bf e381 fc42 b664 c83f
00000180: baa0 82a3 39e8 b53f 9895 ed12 d410 bcbf
00000190: 4bfb 8d70 7de2 c23f c7fb c305 0bcb c13f
000001a0: b776 0348 44cd c53f 5da5 bd73 5aea d23f
000001b0: 62be 3171 9fc9 cf3f 9fba 775c 9e67 c63f
000001c0: 9ec2 92bd dc74 c6bf f499 3851 5a06 c13f
000001d0: af18 6faa 092a a9bf ec71 407a 34a6 a3bf
000001e0: 36f2 da1f d387 b33f 7b6d 9178 33fd b1bf
000001f0: 16b0 993b 1628 d63f fcd7 261f 8b01 c73f
00000200: 8962 d4ca ef83 c43f 19ba 6939 e6b0 c3bf
00000210: 7dda b902 671f bb3f a3a9 fab4 2847 933f
00000220: efc5 7efd 9bf4 c33f 07e8 3b04 416c 86bf
00000230: 9a20 e633 c0b5 bcbf dff9 cd56 b9d1 cf3f
00000240: 9d19 9d96 fbce d1bf f08f 4813 e260 d4bf
00000250: 0c00 830c a0a0 c2bf b873 8277 6a56 ad3f
00000260: 90b7 39c1 c20e 973f d817 9f8d 1b42 b3bf
00000270: 35e7 14cf 92d6 c53f a98f dd35 3dc9 b9bf
00000280: 9ef0 d413 70fe c2bf b67b 1ff2 e240 c03f
00000290: c82e 77ec 39d1 b5bf 86d8 a2df 7ec6 c03f
000002a0: d7a5 b10e 43d9 b33f 867a 2007 c2e8 c8bf
000002b0: eb50 6bfe 801d c4bf 675f 87fd 7542 a0bf
000002c0: 085c 3e1d 6b88 c33f 6ae3 cc5d 1b2a c13f
000002d0: dba5 1cda 61d4 bd3f 43d2 d2aa f075 a33f
000002e0: dfb8 2f30 4e94 a9bf 51b4 39f9 6e84 b03f
000002f0: c52b ac70 77bd c03f 2664 23f9 f1f5 c1bf
00000300: 936d 99a7 06ff c0bf 490e bf73 9e2e c53f
00000310: 6896 4321 d9a6 bdbf 4981 ff3c 1fc3 ac3f
00000320: 8acf 3eb1 cad7 853f 3476 af41 9ca7 c4bf
00000330: d1fc 364d b4be c03f f0a5 6e3e 8d89 913f
00000340: 1d3d 0689 4eff d03f ad7b f6b4 6f91 c03f
00000350: ff4d 2485 f364 a3bf 5a2a 2cac 15e6 c93f
00000360: 1e5a 777d b6d1 87bf e34c f47b ac77 d33f
00000370: b1c1 53f8 fb03 c43f c23e 813d c531 c63f
00000380: cf4a a501 4999 b93f e490 8eeb 412e a8bf
00000390: 53f9 3975 2c53 d23f cf5f e12c 8a0b a7bf
000003a0: 946c c071 b27c c63f cb94 bac3 5ce7 dd3f
000003b0: 97e9 d719 6c6b 9cbf 1490 2c0e a1c9 ab3f
000003c0: 8156 2ac2 ee78 b83f 3341 479c 989b bd3f
000003d0: 13f7 55eb 285f b33f 8f3c f326 cede ce3f
000003e0: bc7c 1263 59f2 c13f 2529 4d2c ce52 bdbf
000003f0: 8dd3 ddab 1d69 ce3f 1928 ba21 0fa2 adbf
0.027767698409644683 0.10591505629334058 -0.25836301019598185 0.0449572436135747 -0.011490981128998367 0.08854145735288758 -0.06319486873238718 0.03145752459557104
0.20011772244146664 0.09284536248026458 0.12824632559081883 0.1322100363239105 0.2920526147154173 0.13682327849298037 -0.03160712043785457 -0.019386153025363742
0.14888733478323524 0.21129997548409593 0.27356082215526084 -0.03374884876771844 -0.17710396492123748 0.4039350883948303 0.23520113847217713 0.09828809606679685
-0.11510191650390382 0.2839844529123946 -0.26456412680670427 0.07142623976342244 0.09772719263811139 -0.09130439774444603 0.2888020133545498 0.04354643865966481
-0.12178956824700969 0.17157110973005316 0.0027028180164237153 -0.3093367570723206 0.11356237290488674 -0.12575910484362074 -0.18485229104339024 0.07775944830869953
0.24279933275989113 0.2701008598648547 0.11440552936493058 -0.12870534904312472 0.10944566060248255 0.13568112729078566 -0.04846583886114166 0.19057348509615143
0.08557472459745244 -0.10963178121672568 0.14753692622977108 0.13900888234635841 0.17032674328122763 0.29555379202664317 0.24834054019037227 0.17503718867324822
-0.17544135338313976 0.13300637212633115 -0.0491488476323395 -0.03837741844492712 0.07629127052036541 -0.07026979154163897 0.3461967069658852 0.17973460217552872
0.16027638820448356 -0.15383603862160625 0.1059479123740434 0.01882613758668018 0.15590238454528513 -0.010948665563308436 -0.1121482969957718 0.24858776796823087
-0.27825822552076734 -0.3184132755579858 -0.14552689181255152 0.057299925888606607 0.02251724533419225 -0.07522747237734906 0.1706107627049335 -0.10072691502642662
-0.1483898255190796 0.1269801790467377 -0.08522378943524267 0.13105760497791524 0.0775339041589612 -0.1946032080458801 -0.1571503870278613 -0.031757056425418644
0.15260065963659053 0.1340975006112573 0.11652194571492862 0.03800918660400445 -0.04995960558140821 0.06452077469448737 0.1307820606383229 -0.1403181520934435
-0.13278277572213124 0.16548519756007554 -0.115827150937173 0.05617616290669731 0.010665496381854007 -0.16136506278319163 0.13081983347181006 0.01712628072315242
0.265582689106809 0.12943836532664701 -0.037879571917212466 0.20233412653790844 -0.011630464271474013 0.3041793070307916 0.15637158990240388 0.17339387419860058
0.09999519624879415 -0.04722791672182483 0.2863265175618796 -0.04500991628509576 0.17568045191078296 0.4672462378897079 -0.027753533437115143 0.05427268312476499
0.09559528580060751 0.11565545859707953 0.07567077394011461 0.2411744775949711 0.14020840966711556 -0.11454475957467432 0.23758288280410192 -0.05787703787525817

LSTM.bias_hh_l0 f8 [128]
00000000: b104 7273 0426 bdbf a39e 7837 441b 8c3f
00000010: 9ad8 a443 4431 cdbf da88 278c 39a5 903f
00000020: a539 b4e7 9f2d ae3f 7f22 2a4c 315d c2bf
00000030: ddec 0993 d131 a73f c20e 5348 0c0e cdbf
00000040: 9938 9e80 4a0a c53f a520 70b3 266e b23f
00000050: 86ac e058 e2e9 c2bf d469 1b8b f3d8 c13f
00000060: 8afe 74e6 546c c53f 9abb 3af9 b5c2 c33f
00000070: 16f8 4c3e f877 cebf 4662 6199 9cf4 c43f
00000080: 1c03 4599 eafd 97bf 8974 a66b 9b04 b0bf
00000090: dfa8 c07e 7910 a1bf 7229 bc59 0af0 b5bf
000000a0: dfee 5543 9a81 c03f 626b 2ebd 7f16 cd3f
000000b0: 1e60 8fe4 5462 a0bf 5468 315e 25ee bd3f
000000c0: aba7 e808 dd2e b23f f063 ea80 59dd ce3f
000000d0: a9c0 a800 aaa9 a8bf a0e6 1166 2e81 c4bf
000000e0: 5f7d b087 990c bebf ff33 96b4 e057 a4bf
000000f0: 9d1c 9890 8458 d03f 1a77 19fe a649 b0bf
00000100: ca67 9de4 14df b4bf b77e 15bb 6fe8 9dbf
00000110: d55b 06ba f5bb a6bf e8c4 899b 5fd9 c4bf
00000120: ad83 5d6b 88a4 a33f 4543 7aaa 5c54 b5bf
00000130: cf9e 4fc8 a349 c1bf ac91 47e8 89e9 c0bf
00000140: 6d70 6c76 42a4 d33f 006d ef1d b1c6 d03f
00000150: 02c8 cab1 01fe a3bf c50e 8507 4d9c c63f
00000160: 7583 3e47 67c5 d53f 797e 19ed 8584 d13f
00000170: 5621 8f13 50aa cf3f 35f9 0db4 e465 afbf
00000180: a1a0 82a3 dcbd b93f 84ab 49b4 22e1 913f
00000190: 62f6 1ba1 5741 b13f e1dd 1f2e 10f4 9a3f
000001a0: 4e25 f29f 34e0 acbf 61a5 bd23 b08d d53f
000001b0: 57be 3151 24b8 c13f f274 ef78 49dc b03f
000001c0: 5f85 25fb 9a00 bcbf f399 3891 be21 c43f
000001d0: 23cf 212b a8f1 953f 7b8d bf45 d319 ac3f
000001e0: 2779 ed4f 8396 c83f 4892 6ec7 2dbe b73f
000001f0: 4e60 3337 b3ad c73f 0150 b261 00ac babf
00000200: 4362 d4ca c036 c13f 6d74 d3f2 4eec bcbf
00000210: 7831 31ea 5b4b 85bf 75ad 0a96 deba 86bf
00000220: 8617 fbf5 af42 a83f 88be 43f0 ae96 c6bf
00000230: a9ef 0c66 6900 c93f e5fc 66eb 91f5 d03f
00000240: b5cc e874 2a7b abbf b31f 91e6 9347 c2bf
00000250: d0ff 7c73 9d07 c23f d839 c1bb d2b4 b43f
00000260: 1348 c63e 7331 92bf 0519 3a98 2c7c 543f
00000270: 3c9b 53bc 7981 a73f 1464 7705 0cc0 d2bf
00000280: b5c2 53cf 1b68 a6bf 90f7 3e64 14c2 b53f
00000290: cb2e 776c b1ef b5bf aeb1 45bf 76e6 b33f
000002a0: 18b5 9c62 458b aabf ad2a fcc6 0788 9f3f
000002b0: b6a1 d6bc 9784 bcbf df5f 873d 0967 a6bf
000002c0: 27a4 c1a2 474d c5bf 8f71 e60e 5e92 d23f
000002d0: e552 0e2d 8d00 c43f 8b2d 2dd5 7484 a1bf
000002e0: 03dc 17d8 8517 bcbf 6ada 9c1c 0708 c03f
000002f0: f015 5648 1e26 d23f ef20 1b49 01d8 98bf
00000300: 00db 328f 9252 babf 550e bf73 aace c53f
00000310: 429a c6eb 59db 7c3f b902 ff79 52c1 943f
00000320: 17ed 13cb eace c23f fb13 a1fc b097 bc3f
00000330: 5603 c952 179b c1bf fa56 6490 c6c8 bfbf
00000340: c2f4 1864 5249 b43f 48dd b3a7 cf3a 973f
00000350: 0827 9242 d123 bdbf 0b15 162e 2b2a d13f
00000360: 2445 147c c33f d03f bb4c f43b 389d d63f
00000370: ef05 4f21 dedf a43f bc7d 02bb db7e b63f
00000380: d252 69d0 706b d53f d348 c775 3e9a b8bf
00000390: a7e4 e714 b3ac b63f 0258 380b 92f1 c6bf
000003a0: 5e36 e0f8 2b09 d13f c394 ba8b ecc6 df3f
000003b0: 9a02 c55c bb86 c63f ef23 8b03 68d3 c43f
000003c0: 342b 1581 8274 c13f 1f41 479c 8165 bf3f
000003d0: 9683 a04a 49e3 7bbf 209e 7913 1faa d43f
000003e0: 92f9 24c6 23d2 b63f 58b7 969d f8cb 893f
000003f0: dce9 ee95 58c5 d23f 058a 6ea8 6914 c8bf
-0.11386134928217718 0.013723881666990073 -0.228065999058974 0.016255282573077824 0.058941838297062156 -0.1434690114877135 0.04530196113497607 -0.22699121028391828
0.164376557161124 0.07199327355204106 -0.14776257838943624 0.13943332950914444 0.16736851933272973 0.1543796030941536 -0.23803618471168936 0.16371495713498713
-0.02342955170138615 -0.06257029894045919 -0.03332881614945093 -0.08569397631450729 0.12895515716433345 0.22724911439294276 -0.03200021066703605 0.11691506909974808
0.07102757899761396 0.24113005442339341 -0.048169434147326946 -0.16019229873545715 -0.117379756572054 -0.03973295406749599 0.25540269966627155 -0.0636238451347392
-0.08152895528237916 -0.0292069871842375 -0.044402770002470206 -0.1628837117637325 0.03836466131793457 -0.0833185116009761 -0.1350598075944078 -0.13212703553939542
0.3069006115417839 0.26212718890538156 -0.0390472917109861 0.17664492480445496 0.34017354924622306 0.27371357111221745 0.24738503413233087 -0.06132425973827297
0.10055331222486298 0.017460386518375795 0.06740329440432327 0.026321652236189656 -0.056398052715915456 0.33677295198739016 0.13843206371847103 0.06586131289028055
-0.1093842375899121 0.1572797974669836 0.021429660446712916 0.054884531273070324 0.19209329035488418 0.09274564856475209 0.18498840518327814 -0.10418703446549672
0.13448343185224773 -0.11298077991837525 -0.010397642216184208 -0.01109861274138411 0.047383784081417565 -0.17647349101706689 0.1953250644963849 0.26498840321069245
-0.05367405583492638 -0.14280937917851375 0.14085739268375486 0.08088414272172118 -0.017766762453511897 0.001250308560800274 0.045909694899640446 -0.29297161611390377
-0.043763035830015985 0.08499267051135306 -0.08568867586216837 0.07773534936649781 -0.051843803680052314 0.030792352218706288 -0.11139820442497847 -0.043754853020516064
-0.16642089316454298 0.2901835580358005 0.15626682949063944 -0.03421368696453005 -0.10973392987931167 0.12524498841385717 0.28357655586327635 -0.02426149376586378
-0.10282245632229703 0.17036944057155048 0.00704512715711886 0.020268715568593196 0.14693961063299163 0.1116896263857398 -0.1375455049729008 -0.12415734315103669
0.07924380248819587 0.022685284243349174 -0.11382778048769293 0.26819877148257437 0.2538918220244162 0.3533459268084688 0.04077047497368002 0.08787320438067686
0.3346826586978696 -0.09610357642603455 0.08857268581768328 -0.17924714610916231 0.26618480018882973 0.49651635785478393 0.17598669080509383 0.162701608400567
0.13636809637895342 0.12264261308087442 -0.006808553976981898 0.3228833856760236 0.08914397799978804 0.012596075352884803 0.29329504625243685 -0.18812294697006862

LSTM.weight_ih_l1 f8 [128, 32]
00000000: b632 c430 555e b3bf f28c 986f 8ba7 debf
00000010: 8f36 6cde 5b23 d4bf 3bb0 2309 5b1a cb3f
00000020: 91ff ffde 4042 c7bf d418 0ce1 bf0a cabf
00000030: da55 2dda f279 8dbf 0401 4f17 6c79 db3f
00000040: 87a6 66b8 3a26 b1bf b6d0 857c 9362 8d3f
00000050: 83b6 a0a6 40ed afbf 9d6f a531 2dcf c43f
00000060: a892 877b 986c a7bf c18c 4db3 1c4b a9bf
00000070: b832 fc9a 2a73 c63f 7389 db51 5ac7 cfbf
00000080: 8140 1429 ed9f 84bf 5218 64e8 e758 d13f
00000090: 3d16 0fed 1c14 d2bf ffa4 6d1d 064c 933f
000000a0: cf10 df96 9cec c5bf ca6e 0c02 23cf b3bf
000000b0: faa2 d8c2 51ca dcbf 88c0 434c 61b3 ba3f
000000c0: 94d2 7517 52e0 d1bf dedb 2c7c b232 d83f
000000d0: 7502 e54c 8181 c03f 5930 2056 e6fb d2bf
000000e0: d68f d50b 320e acbf abaf 235d fc7f a1bf
000000f0: 958a 38e8 7a8b c13f 3c35 c269 58c9 d43f
00000100: 5de2 cf3e 7e6d b4bf b7be decf 9044 c6bf
00000110: 66d4 5d8b ca49 b73f c41f 4c79 aa74 9e3f
00000120: 80fa b3fb c51a d03f 9abf da17 2751 c13f
00000130: 20f3 6c4d 844c c1bf 6cc8 3813 b5f7 9d3f
00000140: 02e3 256a 58ca c5bf 1419 c8b4 198a d9bf
00000150: 3632 c9ee b063 e03f 91cc 0294 8b71 a1bf
00000160: 3cfa 9ff9 93ae cabf b012 ac06 c7c2 d2bf
00000170: b972 0ed8 28e1 ca3f fb6a ea59 3143 d3bf
00000180: 5c02 044e a386 d1bf 41a2 9e87 9173 b1bf
00000190: 2517 c5ec ccb6 d53f d670 34b0 84fb cb3f
000001a0: 63b6 dd4b 3dc0 bc3f 799b 9eee f6a3 debf
000001b0: 0fc4 a1aa 16c2 e0bf e10a fb3e b000 d3bf
000001c0: b7fc 2687 4078 bebf 9a72 f2dd 2155 c7bf
000001d0: 2c44 3168 7f8f debf a39b 5a56 14f2 db3f
000001e0: 9dfc ab79 aff3 d43f 4572 27d1 4479 b23f
000001f0: 73c6 9972 6f14 cfbf 1417 08d7 157b be3f
00000200: de46 d320 a478 88bf 6982 dfef 6727 a53f
00000210: 5a8d ae2b b58e b3bf 4ea3 57aa 1c07 bdbf
00000220: fb6c e4a9 119e c5bf 9edf 8e0d 29ed c73f
00000230: f9a3 8e6e ac9f a4bf 2b62 8756 73dd bc3f
00000240: 2871 94a2 70c7 c33f 0522 4e45 d6b5 ccbf
00000250: c2e7 d583 8da7 b7bf 9406 0284 741b 82bf
00000260: 87ea 2720 ba49 cbbf c7ad 4507 de31 953f
00000270: 370e 93d5 ed96 c0bf 0474 e6ea 723b d23f
00000280: bf55 c2b0 8fd2 e33f 58d7 876a 2cea b2bf
00000290: b6ba 1b7e a19b 933f 8e3e 2640 127f c6bf
000002a0: 7873 10b3 5efe b7bf 9172 524f 9502 ccbf
000002b0: d2b8 7a0c 4848 b63f 5d82 7090 5e20 a33f
000002c0: 02e9 4892 693c b83f 9098 95c2 20e8 c63f
000002d0: 49fd 7171 01b7 d73f 869c 0e59 ce9f a8bf
000002e0: e1e3 19e4 e09c 9dbf 20e4 89c0 a008 d23f
000002f0: 00c4 99ee 8476 abbf 941f dbdc b0ad c03f
00000300: 0c4b bc8e 5511 c1bf 93ea 91ed 33a7 a43f
00000310: 8dc4 32ee acc7 d2bf 9812 71d4 1b5f c2bf
00000320: 280b a5c1 d6f9 c53f 3620 4eb2 e473 cebf
00000330: 2e89 2bf5 cc38 ad3f f199 9fb7 133c babf
00000340: 7416 af4f 3c2a de3f a687 c45a e16c cd3f
00000350: dcf8 e01f 9723 ca3f 44c7 fc2a af39 e1bf
00000360: c90a 5b99 2c63 da3f 0f62 1389 6421 d23f
00000370: 7b56 99c0 73e7 cdbf e47a e66c 5e49 c7bf
00000380: 2f23 0f03 8161 cfbf 3250 b41e 2e85 cdbf
00000390: 0602 1ae3 600b c8bf 11e9 c6c1 2d4a cdbf
000003a0: 8c4d 1607 d0d6 a4bf de4b 4ab4 5c2e d53f
000003b0: b44d 9c12 7578 ccbf 981e 2956 e48e cb3f
000003c0: 4003 2bcb 3f70 dfbf ab69 c60d ba0e d4bf
000003d0: cde0 fc39 cd41 913f 79aa 7073 0509 c53f
000003e0: c18b 771a e140 62bf cb8a 30b2 975c cdbf
000003f0: 2dc5 9162 686d e5bf 0d9e 85ec 14ed e2bf
00000400: 6754 af9c 06a2 c1bf 2774 e045 2b80 d4bf
00000410: ef06 b8c6 a624 ae3f ea96 fb49 5389 b1bf
00000420: 967f 6d8c 60cb cb3f 45b9 3bdc 20db cbbf
00000430: ecae f1bf 01aa b4bf 2a13 adf7 d3fd c43f
00000440: 614f feaf b6e7 c7bf 0e20 ceea 8828 7ebf
00000450: e758 dbf7 4283 a53f 845b 5cb5 f60c d1bf
00000460: f1b1 03c5 6f99 923f 08f5 d430 a53c bcbf
00000470: 0895 fe6f 8d79 603f 7fba 0cdd f654 c2bf
00000480: c4bf 4e11 af4d 65bf 5074 afa4 c35c c0bf
00000490: c488 a2eb ca9e d6bf 4f07 7e27 653c d23f
000004a0: 1f58 0524 f15a d2bf 43de 7542 a77d a33f
000004b0: 7b00 2be9 cea6 cfbf 7f2d 4fa2 2b25 c4bf
000004c0: 2208 44f0 3310 abbf 6c6a 6b8e 4315 c3bf
000004d0: 6677 892a 8dd5 bdbf 1c59 a3bf 3a62 cebf
000004e0: d77b 2d01 9a65 b93f bfd9 9720 2234 ae3f
000004f0: d806 9e68 575b d53f fba6 d4f6 8222 c43f
00000500: 9800 aca9 c2c8 dabf 1cf8 0f26 8157 ddbf
00000510: 5b66 f4d3 f344 cbbf 653e ab96 9b30 c23f
00000520: 15fd 41f9 f985 d63f 120b b353 d980 893f
00000530: 8d2c 468b 8779 c8bf a498 56c0 c0ab cfbf
00000540: b542 1df9 0255 60bf 8cc9 ca9a ef2f cd3f
00000550: 2266 eece 9264 a7bf 595d d140 edcd c6bf
00000560: d4fc f510 09de d6bf 5b16 733e 8815 d8bf
00000570: 705b 18e3 8eb7 c9bf 7f6e 0873 5725 b6bf
00000580: 957a 8ce2 8c54 d73f 414f 6d71 57b1 a0bf
00000590: 3b04 4da4 9bb7 d13f 8e6e f968 99eb b0bf
000005a0: ba7f f947 7e21 a53f db3a ad7c ecf3 b0bf
000005b0: 2a22 afc0 0d8c d5bf 0cc2 8d72 9dca babf
000005c0: 04f7 1bce 410b a53f f1ed 8ab5 c44d dbbf
000005d0: c7de 12c7 68a6 c5bf c663 1f17 57e7 ae3f
000005e0: 15a3 08f6 9335 d73f 0130 15f3 ef6c d3bf
000005f0: 25a9 133e acd4 c0bf a76d cf34 9800 cdbf
00000600: c14d fdb9 5529 8cbf 5e3b a712 8f28 e3bf
00000610: 0f58 d1e9 d7c2 e4bf dd72 097a 0d60 e03f
00000620: 3e2c 0494 2643 afbf dcad 0d99 f4ff e8bf
00000630: ad2c 402d 512a c13f dfb4 120c 04fd a33f
00000640: 31c8 95ed f598 dcbf c38d 2982 364d babf
00000650: 5159 81a6 b214 c8bf 5755 749d 1a60 bd3f
00000660: 7df0 e099 3407 c2bf f421 fc60 ecee 8c3f
00000670: 35e4 3959 ed46 c5bf 48dc bb58 ce6b d2bf
00000680: e0d6 2f84 37fb c0bf 7a77 5da9 2a20 d43f
00000690: 7311 6a71 89b1 efbf af27 80d1 c345 b8bf
000006a0: 38b4 e734 dbaa c0bf 0063 4904 5b2c 9dbf
000006b0: 4201 3994 8e7f d9bf 60f0 849a 8729 b63f
000006c0: 2879 d4e0 2a70 d7bf 642b 02c7 6f73 d13f
000006d0: 4790 5af5 88bb ca3f 9abf c3d6 0f16 dabf
000006e0: d692 51f6 0be4 bebf 7c62 43e4 248f c53f
000006f0: 94e7 55ab 3f64 ca3f 5136 4e5d dcca bdbf
00000700: e246 46ad bc71 c43f 2f03 7ace b0ef 9fbf
00000710: 760d 5a00 7281 cebf ce21 5785 3a1b cb3f
00000720: dd8b eb03 a271 cebf 7182 fa18 3d2e bebf
00000730: b2e4 a5b2 59e3 da3f 7bd3 2990 6e53 c13f
00000740: c38a ab0d 369d bb3f c03b 70d1 8914 d0bf
00000750: b96e 499e 857e cbbf 6c25 0ea3 3cc2 c4bf
00000760: 0eb0 7efa e47f d43f 074f 6576 cabd c83f
00000770: 3f9c c91b f1f1 df3f b606 e477 b55a aebf
00000780: 80da ce88 238a f0bf 6027 4972 8d0f b23f
00000790: 7d73 1786 b4a8 aabf fd05 04cc 17ae b13f
000007a0: 7f5a c7ad ff62 c0bf 827f 4b02 96af b93f
000007b0: a588 5799 8616 c8bf 6bce 5256 5100 e03f
000007c0: 314e 75cf 9e26 c43f 1a7b 9d69 da0c cd3f
000007d0: 36f6 affe ddac c23f b278 9d2b 4741 de3f
000007e0: d295 df08 e356 dbbf 5ef0 b1b9 18b9 d53f
000007f0: fb2b f170 3936 a83f 3f87 9683 8e87 a0bf
-0.07565815392099293 -0.47897611520802663 -0.31465813370673684 0.21174180933246753 -0.18170939339324524 -0.20345304955134813 -0.014392754824863841 0.42928602482062694
-0.06698958398797049 0.014348175275451385 -0.06235696825056627 0.16257252620823417 -0.04575039394311392 -0.04940118492847879 0.1753896004451201 -0.24827126500083416
-0.01007066041577809 0.27105138487275326 -0.28247759962355073 0.018844695612107106 -0.1712833153416171 -0.07737940597547346 -0.44984859493210616 0.10429962264947978
-0.27931644717254156 0.3780943119667749 0.12895218138330092 -0.29662474070278716 -0.054795803017242115 -0.034179579133563585 0.13706909502896694 0.32478914573660567
-0.07979573281762371 -0.17396745824725254 0.0909697141886042 0.029741920140651038 0.25163411693930726 0.1352890840985282 -0.1351476076178182 0.029265240953641955
-0.17023759062774252 -0.3990539803929931 0.5121693290507838 -0.03406940633558365 -0.20845269859997184 -0.2931382718236746 0.2099963240588261 -0.30097612171964244
-0.2738426458236398 -0.06816968499209343 0.33928225633677506 0.21861322978737147 0.11230834104727587 -0.4787576036709918 -0.5236924488691573 -0.2969170203252088
-0.11902240085236114 -0.1822855313993344 -0.4775084035400734 0.43665035660745327 0.32737337953580853 0.07216291528988801 -0.24281113715874234 0.11906563281817412
-0.011948854686497364 0.041316268950826913 -0.07639629665805128 -0.11338977011440685 -0.16888638301393386 0.1869250599099787 -0.04028071260047023 0.11275406706352757
0.1545239251944477 -0.2242992247013406 -0.09240040272371089 -0.008841429022371096 -0.21318747110474964 0.020698041147097414 -0.12960598877372018 0.28487847270463384
0.6194532825781421 -0.07388570404859018 0.01914837200359428 -0.17575290806097538 -0.09372512695013124 -0.21882883427760594 0.08704042725250652 0.03735633385827406
0.09467181989103682 0.1789589834326688 0.37054477766647104 -0.04809422337648876 -0.02891875641077835 0.2817766075382355 -0.05363860523801378 0.1303006246946522
-0.13334149808414286 0.04033815646194685 -0.2934372259288203 -0.1435274874985637 0.17168697791392984 -0.23791178423221176 0.057073979309068754 -0.10247920258516509
0.47132785588869486 0.22988526279465055 0.20421113068181895 -0.5382915343854866 0.4123031137097937 0.283288129675868 -0.23362585930106036 -0.18192653958700256
-0.24516308450099575 -0.23062683581577087 -0.1878472432035922 -0.22882625543372417 -0.040701390137793586 0.33095471960512934 -0.22242606552809507 0.21529821593343423
-0.4912261470854453 -0.3133988508722278 0.016852575935644865 0.1643378080055589 -0.002228202490856174 -0.22938820076622898 -0.6696054387267957 -0.5914406413621137
-0.13775713587407099 -0.3203228170767169 0.05887337852256091 -0.06850166851253517 0.2171440778429285 -0.21762476686076063 -0.08071909843573238 0.16399621575887952
-0.18675883859088585 -0.007362875779001866 0.04201707149120342 -0.26641624175083956 0.018163439178282507 -0.11030037347969224 0.002011085743975575 -0.143217904982027
-0.002600519112512219 -0.12783093968656312 -0.3534419346925797 0.28493622643155886 -0.28680065648711833 0.03806803404125649 -0.24727808365969736 -0.15738435197122766
-0.05285799320155628 -0.14908642248231574 -0.11653978622913783 -0.23737272603347825 0.09920656708480578 0.058991495588930125 0.3337000390675775 0.1573032098033805
-0.4185034424736016 -0.45846585003880747 -0.21304176186895316 0.142108391350564 0.3519272741468325 0.01245279108696232 -0.1912087850617791 -0.24742898360745358
-0.0019936616962826456 0.22802538927278382 -0.045689189682161194 -0.17815938630040298 -0.3573019662507708 -0.3763142213686927 -0.20091425026540888 -0.0865072875826005
0.3645355427160351 -0.03260300883871859 0.27683154149059747 -0.06609495938158202 0.04127115849109893 -0.06622198146690599 -0.33667320076759444 -0.10465415999147626
0.04110150948507221 -0.42662160614756234 -0.1691409084357842 0.06035873563059328 0.36264513994915265 -0.30352400530387064 -0.1314902594670652 -0.2265806444037086
-0.013750715006301985 -0.598701034958008 -0.6487845961335114 0.5117251761945131 -0.06105919415320969 -0.7812445630383382 0.1341039153051943 0.03903973243118641
-0.4468359775702338 -0.10274067571440697 -0.188131648351098 0.11474768013097979 -0.140844893585271 0.014127585134262134 -0.166227024619532 -0.2878299585858639
-0.1326665301746095 0.31446329631386727 -0.9904219832538231 -0.09481452812920453 -0.13021411975151564 -0.028489515434872992 -0.39841045832510613 0.08657119295543358
-0.3662211604695522 0.2726706927721152 0.2088481138245035 -0.4075965497313462 -0.1206672169078716 0.1684309114996444 0.2061843477820814 -0.116376660136859
0.15972097836179616 -0.031187784769375056 -0.23832535760093848 0.21176845083961243 -0.2378428000584724 -0.11789304599597884 0.4201263661012248 0.13535863913753218
0.10786760171644531 -0.25125356152505773 -0.2147986433873166 -0.16217763864214463 0.320306057571316 0.1932919576744256 0.4991419574129771 -0.05928580368528229
-1.0337252945006696 0.07054981270007721 -0.05206836830959725 0.06906269770481539 -0.12802120194711006 0.1003354793169802 -0.18818743216894976 0.5000387845997926
0.15742859964176284 0.22695474774351326 0.14590048728853028 0.4727342534951148 -0.427178152718935 0.3394223988941628 0.04728869918525188 -0.03228421551035731
