results/Genotyping_Transformer_Long/models/checkpoints/4/Genotyping_Transformer_Long-4-450.pt (torch_old, 376852 bytes, 14 tensors)

transformer.layers.0.self_attn.in_proj_weight f8 [30, 10]
00000000: bf4c f357 6da9 b0bf a0f9 0251 49fc c2bf
00000010: cb9b 7638 0061 d23f 39a2 1fbe 61fa cbbf
00000020: a446 7cb9 1ade e6bf fb9c 50c6 74a2 903f
00000030: 3e3f 5385 52b1 c0bf cdae ae5e 71c3 b5bf
00000040: f4bf a661 50c5 d0bf 0cc8 9395 34e4 e73f
00000050: d863 d0b1 59fa cc3f 367b be48 ad2e abbf
00000060: 3e88 fea7 8335 c73f 7c87 f3ae 0754 c9bf
00000070: 3dfd 1ef7 3d2d dc3f fca5 c8d5 b6ff a53f
00000080: 2e54 e7d3 3044 bbbf 5007 5324 0e0b cf3f
00000090: 6588 c8f3 8496 a93f 41d6 ca30 bc6a febf
000000a0: 5215 bf81 0882 d3bf fa03 1518 0a6f d9bf
000000b0: 7297 ece6 bfec c73f bc87 5ae1 38b2 c03f
000000c0: 4dbf 3934 0ce7 e0bf 66f7 e30e 4a2b 99bf
000000d0: f387 88b7 ed28 97bf 2216 b223 1438 a9bf
000000e0: e037 64cb 5a80 a63f 05ee d269 887c 03c0
000000f0: 2172 4d7b 6c50 c43f 1e56 f06a c441 d53f
00000100: 1c37 9ac1 ba0b b9bf bbd8 be64 01fa c4bf
00000110: d9d4 0142 d4d4 e63f 5b61 5469 243a bf3f
00000120: 9404 975e 054e 8bbf 2a11 3cff 3c06 a33f
00000130: 2dc6 36cc 28e1 bbbf 79cb a50f 684c ed3f
00000140: b644 eb82 a096 d73f 5e18 ae73 6316 c3bf
00000150: 978b 5ca0 0e98 d93f 7a08 32a6 344b 7ebf
00000160: 5b6d b48d ab8a d63f 7c9d d871 81f3 d73f
00000170: 8f40 8a24 7bef d23f 0861 20ce e977 d83f
00000180: aff8 29eb 7454 c53f 6332 4974 cf01 0140
00000190: 50bc 482c af36 b13f 25a7 3331 bb47 ab3f
000001a0: f2a1 b6da 607f ba3f bf19 1d9f ce8e a7bf
000001b0: c016 ec76 91f9 c1bf ff43 3343 a577 bdbf
000001c0: 032b 7cbc 599e 963f 50a7 be16 e15d bdbf
000001d0: 1389 b64d c70a b0bf ddfd 5488 ee42 08c0
000001e0: 5e0f 2140 6257 de3f 5e0b b370 3378 e03f
000001f0: fb32 6691 e9f3 e13f 5d7e 5c22 761e d33f
00000200: 34db 3974 50c0 c7bf b4ab 6a44 2a41 6e3f
00000210: 50bc ebe7 7a1e d13f d7df 90b9 5e9e 633f
00000220: dfcc da10 a5a1 b7bf 106d 82ef 54b9 0740
00000230: 8d6a 4991 2af0 d2bf 98d0 9ce4 2cf8 e0bf
00000240: 2a61 6d0b b178 dbbf 29ae 42ca 9319 cebf
00000250: 76a9 7bbb 56a9 e0bf 33d7 fdd5 cd6f c7bf
00000260: 171e 546b 2b9d 893f 9721 2db0 b8f6 c6bf
00000270: 73fb e7d8 0708 c9bf 42e4 bb2c 0c9c d33f
00000280: 1fbb e606 a74e cf3f 0c65 6e8d 335e c73f
00000290: 4730 7c51 7df7 d4bf c5fc c17e 5278 c13f
000002a0: 30d1 74b3 d60a d3bf d692 7222 2195 bc3f
000002b0: 2999 2474 9c46 98bf 7bd1 958a 71a5 c1bf
000002c0: e654 09ff 46b4 bc3f f616 3529 7303 c43f
000002d0: 2ea9 afb3 eedc dc3f 8e73 4a60 ffaa bb3f
000002e0: a6fc 575a d7fd b23f 068c e1be 2845 d73f
000002f0: 7a1d 0ccf ab46 9b3f d34c 2aec 902b b33f
00000300: 8bac 8b66 e96c c93f eb73 9bf9 ed6c d13f
00000310: 2fa7 7883 3f48 cc3f eb75 c739 d168 ea3f
00000320: b58b c67c 2473 cebf 9b98 e9ab e03c b33f
00000330: d5d2 34a1 9118 d33f 60f3 4dd0 cc93 d1bf
00000340: dc39 c9db 8c50 b7bf 1b08 474c 320d c93f
00000350: f618 717e cf49 d83f 3d3c cf6a edae d7bf
00000360: f67b cce1 2959 b63f 6b86 79c8 6588 cd3f
00000370: ce74 2116 4762 c8bf 8986 2c3e 3679 e0bf
00000380: a1fa 18bd 69cd c83f dcee 045b e8ad ce3f
00000390: de4f 43d8 efcb a4bf 503b 1354 5c37 dd3f
000003a0: c997 22fd e72f a0bf 1857 e692 3a3b d73f
000003b0: a390 2312 4c44 d6bf 5e03 7331 3e02 da3f
000003c0: 1a6b 7a5e ee5a c03f b7b1 db57 4b26 e6bf
000003d0: 7610 424c f618 e4bf c9dd 778a 21d0 d53f
000003e0: 8d62 f729 2c51 cc3f 5b77 6583 a5ef d03f
000003f0: 0400 bec4 a728 d3bf a762 974f 117b d5bf
00000400: 380b 8118 1d33 d63f c391 ba01 3e09 c6bf
00000410: 3a11 44eb 52fa abbf ac5d 07a1 a3f4 c3bf
00000420: 2522 c931 4a5d c43f d541 aa87 01c3 81bf
00000430: d771 65c0 0f8c eabf 107a 1f6e 7592 d0bf
00000440: ea87 9299 8982 a4bf 0329 272f a89a ccbf
00000450: fb90 fd62 9912 c23f 8ddf 4109 588c e1bf
00000460: 7113 4bab ee0b e03f 3a32 fe0b 6251 dfbf
00000470: 927d d194 9969 c5bf 9d77 3f22 74bd e2bf
00000480: 0189 6f49 69a9 f63f c86e e06d 3a02 d2bf
00000490: 8be2 5cde 0108 c63f 6a6c 120f 7574 e7bf
000004a0: 60eb a831 668e d53f e7af 79c7 0138 f03f
000004b0: 43c5 d118 e54e db3f 7eaf 7e8e e426 e5bf
000004c0: e453 8781 bb35 ccbf 4884 f7b2 21f6 e53f
000004d0: c84e 3230 9190 cbbf 098a 59fe 1976 b8bf
000004e0: c390 5131 0c1f e33f 8a27 3929 823f da3f
000004f0: d066 5889 dcc7 efbf 6b9b 012e eebd 91bf
00000500: ccb8 2cc9 03b6 c53f 7f27 4542 c7e7 e0bf
00000510: 48b3 46e6 7398 72bf 96df 5245 8116 bbbf
00000520: b283 edd9 b09a ec3f 0a2f 9073 4c22 e73f
00000530: fd1e 3d62 8359 e1bf b617 70d2 6e3e dd3f
00000540: 97c8 819b be04 e4bf 10c3 410b 1c1f f23f
00000550: 7621 037c 81d6 cebf fd77 4a80 9c9d ccbf
00000560: 3087 7589 e675 e13f 52be f682 bf92 e1bf
00000570: be1c 3445 7342 e4bf df65 e4bd e418 d23f
00000580: 5424 5ba1 293a a73f fab1 2c66 3f3f debf
00000590: af65 f21c d091 d93f 73ff ef90 1202 e1bf
000005a0: c70b 40c4 4bbb d13f 3adf 1f37 ce71 cd3f
000005b0: 2cf2 cf68 32bc c83f 099f 0f99 3607 c1bf
000005c0: 4e84 aa24 8dee debf 68c6 b2e7 3df5 a6bf
000005d0: b88e 0113 c845 98bf 1ef9 4c73 52c9 d4bf
000005e0: cab1 77bc 9887 b33f 4c2f 0740 da19 8ebf
000005f0: e098 4207 460f d03f 0efe f118 c4d1 e0bf
00000600: 4d69 fbe6 49fa d23f ae4d 934c 8e05 b0bf
00000610: 2111 8b1b 7cf8 e13f a93c c833 249b c73f
00000620: 58af eac1 d9e2 d7bf fa4e 9737 f42a da3f
00000630: fd60 4d44 648f ddbf 0c8b 126d 2177 e13f
00000640: b648 73f1 6d1f bcbf 2578 a02c cffc c83f
00000650: 2e35 24ca 4f51 c9bf 6fc2 48f9 68e0 b0bf
00000660: d7fe 5cba 706e e7bf 1d1f d4f0 fd11 ce3f
00000670: 6ae1 91c5 8429 c03f 6ae2 6580 2757 d03f
00000680: 613b b86e a51e c5bf 9a61 56be 3d69 e9bf
00000690: bacf 4a4a a148 ce3f 329a 3a4c 2d52 91bf
000006a0: 82dc 684c 1f87 c0bf d699 5bee 813f aebf
000006b0: ba12 6d67 154e da3f 6707 e06f a1fd c33f
000006c0: 1e8a f116 e258 c7bf 1169 eb8e f1e1 ce3f
000006d0: 0381 1bcd 1799 cfbf 721b 6395 f8a0 bd3f
000006e0: fc27 60c6 8197 ce3f 5cf9 432b 184b c0bf
000006f0: f63e 2281 f253 c0bf 3212 0757 798e b93f
00000700: 42a8 47ce d4bb e53f 912d 787e 929e c43f
00000710: 51c7 7060 b074 d1bf 723c 3abe 4834 c7bf
00000720: d553 10fc 5f35 d33f ff04 002b 2550 ee3f
00000730: 7475 8a39 e77d a4bf 2eab 1d03 6236 c13f
00000740: 8490 2bae 0071 853f 9dc0 b29d 93cd b7bf
00000750: 40b2 9bc5 868b f63f 447f b8a9 91b3 d53f
00000760: 1bcc 3d99 4101 d2bf b745 cc60 059e babf
00000770: 146d c9a5 2c37 b0bf 50c7 c1c6 38f9 f53f
00000780: 0892 a43b a9a7 d4bf 9bb5 05a6 55b5 b93f
00000790: 4af8 72d0 10d0 7dbf 7fac 6d7d 6452 9bbf
000007a0: d0fa 035f 5dff f43f 8436 2b1b 93b7 d63f
000007b0: 3045 b6b8 cd2c c3bf 266d 9804 a2f2 d53f
000007c0: d0b0 85fe 8108 bbbf 43e8 ace5 51f1 f63f
000007d0: f6df 144b 4dba bd3f 4d38 55a2 f9b0 ccbf
000007e0: 7485 f10c 7272 b0bf fb90 ceb7 2438 c23f
000007f0: 961e de2b 8764 0140 a1dc 2087 febb c9bf
-0.06508525273538888 -0.14832416968961315 0.28717046274180963 -0.21857854636552235 -0.7146123526346924 0.016244721035175918 -0.13041144857424486 -0.08501347123700072
-0.26204309021250016 0.7466071053916052 0.2263900869591271 -0.053090491418734606 0.1813206262859825 -0.19787689249556795 0.4402613557139892 0.04296656951585118
-0.10650925801685737 0.24252487920426313 0.049976496466357635 -1.9010583787870845 -0.30481159849690187 -0.39740230895773687 0.18691252494425786 0.13043890956492799
-0.5282040615111129 -0.02457919803509103 -0.022617067648873456 -0.04925597129571836 0.04394801838689921 -2.4358070628638893 0.15870433827048294 0.33213911479228553
-0.09783522822018792 -0.16387956065381623 0.7134801186754444 0.12198093005679793 -0.013332406949191168 0.03715696921975316 -0.1089044092721216 0.9155769639604464
0.3685685423379924 -0.14912074230614086 0.3999058309583971 -0.00739594045728797 0.3522137531123996 0.37423740499294644 0.2958667618595507 0.38231892709292525
0.16663991434683598 2.1258839688146494 0.06724066573291165 0.05328164077384504 0.10350613918001964 -0.04601140682511894 -0.1404287176775849 -0.11510689631110436
0.022088434342587792 -0.11471373372355953 -0.06266446730890989 -3.0326815272271532 0.4740834833394184 0.5146729661140446 0.5610244598225046 0.2987342200812913
-0.18555646586511332 0.0036931825191763527 0.26748535774726623 0.0023948526473098575 -0.09231025372973843 2.965494033019816 -0.2959085863891822 -0.5302948441590329
-0.42924142948096977 -0.23515555740355978 -0.5206712400225075 -0.1830994887238205 0.012506808483990146 -0.1794043407665071 -0.19555757609483812 0.3063993870596883
0.24458778225876984 0.18256229787656542 -0.3276055618050617 0.13648444356292636 -0.29753654027014687 0.11165053454403603 -0.023706860150150142 -0.13786143557411976
0.11212581373668548 0.1563552809913557 0.4509846453426175 0.10807796574449766 0.07418580966622076 0.3635961402962383 0.02663677645889837 0.07488351598503877
0.19863622195348216 0.27227353454310216 0.22095483703133698 0.825295079088105 -0.23788887112195103 0.07514766881067418 0.29837456457907524 -0.2746459993575652
-0.09107284894819351 0.19571522449956621 0.37950503681021475 -0.37005172186485763 0.08729802858987043 0.2307250241165549 -0.19049919682121302 -0.5147963728270081
0.1937687085464477 0.23968223995495108 -0.04061841502121387 0.4565039464040881 -0.031615495348247764 0.3629900393074066 -0.34791852733020273 0.40638689831762587
0.1277749978370018 -0.6921745983104789 -0.6280471314826304 0.3408283092716969 0.22122718857896864 0.26462686378169104 -0.2993564053831508 -0.33563645145981486
0.34686972992874443 -0.17215704998410616 -0.05464419481180234 -0.15590329516156254 0.15909697943631432 -0.008672725632352144 -0.8295973546733489 -0.25893913034625005
-0.0400584220854084 -0.22346975614920703 0.1411926015235919 -0.5483818226630192 0.5014565797397222 -0.48934222384631065 -0.1672851540233578 -0.5856266659645716
1.4163601749974648 -0.2813860009207301 0.17211936338005204 -0.7329659742712356 0.33681635713189984 1.0136735717778664 0.4266903631569969 -0.66099765616444
-0.2203897840942367 0.6862953658529785 -0.2153493390402359 -0.0955520864459133 0.5975399935964777 0.41012624765118544 -0.9931471521878965 -0.017326089437485075
0.169617150525886 -0.5282932562197259 -0.004539921505437423 -0.10581214849923834 0.8938831573869861 0.7229368455022904 -0.5421769064641634 0.4569356017167324
-0.6255791699643564 1.1325951041910152 -0.2409211974647964 -0.22355991615489748 0.5456421551464015 -0.549163585461381 -0.6331116057998754 0.2827693800369086
0.04536562056234375 -0.4726103303717363 0.3995247156795711 -0.5315029936609633 0.27705663838440525 0.23003556911111805 0.19324331395900296 -0.13303263162310255
-0.48331001835510257 -0.04483979657505871 -0.023703695449866585 -0.32478772411185897 0.07628779031046587 -0.014697747305852403 0.2509322234058242 -0.5256062018597178
0.29652640873759567 -0.06258477563397122 0.5615826166108812 0.18442204025675338 -0.37322086274320077 0.4088717024689995 -0.4618769328130979 0.5457923059769612
-0.10985457558425335 0.19521512679142564 -0.19779393549144103 -0.0659242256740613 -0.7322314872653476 0.23492407092293713 0.12626704832997443 0.2553194764982779
-0.16499774843438345 -0.7940968244102351 0.23659149291563414 -0.01691504266514183 -0.1291236041158506 -0.059078274103558634 0.41101584530069213 0.1561776920571518
-0.18239999885834463 0.2412702510690186 -0.24685952677737796 0.11573747298380768 0.23899862467106903 -0.12729169952940367 -0.12756186776504536 0.09983023047158993
0.679178622141315 0.1610892407919491 -0.2727471296121751 -0.18128308571292312 0.30013274779895244 0.9472833480687369 -0.040023065351514925 0.13447213318007684
0.010469441714527024 -0.09298060035757989 1.4090640753812664 0.3390850217274315 -0.28132667508106274 -0.10397370923262526 -0.06334189460305978 1.373345161814047
-0.3227332193803538 0.10042319587019792 -0.007278505020790924 -0.026681490092795187 1.312344905046917 0.35495450642779525 -0.14980479735508245 0.3429341359021286
-0.10559856857225047 1.4339159938522392 0.11612399180455654 -0.22415085245524083 -0.06424629989625946 0.14233836150118137 2.174085943904923 -0.20104962919297

transformer.layers.0.self_attn.in_proj_bias f8 [30]
00000000: 8ade 50fb 8d1d b9bf ef74 239f 4411 c1bf
00000010: 80f0 79a9 f548 b5bf 989e 01e8 bcb7 c23f
00000020: e8d8 e093 6b7c d63f 92e4 7ae7 ee09 bfbf
00000030: f779 4c2b 6086 d23f 8f01 fa53 bc7d d5bf
00000040: 5b50 345f ba1d 97bf e28c 9bb3 48c2 d63f
00000050: 1e42 2874 ca67 15bd db82 09dd d643 603d
00000060: 30c0 85c1 e987 56bd d0fe a74c 1fb9 513d
00000070: 3e8c c46e fa5a 9d3d 2191 ed3f 119e 81bd
00000080: 94d5 569f 001f 98bd f175 51fe 211d 793d
00000090: 8825 3cff cbbc 683d 02dd fef3 b2bb 7d3d
000000a0: 80df 626d 264a a6bf 2c31 6af8 5a84 7e3f
000000b0: acc1 7250 6f35 6c3f 1125 610f a9b2 963f
000000c0: c714 0c91 fe02 8d3f 59a6 6751 724c b13f
000000d0: d996 451a cf9d 6abf 9698 06c2 86cf 83bf
000000e0: 39c0 05ad 8c1e 94bf 9384 8c3b f7f3 a03f
-0.09810721765176758 -0.13333947916445463 -0.08314452540975203 0.14623223617967507 0.351344007885372 -0.12124531890266813 0.2894516394461841 -0.33579929543341164
-0.02257434087830777 0.35560815372282495 -1.901184360955346e-14 4.622790273089197e-13 -3.201834968918046e-13 2.518608801200402e-13 6.6746415085478716e-12 -2.002872259915823e-12
-5.48450390109706e-12 1.4275542496639778e-12 7.030816887938749e-13 1.6901367051628878e-12 -0.04353447041779557 0.007450442650803784 0.003443448458334516 0.022165910304726092
0.014165867616166129 0.06757273185180547 -0.003249077317536525 -0.009673168941685167 -0.019647787151768823 0.03311131097712763

transformer.layers.0.self_attn.out_proj.weight f8 [10, 10]
00000000: 77de beb1 c033 a73f d015 b588 29ce 9f3f
00000010: 85d4 dbb7 e4b3 af3f 8513 ded1 23ba 7ebf
00000020: dd0b df02 fa58 b2bf 25d1 cc6d 3833 a5bf
00000030: d2d1 6a88 bc33 ba3f 254f 6898 5762 703f
00000040: 4a60 a307 0a15 b43f 1abe 539f f9f6 7e3f
00000050: 472b d68f ad46 87bf d1f1 4128 c798 8b3f
00000060: 8466 767c 4f0a ab3f f71f 777c e0a6 c0bf
00000070: be97 92c7 a5d8 bebf e344 71c4 8c82 c2bf
00000080: d770 1937 90ab ba3f 7968 29c1 8a33 92bf
00000090: be76 110b 21f7 bb3f 1184 da23 5859 b4bf
000000a0: a5d0 5269 b68b b63f 0d99 8bf2 53f8 a53f
000000b0: 63ee 99b8 e4ba bc3f e583 fc65 a3c4 c1bf
000000c0: 31f5 4e2d acb5 bebf be2f ec41 3c45 c8bf
000000d0: 8536 6d31 24e1 bd3f 9cd4 25cf 1c3e 72bf
000000e0: 7f2c a889 51c3 b03f a520 a169 1c82 c0bf
000000f0: eba0 35bf 1a6c b13f 2eff 1ab1 06e5 a73f
00000100: b6b9 9149 57c7 613f 5346 35cd 99b8 b9bf
00000110: e306 cc66 6343 b9bf 03de 7c76 883e b8bf
00000120: 3291 3806 1bb7 ca3f 09f6 4f05 2eb6 9abf
00000130: 837f 0992 2c39 6cbf ffc8 d930 2045 b2bf
00000140: 1839 6a1f 0b0c 92bf caf0 cc21 95b7 a53f
00000150: 7f04 b1f8 36cc af3f b869 e71b f6b7 af3f
00000160: d112 58d2 5294 d23f a5ae 3eff a326 df3f
00000170: cf34 6d1a 8743 debf d10d 598c fa77 b3bf
00000180: 87a7 6759 a713 9dbf be17 fa18 3f77 c63f
00000190: 9cf0 3b48 579e aabf 0e0e 5a76 aab4 7b3f
000001a0: 6056 f983 1b32 b13f 8a6d 93a1 c117 783f
000001b0: 9923 88e1 ebc1 a53f 624c 3f53 eac8 643f
000001c0: 7fae 61a3 8746 413f 46e4 b66d 8f62 933f
000001d0: 9946 0f12 cbfd 993f e0e1 d872 b955 6a3f
000001e0: 44c1 6ed0 0c2a b6bf df00 f9e7 d110 95bf
000001f0: 3f85 f50f 0d1c aa3f fee6 6eb3 4f2c 93bf
00000200: de4a e368 72f1 c43f d169 4efa e96d c03f
00000210: d9c1 1aad b8a9 b9bf 5e5e 6479 e6ea a0bf
00000220: e734 c139 851e a03f 8bb9 d211 ae1d aa3f
00000230: 2497 2335 0109 b3bf dc9e c3a2 e087 963f
00000240: d6c9 3175 f52a 983f c1b2 a277 8d20 ac3f
00000250: a835 2145 cf4b c53f 92cb 07cc ed30 c63f
00000260: bfb9 f93a b1ab b6bf 3677 066f 4b80 97bf
00000270: 78af 0caa 5f77 9c3f b2de ee48 1585 b63f
00000280: f8ab 951d 0279 b6bf 6f41 1433 5ed2 8d3f
00000290: 58cb 7f41 8b9a 9f3f ea9c 3278 fc42 863f
000002a0: c655 7f32 a503 c03f 19a6 f3ea 5bd7 923f
000002b0: 6257 9df7 15bb b6bf a037 a65d 8bfa b1bf
000002c0: 4db1 adf8 6dd4 ad3f ba57 6596 7582 a63f
000002d0: 5d8d 3929 65d1 813f b73e 4ed0 39ba 9abf
000002e0: 4efb 5b48 fd0c c5bf 88e1 6798 8f62 ccbf
000002f0: 0c1f d77c 0b91 d5bf ff05 0352 7818 e3bf
00000300: c048 2380 c407 e13f 73e1 8a14 3130 af3f
00000310: 356c ed16 98a9 a0bf b152 cc8d 6e3c ccbf
0.045316716859301324 0.03105988404174359 0.06191935295456922 -0.007501735611985865 -0.0716701752672146 -0.041406405833557515 0.10235193567752468 0.004000036401084183
0.07844603239516448 0.007559752547634991 -0.0113652762909361 0.013474994579376539 0.052813037818123326 -0.13009267880829586 -0.12049327967051135 -0.1446090659324347
0.10418034882735881 -0.017774742164285293 0.10923964042873544 -0.0794882857831143 0.08806934424757402 0.042910216672497815 0.11222676760547183 -0.1388134239178093
-0.11995960336840451 -0.18961289614560245 0.11671663481430457 -0.004453766380142412 0.06548032389416568 -0.12897067220388184 0.06805579345894201 0.04666920577937926
0.0021702484923970767 -0.10047303447688564 -0.0986845136613073 -0.09470417874114649 0.20871293834455568 -0.026085585664978015 -0.003445231486963908 -0.07136727516789064
-0.01762406710855044 0.042416248680156324 0.062104909761282016 0.061950388818974245 0.29030294934663653 0.4867334358811866 -0.4728715665886058 -0.07604947973691557
-0.02839528544601635 0.17551411361290364 -0.0519892955471459 0.006764093273548889 0.0671708295061193 0.005882030841543604 0.04249512794564864 0.002537210146309075
0.0005272066398566837 0.018930665084301766 0.02538220689513668 0.0032147047084232078 -0.08657913292586722 -0.020571975501526004 0.05099526233494566 -0.018723721815809384
0.16361837502935023 0.1283543083380452 -0.10024599291023807 -0.033042146986357976 0.03148285226834862 0.051007690120388714 -0.07435615107860066 0.022002706465086827
0.023601374891265646 0.054935856679866564 0.16637602687334874 0.17336819136070553 -0.08855731668311416 -0.022950342799610023 0.027799124483109477 0.08796818762391004
-0.08778393957406638 0.014561401304064884 0.030862975952867217 0.01086995355428973 0.12511124578183636 0.018399654593769996 -0.08879220290449788 -0.07022925411567238
0.05826133404375131 0.04396407566916545 0.008700170822698078 -0.026101020182578618 -0.1644589045826827 -0.22175784055412984 -0.336977836527226 -0.5967370607178849
0.5321981909458131 0.060914548642759046 -0.032543900297888596 -0.2205942337392535

transformer.layers.0.self_attn.out_proj.bias f8 [10]
00000000: f08a e40b 4b3a 743f 0ec1 9f66 3a3c 7c3f
00000010: ba0e 25a1 fa5b 7b3f 79fc 04f3 34e3 5ebf
00000020: 0609 646e 3fd3 483f 719e b3e6 f38a 79bf
00000030: 265e 378d 5417 55bf 9172 7934 6e5d 2f3f
00000040: ee74 0b46 2537 3b3f a170 d746 70b9 84bf
0.0049384051801861645 0.0068933755191980094 0.0066795149053324124 -0.0018852250178296433 0.0007576045725559428 -0.006236031283357244 -0.0012873006534074387 0.00023929567599880301
0.0004152742385892934 -0.010119321023857987

transformer.layers.0.linear1.weight f8 [2048, 10]
00000000: 605f 9825 b391 bcbf 37d5 4084 613f c3bf
00000010: 8e91 6e2c 1dcd 853f 59df 9438 7e0a a83f
00000020: da45 7194 e867 b33f d397 cc97 6b52 c6bf
00000030: 4830 88d8 8854 82bf 0ebb 1dee 9ca5 993f
00000040: aecc 5810 068a 91bf 5edf 217b 887d c4bf
00000050: d87a d738 900b cb3f a13e 4351 5850 a53f
00000060: ed21 0e0f cb9d c1bf 3c71 f1b1 c36a d2bf
00000070: 2714 654e 0b91 cf3f 93dd b57b effd c63f
00000080: 8684 c373 9852 c43f b0fb c08a 890b c43f
00000090: b05c fea4 4ea7 dabf ce83 f93e 3254 cf3f
000000a0: ff56 8c40 c963 bd3f 6bb0 eff6 5ec2 b43f
000000b0: 9dc6 c52a 9294 a73f 512c 0068 bee3 c13f
000000c0: 2349 05c0 a9c4 bd3f 7879 1293 8a0a 75bf
000000d0: 2e77 2eb2 1fd9 b0bf 73ea 1ac1 062a c1bf
000000e0: 2937 a4a9 b203 893f 2934 3b95 0a3b c63f
000000f0: 90b6 db2a ecf3 cf3f 9243 57cd 14d9 c9bf
00000100: ca74 90c8 9bdc cc3f 2eaf 806f 71a6 c8bf
00000110: a3e5 ed6f 9ba5 d13f 491d 054c dde6 d03f
00000120: 4965 0a5d 1f53 c8bf df35 2186 fbc0 d03f
00000130: 070a 74e0 e30f d03f 5a46 2d81 5544 ba3f
00000140: 6e4c 6426 1f8e d33f 0cbc 1ae9 e9d3 d13f
00000150: 1ce4 24f7 0ad5 c1bf 3b0f a318 9bd0 d23f
00000160: 2f77 b0c0 5332 c6bf dd1c 797c db97 babf
00000170: e6d3 451e d01d d23f c8e1 5926 2b12 d1bf
00000180: 801d d36a 9017 823f 39ec aeec efd6 cd3f
00000190: af7e fab6 0fe9 bbbf dc49 9151 20c6 cebf
000001a0: fd5f 85bd 430c c9bf cadf 2205 d873 c5bf
000001b0: 7098 a22b 12bd cb3f 6075 5739 f862 b23f
000001c0: b0d9 fd3c bafd dcbf d2e4 eaa3 6208 d23f
000001d0: 6b4c b062 c849 dabf 1ec1 ac33 1b1f d73f
000001e0: 03c3 d215 4788 cc3f b931 9c19 ce5b cabf
000001f0: b269 32ca 0d51 ad3f 8d79 9041 5a94 d4bf
00000200: e4a3 ff78 73e8 793f e6e6 6319 0ded ce3f
00000210: 7697 cc96 257a c63f 41e2 ee83 2356 b53f
00000220: 6dce 3cd6 1159 a13f b3f2 6eea 532b cc3f
00000230: 2d5f 5d6d c8f3 bcbf 6e56 aa40 0210 dcbf
00000240: feb9 922e ed36 d0bf 7390 cd1b 10be a5bf
00000250: 66ab 02e3 9105 a43f 3022 c499 48db c73f
00000260: 89f0 a0f4 43f8 c9bf 758c 5e01 73b2 c6bf
00000270: 3138 417c f5e2 a53f 3d5a c013 7067 d33f
00000280: 863d 66be 9bb9 cc3f e4c9 0ca5 ebc4 c1bf
00000290: 7b7c 7027 2531 c2bf b86a 88f2 4ef6 9ebf
000002a0: 490e 2934 7191 ce3f 661b 0d55 a7a4 c23f
000002b0: a2ff 96d3 0807 d9bf 9033 d1ac d263 d7bf
000002c0: 7900 0143 1c5d cf3f 0ccc 7251 4e5a a0bf
000002d0: 43e6 0cd8 a8e1 b3bf d4ac 48dc 4229 babf
000002e0: 04ae 2f1f bc84 743f 1ae2 18e9 e695 d1bf
000002f0: 9948 eaea a7e6 d0bf f1bd 65bb d8ad aa3f
00000300: 6a81 e0ba bb87 bf3f fa2d 5748 ae9a d0bf
00000310: f07f b2f2 d402 c4bf a713 2ce7 899c bc3f
00000320: 8b0d 45be 4cf9 a63f 4d9c 9498 f2ab c03f
00000330: 5df9 1456 716e 523f 45b1 7fef 7633 913f
00000340: bd1e 8d4c bdd0 a5bf 6eb2 94e5 3ca8 cd3f
00000350: b76e bc8d 3de8 b43f 5259 9d2a d9f6 b73f
00000360: 0131 0822 faaa c93f ef91 66ad 60c0 d3bf
00000370: 6143 964d 2efc aebf 6a2a 35ee 9c09 cabf
00000380: 3bea 4bd7 6767 18bf d345 0557 5e3b b53f
00000390: da24 0b06 480a b5bf da0e 9001 4332 d7bf
000003a0: 0cf4 d449 2625 d7bf 6e1b 4bac 7b6a b0bf
000003b0: 84f1 ce3b 42db bd3f a7b5 05f1 f2d9 dd3f
000003c0: 2948 8eb7 bd38 c53f f157 d195 6d38 c03f
000003d0: 299e 49fd 3b58 983f 5a3d 05b2 39f1 cb3f
000003e0: 1d83 53ed bf8f d83f afe8 60fb e0e0 cb3f
000003f0: 856c bff4 4486 b1bf c9dc abb7 6b4e cc3f
00000400: 87ca 46f2 5230 c83f 68a7 0899 1a03 82bf
00000410: 2646 d8cc e371 b93f 451e 0333 4d8d 583f
00000420: b164 7df6 164f a73f 565b 910d 3c9b c8bf
00000430: 0abd deae 7b5e de3f f500 059a 0052 cfbf
00000440: 49b8 1c19 3cae b1bf 01a3 0b0b 5a17 c63f
00000450: 415a aef5 f1b9 ca3f d6e8 ee6e eb59 b43f
00000460: cdef 2ec0 6bef c33f 100e e801 b030 c73f
00000470: bf47 e194 ec49 acbf 0cfc 8dc5 de90 b93f
00000480: 1948 91f4 9861 cfbf 9cc1 7478 cad2 b1bf
00000490: abf9 2798 83b4 d1bf ac6a 24a4 a285 c3bf
000004a0: 2d64 dffa 13ca c4bf 34c4 d458 2af0 d23f
000004b0: 1c38 12c3 d76e ae3f 8d81 5c4a a680 d8bf
000004c0: 2619 9080 bcfb ab3f 1ee5 2fdc d959 b13f
000004d0: b4c3 00b9 cfed a2bf 0919 7990 9bf6 c03f
000004e0: a303 154a ec8d d3bf 6ec8 231b 955f c83f
000004f0: 14cb 758e d925 b9bf e32a dd8f 64c9 cabf
00000500: 3434 aba7 5cc6 9cbf 7884 ade3 b51d c33f
00000510: bed3 567b a30f a93f 6a71 0752 4c29 c13f
00000520: 6c03 ec3e ba22 c53f 4c5b d590 7809 bcbf
00000530: d0f5 8af1 0332 b03f 2ffc b7f8 803f b7bf
00000540: a2bf ab34 bb25 b83f 6eca e619 1e8c de3f
00000550: fe59 013f 9971 b73f 4108 f92a 6053 ac3f
00000560: 9ea8 7ded 7064 91bf c26d be2a 7333 b53f
00000570: 28b6 9676 9f69 533f 62af c0a8 8fc9 5bbf
00000580: 2f4f 184f 4620 b33f 86e9 8c3c 441f b43f
00000590: 5825 67b3 6d01 b53f 621e 1fc4 ccd9 a43f
000005a0: 208a c075 8524 d6bf fa27 6265 af2f 973f
000005b0: de0c 41e4 411a 8e3f 765e 4662 2fd8 a33f
000005c0: b579 f068 e53c b93f f493 8614 9b11 d3bf
000005d0: 2dd5 aa2f 07d6 84bf d24c 27a4 7c08 a83f
000005e0: 6e98 0586 f398 b43f dc74 847f b0b3 b83f
000005f0: 9f6a 9bee 26f8 c1bf 78d8 a77b 771e b0bf
00000600: fe83 2804 98e8 aebf 8250 c2ce a008 adbf
00000610: b192 e4b3 96d0 d13f 1daf 99c3 eae5 953f
00000620: 7133 758e 3425 d33f 7bb5 82d1 eb6d b53f
00000630: 5036 8db8 288f ce3f 8182 efa6 3b98 d5bf
00000640: 8c84 370c 2d13 a73f 8d05 a86f 331f cdbf
00000650: d56d f1c3 13cf c4bf b697 f51b 576e a33f
00000660: deda fb6a 5fb1 d93f 92fe b8c5 a8ff 903f
00000670: d906 58b2 06eb cb3f 6dba f064 706b ddbf
00000680: 7e8c f196 959a c13f 8662 bd47 a0fe cebf
00000690: 3bd0 3df1 f8c0 a83f 4fa4 0d06 e38b a53f
000006a0: 4835 fc7d 217e a03f 79ca f79b e152 ae3f
000006b0: 8f8c 9f7e d145 c63f 59f6 2074 6382 c53f
000006c0: 2883 93fc 116a c23f 5418 ba64 1246 c43f
000006d0: 9676 958d 6d27 b4bf b07e 9ff7 b5f9 c83f
000006e0: 7c3a e614 192c d33f c770 254e b618 c03f
000006f0: 6f19 39de b32b bfbf 600c f95c 231e d2bf
00000700: 658c 1937 fa66 d93f 32a8 9733 fa75 cc3f
00000710: fde7 45f9 116c cd3f e49d 9384 ead2 ca3f
00000720: 85ea b349 04ff ddbf e9df fd51 fd3b 983f
00000730: 902b 4afa 2fce cf3f 62c9 7c77 edb5 d33f
00000740: 5aff 999f ec37 cb3f d8ce a618 9751 d23f
00000750: ca3b 2024 2669 c93f ca1c 60bf 5267 af3f
00000760: fe22 dcf9 a0c8 dabf 61e8 ce37 65f5 b33f
00000770: deba 5f3f 438d bc3f e9db 80fc f460 ec3f
00000780: 7672 886b 90bc d03f eed6 d962 a065 c43f
00000790: dd85 24d9 0d35 97bf f55c 4133 56d8 d13f
000007a0: c73d af9a c6ad bf3f ca07 b92a 7228 dabf
000007b0: 13df 515a 1774 c73f c301 9db6 3f5d ce3f
000007c0: 845e 19a4 e4df cabf b34a 7a4f 83b9 ec3f
000007d0: a54d 2689 113f 9abf d120 4b35 c69d a03f
000007e0: 5993 d571 2491 acbf a12d 9570 2055 a1bf
000007f0: a5ce 30a5 d990 c23f 9cbb 9168 bdcb cf3f
-0.11159820239879314 -0.15037173230818165 0.010645130079702605 0.046955055624890725 0.07580426811298172 -0.17439026748723893 -0.008950299366027661 0.025045825990157637
-0.017128081081136663 -0.16008096706695601 0.21129038596605798 0.04162860862709051 -0.13762796626203003 -0.28776638390788256 0.2466138966357516 0.17962449589297744
0.15877061512495433 0.15660208964433542 -0.41646162140518594 0.24475696635184224 0.11480386567958688 0.08109086540906822 0.046055381509075156 0.13976268842847842
0.11628209054950793 -0.005137006098406942 -0.06581304645666528 -0.13409504345857534 0.012214084436461175 0.1736767986934933 0.24963142483413892 -0.2019372942582121
0.22548243802240214 -0.1925794405409475 0.27573285990328084 0.2640908472426032 -0.19003669779776036 0.26177871798139835 0.2509698573996108 0.10260519412738614
0.305549418918594 0.2785591865931003 -0.1393140513189629 0.2939822903247095 -0.17341086300523886 -0.10387965954679453 0.28306963878941216 -0.26673392052864786
0.008834007511167696 0.23312186295319906 -0.10902498452423502 -0.24042133314885816 -0.19568678621249083 -0.16759777308266016 0.21670748835203169 0.07182265663091902
-0.45298629718981953 0.2817617989308704 -0.41075334203305286 0.36127357527131376 0.22290886464681856 -0.2059266686486703 0.05725901692604242 -0.3215547218586828
0.006325198235551863 0.24160922755964193 0.1756026254963065 0.08334562274002001 0.03388267269329224 0.22007225939696226 -0.11309483213460388 -0.4384770995614876
-0.2533524470153735 -0.04246569003478919 0.03910499473689448 0.18637950428116445 -0.20288896031150142 -0.17732083861219264 0.042747184198205786 0.3031883423695126
0.22441431805462403 -0.13882203635291923 -0.14212479043723988 -0.030236466935188416 0.23881354376691125 0.14564983036890594 -0.39105435050077564 -0.3654677093189145
0.24502900382686102 -0.031938979570803466 -0.07766204142253579 -0.10219209554695691 0.005009398318161388 -0.27477429164312783 -0.26407812062201114 0.05210759437147406
0.1231648761026968 -0.25944096626764657 -0.15633642054035546 0.1117635907540505 0.044870756365095486 0.13024742555828298 0.0011249644088163404 0.01679788433823261
-0.04260818061316971 0.2316967125892861 0.0816687079463304 0.09361035623928629 0.20053030645102157 -0.30861679967554684 -0.060517737361016406 -0.2034183657763891
-9.309359831980665e-05 0.08293714165235792 -0.08218813083216805 -0.3624427333127024 -0.36164242944852343 -0.06412480312711263 0.1166268726364646 0.4664275506719044
0.1657941004055499 0.1267220479518865 0.0237740872711624 0.2182991141548694 0.38377378631962406 0.2178002574381188 -0.0684550378349958 0.22114321201636347
0.188974731730543 -0.008794982714863855 0.09939407111257789 0.0014985326670727977 0.04552528151425273 -0.19223738348474723 0.4745167930331752 -0.24469001312719
-0.06906486142244818 0.17258763827637583 0.20879959579606758 0.07949706514674246 0.1557440460582015 0.1811733254727277 -0.05525149648077798 0.09986679385291114
-0.24516593877575657 -0.06962266388723609 -0.2766427026653228 -0.1525157262302249 -0.16241693257941972 0.29590853381074855 0.05943941360702373 -0.38285214673853646
0.05465497083064212 0.0677772677007806 -0.03697060712182268 0.13252586893413135 -0.3055372928102377 0.1904169447439616 -0.09823379257231252 -0.20927102112394555
-0.02810044072503022 0.14934419266777232 0.04894743805508693 0.1340728188068952 0.16512229988441207 -0.10951951538059496 0.06326317450562802 -0.09081274101480184
0.09432573352728338 0.47730209855504924 0.0915771273442729 0.05532360577173324 -0.01698471498040332 0.08281631272841763 0.001184850431268267 -0.0016960051461962435
0.07471122199086432 0.07860208967477975 0.08205304746583886 0.040724181118602557 -0.34597908496121654 0.022642841875985177 0.014698519495260628 0.03875873636860387
0.09858545124050162 -0.29794957165205394 -0.010173851148787516 0.04693974975421046 0.08045885107057568 0.09649184334962818 -0.14038550043809025 -0.06296488541542711
-0.060368299968338576 -0.056706452597752324 0.27835624282514987 0.021384876430985068 0.2991458312215434 0.0837085138798183 0.23874386798199732 -0.3374165659170459
0.04506817602283161 -0.22751467658967464 -0.16256949489148434 0.03795120445538151 0.40145097205770053 0.016600262706787 0.21810992916294117 -0.459682558607631
0.13753003950396087 -0.24214557173651857 0.04834726281015419 0.042082876671721274 0.0322123018541825 0.059226084031156874 0.17400568659568136 0.16804164095258292
0.14386200745414013 0.15838842314059554 -0.07872662264477479 0.19512056914299114 0.29956652680349527 0.1257541543553826 -0.12176059890143674 -0.283089485925478
0.3969102418979616 0.22235038298760085 0.22986054107224155 0.20956164811580813 -0.4686899871591453 0.023666341904998865 0.24847984048059546 0.30797897976585464
0.21264417450947343 0.28622987182028004 0.19852139247856676 0.061335168706187895 -0.41849541092282994 0.0779631863833017 0.11153049752440888 0.886835568590752
0.2615090417982978 0.15935139490800715 -0.02266332280954041 0.27882914548304366 0.1237453582427782 -0.4087186257567025 0.1832303229345987 0.23722072998681484
-0.20995767605449 0.8976456215189813 -0.025631212230633377 0.032453722005415415 -0.0557948483426915 -0.03385259031582711 0.14504547658872471 0.24840514760896049

transformer.layers.0.linear1.bias f8 [2048]
00000000: 4b8f 9ad8 0633 d6bf 54ce 719d 8702 bd3f
00000010: c35e c952 4dfa c2bf 5e88 eca0 d3bb a6bf
00000020: 1fdb ecd7 4378 d7bf 4613 ad63 4e82 c23f
00000030: 000b 190d 34e4 d2bf 7043 5077 f895 c9bf
00000040: fde2 9d6b 9e9d d3bf 38c1 ef01 ed68 813f
00000050: 2878 5d5f 6d88 dabf c8a1 4b03 c5e3 b9bf
00000060: 7417 6992 35eb c4bf 6f35 a2cc 6a05 b83f
00000070: e8e6 4c14 d3bd 8ebf 2d32 360d 1e9d cabf
00000080: 560d 2241 98bd b03f 04d4 5871 f802 cebf
00000090: 60dd 0858 1b3c c63f 0e19 d05e 26ba d1bf
000000a0: 31a7 1cd2 e690 c0bf 6d41 8dbe aaf7 c0bf
000000b0: 4698 58d7 d25e a9bf 4b31 2411 f225 b8bf
000000c0: 1840 1cde 8f10 d6bf 3239 50a7 767e d7bf
000000d0: 94a4 cdf5 3e77 cbbf a77e 9944 081a d8bf
000000e0: f102 a346 1079 b3bf 7934 b50d e460 c6bf
000000f0: 06b6 8ffa b579 d5bf a3e9 70f1 2d02 cfbf
00000100: 9705 1e24 c14d cabf d73b f6b2 6c26 e0bf
00000110: 094f 9e5e dbd0 d1bf 8461 c8ee dc4b d1bf
00000120: 28f0 b730 74bd b33f 94fe d239 53b5 d7bf
00000130: 2cd1 ad52 15c9 b1bf 51a6 2423 7ca4 c23f
00000140: f6c7 7c54 8ce3 a83f 7306 0d3e 4e34 84bf
00000150: 2042 7f01 9125 cebf 7fa9 7fe5 020a c73f
00000160: e04a 2de3 4dd1 c1bf 4dbe 68d8 5da3 9e3f
00000170: 8aa3 3529 06c1 ab3f 4931 ff51 9be5 c1bf
00000180: e1ff f381 9f9a 603f 4183 d5b3 4a8c ad3f
00000190: 9f5e 4709 01df aebf 9a8f 0ad3 c4ec afbf
000001a0: 461f 628f 9b90 c33f 79c9 47e3 7e10 d2bf
000001b0: 3a1e 8c45 56dc c03f 414e 81af 7b1a cb3f
000001c0: 03b0 0fc1 0463 c3bf 3279 db1d e7d8 c9bf
000001d0: 09ba 3047 e2d9 98bf 1ad0 1fa6 e872 acbf
000001e0: e9e8 f5f6 405e ddbf 1952 d8c4 2a9d 9e3f
000001f0: 6a5b 98a9 a8af 88bf 7960 a443 5336 b23f
00000200: 42fa 8881 04a6 e1bf 71a9 8210 ded3 943f
00000210: 53bc fdc5 bc98 c2bf 2ea4 c627 c56b c8bf
00000220: 5407 e6fc c559 d8bf f287 406a 635a cabf
00000230: 749d d056 12f3 d2bf 3b80 677d 185f b1bf
00000240: bf6c 2aed 327a 91bf a014 d858 991c a6bf
00000250: fd8c fbb2 fe4e c93f 5473 157e f390 dabf
00000260: 037b bebd 4ff9 a2bf dd77 998f f386 babf
00000270: 8786 7e4f 6f5e c9bf 3cfa aa9c ef80 c7bf
00000280: a118 12f5 8417 d0bf ff1a 752a 0e8d c0bf
00000290: 8367 3eb6 9e99 cbbf fcd2 2562 aca5 af3f
000002a0: 3d30 c7ae 5836 c3bf 221d dbd9 73c1 d4bf
000002b0: 2e22 68b0 4fc5 a33f c67e 9d94 838b c3bf
000002c0: f474 f100 7662 b4bf 2d1f 5db0 50e4 d5bf
000002d0: fda3 867a 4bde c2bf aed3 251f 7bc1 903f
000002e0: e01d 9935 4ecb 8dbf 85f8 74e1 7e2d d0bf
000002f0: adf8 755d 2355 9abf ed2e b837 c9f6 903f
00000300: 5d3a beff ae50 c13f 9a96 a86c 79a4 c73f
00000310: fbb3 b5ec 132a bfbf 9916 e231 91e7 b3bf
00000320: f274 4000 1033 c2bf 5088 6e29 4916 c9bf
00000330: 805b a595 75bb d4bf 1d2a fd0b d726 9ebf
00000340: eb39 5d1b c94c d8bf 8829 4200 d5e9 dbbf
00000350: a802 bc1f dc12 c13f 241b aac1 cd5c 67bf
00000360: 5672 fe2d 2dd0 d6bf 0b78 139f 1e9a b2bf
00000370: 18c4 e647 0e51 a3bf 85ad e6a3 1a86 a3bf
00000380: 5f73 6b34 fed6 d3bf 93d2 c1ff c951 d1bf
00000390: bcc7 c27a 5732 cebf 7d90 44c7 76fc d5bf
000003a0: 697e 34f4 6d85 d9bf 6e6a b794 6dc7 89bf
000003b0: adca 4ebb f578 c9bf 1454 a001 9c88 dbbf
000003c0: 7a77 ec3a edd0 b43f a318 f8a9 0f9c dabf
000003d0: d14f fa43 b541 d0bf ff4e 2391 3e46 c8bf
000003e0: d52d 6df6 453f cdbf acf3 c814 f06e ad3f
000003f0: a81d d4ae 55d8 a13f 93f4 357d 6e65 68bf
00000400: 522b 75fa f9eb 9f3f 110e 5c46 7bc5 c5bf
00000410: 4a24 fecd 4229 b1bf fcf5 4bb0 5032 cabf
00000420: 73ef f8f3 d982 d4bf 65af 1f8a ac63 883f
00000430: 58b3 29bf 0154 b43f b171 3c55 3756 d1bf
00000440: f4d1 361a b053 af3f 6574 c4db ccc7 ddbf
00000450: 39b8 afa9 a4ed c9bf 8e8c 83e0 5856 d0bf
00000460: f2c7 d7ea ebf5 d6bf 539d 5858 4b37 c3bf
00000470: 4056 c23b 3140 cebf 5fe4 df33 9058 c4bf
00000480: 899c 0138 c010 c3bf 75fd cfe7 7404 bdbf
00000490: 22b1 39df 92b4 a9bf f7e8 7fe1 49de c1bf
000004a0: 14b4 83d5 67ee d3bf c6be 8d81 30e1 acbf
000004b0: 2f1a bbab a7cc b8bf e5ae 03b2 32e8 a9bf
000004c0: 9e27 e8c2 4d50 c8bf 0f45 35dd cc09 b7bf
000004d0: 4379 9c97 9c93 ccbf c525 0804 6bff a5bf
000004e0: ed32 2067 b88a b93f 60e7 0202 1928 d6bf
000004f0: 434b 0cf2 7d74 c9bf cd9f b6cf b3ac ac3f
00000500: 389e 52fb 0cd5 d7bf 1481 2c01 fb40 c7bf
00000510: b1af 1db2 cf10 d3bf 47e7 ff80 36ba d8bf
00000520: fb72 19e7 a246 d5bf 0728 7e25 e792 e0bf
00000530: dd0b bd22 2c44 e0bf 4a99 c146 8f88 d4bf
00000540: 5b77 55d9 54e8 cebf 8d75 378f 1903 debf
00000550: 9651 5c1a a1af bcbf fd1f b4cf 2649 abbf
00000560: 5b1e e358 c250 d6bf 7b26 ba9f ad97 c5bf
00000570: ce43 8505 007d c0bf 9cb8 af34 60f3 b13f
00000580: 29ac d603 9796 bb3f ea93 76e4 28e4 c9bf
00000590: b7a8 1e93 24f2 9cbf d188 83c6 ce4b d6bf
000005a0: f375 d020 92db d8bf 049e 5d2c cadb d4bf
000005b0: 3c91 1230 4f59 cebf 440a 6a85 cd4c d3bf
000005c0: 8dfc 5391 866a cebf f5df 2d60 e528 d0bf
000005d0: c8d2 4df7 df85 9dbf 570e aaf6 8295 bb3f
000005e0: b996 e1f3 39c4 adbf bb82 472e 8b32 c9bf
000005f0: 3034 3695 22f2 cbbf f51e a534 4d2f d4bf
00000600: 8ef4 9a59 f2d1 ccbf c1ca bce6 b119 bf3f
00000610: 3580 b086 e4fb 893f 2e58 1b27 9a89 c7bf
00000620: 28cd 6d28 86f9 d7bf 0f76 35e3 f217 d6bf
00000630: e648 1c2c 8cf5 b23f 42c2 1458 862e a63f
00000640: 23b4 c331 84bd a83f 2677 180c 0cd6 c5bf
00000650: 79a5 bf22 38a0 d9bf 1cc6 4b2b c96d cabf
00000660: 33c8 5d3c 6fba d6bf c208 7e39 ae96 963f
00000670: ef8e 6c6e b8d6 a4bf e88e 13d1 5215 babf
00000680: ec68 9053 239d c6bf 34ba 5566 19c5 d3bf
00000690: c28d 8c84 30a0 dabf 0196 0845 75e2 ab3f
000006a0: 1720 2c8f 547d b4bf f115 0104 439b cdbf
000006b0: c89e 6035 97b2 d9bf c3c2 52e9 fca7 c1bf
000006c0: c22f ae00 56b5 c1bf d9ea 23df a460 d0bf
000006d0: b80d 9984 2524 b93f 7c4f f4a6 a1dc abbf
000006e0: 05d4 7aa3 a316 c6bf c173 bfc5 6da3 d1bf
000006f0: fffa d952 6c9d ae3f 333b 27ab 2f82 e1bf
00000700: 6e57 8202 7591 a8bf ccaa 4c60 bd64 dabf
00000710: 46e6 d655 eaec d0bf a648 aeaa 65e1 ca3f
00000720: 5baf 9ce6 ddff b13f b17f 6d5b 74de babf
00000730: 4790 4e43 a327 c8bf 2881 acad b3be b3bf
00000740: d504 ab8e c6fd cdbf bf14 f5e7 0f8e d9bf
00000750: aca9 6868 fb0f d9bf 0b69 7c40 c269 d7bf
00000760: 4db1 f20b a5b4 d4bf 1699 7a30 e45a 793f
00000770: 81e6 829b dc56 d0bf a90b 1705 e129 d0bf
00000780: 27bd eaa1 1e90 a8bf 7477 3091 a4c7 c73f
00000790: 9e4f 52aa 8af2 a2bf 7620 9671 cee1 ab3f
000007a0: adad e909 0276 d8bf 5641 d82f 5fbb c8bf
000007b0: 4c3d 99ba e467 c0bf 4318 7a10 cac9 d6bf
000007c0: 8f27 eaf0 18c9 babf 9c3f b586 39dc d9bf
000007d0: ce9b 4471 dfa6 d8bf f5f5 b12a 546b c4bf
000007e0: 625a d943 d1f9 dbbf 1edc 4132 53ea aa3f
000007f0: 2226 025a 0a1a a33f 219d b109 629d a4bf
-0.3468644252081858 0.11331985086308666 -0.14826361219706116 -0.04440175380138166 -0.36671539389083024 0.14460162989612452 -0.29517842558941254 -0.1998892386041251
-0.3064952898926519 0.008500911351774762 -0.4145768576908062 -0.10113173799948705 -0.16342801712942967 0.09383265968263797 -0.015010499054926865 -0.2079198421964902
0.0653929862037804 -0.2344656518413616 0.17370931433263603 -0.2769866872698835 -0.12942204722758668 -0.1325581961086856 -0.04955157164322137 -0.09432900351038602
-0.3447608632131973 -0.36709371890255504 -0.21457659723390476 -0.3765888852994785 -0.07606603359728205 -0.17483187360122424 -0.3355536410225287 -0.24225401200403693
-0.20549787772692404 -0.5046905036305088 -0.27837261428906906 -0.27025531118990664 0.07710958661476808 -0.3704422058762955 -0.06947453754930127 0.14564468112921472
0.048611054719358934 -0.009865390080111091 -0.23552143643475265 0.1799930210684799 -0.13919995873091917 0.029920069058958543 0.054207031755885884 -0.13981954101326213
0.002026855028475425 0.057710966541668636 -0.06029513586298418 -0.062353277932998455 0.15285057545792763 -0.28225681491235083 0.13172415157190348 0.21174570149979569
-0.15145930697269713 -0.2019318481242834 -0.024268661112893528 -0.0555641844547667 -0.4588777934765305 0.029896419777360437 -0.012053792644150813 0.07114143754404435
-0.5515158205015 0.020339460141863556 -0.1452861754182516 -0.19078888361153318 -0.3804793328964611 -0.20588343322839325 -0.2960859153558524 -0.06785729467037609
-0.01706771442932786 -0.0431869431450107 0.19772323359857316 -0.41509711563940255 -0.03705834571086621 -0.10362169509741599 -0.19819442159228037 -0.18362231397436968
-0.2514355080860558 -0.12930466721646636 -0.21562560938474115 0.06181086252300891 -0.1500960210236161 -0.32430740618697673 0.03861474064257596 -0.1526951289806588
-0.07962739489581222 -0.3420602533628763 -0.14740890009605315 0.016363071228130792 -0.014547930727657865 -0.2527768327453333 -0.025715401248355963 0.0165664139040435
0.13527476775603278 0.18470685773461498 -0.1217358067421656 -0.07775218456125756 -0.14218330395025408 -0.19599260829005738 -0.3239416085611353 -0.02944503794359764
-0.379686619494264 -0.43614697480429543 0.13338805722743996 -0.002851869457404803 -0.35645608417124686 -0.07266417869274748 -0.03772778155997275 -0.03813250780816716
-0.30999713057626893 -0.2706170079830283 -0.2359113072794211 -0.3435341783499622 -0.39876889084005157 -0.012587410069433615 -0.19900390287292194 -0.43021297606293385
0.08131296814505432 -0.4157752189497705 -0.25401050222830884 -0.18964368902981474 -0.22849344761412618 0.0574870133754993 0.03485362776887807 -0.0029780538549731366
0.031173616325115568 -0.17008915839697683 -0.0670358422195402 -0.20466049774397266 -0.3204865343611722 0.011908863034441894 0.07940684239447415 -0.2708872158416638
0.06118536300656166 -0.46531983815822847 -0.202564795355501 -0.2552702133672903 -0.35875986036182816 -0.15012494863297351 -0.23633399408270073 -0.15895273716867828
-0.14894869551355708 -0.11334925326808849 -0.05020579314154562 -0.13959620962834382 -0.31142612315199014 -0.05640555936304063 -0.09687278692863609 -0.05059965537097159
-0.1899506761258722 -0.08999328995311749 -0.22325475123302327 -0.04296430992333059 0.09977295415610472 -0.3461973685876867 -0.19886755293608802 0.0560051146561019
-0.37237858336672813 -0.18167054707829122 -0.2979010810292904 -0.3863655338060323 -0.33243629997541263 -0.5179324848443237 -0.5083218267903892 -0.3208349410037
-0.24146519290928378 -0.46893919931411504 -0.11205489057130644 -0.053292477468914946 -0.34867914848698484 -0.16869135188271742 -0.1288146998363388 0.07011987005509684
0.10776656955447152 -0.20227538257054728 -0.028267451743581442 -0.3483769358264342 -0.38840153889199697 -0.32591490109049936 -0.23710050437251506 -0.3015626719353899
-0.23762590499970707 -0.2524960936784731 -0.028831004590261583 0.10775011560513668 -0.058137713452010194 -0.19685497054799392 -0.21832687650422278 -0.31538705960382113
-0.2251570642019129 0.12148582347144112 0.012687478409191136 -0.1838867846442453 -0.37460473964820773 -0.3452117174946076 0.07405925824085421 0.04332370591362579
0.048320895266307916 -0.1705946978626624 -0.4004040088026027 -0.20647539724409192 -0.3551290597453118 0.022059175738385013 -0.04070068691205885 -0.10188787083057671
-0.1766704710033261 -0.30890498155250445 -0.41602719253770826 0.054462113072343506 -0.08003738875788745 -0.23130071349639494 -0.4015253087295432 -0.13793908493746274
-0.13834643395636986 -0.25589868346257344 0.09820780265095308 -0.05441765940682239 -0.1725658939591598 -0.2755999022609182 0.059794793237406545 -0.547141870769201
-0.047984749370853716 -0.4123986664223309 -0.26446016676672846 0.21000357469580883 0.07031046753098506 -0.10495688659784609 -0.18870964800328435 -0.07712862958988309
-0.23430711713994037 -0.3992957844933009 -0.39160046764541323 -0.3658300046678426 -0.32352567831801055 0.006190196385125432 -0.2553016203561143 -0.25255609032699994
-0.04797454573178533 0.18578011597940824 -0.037006696025087424 0.054457141271144247 -0.3822026345066785 -0.19321813427132878 -0.12817057715663294 -0.3560662423045679
-0.10463100320535389 -0.4040664496906119 -0.38518510876968726 -0.1595254143211801 -0.43712264657862054 0.052569007763786355 0.037308047759392574 -0.04026323669750754
