results/Perceptron_Long/models/checkpoints/8/Perceptron_Long-8-1600.pt (torch_old, 12276 bytes, 2 tensors)

out.weight f8 [3, 486]
0.07115843874293828 1.0205622673450057 -5.070274627093487 -0.007687628498137436 2.4847755524367434 -4.890793145355396 0.08869427753424768 0.6624845278866527
-5.6870331681440796 0.09903297059568779 -7.474398734700715 -7.916045622305933 0.012939850205031158 -6.618320651347146 1.8549950843220462 0.05051106677701352
0.14928018102627866 -2.7602904941865534 0.03553027587229841 1.157319423849859 -3.8265669700936615 0.03989811041519458 0.9746292932429198 -5.07223300389763
-0.004486513372456331 3.8236638213533465 -4.862895615153292 0.04568801082601664 -0.31963858271063944 -1.000038053922652 0.09456556742135704 -16.943420727720063
-0.3304251822465344 0.05936527705274045 2.498027080220169 -3.225121167821635 0.019995060625510916 1.2486009723975413 -0.43276852287059486 0.05705950595131052
-2.52938537506794 0.09777134317128089 0.0067596715044002725 -1.5673595121469253 -2.965194511276938 0.07209138596593827 -3.2532573688685837 2.0606619476220174
0.0717573955938671 -1.1078605544742628 -0.007962531670788373 -0.03063847797580535 5.190151999108895 3.4156136225638307 0.01785880880426881 2.6870779182507616
4.02840407580365 0.0399640819217584 1.034134356416513 0.7236384811557741 0.04085325998457241 -1.9849154552303767 -9.057276403047902 0.0694512631961837
-0.35242302092595207 2.2674022956043522 0.0629228001256052 -2.5394741784364423 15.404224664093489 0.0517904652200983 2.4291736070352212 -1.441784050253484
0.03396296533501385 4.314340040615925 -4.154097252091363 0.07037869726067991 -1.351997515449081 -0.40795032378536394 0.04027194317997317 0.2537407432520066
-2.83946865708278 0.04351064107124283 5.927743681751307 5.176174795988756 0.07835212679683622 -1.4541187517164624 5.989273910976268 0.009733072790626077
0.39913951364989547 2.473836895436578 0.048274100150123136 -9.37453074755984 6.067243632391917 0.06552143537471769 -3.7503049601372913 2.332181075926271
0.032609098216435484 3.8156897170411987 -4.482373103843904 0.02409528722903646 -1.4751641948290921 -1.5734518221695974 0.025773062489591204 -0.2155509561767951
1.6746132718189457 0.09488336013189756 1.4479819419819178 -1.0453202000869413 0.0026522876499735152 2.452205965822882 -1.7064686790375758 0.004981613610440525
3.703803731202629 3.5823309516388653 0.09375576872649806 -1.7135427420081906 -7.134295774602165 0.07530623379296203 2.5970786228094447 -0.40244076248339394
0.09096878158238245 -8.274191871781984 -7.147966373043216 0.053870780320338894 -2.832667920919273 -7.4819677729609575 0.0925436756122104 2.0337241439879783
-5.821627518907391 0.074035572490199 -2.1707221876370544 -2.025493527653994 -0.008312149768377566 3.7391539168630197 -3.1813436596113793 -0.00592482314545838
2.15148857095058 -6.1517231336738405 0.08639373257467697 -3.882764478727711 -7.4239008724874065 0.07804147578060432 -0.396827566016475 0.19218605580110962
-0.017521637422685706 8.411104038662398 -3.23245589491613 0.005860296990816306 1.7777270881661786 0.9356487119549457 0.03291075920051407 3.296293639420397
-5.213382917919073 0.03708323872974827 4.409353623415027 -3.173151181653975 0.04976421446822897 -2.1746648602166623 2.3670772233232324 0.04100934763487087
-0.8585381337712429 -5.509763117253363 0.6050019681786883 -6.771893993013679 -5.72337881239308 0.08122880006641853 -0.5270501891232742 -3.64518150541938
0.0967793042050093 -2.486550335155555 -7.193278788626806 0.027846265307012966 2.3220428002789757 1.5609658297089075 0.18976784180522333 -0.5615557898917508
0.17341063821279062 -0.02696635194665019 4.174093134661112 2.9611250667485813 0.009115097555641966 0.08038151890883174 -2.957842111060425 0.07501095927530499
0.6279149021943218 3.688010873669999 0.07621526634694734 1.1187932087865116 -5.786000155937367 0.013781326014095912 -3.757198560749653 2.384586783976469
0.07137191313431789 3.168581108864127 -0.670525688852791 0.03193496469153971 -0.726101978320261 -7.440488748255615 0.007791427841308662 1.7912870686565407
2.02688838366578 0.011112317738843067 -0.9750067878853876 -3.9547098879030798 0.034534202051895474 2.6259118325726063 -4.78499749767861 0.08265291678720038
2.5562993791431383 -4.782342534701339 0.03492793718557529 5.29581670375378 -8.139681017768918 0.0762984547475507 -1.9817392475997981 -7.961067450305604
0.015894512831269154 4.976765950449316 -4.245126554481854 0.0310315187464444 -6.142502482305327 -6.606644616929793 0.03470113026619334 0.1398190995149214
-6.196032856977787 0.056599489353606584 -0.1551711511906704 1.3046387066351812 -0.0010821375630383156 -9.673531317554497 1.811559697118473 0.08750189179791437
4.494175645260157 4.827108510561947 -0.04845031953919979 4.178402218619775 15.356740853401888 0.02973587426841394 -0.5176593436810759 -9.11751346139499
-11.616862898310638 10.420264014630508 26.533865270111967 1.2103369685603362 -1.3966865490207354 -7.865234479223155 -0.07357307648084885 1.0638197744198132
12.024055148534929 0.05180960060886739 0.8628166970690779 -4.68341735414619 0.07210976284636966 -3.3405928215275917 10.10827469527773 0.09583953136152948
00000000: 323f 3c7f 7037 b23f 5c74 9c19 3954 f03f
00000010: a56b 6412 f647 14c0 9096 bb0f 107d 7fbf
00000020: deed 3c01 d2e0 0340 a835 0b14 2c90 13c0
00000030: d318 5a0d abb4 b63f 3022 acc0 1233 e53f
00000040: ccc8 719f 85bf 16c0 4d28 ef89 395a b93f
00000050: a236 2bc8 c8e5 1dc0 b3ca 15dd 07aa 1fc0
00000060: 2ee4 904b 3580 8a3f dee8 7f0c 2979 1ac0
00000070: 9576 5653 0fae fd3f 8b64 c927 96dc a93f
00000080: 2673 b9eb 9c1b c33f 6aed bf2e 1315 06c0
00000090: c15c c739 0631 a23f 0e5f 475f 6184 f23f
000000a0: 770c c424 cf9c 0ec0 2798 cf6e 866d a43f
000000b0: 3f76 86c5 2930 ef3f 89ba d572 f749 14c0
000000c0: 1403 5343 7360 72bf 59e3 bc0e dd96 0e40
000000d0: e0c7 7be8 9a73 13c0 7752 a240 6b64 a73f
000000e0: 150c d262 f574 d4bf 04a7 05e7 2700 f0bf
000000f0: 7104 67f3 7235 b83f 1bed 5305 84f1 30c0
00000100: 6284 e1a9 af25 d5bf 8543 eb26 2065 ae3f
00000110: 418b 309f f5fb 0340 3373 ab53 0ccd 09c0
00000120: 5c57 dfcd 9579 943f 4638 6303 45fa f33f
00000130: 6cea 1dbf 7ab2 dbbf 553d f94f e736 ad3f
00000140: 122e 4766 2e3c 04c0 d819 68f1 8a07 b93f
00000150: 078c b080 07b0 7b3f cfed 5b91 e713 f9bf
00000160: 89b4 61e6 b7b8 07c0 6309 0cc1 9474 b23f
00000170: b517 a6cc ab06 0ac0 932f c954 3c7c 0040
00000180: 1261 5253 b15e b23f 19ed 1ffd cbb9 f1bf
00000190: 2588 f4e8 a84e 80bf 0807 9f73 b15f 9fbf
000001a0: 54c4 a534 b7c2 1440 4d78 253c 2d53 0b40
000001b0: 7d16 0a5f 9449 923f b986 25b5 227f 0540
000001c0: 6099 42f5 151d 1040 63bb bc11 2c76 a43f
000001d0: b4a9 8777 d08b f03f 001e 56e3 0b28 e73f
000001e0: ca2f 23ef b7ea a43f 77a1 58b5 36c2 ffbf
000001f0: b5d8 2b55 531d 22c0 72ef 17d8 8ec7 b13f
00000200: d901 4f49 198e d6bf d8f7 93d0 a323 0240
00000210: fc53 b668 b51b b03f 2f5e 8bd6 d750 04c0
00000220: 4709 0189 f6ce 2e40 6bda baa4 4784 aa3f
00000230: 592e 7492 f26e 0340 ebba fb26 8c11 f7bf
00000240: ae33 c702 9863 a13f 2913 095b e241 1140
00000250: 228b 88ab cb9d 10c0 30d8 119b 5604 b23f
00000260: 6e08 9225 c8a1 f5bf 793f c3ac db1b dabf
00000270: 9f07 cf2d 869e a43f c686 7bd0 493d d03f
00000280: 2980 e157 3bb7 06c0 93a3 dbd8 0647 a63f
00000290: 1ec5 9070 02b6 1740 cf9a 6c2a 67b4 1440
000002a0: d719 2a8e e20e b43f f7f5 3106 1244 f7bf
000002b0: 62b7 5938 04f5 1740 c244 9aea eeee 833f
000002c0: b9ba 6a75 808b d93f 634e 8cff 6aca 0340
000002d0: 92f7 c602 62b7 a83f 5d3b 807e c2bf 22c0
000002e0: 3bf3 c783 db44 1840 6a13 1f46 03c6 b03f
000002f0: ae87 0ee3 9f00 0ec0 9ea0 4b8d 4ea8 0240
00000300: 5885 c8c4 23b2 a03f e800 9354 8886 0e40
00000310: 17eb 0537 f3ed 11c0 6bb6 8b5a 6fac 983f
00000320: 8556 50c5 459a f7bf ebcc 60d1 db2c f9bf
00000330: ddcf 0af2 4064 9a3f 844f b379 2c97 cbbf
00000340: 138f 3e49 37cb fa3f a77a b3a0 464a b83f
00000350: ac2c e01c ef2a f73f a18b 93ac a1b9 f0bf
00000360: 2f48 eb16 40ba 653f 7b1f 5229 1e9e 0340
00000370: d9d5 011a b24d fbbf bd43 9cb8 9967 743f
00000380: 668b c2d9 63a1 0d40 5ee6 4521 9da8 0c40
00000390: b1dc 7dc8 6000 b83f d192 53cb ab6a fbbf
000003a0: 10a1 dfd4 8489 1cc0 3461 53f3 4447 b33f
000003b0: b8db 3028 d1c6 0440 fd61 5ce6 96c1 d9bf
000003c0: da71 dae5 ba49 b73f ea43 84e0 628c 20c0
000003d0: 6e83 347f 8497 1cc0 8328 5f6f f394 ab3f
000003e0: 7636 86cc 4da9 06c0 815f baf5 88ed 1dc0
000003f0: 6dc1 343c f1b0 b73f 981c fc29 1145 0040
00000400: b0cd 6cb9 5849 17c0 d906 96ca fef3 b23f
00000410: 61d2 2498 a35d 01c0 c344 5cf3 3534 00c0
00000420: 7b2c 51db f505 81bf 8518 5d87 c9e9 0d40
00000430: 51f1 fa4d 6473 09c0 732a 4f9a a044 78bf
00000440: a99a cfa3 3f36 0140 00b4 244f 5d9b 18c0
00000450: d8d3 fc4f e61d b63f e7a5 b1d2 e60f 0fc0
00000460: 2e51 0012 13b2 1dc0 d392 35b2 86fa b33f
00000470: 674a 8c72 9f65 d9bf 15dd 347c 8d99 c83f
00000480: 12ac cf2e 31f1 91bf f69d 823a 7cd2 2040
00000490: e36a 13d6 11dc 09c0 c1f8 b97e f700 783f
000004a0: 5731 8ef5 9171 fc3f 3483 4c91 d5f0 ed3f
000004b0: 69cd e7d4 add9 a03f 5e96 1a33 cf5e 0a40
000004c0: 2cf3 370d 81da 14c0 2fe7 2503 93fc a23f
000004d0: 3d44 a498 2da3 1140 99bd 3316 9d62 09c0
000004e0: aee9 4df3 b17a a93f b820 b3b0 b665 01c0
000004f0: f93c ea2e c6ef 0240 f318 d85d 2dff a43f
00000500: d552 ddf6 2479 ebbf a73d b557 ff09 16c0
00000510: abfa 6a16 2d5c e33f f2e3 ff60 6b16 1bc0
00000520: f163 576a bde4 16c0 b051 c71f 69cb b43f
00000530: 8e52 b45b 98dd e0bf 1015 ceeb 5429 0dc0
00000540: 7c7a 7d4a 87c6 b83f bece 8a80 74e4 03c0
00000550: 88a6 f0df eac5 1cc0 e4c8 3c3b bb83 9c3f
00000560: 39e2 f82c 8b93 0240 495f 4c4e b7f9 f83f
00000570: 5866 3109 504a c83f 53dd 0ed9 43f8 e1bf
00000580: 9e82 f3dd 5132 c63f dc2a d03e 119d 9bbf
00000590: 764f 7f78 45b2 1040 6568 c856 62b0 0740
000005a0: 70ed 35af efaa 823f 928e ea1a e293 b43f
000005b0: 96e3 ed1f a9a9 07c0 70d4 ed10 eb33 b33f
000005c0: 920f 33fe e017 e43f e8a3 4dd8 0b81 0d40
000005d0: 7283 6afc d782 b33f 7799 2bb5 93e6 f13f
000005e0: 899b 9139 dd24 17c0 d65c 3544 6239 8c3f
000005f0: f7fb 771e be0e 0ec0 d638 5d3c a213 0340
00000600: 17cd c300 6e45 b23f d65b 6a0d 4159 0940
00000610: fd04 184a f274 e5bf 86ed e599 c759 a03f
00000620: 1749 4e37 3a3c e7bf 2d0e 807b 0fc3 1dc0
00000630: ccf1 477c e7e9 7f3f 710a 1aa1 1ca9 fc3f
00000640: 05e5 c341 1137 0040 1832 2b0a 0ec2 863f
00000650: 6010 6b6f 4133 efbf 43b1 0df0 3ea3 0fc0
00000660: bc0c d088 77ae a13f 53a1 1810 de01 0540
00000670: c8e2 4f62 d623 13c0 0421 85d6 bd28 b53f
00000680: 9aa3 c116 4d73 0440 7c3f c366 1e21 13c0
00000690: 1f8a db17 13e2 a13f 99ee f092 ea2e 1540
000006a0: 0661 3645 8447 20c0 e045 e0a7 4b88 b33f
000006b0: a240 9a36 34b5 ffbf 2e40 d110 22d8 1fc0
000006c0: d542 2fb3 a646 903f cc1a 5455 35e8 1340
000006d0: dd85 9b74 02fb 10c0 e40e a5f8 b9c6 9f3f
000006e0: 9a66 b42b ec91 18c0 1908 183f 346d 1ac0
000006f0: 6c4c 41b7 58c4 a13f b3e9 e29d 97e5 c13f
00000700: e8a4 56d6 bcc8 18c0 dff2 7cb7 9bfa ac3f
00000710: d1c3 d2f5 a5dc c3bf 6080 21d6 ccdf f43f
00000720: e67b 5a5c d0ba 51bf eb74 cb18 d958 23c0
00000730: 1402 5e05 26fc fc3f 4a34 9c23 8666 b63f
00000740: 007d 2b2e 09fa 1140 666d 8c88 f54e 1340
00000750: 34a0 cdf3 7ace a8bf ea05 3a12 afb6 1040
00000760: 3804 b5bc a6b6 2e40 3cd3 00be 1473 9e3f
00000770: 8a87 f253 aa90 e0bf ff0f 73b9 2a3c 22c0
00000780: 4db8 2c74 d53b 27c0 220c 4dd8 2cd7 2440
00000790: e299 f364 ab88 3a40 eab3 114c 8a5d f33f
000007a0: 20ea acfe d358 f6bf 498a fe06 0076 1fc0
000007b0: 3ef2 5965 afd5 b2bf 048a 3fe2 6705 f13f
000007c0: 1184 d8f4 500c 2840 adc2 77b8 c986 aa3f
000007d0: 7b57 0bc3 319c eb3f 944e 46c2 d1bb 12c0
000007e0: d4c0 2511 c975 b23f fcb4 adba 88b9 0ac0
000007f0: 8967 e6c7 6f37 2440 b29a dc84 f088 b83f

out.bias f8 [3]
0.03315205929182122 0.004085966432679464 -0.06964022012435642
00000000: 5427 e884 4ef9 a03f 97ef 3643 72bc 703f
00000010: 2e9c eb03 f1d3 b1bf
