results/Transformer_Long/models/checkpoints/3/Transformer_Long-3-950.pt (torch_old, 229179 bytes, 14 tensors)

transformer.layers.0.self_attn.in_proj_weight f8 [18, 6]
00000000: 785a 4348 6f8e e0bf 1fe5 d3f9 cf80 943f
00000010: c303 241e 2a18 f8bf 6744 2709 966c d43f
00000020: 296b 50ee 749f f6bf e9cf a89a 4251 f1bf
00000030: 9747 f4de be57 71bf a0f8 ac00 6c46 f03f
00000040: 576c e330 2fe2 fabf 87db f742 c73a e13f
00000050: e6df f10e 0ec0 f9bf bddf d0a0 4c35 e5bf
00000060: c290 7823 e65b d1bf c967 1279 028e 0040
00000070: 3fe5 8c52 9cbf b3bf 3ff5 8421 6b40 87bf
00000080: 6e17 0c44 3e15 d6bf 5eb4 b219 b07f e6bf
00000090: bca0 08ef ad1e b3bf 499f ef0b e477 fb3f
000000a0: 369c e70b a9d6 a2bf 63d9 6f85 031f bb3f
000000b0: f901 a088 a167 7abf 54ac 82df 7361 dfbf
000000c0: d4e7 826f 6a41 c13f 52a1 b70b ed85 c4bf
000000d0: 8e19 10c8 9f61 e1bf 9706 2166 a16d dabf
000000e0: cf84 46e4 977e e83f 7ed2 33e0 7ac2 e63f
000000f0: 9ea8 6b72 77e5 d43f fd6a 01bd 0c2b d93f
00000100: c90f 2c88 d8d5 0040 833e 1703 d8fc d5bf
00000110: 806e a762 1f1b e5bf 41e2 3daf 61c1 d7bf
00000120: 865c a0b4 fb71 e63f 4f4c 6058 e246 efbf
00000130: 5dd7 da21 70f5 dc3f 8767 4231 8292 de3f
00000140: 4a11 e594 16e6 e7bf 603c 1ccb fe33 e9bf
00000150: 5436 292a c429 f3bf 42aa 2999 d540 fc3f
00000160: da1e b922 d499 edbf 155a d6e0 6a9b f33f
00000170: 7fbf 457b 06a7 f6bf e5ae 9671 96b2 f1bf
00000180: b74b b3ff 4bd7 d3bf 4953 e466 8017 e0bf
00000190: f091 02a5 d663 e1bf bf83 60a5 a4e9 91bf
000001a0: 0cad 0f61 37ed ca3f d7bd a2ff 8879 cfbf
000001b0: 498d ad60 a60d 73bf 0774 dce6 13f6 b6bf
000001c0: 2ced a7f4 5d14 8f3f 133a 0310 28ce ccbf
000001d0: ece9 bf07 4425 6f3f 7e58 8bac 49fd b4bf
000001e0: dcab 3c56 7be0 e63f 5da8 7706 d477 debf
000001f0: a12c 0e2d 61da a63f 71fd b6f4 0c85 e1bf
00000200: 3390 798d 91a5 87bf 6fb2 3632 6b57 ea3f
00000210: a03a 1595 9c43 dcbf 46ca c842 6da4 de3f
00000220: e59e 247c ffc5 d83f b317 4ec7 1fe9 d2bf
00000230: 45cf 868a 93ec d7bf 5752 1776 0f67 d23f
00000240: 2ffe 8094 2cae be3f 4637 c5c6 4d0e d4bf
00000250: b814 7ea5 34ed 963f 3c99 ed2c 561d ce3f
00000260: edf0 d756 cd25 cfbf 328a 6ee3 d77e e3bf
00000270: 2ede 773d 5c61 d23f 7b3e 662f e110 e0bf
00000280: 75c8 c76a 4787 da3f 099c d881 6185 bf3f
00000290: 18cb e0fd 3ec8 d23f 681a af4f 797d b0bf
000002a0: abf2 95e0 b830 d53f 7cff cfb5 004f d2bf
000002b0: a1a3 6507 a391 a03f fd3f a8c3 5659 d3bf
000002c0: a7a9 e24a 453a 83bf 5db5 3fed 6278 babf
000002d0: 6d85 3725 2779 d2bf 30f3 6d6a 76e6 c53f
000002e0: 33e6 d6a2 740b c03f 6d37 f7f7 ecfa c5bf
000002f0: f1d2 979a b688 89bf 3eb5 d590 4275 d53f
00000300: 82ec 6710 c7ad dc3f 907f c5b8 94cb a93f
00000310: 4418 b403 a897 bd3f f446 4034 296c dabf
00000320: 6917 5a4f 6290 dabf a5a0 f578 cd15 a53f
00000330: 7775 cf6d 4eec b2bf 2b19 6302 8bd4 98bf
00000340: ffc1 d754 1155 a23f c909 fe25 2a2f 963f
00000350: ded8 5696 f62d b53f f8f1 91f8 05f3 ca3f
-0.5173870479000717 0.02002263033225404 -1.5058995416040808 0.31912756818662164 -1.4139298733850387 -1.0823389092811289 -0.0042340713400949226 1.017192843093234
-1.6802207860662486 0.5384250934574631 -1.6093884071142326 -0.6627562657295055 -0.27123406852684806 2.069340654253186 -0.07714249625577894 -0.01135333725016585
-0.3450465836070781 -0.7030869008937193 -0.07468688092979198 1.716770216584296 -0.036793978408063685 0.10594198234307366 -0.006446486464483752 -0.490323036453167
0.13480883068933613 -0.160337095948544 -0.5431670100668258 -0.4129413125375349 0.7654532869820744 0.7112402323678706 0.3265055291545965 0.3932525487668242
2.104416908116012 -0.3435573606666155 -0.6595608641468544 -0.3711780749650054 0.7014139678821187 -0.9774028516861878 0.4524803476918942 0.4776921731041672
-0.7468369396306482 -0.7875970808980917 -1.1976968428529249 1.7658287032051168 -0.9250279119669031 1.2254437239367963 -1.4157776656465726 -1.1061005055479936
-0.3100156781267133 -0.5028688439948407 -0.5434373114445048 -0.017492840379535354 0.21036426772420957 -0.24589645845615735 -0.004651689446151971 -0.08969234834917482
0.015175565747077423 -0.22504139692178224 0.0038019493786098837 -0.08198986494548596 0.7149025615993838 -0.47606373435576704 0.04463485407821933 -0.5474915294252424
-0.011546265726060856 0.8231712322936583 -0.44162668761138413 0.47878581544788223 0.3870848381361454 -0.29547876799949363 -0.37381447341907786 0.28754030735334396
0.11984518647749874 -0.3133730355374279 0.02238924274526674 0.2352702826858123 -0.24334112873464822 -0.6092338029887456 0.28719240191228124 -0.5020605016488412
0.41450677325986557 0.12312898082801395 0.29347204964430906 -0.06441457934770656 0.33109876568031876 -0.28607194666982827 0.03236112084670784 -0.30232781512404455
-0.009388486240216333 -0.10339945118149303 -0.28864458689175515 0.17109565922501124 0.12534959746499083 -0.17172014339160616 -0.01246779116898142 0.33528198379538654
0.4481065426077252 0.05038132434378817 0.11559534159104695 -0.412851620699356 -0.4150625014229861 0.04118196584278281 -0.07391824894826536 -0.024248287220666114
0.03580526505163916 0.021664293831699575 0.0827325932540108 0.21054148328029476

transformer.layers.0.self_attn.in_proj_bias f8 [18]
00000000: a1c5 74ef 6fe3 d5bf a715 8f68 3563 51bf
00000010: 3957 c9e1 4a74 c83f f4b7 cc2f fb26 c9bf
00000020: 31a0 a7dd 0c30 97bf 10f5 a95d bd64 bf3f
00000030: 085e d5dc 7c1f 763d 3081 edc2 06c3 87bd
00000040: 08a3 f5a2 3d7e 92bd c7fb b441 7a6a 8fbd
00000050: f899 2548 4ad1 553d 6b02 2802 a0f4 43bd
00000060: fe3d 17d6 f79d bfbf d5a6 3f7f eb01 bcbf
00000070: 4076 b57d 18ef 933f 6142 c142 002f ca3f
00000080: 51b3 142c 71b2 ab3f 6d07 557d 0af6 b23f
-0.3420066679419396 -0.0010612508360606594 0.19104896568995303 -0.19650211175888865 -0.02264423468469107 0.12263091599193765 1.2575468987588493e-12 -2.7014063927406163e-12
-4.204850483637767e-12 -3.5715775071259988e-12 3.100458869295127e-13 -1.4179282839261528e-13 -0.12350415207696838 -0.10940429550796733 0.019466765091570304 0.20455935725705657
0.05409578002067995 0.07406678733698664

transformer.layers.0.self_attn.out_proj.weight f8 [6, 6]
00000000: 2959 a2f3 ee02 9b3f da3f f900 5649 b73f
00000010: 83f3 80b7 08ba c03f 63db 1dce eaf5 d23f
00000020: ae2e fd05 a2d7 46bf 8f64 a9e4 2e21 a4bf
00000030: 9a2d 6dab 3b18 ca3f e1ef df1b d8c8 ac3f
00000040: 8562 0861 9299 ba3f b7f8 e488 1090 c4bf
00000050: e33b 820b 75f4 c0bf afdb 465d b0f9 9abf
00000060: 4b56 7f29 87ef d5bf 33c5 187b e77b d03f
00000070: 2dc8 6491 3887 6d3f b3c3 9791 7812 8fbf
00000080: 21f5 9ee6 596e c6bf 716a 2ce5 2e51 a0bf
00000090: c71c e9c6 6e63 d03f 50ec 1be2 f400 9fbf
000000a0: 22b8 2917 73a9 acbf 345b f4e4 c752 d73f
000000b0: ee85 a9f7 65c0 94bf 7875 9d69 e938 88bf
000000c0: f5ec 4d44 452f a8bf db1b b652 84e3 d63f
000000d0: 5faa 90aa fb4f c8bf 2900 7f0d fb64 d23f
000000e0: 21e2 519c 81ca c2bf 9210 fc96 688f a1bf
000000f0: 6a71 f867 9fd0 d9bf 78dd ed38 fa9c ac3f
00000100: 6daf 69bd 3227 d5bf cd5c 70e0 d620 b2bf
00000110: be99 67ec b01e ddbf 36ad 302b 9c50 ae3f
0.026378377552270713 0.09096276782770421 0.13067730865614288 0.2962595951898292 -0.0006970921640258776 -0.03931566754608539 0.2038645350497575 0.0562198194529342
0.10390581959689811 -0.1606465023450647 -0.13246024190854574 -0.026343112652934483 -0.3427446274994039 0.257562513553313 0.003604517444864028 -0.015171949332371292
-0.17524265061175817 -0.031869378543167744 0.25606889176237896 -0.030277086544611642 -0.055980297639379964 0.3644275413402511 -0.02026519130811793 -0.011827300582519781
-0.04723564585489185 0.3576365287521505 -0.18994088962911612 0.28741337125757355 -0.14680500157170775 -0.03429724543642111 -0.4033583178841328 0.055885142754898476
-0.3305174684271524 -0.07081358890023921 -0.4549982365264461 0.059208755752786876

transformer.layers.0.self_attn.out_proj.bias f8 [6]
00000000: a1cb 3b64 19a4 77bf bdd5 7cd8 2deb 6abf
00000010: f3f4 a7b2 716b 7bbf 2d71 40b7 eac1 a13f
00000020: b207 5e4d db44 a23f 34c2 6d04 7ddd a53f
-0.005771731553738586 -0.003285970251364316 -0.006694263584447346 0.034682593221278736 0.03568158454346761 0.042705446997278435

transformer.layers.0.linear1.weight f8 [2048, 6]
00000000: 4dc1 393f fee6 c43f 3831 8763 2e07 c33f
00000010: 20b8 cd47 e60f c83f aceb 27dc 9977 95bf
00000020: 76b4 75dd 5f41 c23f 1ac4 9301 345d ce3f
00000030: de38 7099 0005 c2bf 05c3 5195 84d6 c73f
00000040: 85c9 c8f8 1223 d03f 7ce7 6e50 a470 d3bf
00000050: 19b6 dece 482b d0bf 06e7 6734 5d0c a5bf
00000060: a166 d15a 5032 c33f e473 84c6 d225 d03f
00000070: cdf3 9ea1 7652 d13f a88f 6b1c ad1c b9bf
00000080: 8429 5345 935f bd3f 475f 58b0 637c db3f
00000090: e11b 3bb7 55af b6bf 202a b25b 34de b43f
000000a0: 03b0 edfb f613 b83f a371 9887 90ba a73f
000000b0: 4b41 c020 90cd b2bf 6ea7 a731 45aa cbbf
000000c0: 9e07 9e60 d2fb 91bf 64a7 073e d3ac d33f
000000d0: 54b4 ced2 f4df c93f ff4c c7a0 bb0e d1bf
000000e0: 1559 a829 c1eb c73f b744 17ac c411 d9bf
000000f0: bef8 c303 e768 9d3f bfc1 f397 e65e d23f
00000100: 78a3 5b72 b1e4 d7bf eda8 3115 bf9f d3bf
00000110: 48eb a969 f085 c0bf b470 0a3a f862 d13f
00000120: 8ba3 aaf9 5d97 ac3f 5612 79f5 005e c63f
00000130: 4277 cfba cf16 c33f cdf4 776a d952 d8bf
00000140: d22f b873 837d bbbf 8f6a 78b4 dc27 c33f
00000150: 3a00 642e 43ef b8bf 5e67 7b5e 7b35 d03f
00000160: 76ed bd19 6de4 da3f 3e87 d359 5635 ddbf
00000170: 939e 0483 5ea5 663f be3b 9cc1 c2a5 cebf
00000180: 21ec 09b2 1ec2 c43f aaf2 3ac7 0113 c43f
00000190: 308d 69b1 b690 bb3f 25d8 5034 4d9b cabf
000001a0: c2f0 db75 b38a c2bf a9c6 4436 0013 d4bf
000001b0: fd77 6a77 4e13 a33f 78f9 f0ec ccd5 c73f
000001c0: 529f d3f8 12cd c93f f7b5 29be d263 8ebf
000001d0: 0e47 719a 6468 c23f 7af3 cd2a 60a9 d63f
000001e0: 1e7f 20bf a5f4 b7bf 194f 55d6 1abf b33f
000001f0: 7228 1052 741c b83f 4677 d581 0e39 c03f
00000200: 767d 54e7 c561 9c3f d3b6 51d9 5388 e0bf
00000210: bcd7 042c a35c ccbf 8879 7ac5 ef8f afbf
00000220: 63ab f890 8cac d43f 630b b97b bdcf 8e3f
00000230: 4735 f17b 7958 753f 7b1d 7382 6c70 b9bf
00000240: 95c5 d291 80d3 d33f 67a6 a459 e013 d0bf
00000250: 36cd a28c 29b3 b83f 1400 c5f7 66a3 d0bf
00000260: 95c3 0cfb 4ef6 cabf 2ef6 9a86 cb6f bb3f
00000270: d0fe c9a7 c84e d53f d91c ed66 a860 d63f
00000280: 292f 159b 2845 df3f 8f18 f5ea f939 c8bf
00000290: e4e0 290e 9a5a b4bf 27e3 fea4 2ac8 b93f
000002a0: 356f 3ac4 44a8 ac3f 9464 ca58 14a3 c13f
000002b0: 6fd4 f89f 60fe cc3f be40 87e1 300c c23f
000002c0: aaba 029b be27 d43f 5a16 c943 7d8c c83f
000002d0: 0222 0658 3a14 aabf 8e8f fd93 c3c0 9ebf
000002e0: 2ca3 beb6 fa2f bbbf fe9f 1af7 1f05 d3bf
000002f0: 9a82 975c 23ff e23f f566 e052 70fa bdbf
00000300: 83bf 7e32 0cc9 d13f 4e7e 0b0c eef2 94bf
00000310: d866 b56a 4eca a53f 47df 8233 0e12 d3bf
00000320: 5aa0 2674 015b d53f 2e83 19dc 9308 e03f
00000330: 139e bd1a bc34 d53f d89c dfcf 3d0d cc3f
00000340: e30e cb71 5510 cc3f d6fa 9b30 1e83 d03f
00000350: bcbd 3977 24d2 bfbf 2e11 d10e 30ef dabf
00000360: 20d2 ca4d 7549 e4bf 4e90 eebd 5087 d33f
00000370: d309 5982 292a c2bf cefd 3632 a1fa c2bf
00000380: 79d6 5f60 f169 9ebf b51c ce14 0824 df3f
00000390: 2be6 fc23 a03a dfbf 0000 1fe3 5bf6 c03f
000003a0: d7bb 851a 0abd cb3f 701c a81a 602e db3f
000003b0: 168d 2950 3e91 c13f 6504 32da ca3b 9cbf
000003c0: 3025 50f4 28d2 d2bf 594b 3708 0866 d2bf
000003d0: cba1 e457 8d52 e13f a64b 2cee 27dd 733f
000003e0: b8fc eb25 356c b0bf 8949 199e b022 cabf
000003f0: 6b42 a9d1 1ec2 cebf e546 f488 a368 d7bf
00000400: cd70 6feb ee73 e13f 0da8 d5cc ccde db3f
00000410: d692 d696 d1b1 c6bf 948a 53ff 5d5a c83f
00000420: cc64 1857 0f0b d8bf 03d3 4f6f e95b b5bf
00000430: c65b 527e 0f4a d53f 7621 5eb6 33dd bbbf
00000440: 7379 5f2f a3ff c7bf 5c56 cbee c84d abbf
00000450: 1c9b fb46 e6ae c83f 2b03 a0a4 a53f cd3f
00000460: dacb 588d 8c33 de3f 64bd 4189 b667 b63f
00000470: f4d6 2bb6 eeed a83f 4b2b 636c 487f a4bf
00000480: 393d 5737 2871 d0bf 3301 47ed 33ff a83f
00000490: 9da3 c165 f7b8 b93f ef4c 8446 95b3 9cbf
000004a0: 839d 1ff9 b132 ce3f b142 bcfe 3bf4 ccbf
000004b0: eb97 e585 8eb0 cd3f 639e ab43 7370 c73f
000004c0: ec45 f340 bcad cf3f 2a4f f38f e4e9 c0bf
000004d0: 0141 df51 3b8c cbbf 1af4 dc5b 2272 d2bf
000004e0: 9eee b485 ece9 d13f 0acc e948 e54b 8abf
000004f0: 6209 f546 7a9d d23f 788c 2166 f56b c0bf
00000500: 09a9 2b3e 7d33 a7bf 322c c049 2d92 653f
00000510: 4d34 ee91 b99b c3bf c02b 43a2 57f1 d2bf
00000520: 4305 7be9 a632 c33f 5a04 7412 7e7f c53f
00000530: be7e 5000 3608 d43f 1584 f366 6a80 bb3f
00000540: 6d0d 78ca 89ca c1bf 2d2a 117e 231b b83f
00000550: 517d 51d1 b9c8 d93f f424 0cc9 e4b3 ae3f
00000560: dc37 e78c ec21 87bf 7a7c 9a10 51ae b9bf
00000570: 1854 3ee7 bff2 b6bf a040 fa91 dbcf cabf
00000580: 92f9 efbd 204e c7bf f138 6ea3 84d0 e4bf
00000590: cea0 a73e 9e36 dc3f e22b a8db e3ca b83f
000005a0: 5b52 e405 9da0 d4bf 5e99 06fc 7e60 b7bf
000005b0: ed1c ae3a 1c71 cb3f 7fa1 2f3c 9606 b7bf
000005c0: 22d0 fdf9 98be cbbf 4cf8 44c0 4f95 c7bf
000005d0: b720 d4fc f158 c2bf b1f8 42c1 7d35 8e3f
000005e0: cd06 7227 0bf9 c03f c6a1 342f aa77 a63f
000005f0: 245c 1787 4dfc cb3f e41e 7f3b a95a d03f
00000600: 2575 6358 d2f3 d0bf 3693 6028 1cd4 e53f
00000610: 2c8d 703d a7f5 d9bf 9102 0ebe 5fd0 b03f
00000620: 1c59 b015 0328 df3f 11ae c85c 4b4e d2bf
00000630: a4ab 7cce fbb7 a1bf 4679 6c14 99d0 c43f
00000640: 305f eead 09a3 d53f f066 1f9a 7c19 b33f
00000650: 2ec7 687d 47c0 d43f 8fca 8287 165b d93f
00000660: f122 e978 5e34 a33f 2f94 2f78 9705 c43f
00000670: ae0f ed88 1b2d bc3f 0d71 d6fa 2728 b1bf
00000680: 73f6 b3e0 8fbd d33f d3d0 40c4 f6ae c73f
00000690: b54e b2db 62d4 dc3f 0f5e 219b 7cc7 b5bf
000006a0: 1a2d 3589 be5a d0bf c9f1 0c62 4a4d dcbf
000006b0: 8e99 a020 6056 be3f 69bb 8660 c711 b03f
000006c0: 3915 29f4 0b52 b8bf 5ce9 da59 3624 d23f
000006d0: 53ef 318a 092d c03f d12c 1fbb 9853 db3f
000006e0: eb4c 86c5 d023 c63f dca9 f630 c473 d7bf
000006f0: dbe3 0e34 0f21 d6bf 443c f47c cfb5 b03f
00000700: 5cdd 393c 4b31 c43f 1900 ebff be3a d0bf
00000710: 32a8 9e01 9cc8 dc3f a0b8 ffed bdab c53f
00000720: d119 9093 d48e a7bf 5f5e 82bc f81b a6bf
00000730: 9838 2359 57a8 b53f be2a 3aef 57c8 ba3f
00000740: 2532 ef1c 8646 b53f 8e02 2be2 a199 b9bf
00000750: e64a 8af6 eea7 c0bf 8cb7 83be 24ee d3bf
00000760: e4bb 3845 aafa 59bf 2944 f4f9 1895 c4bf
00000770: 0a69 7d76 2eba d83f e0ff a25a b48b d43f
00000780: 13f9 a46a 79cf d03f 6366 fe77 bcc8 d6bf
00000790: dc5c ab9d 8f1b d83f 32f6 08b0 1b49 c0bf
000007a0: 4bf9 71d7 8791 d4bf c3c7 6412 1f98 c7bf
000007b0: afab bd3c dc15 c03f ee70 3068 45f6 c33f
000007c0: 3007 ef45 78ed cdbf c8ca 2dc0 19ec babf
000007d0: e7b5 c44c aa55 923f 8afa b649 4e5f c0bf
000007e0: 4828 91f8 7f17 b0bf 998b d2f5 b6f7 5a3f
000007f0: d24f a6bb 6ecd dd3f 2b21 b9a5 329f b93f
0.16329935157001288 0.14865665302057507 0.1879852152446242 -0.020964054167034327 0.14262007058588083 0.23721933438312776 -0.14077765934093284 0.18623406687722635
0.25214075370163186 -0.3037501130562459 -0.25264187051911474 -0.04110995545120315 0.14997295793982793 0.2523085535665912 0.27065816672603377 -0.09809381431438047
0.11473961298466945 0.4294671270486003 -0.08861289714251043 0.08151557196303161 0.09405463839146937 0.04634524970262823 -0.0734491424520957 -0.21613373684459297
-0.017562186381389837 0.30742341096503467 0.20214710515338885 -0.2665242261984559 0.18688215765059427 -0.39170948796988675 0.028720483403042556 0.2870422824771843
-0.3733333222176536 -0.306625147530794 -0.12908749732363334 0.2716656271748079 0.0558423392552135 0.1747437666509934 0.14913365003206464 -0.38005671880075625
-0.10738393378431901 0.14965399562864376 -0.09740085489829733 0.25326427675974184 0.42019202722413895 -0.4563804509362973 0.002764401048029283 -0.23943361714961314
0.16217406934069437 0.15683004596748634 0.10767690497737159 -0.2078644280861123 -0.14485781912651957 -0.3136597185103747 0.03725667197907965 0.1862121731700872
0.20157086515177497 -0.014838835171043547 0.143810820971844 0.35408786945463755 -0.09357677379784632 0.07713477833504746 0.09418417933935233 0.126741231341777
0.027716724628701304 -0.516641544772677 -0.22157706879960226 -0.06164502416253287 0.32303156049117926 0.015044670427533274 0.005211329028566531 -0.09937170204931604
0.3097840713554317 -0.25121315721717113 0.0964837997769806 -0.2599732799171772 -0.21064173944753564 0.10717460666906994 0.3329335821690451 0.3496495251788026
0.48859610695648087 -0.18926929447679128 -0.07950747342863768 0.10071054962362479 0.05597128768314833 0.1377892907665098 0.22651298342831036 0.14099703800321167
0.314925814988707 0.19178739366377578 -0.0509355766726607 -0.030032211215611997 -0.10620085679569219 -0.29718779689073915 0.5936447914537724 -0.11710264228204521
0.2778959744564348 -0.020457953915750608 0.04255909969897481 -0.29797701864616893 0.3336795458112697 0.501047067529816 0.3313436757220824 0.21915409708092315
0.2192484670286979 0.25800280329705794 -0.12430026922969878 -0.42084886023464463 -0.6339670676594018 0.3051339964679344 -0.1419116865600488 -0.14827361060996086
-0.02970101500246478 0.4865741923499159 -0.4879532195514879 0.1325182780256 0.21670652670897425 0.42470553019706525 0.13724497713256117 -0.027571839873875698
-0.29407714708993904 -0.287477500937873 0.5413271633779514 0.004849582651121153 -0.064151117094286 -0.20418365211169157 -0.2402990840660267 -0.365761646026938
0.5454020117135997 0.43547363284471957 -0.17730159630914127 0.19025778739076726 -0.3756750441112444 -0.08343371360372136 0.33264529548744937 -0.10884402468048457
-0.18748893559581922 -0.0533278266426975 0.19283750978430525 0.2285048536141628 0.4718963032093463 0.08752003527637481 0.048690280664159064 -0.04003359149063231
-0.25690656093952985 0.04882204314663099 0.10047861322676828 -0.028028805188182678 0.2359220949576689 -0.22620344103099435 0.23195058381969544 0.18311920932977718
0.24748948260689418 -0.13213784245328358 -0.21521703241024429 -0.288216199598368 0.27990258271504753 -0.01284007195247307 0.29086167268191876 -0.128294634693791
-0.04531470664899657 0.0026331791432361524 -0.15318984628211965 -0.29598036619125523 0.14998327637116846 0.16795326138529526 0.3130011561461109 0.1074282170625483
-0.13899347673587262 0.09416410281952699 0.402876333630009 0.05996622995560044 -0.011295173692726417 -0.10031611113889652 -0.08964156528084322 -0.20946831348237982
-0.1820717742375107 -0.6504538719180158 0.4408336269248253 0.09684585678785099 -0.32230306220416133 -0.09131616261456574 0.21438935151329677 -0.08994425744424993
-0.21675407606710545 -0.1842441262069222 -0.14333939404628435 0.014750463924766729 0.13260020662351338 0.043881719839479014 0.21863717170956065 0.25553351221286236
-0.2648816931885725 0.6821423328989116 -0.4056184864040968 0.065679534816818 0.48681714170506196 -0.2860287099926789 -0.034606808620387924 0.16261590478183957
0.338076038221959 0.07460764658699381 0.32423579451561835 0.3961845706318536 0.037508919009786264 0.15642064445924705 0.11006328671379492 -0.06701898454634066
0.3084449476590187 0.1850269754664909 0.4504630227540745 -0.0850751761184869 -0.2555385913771758 -0.44221744132280755 0.11850548550191872 0.0627712832126527
-0.09500193320225926 0.28346022391237624 0.1263744282513196 0.4269773318635091 0.17296800274616628 -0.3664408186110941 -0.3457677849178801 0.06527420807491163
0.1577543300697738 -0.25358557693471223 0.44974422605685327 0.16930364724197933 -0.04601158429436548 -0.043182156573661194 0.08459993292055612 0.10461949911602184
0.08310735899358031 -0.10000049373321415 -0.1301249221620175 -0.3114101276868204 -0.0015856421276898508 -0.16080009655755248 0.3863636166694425 0.32102688647500877
0.2626632253121823 -0.3560019656957591 0.3766821899166197 -0.12723108382663068 -0.3213824848134165 -0.18432987592819758 0.1256671234690123 0.1559530981766168
-0.23380950369578946 -0.10516510908000065 0.01790491193349011 -0.1279085025725702 -0.06285857981234344 0.0016459738465435024 0.4656636078373114 0.10008541627860683

transformer.layers.0.linear1.bias f8 [2048]
00000000: e8b7 6c92 6ef9 b7bf 09c2 fa5d f7f4 d5bf
00000010: f613 50b4 77c1 d53f fe4f 9e66 bfad d2bf
00000020: ce8b 8eb6 200e be3f 5d0b 0245 5e3c c3bf
00000030: f41a f1c8 2f2f bc3f b7eb 5899 ad0a d53f
00000040: 769a 627a 7106 b0bf 0405 cf45 a762 bdbf
00000050: 17e5 64af 3f81 d0bf a72d 5c39 5c8b b13f
00000060: 24b6 1327 4079 cebf f295 8f03 dc02 bf3f
00000070: bf23 8a0b 14e1 c5bf c94e 5cc2 014c debf
00000080: 67e9 608d 40fa a83f 0625 53bc 5201 dabf
00000090: 470d 515b ecab c8bf c57e 0522 6257 b3bf
000000a0: 1eee 5e9c cb66 c93f ffc0 6da6 b359 c1bf
000000b0: a288 2fb3 3b21 b2bf c7c6 47f6 409e b33f
000000c0: 2e20 de14 a65d c6bf 663a 3fa1 9ccd abbf
000000d0: 7b5c 58b9 09d3 bebf 51fb 411e 8f7d d4bf
000000e0: a7c3 275f 3af9 c1bf 10f6 b4a1 7395 b23f
000000f0: 4b0d 6a02 3fe7 9ebf e3fc f274 b11d b6bf
00000100: 14b6 7e6e b454 b5bf 1068 ac54 fd83 a6bf
00000110: ae81 397a d37e c0bf 8a7f a11a eeb3 babf
00000120: dced a778 15af d4bf bf02 3756 152d d7bf
00000130: 3738 26d0 0322 ccbf 5224 49ad 9ff0 c0bf
00000140: b53e 4dd5 1718 c7bf 91c9 90f1 391f cebf
00000150: 8ba2 e8d0 b49b cb3f 3856 f426 2e91 c9bf
00000160: 2eb7 f8b1 50bc d4bf fed1 8762 b8f3 d1bf
00000170: f9b4 7083 1aef bcbf 71f2 9502 b654 c2bf
00000180: 0082 8c5b 6248 ddbf 9aa0 c6f8 0e10 d33f
00000190: 0592 a050 2da4 c73f b692 6d9c b391 ddbf
000001a0: 032a 828b 03ac b33f 781b 4324 0727 b93f
000001b0: 377a b521 44d8 c5bf 476f 173c 85a5 c6bf
000001c0: df9b 921f 258a d4bf 46a6 ac6b 36cd e3bf
000001d0: a562 07f1 e135 d13f 28b9 68b4 c3a7 703f
000001e0: a425 23f7 1bfa 9d3f effb e2a3 226a 8e3f
000001f0: a2a5 4944 710b dbbf 43d7 11fa 6022 d1bf
00000200: 2dbe 62bb fc4f bd3f 6363 7a73 7e5f dfbf
00000210: bc2a fafb 63b7 ae3f 26fc a8f9 17f6 b9bf
00000220: e6f4 45bc a632 d9bf bf7a ca74 f56e c7bf
00000230: fa5c 1bbe 2eb8 c6bf c521 3a98 3bf6 d43f
00000240: 4cc9 be05 4587 d9bf 770f 40e3 e46f cb3f
00000250: 7ed8 7e16 6473 d3bf 2b92 bbc8 b663 bebf
00000260: c3a3 adc0 7805 af3f 4805 10ae efc8 cebf
00000270: 1c2b 17ac ff26 a83f 8430 162f 4d53 c1bf
00000280: 05f2 9cea be81 c33f 5a0b 2e7e 64c0 c73f
00000290: 0de3 5c36 12ae c9bf d1d0 36e4 d696 df3f
000002a0: 868b d12f bc9d ccbf 57e4 6641 75b9 c53f
000002b0: a065 2417 cf14 d3bf 3fac b6ca 7ee7 c2bf
000002c0: d1f8 ea06 a180 6abf 402e 5fc4 783e 903f
000002d0: 4383 e0d4 9529 bfbf bb7d bd7e 2cf9 b13f
000002e0: c7f5 b216 d8d2 bebf c046 5405 8730 ac3f
000002f0: eaf7 227c 5a6f a2bf 0978 3fa4 0bbb bf3f
00000300: d7b9 968c 9d11 d1bf 5784 556c 43ba b13f
00000310: f729 9dd3 fecf c5bf 9927 43db 9aa9 a1bf
00000320: 8117 0067 b1ee ba3f 57c2 b1a6 72c7 d2bf
00000330: 196b 1ae4 1de1 93bf cb8a ed32 b33f c6bf
00000340: 45f0 83cc f68a d1bf 6e01 0498 05d9 aebf
00000350: 9c6c 3d79 8c14 d73f f0a5 4e28 624d d03f
00000360: 938a 7e81 6004 c0bf bd6b c228 cb5c 933f
00000370: dcc9 0344 4071 c23f a43c 8d68 a26c d2bf
00000380: e206 7fae ae87 d3bf 462c 8339 c8fc bdbf
00000390: fda5 29d7 0ade d2bf 58b3 6b8c 5cd6 37bf
000003a0: 5c13 452d c582 cfbf 9e92 1b7e 61b2 acbf
000003b0: e15b 5b8d ce62 59bf 306d 8337 2665 8a3f
000003c0: 7c0d 0697 6c4e cebf 873c 2c9a dd2d cdbf
000003d0: 6e1c c332 14c8 c4bf efab ac44 a38d cdbf
000003e0: dd41 3a68 6141 c5bf d3a3 4c88 75ee d3bf
000003f0: 486a e0db 78fe d6bf 712b a4af 7c33 a3bf
00000400: 50fa 0892 7448 cd3f 2d68 364d e118 dcbf
00000410: 4892 d258 3154 c0bf aa31 368e 1911 dabf
00000420: 7dff dc04 da5e c63f e6c2 04ad 8e92 ca3f
00000430: 2413 d6fb 2f57 b13f 9b6e 08c5 49c9 ca3f
00000440: 7cb8 187e 3565 bdbf 026e 7699 c04c d2bf
00000450: 165a 543d cd02 c9bf 20c4 bdb5 0407 c33f
00000460: cad4 921a 31c8 7dbf 38f1 4af9 99e6 cabf
00000470: 495e c170 ff39 903f 25e4 31a1 d26f dabf
00000480: 2d74 8256 9e86 c83f b316 d543 ee82 d2bf
00000490: 8006 eef3 7315 a53f 5cf2 d776 9c3b debf
000004a0: 90db 2d6d 3788 d3bf 0d5c 0ea7 5edb c1bf
000004b0: 0071 dcba 5db0 c0bf e90c 338c 3496 bcbf
000004c0: 912c 97e1 9eea c0bf 20ac c0bd 1918 d1bf
000004d0: d17d 893e c1e9 da3f f501 172d 5186 ac3f
000004e0: fd8a 7153 a2b5 b6bf cdad 397b e2a4 d4bf
000004f0: c680 bef1 eb41 d03f 256b 9835 f08f d8bf
00000500: 96ec a9bb 56ad b33f 71ab d71a 4323 b9bf
00000510: da02 ced4 a4df bdbf 7e08 95e2 1b76 e4bf
00000520: fff0 35a1 c005 d4bf e790 58c8 838a b1bf
00000530: dedb 983b 1d64 c33f a566 1914 84a2 cb3f
00000540: ca8d 8233 bb46 cdbf a704 5bcc dc79 ddbf
00000550: 1ab0 7441 5f77 b43f 1edd 43bc 0689 cebf
00000560: fb7d 5444 fe53 bebf 76e2 90e1 924f d33f
00000570: df07 24f2 dc84 a53f 7e59 4486 659f 6abf
00000580: 389b 68f0 d697 c63f b673 c2e8 5c7d c0bf
00000590: 50ab 0efc a473 c1bf 7d6e 4c49 daf7 d4bf
000005a0: 4bb3 67ae 939d ac3f 3b32 8090 cbe2 c63f
000005b0: cdf3 357b c14b ca3f b187 b966 d54a d6bf
000005c0: 1a01 de45 2428 bc3f 10a5 5086 b302 bcbf
000005d0: 4005 91f3 b384 923f ac1b ec87 6e66 ddbf
000005e0: 3b5e c363 5853 c53f b677 12f6 a5fb cfbf
000005f0: e488 b87c da9c c4bf b706 0f32 eab2 c5bf
00000600: 9c89 d2c3 a314 d1bf 2935 5e3a 9aaf bfbf
00000610: 840d e082 819e d6bf b298 ffc4 2579 c8bf
00000620: 8a6c cbe2 77fe b8bf c663 910b 917f bc3f
00000630: 4195 ef45 489b c7bf 15c8 5042 5290 b4bf
00000640: 6b7f 5743 4ac4 ae3f f832 9477 c218 c7bf
00000650: 9c08 a49d 9511 c2bf 5891 63ff 2115 da3f
00000660: 6f88 77b5 2294 d4bf ea68 a57c 3f6f c0bf
00000670: e3b3 a522 9721 dbbf 0740 9641 8386 d5bf
00000680: 7936 c2f6 7423 9c3f 7bf2 3196 1922 d7bf
00000690: 2efd 83f9 e730 adbf e3ef bd09 5b87 dfbf
000006a0: 9a72 8620 1fc6 e0bf 436b f112 be58 b6bf
000006b0: 1a43 d0bb 236d a8bf 0e53 80ca 9ee0 b1bf
000006c0: 73d9 6ddf 2c85 b83f 88ca 7ffa 8dc1 e0bf
000006d0: a345 b6b3 91c9 cb3f 22c5 6107 ba51 d2bf
000006e0: 77da e352 a909 e1bf 784f d6de 2ffc a1bf
000006f0: 3ea6 323e 48b1 d33f 88cc d1a5 377c d5bf
00000700: a071 acb8 c3bd d3bf 4550 21c0 6e5a d5bf
00000710: fbd3 46fb d32a d9bf 10f1 66ed 232e cc3f
00000720: b444 fe63 439e babf 8740 6ef2 47c5 c0bf
00000730: 168b 01ec c30f d6bf bd51 98af 8d97 c1bf
00000740: b5c2 8a45 dab6 b2bf b239 e172 4b5c c53f
00000750: b4bf 0412 d8f0 d6bf c065 4625 7ff4 ab3f
00000760: a939 2a06 04b8 943f 4d4b 1304 6d95 c0bf
00000770: 649d 8769 d6da c1bf 9627 ce5d 52f3 d0bf
00000780: aabb c3b4 f0c4 c6bf fbb7 9c7a f47c d1bf
00000790: dfad 04ff a742 e2bf f069 e6cd ce65 d23f
000007a0: 572e 7eff 8e98 8cbf 5fd2 58e5 cd71 d3bf
000007b0: 3a4e fafd 0222 d23f caef 0433 f5b3 adbf
000007c0: d640 6869 f43b ddbf 954c 348a 60dd bfbf
000007d0: d273 1dc0 df00 debf 6322 8474 9773 c8bf
000007e0: b709 9cc9 4538 c23f 5d3f 051c 1abb c53f
000007f0: d8b7 7b28 84e1 c4bf 0a9d 753c f27e bfbf
-0.09364977907964056 -0.34307655503928963 0.3399333248965485 -0.2918547155506984 0.11740307290032989 -0.15027979249506532 0.11009501128965465 0.32877674079253033
-0.06259831655425238 -0.11478658155740012 -0.2578887188752374 0.06853271866218923 -0.23807527454430144 0.12113738142905797 -0.1709313446374647 -0.47338909130597223
0.04878427244007604 -0.40633076087085873 -0.1927466817743186 -0.07555211382486522 0.19844956527036656 -0.13554998041536945 -0.07081959843302113 0.07663351071075929
-0.17473293322496047 -0.054303068812818364 -0.12040768408802364 -0.3201635165677788 -0.14041833540207202 0.07259295175477853 -0.030179008982043325 -0.08639058213428856
-0.08332374284392358 -0.04397575052844627 -0.1288704249191261 -0.10430801534812253 -0.32318627150354273 -0.3621266691152804 -0.21978805221118744 -0.13234325371948558
-0.1804227630150216 -0.23532795233911633 0.21568927956220238 -0.1997430505950193 -0.3239938486102457 -0.2805005037510283 -0.11302343091002233 -0.1432101738572729
-0.4575429815322707 0.297855132050708 0.1846977847755086 -0.4620179202668554 0.07684347301452736 0.09825176844888783 -0.1706624188036174 -0.17692628320843992
-0.32093170245428654 -0.6188003638282644 0.268913731937156 0.0040662426677456134 0.02927440353304224 0.014850874544547891 -0.4225733916160498 -0.2677233163916421
0.11450175833555738 -0.49020348813205866 0.05999290896314366 -0.10141134114472602 -0.39371651063977564 -0.1830736942547073 -0.17749580652773728 0.327528856906181
-0.39888120232639745 0.21435223671153 -0.30391790577721867 -0.11870901489926015 0.060588620682046755 -0.24050708769940798 0.04717253661836748 -0.1353546600261134
0.15239702659336288 0.18555885468603145 -0.20062472967563175 0.49358150755439306 -0.2235636933793012 0.1697222298951455 -0.29814507732370465 -0.1476896753132184
-0.003235163217453076 0.015863310800155128 -0.12172829100792364 0.0702083405899349 -0.12040472559143388 0.0550577348714234 -0.03600580945338534 0.1239478374477302
-0.26670016030666716 0.06924840350031168 -0.17041001637183203 -0.03449710775892285 0.10520466580064004 -0.29342333105799895 -0.019413439795793772 -0.17381896959985563
-0.27410669300275387 -0.060249495321843635 0.3606291946395659 0.2547231095910254 -0.12513357470478023 0.01890866695667247 0.14408114739451505 -0.287880518056179
-0.3051563934387628 -0.11713839916335286 -0.2948023892591605 -0.00036372909055053726 -0.24617829046669726 -0.05604843773270328 -0.0015494362937056238 0.012888239449628885
-0.23676831602288562 -0.22796220806091957 -0.16235592344876032 -0.23088494160887715 -0.16605775441395468 -0.3114293890999395 -0.35928174469305363 -0.03750219005640688
0.22877366190546633 -0.4390185598400674 -0.12756935917890844 -0.40729369056568976 0.17476964223351024 0.2075975746934297 0.06773662470193337 0.20926782723187362
-0.11482557610062999 -0.2859345911653862 -0.19539800161938164 0.14865168451390876 -0.007270995914202058 -0.210162398076031 0.01584624410346994 -0.41307512036979893
0.19160823082066383 -0.28924137710815073 0.041179297949395455 -0.4723883781987632 -0.30518899595284044 -0.13950713307414767 -0.13038226722790824 -0.11166695044362353
-0.13216005339777273 -0.2670959809353821 0.4205172644342073 0.05571225810445305 -0.08870901620097622 -0.3225637629863883 0.2540235386641253 -0.3837852977173262
0.07686369020113867 -0.09819430737813463 -0.11669378467014316 -0.6394175935204343 -0.31285110228760965 -0.06851981774576964 0.15149274263396156 0.21589709264190052
-0.22872104659209774 -0.46056289631457975 0.07994647357981002 -0.23855671112662774 -0.11846913498128935 0.30173179653096527 0.04202928977794306 -0.0032498343372353014
0.17650877703382561 -0.12882577290738845 -0.13634168918118883 -0.3276277271085986 0.055889716186220705 0.17879623943044173 0.2054368831267354 -0.3483174803897056
0.10998751359693806 -0.10941621808219204 0.018084346524351647 -0.459376938568705 0.1666059958576954 -0.24986719622841996 -0.1610367878902884 -0.1695225471904018
-0.2668847477272267 -0.1237732307910916 -0.3534244325712381 -0.19119712943137795 -0.09763287817934177 0.11132151157779821 -0.18442634024465046 -0.08032716864616447
0.06009132453959761 -0.18044310416043863 -0.1411616344194656 0.40753984394384224 -0.3215414783609338 -0.12839501939999504 -0.4239251936294847 -0.33633500485393636
0.02747900730223882 -0.36145629565707055 -0.05701374932140833 -0.4926364512573384 -0.5241847644097846 -0.0872916027305282 -0.047707668949561646 -0.06983368343237492
0.09578209357082361 -0.5236272709428968 0.21708890223503116 -0.2862382003869063 -0.5324293726869901 -0.035127159072685765 0.3076954467202063 -0.33570662682831953
-0.3084573081448756 -0.3336445690413295 -0.3932390169023276 0.22015809146785914 -0.10397740546456441 -0.13102053964076196 -0.3447122387644169 -0.1374375445744941
-0.07310260961345245 0.16687911137928563 -0.35844995269416846 0.054599736499948204 0.020233214260366648 -0.12956011485092703 -0.13949089196033093 -0.26485118065522195
-0.17788513971706027 -0.2732516476997941 -0.5706367474389785 0.2874638567679133 -0.01396285741045415 -0.3038210620609671 0.28332590868487595 -0.05801359412950509
-0.4567843465201923 -0.12447169660690556 -0.46880334626422127 -0.19102757634415743 0.14234230369772913 0.16977239959896454 -0.16313220955583918 -0.12303079582271806

transformer.layers.0.linear2.weight f8 [6, 2048]
00000000: 388d 5b10 e682 9fbf c4f2 d4b3 c940 913f
00000010: 8f13 42d7 5f6d 8c3f 50ee a0cf 6c42 8d3f
00000020: 1a8c c250 8d7e 8cbf 0c2f abdd 2d19 a7bf
00000030: 5bbf b402 48e3 bcbf ba5d 51a3 61ba c2bf
00000040: b685 6403 63c7 9b3f 5773 c390 1697 b8bf
00000050: fe0f 331e a420 9e3f df6a a9f5 8a69 8ebf
00000060: 4331 bbab d9e8 bd3f 8143 2337 aa05 b03f
00000070: 1492 5932 40d9 a7bf a3f3 2181 2b19 d63f
00000080: 433e 0bd2 e667 b33f 02cc 3a30 c17b 6cbf
00000090: 91b3 c7ed 6b2c b43f a970 f3dd aaa0 953f
000000a0: 19c2 876b d37e c5bf 6788 95c2 a373 c8bf
000000b0: 23ab 6c44 c29d b4bf f480 1049 bfac aa3f
000000c0: 584e cc0a e66c a63f 5fcb d28a b161 a63f
000000d0: fd62 9e4e 4697 8d3f 81d6 803f 8263 b8bf
000000e0: 2d29 2885 f568 9e3f c5f8 e971 edde ce3f
000000f0: 80a5 ff25 21f1 8d3f d2e6 9c20 0c1a b2bf
00000100: 2252 6ba4 b8eb bcbf ae2a 4afb 506d a8bf
00000110: d2d7 0b9a 8276 9c3f 35f2 84d5 fb07 d23f
00000120: 7440 bcd4 0f37 96bf 6d2b 1887 923d cdbf
00000130: cd38 3e3e 31c8 69bf 6fa4 de94 7542 babf
00000140: ce7a d1fa 8c7d ae3f 6c18 603c 379f 633f
00000150: db92 e02a a7e6 abbf 1079 d0b3 578d d0bf
00000160: 4c7d 76f4 e171 c4bf 8d78 57f7 70a5 a9bf
00000170: 94a7 3485 344a 9f3f 8f2e 7168 9ca4 313f
00000180: 6a7f cd45 fa7c 80bf 943d c581 b4da 9ebf
00000190: 7298 d1f7 bbd0 a03f d008 2fea ee56 5cbf
000001a0: dde5 0228 5b3f 9dbf 6475 49ec 801f aabf
000001b0: 68cb 736b da03 aabf b520 a443 4acb d13f
000001c0: f671 0f0e 0b04 a53f 86e0 5503 3c91 753f
000001d0: dcf2 5be1 9e24 a9bf 1310 71bc 71b7 b8bf
000001e0: 6eb4 3571 986c a6bf 0601 68c0 6985 3c3f
000001f0: 51f4 eb5e d4f7 61bf 564e 6f7d 0aa6 863f
00000200: a56c 8d01 ae4f adbf 6eeb 0a76 0df3 94bf
00000210: 5747 9a96 90c1 a8bf 05f0 e40a 378b 7abf
00000220: b537 31d1 6816 8e3f a40d 6b7f 5d3a 85bf
00000230: d2b1 f292 2cbc d33f d65a 137a ee60 d7bf
00000240: 4d51 ae6b 9e62 653f 6f36 8e0a 2582 c43f
00000250: 765b 23f0 5983 a5bf 7adf 809c 434b a13f
00000260: eaf6 42bf 72c6 953f 7c39 2b1e 35b6 77bf
00000270: 0248 e645 8599 b6bf d2ae 4ba8 a63f 943f
00000280: a66d 2a1c 7e0d c0bf 3b0f 55f6 1240 c0bf
00000290: bccd ccb9 726c 773f dad9 de77 6151 933f
000002a0: 7c15 00d6 a72f c8bf 1f6f 9851 1f25 d43f
000002b0: 22cf f692 1bf7 463f 4510 1c10 0d62 c93f
000002c0: 9ad3 837c 0bda c6bf 2cff a14d 4dc9 9a3f
000002d0: 474e b515 5033 a5bf 8bcd 84fd f978 c0bf
000002e0: 33e4 6937 9dbd ba3f f929 671d d04d 883f
000002f0: 8fe6 baba 5d58 903f 9b0f c0c5 91ef c1bf
00000300: c8c7 9b45 9873 723f e2ad cc99 d24e a2bf
00000310: b5dd 9843 d395 b2bf d59b 8b14 162f c0bf
00000320: 113e fd58 d99f bcbf f120 1bc3 b1ab cb3f
00000330: 80f4 c35e 55d9 c4bf c921 130a b27e 60bf
00000340: e75d 2240 fff7 b4bf d0d4 6193 bbbb ad3f
00000350: af4f a917 7164 e5bf ff1f 331b 38af cabf
00000360: 7e8c ce1a 68aa d3bf 8aaa 7330 c5ef 723f
00000370: 3f82 2172 a1f0 bfbf d751 83e3 58b2 a33f
00000380: af0e 2da5 c8bc b6bf 8595 e390 5867 943f
00000390: ff33 d5ee 53dc a5bf 2da9 9552 048e 763f
000003a0: 187d 5253 ce88 b23f 8e50 2be4 0152 cebf
000003b0: 739a 6e19 5a6e 9fbf 0a26 91dd 751e bfbf
000003c0: ef59 865c a2e1 acbf a930 141b 33b0 a6bf
000003d0: e440 79fb 762b 78bf 0323 b075 ae00 7fbf
000003e0: 7cbc 4e17 f798 d13f b2ae 6e8d 069c 9b3f
000003f0: 9f86 0207 a9f2 73bf 1946 bc07 3b4e a2bf
00000400: c9c5 a81b 64dc c3bf 4a70 9ecd f07c a6bf
00000410: 3337 7aca c883 c1bf ed96 a9af 3db7 b3bf
00000420: b2ca acb8 8c15 e3bf c44b b237 3d2e b7bf
00000430: 36df 761e 5af6 7f3f a21b 7e02 a222 c2bf
00000440: 0242 e78f bfd3 9cbf 0026 b3e1 e9be acbf
00000450: 83ab 0d8f 861b aabf 0b1d 21c4 fa2c df3f
00000460: 1bf1 960f 7b8f a2bf 204f 4b57 8258 bcbf
00000470: 2354 8d3a 2854 c7bf fbbd 1c51 5f85 5d3f
00000480: 953c ce75 0e08 b5bf 7bd1 01ce d812 7f3f
00000490: e3dc d936 a432 573f d495 1ea9 c9e6 80bf
000004a0: f31e 4fdc 1f9e 9c3f f4cd 57d4 4e60 b03f
000004b0: 861b 618d ac8c b3bf 6338 f8f8 075e b6bf
000004c0: b286 f143 2a46 bdbf 4218 bd45 2691 a4bf
000004d0: e6ba 8ec2 6ff0 cb3f fa3b f09c cbcc c2bf
000004e0: 7b52 48e2 eb09 bc3f 5385 591e a58f aa3f
000004f0: 80a5 cfda ec49 a63f bba8 c823 0a42 59bf
00000500: 68b8 83ba 0487 b03f 0a05 959f 3e95 9a3f
00000510: b613 7e50 7177 bdbf 44da 3d51 9609 9fbf
00000520: 0889 b143 23ff bbbf 2046 5548 cd36 31bf
00000530: 0d21 a5ae 698c c1bf 3be7 4704 966b b43f
00000540: 33d7 793b 31fe b73f a13b 2201 61c9 883f
00000550: f353 1cc0 8583 ac3f 6a25 40be 2e99 a93f
00000560: 1772 1d2b fae6 a03f ff5e 3d6e 9a2a d13f
00000570: 9f49 a03b 1c88 a33f a63e 5667 5954 c8bf
00000580: b75e d8b7 4450 d73f 82d6 d9ee ffb2 683f
00000590: 0413 7a1a 9048 95bf 086c d7e6 b807 853f
000005a0: 6898 bc3c 6e60 c2bf cc3e 92c5 90b3 cebf
000005b0: 8762 adcc 154e a73f e49b 7a18 f1ac a63f
000005c0: bd6e b843 7a66 a2bf 273a c376 8d7a 81bf
000005d0: cdeb ef63 027e 9abf d4d2 ed9f a004 45bf
000005e0: 6228 5277 e805 903f 939e 17bf d81b 6dbf
000005f0: 4084 935d b6e0 9abf a0c4 1856 dd9c a23f
00000600: 8848 9741 bf4a b2bf b1d3 e049 1801 ddbf
00000610: 1e2a fbd8 b7fb 9f3f a1aa b0ed 777a aabf
00000620: cca2 7737 fc90 843f 8180 e3f6 1294 b1bf
00000630: 8bc3 08d0 f1a0 9cbf f2e2 c995 2fd7 a93f
00000640: c9d6 75fb bc48 aebf 5b53 ca8d fae7 7bbf
00000650: ca5b 282c a68f 66bf fdc9 58fb 2c4a c4bf
00000660: 9d30 84b0 3d7f 66bf 4d72 805d 61c9 b83f
00000670: f8bd 6b88 122e 68bf 6693 e8d0 d098 d7bf
00000680: b3b4 744c 6915 a7bf c355 91e2 7d11 a4bf
00000690: f512 1c8d 57f5 adbf 486c 2683 d699 91bf
000006a0: 5dec 78b3 350a be3f 653e 02cb bf78 bf3f
000006b0: 7e0f 8a41 4487 b4bf b2b5 2454 8b96 abbf
000006c0: f678 3c5a 76f2 9c3f 5194 8ba0 7871 8cbf
000006d0: d49a 0d21 aad7 cbbf d494 f309 890f 8b3f
000006e0: dfa8 0ada e9af a43f 5a33 7e21 e702 b4bf
000006f0: d7ed 1164 92c4 c23f 0266 50b4 7b3c b53f
00000700: 7684 03ac b363 813f faa9 2717 021a d1bf
00000710: df2b 1809 249d b0bf 5823 6e87 dce2 b9bf
00000720: 31af a9fc 248c 8e3f fea2 f918 7192 9a3f
00000730: 0f58 1df6 bbe9 89bf d14a 623e f3f8 8e3f
00000740: 7009 ce6d 1d55 94bf 17cb 0c5b 2009 b23f
00000750: 6940 a50b 6e26 8cbf a86d 383e d61e 98bf
00000760: 666b 36f6 f3f4 b0bf b48b 9c75 4ec1 b0bf
00000770: 4b00 3daf 746d b23f 5de4 3a87 4504 da3f
00000780: cb19 9397 6a64 753f a8f9 5ea0 5c0b ad3f
00000790: 02c4 4f9f 450a 6a3f b753 0447 3449 b23f
000007a0: bd5e ca79 6a51 b6bf 44c5 d580 59fb b1bf
000007b0: 4375 d739 c661 a63f 80d5 7b59 e65b 943f
000007c0: 0bd0 03e8 8263 833f 23c3 979c 78d7 71bf
000007d0: 5ea0 2b08 3b60 93bf 18fe 36b4 c8c6 7a3f
000007e0: 0773 a9f1 0468 a7bf 2444 5622 725d b0bf
000007f0: e0d0 500b ba54 7bbf 4b03 5871 58dd 90bf
-0.03077277636374484 0.016848708725990105 0.013880490070968836 0.014286851965258723 -0.013913253810022442 -0.04511397677342019 -0.11284303728166149 -0.14631290888313037
0.027127787668296675 -0.09605542215599648 0.02942139086077588 -0.014849744436266686 0.11683426325470685 0.06258643957268185 -0.046579366823412155 0.3452862511692791
0.07580416324639665 -0.00347697956188986 0.0788028197782309 0.02112071017914788 -0.16793291807654567 -0.19102904320886013 -0.08053220911521612 0.05209920660877457
0.043799580400585014 0.04371409244176649 0.014448689722301728 -0.09526838350651624 0.029697262050867913 0.24117820799069115 0.014620074245572878 -0.07070995136464411
-0.11297182096615946 -0.04770901744367016 0.027795830394971528 0.28173728801246806 -0.021694419249854893 -0.2284415397301375 -0.0031472169666307615 -0.10257658848299099
0.059551625840631325 0.002395255930426157 -0.054494117721594036 -0.2586268669127927 -0.15972542225515907 -0.050090341752125324 0.030556507711629502 0.0002692109923756258
-0.008050875907144667 -0.030131168766556707 0.032842515946683984 -0.001729710879530933 -0.02856199676236836 -0.05102160343515541 -0.05081064759897097 0.27803284268930933
0.041046472040509416 0.0052654594668341045 -0.04910751820532308 -0.09654913759828813 -0.04379726774173141 0.0004351981337151898 -0.002193369661994051 0.011058885529485678
-0.0572485329527919 -0.020458422021629223 -0.04835178221141117 -0.006480422029479631 0.014691180118599914 -0.010365229083055656 0.3083602366484942 -0.36529123231359273
0.002610501685419353 0.16022170081525952 -0.04201775604604212 0.033777344564838566 0.02126483242385905 -0.005789000979986244 -0.08828003841907164 0.019774059316587884
-0.1254117620018011 -0.1269553854746109 0.0057186585880119566 0.018865130368533524 -0.18895433377489812 0.3147657677488826 0.0007008442534499374 0.19830477987864206
-0.17852920131522582 0.02615853105862624 -0.04140711083405484 -0.1286919105419709 0.10445578196403531 0.01186716642123019 0.01596209003648724 -0.1401235786034903
0.004504771053449326 -0.03575761916576049 -0.07259865188904409 -0.12643695834341764 -0.11181410238827307 0.2161771967569233 -0.16288249137133803 -0.0020135381060734964
-0.08190913501527285 0.05807291196917108 -0.668510957921617 -0.2084722645579404 -0.30727579706053365 0.004623193998876682 -0.12476548229597827 0.03847005631692795
-0.08881811173074071 0.01992548355419423 -0.04269659319343332 0.005506531605855164 0.07239999326929014 -0.23687766686510198 -0.030694396784066002 -0.12155853900289784
-0.056408952517063564 -0.04431304650833685 -0.005900826239283872 -0.00756900928809823 0.2749612548458982 0.026962377912851117 -0.004870090735637738 -0.03575310201098265
-0.1551633009963054 -0.04392197141643857 -0.1368342388781741 -0.07701478518137224 -0.5963805777485816 -0.09054930314805093 0.007803298976277342 -0.1416819107218688
-0.028151505621112356 -0.05614405517696852 -0.050991253817151104 0.48712033417946604 -0.036250920918492656 -0.11072554236608001 -0.18225577219951203 0.0018018179729998296
-0.0821541822062833 0.007586333173197675 0.0014158824591541878 -0.008252692674271346 0.02794694692764117 0.06396954235224667 -0.07636526538509089 -0.08737230137214307
-0.11435188444877545 -0.04016990281392953 0.21827504157905436 -0.14687485850342324 0.10952638887858683 0.05187717433433172 0.04353275462183159 -0.001541623975877245
0.06456021836831527 0.025959948053473382 -0.11510379996441497 -0.03031000967845389 -0.10936184313462516 -0.0002626658609488925 -0.13709755923833492 0.079766632123122
0.09372241689729037 0.012102849814508878 0.055690936757095154 0.04999681541819252 0.0330122163420336 0.26822529569243153 0.0381478140626712 -0.19007413430926084
0.36427419618255946 0.0030150412265424484 -0.020784618011492575 0.010268635315631172 -0.14356782880458074 -0.23985490462336256 0.045517617449779606 0.04428819106879425
-0.035938092009215584 -0.008534531771514043 -0.02587131247490131 -0.0006414207744983255 0.015647537501117255 -0.003553317387502927 -0.026247834645691137 0.03635303188310357
-0.07145305014936032 -0.45319182600661195 0.031233666056133307 -0.05171561027994654 0.01004216236374713 -0.06866568114810613 -0.027957704851533854 0.05046986297106128
-0.05914869851669164 -0.006813029027985386 -0.0027540441090070132 -0.15851366303247963 -0.002746220099771503 0.09682282002217697 -0.002951656529482479 -0.3687021293756544
-0.045085230429643096 -0.039195951373283154 -0.05851243588953096 -0.01718840766407606 0.1173432887234624 0.12293623644131342 -0.08018900489883937 -0.05388293649808008
0.02826867032774146 -0.013888304137660653 -0.2175190602676681 0.013213224998660435 0.04040461336747269 -0.07816929404925813 0.14662389646751592 0.08295415069769521
0.00849094742483401 -0.2672124124643741 -0.06489777776748394 -0.10111788088228246 0.01491574188295139 0.025949256085740828 -0.012652843902895254 0.015123272267634576
-0.019855937792735145 0.07045175764941934 -0.013745174150841604 -0.02355513338816953 -0.06623768578576303 -0.06544962283491779 0.0719826629474493 0.4065107174497536
0.005222717643113171 0.05672730882314464 0.003178726178241665 0.07142950757800191 -0.08717980836297108 -0.0702415408648181 0.04371470886301634 0.01988181992688487
0.009467146592648154 -0.00435587991658862 -0.018921778081591227 0.006537231445178836 -0.04571547937368874 -0.06392587030701741 -0.0066725985862385595 -0.016469365995365675

transformer.layers.0.linear2.bias f8 [6]
00000000: 7b9f dda5 4c5e 873f 4963 8b12 8850 553f
00000010: 39af 53fd 4496 cdbf 622a d0f0 2ed3 99bf
00000020: 2ff2 4caf 9476 ae3f 1ef4 43fb f08a bd3f
0.011410330592937381 0.0013009384949127115 -0.2311483609149663 -0.02521966309363178 0.0594984497060732 0.11540132650766607

transformer.layers.0.norm1.weight f8 [6]
00000000: ab95 0199 e306 ea3f 8a49 d516 29db ef3f
00000010: 901b 1b15 2124 f53f ff72 4e2c 2286 f03f
00000020: 58de 9627 d09d ef3f abf3 3c09 a883 dc3f
0.8133409489061497 0.9955029912910487 1.3213206123780061 1.032747433731117 0.9880142949322801 0.4455356683936837

transformer.layers.0.norm1.bias f8 [6]
00000000: 1b5a 4582 f2d4 dabf 01cd 1fcf e13c d43f
00000010: a2bc b800 90df c1bf 15cb b5e7 2d9d c7bf
00000020: af9f 013d 7aed ca3f 84bc b59f da8a df3f
-0.4192472717453783 0.3162159464547614 -0.13963508639560468 -0.18448423208209222 0.21037223795724233 0.49284997555418664

transformer.layers.0.norm2.weight f8 [6]
00000000: 5629 b722 0f90 0840 904b 2a59 2ecd 0d40
00000010: bf09 1736 f7fd fc3f fb82 effd 0605 0440
00000020: 488b c6f9 0f1f 0c40 a53b 9f54 4fe4 0640
3.070341368879933 3.725186058619734 1.8120033371820765 2.502454742309394 3.5151671899524537 2.861479436025052

transformer.layers.0.norm2.bias f8 [6]
00000000: ac98 2e3c 9e07 e7bf 3837 fc22 28a0 9dbf
00000010: c36e f74f ee63 fc3f 8574 4647 9455 f4bf
00000020: caa7 0b7c 5fc8 c83f 502d 738b cc0f ecbf
-0.7196799445562383 -0.028931262145355435 1.7743971942608574 -1.2708933624446968 0.19361489827070805 -0.8769285892134722
