results/Bidirectional_GRU_Dropout_5_Long/models/checkpoints/6/Bidirectional_GRU_Dropout_5_Long-6-150.pt (torch_old, 215083 bytes, 18 tensors)

gru.weight_ih_l0 f8 [96, 6]
00000000: f218 c4ca 606f d73f ec3f f1e2 8a5b e3bf
00000010: 18d1 72b1 fa78 e6bf fe1e 30b9 161c cd3f
00000020: e76e 7232 f66a ecbf dedc eca4 d7f2 eabf
00000030: a480 3580 5a9d c43f 4d52 1e08 5ca4 ccbf
00000040: e868 92fa fd72 f0bf 54b1 de42 3656 ac3f
00000050: 10ac 2801 3bdf e4bf 8385 f2b9 89c1 e4bf
00000060: 0c23 9b98 bc04 c2bf 4bec f54b a364 c23f
00000070: e391 dd3a 5c8c f23f 6e80 35e1 134c abbf
00000080: e476 2a42 a204 d53f 65c2 5d4b 234e e63f
00000090: a313 0643 50c6 82bf 2b22 b474 6c19 d6bf
000000a0: 955b 1e42 4271 e9bf e2b7 db0a 0d98 c93f
000000b0: b1a3 7b3a ac88 e0bf 5886 1b55 4701 e7bf
000000c0: d445 08c9 1796 b83f b36a 3ad3 9dfb 99bf
000000d0: bead 645d 5269 e8bf 2516 003f 88f4 90bf
000000e0: 41c1 fcae cbd7 d7bf 0aea c6ba 0e23 db3f
000000f0: 20d5 951f bcb9 a73f 1d86 3027 5481 ddbf
00000100: 22f9 7347 bbb1 eebf 438e b453 1242 89bf
00000110: 35de 36ad 7c5f ddbf 1663 42f8 7991 dabf
00000120: f198 6990 f356 c73f c263 3d15 76af ebbf
00000130: d0c8 ce00 4ec3 e9bf 6596 6825 77c6 bfbf
00000140: 8eed 53e1 632a d0bf 339f 9d44 f515 e5bf
00000150: b98d 26d5 9ada ba3f 76c5 e061 c2e6 debf
00000160: a2e7 5052 50ca e2bf 07d9 6d12 f515 c4bf
00000170: f09d f243 9682 b9bf bad4 9e00 65d7 c53f
00000180: 89e2 72f8 1835 b4bf a88a 0fb4 5cc3 bd3f
00000190: 0a5d f682 7169 f73f 7a5c fe15 2aa5 cfbf
000001a0: 5162 18ce 6684 c73f cc3e ba95 a22a e03f
000001b0: 13c7 ec85 3cf6 cc3f ee46 46a9 ceae df3f
000001c0: a1f3 b690 d37c e03f 46c5 49bf 9e41 b23f
000001d0: 383e 6b7f f37d d13f d4bb 98f8 272f d43f
000001e0: 7367 4750 b6de 923f 2f7f feab bde6 c1bf
000001f0: e715 cb0c 4d83 ddbf a587 7436 f25e b23f
00000200: 0c4c 2db6 1f6a e5bf 60c7 baa6 c0db e7bf
00000210: b6ef 400d ff56 c53f df7a d08d 358f ca3f
00000220: d74b 49c0 96b5 ed3f 64e2 b989 4aef ca3f
00000230: a8a6 c931 cf53 bdbf 3b05 9da9 127f d93f
00000240: 0345 c666 b3a4 a23f 122f 569f d3a1 dfbf
00000250: f1c8 d9ea 625e dbbf 4dad b3c0 40df c63f
00000260: dd09 f1ea 14eb dcbf f91c d4ea bfb4 e1bf
00000270: 9068 abb6 f9d0 b23f 160f c523 a3f5 d6bf
00000280: 46c3 4eb4 c8dc f0bf 266d 4d83 5228 a7bf
00000290: b877 9dc3 4268 e0bf ede2 e57e 710f e1bf
000002a0: 2756 7b49 412a b73f 499e d447 4091 a63f
000002b0: eb9a 6b92 25d9 dcbf 309b 3ee3 99ee 813f
000002c0: 7a3e 7da0 f8e5 d4bf afe3 e22c deda e1bf
000002d0: 0dd1 59df 7e7b a03f 8d0b b8d5 ed7d db3f
000002e0: abd1 3d79 d160 e5bf 8ce1 35c1 8b7b af3f
000002f0: c1f9 8dcf ecc6 b6bf b706 51bc 2969 c7bf
00000300: b3aa 4b18 3120 d63f dc8c 4c96 b2b3 e3bf
00000310: 041e e5f5 2718 edbf 73fe 18f6 e1e4 cd3f
00000320: 5cd7 cf4c e7c8 e3bf c404 c87d 17bb e1bf
00000330: 6c99 dd72 a900 9f3f f6e1 0b2f cfa4 c03f
00000340: 4dc3 8b50 67a2 e23f 3a8c 3f2d 2b9f c53f
00000350: adc8 c84a 73ed d2bf e3c5 6093 c151 d93f
00000360: d93b df2d eed5 a93f a4bf f03a a5f7 ecbf
00000370: 2872 3cf4 3a46 e93f 26aa 6970 4b3f a73f
00000380: 925a 0aea 0394 9abf a42f 2f1b 97d7 d73f
00000390: ecf2 1759 41bb 73bf 8ccc 4db2 caf3 cb3f
000003a0: 1e5a 3fd9 3bea ea3f 91eb eaaa 4d50 8ebf
000003b0: 39ec 0f7e f96c d43f c209 9b65 f5ae e13f
000003c0: afac 9479 2f47 a93f 580e c296 c4c9 e6bf
000003d0: 2ded 681d e68b dfbf aeca d133 6078 893f
000003e0: ee43 b056 2141 e0bf 5a01 beb4 6ccd e1bf
000003f0: 1473 708b d02c 953f 023a d1af bad0 ca3f
00000400: 8769 e809 6eee f53f 5f85 9176 8684 b53f
00000410: 3e49 4976 3293 cebf d697 dbb2 2aa2 c4bf
00000420: 5173 9073 2cc2 b6bf 6d90 7144 7e36 f03f
00000430: b154 367e 3ed8 ddbf 1c23 a880 1b48 8bbf
00000440: 4db6 57b5 4e5a d7bf 1c5a 0b93 ff47 e0bf
00000450: 55a4 0136 1776 c7bf 58b1 745c 7e4b e13f
00000460: e655 3585 9239 fa3f 44c2 c3ce 7d8a c1bf
00000470: 0c1a 4088 0282 d13f 162f e3e4 c894 df3f
00000480: 3952 6463 3fd7 ab3f 7717 582b 8aa2 b83f
00000490: 38a1 32ab 3cbd e6bf d852 6650 5162 b53f
000004a0: 7ac0 fd30 80f9 dbbf 19e8 4fa3 c832 e7bf
000004b0: 2aaf e2a7 566f d03f f577 1776 151e e0bf
000004c0: 83f7 c99c 275e f1bf d66e a352 1243 b63f
000004d0: 0de9 a44f 25fa e8bf c804 a695 a1f6 e5bf
000004e0: 1927 8f96 77cb 7bbf 91bc eb06 69a9 d3bf
000004f0: 6609 3130 d510 e5bf 51d6 78f3 609e bd3f
00000500: f072 b8c5 1bad e0bf 7429 9f7a 0703 d9bf
00000510: 9841 0184 f4a4 c23f 042b a6e5 507c cfbf
00000520: 9670 134a cf5c e43f 77ac ba36 4f2f d43f
00000530: dc16 2325 d00b b53f 6735 68d8 995f c6bf
00000540: bc85 bc56 0285 b33f a64e f9aa b3c1 e23f
00000550: 7aab 845b a4f5 de3f ea81 db2e cf63 b93f
00000560: 898b 6bb6 79e1 cf3f e0f2 7582 c769 9abf
00000570: 8626 e771 8eaf ba3f 779f 6059 eecf dbbf
00000580: ce78 f9ed 2f7c f2bf 333e 7a03 eee5 b3bf
00000590: c4b8 50e1 4881 d4bf b909 d046 783d ddbf
000005a0: 0aa5 3430 37c9 cc3f 619c 3b92 d5ff e2bf
000005b0: 53e4 5491 e025 efbf 4770 a9a9 fccd 3dbf
000005c0: 981d 6f7f 04a7 e5bf 8cd8 cc35 413f e1bf
000005d0: 9f24 f644 6bff b03f b203 fe6c 781a dabf
000005e0: 3b1b f1c9 9340 eebf 0efa 2e5f 3844 94bf
000005f0: 56d4 8edd 11b1 e7bf b942 46ed c249 e9bf
00000600: 7aa5 7653 f331 b43f 68d9 aa58 29e8 e3bf
00000610: 39c4 51b5 9922 cdbf 0db7 26ac 5559 dfbf
00000620: 8375 8404 611e d7bf 51fa 2767 209a e1bf
00000630: 7a73 5b0a e51e b4bf 4748 aad4 944d d3bf
00000640: 4a7b 3814 a07b e1bf b22f 3fd5 3a9b d8bf
00000650: 6447 86c1 23ed b6bf a633 6ee7 1797 a43f
00000660: 5211 ee84 748b ec3f d919 be6a dce3 ebbf
00000670: 04f3 cf93 d3c4 e9bf 5b41 7d36 c0b1 d43f
00000680: 4587 276a 6b29 d6bf f3d1 a169 fb23 e1bf
00000690: 4997 3e0e f403 e23f bf97 a5f7 a55d ebbf
000006a0: 15a3 f81f 5315 ddbf f75c 3587 17e3 d93f
000006b0: c843 facc ad68 cbbf fde6 ec16 a24b e3bf
000006c0: 96c4 045d 53db 873f 8ce9 5e6a 52a1 eabf
000006d0: ff6e ecb6 8736 c0bf 6496 a3c1 0927 a43f
000006e0: b17c d951 f29d d23f e038 0fc1 f33b e2bf
000006f0: baa5 a607 af4d eb3f 642d ac18 792b eebf
00000700: 2004 39bf 71e5 e9bf 759d 850f 156d bebf
00000710: 8bed 2395 8b35 d83f 1619 a43c df7c dabf
00000720: 73bd 4f36 60ef ec3f f708 5b73 dbe4 f4bf
00000730: c57e 9752 1cbc f1bf 0ffe 6d7c 598d c83f
00000740: f8c0 de16 1527 d4bf a166 c128 8428 e6bf
00000750: cbd2 e5f5 9106 e43f 6a2b 3457 ba25 d3bf
00000760: 27d6 5792 d8db d5bf db54 8392 ae20 ec3f
00000770: 4907 5982 a00d f1bf d3a3 bf6f af44 f3bf
00000780: cc8f d704 1a5e e93f 8e5a d201 41b2 f1bf
00000790: 5c3e 1671 9b29 efbf eb1e 0e02 ed67 d03f
000007a0: ae60 bdc3 cba8 c5bf 50c0 6622 1f9e d8bf
000007b0: fa7c 1ee8 cc5d d0bf 301d 5715 b038 e1bf
000007c0: 3afa 01d1 d772 e6bf dc06 0484 9ea0 e3bf
000007d0: a26d 900d a03f d1bf 0044 3dcc f17b c4bf
000007e0: 8b3b c7de 9191 c03f 9cea 592d ee4e b8bf
000007f0: 2105 ca25 549d ccbf e6af 0d5d bf88 e53f
0.36617297936790216 -0.6049246246784583 -0.7022679773131442 0.22741970102673997 -0.8880568490307866 -0.8421438428112216 0.16105204830364983 -0.22376585384758343
-1.0280742443051682 0.055345245039776586 -0.6522498152384077 -0.6486252433571028 -0.1407695527216436 0.1436962242986247 1.1592676448282127 -0.053314801446277524
0.328407826056589 0.6970383140561124 -0.009167315526392111 -0.34530173680153337 -0.7950755397204029 0.19995272665204228 -0.5166836874242248 -0.7189060842758392
0.09604023607268825 -0.025373903291078203 -0.7628566574180053 -0.01655781635783717 -0.37254612053495256 0.424014742278502 0.046338919501901055 -0.4610185988150038
-0.9591957469527055 -0.012333052806361105 -0.4589530650659726 -0.4151291775138345 0.1823410468234168 -0.8651686110343848 -0.8050909057403945 -0.12412209189695884
-0.25258728985473844 -0.65893042947298 0.10489814475891181 -0.4828344302978488 -0.5871965034232185 -0.15692008399828003 -0.09964884909515326 0.17063581972403147
-0.07893520417827395 0.11626223941815772 1.4632430186955525 -0.24722791742235356 0.1837280756306137 0.505204479633869 0.22626453913977027 0.4950443890639765
0.515237600942431 0.07131378336068392 0.27331244891408657 0.31537818219197544 0.018427704477154316 -0.13985415361548223 -0.46113897561403266 0.0717612631747487
-0.6692045744079009 -0.7455752617299645 0.16671741625930075 0.20749539780168555 0.9284166102973995 0.21042758679301976 -0.11456007924575806 0.39838091434292594
0.03641281728335779 -0.4942521148702649 -0.42763588843003136 0.1786881390502039 -0.45184824889670755 -0.5533141695495082 0.07350121221262129 -0.3587425088228299
-1.0539023440616844 -0.04522950985730238 -0.5127271481139735 -0.5331351736523097 0.09048851055134631 0.04407692791783952 -0.4507535867582379 0.008755876777127719
-0.3265363280561143 -0.5579672695813452 0.03219219662142523 0.4295610987757577 -0.66806863479592 0.061489455542815014 -0.08897285525561129 -0.18289682097570445
0.34571483013739196 -0.6156857429054088 -0.9091987421642789 0.23354744450078932 -0.6182743549568204 -0.5540883499781093 0.030275962482300953 0.13002958104313195
0.5823246548808158 0.16891994199167631 -0.29574281981616474 0.3956149996984932 0.050460284328088974 -0.9052301551036988 0.7898230333553942 0.04540477511621459
-0.025955258521742915 0.37253358511656587 -0.004817252412519162 0.21837743479008898 0.841092991172278 -0.014801604059689473 0.3191512805057673 0.5526072487339706
0.04937122687473427 -0.7121298737042236 -0.4929137503820183 0.012436629849820715 -0.5079504674087028 -0.5563262491341832 0.02067876673764875 0.20949491104916268
1.3707104098344602 0.08405342478501641 -0.23886709953019108 -0.1611989377335578 -0.08890035458939606 1.0133040116861836 -0.4663234932462031 -0.013321127761643896
-0.36488692960015073 -0.5087888595542753 -0.18329134118110582 0.5404655271318388 1.6390557483149393 -0.1370389232247523 0.27356017404272914 0.49345610000885765
0.05437658394126683 0.09623015936094058 -0.7106002181726927 0.08353145802386608 -0.4371033171110025 -0.7249491872491972 0.25679556269709514 -0.5036723429182063
-1.0854869961326308 0.08696093099154764 -0.780535369448701 -0.6863563463995428 -0.00678583826170056 -0.3072149818025958 -0.6583047810784535 0.11569791740552061
-0.5211314069489088 -0.39080988859918553 0.14565903134872538 -0.24598132336935674 0.6363293120189322 0.315387538382033 0.08221150309244812 -0.17479250971556867
0.07624830834949753 0.5861452426274425 0.483742799161227 0.0991792191885065 0.24906846434813826 -0.025794141137782556 0.10424127846558848 -0.4345661042047974
-1.1553191467169657 -0.0777271994104403 -0.3203909111351886 -0.45687682071016017 0.2248906121615522 -0.5937297683821151 -0.9733736837871539 -0.0004547826626202272
-0.6766378869005392 -0.5389715243134261 0.06639738496427804 -0.4078656257989294 -0.9453829712082106 -0.019791489419498424 -0.7403649642279884 -0.7902540811793052
0.07888718402559461 -0.6220900279793513 -0.22761842111097666 -0.48982755481380097 -0.3612291854968463 -0.5500642790573896 -0.07859641554700927 -0.30161019104082637
-0.5463409800466732 -0.38447447609791674 -0.08955596422881978 0.040215250969686964 0.8920233341491814 -0.8715650639358571 -0.8052766692122479 0.32334904977053264
-0.34627805105821025 -0.535642343819346 0.5629825857365428 -0.8551816784718013 -0.4544265567988515 0.4044855900187509 -0.21413204678222386 -0.6029825637590133
0.011648799205973764 -0.8321926190904363 -0.12666412765326382 0.03936033715016832 0.2908902930557345 -0.569818379468213 0.8532328748162208 -0.942806766689881
-0.8092583403414473 -0.11885196331933463 0.3782681423615137 -0.41387158319447914 0.9042206822177107 -1.3058733469084112 -1.108425448059209 0.19181364608446969
-0.3148853991833813 -0.6924458309178655 0.6258020212831864 -0.29917772785181873 -0.3415433339244793 0.8789894925672813 -1.0658269015988984 -1.2042688718013224
0.7927370161601117 -1.1060190268669063 -0.9738290032127668 0.2563431282110133 -0.16921374375920578 -0.38465097770222645 -0.2557251230991394 -0.5381699005892298
-0.7015189249212377 -0.6133568361694546 -0.26950837444902664 -0.16003248665450087 0.12944243791431762 -0.09495438201148904 -0.2235512909428872 0.6729428117228025

gru.weight_hh_l0 f8 [96, 32]
00000000: cd13 0aff 07a1 c63f 17b5 4584 f436 ab3f
00000010: e7ed 749a e0ce c53f dac9 bb7d 6c89 883f
00000020: caf4 7a18 d492 80bf 593e e2fd db48 cdbf
00000030: 9d8d 7605 625e 8bbf d046 4f22 a119 d1bf
00000040: 5a85 e811 d8be c73f 10e7 df82 3719 c0bf
00000050: ad9b 6ad2 6376 c7bf 9363 5de4 edd8 c93f
00000060: 4069 15a4 8c88 a63f 8369 aed8 0b6d ae3f
00000070: 2aaf 2c01 28db cbbf 1a1c d976 57b5 bfbf
00000080: c516 2ebf c43c 94bf c546 9a14 cda7 c8bf
00000090: e364 daaf ab5d a8bf 9793 cbb8 a22e d4bf
000000a0: b376 07d1 e3c0 a93f f109 9b19 c5d8 b53f
000000b0: b644 b1fb b98e d0bf 9202 2922 f744 d63f
000000c0: 2675 3cbb c604 a9bf 62fa 4741 22b9 d03f
000000d0: b644 9a03 1789 c03f a218 6310 8b7f c53f
000000e0: 4972 fcdf 2fbe bf3f fc3c 5fbe e310 c93f
000000f0: 623d 7a46 31e7 c63f 8ed9 18fa ea43 d13f
00000100: f468 b2b9 fee6 b13f c132 647e 816c 813f
00000110: 0f1a 90f8 8a58 c13f 3580 37aa 9ec9 a33f
00000120: e500 1844 6207 b4bf 8845 bb24 3ebd c2bf
00000130: 6ed2 11fa a81c c0bf 19da 3990 76a1 d1bf
00000140: 7967 59d1 8c07 d83f e59c a3c8 f4bd 70bf
00000150: 278b 5e45 8d39 cebf c930 0749 f521 87bf
00000160: c3f3 b880 9a8c cb3f f4d4 45a6 9fa3 953f
00000170: beb0 58b5 1d30 ccbf c1f8 9330 6790 b33f
00000180: 2a04 4cd4 5d5f d33f 2466 e0ee 7c4b c0bf
00000190: 8d7f 2359 02f2 d2bf 7bd7 3487 c01e d4bf
000001a0: d6a1 8885 1b41 bd3f 4d7b c498 b927 d93f
000001b0: ebd1 7967 88a5 9ebf af75 5a8a 08b8 e53f
000001c0: b989 aa67 8569 b93f 737f 001a 206b d53f
000001d0: 6f71 98eb 032e c4bf 153b 4c72 1769 d73f
000001e0: 465d 92c4 c030 b7bf 576f a3e2 ac7c c73f
000001f0: 7f76 fcbe 5464 c73f 9539 3c67 e6c8 c63f
00000200: 6654 f173 87ba ab3f c461 9ca3 a3eb b73f
00000210: aea5 b544 406f 9dbf 1e25 0bcb 8bce bdbf
00000220: 43c7 e910 0abd b73f 904a 4e24 0490 a5bf
00000230: 9d82 331d 2ec5 c23f b30c 2dc5 bdcf c03f
00000240: 41ac 83ff 92e2 b03f c3f9 04f2 6dad c2bf
00000250: d491 8ab7 6de2 babf 08a4 579b 6bd4 a9bf
00000260: 21b7 c16a 2733 9e3f d4fc 256b 1c17 c1bf
00000270: fce0 1d6d b544 a03f a40e 9649 89a5 b33f
00000280: bd43 efa9 f07b cbbf 0c9b 5648 81e8 cf3f
00000290: a0ce 7191 848d a93f 4a6b d9f3 fc52 c03f
000002a0: ca45 275a 227c c43f 30e3 1274 ec40 bbbf
000002b0: b85c d155 bfa4 c0bf 9e40 68cb f47f 6a3f
000002c0: 3f3b 7543 0b26 c73f e9cb 45a6 07d8 c0bf
000002d0: c96c 2d06 a559 b6bf 6353 9be7 1651 c9bf
000002e0: 8d11 523f ea25 d03f e7a8 034c 5550 b5bf
000002f0: 4721 8f9e 6f5d 993f 02aa 2ac0 f50b c13f
00000300: e167 c17c 6384 cb3f 5b0a cc70 dc57 ccbf
00000310: 53bc a2e9 c96a cfbf 8616 b311 ffe6 c5bf
00000320: b7c5 99b6 e049 92bf 672d 85c2 4e24 c3bf
00000330: f8a7 3c0e 25c0 c53f 2001 d9ff c08e c6bf
00000340: b103 577d 187a c83f 0c5f 1605 26b6 bdbf
00000350: 074f 2ec5 4943 6a3f 9d83 8733 c363 ae3f
00000360: a979 4394 4cb3 c7bf 6242 52c2 d176 c1bf
00000370: 3c98 f0a9 649c d2bf a768 0a7e 3307 d8bf
00000380: bf48 b7ed e79e 97bf 0640 fb1b 810e adbf
00000390: 1ada 9fe7 11d9 b53f a817 0334 b6ef b5bf
000003a0: 15f2 c8c9 23b2 a2bf 652c a23c 79fc c43f
000003b0: cfd6 aaef ac30 c7bf 4aa9 616f 58a2 dc3f
000003c0: 0435 b891 36d0 b5bf 0544 7986 c47e c33f
000003d0: c4c8 9f84 e449 b43f 2557 6a5b a099 d13f
000003e0: 93af f5f6 35f4 cb3f 0c88 2dd4 555b c7bf
000003f0: c036 65c3 24db ce3f 4a4b 7407 ea63 c3bf
00000400: e424 860d 0d0f a43f 490f 300c 2b38 b13f
00000410: 634c e1b2 047c d63f 330c 9677 8515 b5bf
00000420: b970 8b9c 068f cbbf 80e4 9f01 3f16 a6bf
00000430: 14a4 5cf8 87fa d0bf 1e92 58e2 b16b cfbf
00000440: d1bb 8463 d906 b03f 053e 8d9c 7811 c8bf
00000450: 3470 d6eb 97a8 a73f eeea 895b 45ce b4bf
00000460: efc9 a8c9 e752 cd3f e5d4 4993 2c64 c63f
00000470: baae fcd5 6ed8 d1bf 66d3 7b48 a062 c23f
00000480: 3317 d03a c3d6 c8bf 2cc5 da76 ef00 d3bf
00000490: f24d b13d 6d9b d2bf 6c11 66d4 b32c e0bf
000004a0: 4cd9 7d60 ca62 cd3f 732c 5f3e e1b4 d13f
000004b0: 9362 a2a5 4293 b7bf b9c3 5d4a 8645 d83f
000004c0: 96e3 60bf 44d7 d0bf 99f9 5cef 9200 c73f
000004d0: 44c8 b939 a5d2 cc3f 71e7 169a 5f28 b23f
000004e0: fd5e 9b68 cf67 c3bf fbfe 18ac 12bf c3bf
000004f0: 06e6 43d8 2ccc aa3f 39ac e9a7 6c24 c83f
00000500: 9555 3c94 5248 c13f e43f a0be 9a48 c4bf
00000510: eff6 3634 5aaf c43f ac97 a381 e48a afbf
00000520: 51c7 7542 8ac8 c5bf eeee b368 59bb acbf
00000530: a767 32ac e83a be3f aa5c 93a0 fc25 aabf
00000540: e18e a4e2 1a3b c73f 395f 4fca 801b 973f
00000550: 32c8 8259 50e6 c6bf 5bf2 8ecd cc7d c23f
00000560: c085 667c ddf8 913f ce00 77dc e228 b33f
00000570: d53d b06e fb0d cfbf dca1 2cbe fdc1 b9bf
00000580: fb86 af55 2147 b73f ba3f 649c 3cf0 803f
00000590: 394d 6175 f808 d3bf bcf8 445c f73d 953f
000005a0: f041 543f f322 b73f f239 008e b964 d13f
000005b0: 53ef 7e33 6785 98bf 5688 5ad0 4e41 dc3f
000005c0: 9037 d67d a81b cbbf 6384 2af3 34f4 d03f
000005d0: b15a 68a0 e91d bf3f 6480 8a13 f821 d13f
000005e0: 978d 927b 9a48 683f f269 f8ee 6244 b8bf
000005f0: 3754 4395 69ab c03f a9e5 6990 4c5b bd3f
00000600: 3852 334e e0f0 c23f 3eba 61b6 f257 ac3f
00000610: 3262 12f6 7193 babf c356 d721 84c3 bdbf
00000620: eb08 340c 2c05 d0bf 1084 8dc2 1eec 9f3f
00000630: 2e63 036e 5f46 bfbf 6032 46e0 f651 b2bf
00000640: 3c7c ae01 6e42 c8bf db78 eab6 034b c03f
00000650: 6be1 2ab6 6d1c 94bf 015b eb8a 7064 d53f
00000660: 2c1f 570b 6a68 cb3f 68cf 83ad 524d c9bf
00000670: 0ab2 46b5 8b3f 9a3f 5776 4fbe d3d4 d3bf
00000680: 17f9 65ba 6bb6 c0bf dc69 6ab2 4eeb d13f
00000690: 7d95 7a5f a14d bdbf bde3 9f2a 3232 ad3f
000006a0: 3e08 e9be 3ffb bf3f 673c 4a8e c0f0 b3bf
000006b0: 5125 7cdf 33de cebf 7286 961d c762 c8bf
000006c0: 4362 34d0 4b3f b3bf 7739 b7f5 7eef b4bf
000006d0: 307f 0f7a ee9b c43f ae22 d31a 6d11 b8bf
000006e0: 6673 c717 b840 453f b6f0 be55 fd21 d0bf
000006f0: ae8d 158a d4b5 c83f 00be 664c 55b8 b1bf
00000700: c107 5df5 91a3 d23f aec7 b21c 15a8 c1bf
00000710: 248d 468e 2ecb a9bf bf5f ccee 27f4 c7bf
00000720: 9b0b 2d57 ebc3 b73f 3d65 4686 4499 c2bf
00000730: 3a7d b1e3 8850 c63f 397e 0f93 6287 ad3f
00000740: 6a00 a038 65f9 bbbf 1b3c 0e98 5727 a23f
00000750: 29c0 faf4 4902 5fbf 970f 60ac e529 6c3f
00000760: b66b abac 7db8 9bbf afea 811a 39ce c8bf
00000770: 4d5e 81c6 4a96 9e3f 776e 8853 0a76 77bf
00000780: 2cc7 317c 7cff c3bf 3632 b48d fd5b c13f
00000790: 9678 da1d 9b2c a23f 23a8 7c9a a943 d43f
000007a0: 992e 057a d1c7 a4bf 17fe cb69 3490 d3bf
000007b0: 84cb 2b2a beff b9bf cbca 3207 822b d1bf
000007c0: e661 43ff 023a d0bf db89 58d2 7a10 cfbf
000007d0: 06e9 4afd 6d87 af3f bd78 b01d d464 ae3f
000007e0: a0dc cfd8 0f68 c1bf 362a 163d fead c6bf
000007f0: 6b7b b748 16eb 98bf f897 7d18 407a a4bf
0.1767892833051107 0.053153649469871826 0.1703758958991408 0.011980865084727666 -0.008092553135947606 -0.22878599068325192 -0.013363614837379962 -0.2671892962508595
0.18551159738948791 -0.12576955690729408 -0.18330047392120488 0.20193265581727057 0.04401053908323371 0.059425707054475495 -0.21762561852789847 -0.1238608040958841
-0.01976306359167414 -0.19262088304508587 -0.04758965036053 -0.31534641310127526 0.05029975821137835 0.08533889651429384 -0.2587113340314987 0.3479593118281993
-0.048864565235115884 0.26129967093576145 0.12918365169438112 0.16795481014395813 0.12399577349101167 0.19582793040760993 0.17893043462070596 0.26977037833730655
0.06993095430007995 0.008507739705714614 0.1355146135030769 0.03864761188356206 -0.07823766863294031 -0.14640023034602856 -0.12587463579588437 -0.2754799278694989
0.37546081966649286 -0.0040874063363169665 -0.23613134276555423 -0.011295238772526155 0.21522837910916168 0.021131987117276332 -0.22021838526541687 0.07642216621386223
0.30269571048853783 -0.12730371154684506 -0.2960210676665092 -0.31437695697547213 0.11427471170521328 0.3930496208067112 -0.02992833262983822 0.6787150099004772
0.09926637440597731 0.33466341532947935 -0.15765427592931355 0.36578928148166884 -0.09058766173472063 0.18349228922204006 0.18274936032769415 0.17800598183425778
0.05415747919384088 0.09343931908040931 -0.028744701570223512 -0.11643289286725575 0.09272826111717074 -0.04211438124834388 0.1466424601158182 0.13133976104481845
0.06595724809783211 -0.14591764752726818 -0.10501752596844166 -0.050448763573349764 0.029492011919891262 -0.13351779205183922 0.03177420575133458 0.07674463316475993
-0.21471985147084452 0.2492829898084995 0.04990782046743658 0.12753259569839265 0.16003827478429705 -0.10645940622169969 -0.1300276917488412 0.0032348424094906366
0.18084851068348404 -0.1315927087667597 -0.08730536843124805 -0.19778715428278834 0.25231414970064564 -0.08325703721826337 0.024770492603950058 0.13317748911988764
0.2149776801259682 -0.22143130786578777 -0.24544643314354406 -0.17111194957958648 -0.01785994638925611 -0.1495455217176229 0.16992629237330426 -0.1762315034157007
0.19122606392013844 -0.11606061577037624 0.0032059136223753257 0.05935487751026545 -0.18515927543098812 -0.13643857944818466 -0.29079548450170356 -0.37543952282579557
-0.02306711567309416 -0.056751284280494516 0.08534347443478688 -0.08568896074129262 -0.03651534879870525 0.1639548822462046 -0.1811729593516049 0.4474087798795564
-0.08520833070379658 0.15230614248369548 0.07925251233953917 0.2750016110161247 0.2183902221544228 -0.18247483120200092 0.2410627321318568 -0.15148663867929663
0.03917732992256065 0.06726330802490312 0.35131947964436544 -0.08235963983138177 -0.2153023018244136 -0.04313847441512397 -0.26529120687570296 -0.2454740863041857
0.06260451011324554 -0.1880331768429501 0.04620814088704642 -0.08127244458038849 0.22909257265708002 0.1749320716077484 -0.27883501908466324 0.14363482989542858
-0.1940540349170817 -0.29693209273235044 -0.29073649429957904 -0.5054568432247328 0.2295773478651405 0.2766650303935371 -0.09209076446348723 0.37924344312983355
-0.2631389492922208 0.1797050160184426 0.22517838781965527 0.07092854988050391 -0.15160553558120418 -0.15426858332829582 0.05233898296314625 0.1886115856062547
0.13501960981436115 -0.15846571262272768 0.1616013293223015 -0.06160654146678665 -0.17018249745484096 -0.056116861373053925 0.11808637813592658 -0.05107106647636191
0.18149124208968373 0.022565853450799287 -0.17890362139365973 0.1444641116812758 0.017550907819559702 0.07484262354319357 -0.24261420159062533 -0.10061632054260577
0.09092911092696092 0.00827071525830535 -0.29742251837633976 0.02074419499080514 0.09037704750176778 0.27177275531076284 -0.023946392553383444 0.441486075849871
-0.21178156036733897 0.26490520235717535 0.1215501801128578 0.2676983061628617 0.0029643075218516823 -0.09479349455106226 0.1302310923407803 0.11467436338161598
0.14797595804579244 0.05535849071826647 -0.10381233461010522 -0.11626458955955869 -0.250315677563903 0.031174164413986516 -0.1221675532900803 -0.07156317687458502
-0.18952727396114877 0.1272892611641002 -0.01963969635355182 0.33425534788459293 0.2141239695904401 -0.1976722094765322 0.025633032740801233 -0.30986493668556164
-0.1305670414112192 0.2799870245304683 -0.11446579533602193 0.057023589804834775 0.12492750559707219 -0.07789233659626547 -0.241156086085804 -0.19051445908285164
-0.07518457253571235 -0.08177941798132858 0.1610086532591537 -0.09401590256596634 0.0006485842600870539 -0.2520745599138182 0.1930490183104729 -0.0692189513708783
0.2912335296751927 -0.13794196988379553 -0.050378279559732314 -0.18713854942393301 0.09283324125594421 -0.14530235821147555 0.17433272474134204 0.05767353100941048
-0.10927422172972148 0.03545640689036863 -0.0018926355586863597 0.0034379468734204266 -0.027070964492718473 -0.19379342836676502 0.029870193830303916 -0.005727806412803119
-0.1562343222063246 0.13561982554564772 0.03549656619473855 0.3166297920857934 -0.04058699240212355 -0.30567655879710415 -0.10155857591216316 -0.268280512838072
-0.25354075363205053 -0.24269042273324612 0.06158012120200067 0.05936301100176553 -0.13598821722527976 -0.17718484862082712 -0.024334285915638725 -0.039995196332526406

gru.bias_ih_l0 f8 [96]
00000000: 4d8d d0ac 79bc c43f 72b3 931b 83e8 c43f
00000010: 444e d5a6 842c b8bf 86ac 505f 26a6 c53f
00000020: 208f 0d06 ceaf cb3f 6b2b 483b 2759 ab3f
00000030: d68c a779 f0dc 8c3f 067d 6710 6c0d c13f
00000040: 899a 9a18 9ae0 cbbf 7acf 4335 8796 b83f
00000050: 04bc 6ec8 4dab c03f 7c32 445c 2e2e af3f
00000060: 673b 120c 09bc c93f 30c5 1fd5 e85c c03f
00000070: 93cb 30d8 8b45 d13f d1d1 0f36 3083 833f
00000080: c91d 8e93 eb7b cd3f ce32 b3c5 9a6b 9abf
00000090: 12cc b602 dc52 c3bf dfd3 b022 0254 c03f
000000a0: 8530 a2c3 701c aebf 36d4 6b68 afed c7bf
000000b0: a68e 828a 7c3f b0bf 67e4 a948 e278 babf
000000c0: 5f0f aaa6 30ac cd3f e73c 7d86 943a a93f
000000d0: ca2b 1a23 3d97 ca3f 4358 bf57 59d0 cf3f
000000e0: 3f05 daf4 ce48 bc3f c0ff 9c4a 8425 c33f
000000f0: 4fd8 6a19 1f49 c43f 55e9 2d5d 1415 c23f
00000100: a89b 33f8 c880 e3bf cde5 d933 f93b d1bf
00000110: 625a f508 9f84 df3f 9ac4 5b8b 1d25 b0bf
00000120: 3889 c7e9 c6d0 ce3f 83d7 281e 5691 cf3f
00000130: 34ef 0e09 19c1 d63f cc9e 7bbf fbbc c93f
00000140: d720 e052 a05c c73f 7702 7b7a c17b e3bf
00000150: f779 fc67 ff7d de3f e9f0 406c ce97 c53f
00000160: 616a ebf7 0a8f d13f 4bc9 e0b1 35d1 d3bf
00000170: 9322 346d 2bcd c53f ca13 da7a 9ae9 c9bf
00000180: b6d6 8c94 1590 d03f 0e33 d4e1 1538 c83f
00000190: a8bb 5fe1 0b53 d33f 7ac7 4c09 82b1 d43f
000001a0: 6e93 24dd b2a4 d13f 9486 2520 daef d03f
000001b0: 7988 7b2a f6d8 d9bf d93d 2d9f d460 d63f
000001c0: 875a 0214 71d2 dbbf d464 d5d8 607a 9e3f
000001d0: 56d1 536b d7f4 d1bf fe88 d41e 7fb7 cf3f
000001e0: e90b f882 916a c23f 4170 66a8 b965 bd3f
000001f0: 31cb 348c 3fc8 d4bf d4f8 0b2c 0bed c13f
00000200: e1d9 b41e b80c b63f 77fc 04b0 0a84 bc3f
00000210: ba6a ef00 d101 abbf e078 ba46 26c0 94bf
00000220: d7f5 35f2 d24b 74bf d95f 1fe6 a28b a53f
00000230: beeb 3890 da03 c2bf 2b89 32fe 76c9 9dbf
00000240: 6870 1063 bbae 993f c3a9 ee93 f36f 85bf
00000250: 9f34 668a c331 c3bf 14bc e22c 5466 653f
00000260: 178d 25ef c75a b73f 590a 4085 9ce6 c0bf
00000270: 1b22 7c34 e9a1 c0bf 25f0 ae9d 70f1 c5bf
00000280: 077d 7fb1 25c7 a83f 840c d54f bf07 c03f
00000290: bdf7 8b34 d29a c2bf 483b 3468 e2af 913f
000002a0: 62b8 d80c cb10 c13f 33fa 9648 6988 b33f
000002b0: 4198 beb2 b9f7 bdbf e8cb 279f c220 c5bf
000002c0: cc9a 9477 d070 b0bf 4b8c c7fe d29b b8bf
000002d0: 1263 f73c 0d3a c03f 63c6 e7b5 3306 a83f
000002e0: a0c1 0e40 aff7 b23f 451f e7ab cdd0 c3bf
000002f0: b96b ad76 6173 cb3f 86aa 1ef5 9b1b a0bf
0.16200180948463086 0.1633457073834524 -0.09442929337574762 0.16913299230632023 0.216302636104154 0.05341456030517729 0.014093283379173743 0.13322211075772133
-0.21779180718768412 0.09604687738811704 0.13022777830835264 0.06089920879648944 0.2010508831922053 0.12783537298631975 0.2698697673069372 0.009527565622172414
0.2303442450031368 -0.02580110389389994 -0.15096616871377982 0.12756373113521044 -0.05881073368172544 -0.18694107626620998 -0.06346872693625957 -0.10340704225554163
0.23181732309250955 0.04927505628313061 0.20774044240928752 0.24854580673735613 0.11048596837828926 0.14958242076136052 0.1584814905269831 0.14126829671642818
-0.6094708297431355 -0.26928548873510466 0.49246955752224697 -0.06306633617693294 0.2407463685513649 0.24662281487115587 0.3555357540569617 0.20107981538534714
0.18251422926574065 -0.6088569061467543 0.47644028811364997 0.16869526182006858 0.2743556424226537 -0.3096441495028059 0.1703237803669891 -0.20244151114107317
0.25879420763827043 0.18921159292985873 0.30194375046897415 0.3233342257327575 0.2756774100874314 0.2646394075328342 -0.4038672842854179 0.34966006798364685
-0.4347193427469524 0.029763711199255763 -0.2805689380759494 0.2477873707330857 0.1438772096153962 0.11483345376331135 -0.32472218219770627 0.1400464978286836
0.08613157987279109 0.11138979718542595 -0.05274823318878448 -0.020264242236060492 -0.00495512390932392 0.042080965605862004 -0.1407426075182609 -0.029088839783647884
0.025080612107658246 -0.010467436744723174 -0.14995617158675587 0.0026122707414155764 0.09122895802061169 -0.13203770166735998 -0.1299411302827743 -0.17143066119558728
0.048394372861134065 0.12523642919595457 -0.14534976545104242 0.017272508249387003 0.1333249867179261 0.07630022070132085 -0.11706123937492043 -0.16506226321470696
-0.06422140998311504 -0.09612768860056169 0.12677159764168572 0.04692231746220157 0.07409186662585521 -0.15480967420284678 0.2144586400489439 -0.03146064154801302

gru.bias_hh_l0 f8 [96]
00000000: 458d d00c 53d4 ca3f aacd 4eee ecfa a23f
00000010: 314e d546 e117 b0bf fd58 a13e c1f3 bc3f
00000020: fb8e 0d26 616b c03f 040b d2ae ce84 c63f
00000030: 93f1 340f 4680 b63f ff7c 6710 637b c03f
00000040: 8e9a 9ad8 48e5 c6bf 6fcf 43f5 4a8b b33f
00000050: b50f 45de b573 a6bf cc6c de1d 09d1 70bf
00000060: 0a26 71fb 9cfb 6abf 8d75 c0d5 48cf bebf
00000070: 1697 6170 3dd3 c23f 2efd 6093 88e5 c93f
00000080: e70e c7f9 5aff d23f 8f9a 9974 2605 803f
00000090: 13cc b6c2 2816 cabf 6758 9e5a 27f7 b5bf
000000a0: 4918 d1e1 45d2 b1bf 9088 7a0d 1164 77bf
000000b0: b38e 824a 2e69 b9bf 9d0d ab9b 477f c53f
000000c0: e285 afca 552e 9dbf 7b9e 3e03 ac18 b73f
000000d0: 600f 7539 9786 6abf 0a61 fdde d8d3 a63f
000000e0: 8e02 6d3a 2f12 c33f d8fc e754 e2ee 943f
000000f0: e860 ab65 334b a33f 4f2d a405 0f3a b9bf
00000100: 5b37 67c8 11d5 debf e0f2 ecd1 2a84 e1bf
00000110: 605a f5f8 2d8f dd3f 613b a434 8415 b73f
00000120: 7a12 8f93 dcbe b73f c06b 14af 694e d13f
00000130: 74de 1de2 cbb2 cd3f cd9e 7b4f 3937 cf3f
00000140: 5f10 7059 d76b da3f 7a02 7b92 8deb e5bf
00000150: 00f4 f8ef 873e cb3f 8e78 202e 35d8 d63f
00000160: aad4 d6df 33f0 c83f ac92 c1a3 29d6 c8bf
00000170: 7722 342d dd83 cd3f e609 6ddd e65d d6bf
00000180: ac5a 33d2 f742 bd3f c6cb 5007 3050 ab3f
00000190: aabb 5fe1 f0d7 d33f 80c7 4c09 65ba d63f
000001a0: 6793 24fd 1f54 d23f 920d 4be0 4f27 c93f
000001b0: 7888 7b1a 5fe0 d8bf dc3d 2def 35dc d63f
000001c0: 895a 0234 1c81 dbbf 3156 8d6d f48f d03f
000001d0: 95a2 a776 7686 cbbf ed88 d44e 651c cc3f
000001e0: ef05 7ce9 ba01 d33f 1e9c 19aa dc4a d93f
000001f0: 8265 1a76 de5b e4bf d8f8 0b6c 7494 c13f
00000200: 7291 1a96 4b51 c13f 6454 9c54 32d8 77bf
00000210: 0fbd 8955 f53d 813f 8b76 02e5 c434 b8bf
00000220: 9de7 2a21 c759 c9bf 0ec3 0059 af22 acbf
00000230: 4f4f 5be9 ff9f bbbf 8d68 d11b 0a07 b73f
00000240: dd2a 50b8 8c14 adbf 4093 391b 89f0 d2bf
00000250: 416e 6e39 15eb adbf 2e5a 3f9e c9ff c03f
00000260: bc30 0e47 a8b4 6a3f 611e de29 3ae5 b73f
00000270: 2107 fec6 6c27 ac3f f5f7 75ac 3332 aebf
00000280: 5eac 7659 7b4b c2bf 9c9a 2960 1183 b33f
00000290: 4ba6 7122 b1ab b33f e2be 5561 8668 c73f
000002a0: f42e 6274 2b38 b53f a4da d93b 9030 b63f
000002b0: 54f8 28bb 33bc 78bf 7f1d 488b 0449 7abf
000002c0: 6a99 aa40 d69c a7bf 97e5 783c b525 b3bf
000002d0: d8e7 7bdf 2207 b93f e7e4 2787 46d8 b6bf
000002e0: 46c7 ed3b db4b b03f d955 ec41 bba7 c43f
000002f0: af02 7b37 8daf b8bf e75f aaca 8627 bcbf
0.20960462690082174 0.03707065972357822 -0.06286437968565718 0.11309440402087385 0.12827696188025314 0.1759279588332775 0.0878948008657459 0.12876547146786518
-0.17887220932353326 0.07634418952858167 -0.04385155046705284 -0.004105601894390531 -0.003293806653833502 -0.12035041063832903 0.14707153308261728 0.20231730648263507
0.2968356551393598 0.007822323258733803 -0.20380124576112787 -0.0858025165783559 -0.06961476100068 -0.005710665332715817 -0.09926118201343108 0.16794676877007655
-0.028497066970777037 0.090220213691845 -0.0032380059816733836 0.044585015507154394 0.14899244644950155 0.020442520553839966 0.037683111344166964 -0.09854215514876795
-0.4817547280371081 -0.5473836994275096 0.4618639880403972 0.09017206463998441 0.09275606729995359 0.270410939194047 0.23201893368581106 0.24387279873848514
0.41283210500865225 -0.6850040303180116 0.21284579484373012 0.3569462728936593 0.19483040265700896 -0.19403572555451853 0.230586669036956 -0.3494813120234127
0.11430310136652605 0.053346157925623625 0.3100549889485885 0.3551266280002139 0.2863845798586255 0.1965122075253985 -0.3886945494288123 0.35719059331037584
-0.42975525931380126 0.2587863035053913 -0.21504097741787534 0.2196165690339237 0.29698059846131647 0.39519421206790806 -0.6362144762708086 0.13734298015328394
0.13529343442236158 -0.005821415523105864 0.008418957398332453 -0.09455519286208351 -0.19805230254661135 -0.054952125181790476 -0.10791015097794097 0.08995116404676846
-0.05679740667263442 -0.29593112620050377 -0.058434165249505295 0.1328060171787952 0.0032599722548579384 0.09334147951278161 0.05498828820328883 -0.05897675972208553
-0.1429285227617098 0.07621868703572904 0.07683856097141832 0.18287734749491508 0.0828883322848773 0.08667851887899275 -0.006038858484826621 -0.0064172914030743424
-0.04611844577202613 -0.0747941277158105 0.09776514011528492 -0.08923760223105469 0.06365747655015949 0.16136875838189615 -0.09642870525841361 -0.10997812698258223

gru.weight_ih_l0_reverse f8 [96, 6]
00000000: 9f8b eaaa 324a b6bf 5129 8b7e 81b9 bbbf
00000010: f3e8 ecfd cc4f ddbf 874a 12b2 7adc c9bf
00000020: 2729 eccf 443a d73f 4703 eb53 ce49 d33f
00000030: 47e2 7bd2 8271 b83f f737 d424 72b8 e1bf
00000040: 2682 0c1f 360c c03f 7a02 2a16 e012 993f
00000050: 7ae3 3e24 bc31 d3bf 7155 547c 2965 c43f
00000060: d2c1 3540 860d c2bf f244 fc2b beba c7bf
00000070: bcad c20f d279 e2bf 8f5e ecf9 50a9 b13f
00000080: f7b3 cd37 f41c d03f 7f55 b501 cb42 cf3f
00000090: 0654 49ff e275 be3f ab67 5d06 980d d0bf
000000a0: 24b7 c280 8722 a0bf cd7f 5290 7e5a a9bf
000000b0: 761e b614 e6f4 d3bf f4a5 6e49 1a49 d2bf
000000c0: 85e0 ca32 d3be aebf f3c5 095c 73ab b23f
000000d0: 5c7f 3507 fd31 e0bf 46ea 81ab a753 a43f
000000e0: fb93 6dd0 05f9 de3f b7da 5cb2 5843 ba3f
000000f0: 1d5d 7e49 806a b73f 83ad 291e 6a6b 87bf
00000100: e429 c908 39f3 d9bf fcb4 b9c3 3885 b63f
00000110: 768c 5bc9 b2d5 e23f da8a 1043 b824 e13f
00000120: 6349 f39a d87a b03f 2049 a5cc a347 b63f
00000130: d3b7 1e64 aa1c debf 530f 22dc 561b c03f
00000140: b9db cbd2 11aa d83f 83a6 8b4b 682c c7bf
00000150: 8e41 2fdf 7981 b7bf fa71 eb27 f11d e1bf
00000160: fc3d cc6c 50a1 e8bf a44c a96d d56e a03f
00000170: f858 723e 7cbc b5bf 1d03 1999 04ad d7bf
00000180: b44d adec f2f3 adbf beb9 25da 3284 df3f
00000190: 4d45 cdb5 5b3a e23f a931 703a 4adc b1bf
000001a0: fea0 2cc8 2cb8 d63f 42a8 2796 17d8 d33f
000001b0: 8f7f 183a 623c ccbf b4ac d26d 8ed0 dabf
000001c0: 82b3 da00 c3fe e1bf bc00 5821 54c0 c4bf
000001d0: 834c 6d5d 33dd d63f 28ab e245 a895 dd3f
000001e0: e7d2 bafb 617e c2bf 376a f00b 423f e9bf
000001f0: 3907 0eb4 c95f dcbf b84e 1321 1aba babf
00000200: 200b efdf a645 b7bf 50ca cbfe 7b38 b83f
00000210: 0592 b985 3eec a73f 2ff0 f155 dfd3 d9bf
00000220: 5476 bacd 8cc8 c23f 3dae 30e4 aa5c aa3f
00000230: a467 2e53 3804 d8bf 030e 63f1 71ea e0bf
00000240: f3f0 01ac a7a3 b93f 8085 d864 e9d9 e3bf
00000250: fd8a 9672 3c52 c23f 52a0 c8c8 8ee9 c23f
00000260: 4a23 fa38 c83b d6bf dfb5 ca49 c5ed c3bf
00000270: 9645 c3ee f8da c5bf 341e 0ae4 42d1 efbf
00000280: 22c4 3ddc bab7 f1bf c390 0f2f 4e81 c4bf
00000290: 380d 140b 6844 bb3f 7222 e7f7 bc9c b43f
000002a0: 339e 75b9 010e b33f 243b 8ba1 a487 da3f
000002b0: 985d d787 1b33 ec3f d3ab 6ce2 8ef1 c83f
000002c0: 3899 41a2 1dbf e9bf 9df9 dd50 ad03 d8bf
000002d0: 5760 4be6 984c 97bf b037 a4d8 a97f e2bf
000002e0: 1e78 c4f1 9f52 ecbf 8ede b9b8 1c92 b03f
000002f0: 0116 9b6e b840 9b3f dd2d 836c 0ba9 d1bf
00000300: 7ffb 0b09 136a b3bf 7d5c fc19 a303 c3bf
00000310: cd51 eadd 6744 e1bf 65b4 8d9f e9fa ccbf
00000320: 7899 0e5a 8a03 d23f b38f c3f2 b5ec ce3f
00000330: 9cb8 36ca 3e5e c6bf 9fe5 7c55 e7d7 d03f
00000340: 98ab d6f3 b54d dfbf 4262 ec97 68da 843f
00000350: de2c 4e56 a135 f03f a2af ed19 86a5 e03f
00000360: 313b dbb5 7b48 b83f 979c fe90 d906 e53f
00000370: 8ad0 969e 9981 ec3f 0475 bedc 7d0b c6bf
00000380: 5400 bf49 1939 dcbf b0f9 4332 afc5 d0bf
00000390: fd9e 8cbe dc32 b2bf 61eb 2915 5dbc b63f
000003a0: 9c00 fb65 7a0d 80bf f555 0c53 1c14 b8bf
000003b0: 7221 5743 0ec0 c6bf cde7 c5af fbaf c2bf
000003c0: 869e 1d46 a0b2 c23f 3482 7bff 529b d53f
000003d0: 6dda 7186 59ea f03f 7f3b 52df ffae 853f
000003e0: d2a5 4f8c bdcd d8bf dbb9 ad9a afb7 c43f
000003f0: 9087 2118 5d78 b93f f8f6 5bf8 ce4f e9bf
00000400: bf4f af38 94a5 e8bf e873 8fa5 246a c03f
00000410: d478 e7fc 435f e2bf 8e67 79fb 8d49 c1bf
00000420: 2e03 7d14 43f9 83bf eade 45a0 dce1 ccbf
00000430: 333b 5100 9e1f 91bf b6a0 7a32 3a2a b7bf
00000440: 343c b236 c58f d7bf 83f1 3872 6d7d cbbf
00000450: 7d72 dd92 cbfd b53f 6926 061f ee28 e5bf
00000460: 24ab 4a32 4d3b d1bf 4130 9650 ea68 b8bf
00000470: 5b8e 7578 b7d1 c8bf 4363 017a 40fb d6bf
00000480: 06cf 5aea d83b c3bf 1fa6 ec74 878b dabf
00000490: dfcf 959b 43a9 e13f 720c e6a1 0cf5 973f
000004a0: cc7a cd68 7029 e7bf 09c0 eb66 484e bf3f
000004b0: f084 0407 3f03 c2bf b3a8 fe5e d675 d3bf
000004c0: 96f9 5ba6 aa30 efbf 33c9 6a29 554b a3bf
000004d0: 6eb0 10b3 649e e33f 2c7d 1bab a8f1 d73f
000004e0: ebc8 3e06 d548 b83f c899 43fd 173d e83f
000004f0: b163 84a9 8106 df3f 44fb ab84 7680 633f
00000500: 1892 4000 69cc d83f 535e d45e 6bd6 d33f
00000510: 894b 30a2 fdcd c3bf e6fa 96a1 c1b7 efbf
00000520: 42f5 58e2 1223 d0bf b118 44c7 c01e cebf
00000530: e6bd 15c2 984b b5bf e067 5d91 cb3b d03f
00000540: 2db8 b6bb 3374 ca3f e6b2 c02a 0d19 9c3f
00000550: 937e ac87 825a e03f d0cb 902c 738d ce3f
00000560: 304d fa43 b17e d3bf 24e6 4417 eb2d cfbf
00000570: b417 335d f5c4 8e3f d8d2 2df1 e9f1 c93f
00000580: 0e02 9f91 b19b e1bf a578 37fa 6037 b83f
00000590: 3017 5cce 49bc ed3f 1def dee2 0067 e73f
000005a0: d601 5d1a 3140 88bf 14dc 8a39 3412 afbf
000005b0: 66cc 9d01 5fc2 bf3f 5f24 ae4f 02e0 a0bf
000005c0: 10f2 fc00 0b28 d0bf 2802 0dbf ce47 a13f
000005d0: 9b6c b79f 9c62 c1bf 81f7 dd6c 0619 c63f
000005e0: a3cd 726b fbf1 dcbf 4c22 1abc a558 a7bf
000005f0: 9ffc 807e 17f3 e33f 3460 1859 f3ef b6bf
00000600: 5843 d747 4986 b23f 0316 d930 9aea c0bf
00000610: b053 ed94 80d9 c93f 9223 2d95 3391 903f
00000620: 1063 acbf 0e6d b93f 8084 7015 0adf e1bf
00000630: 4bcd b06c 43d7 c13f 98a4 5518 2dc8 d8bf
00000640: c4dc b216 ba8c e4bf 040a 1884 c244 b2bf
00000650: 0116 5b66 fe74 d23f 7c0d ceeb 4bf3 b0bf
00000660: eecf 6882 01e9 c83f b846 5152 7898 debf
00000670: 959d f46f f280 e9bf e7eb c732 37bc a73f
00000680: 24b1 2bbf d9a6 c03f 6e41 fedb 5688 dfbf
00000690: 63c9 201d 128c b23f 605a b27b e42c e6bf
000006a0: 55db b214 10c5 e9bf 1fb5 4c20 8d34 5abf
000006b0: 7d5a ce13 18b7 e03f ed1e 854b 06ce 98bf
000006c0: c79e 35bc d11d c53f ffcb 6db7 9762 d3bf
000006d0: e39c 8ac8 db1d d7bf 893c d66b 5eb0 8b3f
000006e0: 35d9 e02d abd5 e6bf d6eb b598 91fc c8bf
000006f0: ccdc d6ee 64fe d5bf b613 0083 8db5 d6bf
00000700: f396 cdfe 4fe9 bb3f 9a3c 4b7e 306d bfbf
00000710: 2b97 3391 3ad9 e5bf f05b 2930 1dc9 dabf
00000720: e6af 58d6 7b4e d13f 9b9f 83d3 8a3d b9bf
00000730: 8607 df24 a5a6 cebf bb72 856f 66d8 b43f
00000740: 12a5 b6df c0cc adbf 665a 3477 253c b23f
00000750: 38fb eed3 0cfb c2bf 7124 007e d4c3 ddbf
00000760: e476 74be 3f8f e9bf 3cac 6fc2 787d c8bf
00000770: 47c1 66d0 a9fc c43f 39fb b57c 3896 d3bf
00000780: 4b0f a004 2ea5 d0bf 88fe 5447 ddf6 e9bf
00000790: 734c 31d9 d98a dfbf 33ac c1b1 c1aa a6bf
000007a0: 4b3e 1fbf 820f aabf ded2 e586 e119 c9bf
000007b0: 0508 9c52 4f2d d7bf b104 7cb2 18c4 d7bf
000007c0: d2f3 8b9c 3c3c dcbf 9747 c217 4daf d2bf
000007d0: 7eb7 c234 5258 e5bf d7b7 aaf9 b70b debf
000007e0: 94a7 ca0e a58f c43f b76b 55d3 04a0 c1bf
000007f0: 1cb0 d5a1 bdcb d1bf 0a42 ae4c 5336 bd3f
-0.08706967041739098 -0.10829934443896617 -0.4579956512203715 -0.2020409936418057 0.36293144516879966 0.3013797587882902 0.09548204077499022 -0.5537653655353542
0.12537266269738828 0.024486066201009106 -0.2999105791055211 0.15933722086689842 -0.1410377324605308 -0.18538643977857522 -0.5773706729718735 0.06898981191295149
0.2517672104793855 0.24422586043753466 0.1189863084085375 -0.2508297025830141 -0.03151343771729234 -0.049518542401755995 -0.31182243368718987 -0.2857118336783906
-0.06004962916398519 0.0729286288931446 -0.506102098541287 0.03970073670003109 0.48394914011288365 0.10259012560423285 0.09146882814672037 -0.01143534569310734
-0.40547014101016843 0.08797030237629494 0.5885862286344394 0.5357323942046961 0.06437448294608354 0.08703063722831361 -0.4704996087774564 0.1258343291157141
0.38538022599771754 -0.1810427063822325 -0.091819397915293 -0.5349050311738772 -0.7696916699368894 0.0320955940593646 -0.08490730785920053 -0.36993517828891403
-0.058501807585936844 0.4924437647195211 0.5696238089387095 -0.06976760794368055 0.3549911455943543 0.3100642172199778 -0.22059276425079274 -0.41897927021882286
-0.5623488442121103 -0.16211940410722103 0.3572510158894106 0.4622593576884122 -0.14448189536565012 -0.7889719231782867 -0.4433464296672472 -0.10440219218736047
-0.09090655295498751 0.09461188288313704 0.04672427542098848 -0.4035566653544746 0.1467453007252738 0.05148824725651167 -0.3752575695340232 -0.528618785342076
0.10015342664150122 -0.6203505487102774 0.14313464732284578 0.1477526169194357 -0.3473988109986307 -0.1556936846076686 -0.17074500711764234 -0.9942945913216534
-1.107355938260533 -0.1601960878171039 0.10651254911868058 0.0805166344863524 0.07443247583216177 0.41452899719017666 0.8812387135648576 0.19487176948436388
-0.804579560190894 -0.3752244271962811 -0.022753132873589568 -0.5780839186934283 -0.8850860330601369 0.06472949514306434 0.02661407637676483 -0.27594266507068516
-0.07583731623524946 -0.14854849594914646 -0.5396003088267719 -0.2264072445936193 0.28146609110481036 0.2415988383646642 -0.17475113748281934 0.2631777129023138
-0.489118087886419 0.010182206283887333 1.0130933162025069 0.5202055460372217 0.0948560065255435 0.6570861656117754 0.8908203217929593 -0.1722256973124915
-0.4409850330521341 -0.26206569584601436 -0.07108859684069198 0.08881170050328314 -0.00783820747108193 -0.09405686404746645 -0.17773607528784968 -0.14599557955426548
0.1460762350427453 0.33760523747881455 1.0572142841098426 0.010587691309664525 -0.3875573988176174 0.16185565045039038 0.0994928535378945 -0.7909922457472183
-0.7702122790456015 0.12823923191072528 -0.5741290988478576 -0.1350572088147683 -0.009752773344759182 -0.2256427557547263 -0.01672217251717285 -0.09048808796308347
-0.3681500467436678 -0.21476524426715224 0.08590385757038095 -0.6612463575303994 -0.26924447928711204 -0.09535088031242457 -0.19390004522130053 -0.3590851966342152
-0.15026389544583924 -0.4147661821212711 0.5519121207021235 0.023395726567752857 -0.7238084837843757 0.12228825104443798 -0.14072406618746625 -0.3040672233279437
-0.9746907471851951 -0.03768411760883552 0.6130851266257318 0.37412468633370355 0.0948613300559235 0.7574577280582213 0.4847721248093491 0.0023805918511920227
0.3874762060607124 0.3099621225423778 -0.1547238389908581 -0.9911811977434268 -0.25214073280570315 -0.23531350831780665 -0.08318476427461227 0.2536496085718891
0.20667120614729254 0.027439313635272543 0.5110485696677237 0.23869170833640263 -0.3046076930852051 -0.24358881603420557 0.015024105936742284 0.20269512440031323
-0.5502555698549843 0.09459501370244768 0.9292344122374967 0.7313236647673623 -0.011841186158222532 -0.060685760521146076 0.12405961789572614 -0.03295905325564585
-0.2524440297745807 0.03375097353137263 -0.13582189367921135 0.1726387054040366 -0.45226941578877183 -0.04559820099990883 0.62342428882393 -0.08959885525871486
0.07236154560019992 -0.13215949425845971 0.20195014259175315 0.016178899745941396 0.09932033710027732 -0.5584764879933033 0.13938181693229476 -0.3872177827493686
-0.6421785777410141 -0.07136169171284484 0.2883907317703632 -0.06621241099315073 0.19461077563903423 -0.47805603064362456 -0.7969906031257091 0.046357846211286184
0.1300918754053636 -0.492696490132423 0.07244981013426392 -0.6929800430251127 -0.8053055195112885 -0.001599443262601703 0.5223503481709738 -0.024223421439528648
0.16497251214899775 -0.30289261734941414 -0.36119741996885874 0.013519990602416836 -0.7135826011715724 -0.19520778614591333 -0.3436519939818481 -0.3548311023044407
0.10902881594446594 -0.12275984843585022 -0.6827671848265927 -0.41852502539899117 0.27041526729840226 -0.09859531082076815 -0.23946060467102032 0.08142700407683894
-0.05820276957394745 0.07123026047006817 -0.14828644131008573 -0.4650775175546818 -0.7987364501784353 -0.19132909292179245 0.16396067310189208 -0.3060437410239732
-0.2600817723434729 -0.8113848107531831 -0.4928497906705111 -0.044271519612117415 -0.05089958746941344 -0.1961023243599333 -0.3621404940350888 -0.37134377889749276
-0.4411765602852117 -0.2919495327015453 -0.6670313864212714 -0.4694652498391156 0.16063369009253547 -0.13769588774706928 -0.27806034855052686 0.11411018964850697
