results/Bidirectional_GRU_Dropout_5_Long/models/checkpoints/7/Bidirectional_GRU_Dropout_5_Long-7-1450.pt (torch_old, 215083 bytes, 18 tensors)

gru.weight_ih_l0 f8 [96, 6]
000000 4a b7 15 2c 51 7a ca 3f ab f0 6e 17 ab 56 e0 bf
       0.20685782101230138 -0.5105796296770867
000010 3b 33 18 07 f4 bb f3 bf 7b 1f f5 25 3a 92 cc 3f
       -1.2333870198373933 0.22321249822038766
000020 70 69 d9 f6 27 38 ec bf b1 bc ca 2d 3e c2 e0 bf
       -0.8818549939417561 -0.5237112898229467
000030 8f ec 33 23 15 5c 92 bf d7 49 10 fc cf af c6 bf
       -0.017929392121896866 -0.1772403698710849
000040 9e cd 22 df 65 1f f6 3f 37 02 41 12 ea e7 9f bf
       1.3826655117271467 -0.031158120502597888
000050 05 b4 07 a2 7a 62 ea 3f 58 6f 5c 6d 0d b1 f3 3f
       0.8245213665628631 1.2307256957928612
000060 30 d5 c1 02 50 db b5 3f 1e fc 45 55 4e 73 e2 bf
       0.08537769381822069 -0.5765754380698842
000070 9a 87 74 2a 7a 80 dd bf 81 4d 23 ef c5 94 d2 3f
       -0.4609666266061311 0.290330394299609
000080 1e 71 6d dd c5 24 d3 3f a3 f2 b8 23 c2 e4 96 3f
       0.2991194403055192 0.0223570188811545
000090 2d 9e 28 5f 40 ed b8 bf cc 40 62 44 e9 cb e3 bf
       -0.09737016986093101 -0.618641503870117
0000a0 c7 b8 20 c8 05 b3 f0 bf b5 a6 14 c1 17 96 b5 bf
       -1.0437066857808064 -0.08432148422130122
0000b0 0a 22 02 2f 9e c0 f1 bf d2 b7 0a 1f da 9e f3 bf
       -1.109525855661675 -1.226282235390944
0000c0 21 bc c3 c9 1c 02 ba 3f f4 cd fa 6d 98 c7 dc 3f
       0.10159473348515792 0.44968233814435554
0000d0 ce f7 2f c9 0e 1a d0 3f 12 df 40 d0 a6 81 9f 3f
       0.25159043929295144 0.030768019161967315
0000e0 dc 23 69 b3 29 cb d5 bf 3e a6 62 6c 6d d7 c9 3f
       -0.3405250789697314 0.20188682358029725
0000f0 d8 61 61 94 d1 5c c6 bf 5a f9 67 d2 71 47 d9 bf
       -0.17470760102402383 -0.39498563334918446
000100 f2 d5 e3 92 fa 28 dd bf 5b 1c 31 67 cb db d7 bf
       -0.4556261476967328 -0.3727901942951967
000110 0b 91 15 cb 46 8b e1 bf 36 07 fb e8 8a 9e de bf
       -0.548251530312457 -0.4784266734314885
000120 2e 72 0e c8 85 25 cf 3f f8 47 e3 28 32 09 db bf
       0.24333259838466986 -0.422436275414952
000130 3f 9a 7a d3 c7 67 f7 bf e0 2f d2 a3 21 69 d3 3f
       -1.4628370533843194 0.3032917117895959
000140 62 5f 71 2e e4 33 dc bf f6 72 d9 4f c1 e7 f2 bf
       -0.44066719565807067 -1.1815808409803004
000150 f5 b4 db e1 97 bb d1 bf cc 28 ff d4 5e 5e bf 3f
       -0.27707478577106254 0.12253372860064643
000160 79 64 25 04 97 d2 f5 3f ea a5 9e d9 ce a1 cf bf
       1.3639135515170706 -0.24712548852885102
000170 96 27 62 f4 42 84 e8 3f ed 83 0d aa f7 70 e8 3f
       0.7661452077020268 0.7637899705260885
000180 59 2f 58 e8 ce a1 34 3f 3b 3e 08 4f 48 96 c3 bf
       0.0003148203034874973 -0.15302375658983344
000190 0f d9 43 6a a7 cd f7 bf 95 35 bf 19 8b d0 64 bf
       -1.4877084876039282 -0.0025408474739154288
0001a0 ad 67 58 09 eb 93 f0 bf 2d 5d 50 ac 87 e0 f3 bf
       -1.03611282015343 -1.2423168879520958
0001b0 2d 55 77 71 df 17 c5 3f a2 8f 6c fd 87 d8 f7 bf
       0.16479104080523524 -1.4903640651109318
0001c0 66 33 42 21 24 d3 ef 3f 58 ec 39 ca 04 e7 be 3f
       0.9945240640241593 0.12071256577648748
0001d0 ff 11 e8 2e c0 89 d3 bf 07 c3 c9 cb 4d a0 e0 3f
       -0.30528263645854276 0.5195683460461574
0001e0 49 28 61 ad 41 f7 c7 3f 3b 0f d6 4b 3d 03 d6 bf
       0.18723317113682672 -0.3439477196300122
0001f0 98 f7 49 e3 1d b2 f7 bf a6 12 7f 31 96 e9 c4 3f
       -1.4809855345224374 0.16337850014510485
000200 02 f3 8d 9d 88 1a de bf 3b 4f 61 ec 48 20 f1 bf
       -0.4703694857233104 -1.0703820451353312
000210 e0 81 65 b6 8e 8a d0 bf 13 36 65 94 06 10 f1 bf
       -0.2584568768707225 -1.0664125248616798
000220 b4 bf 56 e5 c2 77 e5 3f 22 cd 6c 34 47 10 da bf
       0.6708693007731115 -0.4072435390437069
000230 5c 98 cb e2 41 04 da bf 28 4c e5 3c dc bb ef 3f
       -0.4065098490522183 0.9916821660393724
000240 e0 c0 00 87 df b8 c1 bf 55 87 9b 55 f8 e3 d0 bf
       -0.13845438091221407 -0.26391418800459593
000250 81 a3 cb 29 54 9d e1 bf e3 d8 a5 d8 ce 92 a1 bf
       -0.5504551712339066 -0.03432318110110246
000260 01 22 f3 db 25 35 f4 bf 41 15 0e 20 a9 d7 f4 bf
       -1.2629755584513307 -1.3026515247486972
000270 bc 02 ef 6f 19 93 b9 3f 6e 4e 89 4e a6 91 db bf
       0.09990080816988728 -0.43076474828305933
000280 79 d1 87 57 0a 29 fd 3f ee 4a 62 1b 5f 0b 9c 3f
       1.8225196284448357 0.027387128874191306
000290 39 f3 fc 53 0f a3 da 3f d1 98 51 c4 a2 8f eb 3f
       0.4162023849674373 0.861283667979274
0002a0 a4 56 46 60 2e e3 b8 bf d6 05 23 18 d3 12 c8 bf
       -0.0972165093465614 -0.1880744808059222
0002b0 ed 9f 74 1a 92 ce f4 bf 17 87 44 01 29 a7 c5 bf
       -1.300432303754856 -0.16916382371805902
0002c0 cf b3 1b 89 e3 25 e8 bf 2c ce 13 76 69 f4 fa bf
       -0.7546250989813589 -1.6846708881756838
0002d0 78 93 08 9b 53 e1 db bf b1 af e1 3b b8 c9 e3 bf
       -0.435627843284514 -0.6183739823877571
0002e0 07 fd b7 0e a9 b2 00 40 0f c2 ca f6 3b af da bf
       2.0872365140818405 -0.4169454488828998
0002f0 29 6f 81 10 5d c9 bb 3f f4 3c 23 69 fe fc c4 bf
       0.10854131367653665 -0.1639707578055788
000300 44 2d b5 7b d4 66 b7 bf 05 db 6a 62 95 b2 c2 3f
       -0.09141281147201591 0.14607493691956833
000310 d6 53 b3 64 93 ec dd 3f fc 96 6d f5 05 fe c3 bf
       0.467564438190775 -0.1561896751765558
000320 16 46 98 22 4b 1b e0 3f 11 c4 23 3f 62 06 e1 3f
       0.5033317256622378 0.5320292695233794
000330 b2 94 40 9e f1 bb c1 bf 5d b5 b9 36 3a db bb 3f
       -0.138548090240112 0.10881389461584008
000340 18 53 22 16 27 e7 f2 3f 82 c3 81 3f 75 93 a7 bf
       1.1814337601292149 -0.046046890260988085
000350 9a b7 2c 3a 6b ba d7 3f 97 6e a9 32 c7 51 db 3f
       0.3707531040298534 0.42686634013600994
000360 07 95 04 b4 ff 01 a3 3f d6 f6 59 93 dd b0 d0 bf
       0.037124624943581756 -0.2607950152376878
000370 e1 fa ef 83 18 98 f3 bf f3 17 3c 49 1f 9a b9 bf
       -1.2246327546887914 -0.10000796831090479
000380 81 6f e7 e4 a1 45 f0 bf 03 c8 b4 c5 61 dc f6 bf
       -1.0170000974239601 -1.4288041804215943
000390 e7 b3 62 24 9c d3 b0 bf 96 7f b3 27 c2 a5 bf bf
       -0.06572891128844525 -0.12362302274004686
0003a0 f6 fc 71 2e 1a 07 fa 3f 7e fc 17 c7 2c f2 ce bf
       1.6267339529293259 -0.24176559182521723
0003b0 56 96 fb 1a ae f1 e1 3f 26 cf 3d bd ad a9 f5 3f
       0.5607519652373394 1.3539254562610465
0003c0 2b 57 c8 1a 25 8f d6 bf 67 73 d7 78 45 64 ea bf
       -0.3524868737743982 -0.8247401580989447
0003d0 b5 15 f7 71 27 c9 d3 bf 10 56 8e 52 1f 33 dd bf
       -0.30915247086917513 -0.4562452608309693
0003e0 da a0 3e f0 07 3b e9 bf 03 84 1b 44 9e eb de bf
       -0.7884559337881243 -0.48313099528428455
0003f0 3c 89 22 75 4c 2f 9d 3f 9d 9f 63 f8 d9 0c f4 bf
       0.028500742577884028 -1.2531375601483667
000400 6a e2 6d 4d 77 d9 e7 3f 5a b1 7e 6e 10 c1 c2 bf
       0.7452961456575171 -0.14651685137995224
000410 36 b5 51 d8 fe 57 d1 3f 9a 49 33 8c 8d e8 e6 3f
       0.27099581837576936 0.7158878076827933
000420 63 bb 8e fd a8 f8 b9 3f 81 c3 5f 4c 35 6c ee bf
       0.10145050230378909 -0.9507090083771886
000430 1c 90 64 10 93 9a a7 bf a1 7c f4 48 cb e3 d6 3f
       -0.046101184607579365 0.3576534473849709
000440 d8 a8 5f 2f 08 47 e1 bf 1e 60 ad fe 2f 8b dd bf
       -0.5399208951251024 -0.46162032957863797
000450 ff cb 21 f1 ad 61 ab 3f df a6 1a b2 38 e2 d8 bf
       0.053479610142765914 -0.3888074626253068
000460 ef 83 c4 8d 8c c0 e9 bf fb dc 36 1c 53 71 b1 3f
       -0.804754521264952 0.06813544691873467
000470 b7 0b 15 0e 2d 6d d9 bf 06 14 02 04 7a 6c e6 bf
       -0.39728857398238965 -0.7007417753490024
000480 f5 64 f3 97 2e 6d 90 3f ed 9a d9 70 ab 05 ed bf
       0.01604149630006631 -0.9069421009160955
000490 6f 28 d8 f9 b8 ea e9 bf 82 a0 de 1f 06 6c bd bf
       -0.8099026565335076 -0.11492956426684667
0004a0 68 e9 24 46 de d4 ea bf d8 6a 9d 8b a2 05 e0 bf
       -0.8384848947528498 -0.5006878592351667
0004b0 a7 4b 42 5c d0 54 b8 bf 22 a6 9c 67 ce 47 dd bf
       -0.09504415752807792 -0.4575077068171557
0004c0 ae f5 0c 5f 8a 7c f7 3f d5 02 01 db df 1e c1 3f
       1.4679053986468307 0.13375471299698086
0004d0 cd 40 9c 2e fa 09 dd 3f 47 cc 25 8c b1 55 e7 3f
       0.4537339644603094 0.7292106377848392
0004e0 e6 e4 25 9f ea 56 db 3f f9 23 1f 35 f7 06 c3 bf
       0.4271799616031572 -0.14865007489996154
0004f0 75 d0 7b 8e 3d 3f ee bf 51 6d f4 d7 be 74 d7 3f
       -0.9452197821506291 0.36650057877860315
000500 89 91 e3 c4 5e bc e3 bf 53 8f 4a 6a 25 bd f5 bf
       -0.6167444081770991 -1.3586782600404674
000510 22 11 45 1e 38 c1 de bf 7e af a8 1e fd 5b f0 bf
       -0.48054316478762094 -1.022458190690457
000520 37 61 ce 35 b7 b1 e3 3f d5 dd 34 40 97 bd e2 bf
       0.6154438067342544 -0.5856434110673329
000530 09 59 00 c6 a1 ac c2 bf 05 41 6d ed 24 66 ef bf
       -0.1458933083346852 -0.981218780254523
000540 78 b8 90 d6 4d 12 d6 bf eb 7c 49 d0 3b fe ec bf
       -0.3448671908726122 -0.9060343807322203
000550 65 d8 81 6a 9f 88 f0 bf 2d 9c bb 83 83 1f c8 bf
       -1.033355155986578 -0.1884617226816955
000560 ce a5 3c 4b 99 40 e9 bf c7 cf 7d 99 d2 0a e4 bf
       -0.7891355962248612 -0.6263211248283306
000570 ed 34 69 db b3 04 c9 3f 9d 77 3f 7f d6 11 e5 bf
       0.19545601094652146 -0.6584274754820744
000580 52 ed 38 52 2c c4 f3 bf a7 2c c0 44 c0 23 c3 3f
       -1.2353938304721237 0.14952853543249953
000590 31 91 10 be 85 89 db bf 51 07 a5 f7 2d b3 e5 bf
       -0.43026870308883064 -0.678122504883712
0005a0 0c 63 d9 42 5c 08 b0 3f 81 7e f7 f3 64 57 df bf
       0.06262756950435405 -0.4897091276634243
0005b0 b6 ef 6c ed 47 b3 f1 bf f6 66 e5 f5 3f 8c c2 bf
       -1.1062697672304984 -0.14490508562703724
0005c0 04 62 67 f5 69 a5 d8 bf 33 4d 40 c6 e1 68 e4 bf
       -0.38509606328219115 -0.6378029701321907
0005d0 b2 8f 04 66 de 23 77 bf d8 c6 86 cf a7 75 bd bf
       -0.005649441475075111 -0.11507653061451195
0005e0 85 62 20 2f 14 0e e9 bf b0 e5 22 d3 ba fe cc bf
       -0.7829686088981168 -0.22652373608961573
0005f0 0d e3 e6 83 ec 94 e1 bf 95 dc cc 4c 6f c1 f2 bf
       -0.5494291855057739 -1.1722252845773131
000600 88 b3 d6 f5 87 15 db 3f ca eb fd fc 60 e2 c4 3f
       0.42318915374453825 0.16315853455657098
000610 58 84 cc 4b 57 ae f3 3f 18 28 eb 44 e1 8d e7 3f
       1.2300637207884133 0.7360693307939554
000620 72 83 f2 96 0c e2 e8 bf fa 17 52 73 c5 73 cd 3f
       -0.7775938938321885 0.23009555941479204
000630 84 de 83 ca ea 7f e9 3f 47 cb 34 80 ac 7e da bf
       0.7968648867963144 -0.41398155708445866
000640 8d 6e 11 ad 3f 1d ed bf 6a 4a 50 83 5f 7d d8 3f
       -0.9098204021679109 0.3826521665916177
000650 2c 5c 50 d5 06 74 e3 bf ba 08 49 e3 c0 b8 eb bf
       -0.6079134146010623 -0.8663029135862168
000660 9e 2c 14 b2 17 ca d6 3f 19 f7 4a c9 9a 07 ee bf
       0.35608475103863124 -0.9384283000469821
000670 9b 4e b5 0a b8 ff d1 3f 46 3e 40 85 19 11 c6 3f
       0.28123284383512165 0.17239684111017278
000680 6c 30 88 31 d3 f3 ed 3f 50 82 72 aa 87 15 c0 bf
       0.9360137908383996 -0.12565704176542392
000690 67 c0 c1 3e 5b 83 e0 3f ba 70 d5 f7 e3 e3 02 c0
       0.516034720012624 -2.3612746583949873
0006a0 e3 d3 60 58 49 40 ea bf 98 07 90 be dc 15 a1 bf
       -0.8203474737298361 -0.0333699209804898
0006b0 3d 8c ee 7c 1f cd e6 bf cd 8f 09 31 cb 30 ed bf
       -0.7125394287180665 -0.9122062642822982
0006c0 6f bd ea 3c 58 a1 e2 3f d0 be 37 6f 70 80 ff bf
       0.5821953954490889 -1.9688572258418624
0006d0 aa f7 f5 2d 65 83 e4 bf e3 a2 b0 3c 91 4b c2 3f
       -0.6410394570991589 0.14293113196733662
0006e0 40 1c 8e 97 93 1c b7 3f 3c 27 74 cb 82 d2 d8 bf
       0.09027979326320779 -0.38784856670882895
0006f0 00 da 10 a1 48 c1 f1 3f 27 b3 2e 6d 89 0f fb bf
       1.1096884051927418 -1.691293169492562
000700 92 dd bf cd 05 d6 cc bf 55 95 71 ae 00 ff e4 3f
       -0.22528145357476298 0.6561282546141834
000710 f6 1e 16 71 57 1d df bf 40 ce 84 a4 c3 96 ea bf
       -0.4861658672675583 -0.8309038365609425
000720 21 71 59 8f 28 ea ca bf 7e 46 fe 4f 53 b0 dc bf
       -0.21027094840509 -0.4482620507415972
000730 b2 e0 e6 14 4c 9d f3 bf 72 8e 53 94 8b d5 de bf
       -1.2259026352385658 -0.48178376660346267
000740 dd 71 95 dd 33 50 e5 bf ca 9a 96 73 38 d1 f4 bf
       -0.6660403564270002 -1.301079226986689
000750 a3 55 ca 6f b1 87 e9 3f 0d c6 5a 4a f5 77 fa bf
       0.7978141005902909 -1.6542866615749319
000760 ea f4 d0 48 e7 e9 e6 bf bd 20 ee b4 ad 69 ce 3f
       -0.7160526678268557 0.2376000531624011
000770 74 8c 00 46 2e 4e de bf c4 62 11 7c 52 b2 e6 bf
       -0.47352177463671485 -0.7092678473664695
000780 4b 10 3c 14 67 f8 b4 3f 8d af 61 73 97 87 fe bf
       0.0819153236771523 -1.9081034190266764
000790 f1 7c 3e 07 e5 6e e3 bf 02 61 98 50 8d dd dc bf
       -0.607286943577405 -0.45102246161106063
0007a0 ed 07 02 6e 04 cf e4 bf 6f 03 ea e0 e5 f3 ee bf
       -0.6502706669418764 -0.9672727005819136
0007b0 44 28 77 dc 71 ee e6 3f 57 9e 9b 7d 16 2d 02 c0
       0.7166070276227932 -2.2720155537715914
0007c0 f7 9b ca ca ad 30 e8 bf 95 cf bc 8f 99 80 b3 3f
       -0.7559422455568655 0.07618102797715516
0007d0 82 2c fb 9d 31 99 e4 bf 6f 20 d7 cd 64 d6 ef bf
       -0.6437004170960707 -0.9949211139983286
0007e0 4b 86 c9 c9 05 2a e4 bf 94 d2 ba 73 7c c0 b9 3f
       -0.6301297131687503 0.10059335542139031
0007f0 03 64 b7 bb 49 07 ec bf 84 71 7c 9a 64 48 e2 bf
       -0.8758896509490345 -0.5713370339686183

gru.weight_hh_l0 f8 [96, 32]
000000 f1 71 63 44 5a 4f e6 3f 70 67 5f 25 35 ea b2 3f
       0.6971865974151666 0.07388622438830139
000010 5c 4f 9f df 31 b4 c5 bf 87 29 be 5b c8 ee d7 3f
       -0.16956160944993826 0.3739491363454807
000020 e6 58 21 35 4e b6 cd bf 78 30 00 17 a7 ef d2 bf
       -0.2321260222840415 -0.29587723966756796
000030 b3 19 42 bd 21 79 c7 3f 9d 70 81 7b 12 0d d0 3f
       0.18338414898989938 0.2507978635892501
000040 6b 20 19 47 4b c9 cd 3f c6 2c f3 cf 7f 45 c6 3f
       0.23270550700749779 0.17399594930461698
000050 02 a6 1b 0c 66 be d1 3f 18 dd 9c b4 3e af c5 bf
       0.2772460096590238 -0.16941055125219218
000060 25 88 cb 5a f9 6b d4 bf c1 bb df fa 77 ce d2 bf
       -0.31909021250442243 -0.29385184764299416
000070 20 2a 42 fc 0d b6 cb 3f b2 8a f9 9d 8d 97 d6 3f
       0.21649336640651118 0.35300007273887524
000080 69 af 2b d8 34 af 9e 3f 46 5c 1c b2 7b d7 9c 3f
       0.029965234464654076 0.02816575312234828
000090 2b 5f 1e 2e 58 46 d1 bf d7 64 3a dd 7a ac ac 3f
       -0.26991848472379115 0.056003417497046896
0000a0 82 ea 36 44 bc 9a db 3f fe c3 eb c6 c1 9d b2 3f
       0.4313193002850896 0.07271967989414915
0000b0 2b 2a aa 6b 37 09 d9 3f 05 1e d1 2d 33 09 d6 3f
       0.3911875296986717 0.3443115184240642
0000c0 23 bd bf 55 c5 eb cf bf c5 65 69 c8 4a 07 c9 3f
       -0.2493826550193968 0.19553503785827622
0000d0 87 ad c0 8e 9f 34 d3 3f e7 db 75 a3 20 8c b1 bf
       0.30008686962784065 -0.06854442587596986
0000e0 23 5d 10 1c c4 15 c3 bf ef 78 61 16 88 af 84 bf
       -0.1491017472296586 -0.010100424941068968
0000f0 7d 33 2c 16 0f 2f d9 3f 34 50 4d 40 87 5c d6 bf
       0.3934972492723359 -0.3493974807690876
000100 9d 0d 76 ff 4c 10 c1 bf 23 19 56 a5 a2 6f 9f bf
       -0.1333099601143716 -0.03069929250843829
000110 f3 6e 09 1b 14 05 a6 3f d5 1d b3 39 19 b7 d2 3f
       0.043007496166607505 0.29242544779523644
000120 b0 ca 15 28 0e 67 b9 3f de a6 b5 97 fa 35 cd 3f
       0.09922874907150958 0.22820980460828982
000130 7f b8 14 66 26 2a a7 bf 14 26 6b be 7d 62 d3 bf
       -0.04524345394234874 -0.3028864249759817
000140 b5 f2 0a 81 c7 4c c2 bf 28 58 d2 4a bf 58 d5 3f
       -0.1429681186763411 0.33354170138170725
000150 39 de 07 d8 b4 0b a3 bf 31 32 e4 a3 7f d6 cf bf
       -0.03719868790716103 -0.248733477616399
000160 34 dd f5 a0 ce 70 c8 bf d3 fe 7c a7 dd d9 e1 3f
       -0.19094260081667758 0.5578449507956641
000170 47 19 f6 ef fa f7 be 3f 63 4c 70 77 f7 4c d9 bf
       0.12097137792998068 -0.3953226724999636
000180 0a f2 b0 2f d1 11 a9 bf 81 00 2d 52 2f 6a dc 3f
       -0.048964058944395886 0.4439810087678851
000190 cb f0 18 dd 64 1d ca bf 1d 61 2f 2d 37 6c d1 bf
       -0.20402203365109126 -0.2722299519787315
0001a0 0e d5 29 e6 cc f3 9d 3f 16 7f b6 87 36 ce 94 bf
       0.02925033716970398 -0.020317890198952325
0001b0 37 fa 84 ba 75 15 d5 bf 47 7d 1e a3 bb fb a8 3f
       -0.32943480696477273 0.048795570051192665
0001c0 a4 13 91 11 fa 62 c3 bf 24 6c a4 63 06 33 b5 3f
       -0.1514580331587726 0.0828098290698312
0001d0 74 12 9b 46 33 c7 cf bf 7c 1c 53 14 4e bb ca 3f
       -0.24826661059900668 0.20884109489836422
0001e0 8e 37 cd e7 27 09 c9 bf 19 f4 84 a1 38 2a c0 bf
       -0.19559191530646242 -0.12628848921477312
0001f0 1f 36 7d e9 0a f0 c8 3f 5e a5 4f b7 7b 4c c2 3f
       0.19482551956973368 0.1429590840410055
000200 6c 77 f8 3b f2 58 c9 3f cc f2 70 19 1c f6 98 bf
       0.19802692344904516 -0.0243763342407302
000210 d4 b9 ea b2 4e b3 dc 3f 89 05 21 a1 74 80 8d bf
       0.448444056247266 -0.01440516583182007
000220 f5 7f af 03 32 cd bf bf da a6 70 ad 95 f9 cc bf
       -0.12422478284815937 -0.22636671990158314
000230 f5 81 a1 88 40 03 cf bf 57 34 11 f9 1c 4c b2 bf
       -0.24228674575262202 -0.07147389488928134
000240 4f 1c 0b 71 5c 4e c3 bf 22 ec 12 0c 79 a2 a6 bf
       -0.15082889098832417 -0.04420831940066018
000250 90 e0 3b f2 a2 e4 d0 bf c2 82 d6 fe 12 77 a3 3f
       -0.2639548650327095 0.03801783905806168
000260 b2 b9 19 8b 9c bc 84 bf c7 53 a1 b1 2f 89 b5 3f
       -0.01012537288189894 0.08412454687761715
000270 5f ae b5 4c 76 f9 c4 bf c4 bb 19 cc b5 77 b7 bf
       -0.1638629793700259 -0.0916703818599976
000280 71 f7 70 fa 52 15 7e 3f 26 05 f6 95 63 9b ac bf
       0.007344555028849218 -0.05587302404002008
000290 46 2a d6 1e a5 56 d1 3f 03 f7 f5 18 8d d3 98 3f
       0.2709133912218572 0.02424450363968501
0002a0 b1 53 70 99 0d 93 b0 bf 57 b8 03 cd 03 71 b1 bf
       -0.0647438525778188 -0.06813071971166217
0002b0 dd 57 60 f7 ff 09 d7 bf 16 8e a0 dc 02 96 d0 bf
       -0.3599853435310914 -0.2591559557497204
0002c0 0b 95 80 6e b5 c8 c9 bf c1 17 25 78 f0 49 df 3f
       -0.20143764396303995 0.4888878987588861
0002d0 91 d0 0e 43 af 19 c1 bf 22 20 de b3 c6 98 d2 bf
       -0.13359633230505044 -0.2905747181434909
0002e0 42 ee 9f b6 1e 6f ba 3f 7f 9d 9e b7 f1 a3 ac 3f
       0.10325805624591403 0.05593829504442293
0002f0 c8 58 8c 56 c5 55 b7 3f b2 38 40 7f a3 97 a9 bf
       0.09115250933641328 -0.04998503616671836
000300 8f 11 bc 24 69 b0 d0 bf 65 fd 03 ed bc 8b c7 3f
       -0.2607672556626079 0.18395196507479308
000310 a7 17 c8 10 d5 84 e3 3f 48 fc 1c 06 8b 39 d5 bf
       0.6099648788228834 -0.3316371497821291
000320 ab f2 22 39 25 da e1 bf a8 8c 40 a5 c9 a7 e2 bf
       -0.5578790775249066 -0.5829818942624074
000330 8b ea 96 73 17 88 e6 bf 4c f8 e6 43 b5 8a b7 3f
       -0.7041127450568906 0.09196026714104838
000340 0f 03 b3 c2 93 9f e4 bf d9 a8 4e aa 31 3d ca bf
       -0.6444796374053982 -0.20499249282631274
000350 5a 36 0c 78 23 bc dc bf 98 fa f5 88 bf b1 c7 3f
       -0.44898306582840564 0.18511194407979725
000360 c1 eb 94 08 51 67 b6 3f fe 84 c2 41 05 22 da bf
       0.08751398524775224 -0.4083264486490207
000370 ba ad ed c5 a7 5f c8 bf 32 07 9e 22 c0 b2 b0 3f
       -0.19041917004083847 0.06522751660488948
000380 bf b6 31 27 7c f4 c9 bf b5 77 47 73 e1 85 d6 bf
       -0.20277358926562347 -0.35192142732364157
000390 ea 8a 42 be f4 ee e0 3f ee 5a f6 d7 e6 4d c7 3f
       0.5291694370283413 0.18206487221751594
0003a0 5c 83 61 0e 5b dc d0 bf b6 06 03 df ce 44 d7 bf
       -0.26344944385896496 -0.36357471254823837
0003b0 8b 0d d2 c6 25 43 e1 bf e0 3b 8e 06 f0 d4 b8 bf
       -0.5394467242444291 -0.09699916992234092
0003c0 00 45 ac b0 07 31 b6 3f a7 47 ec 10 ec f6 c7 bf
       0.08668563903144744 -0.1872229654914552
0003d0 86 9b 1b 38 ad 2e e3 bf 66 54 2b d1 d4 7b d1 bf
       -0.5994478317123686 -0.2731830637615701
0003e0 85 d6 93 75 1b 1c a7 bf 6f 38 ec 86 bc 53 c7 3f
       -0.045136316397401045 0.18224293315910553
0003f0 bc dc e6 fe a5 48 df bf 57 27 6c aa fc ca d8 3f
       -0.48880910771135766 0.38738934176273204
000400 88 2c fc 8e 06 5f c7 3f 33 74 a1 e2 77 80 d1 bf
       0.18258745176021685 -0.2734660828771808
000410 45 d4 d1 ac d6 65 d2 bf 1b 97 58 82 e6 a5 cb bf
       -0.28746573330801467 -0.21600037922433377
000420 d4 79 94 4c 09 12 de 3f 08 a0 8c c6 10 74 dc 3f
       0.46985084990037973 0.4445840777357266
000430 eb 01 79 d3 9f 22 d7 3f b3 77 ae 1d 3f 2f 83 bf
       0.3614883008158631 -0.009367459386165544
000440 ed 1c 59 3b 5c d6 dd 3f 25 4f 8e 16 19 3a b3 bf
       0.4662085132190004 -0.07510525513344797
000450 7d 0f 1f 4c ae 19 ce 3f 6b e8 52 ce a6 19 d8 bf
       0.2351587173162634 -0.37656564854444835
000460 1c cd e4 09 1a b7 da bf e0 63 55 a0 17 82 c8 bf
       -0.41742564169108376 -0.1914701016310394
000470 45 6e bc 56 f2 b5 d1 3f b6 3a 30 b3 9e 92 b3 bf
       0.27673014135664104 -0.07645599245754905
000480 74 29 52 f5 51 4e b1 bf 05 db d3 1b 5f 5f d1 3f
       -0.06760132064133534 0.27144601552520015
000490 4d c5 46 08 73 f1 cc bf 65 71 2a dd ce 55 c0 3f
       -0.2261184492504448 0.12761865424262023
0004a0 ed c7 5d 2b 7a 76 b5 bf 11 46 20 51 e0 5a d9 3f
       -0.08383906897304856 0.3961716453787583
0004b0 01 26 4b 6f 08 02 e2 3f d4 4f 72 c3 ee d0 d5 3f
       0.5627481626226541 0.34087723814559223
0004c0 74 e5 3d 37 ea dd c0 3f bc b5 bd bf ab 8b c5 bf
       0.1317723054633394 -0.16832491743427436
0004d0 90 0c 3c cf ec 98 d8 3f 69 64 43 31 c6 f5 a7 3f
       0.38433380353689817 0.04679698325498622
0004e0 38 26 95 7f 9f a8 b0 bf 2e 18 84 3a 03 ef e0 bf
       -0.06507298340616152 -0.5291763441935069
0004f0 76 8e 30 54 c9 14 cf 3f cd be 43 b6 77 33 e1 bf
       0.24282185183357158 -0.5375326690536554
000500 df 82 2e 6c 0f bb a6 3f cd 44 2c 3a 8b 06 c4 bf
       0.044395906406185175 -0.15644970264887662
000510 6f 7c 35 8c ba 74 b7 3f ae 61 28 41 39 02 e4 bf
       0.09162488864011363 -0.6252714417087668
000520 26 79 d7 3d e1 2c d5 bf 04 07 3f b2 07 e0 dc bf
       -0.33086424864986197 -0.45117370993476436
000530 e2 b7 6d 8a 57 4a 96 3f b9 53 fa d0 91 66 de 3f
       0.021767967056284372 0.4750103512572497
000540 67 17 c9 06 fc 0e c0 bf e1 fd 24 cc 85 a0 db bf
       -0.12545728999446767 -0.4316725247954008
000550 38 a9 a0 76 68 36 89 bf be 80 e1 1a d3 cb e6 3f
       -0.012310806389070991 0.7123809361474043
000560 68 c3 46 25 a1 25 de 3f d7 5b 7d 80 a5 e4 e4 bf
       0.471046720888856 -0.6529109487117876
000570 a3 60 f2 a3 22 f9 d1 bf e7 36 b1 18 92 2b b7 3f
       -0.2808310128252833 0.09050858595693577
000580 f3 1f 8e 23 b8 2b b0 3f ef 62 b9 e4 7b 34 e3 bf
       0.06316710346266045 -0.600156733252417
000590 b8 4e 84 b5 11 a4 d4 3f 96 dc c8 62 3d 0e e4 3f
       0.3225139877915626 0.626738255442336
0005a0 f2 e8 3b d7 f3 8e ec bf 4d f0 3e 87 17 d3 8e 3f
       -0.8924502567090526 0.015051063361049577
0005b0 a8 bc 32 3e c2 9f be 3f 0c 69 63 3d 4a 79 d0 bf
       0.11962522524366881 -0.2574029540534333
0005c0 fb b6 ff 2f 90 26 cd 3f 2f f1 a5 8b 6e 1f d9 bf
       0.22773935645766827 -0.39254344594498297
0005d0 05 37 28 d6 55 29 b1 3f 4d e6 e1 75 86 ed c2 bf
       0.0670369766087014 -0.14787369495370442
0005e0 ee 26 aa 3e 0b 52 d1 3f ed a6 5e 6a 34 e8 7c 3f
       0.27063256377787936 0.007057385204385131
0005f0 e9 24 c4 75 0c c7 d1 bf 58 4a 28 43 df b5 cb 3f
       -0.2777739667950088 0.2164877965847889
000600 09 38 6e 8d ee f2 e0 3f 43 b9 0b 11 48 37 c9 3f
       0.5296547663035663 0.1969995578032898
000610 f0 f7 d4 2b b7 40 d2 bf 8c 52 3b 06 0a e5 d9 3f
       -0.2851999214216212 0.4046044407707903
000620 8b 6f 41 4d 90 c6 ba bf 24 94 35 00 e8 e6 65 3f
       -0.10459234129069565 0.002673581244084138
000630 0f 29 37 df 4b 8f 98 bf ef da 28 e1 71 ec da 3f
       -0.023984132288924317 0.42068144787064815
000640 22 87 76 80 71 b7 cf 3f b0 59 55 4b 9a 92 bf 3f
       0.24778574726683994 0.12333072985834437
000650 f0 13 66 9b ed 8f cb 3f fc 63 93 94 4a ee 97 bf
       0.21532983863667665 -0.023369946783393644
000660 7e 14 b7 05 14 2d df bf c7 ce 1d 23 6b 76 d4 bf
       -0.48712635572548624 -0.31972769193019385
000670 dd 3f 2d c7 af 4b d5 bf 24 12 6f 5c ed 2b d0 3f
       -0.3327445454679017 0.2526811030077474
000680 33 7b bc 98 42 25 c2 3f 00 48 d8 52 4b 0a bd 3f
       0.1417620893270964 0.11343832752780258
000690 f9 d6 4d 8d 4b e9 b2 bf d4 5d 4f b9 7a 0f bd bf
       -0.07387230109983624 -0.1135174467484526
0006a0 d6 9f ea 24 1a 3d 78 bf 59 fe a5 cc 4f 9f 9d 3f
       -0.00591764652805434 0.028928038469074078
0006b0 85 ee 7b 30 9d f8 c2 3f 87 71 6c 08 92 da c8 3f
       0.14821209781063174 0.19417024051007223
0006c0 01 66 c3 93 67 d8 c5 bf f3 d2 85 74 41 2c d0 bf
       -0.17066664423946068 -0.2527011526029092
0006d0 9e 60 d2 75 be 05 b7 3f 58 77 44 86 79 63 99 bf
       0.08993139626034227 -0.0247935283851953
0006e0 92 44 21 8d de 7a 95 3f e9 0a 38 82 70 39 d0 3f
       0.020976521839035707 0.25350582806292593
0006f0 f2 82 6c 6f 05 93 ba bf c6 d7 fb 40 fc 46 bf 3f
       -0.10380586595830346 0.12217690073506934
000700 41 9c b3 9d cf 55 bd bf f2 5a 98 ab 75 6c b0 bf
       -0.11459062194954674 -0.06415496291479508
000710 09 3b 78 88 d1 5c bb 3f ab 81 a1 3a 36 32 b5 bf
       0.10688504773882469 -0.08279742175500952
000720 c6 5e fa 78 fd 77 cb 3f 77 e6 1b a0 ab ac ba 3f
       0.21459930808190658 0.10419724139128471
000730 95 0c 55 14 69 8f aa bf c1 3a 75 d6 4c e8 df bf
       -0.05187538502880177 -0.49855347579152115
000740 0b c5 f2 8b 2b 3d 9b 3f e7 9b ec 26 7b e7 b3 3f
       0.026600532929198766 0.07775087070750396
000750 8b da ee 00 8d e8 b2 bf e2 c3 c4 6e 96 21 b2 3f
       -0.07386094353464949 0.07082500652610649
000760 e4 2d d3 8b 46 c4 a5 bf 89 16 89 b3 f4 8d d3 3f
       -0.04251308876845508 0.305539298370015
000770 db 35 b6 50 4a df a2 3f fd 9c a2 b0 c2 53 86 bf
       0.03685981974841087 -0.010901947989920386
000780 fd 65 e1 de 35 d3 bb bf 50 f2 df f6 ac 12 cd 3f
       -0.10869156543176213 0.22713243536408578
000790 62 3d 4d 45 ad cc c0 bf d4 09 b6 7a f5 08 c2 bf
       -0.13124624141571944 -0.1408984040427429
0007a0 5a 49 aa 6b 6b 4e d1 bf e2 89 3b 67 73 7a a2 3f
       -0.27041135324647814 0.036090475417740256
0007b0 bc ff 10 ab 4e 00 ca bf f4 f3 f5 91 8c 1a b1 3f
       -0.20313437798358602 0.06681135715002978
0007c0 d5 ab 89 28 cc ac ce bf af 94 3c 03 ee 46 d7 3f
       -0.23964836100944234 0.36370420757368555
0007d0 fd 6d e2 22 04 db 94 bf 1b bd 59 c1 95 64 96 3f
       -0.02036673033636126 0.021868076254063156
0007e0 32 dc 6c d5 71 bb ce bf 49 7b ef 6b d7 62 a6 3f
       -0.24009535714296387 0.043722850728718905
0007f0 7e 16 b5 39 3d b9 b9 3f ee 41 b7 c7 70 64 bf 3f
       0.10048277529593894 0.12262635112643469

gru.bias_ih_l0 f8 [96]
000000 b4 b9 26 c2 d9 6f c1 3f 09 07 a9 f6 65 87 c0 bf
       0.13622590999643835 -0.1291320280452555
000010 8d 5e cb 74 5d da c3 3f 78 6b 22 09 66 f5 af 3f
       0.15510147288181422 0.062419117560430004
000020 e2 45 92 23 d2 a2 93 bf 29 84 43 38 a9 52 bf bf
       -0.019175799771408715 -0.12235505698801376
000030 21 fe 71 1c bd b6 a3 3f 8f 9c 55 b4 e5 63 9f bf
       0.03850356075508566 -0.030654515392055045
000040 97 8d 7c b7 e9 e1 c5 bf 21 8f 01 e3 c6 25 b5 3f
       -0.17095681628516665 0.08260767976895213
000050 fc 6b 5d eb 06 1d b5 3f 13 5f 99 0c b7 f6 d7 bf
       0.08247416731084906 -0.3744332907713083
000060 ca 59 9d c3 cc 32 cf bf f0 1e 1b 9d ac ef c4 bf
       -0.2437377886914887 -0.16356427832783238
000070 99 5e d7 4d 88 1f a8 bf 31 95 0f df a8 a2 d5 bf
       -0.04711557340823198 -0.338052957375413
000080 6c 95 bf 5f 19 21 c3 3f 7c 40 50 bb 00 4f c9 bf
       0.14944760489667475 -0.19772347589651307
000090 d2 cc 61 ce 70 b3 cc bf e3 7c 08 ae 92 3e 95 bf
       -0.22422609402892718 -0.020746509430065962
0000a0 a0 e4 58 87 31 1d c3 bf 22 df 53 11 84 6c a6 bf
       -0.14932841404678232 -0.04379666053313104
0000b0 47 f7 c9 92 54 1e c7 3f 43 2a 32 ee 35 05 b1 3f
       0.1806131092779941 0.06648575845080366
0000c0 56 d9 2d ec 99 c6 79 bf 8e 00 9f 17 9a 04 cb 3f
       -0.006292916545922308 0.21107793954252368
0000d0 03 e2 f3 f9 67 49 d0 3f 48 a4 bf be 79 d1 e1 bf
       0.2544803563064592 -0.556820747905598
0000e0 51 cb 3e 41 ed 4b d2 bf 82 aa 25 d4 c2 fc bb 3f
       -0.2858842026864084 0.10932557753918995
0000f0 11 78 7e 45 bc c0 bd bf 78 e7 ab 7f 87 a2 c7 bf
       -0.11622215935355508 -0.18464750036201472
000100 58 81 bd 06 21 45 dc 3f 90 71 cf ad 03 36 b8 3f
       0.4417192998717119 0.09457419389167954
000110 4c b9 73 51 3f 27 a5 bf f7 07 23 a1 07 b1 cd bf
       -0.04131505841529534 -0.23196502082834033
000120 b4 17 9e 37 25 d8 d3 3f c1 31 d2 35 15 1b dd 3f
       0.31006746703530585 0.4547780061336902
000130 a1 dd 2d ab 32 6a d5 bf 88 4c d2 25 76 ba dc 3f
       -0.3346068069144739 0.44888070767883237
000140 a2 44 0f 87 32 7c db bf 54 b5 28 e8 6b fb 89 bf
       -0.42945540608804766 -0.012686579725676474
000150 26 a0 97 07 fb 7f e5 bf 4e b0 a6 19 c9 a9 cf 3f
       -0.6718726299559463 0.24736894371506185
000160 13 4c 4c e9 7b 2b be 3f 63 9b 4d fc 97 f0 c4 3f
       0.11785101361992671 0.16359233684053284
000170 c0 e8 97 4d f4 0c be bf f1 e2 06 ff 2f 4d d5 3f
       -0.11738516706819535 0.3328361502167772
000180 cd 32 de 76 69 03 b2 3f 97 bc 4f 63 85 03 d0 3f
       0.07036456253099317 0.25021490763078574
000190 20 d4 19 c7 33 dc cd bf 6a d7 39 55 90 fb b1 3f
       -0.23328253957484524 0.07024480896674637
0001a0 cf e5 d1 ad 7f 0a ce 3f df 9d b1 60 36 77 88 bf
       0.23469539630222733 -0.011946129632817324
0001b0 74 3f 20 fd 38 62 db 3f 8b 5c 05 db 39 5f dc bf
       0.4278700324948581 -0.44331213368190764
0001c0 f2 c0 aa 64 60 e6 c8 3f d3 6c dd 0b 2b 03 9c 3f
       0.19453053393727476 0.027355835532358718
0001d0 97 78 1d af d7 dc b4 bf df 20 a5 74 6c dc d8 3f
       -0.08149478936454312 0.38845359221569525
0001e0 80 3a 99 c1 8e d2 dd 3f 97 7c ba 87 18 0f a5 3f
       0.4659764185534314 0.041130796974578825
0001f0 93 58 3d 93 ab c6 df bf ba 21 20 b6 3a f9 d5 3f
       -0.49650086764212026 0.3433367518014411
000200 14 d8 da 4a 01 20 b0 3f 53 f5 ae ac 3d 13 b9 3f
       0.06298835828314991 0.09794984308151315
000210 27 5b f9 0c c4 f2 78 3f eb ad 7a 5d 9c 4d c6 bf
       0.006090894530266045 -0.1742434936944471
000220 89 a4 75 65 92 d1 aa 3f 3e 9a a2 f0 13 cc 9f 3f
       0.05238015640754507 0.031051932871060332
000230 e7 89 35 fd 33 b5 ac bf 71 9e c7 0d 71 28 73 bf
       -0.05606996980602102 -0.004677240005981896
000240 0c 6d 4c bb 37 75 c8 3f 32 06 d8 de 1d 47 b7 3f
       0.19107720036922904 0.09092890444301174
000250 3e 29 09 03 ae 58 a3 bf 22 bb 9f 5a c0 22 bc bf
       -0.03778594767625741 -0.10990526401995429
000260 a3 56 87 4e 5d 7a b0 bf 2a e6 0a 4a c0 69 a9 3f
       -0.0643671337814689 0.04963494209136983
000270 a5 79 a0 3d 79 3f 9a bf a7 2b 46 75 f1 8f 70 bf
       -0.025632757555393976 -0.004043524928770837
000280 03 ff 02 9f 10 c6 a0 3f a0 36 d1 98 4e 81 b2 bf
       0.03276111546574436 -0.07228556853189128
000290 17 86 b4 64 81 cc b8 3f 9b b2 68 01 76 23 b0 bf
       0.09687050541517582 -0.06304109129332362
0002a0 58 21 01 fe 8a 03 a7 bf 49 6a 26 19 5e 27 b9 3f
       -0.044948905474088974 0.09825695146575088
0002b0 f7 a5 a9 5c 35 00 c1 bf 78 72 08 23 00 7d cc bf
       -0.13281886124177308 -0.22256471357913532
0002c0 7b 50 58 6c cc 64 75 bf be e7 71 00 d5 00 c3 3f
       -0.005223082092488447 0.14846289178586675
0002d0 c0 b9 51 41 5a 0c bf 3f 00 bb 76 a9 f8 8a ba bf
       0.12128223509510061 -0.1036830342988928
0002e0 6b a1 b0 33 17 d4 a8 3f dd 15 2b ce ba 36 a9 bf
       0.0484931231115436 -0.04924567953780088
0002f0 20 fc 24 67 06 a1 a6 3f c0 88 d3 4f b9 ba bb 3f
       0.04419727334106249 0.10831793021091851

gru.bias_hh_l0 f8 [96]
000000 73 b9 26 62 ed 75 cf 3f dd f8 56 e9 79 c7 c2 3f
       0.24578635494749398 0.14671253102819196
000010 a4 e8 b5 4c cd 05 85 3f 86 5f 13 49 68 ce 77 3f
       0.010264972594758177 0.005812079777761775
000020 46 de 36 6e e4 9f ac 3f 18 e1 10 7e 5b e2 dd bf
       0.05590738149060974 -0.4669407588112491
000030 7f 7f 1c 87 51 ef c8 3f 65 32 d5 25 82 95 a5 3f
       0.19480342004044002 0.04215628349138426
000040 4e 1b f9 8e 39 69 b6 bf 7d 8f 01 a3 37 ab bb 3f
       -0.08754310360482728 0.10808131913796433
000050 29 6c 5d ab b3 39 be 3f 0c 5f 99 24 28 b1 d3 bf
       0.11806796010698463 -0.3076877934849882
000060 c3 59 9d c3 e3 53 c3 bf 63 11 4e 2e 12 11 87 3f
       -0.15099761058327318 0.011263029134860053
000070 b8 af eb e6 b2 cc bf bf 75 55 3e 7c 6d bb bd bf
       -0.1242172063609236 -0.1161411693886601
000080 8b 51 03 82 55 f2 96 bf 9f 40 50 9b 53 1e c2 bf
       -0.02240880590473319 -0.14155049403826056
000090 53 9a f1 8c 4e 10 94 3f 2d f9 10 5c cd e9 85 bf
       0.01959345565082977 -0.01069984852994973
0000a0 35 72 ac c3 ff 9f d6 bf 9e f7 54 84 b7 d9 c6 bf
       -0.3535155688166783 -0.17851919137495725
0000b0 a4 fb 64 09 1a b2 d1 3f ff 14 19 f7 b4 2c c2 3f
       0.2764954654448337 0.14198934617358103
0000c0 8b 6e 61 0f ca 4c c1 bf 7d 00 3e 6f 6e bc b8 3f
       -0.135155923376136 0.09662523475526714
0000d0 2a 87 cf 27 76 83 be 3f 6c 48 7f cd fa 36 db bf
       0.1191934439844117 -0.42523069446645567
0000e0 98 96 7d 02 e7 6f ca bf 12 d5 12 8a 11 e6 c6 3f
       -0.2065399896775275 0.17889613382218578
0000f0 be c3 40 ad bd ef c5 3f 8e e7 ab ff 51 5c c9 bf
       0.17137881240480896 -0.19812989219627436
000100 35 03 7b 8d a1 55 cd 3f 4a dc 73 6b 16 a2 d2 3f
       0.22917575271824267 0.2911430405942538
000110 d8 11 a3 0b e3 dc c7 3f 01 11 46 42 c7 f6 be bf
       0.18642843311512425 -0.12095303886423282
000120 5a 5e 78 fe cf 89 b9 3f da 31 d2 35 9b 61 d7 3f
       0.09975910151148906 0.3653324151607912
000130 bf dd 2d 2b 18 54 dd bf 92 4c d2 2d 5c 86 d3 3f
       -0.4582577153846294 0.3050756881213569
000140 f9 a1 87 23 b5 b8 e4 bf e9 a4 eb 0b 10 b1 95 3f
       -0.6475473112050728 0.02118325302845828
000150 55 a0 97 43 21 cb e2 bf 41 58 d3 1c 5e 2a dd 3f
       -0.5872961349641722 0.45571091475483533
000160 90 25 a6 f4 37 4f c3 3f 59 9b 4d 1c 14 fa ce 3f
       0.15085505910637353 0.24200679189672306
000170 aa f9 65 03 ca 15 d3 bf c2 71 83 ab 0d 5d e0 3f
       -0.29820490199918004 0.5113590574142608
000180 bc 39 87 a4 1d 27 92 bf a8 bc 4f 63 d3 d4 d2 3f
       -0.01772733990383711 0.2942398519362066
000190 28 d4 19 47 8b 44 c7 bf 68 eb 9c 6a 10 8d cc 3f
       -0.18177929851268115 0.22305493550978928
0001a0 64 e6 d1 ad 2a 38 c6 3f 32 31 a7 cf 1a 27 9f 3f
       0.17358907210636965 0.030422610210551322
0001b0 57 3f 20 8d e3 c4 d2 3f 64 ae 82 95 2a 3c e4 bf
       0.2932671430762545 -0.6323445243956027
0001c0 af c0 aa e4 48 8e ca 3f 01 53 84 9e c3 c7 c4 bf
       0.20746718564396846 -0.16234631767351718
0001d0 2b bc 8e 97 f5 e7 c9 bf 90 20 a5 74 de d5 df 3f
       -0.20239133739730283 0.49742852583995845
0001e0 52 3a 99 61 89 30 d1 3f 99 7c ba 07 41 62 af 3f
       0.2685874417410662 0.06129649371472929
0001f0 35 ac 9e a9 f5 ce e0 bf ad 21 20 26 9f 7a d1 3f
       -0.5252636254202857 0.27310923312372887
000200 2a d4 50 1c 4d 1a c8 3f 34 4d 3f 62 4c c3 ba 3f
       0.18830264933208812 0.10454251669516595
000210 ef 6f 14 48 a5 37 b8 3f 1f e7 a9 b0 d8 d2 d3 3f
       0.09459908494721934 0.3097440457564619
000220 f1 81 0b 60 a0 93 bc bf ab 1b e7 67 eb 2b 94 bf
       -0.11162760109755944 -0.019698789803239396
000230 13 3b 73 05 39 ff 9e 3f 21 be 3a 09 4c 5e a5 3f
       0.03027047248616117 0.041735054136889944
000240 10 08 92 f2 ef e8 ba bf 4d cd 8d d5 c8 09 bd 3f
       -0.10511684105043195 0.1134305497524128
000250 23 6a d3 12 fd 07 b9 3f 72 70 0e ac aa 30 b4 bf
       0.09777814588179772 -0.07886759472461494
000260 aa 95 dc dc 93 9e c8 bf 7d 9b c1 39 37 34 b4 3f
       -0.19233940395603827 0.07892174873414422
000270 e4 82 79 2c e4 4e ad 3f 52 8c 21 a9 01 b9 84 bf
       0.05724251788047299 -0.010118496870012237
000280 c3 8e 82 04 be b0 c7 3f 5e 6e 4d 25 11 f3 78 bf
       0.1850812456151428 -0.006091181731644106
000290 00 1a a9 ad 16 8b a5 bf dd eb c7 52 d7 60 ad 3f
       -0.04207678670768544 0.057379464011283444
0002a0 2a 49 01 0b 4f 59 c3 3f d6 06 b5 14 d8 58 b5 bf
       0.15116298711161252 -0.08338690286202718
0002b0 0d 89 7c 31 5c 6e b1 bf 30 fc 66 b9 cf 38 b2 bf
       -0.06809021194616012 -0.07117937351630199
0002c0 6b 90 9a f8 2a 7d cf bf b4 94 c6 4b b2 80 a8 3f
       -0.2460073198209359 0.04785687613483827
0002d0 fc b8 c6 01 7f da b4 bf 7f b3 8d 6d ee 96 ab 3f
       -0.08145898621907927 0.053885889886124076
0002e0 be 82 23 36 1e 0a b9 bf 5d 7d a3 2f fc 36 cd 3f
       -0.09781063863511982 0.22824051214318333
0002f0 a9 b6 4c c9 21 8f 75 3f 1c 2a 9b 77 76 2f 9a 3f
       0.005263454416121562 0.025571681070497218

gru.weight_ih_l0_reverse f8 [96, 6]
000000 de 74 b1 37 e7 34 b1 bf ff 0b 4e a6 7c 77 d2 bf
       -0.06721348867127427 -0.2885429023810388
000010 cc 85 b1 74 8d 15 de 3f ef 7c 49 e8 ee 75 d4 bf
       0.4700654639801456 -0.31969807323726135
000020 14 d3 72 0d c0 0b ef 3f 92 0b ce e4 53 7a f6 3f
       0.9701843512217203 1.404865163582802
000030 11 99 3c 93 91 34 a2 3f 89 98 05 30 8a 5b cc bf
       0.035557316992980266 -0.22154357285325357
000040 15 b9 0c d9 c1 e8 f0 3f b9 a5 25 1b d6 45 c6 bf
       1.0568254927162049 -0.17400623631992376
000050 cb d0 f3 ed 49 ca d2 3f cc e3 e3 91 67 bb f2 3f
       0.2935967277292206 1.1707530688129166
000060 04 31 4f e0 42 9a b7 3f 48 15 95 ba 0c 21 ee 3f
       0.09219758964826857 0.9415343898951187
000070 c2 cd 02 ac 81 a1 e5 3f eb 02 37 ae 84 6f c9 3f
       0.6759651527012738 0.19871576792322485
000080 95 57 9a 46 b0 94 d5 bf 5c 76 a5 7f cd 33 ae 3f
       -0.33720023054899545 0.05898897345717266
000090 e5 5e d0 9e a0 0b 96 bf 0e ca cf 2a 3a d5 d3 3f
       -0.021528730099901323 0.309889356430319
0000a0 40 83 d1 fd 1a ed fa 3f 4a 00 bc e0 86 30 c3 3f
       1.682887069204483 0.14991842244490022
0000b0 92 0e d8 c3 08 08 ef bf a2 77 c6 19 34 a0 c9 3f
       -0.9697307419850907 0.20020152338559877
0000c0 d2 15 c2 a5 c3 50 de bf 39 d3 53 46 77 7f c0 bf
       -0.4736794584972276 -0.1288899510760986
0000d0 6c 4f a3 fd 8e ec ee 3f e2 67 7b c0 44 8e ca bf
       0.966376777063926 -0.20746669195688044
0000e0 7e 6a fc 35 e5 99 e9 3f e5 0e 94 d6 41 bb b2 bf
       0.8000360540784894 -0.07316981781701377
0000f0 cf 0c c3 a6 9e b4 93 bf 02 5c b8 25 f4 0e d4 bf
       -0.019243697098102083 -0.31341270145043165
000100 c4 06 63 b2 b5 02 e0 3f 78 84 13 7a 9b 77 c4 bf
       0.5003307804219834 -0.15990012608293447
000110 ac 7f 62 80 fe 2c d5 3f b9 6e 1b 1e ff 5e db 3f
       0.3308712247617176 0.42767312946464703
000120 a5 c3 21 0d d9 f4 b8 3f 33 53 a9 f8 b9 e7 d1 3f
       0.09748608179667302 0.27976846011488304
000130 64 b6 af 49 00 df e7 3f d6 5e 42 0c 95 d3 d2 3f
       0.7459718169390723 0.29416395375436133
000140 8a d6 2f d4 90 83 d9 3f 68 9e b7 10 b5 a3 e5 3f
       0.39865513535856023 0.6762337996014596
000150 7d 4c 18 15 16 ee c7 bf ea 46 db d2 92 f5 cd bf
       -0.18695331602120638 -0.2340568093846323
000160 b8 bf 26 de 01 6b f5 3f 41 08 5a 61 60 44 d1 bf
       1.3386248281276334 -0.2697983694744189
000170 ad 8a 57 a4 5b 41 ed bf f9 c6 d0 4f 30 04 ad bf
       -0.9142282686046507 -0.05667258238135093
000180 70 26 39 2b c6 f3 d3 bf 9f 4d cf a7 6b c0 c4 bf
       -0.31175379010219384 -0.16212220853649925
000190 77 b5 0c 96 03 4e b7 3f 17 55 e0 1a 53 ab c7 bf
       0.0910341492969645 -0.1849159127456594
0001a0 49 ee e3 64 22 a2 a3 bf 58 6d f1 eb ae db ae 3f
       -0.03834636193820679 0.06026980047382818
0001b0 cf 1c 53 d1 6e 6b d5 3f 3c 52 f0 41 ec be cb bf
       0.3346821827112309 -0.21676400394120943
0001c0 b1 03 16 f1 be 26 e4 3f 6e 38 98 a4 4e 11 d6 3f
       0.6297297199927155 0.34480634759609685
0001d0 cc 73 85 d1 1c a5 df 3f 57 0e c3 8c ea a4 f0 3f
       0.4944526716333797 1.0402627466691194
0001e0 c5 58 35 45 a6 6b cc bf 84 0c 3c 6a e1 82 d9 3f
       -0.22203520182910644 0.39861331343144735
0001f0 4e e9 ad b5 dc ec 01 40 df 45 70 ee 74 b2 b8 bf
       2.240655345315793 -0.09647303410772377
000200 eb 9b 45 a6 50 a5 b2 3f 47 de ef 2c a0 a8 c1 bf
       0.07283500728009044 -0.1379585475367426
000210 9c 8e 71 6d 6d 33 c4 bf a7 57 2f ba 98 9f c4 bf
       -0.15781944126057545 -0.16112050143300147
000220 ca e1 e4 86 b2 0e dd bf b2 ee b6 06 5d 44 bd bf
       -0.4540220563244729 -0.11432439245157403
000230 1a 98 4e 6c c4 48 dc bf 4b 78 a0 75 0c 95 e3 bf
       -0.4419413621602658 -0.611944417705453
000240 5c dc 7f 49 d9 d1 a2 bf 2f 80 d6 b0 9c 47 d2 bf
       -0.036757269117452224 -0.28562085408521204
000250 2f 45 ef 8d f0 34 e0 3f 7c f6 90 c9 f2 71 bd 3f
       0.506462361541855 0.11501996441890044
000260 85 8b 3a c9 a5 71 f8 bf 28 57 dc 3e c1 83 f0 bf
       -1.5277459965224989 -1.0321667151924405
000270 9e c7 ca f2 4a b9 e0 bf f0 9c c0 14 f7 4b b7 bf
       -0.52261874599775 -0.09100288635874043
000280 4f a0 d7 7d f0 20 ee 3f 9a ec a1 6f e5 df e3 bf
       0.9415209253174995 -0.6210810833284939
000290 56 5d 80 fb 46 0d f2 3f 48 7d a6 df 54 79 ec 3f
       1.128241522242964 0.889810978715027
0002a0 0c 35 69 56 bb 6a e3 bf 65 fc 96 54 2b 74 c3 bf
       -0.60677878262655 -0.1519827044521406
0002b0 b2 83 7d e1 0d 7b fd 3f 4d 76 12 37 4c 8b d7 bf
       1.8425425346579059 -0.3678770578206681
0002c0 ae c8 06 8c 46 7c ec bf df 74 25 19 d9 96 c6 bf
       -0.8901703581707545 -0.17647851684424773
0002d0 d2 b9 95 a4 78 81 99 3f 25 5c 4d 24 82 f4 cf bf
       0.024907956166708996 -0.24964930317466485
0002e0 43 e0 d6 99 1c 07 f6 3f df b5 6e 02 8b e2 7c bf
       1.3767362603521327 -0.007051985746256289
0002f0 67 3f e1 18 9b e3 c3 bf cb d1 06 55 5d 66 b5 bf
       -0.15538347925984938 -0.08359320951314612
000300 9f 5a 7c 90 ee 2e c9 bf a1 73 ea b6 3b fd d4 bf
       -0.19674474768608705 -0.3279561315810558
000310 a8 fd e4 87 a9 ec f9 3f de 66 e5 c5 e1 b6 d1 bf
       1.6202788647059183 -0.27678722692290403
000320 98 d2 2f 2c 0f cb d4 bf b7 d7 12 96 5f e2 e6 3f
       -0.3248937541496075 0.7151334696888999
000330 97 5b 01 61 11 1d c6 bf 41 a2 99 75 e3 7e c8 3f
       -0.172762081495162 0.1913723301143069
000340 53 ac 5a b3 28 f8 f4 3f b2 4a 45 45 a4 fa c8 bf
       1.3105856901190875 -0.19514897711140616
000350 16 0c 71 da 91 97 c1 3f 06 ad 50 26 f4 bc b6 3f
       0.13743804136365217 0.08882070479801393
000360 32 98 73 3d 03 31 f0 bf 71 e0 ff ce 9e 57 cf bf
       -1.011965980572779 -0.24486146075628626
000370 3d 67 44 b6 a7 24 e9 3f 28 b7 17 ab c8 07 e8 bf
       0.7857245025545364 -0.7509501783040138
000380 bd ec 81 00 1a 39 e3 bf 73 db 14 08 7a 3a e0 bf
       -0.6007204065239403 -0.5071382673112182
000390 ee 1a dd 05 6b 2a d2 bf 69 00 a3 af 02 11 e7 3f
       -0.28383899281145275 0.7208264761357103
0003a0 b1 ee 9a e1 8d c7 00 40 d6 8d 1b 92 1d 94 cb bf
       2.097438585796987 -0.21545762666856544
0003b0 dc 18 09 01 9f 35 f9 bf 38 d9 dd 28 e5 04 e7 bf
       -1.5755910911989792 -0.7193475530791948
0003c0 e1 e2 35 01 5b 8f d0 3f e5 ce 03 4d a6 01 e7 bf
       0.25874972456180784 -0.7189513687321464
0003d0 ee 97 e0 01 b1 2a c4 bf 94 53 ae 0b 71 b0 cb 3f
       -0.15755283919969493 0.2163220698390914
0003e0 2d d4 a5 47 8f 19 f2 3f 12 60 5d 1a 46 14 ea 3f
       1.131240157960984 0.8149748339592426
0003f0 7a 87 87 f8 3e 78 d1 bf d7 4b 61 3d 49 8f bd bf
       -0.2729642321629552 -0.11546762226616579
000400 e9 62 bc ad 9e 2e e5 3f 81 bd cf d9 76 f0 99 bf
       0.6619408982542981 -0.025331360859067956
000410 89 48 4a c8 66 36 ec 3f 32 9c 3f 51 7c 41 d3 3f
       0.881640807334649 0.30087192472859947
000420 06 e5 24 2a a1 0c ae bf 7e f5 8f 29 cb 11 d3 3f
       -0.05869010581450067 0.2979610353357528
000430 81 b1 d7 e3 02 67 dc 3f f5 24 08 60 2d 03 c2 bf
       0.44378731012582057 -0.14072196187070288
000440 88 81 a0 fb a0 cc d9 bf 17 e7 e2 08 6a 23 d8 bf
       -0.40311455319353984 -0.37716151111418256
000450 92 d9 ff ef 4d 9c b2 bf 02 71 98 32 99 5a d2 3f
       -0.07269751653061565 0.28677968922581
000460 76 13 e7 44 1c b4 fd 3f b1 ee a9 7b 1d dd 75 bf
       1.8564722720631983 -0.005337824981889548
000470 8b da 74 f2 73 02 c4 bf 7e b5 57 18 c3 d3 ae 3f
       -0.15632485712713548 0.06020936653281249
000480 68 aa d8 84 ea 19 d4 bf db a9 7c 9b b6 86 bc bf
       -0.31408179257656466 -0.11143056198185468
000490 a6 18 16 65 cb f5 01 40 da 06 52 7f ce 71 a2 bf
       2.2450168511741877 -0.03602452568249044
0004a0 72 76 44 20 14 ab f5 bf cb a3 7e e8 4b 00 e1 bf
       -1.3542672405668807 -0.5312861958419658
0004b0 8e 46 48 42 19 29 d0 3f 18 9e b4 f4 5a 92 e8 bf
       0.2525084636009546 -0.7678656367688204
0004c0 89 7e 93 a6 3b be b7 bf b0 d2 78 59 8a 47 bd 3f
       -0.09274647537994886 0.11437287029623167
0004d0 fc 7f 3c 60 b4 32 da 3f 81 45 1a 57 c3 3d d1 3f
       0.40934476278380294 0.26939471727481396
0004e0 7c 29 af f2 3d 94 ce bf c5 33 6e 08 4d d4 af bf
       -0.23889898633781204 -0.0621666024008856
0004f0 c0 b0 fa fa 42 bd 98 3f 8f 3e 51 5f cd b9 d5 bf
       0.02415947586875755 -0.3394654684861757
000500 62 a9 21 3f 20 98 e6 bf 75 00 02 00 e7 05 c5 3f
       -0.7060700638806277 0.16424262524015246
000510 60 bd cc 07 3a 42 e8 bf 90 f6 44 c3 29 9d c1 bf
       -0.7580843117083695 -0.13760873827589082
000520 4f 7f 85 85 a1 0b f4 3f 0a 2e e4 cd f8 87 e7 bf
       1.2528395858461925 -0.7353481313052168
000530 9d b8 1f 11 8b 5c d0 3f db 77 f1 9d 85 ee d7 3f
       0.25564839050537974 0.37393322395462086
000540 e3 43 6c e0 60 67 cf bf f5 89 2d dc c5 89 cf 3f
       -0.24534235914373345 0.24639199496148448
000550 f2 49 b2 2e 1a 0b e3 3f d9 38 df 97 c4 0f d1 bf
       0.5951052581825123 -0.2665873988270398
000560 32 0a cf 3b fd d9 ed 3f e1 e2 9a e4 99 a6 bf 3f
       0.9328600090160022 0.12363588172128061
000570 91 fe a1 f2 ef b0 a1 bf 6c 89 4f 97 0e 2e e9 3f
       -0.034553049438725066 0.7868721919333388
000580 60 c0 46 b4 4f 51 f6 3f cf 4e f8 f6 e8 b5 96 3f
       1.3948514024778191 0.02217830665001835
000590 6f fb 0d 8e 6f ee c5 bf 55 21 2b a2 d4 c1 d0 bf
       -0.17133898197422634 -0.2618304809261834
0005a0 07 d2 e3 4f d9 23 d4 bf 08 2d 36 62 15 39 c4 3f
       -0.3146880417037043 0.15799205108155712
0005b0 1b 76 97 79 5a f5 01 40 7b fc 52 15 41 d7 ba bf
       2.244801473555311 -0.10484701891526697
0005c0 55 67 f0 25 85 e4 fa bf c9 f9 57 46 b4 b1 e8 bf
       -1.6807910425181565 -0.7716924070262446
0005d0 82 e7 4d 9f cb 47 b7 bf f8 b9 b2 73 96 c9 e0 3f
       -0.09093926085725282 0.5246078738908286
0005e0 92 70 11 91 f2 b9 ea 3f 65 c2 ab 3c a4 bf ab bf
       0.8351986726152225 -0.05419648399936675
0005f0 a9 fa 8d 72 3a 70 ba 3f de b0 10 ac b9 72 e1 bf
       0.10327496811621963 -0.5452545509956754
000600 9a 26 7c 3d 79 74 ca bf e6 c7 a1 8e 18 cd dc bf
       -0.20667949201770314 -0.45001806191350935
000610 41 eb 7a 3d de 51 d8 bf c6 4b 4f c8 59 36 c2 bf
       -0.37999683383866417 -0.14228365212201605
000620 08 8d 0c 61 95 56 ee bf 67 7c e8 4a d2 de e7 bf
       -0.9480692763794716 -0.7459498847055216
000630 59 fb 3a cb c5 bb d0 bf 31 52 24 08 a9 dc e0 bf
       -0.2614607319518903 -0.526936069395168
000640 70 e0 88 49 4a 36 f0 bf 2d 3f 2f 57 e2 3c d2 bf
       -1.0132544395874241 -0.28496607317082373
000650 14 73 a2 86 c7 c0 c0 bf 9a 05 2a 56 24 d3 ea bf
       -0.13088316034272707 -0.8382741625684276
000660 3a 9f 17 ff 30 f0 da 3f eb b7 2e 84 58 f6 cb bf
       0.42091011916498966 -0.21845537618850072
000670 0b 1f 0c b5 49 2e d4 3f df 49 bf 2e 1f 54 d8 3f
       0.3153251903572573 0.3801343876376943
000680 82 ac e9 60 3e 5c c8 3f 09 76 8c 5e 48 4f bd 3f
       0.190315053291986 0.11449100788419043
000690 1c ac d8 22 fa fc b4 bf 9f f6 28 86 b6 21 a0 bf
       -0.08198512411824804 -0.031507209660486916
0006a0 18 45 de 3b d6 ba f9 bf ab 8f 68 3e 3f 51 b0 3f
       -1.6081144655802913 0.06373973153728112
0006b0 40 10 3c f7 33 e0 f3 bf d3 ed 2e bf 2b 45 e0 3f
       -1.242237058410879 0.5084437116669797
0006c0 31 9b f3 6a de 36 a0 3f 59 e4 76 d6 e1 20 da bf
       0.031668615871060964 -0.40825696891585533
0006d0 47 a4 fe 9f d7 c2 eb bf 62 f4 57 e1 78 9b b4 3f
       -0.8675344586273547 0.08049731732894963
0006e0 7c 47 80 95 e0 c9 e2 bf ae a7 c2 73 ab 56 e5 bf
       -0.587143222803419 -0.6668298016495464
0006f0 08 88 ac 2e cf 1c 8a bf 96 f1 09 f2 87 d2 b9 bf
       -0.01275026189029306 -0.10086869868422918
000700 51 11 62 ed 0c 2d ee bf fe ad 21 6a 8e d2 c2 3f
       -0.9429993282688348 0.1470506685467256
000710 9e 8a 7c ba a0 bc f3 3f 74 7d 5e 1f 2f 4a d4 3f
       1.2335517201069375 0.3170278364504704
000720 35 91 d2 e8 dd 14 d9 3f c0 39 33 54 14 fb d0 bf
       0.3918986104638578 -0.2653246710077859
000730 be 19 db 9c cf b7 e5 bf 9a 67 63 02 16 83 d5 3f
       -0.6786878646460577 0.33612585290176755
000740 02 26 72 fc 30 83 d7 3f 49 e8 61 27 e1 a7 ed bf
       0.3673822846691054 -0.9267431039036264
000750 ac 0a 0a a3 26 17 96 bf 31 ad f9 f7 66 96 ed bf
       -0.021572688771366685 -0.9246096461551244
000760 c4 c2 9a 13 9c 3e f5 bf b3 02 c3 5e db 5b c8 bf
       -1.3277855649759411 -0.19030325057066974
000770 2a d9 ee 2c 0f 72 75 3f 02 96 a1 be 8e 3c c9 bf
       0.005235728530286013 -0.19716057117618396
000780 db 7a 93 21 61 f9 d4 3f e6 c8 31 46 ab 15 a3 3f
       0.3277209117785966 0.03727469665399656
000790 cb 90 9e 73 77 0e ea bf 6f 5e 81 9c 4e 35 d0 3f
       -0.8142659433547349 0.2532536056873828
0007a0 c7 0a ce e1 bb d9 df 3f ec ce 9f 38 0b 08 c5 bf
       0.49766442347769807 -0.16430797829490673
0007b0 67 e2 ca ea 76 f7 c2 bf 8c 10 b2 7d a2 4e c2 bf
       -0.14817701782682777 -0.14302474153021583
0007c0 29 d9 b2 c7 1a 6b ec bf 3a af dc 07 b2 85 d1 bf
       -0.8880742931712905 -0.27378512161043356
0007d0 b7 0b c7 2b 9f ea c9 bf 1e 41 e3 78 3a 7b e3 bf
       -0.20247258794378606 -0.6087925301635868
0007e0 18 bd 92 25 ee 7a d2 3f e3 af c7 90 57 a8 e3 bf
       0.2887530676770935 -0.6142995670065797
0007f0 fd 25 17 c9 ef 11 f7 bf 33 30 d7 be 09 1e cc bf
       -1.4418790679068245 -0.21966668909442574
