results/Genotyping_Bidirectional_GRU_Dropout_5_Long/models/checkpoints/4/Genotyping_Bidirectional_GRU_Dropout_5_Long-4-100.pt (torch_old, 221491 bytes, 18 tensors)

gru.weight_ih_l0 f8 [96, 10]
000000 76 a3 14 7a 68 9b b5 3f 40 80 a5 64 59 2b be bf
       0.08440258961185329 -0.11784895617665914
000010 61 93 3e 6b 14 49 b5 3f 03 c8 2e c2 d2 ad bd 3f
       0.08314635866424915 0.11593358269490754
000020 54 c7 f6 46 e2 43 bb bf 8d 29 38 eb 4c 63 b0 3f
       -0.10650457603949565 0.06401520483647101
000030 08 68 e8 29 fe 91 c8 3f 82 ca c0 ce 01 a5 91 3f
       0.1919553475025284 0.017231014484603076
000040 2b 73 a3 1a 6b c0 a1 3f 4a 0d fc 86 26 41 e3 3f
       0.03467116069962225 0.6017029415528807
000050 6a fc 97 95 b4 7d c0 bf 59 12 f9 6f 14 bb b9 bf
       -0.12883622459773686 -0.10051086171831382
000060 9f 46 cb b7 21 79 c9 bf fd b1 21 83 e7 ce c9 3f
       -0.1990091464454524 0.2016267195025562
000070 0f da c8 6e 0b eb cb bf 7b 32 9f f4 a4 51 c3 bf
       -0.21811049374964894 -0.15092908806254343
000080 b9 13 0a 22 60 2f c8 3f 4b 75 7e 4a 84 52 c9 3f
       0.18894578611448568 0.19783071172143205
000090 53 62 7a 63 81 06 b3 bf f3 7a bb ae c0 f2 eb 3f
       -0.07431801489509242 0.8733828938237295
0000a0 2f 3b 10 b0 77 a6 ac 3f 02 90 f0 3a cb f8 c1 bf
       0.055957546465029366 -0.14040508630671417
0000b0 46 3e 38 a5 b4 ac b4 3f 48 b3 d1 8f 0a aa c9 3f
       0.08076027902301872 0.20050174734515225
0000c0 b8 d4 de a5 ff 44 d5 bf 70 75 26 c0 42 5c c3 bf
       -0.3323363418415499 -0.15125307447753356
0000d0 72 5c e3 f0 a1 c4 d4 3f 37 7a 8d 08 6c 5b d9 3f
       0.3245015003607882 0.39620495639056535
0000e0 91 24 f6 6a 63 3b d7 3f 22 d4 c1 e7 0b d8 d6 bf
       0.3629997772737364 -0.35693643219502935
0000f0 0b c2 3e 33 58 76 86 3f 7b 19 e2 30 19 ae d6 3f
       0.010967911781194514 0.35437612317800643
000100 fe e0 b3 16 f6 6d c7 bf 15 42 1e 1a d1 90 c5 3f
       -0.18304325207260058 0.1684819581537488
000110 48 cd 59 ec a0 02 d1 bf 28 95 74 7a 1e 65 d5 3f
       -0.2657854374039812 0.33429681738410233
000120 47 c7 e9 3f a8 d8 a8 bf 1d c8 cb 12 8a 68 85 bf
       -0.04852796344938653 -0.01045329923497112
000130 71 5c 7c 0b a5 7d c6 bf 68 07 fa 3b cb 23 ea bf
       -0.17570937214688656 -0.8168693705958789
000140 75 45 23 14 24 27 95 3f f8 65 51 8f fa 69 97 bf
       0.02065712330733534 -0.02286521434539243
000150 79 d0 bf 90 42 7d c5 3f ee a0 93 2a f5 d2 cc 3f
       0.167885132482869 0.22518791750849892
000160 04 58 a5 03 fa 33 f8 bf aa c4 3e 02 0b 8d c5 3f
       -1.5126896040360416 0.16836679086330736
000170 67 91 3c a1 c2 6e c4 bf 72 92 93 40 68 e1 b7 bf
       -0.15963013527756262 -0.09328319145749633
000180 30 27 6e 91 c6 a0 9c 3f cd f8 29 cd d4 34 d2 bf
       0.027957060457573124 -0.28447456393759013
000190 70 81 de 30 e3 39 cc 3f 58 57 72 72 de 36 97 3f
       0.22051658521833017 0.022670245871800304
0001a0 34 a5 31 18 ba d4 5f 3f a3 d0 ec 00 69 ce a8 bf
       0.0019428078965354036 -0.048449784624979196
0001b0 4c 59 61 8c fc 04 ca 3f 80 d9 29 cb 6b 44 c4 3f
       0.20327717642312348 0.15833804531184725
0001c0 d7 16 c2 52 1e 7f 89 bf 96 bc 8d 95 d9 34 c8 3f
       -0.012449490452364582 0.18911285211968182
0001d0 c4 de 9e c4 bf 35 d0 bf 4e 2f 52 ae f6 e5 d0 3f
       -0.25328058434704936 0.26403586410082347
0001e0 bb d2 64 7e 71 b7 bf bf eb 20 07 9d 8e 4a cd bf
       -0.12389287315165635 -0.22883780162215514
0001f0 10 93 2d a2 f5 f3 bb 3f ce 57 04 37 39 84 a7 bf
       0.10919127664017148 -0.04593066021531876
000200 ab 3c 61 05 15 6b e2 bf 00 6f ba 53 08 dc b3 bf
       -0.5755715470385402 -0.07757617992541199
000210 7d 5a e0 00 68 1e c9 3f aa 63 87 4f 98 5a a1 3f
       0.19624042551795987 0.033894309719193785
000220 e4 dc ef 46 96 85 7d 3f 6f 21 b4 ed e2 10 e2 bf
       0.007207476634895491 -0.5645613329552769
000230 92 e6 fc 7e 4c 19 c3 3f 29 ae d2 9d e7 9b c4 bf
       0.1492095584924767 -0.1610078354473086
000240 31 8e ef 65 36 90 80 3f f0 43 bf 5e 12 14 b2 3f
       0.00808756350119841 0.07061877072489131
000250 af b5 44 bc dc f1 ee bf 2c 0b 8c ea 1a 71 b4 bf
       -0.9670242001645216 -0.07985084749456622
000260 93 32 42 17 70 3c 71 bf b1 39 80 7b 43 56 c0 3f
       -0.004208028654954748 0.1276325562507288
000270 4a 1a d6 b1 47 5a b2 bf ce e6 97 1a fb 0f cc 3f
       -0.07169006435115324 0.21923769758705308
000280 d4 48 d7 cb 1d 10 bf bf 54 c4 74 a3 e5 33 d3 bf
       -0.12133966662011925 -0.30004254305373945
000290 2c d5 f9 df c9 2d cf 3f 78 99 34 9c 9d 07 bb 3f
       0.24358485637973482 0.1055849558220866
0002a0 15 5d 28 80 d0 dd d8 bf 5b ed e3 64 5b af 88 bf
       -0.3885384799518346 -0.012053216949871872
0002b0 52 10 84 24 9d 24 8b bf b9 f1 d2 5d d8 6e c4 3f
       -0.013253429104686774 0.159632726490498
0002c0 94 48 87 92 10 cc 66 bf b2 94 d4 7f 28 88 ab 3f
       -0.0027828525237306254 0.053773179630561954
0002d0 09 90 e5 b1 98 37 ce 3f d3 22 24 c2 83 0e d9 3f
       0.23607166944850658 0.3915109058294039
0002e0 55 ef cf d9 20 35 d5 3f b8 d7 40 18 5b 05 d5 bf
       0.33136769552924267 -0.3284518944595862
0002f0 43 94 9c 90 df 89 b4 bf b1 26 7c 3b 5b 4e b8 bf
       -0.080228779607368 -0.09494562341947234
000300 e8 a7 db f8 4b 13 cc 3f 24 9b e8 f5 9b 26 d7 3f
       0.21933889056464229 0.3617315198375073
000310 b8 2c f6 aa 1a 6c b5 3f e3 f2 30 2a fd 75 ca bf
       0.08368078874461815 -0.20672573623769272
000320 a7 ba 22 14 90 22 ad 3f c4 f7 a8 1c fe f4 8f 3f
       0.056904318292585736 0.01560400509799454
000330 9e 68 16 b4 24 26 db 3f c6 2a ab 77 ba d3 67 3f
       0.4242030867259333 0.0029085771505824335
000340 d2 2f 50 dd 62 92 df bf 6a d3 b7 46 de f3 9d 3f
       -0.4933097039472588 0.02925059610966533
000350 c0 bb 8b d1 f4 61 d3 3f 5c f6 ac 74 5f 68 8a 3f
       0.302853779444316 0.012894387958677082
000360 69 2f 5f 08 6a e8 b1 3f 6c 98 75 eb 57 5d b3 3f
       0.06995260910406177 0.07564305780906161
000370 b1 ca 1a 66 f0 60 c2 3f 0a d3 90 c7 1d a8 a4 3f
       0.14358334527567743 0.040345125781106786
000380 fd 16 18 36 94 2c c5 3f 72 2a f7 14 8a fe d8 3f
       0.16542294160188212 0.39053585097705146
000390 bf 00 92 3d 6f d0 98 bf 44 40 ca b7 ee b1 b7 3f
       -0.024232614644007052 0.09255878436147308
0003a0 7e 2f 24 95 3e 1c d1 3f 5a 68 3a 7f 49 8f d5 3f
       0.26734890522561006 0.3368705503904771
0003b0 84 bc 60 30 8b 1c a5 3f d3 a1 53 2f 58 77 d0 bf
       0.041233396201612954 -0.25728420850512385
0003c0 47 ef 5c 15 48 82 c3 bf ef ce 06 44 94 97 7d 3f
       -0.15241337817303188 0.007224635279658761
0003d0 b2 81 cb ad 8d ce 9c bf dd 21 61 b8 94 b7 cd 3f
       -0.02813168881664447 0.23216494563008797
0003e0 5f 96 16 2a 97 b2 e9 bf 83 ee 5a 1b af 09 d6 3f
       -0.8030505964313298 0.34434106513410984
0003f0 19 8c 21 23 e1 9b ad bf cf 13 c1 df b1 dd cd 3f
       -0.05782989076467277 0.23332808900354826
000400 d8 6c 17 27 46 8c d0 bf 68 e0 f0 44 ba d2 cd bf
       -0.2585616475823378 -0.23299339643722594
000410 6f 46 19 4f cc 3c cd 3f 38 35 3f a8 87 d6 d2 bf
       0.22841791021578525 -0.2943438666378202
000420 7b 8a 14 5b ef c1 d5 3f 99 ea 8b 8c 8b 42 87 3f
       0.33996185202173707 0.011357393480911514
000430 0e 51 b7 16 bc 97 c2 bf b8 46 62 8a 5e 57 da bf
       -0.14525557622130986 -0.41158259882022774
000440 20 49 47 2b bf 10 e2 3f de df b8 47 9b cc 0e bf
       0.5645442815096295 -5.8744896673734495e-05
000450 47 bd 34 62 8c d1 a2 bf 31 48 97 dc 2b ff c2 bf
       -0.03675497721485015 -0.14841221114198924
000460 0a 2c 15 0b 12 d9 d8 bf 1a 4a e6 bc fc e1 df 3f
       -0.38824893076224554 0.4981681675646158
000470 5e 90 16 59 e1 60 cb bf af bf e4 7f b0 48 d2 3f
       -0.21389405107504705 0.285686612030072
000480 69 4a 22 0c 7b 30 e8 bf 1d dc ec 1a ec fd d3 bf
       -0.7559180485716982 -0.3123731863919959
000490 9c e4 59 50 d3 e8 b6 bf 55 7c d5 ee 53 27 da 3f
       -0.08949013435075631 0.40865038226724454
0004a0 eb ed c3 20 97 c1 aa 3f 3f 64 f3 41 18 0a d8 bf
       0.05225822710960045 -0.3756161350298192
0004b0 d8 33 a6 fd 8a 96 c7 3f cc 3a ac 7e 88 4d cb bf
       0.1842817057153343 -0.21330362496561006
0004c0 57 7a 76 c8 e6 01 c5 3f a6 35 0d 9d 04 56 c0 bf
       0.16412052906248917 -0.12762506168875837
0004d0 e4 16 a7 e4 c3 06 dd 3f 40 ac ed b0 05 6b d1 3f
       0.4535379155098396 0.27215711858906744
0004e0 9b 27 b7 36 ad 31 bc 3f c3 bb 2a 26 03 37 c4 3f
       0.11013300500704164 0.15792884219760425
0004f0 24 77 f5 df 14 59 b7 3f 12 70 80 a4 ea fb d7 bf
       0.09120302646394102 -0.3747507673704159
000500 31 aa 7e 1a c9 8a 9f bf e7 39 08 f8 fc 43 d6 bf
       -0.03080286239825564 -0.34789966794860877
000510 9f 0a 34 c2 2a 68 d8 3f 7c 1f 45 6a ce 47 d7 3f
       0.3813578506962276 0.3637577092927058
000520 d5 2c f7 6b 7d 9b fb bf 39 b5 ed 98 b0 6f c2 3f
       -1.7254614083674842 0.14403350321973976
000530 3d ce 5a 60 b8 4b b6 3f a5 6a ae 77 ac ad cd 3f
       0.08709289886865519 0.23186260074438284
000540 74 dd fc 75 9d 34 c0 3f 00 a0 0a 82 b8 16 e4 bf
       0.12660568486328894 -0.6277735271332858
000550 9a c6 23 ae c9 0e a3 3f e7 d2 9a c0 8e 5d d4 bf
       0.03722219706277237 -0.3182103043466626
000560 68 0d 2d 36 dd 21 c7 bf fb c8 2c 5e c8 1d 9c bf
       -0.18072095055877502 -0.02745736193464497
000570 10 a0 6e 71 db fb e0 3f 15 a6 22 f4 f4 49 ce 3f
       0.5307442870589529 0.23663198395415522
000580 0a bb 2b 96 29 1f 93 3f 4e 57 28 e7 8d d4 c1 3f
       0.018673562803935652 0.13929914271346394
000590 16 8a 28 4d 7e d9 bc bf 0e 76 a4 e1 4f 2c d6 bf
       -0.11269368537663413 -0.3464545920886345
0005a0 c1 ec 9b 6b 6a bc c3 bf 6b d9 5c 43 f2 d5 cf bf
       -0.15418749098157572 -0.2487166241568944
0005b0 7a 91 e1 8b 8f c9 d2 3f 73 ab 06 0c 84 4c d5 3f
       0.293552290537512 0.3327951543275766
0005c0 51 98 24 da cd 0c e1 3f 18 c3 58 b7 8d 33 d2 3f
       0.5328130016903377 0.28439658074334906
0005d0 4d 47 08 15 0a 39 cd bf d9 65 bf 5b a5 25 d5 3f
       -0.22830320383996608 0.33042272529345734
0005e0 70 7b de 9b 93 e5 d4 bf 1b 36 c2 fa 4f 4d d2 3f
       -0.32651224347676244 0.28596877563617945
0005f0 a5 ba 44 b3 b0 c3 ca 3f b9 aa ea 6f 11 91 c3 bf
       0.20909699204772383 -0.15286462750130683
000600 f9 b5 58 44 2c b8 a5 3f 2c 51 61 cc eb 0a d7 3f
       0.04242075285251796 0.36004157027243155
000610 8a 9d be 77 a4 0d d8 bf fb 92 2f 04 57 15 a6 bf
       -0.3758326691990638 -0.04313156057449948
000620 2f 3f 6f 4e bb f8 b0 3f c0 db 0f 16 21 44 ba 3f
       0.06629534401804159 0.10260206974622488
000630 4b 7c 83 eb f9 a0 ae bf cc 91 81 5d 4d 12 e2 3f
       -0.05982190132066786 0.5647341562549228
000640 7c 1e 7c 29 89 bf a5 3f ac 73 f6 a9 27 69 cc bf
       0.04247692710310688 -0.22195907401046833
000650 4c 89 bd 7e a1 bb a7 bf 8f 72 e7 21 00 08 c3 3f
       -0.04635338470576986 0.14868165641282302
000660 27 de c4 65 85 da ed bf ac 57 e3 03 38 ea c7 bf
       -0.9329249370266027 -0.18683529081198225
000670 02 27 6c 7a 47 02 d1 bf 8b 3d 43 d0 2b 00 90 bf
       -0.26576411204642636 -0.015625652872413503
000680 19 98 60 35 38 99 c0 3f a5 bc 87 7e fe fb dd bf
       0.12967589002909177 -0.46850550037829414
000690 8f 73 9d 34 8c 0b bc bf 5a e7 51 6f cb cd 6b bf
       -0.10955120358035074 -0.0033940289818560733
0006a0 ed d6 01 71 95 93 c8 bf 4d 4c c2 2d 47 a4 b9 bf
       -0.19200389879158966 -0.10016293399012106
0006b0 5a f3 aa ec cd 3b dd bf 2f 3c 9c c9 a7 fc d2 3f
       -0.45677517044150806 0.2966708630419274
0006c0 50 66 a0 15 27 f8 86 3f cf 76 1a e5 9e a7 c8 bf
       0.01121550116299655 -0.19261537729919673
0006d0 4d 17 0d 35 fb 0e ab bf f2 63 10 71 cf 2e e5 bf
       -0.052848673082321974 -0.6619641502649058
0006e0 fe 05 70 69 40 73 c1 3f 5b ef 04 bf 15 e8 77 3f
       0.1363296999771108 0.005836567827198848
0006f0 20 30 ae 92 cb 75 b4 3f c6 22 39 eb 56 e0 b3 bf
       0.07992241221489893 -0.07764189951661668
000700 3f e1 14 b5 62 36 c7 bf 4c f4 99 09 a4 65 cd 3f
       -0.18134721605179924 0.22966433018510413
000710 78 81 85 82 01 8c b7 3f af b9 43 5a f7 f4 b5 bf
       0.09198007046280121 -0.08576913789486328
000720 93 56 75 01 ab 0e ae bf 68 fd 76 6f 1f af c4 bf
       -0.058705657890340344 -0.16159432356469527
000730 1f b5 1b 03 d5 4e c4 3f 61 09 34 c7 83 76 d3 bf
       0.15865576411980783 -0.30410856679386283
000740 46 c9 71 94 0a ef bb 3f 5c 29 96 d3 b0 8b 90 bf
       0.10911623119480848 -0.01615787784025123
000750 31 57 1e 9b 6f e4 b2 bf 9d 0b ef ad 0b 76 ca 3f
       -0.07379815613816444 0.20672746651515875
000760 b7 5a 21 cf 50 37 cd bf 8e 9a fc 86 00 14 b4 3f
       -0.22825059999259675 0.078430207210298
000770 86 1c f7 49 26 3f b8 bf 07 61 8d be 35 ca bf bf
       -0.09471358590882248 -0.12417922880320385
000780 7f cf 73 53 c1 3d b8 bf 2b ab c9 e2 3b 3b a8 bf
       -0.09469230925952664 -0.04732691901593563
000790 e9 f9 4c fc 82 d1 86 3f 6e b6 0a 16 25 57 d8 3f
       0.01114179928265187 0.38031890060924567
0007a0 0b ca c3 50 c4 fb da bf df 13 78 22 8b 51 b8 3f
       -0.42161662947833695 0.09499425498513812
0007b0 85 ae ac b2 37 50 c0 bf 7b 8f 6b 61 ba 91 c9 3f
       -0.12744804596274065 0.19975976712077767
0007c0 9e 41 c7 4c 1a 88 b4 3f 34 6a fc f0 04 54 d7 bf
       0.08020176290961564 -0.3645031312350142
0007d0 01 f7 8e f1 77 41 c0 bf bb 1d 47 a7 9b 4f c4 3f
       -0.12699794096800335 0.15867944400654985
0007e0 1f 44 61 31 26 1f bc bf 1a af 7c 91 c9 22 c4 3f
       -0.1098502989346035 0.15731162647113522
0007f0 ea 2c 90 92 c7 6e cc bf 8e f6 96 98 87 a6 b3 bf
       -0.22213072449117216 -0.07675979113897766

gru.weight_hh_l0 f8 [96, 32]
000000 15 21 e6 11 94 05 b0 3f 21 fa 68 27 0d 83 b9 bf
       0.06258511960016151 -0.09965593540344077
000010 8c e7 80 f0 61 74 d8 bf 07 e3 d8 b0 1d 7d c9 bf
       -0.3821034287135425 -0.19913073668592338
000020 15 9d bc ae 66 c3 c2 3f bd 85 91 cc 8d 3c b4 3f
       0.14658816845005931 0.0790489792284665
000030 81 5b 39 40 8d 8d c6 3f a4 6a f5 fa 53 14 bd 3f
       0.17619481693210662 0.11359143139763234
000040 18 23 44 7f 2e 18 a8 3f 78 39 8d bb e7 6a a2 3f
       0.047059491191310865 0.0359718719906707
000050 7a e9 c6 41 46 f6 ce 3f 5c 12 41 85 a7 5c c3 3f
       0.24189069949882108 0.15126508719017095
000060 38 97 ee 9c 60 bc c3 bf ea c2 a2 af be aa bd bf
       -0.15418632185645165 -0.11588660991652558
000070 84 67 20 c1 b7 27 b0 bf f2 39 29 21 37 bd b0 bf
       -0.06310604538921721 -0.06538719710918153
000080 b2 bf 7d 58 06 04 ca bf 07 16 65 8b bc 13 b9 3f
       -0.20324782677516634 0.09795740512080196
000090 73 44 ee d4 ca a5 cf 3f f0 a6 a2 34 8c ef 94 bf
       0.247247079820713 -0.020445051872832687
0000a0 70 5e d8 f3 22 54 bb 3f 15 37 c7 10 7d b5 c9 bf
       0.10675257161380514 -0.20085109061476972
0000b0 ba 77 a8 3b bd 48 c7 3f 63 db 1e a4 d8 a6 ae 3f
       0.18190732396118198 0.05986668589996815
0000c0 0d 9b c6 77 2a 3d c4 3f f7 1d 5b d0 ea c8 d6 bf
       0.15811663483074093 -0.3560130152440872
0000d0 a3 a9 9e 2f 8b 1a c6 bf 03 94 89 58 17 07 b1 3f
       -0.17268504929718373 0.06651445304449059
0000e0 16 bc 10 8f d7 b2 98 3f 5f 5f d6 3e 74 a3 d7 bf
       0.02411972819043847 -0.3693514455458082
0000f0 c6 25 9a 81 9f db cf 3f c6 d9 5e 60 2e be d4 bf
       0.2488898642371124 -0.3241077366941706
000100 9d c3 a4 a9 d5 6d bc bf a1 c4 08 4e 03 63 95 3f
       -0.11105094329538052 0.02088551677497164
000110 30 c6 bc ca 85 31 d5 bf 33 2b 41 a4 10 42 c8 bf
       -0.331147621141187 -0.1895161439918752
000120 32 3b fd 97 7a e7 c6 bf 9b 18 e7 3a 89 f1 84 3f
       -0.1789391748556795 0.010226318464344344
000130 19 50 b0 c8 15 9a b3 3f b5 13 d2 69 66 d6 96 bf
       0.07656990193964965 -0.022302246292855894
000140 44 21 94 c9 eb eb b7 3f 64 cc f1 79 35 23 b0 3f
       0.09344361945489249 0.06303724505578284
000150 b6 f2 87 6d 79 20 9f 3f 8d e9 a3 53 69 43 cd 3f
       0.030397317228550512 0.22861973365781943
000160 cb 85 9a 56 42 ae 7e bf 95 87 f7 47 7c c0 c7 3f
       -0.00749040521046269 0.18556169046410945
000170 43 1f d8 e9 7f 66 93 bf f0 00 bb 6a 6b c7 a7 bf
       -0.01894569268009084 -0.04644332578527777
000180 0f 99 7b 2b a4 99 c4 bf 1c ff db 66 81 9f 8a bf
       -0.16093876002486993 -0.012999545051115606
000190 34 5a 1a 80 e0 c9 83 bf 68 71 af 75 cf cd bb bf
       -0.009662393483535238 -0.10860916732003079
0001a0 9a f4 98 7c 66 25 c3 bf f5 a2 7c 8f ff ff c2 3f
       -0.1495788677583832 0.1484374476069871
0001b0 90 52 f9 1e 41 6f 78 3f 01 a0 a6 fe 48 17 c6 3f
       0.0059654754437202945 0.17258560594677877
0001c0 54 1f 11 6f 73 16 b0 bf 16 d5 fa 93 a6 bd af bf
       -0.06284257375329833 -0.06199379497904027
0001d0 e4 0b 6b 42 02 b0 c5 bf ba 8c 6f 13 09 88 b9 bf
       -0.16943386309694042 -0.09973198627953908
0001e0 45 16 bc 9f ae fe b2 3f de 6d 6c 3c ea c0 8f bf
       0.07419864082120238 -0.015504674881916477
0001f0 93 35 c8 d0 9d e0 ba 3f 1a 77 56 a4 3d ba c7 bf
       0.10498987529009289 -0.18537111782364307
000200 45 7d ad 48 e7 2b c4 bf 57 7b d5 d6 14 e0 d3 bf
       -0.15758982704844918 -0.31055184345125525
000210 54 a5 40 b2 d2 e1 c5 bf ac 10 0e 35 08 d0 b9 bf
       -0.17095407203422985 -0.10083056731497447
000220 a1 e3 1a f0 c2 12 d7 3f 92 04 cf 75 4a 24 94 3f
       0.36052010963208586 0.01966968864485758
000230 8a 95 05 ff b1 52 d0 bf e6 25 ab 5a 2f 36 ad 3f
       -0.2550473204085725 0.057054023569047804
000240 8a 1a 6f b3 8c e8 9d bf 37 92 b6 b2 ac d7 d7 3f
       -0.02920741887262549 0.37253873302896373
000250 8c 6e 4d 63 16 94 92 3f 78 50 18 c9 36 8e bc 3f
       0.018143033801023153 0.111545013518766
000260 70 e2 f6 3a b8 5e a6 bf 68 32 d8 b5 b0 bc cb 3f
       -0.043691403577615584 0.2166958702004138
000270 cb 07 57 10 b8 bf d1 3f 64 bb 58 d3 6d 33 c2 3f
       0.2773265990800808 0.14219448871287022
000280 35 df 6d 10 36 e1 cd 3f 15 7b 18 73 e8 a5 b1 3f
       0.23343540003019717 0.06893780527068956
000290 38 c7 68 ba 11 2a d6 bf a6 4d 2c 52 3e ad b7 bf
       -0.34631770328552447 -0.09248723512819498
0002a0 ec 93 06 01 76 2d cb 3f 99 9a 8d 57 01 6e c1 3f
       0.21232485818941826 0.13616959357314753
0002b0 7b 82 6b 47 bc 33 b6 3f 9d 7f 5a b2 28 d7 a4 3f
       0.08672692054416047 0.04070403268019549
0002c0 29 d1 5b 20 56 d0 b8 bf bd fd 6a 72 17 26 b9 3f
       -0.09692896165853838 0.09823748153120611
0002d0 e8 bb d5 45 97 60 d4 bf 1b bf 14 c8 22 68 ae 3f
       -0.3183954412442618 0.059388243602709966
0002e0 01 c0 e1 42 5b e8 c2 3f 66 5e f4 5a cf ce cb 3f
       0.14771595731463097 0.21724883977070703
0002f0 81 ec 48 6a 3d d1 97 bf b7 52 ff 4c 8b ee b7 bf
       -0.02325912438594147 -0.09348364476984271
000300 0c 54 f9 f5 c9 25 c5 3f 08 af 87 6b 88 51 8f bf
       0.16521572599836565 -0.015292230397754306
000310 36 1e a0 c2 aa 3d ca bf 10 66 c9 be d9 b2 e3 3f
       -0.20500692847439134 0.6155823446562767
000320 6e 71 bb c4 bd eb d2 bf 9b da ce b8 f5 5f ca bf
       -0.2956385060513388 -0.2060534622557569
000330 0d ce e3 e5 87 9f a8 bf 6e 84 3d 5e 5f 7c 9b bf
       -0.048092123806693456 -0.026841631056758457
000340 86 e8 b4 4a fb 27 d5 3f df 2e 62 17 74 6e 84 3f
       0.33056528373311556 0.009976298297508844
000350 77 5d 50 c1 d0 e9 bb 3f 10 21 ec ca 65 04 a3 bf
       0.10903649062708164 -0.03714292623596027
000360 42 ad 6b bf 14 42 bc 3f 41 86 90 3c 5f 80 dc 3f
       0.11038331673960491 0.44533520617014594
000370 bd 23 34 6f af d5 b0 bf c0 28 4c 01 d9 66 c0 3f
       -0.06576057877477033 0.12813866198877655
000380 3c 54 95 ee d1 86 d0 bf 58 4c 52 62 b9 dd 61 bf
       -0.25822876261856087 -0.0021809216291984006
000390 2f fb 5a a9 cc b2 be 3f b1 59 84 3b 41 12 b2 bf
       0.11991576323178486 -0.07059104636241532
0003a0 66 ef 7f 6e a4 60 c4 bf b9 1d 30 da 2e e9 d1 bf
       -0.15919928927894061 -0.2798573618642553
0003b0 d4 85 57 ce 91 e4 a7 3f 8a 3c bc e1 3c be 88 3f
       0.04666572231122826 0.012081599844832053
0003c0 11 53 83 30 f4 37 dc bf 23 bb 00 86 2f 5a d6 3f
       -0.44091515290829003 0.34925449453560214
0003d0 cb 0e 11 b6 e6 af c0 bf e8 ad 03 93 4f 6a ca 3f
       -0.1303680790898539 0.2063693492740264
0003e0 91 e7 94 9b c8 3f a2 bf 1c 29 41 08 f6 dd d7 bf
       -0.035642880432035125 -0.3729224281893424
0003f0 f9 8d 9d 55 fa 9b 81 bf 31 74 7c ac 00 dd cb bf
       -0.00859828542497264 -0.2176819650857467
000400 ac cb 1c 19 e4 6f c9 bf 97 44 83 f9 93 a9 9b 3f
       -0.19872714258380364 0.02701407633214056
000410 06 71 b2 f2 89 c7 d2 bf 2d ed 38 29 3c 52 a2 3f
       -0.29342888546831636 0.03578365328982112
000420 fc c3 0e 09 ce 70 af bf a0 9c 6c 47 f1 06 b8 bf
       -0.06140750752036436 -0.09385593408352344
000430 88 72 7e dc 19 3f 9d 3f 88 e6 26 8e f7 89 9f 3f
       0.02856102379120043 0.030799739886538308
000440 a6 fa df 3d 86 95 b2 3f 1a 20 82 cd 2c 05 cf bf
       0.07259406099908947 -0.24234542879662585
000450 19 ec f7 b6 fb 19 a4 bf 13 86 4d 05 b5 a1 cf 3f
       -0.03926073654653112 0.24712240942885497
000460 96 dd 56 dd fe 05 ca 3f 79 73 e7 f5 d9 23 72 bf
       0.20330797011932294 -0.004428721817444686
000470 99 6d 49 c2 db 76 95 3f 77 d6 53 c3 06 45 c3 3f
       0.02096122144062704 0.15054401910281331
000480 e4 77 ab 35 5d 79 83 3f 4f f3 d8 73 a2 19 b3 3f
       0.009508827400562532 0.0746099026518554
000490 e8 d5 c1 68 d5 3a cb 3f b4 8b d9 23 9c 44 c0 bf
       0.21273295989128305 -0.12709380865552833
0004a0 05 d8 2b dd 1f 9a bf bf f9 56 33 a0 c5 76 c3 bf
       -0.12344550275506101 -0.1520621330479839
0004b0 94 dc 50 38 ca 06 99 3f 93 1c d8 0b 35 d6 d2 3f
       0.024439963996169725 0.2943241706529502
0004c0 ab 35 88 8f 13 12 c6 bf 98 ef a0 8d 11 1a d0 bf
       -0.17242664822007944 -0.2515910990803092
0004d0 5a 28 ef 7a 6b 66 cb bf 59 7a 74 4b 98 4e b1 bf
       -0.21406310560843417 -0.06760551302111519
0004e0 63 c6 08 25 ff 31 c7 bf 6c 50 f2 38 fa 8f d1 bf
       -0.18121327694238962 -0.2744126850241233
0004f0 66 28 96 d6 29 b1 c9 3f 08 dc 48 3f a0 00 b4 bf
       0.20071909883364752 -0.07813455147775994
000500 db a2 ef 04 35 8b ae 3f f3 80 d8 82 2e 4b a0 3f
       0.05965581593756549 0.03182359072911991
000510 49 e6 ad a7 63 12 b1 3f 53 9e 36 95 c2 90 83 3f
       0.06668684810383597 0.00955345170844094
000520 8f af 02 57 a5 33 d3 bf 65 5a 3c 1a 1b 55 cf 3f
       -0.30002721306913654 0.244784725008418
000530 90 0e 3c 6a 85 3f c1 3f 0b 65 8b dd 07 8b b4 3f
       0.13475101172672455 0.08024644049455192
000540 4d 64 3d 7c b0 c7 cd 3f 17 ab d2 34 8e 09 a5 bf
       0.2326565367355066 -0.0410885276299579
000550 f8 a7 f8 01 b2 d3 c3 bf e4 f3 a8 c7 3c b5 c8 3f
       -0.1548979291558792 0.1930309271719174
000560 78 b5 ee de a0 72 d1 bf 78 44 a7 c0 1e d0 c7 3f
       -0.2726213624071856 0.18603882223991142
000570 34 e3 a0 d6 ab ab c0 3f 43 c8 b1 6c 55 91 c6 3f
       0.13023899059205635 0.17631023223253992
000580 9c 78 58 f3 e4 f9 a3 3f 85 fd a5 e9 cf 55 ca 3f
       0.03901591749694086 0.20574377926457657
000590 92 14 3f e9 42 73 b0 bf 3b 07 ff 12 7f 5f b9 bf
       -0.0642587489556539 -0.0991134091737224
0005a0 29 8c f0 36 67 0d 8b 3f 34 bd 8c 9a e2 c5 cc bf
       0.013209158290981975 -0.2247889761579046
0005b0 17 1b 31 a8 73 ff a0 bf 6c c9 ed c3 47 d4 62 3f
       -0.03319894245264814 0.0022984887759147
0005c0 77 bd 2c 74 20 36 b5 bf c9 f8 f4 25 92 de b6 3f
       -0.08285715900705336 0.08933366228754659
0005d0 bc 5c 3c bd 01 ca a2 3f 2c fb 3b 0a 7a 13 cc 3f
       0.03669743952758028 0.21934438228341813
0005e0 b2 3b 93 4a c7 d5 d7 bf a0 ad 98 87 2a cd 66 3f
       -0.37242300303199294 0.0027833777101215623
0005f0 34 5f 39 a4 80 af d1 3f a7 6c 8f 27 e4 09 cc bf
       0.27633682286749495 -0.2190518563428203
000600 41 97 94 83 25 00 a1 bf ec 65 c6 e3 e3 1c c4 3f
       -0.03320424300390679 0.15713165876222435
000610 5a b1 8c ef ab 0b b8 bf 84 82 1f 70 47 69 d1 bf
       -0.09392809484842726 -0.27205072354812665
000620 89 94 22 63 5b 8f c6 bf d3 3d 00 69 74 86 b8 bf
       -0.1762499078805926 -0.09580161632060617
000630 30 8e 19 a7 4f ab c4 3f 77 f7 90 02 c5 f1 83 bf
       0.16147800120516953 -0.009738482609573869
000640 a4 d9 54 0d 43 a0 cd 3f 52 6d ef 2a ce 6e a1 bf
       0.23145330573033818 -0.03404850267517169
000650 72 fb 4f fd 37 0f c6 bf 65 55 78 19 a7 54 a0 3f
       -0.17233943814059277 0.031895849093568164
000660 06 dd 5b 65 5c 7d c6 3f 79 25 ea 0f de 6d d6 bf
       0.1757007117191522 -0.3504557757774687
000670 a7 6d 12 e6 43 e1 97 bf 11 2c af df 21 b6 6d bf
       -0.02332025615451774 -0.003626886520100133
000680 1b f2 e0 55 bc 7c af bf 38 11 6a 1a ed 91 c6 3f
       -0.061498532756079714 0.17632831372987723
000690 b4 ff 67 35 6d 66 b5 3f 98 ae b9 cd e2 c8 9a bf
       0.08359415582526603 -0.026156944090344497
0006a0 6d a2 75 30 b9 95 b9 bf b6 82 e5 62 8c b1 d2 bf
       -0.09994084771245478 -0.2920866933618912
0006b0 8e 80 b0 44 97 c6 cc bf 2a 9e a5 6b e3 8f c6 3f
       -0.22481051305749528 0.17626612430761784
0006c0 10 68 58 bb e1 c5 c0 3f a9 c3 4e 8e b6 5f e0 bf
       0.13103887222024513 -0.5116837291189898
0006d0 21 5b 33 05 f6 a5 a4 3f 39 cf 35 1a 60 34 a1 bf
       0.040328682074394225 -0.0336027175898423
0006e0 8b 72 ae 7d cb 2d a6 bf 9c 8a 7d 48 03 10 c0 bf
       -0.04331813725659569 -0.1254886726338399
0006f0 a9 1c bb 2b 46 91 c0 3f ba 20 66 95 dc c8 ac bf
       0.12943341384218357 -0.05621995280950061
000700 5d 35 96 5c f9 e5 bb 3f da 14 f2 8c e4 63 bd 3f
       0.10897787580889458 0.1148054927926582
000710 e7 f7 93 30 93 11 d1 bf 2b f5 08 e6 5c 84 a9 bf
       -0.2666976904291673 -0.04983797367138217
000720 92 08 59 03 99 99 be bf ca 38 e2 c7 65 6e a0 bf
       -0.11953121501668054 -0.03209226670252148
000730 0b 55 1b af ab 85 c4 3f 56 5d da ad b7 f4 b0 3f
       0.16032930421958044 0.06623409265954669
000740 04 ba 51 b7 4c 1e a9 3f 62 97 41 82 32 4d c8 bf
       0.049059293153607825 -0.18985587463537984
000750 ca d1 4b 65 74 92 c9 bf 3d 52 be 63 de 8a b8 3f
       -0.19978194185354275 0.09586896834509502
000760 2a a5 19 73 6e 08 a8 3f 0f 4d 8c bb f3 3a c1 3f
       0.04693932681113673 0.13461157472247762
000770 87 76 f1 10 e0 a2 be 3f b0 11 9e da 3d 6c a6 3f
       0.1196727792134543 0.04379456800146231
000780 16 2b 3c 60 83 82 bb bf 5c ca 02 75 36 5c a4 bf
       -0.10746022319305512 -0.039766027244145546
000790 ac 5e 10 8c ad 20 d8 3f 91 35 74 50 ef 3d c3 3f
       0.37699450185889805 0.150327600750114
0007a0 3e 74 83 53 e4 30 cf bf d0 a2 d3 19 4b ce 8b bf
       -0.243679562357018 -0.013577067113560132
0007b0 8d 2f a0 8a df 35 b1 bf a9 09 59 2c 4a f3 d3 3f
       -0.06722828993241432 0.3117242272457142
0007c0 98 4a f7 86 4d 07 ab bf eb 22 29 cb db 00 d8 bf
       -0.05279009125265083 -0.37505240287695923
0007d0 b8 c6 49 50 db 4a d2 bf 01 db c7 03 93 14 b6 3f
       -0.2858188900055256 0.08625143854429142
0007e0 e9 75 8b 45 9d 2f ba bf 3a 49 a5 f1 f4 84 c3 bf
       -0.10228903720732031 -0.1524950199041742
0007f0 b0 b1 8a 2d ac fd d2 3f 5f 2b 49 82 15 bd b1 bf
       0.2967329449409375 -0.06929144316488366

gru.bias_ih_l0 f8 [96]
000000 37 5d 51 45 55 a3 bc bf bc 6b bc bc a3 57 a3 3f
       -0.11186726515130806 0.037778012074532324
000010 a0 f6 52 27 9b 77 d3 3f 60 83 b9 4b 84 7b b5 3f
       0.30417517509691017 0.08391596649881938
000020 89 b0 06 a2 d9 7c cc 3f cd 2d dd c4 ca c4 ac bf
       0.22256012355262936 -0.056188904315230916
000030 55 07 19 71 bd e7 b4 bf 97 65 b1 db 1a 8e ac 3f
       -0.0816610718839262 0.0557716744594458
000040 49 93 98 c5 89 8a a9 bf 77 ea 97 12 43 57 da 3f
       -0.04988508736668124 0.4115760499550229
000050 30 b8 e0 b2 f5 7e aa bf 7d f5 4a 46 47 a0 c4 3f
       -0.05174987610404036 0.16114130909219773
000060 56 61 64 6a 09 73 b1 bf 4e 49 7e 54 2b 6e c8 3f
       -0.06816157195533398 0.19086209893846234
000070 b8 d3 eb a5 6d 70 8c bf 26 6c 32 28 7e 2c b4 bf
       -0.013886314989102519 -0.0788039062630764
000080 64 b1 ad ab e7 ac c9 3f 45 25 14 6d b9 48 cd bf
       0.20058914072741196 -0.22878187013729182
000090 7d c2 50 97 49 d4 c3 3f 16 06 d3 b8 ce 67 6e bf
       0.15491599930239267 -0.003711608651969521
0000a0 b6 a1 b7 85 c9 8d c2 bf 13 5f 7a f9 14 cc 94 3f
       -0.1449520018498 0.020309760786942976
0000b0 8b 55 a9 bd ef 77 b0 bf 72 98 2c 35 b4 f6 bd 3f
       -0.06433008556753898 0.11704565332601805
0000c0 e7 7a 9f 99 e3 d4 c4 3f 33 f2 eb b7 72 02 b3 3f
       0.16274685860749757 0.0742561053302289
0000d0 b8 4b 70 6c 54 d9 a3 bf 1a e7 c0 2f 2f c1 b3 3f
       -0.03876746963228278 0.07716650882585122
0000e0 a5 09 5c 7e 1b 04 b5 bf fd e7 5f 77 dd 7d a2 3f
       -0.08209392390202781 0.03611652452669032
0000f0 a4 c7 0a 62 ad d3 b2 bf 0b 2e ea 01 87 b0 a7 bf
       -0.07354243892294093 -0.04626867197393033
000100 ae ce fb 28 19 65 c0 3f ac 43 42 d1 e0 da d7 3f
       0.12808527470735015 0.3727342647117051
000110 f6 b9 61 96 99 ed af bf 96 cb 6e be 72 91 ce 3f
       -0.06235961876597067 0.23881372736431378
000120 38 3d 0e 6d d4 fb c1 3f bc a6 d5 cc 3f 5e d5 3f
       0.14049773526174092 0.33387751582504754
000130 5f 6d 94 96 9f aa 9b 3f 65 5a b7 de c7 e2 d5 3f
       0.027018064084683654 0.3419665980303875
000140 d7 8d 7a 9a 6a f4 c3 bf 6d 4b 31 0f d2 aa d7 bf
       -0.15589649718195517 -0.3698010586132828
000150 20 a3 f1 8b 57 60 e1 3f 0e ed 0e c9 a0 8f a8 bf
       0.5430104954985815 -0.047970795195818025
000160 4e 47 fe e5 a0 f7 b3 3f f1 d6 07 fd 37 5d e0 bf
       0.07799726119108394 -0.5113792364124646
000170 44 ac 2f 69 26 8c db 3f 0b 43 75 e1 6c 6f e2 3f
       0.43042907974330924 0.576101723048937
000180 97 a4 f4 cd bb 4e de 3f e1 b6 a2 14 fa 22 de 3f
       0.4735555182729256 0.4708848191756783
000190 ce 0d 39 58 b2 30 ce bf 14 37 aa 96 67 18 b0 3f
       -0.2358611040855138 0.06287238529531819
0001a0 f4 4d b1 4d 67 c6 dd 3f 08 63 ef 20 34 0e c6 bf
       0.46523459040801574 -0.17230846031340996
0001b0 ca 48 f3 45 ff ea c8 3f 16 db 4f 70 74 c5 ce bf
       0.1946715442232459 -0.24040084346753393
0001c0 aa 22 92 fb c5 74 c5 bf 41 13 c7 ef d7 ca d1 bf
       -0.16762614043934337 -0.27800558486733357
0001d0 82 2a 48 b0 44 14 d4 3f ec 21 dd 52 87 aa e0 3f
       0.3137370797636906 0.5208164804872104
0001e0 fa 4b 89 1b 06 5b db 3f fa c6 d7 a4 a0 07 a5 bf
       0.4274306553754169 -0.041073818323537695
0001f0 e6 25 ec 93 e4 0f d2 bf 74 e8 77 0b a7 69 a6 bf
       -0.2822200245433052 -0.04377481474871639
000200 0d 7a 8e 39 1a c9 c3 bf 64 6d f4 f6 2c 5b c5 bf
       -0.15457465944651042 -0.1668449598154026
000210 76 f4 fc b4 44 18 c3 bf e7 09 68 90 f0 ef c4 bf
       -0.1491781123858435 -0.16357237864583782
000220 88 c7 71 b7 16 b2 b6 3f 1a 08 59 90 ca 7b ab bf
       0.08865491846679963 -0.05367882740075931
000230 66 df de 7a b4 21 a1 bf 5b 48 3d c8 29 6d a8 bf
       -0.033460273741581045 -0.04770784921005663
000240 b6 6d b3 fe ea 8f be 3f 49 29 fd fd 14 5a b9 3f
       0.11938351362498775 0.09903079224492219
000250 dd d9 b6 b1 10 1f 89 3f 88 a3 02 45 3b 40 af bf
       0.012266283439072484 -0.061036922620878065
000260 96 1d 2a f2 c7 6a bc 3f b2 fd 98 61 bc e9 bd 3f
       0.11100434934825495 0.11684777624849721
000270 7b d7 5b 87 75 74 c1 3f 79 c8 ea bc 98 63 56 3f
       0.13636654958071034 0.0013665191251388804
000280 f0 e3 96 63 e1 92 c0 3f ff 73 e2 e7 6a f8 b9 3f
       0.12948243487133437 0.10144680176968278
000290 1d 6e 4d 5f ee 09 a3 3f f8 5f a8 5a e9 c6 c4 bf
       0.03718514359817624 -0.1623202984490033
0002a0 04 dc 6f 58 60 36 98 3f 06 25 2e 60 75 fb a0 3f
       0.02364492931152641 0.03316847609591815
0002b0 95 ee b7 e3 7f 4c c4 3f fb 53 07 16 e6 ac 8c 3f
       0.15858458155695546 0.014001653239498415
0002c0 d2 0b 82 4b 58 8e ae 3f 1f 99 bd 5a ac 6a c4 bf
       0.05967975541809491 -0.15950540953344558
0002d0 67 c0 c2 e1 22 3d b9 bf c4 f3 9d 55 c3 a6 bf bf
       -0.09858911525475521 -0.12363835182436761
0002e0 c7 84 8d eb 73 3e a4 3f 30 0b 37 2e 3d 56 9c 3f
       0.03953897714996795 0.027672725625744465
0002f0 3d 4c 50 03 da f3 b7 3f fe c0 66 a3 2e 3c c3 bf
       0.0935646303262709 -0.15027411440451738

gru.bias_hh_l0 f8 [96]
000000 cb a2 ae 7a 15 23 b0 3f c1 28 87 86 33 69 9c bf
       0.06303533787889674 -0.027745061002669717
000010 3b ed a5 4e b6 d6 c3 3f 98 c1 dc e5 89 0f c7 3f
       0.15498999443284753 0.18016170238253149
000020 88 b0 06 62 ca 3c c7 3f a2 5b ba 89 97 0c 98 bf
       0.18154268061096368 -0.023485534459350206
000030 99 f8 e6 ce 1e ce b7 3f 54 4d 27 32 3f bb b4 bf
       0.09298889685939783 -0.08098216032458555
000040 66 12 b3 18 72 3c d0 bf 6a ea 97 b2 b2 de dd 3f
       -0.25368931209621903 0.4667174095226644
000050 d3 d1 47 d3 3a c2 ca 3f 75 f5 4a 46 89 4e c1 3f
       0.2090524226802147 0.13520923549905786
000060 51 cf cd ca f3 5d c2 3f 4d 49 7e 54 af 34 ca 3f
       0.14349219706093178 0.20473281503343302
000070 cf 42 a1 05 72 8f cb 3f 6b d8 64 d0 49 76 ac bf
       0.21531510615252222 -0.05558996838446791
000080 b6 c5 b6 ae 73 aa a6 3f fb 55 7b 5d 1e c4 75 3f
       0.044269194676768306 0.005313986410063527
000090 36 61 a8 6b f1 5a d0 3f d6 67 39 8a f7 d6 b9 3f
       0.25555072320414085 0.10093638538947344
0000a0 9d bc 90 34 ac 4a bf 3f 9a 2f bd 7c f8 c0 ad 3f
       0.12223316462835716 0.05811287424748386
0000b0 2b 55 2b 71 fb a0 c0 3f d1 b3 69 85 3b 2b cc bf
       0.1299127867302244 -0.22006935133268127
0000c0 36 0a c1 0c cc e2 be bf 23 f2 eb b7 a1 e2 b1 3f
       -0.12064814864519566 0.06986437549853312
0000d0 56 a2 7d 9c 7a de 77 3f 81 73 e0 57 eb 31 c7 3f
       0.005827406835898849 0.18121091643197576
0000e0 3b 13 b8 7c ee 06 a1 bf f8 f9 d7 ed 0b 98 cd 3f
       -0.03325600883912335 0.231202593931769
0000f0 77 38 f5 5d c5 34 bc 3f ff e8 0a 7f 47 f9 b5 3f
       0.11018022102254742 0.08583494998575601
000100 98 ce fb 78 53 72 ca 3f b3 43 42 f1 c0 11 d1 3f
       0.20661395461467147 0.26670859871324665
000110 ce 2e f2 4c d7 33 78 3f a2 cb 6e 9e 0d f5 c4 3f
       0.0059088144472629455 0.1637284301374083
000120 a0 1e 87 7e 52 18 d4 3f 53 36 ad 66 41 02 ad 3f
       0.3139845119116931 0.05665783289314832
000130 c2 8d d2 42 55 a4 cb 3f 6c 5a b7 4e 4c 71 da 3f
       0.2159525467187518 0.41316516577845763
000140 e6 8d 7a ba 67 2b ca bf b6 a5 98 9f df ab e3 bf
       -0.20444962125212313 -0.6147306553950134
000150 3d 46 e3 ef 31 c0 d6 3f 18 ed 0e 49 36 7e ae bf
       0.35548065592329064 -0.059556671541452555
000160 48 47 fe 65 1e 64 b3 3f da ad 0f 0a df 7a de bf
       0.07574644079275317 -0.47624946577590566
000170 5b ac 2f 99 6a 0a d2 3f 1c 86 ea 82 b8 95 db 3f
       0.281885766597673 0.43101322922493224
000180 c0 a4 f4 fd 34 af d5 3f e2 b6 a2 44 7f b4 df 3f
       0.3388187866244827 0.49539167120643246
000190 9d 1b 72 d0 a8 9c b8 bf 0e 37 aa 16 ae 70 b7 3f
       -0.09614043320662664 0.09156311086027477
0001a0 ff 4d b1 7d a0 b8 d6 3f 82 b1 77 b0 74 85 da bf
       0.3550187327830087 -0.41439549668464093
0001b0 b8 48 f3 45 af 66 c4 3f 90 ed 27 a0 91 28 d0 bf
       0.15938368716758133 -0.2524761261008388
0001c0 b2 57 44 72 e3 b7 7d bf 62 26 8e bf b4 3d c6 bf
       -0.007255447828603255 -0.17375811913761924
0001d0 86 2a 48 68 a2 d0 de 3f e5 21 dd 92 5c ba e1 3f
       0.481484033429901 0.5539992206986964
0001e0 f6 4b 89 43 55 04 d0 3f be f1 35 a9 49 9e cb bf
       0.2502644691023187 -0.21576805841676888
0001f0 e8 25 ec 33 e0 ee d0 bf 03 fd 6e f1 3c 67 d1 bf
       -0.26457982130577173 -0.27192615106100976
000200 a0 d9 5e 74 ab 12 c2 3f b4 9a 12 86 36 13 c0 bf
       0.14119475538400383 -0.12558633371846428
000210 3b 4c d4 3b ec 03 b4 3f b5 1c 9d db 4f 4e c5 3f
       0.07818485699344617 0.16645239089323174
000220 a2 7b fb 9c 98 f4 9a bf b8 20 0d 03 02 1f 75 3f
       -0.026323685246889668 0.005156524523791166
000230 28 7c 66 62 03 8a 85 bf bc c3 6f ce 08 14 ad bf
       -0.010517145576896494 -0.05679347534158505
000240 83 c2 fc 92 cf 9a c5 bf ca 35 18 7a 8f 77 ba 3f
       -0.16878695180050238 0.10338684778999788
000250 6a f3 81 60 c8 c9 ab 3f 15 2b 03 d6 61 48 95 3f
       0.05427385500022448 0.020783928572920624
000260 a5 9e 2d f6 9b d6 bc bf 0b cf a8 47 83 24 97 bf
       -0.1126496768971444 -0.022600222824805487
000270 1b 62 29 96 53 6f a5 3f f2 b9 c9 7c e0 87 97 3f
       0.041864978866844114 0.02297926675458401
000280 3e 03 cb 7c 37 2b 98 3f 94 ec 3a 54 6c 10 be 3f
       0.023602358810197226 0.117438097538001
000290 03 0c 17 01 77 4e c2 3f a8 b0 40 77 7f c3 c3 3f
       0.14301955750678993 0.15440362284551168
0002a0 d9 26 9c 7d 08 06 b5 3f 7d f0 f4 8e ad 47 b4 bf
       0.08212330881738285 -0.07921871891170613
0002b0 6e d6 84 66 4c 73 b9 bf 74 4b 5a ae c8 b0 aa 3f
       -0.09941556456473119 0.05213000419930483
0002c0 8f a2 78 e9 43 06 a4 3f 9a 5b 9d d6 1b d9 c1 3f
       0.039110300302415905 0.13943813304169056
0002d0 38 10 48 43 bd ad c3 bf 8d 50 2a b6 f7 a1 c3 bf
       -0.15373960290173883 -0.15338035959996824
0002e0 fd 10 ac a0 c4 58 c2 bf b8 7d e0 68 b5 6c b7 bf
       -0.1433339867145448 -0.09150251207801474
0002f0 52 1b 16 17 7a fc b8 3f ac 3c e7 d7 b1 29 bd 3f
       0.09760249198562335 0.11391746064258496

gru.weight_ih_l0_reverse f8 [96, 10]
000000 bc 93 08 3b 9b 23 bb bf 75 ae de 88 dd a1 7a 3f
       -0.10601206008193648 0.006502023095815814
000010 7f 7b 11 5e 69 43 93 bf 1d ba ca a8 06 eb e0 3f
       -0.018811842314217394 0.5286896988598674
000020 36 02 e0 20 70 d0 f4 3f 5f 3a 66 6d 46 a7 d1 bf
       1.3008881839924817 -0.2758346622803511
000030 f2 20 18 a6 ca b2 d7 3f 3f 38 3b ee 64 c3 c5 3f
       0.3702875730528056 0.17002545959843648
000040 0c 6f 58 c6 6e 07 c8 bf 43 6a 8a ab 30 73 ca bf
       -0.18772682843052058 -0.20664032341012914
000050 fc a7 bf f5 b1 f7 bd bf 3b 3c c1 af 3e f8 b7 3f
       -0.11706077813838073 0.09363166609658517
000060 8b 3b bd 67 1e 26 e3 bf 82 69 20 35 05 0c d1 3f
       -0.5984031702190448 0.26635866344590664
000070 e8 4a 62 2a 6b 28 e0 bf 80 ff e6 72 57 78 ba bf
       -0.5049339130221968 -0.10339876704438034
000080 9e 67 e3 b5 35 28 dd 3f 3b d7 c3 49 23 18 a4 3f
       0.45557921183137207 0.03924665713741012
000090 66 4e 99 9e 20 95 c8 bf 22 9e 61 8e 9f bb c1 bf
       -0.19205100769123645 -0.13853830768788195
0000a0 f6 08 a3 c5 8d 3c d3 3f 8e 4d ac fc da 49 d3 bf
       0.3005709104583184 -0.3013827769766174
0000b0 c4 09 85 f3 fa 71 d0 3f c5 0b 52 05 83 eb b0 bf
       0.256956804096401 -0.06609362487692667
0000c0 61 aa 45 ac 91 54 e9 bf b7 ad ec 14 74 a5 91 3f
       -0.7915733685197887 0.017232717301494307
0000d0 6c e0 d3 56 07 4a e1 bf 15 b5 21 b0 c0 87 df 3f
       -0.5402867027141958 0.49266068649633726
0000e0 2c 55 16 d5 f5 cc c6 3f 6d 75 fa cf 4c 58 49 3f
       0.1781298914399171 0.0007734656391737267
0000f0 09 9a 97 6c 79 26 d1 3f 41 1a bd 25 33 16 a5 bf
       0.2679732857199331 -0.041184995991490066
000100 46 94 42 26 be 1f d9 bf 0c 1e c8 c3 94 ec b9 3f
       -0.3925624250062508 0.10126619129015796
000110 62 ff e2 4c ca a8 d0 bf 32 3b 0f 36 68 18 cb bf
       -0.2603021384093066 -0.21168234481452824
000120 74 12 6c d9 33 0a c8 3f 42 03 28 33 66 e8 d4 3f
       0.1878113567000984 0.3266845225880851
000130 3c 78 f6 95 14 c4 c3 bf d6 08 5a 0f 37 eb a8 3f
       -0.15442139933014853 0.04866954862974786
000140 ed 86 e3 8a 73 13 c0 bf f6 57 cb 6e da c3 c1 bf
       -0.1255936077278003 -0.13878946695211852
000150 52 33 58 aa ad 5f aa bf bc f3 09 95 9d 00 d7 3f
       -0.05151121811295546 0.35941257052018805
000160 1d 44 9b d0 82 dc b4 3f 11 25 95 00 e1 08 7c bf
       0.08148973076755835 -0.006844405093326304
000170 96 30 0f d0 35 70 80 bf d8 4b 98 e4 59 b0 be 3f
       -0.008026523982970251 0.11987840491228441
000180 6b 08 eb af 02 7e 7d 3f d9 9e 48 52 87 01 d8 3f
       0.007200251099393022 0.37509329829707166
000190 ad 8c 10 b2 f5 36 cc 3f 10 85 93 82 2a ba c2 3f
       0.22042723841250247 0.1463063371257154
0001a0 31 78 d6 d7 49 66 d7 3f 26 82 99 89 f5 2e c1 3f
       0.36561819150836344 0.13424557894451644
0001b0 11 5d ef ce 63 4d dd bf 4a 72 f3 4b bc 2c c8 3f
       -0.4578485031938309 0.1888652201513586
0001c0 63 cb d5 b0 f3 56 df 3f e7 9c ac d8 2b 6e d1 bf
       0.4896821238427746 -0.27234932098003956
0001d0 ee 45 81 78 2b 02 ca 3f 6e ef 74 07 0a 44 c9 3f
       0.20319121727020167 0.19738889087772854
0001e0 97 1d 8f f2 a2 5c 91 bf a5 f0 fa d8 e0 5a d0 3f
       -0.01695494275534556 0.25554677190280933
0001f0 91 7b 2d e2 32 da c5 bf f4 8d 40 81 54 5a c9 3f
       -0.17072139781791099 0.1980691557993023
000200 92 d5 7a 5c 8e a6 c3 bf 58 65 5d 63 00 e9 b6 3f
       -0.15352038875213886 0.08949282098673927
000210 81 71 57 fd 5c a1 e2 3f c8 74 ec 8d c8 ff dd bf
       0.5821976612165117 -0.4687367807362759
000220 79 ce b2 46 c4 68 95 bf 5d e7 26 94 33 d0 d2 bf
       -0.020907465758411157 -0.2939576098248063
000230 f7 de ab 68 a3 b1 d5 bf 9c 76 e8 e1 f0 8a d6 3f
       -0.3389671823674542 0.3522302824147603
000240 81 7b 1c 25 55 57 91 3f ec 62 4f 83 42 d5 a2 bf
       0.016934709920970462 -0.03678329327494176
000250 a3 cb af a2 f1 c7 d4 3f 8f 94 1a 85 a8 79 d5 3f
       0.3247036064851107 0.3355504321901401
000260 d1 8d 41 d5 8f b6 b2 3f 22 53 a7 71 39 11 db bf
       0.07309817272612597 -0.42292629336343357
000270 dd 91 7a 63 34 48 cf bf 9b 54 3e 73 c2 d0 c4 bf
       -0.2443910108314772 -0.1626208365165994
000280 4c 29 0d 04 18 ca cc bf ee 15 db a9 78 51 bb 3f
       -0.22491741369078466 0.10671190401907157
000290 62 c1 1b fd ff 0c d1 bf bb d2 71 3a a7 70 cb 3f
       -0.26641845433825584 0.21437540391675278
0002a0 71 f4 a9 22 91 b0 e9 3f d6 75 b0 fe 4f df dd 3f
       0.8028035809544588 0.4667549121093918
0002b0 b7 28 bb c8 90 07 d2 3f 8b 23 b7 cb 4c b4 b2 3f
       0.2817117653145362 0.0730636594154374
0002c0 bb cb 34 59 0b 40 db bf 3b 2e 0f 0d 31 59 c5 bf
       -0.42578395568414934 -0.16678441178952305
0002d0 da ab 8d 02 f9 ec d4 bf 81 ee c1 e6 b7 7a e3 3f
       -0.3269636654792386 0.608730269144374
0002e0 93 1a b1 16 cf 3a a6 3f 0f 86 61 51 6c 04 d1 bf
       0.04341742660522132 -0.26589496562346054
0002f0 32 af 9a c0 28 c3 d1 3f e8 57 8c ff d7 64 b9 bf
       0.2775365715885868 -0.0991950034043324
000300 82 70 93 a5 39 75 b0 3f 68 73 fc 87 51 41 c8 3f
       0.06428871433621633 0.18949336185405774
000310 75 89 e6 92 1e 82 c3 3f 3a 7b 2f 3e 41 3e c0 3f
       0.15240842984082872 0.1268998674049387
000320 92 fd a0 b5 96 41 c6 bf ca da 94 f2 99 a4 9e bf
       -0.17387660854909065 -0.029924779349324727
000330 5e cf e6 5e 68 49 ae bf 00 0d 6f f4 5f 6c cd 3f
       -0.05915380629031007 0.22986983714336162
000340 27 f7 12 5e f5 ae c2 3f 89 0a 39 6e ee 40 c6 3f
       0.14596430867634888 0.17385654813741194
000350 15 ad f0 82 58 54 e2 3f f4 3a 11 f6 6e cc d1 bf
       0.5727961118149404 -0.27810262708673794
000360 d9 fa 75 8c be ae d1 bf a4 09 46 1d 21 46 d1 bf
       -0.276290547531898 -0.26990535601376053
000370 eb ee 5a d8 fd b4 d4 bf 2d 31 c7 df 6b 4f c4 bf
       -0.32354684952200213 -0.1586737482706523
000380 2d 1f 5e 3c 6f e0 a0 3f c2 3c 8e df 7c f4 b7 bf
       0.032962299460505974 -0.09357433755779979
000390 58 e5 24 2a 5f ea d6 bf 72 fe f5 30 6e e0 b5 bf
       -0.3580549155772892 -0.08545578666052636
0003a0 7f 1e 2a a3 5a 52 b6 3f 92 f2 7d d3 35 58 d5 3f
       0.08719412311085682 0.3335089269019501
0003b0 29 43 ac e8 c7 92 d3 bf 22 fb b5 0b 6f de 83 bf
       -0.3058337948032653 -0.009701602501761612
0003c0 bc d1 3f 11 4a 42 ad 3f 81 ce c4 e8 3a a0 a2 3f
       0.05714637241900131 0.036378708757550456
0003d0 75 73 2c 05 5b e6 c0 3f b3 cc a4 81 92 20 c8 3f
       0.13202989342326146 0.18849402742634921
0003e0 9d 4e 04 8a 0e 11 9c 3f 78 3b b6 94 c3 d5 c8 bf
       0.027408816503408862 -0.19402355920143655
0003f0 c2 37 74 cc d3 37 d6 3f 70 ef 9c 6a 7a 30 d1 3f
       0.34715743032654356 0.2685838738577706
000400 5c 52 dd 91 cc 06 c2 bf fb 87 5d cc 5e 39 b9 bf
       -0.14083249208728688 -0.0985316513956888
000410 3d e4 38 b6 8f 65 cc 3f c0 e0 8b 52 8f 26 cd 3f
       0.2218494071728702 0.2277392533358178
000420 14 a1 ef 8c 53 30 d1 bf cc 8f a7 98 3c 8c c9 3f
       -0.26857460749899187 0.1995921845801817
000430 01 8c d6 c1 bf b1 c4 bf 26 75 0c 3c ac 54 c5 3f
       -0.16167447056531617 0.16664650852264024
000440 f0 a0 48 d1 e5 3b b5 bf 1c 65 33 13 05 d6 c1 3f
       -0.08294521674600097 0.1393438667062491
000450 2d dd 5c 59 8a b1 d4 3f 03 84 67 37 bc 5f da 3f
       0.3233362076457123 0.4120932141359505
000460 88 ab d8 ec 8e e3 b1 3f 9d c4 54 7a 51 25 a8 3f
       0.06987851412183776 0.04715971582698695
000470 f8 42 5a 93 d4 70 d1 3f 0b 82 bb 41 d3 32 e1 bf
       0.2725116194715578 -0.5374542507016157
000480 7f 09 7c f8 dd 3b c6 bf e7 75 5a cf 23 ec a3 bf
       -0.17370199807198713 -0.038910979329766886
000490 53 82 cd 30 ca a0 cf 3f ac de 5d 7e f3 bc da bf
       0.24709441550204989 -0.41778266277786247
0004a0 d9 48 a2 36 b4 db cd 3f 61 ae 64 ee f5 a5 c2 3f
       0.23326733272239755 0.1456897176770893
0004b0 15 d4 2d 23 02 27 c3 3f ed ff a4 c7 8f 30 7a 3f
       0.14962794034696061 0.006393968238910458
0004c0 8f 80 1e 70 68 93 bb 3f ab f8 df aa a4 92 9a bf
       0.1077180169800178 -0.025950024537444587
0004d0 b4 d7 9d 27 ce ec b0 3f 87 da 67 13 dc fe c6 3f
       0.06611336199952583 0.17965269992392427
0004e0 79 7e fd 6a 3f 65 b2 3f 9f 28 68 58 9b ba 94 3f
       0.07185741769853306 0.020243098517348398
0004f0 a6 21 ce ae a9 e2 de bf 0e 36 cf 2c a9 ac c4 3f
       -0.48258440085239795 0.1615191906734456
000500 c7 2b 08 c0 b9 fd e0 bf 7b 99 40 ca 8e da ab 3f
       -0.5309723616240881 0.05440183848286303
000510 4d 68 a3 4c a2 2f c2 3f 0d d2 97 a6 94 34 d4 bf
       0.14207867376427644 -0.3157092692265742
000520 0d e7 d0 da c6 a9 d4 bf c8 3b 22 cd 1b 9c ca bf
       -0.3228623520732164 -0.20788905636115218
000530 65 d5 80 8e b2 b4 d1 3f bd 7c 4c 95 65 15 cc bf
       0.2766538993485795 -0.21940297880153095
000540 b2 38 a8 89 70 8b c6 bf 05 66 dc c8 9e 7d e0 bf
       -0.1761303589013941 -0.5153345034661362
000550 58 25 df b2 2c 5f a8 3f de df f2 02 80 66 99 3f
       0.04760112460605609 0.024805069141365148
000560 9e 35 a3 f2 eb c0 c6 bf 57 d1 c7 59 f1 4b 93 bf
       -0.1777625021699522 -0.018844386200684706
000570 b3 7f 16 60 a4 07 b0 bf 66 0d 02 5e 5c e6 c9 3f
       -0.06261660905738502 0.20234255399928286
000580 8f b5 00 20 c8 c0 b1 bf a0 72 e4 ed 42 7b cd 3f
       -0.0693478658801807 0.2303241406997545
000590 48 f6 5c da 18 53 c0 bf 14 db 17 0f 87 5c e1 3f
       -0.1275359216905818 0.5425448698796083
0005a0 93 dc 03 d4 f3 ab ca 3f 42 26 c6 2f a3 2a d1 bf
       0.208372572443953 -0.26822738328391804
0005b0 0a c5 89 0d 5a c0 b2 bf 6d 44 2c 05 db 3e cd 3f
       -0.07324755507012895 0.22848069908698979
0005c0 3e d9 27 8a d3 0e c4 bf 62 f0 5d 69 a3 59 d4 bf
       -0.15670246358758705 -0.31797108926526196
0005d0 18 56 6c a9 e7 98 bd 3f bc 2b 27 17 43 74 89 3f
       0.11561439405735319 0.012428783554147553
0005e0 6b 44 7e 07 b1 b5 85 bf 6c 75 0e f2 99 1e d4 3f
       -0.010600455323386456 0.31436775816276596
0005f0 8b 11 1a 0d 04 d2 4e 3f 23 b3 bd 6f be 3f d1 3f
       0.0009405631810329036 0.26951561844070876
000600 f9 04 ad 1a bd 14 aa bf 05 53 a4 e6 58 41 bc 3f
       -0.05093947363503477 0.11037212019830285
000610 a1 e3 92 3c bc 25 b4 bf 76 31 d2 3e c9 07 d1 bf
       -0.07870079497196382 -0.26610022673482747
000620 c1 97 c4 9f 96 dd aa bf 41 72 4d a9 b3 db cf 3f
       -0.052471835139200625 0.24889226690983615
000630 10 1d 48 1f 00 44 d2 3f d3 ca bc 70 3a 1e d0 3f
       0.2854004197583473 0.25184498796003857
000640 4e 04 ec fd da 5d d5 bf 53 bd 5b c8 77 99 8a 3f
       -0.3338534812647297 0.012988029291107017
000650 4a d5 bf 36 95 78 c0 3f cf 53 63 af ad e5 d9 3f
       0.12867989705379507 0.404643460538236
000660 83 84 52 e1 82 b5 e6 bf 03 87 a6 b2 fa 55 c4 bf
       -0.7096571350886197 -0.1588738796536334
000670 29 68 c7 d6 f0 28 e1 3f e9 65 6a 27 c9 a4 d5 bf
       0.5362476534749067 -0.3381827244680538
000680 0a a7 03 99 31 3b b6 bf c6 ce 07 64 b7 21 e0 3f
       -0.0868407248086919 0.5041157678337747
000690 d9 8a 92 0e fb c8 c1 3f a6 90 39 3f 64 d5 c1 3f
       0.1389459439424943 0.13932469451095136
0006a0 73 0b 6c 04 83 eb d8 3f 57 fb 99 69 13 80 a1 bf
       0.389374498670967 -0.03418026603775697
0006b0 f3 a1 7a d6 6e 4f de bf 12 7e 80 9b e8 35 cc 3f
       -0.473598203136617 0.22039516060702674
0006c0 3b 97 b0 17 7d 18 d9 3f cf 97 28 14 0e a3 d3 bf
       0.3921196681352403 -0.3068270871029854
0006d0 d6 f4 ee 64 6d 9e a7 3f e2 64 b4 22 2a 16 b7 3f
       0.04613057953927473 0.0901819548347649
0006e0 f8 b0 3f b0 d0 2c d5 3f 4d ad ea a2 b8 70 a9 bf
       0.3308603020839338 -0.049688119780820196
0006f0 e8 60 16 20 1f b4 d0 bf 21 9d c3 1b 00 d4 d4 bf
       -0.2609937489846872 -0.3254394789823483
000700 0b ea fb 20 40 98 bc bf df e1 7d bc c9 0c ba bf
       -0.11169815831446088 -0.10175762988900015
000710 1a 71 92 23 2c 38 c7 3f fa 98 85 30 61 59 d8 3f
       0.18140174614826138 0.38045530069793154
000720 97 dc ee 24 63 a5 a1 3f ba 54 d2 02 4f b2 c4 3f
       0.03446492982714593 0.16169154775403688
000730 92 75 46 a8 72 ab c5 bf 1b 21 b6 e5 7f 06 cc bf
       -0.1692946740776447 -0.21894835201624904
000740 db b4 4b 18 95 1f cf 3f ff 98 46 cc c0 ca d1 3f
       0.24315131841959822 0.27800006817632544
000750 a1 64 16 ed f0 a0 c9 3f 9a 83 95 9e 3c d9 d3 3f
       0.20022403313195006 0.3101340817138919
000760 6b 5b ad d9 4a bb cc 3f 66 31 ed a7 23 e1 99 bf
       0.22446570996063583 -0.025272900700018218
000770 a4 d8 46 00 70 5b cd bf c0 c0 28 22 cf a3 db 3f
       -0.22935295117867327 0.43187311492784985
000780 d0 c3 39 89 c6 7c c6 bf 9c 1d 3e 4e 32 89 da 3f
       -0.17568284702750114 0.41462381020434136
000790 61 d6 39 65 ad ed bc 3f 68 25 e5 de 37 90 d5 3f
       0.11300166817985648 0.33692738310909087
0007a0 ff 77 c0 1d ea 9d c3 bf 61 5b 73 13 de 93 b1 bf
       -0.1532566685936558 -0.0686625287520264
0007b0 54 92 96 66 9b 19 91 3f ed 34 2c 35 5a e5 d1 3f
       0.0166992455830431 0.2796235579742888
0007c0 a1 0a 7a 35 86 c1 b9 3f 3c c3 83 50 8c af db bf
       0.10060919576248263 -0.43258960592997986
0007d0 b7 34 60 7b e6 99 d2 3f 3b 85 dd 0d d6 92 d8 bf
       0.2906433300821151 -0.38396216730150784
0007e0 1d a3 79 40 37 42 b7 bf cf 39 c2 2c a8 90 58 3f
       -0.0908541233453772 0.0014993326504143427
0007f0 47 34 f2 a4 a9 d3 9e bf 40 43 a8 be 6b ec d3 3f
       -0.030104304020415886 0.31130498522638916
