results/Genotyping_LSTM_Long/models/checkpoints/2/Genotyping_LSTM_Long-2-200.pt (torch_old, 115136 bytes, 10 tensors)

LSTM.weight_ih_l0 f8 [128, 10]
000000 e3 e1 f2 16 e2 3c d3 3f 43 83 4d 30 5c c8 d0 bf
       0.3005910133465745 -0.26222901074475063
000010 98 89 2b b9 85 cf d2 3f a7 76 9b a4 e4 74 b1 3f
       0.2939161594678352 0.06818989771587756
000020 38 2e c7 87 d6 e4 e6 bf 13 32 f5 93 02 70 dc bf
       -0.7154343273081798 -0.4443365521335931
000030 ed 13 f1 32 6d 54 d4 3f 6c e4 e3 31 f0 bf c1 3f
       0.31765298819328686 0.1386699908833039
000040 45 90 26 74 25 63 d2 3f 2b b9 b2 1c 67 11 01 40
       0.2873014101298888 2.1334974519769694
000050 47 0a f9 96 de b4 b1 3f c6 c7 fc b1 4d e3 9f 3f
       0.06916609941348738 0.031140531528940384
000060 e6 3e ac 9f f3 81 ce 3f 2f fe e3 26 5f 1a 8c 3f
       0.23834080978894362 0.013722175001475182
000070 20 b5 7c 63 9d 8c d6 3f 86 d7 7c 03 78 5b c1 bf
       0.35233244624653715 -0.13560390634819103
000080 8b 8d cd 8e be 5d b7 bf d1 32 a2 83 78 05 88 bf
       -0.0912741755142205 -0.011729184643877318
000090 1b 92 c1 a0 73 32 af 3f cf b8 2a 63 43 fc ce 3f
       0.06093179070811435 0.24207346288807804
0000a0 f0 62 e9 3f 07 ca d8 bf eb 35 37 f9 f7 cf cf 3f
       -0.38733083001493096 0.2485341994164821
0000b0 5d 13 16 55 90 a7 b6 3f 30 35 c8 fa e4 85 91 3f
       0.08849432065296754 0.017112329298517526
0000c0 22 5f 99 e9 1f be d2 3f b8 cf 14 8a c4 c0 d1 bf
       0.2928542882195747 -0.27739060863973064
0000d0 d5 15 04 e6 60 3f bd 3f ce 65 cc 16 59 d4 9d 3f
       0.11424832931159952 0.029130355850701943
0000e0 5e 12 43 ab 1b 24 d8 3f 02 3a bc 49 de f0 c0 3f
       0.3772038624268016 0.13235071754793643
0000f0 37 42 69 35 e6 10 b3 3f 78 e5 c6 2d a9 35 dc 3f
       0.07447661212905464 0.4407751986542148
000100 5b 52 76 41 2b 74 d1 bf 87 24 58 2e fb ef d3 bf
       -0.27271539109032056 -0.31152228856860414
000110 a6 69 d3 10 84 87 bf 3f 55 9e c4 6d 47 6e bc 3f
       0.12316155825411687 0.11105772428401768
000120 83 47 b6 f2 43 ce ba bf 1e 39 da 20 46 16 ba bf
       -0.10470986056887281 -0.10190237333356264
000130 10 b6 97 4a 6a 62 b3 bf 23 a4 a9 e2 02 a1 bf bf
       -0.07572044678791934 -0.12355058702236525
000140 cb 5c 91 ed 2e b9 c0 bf 30 56 05 53 6e 93 b1 3f
       -0.13065134620658223 0.06865586783290989
000150 cf 53 5b 85 4e f5 9b 3f 5f e9 92 96 93 5e c6 bf
       0.027302958383035588 -0.17476124622573772
000160 fb de 5b 88 74 f7 c7 bf 7c 5d 44 74 2b 30 1e bf
       -0.18723923357151037 -0.00011515870307154079
000170 e3 03 5e 27 b0 67 b0 bf 96 66 95 08 74 3b bb bf
       -0.06408215485681938 -0.10637593469200576
000180 4a eb 28 b6 e5 c0 c9 bf 88 08 77 11 98 53 e4 3f
       -0.20119925875209282 0.6352043477165958
000190 74 c4 6e 99 81 58 a1 3f ec 1b 07 0b 40 90 b3 bf
       0.03387837408025343 -0.07641983288986837
0001a0 1c 4e ac 93 9e 2c a1 3f 5b bf fe 6b 36 c5 cc bf
       0.03354354431771986 -0.22476845048140145
0001b0 f1 7d d6 fa 27 4f da bf a0 f8 bc 6c 2d e8 a3 bf
       -0.4110813092792958 -0.03888074829454635
0001c0 f3 79 fb 17 31 6d b3 3f ac ee 36 71 a1 c9 c2 bf
       0.07588488421922772 -0.14677827861838944
0001d0 44 37 14 60 9c 2e 9b 3f f4 4e c8 6f 00 e5 df 3f
       0.026544993747896997 0.49835215488677354
0001e0 c3 77 9e 49 6e 64 cc 3f a1 1c c4 17 59 6f c3 3f
       0.22181490511587584 0.15183557186557997
0001f0 93 72 b3 57 5a f2 a7 bf 3d 1e 32 d9 91 14 bc bf
       -0.04677088089531369 -0.10968886902457427
000200 72 5a 4b a7 a6 f8 d9 3f 78 9b 2d 4a 7c ed c2 3f
       0.40580145203913454 0.14787248250942375
000210 75 d4 40 46 2f b1 a6 3f 11 12 e1 1a 20 6b a5 bf
       0.04432056171973723 -0.04183292701830877
000220 27 a7 90 ec 08 88 cc 3f f4 10 81 42 5e 9c 77 bf
       0.22290145445850237 -0.005764358713410401
000230 36 58 99 09 f0 df c1 3f 6d 77 e6 21 35 aa c9 bf
       0.13964653462125093 -0.2005068221596348
000240 46 f0 84 86 d5 cb c3 3f 60 b9 70 71 f1 27 d9 bf
       0.15465802257847566 -0.39306293562085237
000250 9e 4d da d4 7f 0d db bf f6 1f 1a 99 6a b0 e0 bf
       -0.4226989344253641 -0.5215352049135606
000260 f4 5e 5d 28 b2 85 d7 bf 33 c6 13 d0 3d 97 aa 3f
       -0.36753515188091446 0.05193513073926361
000270 d5 30 a4 aa a1 2f ce 3f 42 8e 17 66 d0 70 fa 3f
       0.23582859832857275 1.6525424945802034
000280 2f b4 5c fe fe b0 d1 3f 15 81 d9 f5 dd 4c d6 3f
       0.27642798271228036 0.348441591346288
000290 e1 3f 42 37 4d 0a ea bf 6d 6f 02 ff 27 93 5a bf
       -0.8137575225136936 -0.0016219988429275426
0002a0 de 37 40 da 9e 73 e1 3f b7 17 1d ce 8a 3e bb 3f
       0.5453638327323878 0.1064230683524262
0002b0 3f 43 de 28 71 04 bb 3f 69 19 15 ef 9b a9 a5 bf
       0.1055365299964821 -0.04230963986860809
0002c0 2e 11 25 cc f6 8c dc 3f 5d 47 7d 1b c6 51 c5 bf
       0.44610376297011356 -0.16655804006819155
0002d0 79 43 c3 f1 fb fb da 3f 52 dd 99 0e c1 42 b7 3f
       0.4216298924412097 0.09086233717413464
0002e0 b9 a2 d7 88 2e 5e c8 3f 9a 2a 7c 46 c5 ab b2 3f
       0.19037419969324335 0.072933511455782
0002f0 ef f7 45 a2 fb 68 c0 3f 51 fe b0 f3 45 36 a4 bf
       0.12820382522107773 -0.039476572034342745
000300 96 55 3d f5 15 7d c0 bf 48 5c b4 f8 7f d1 c4 3f
       -0.12881731485928744 0.162643429219971
000310 11 0d 6e 40 c0 42 d0 3f 06 04 ff 6a cd 3a e3 bf
       0.25407415668469563 -0.600928029038301
000320 42 71 22 a5 57 76 d5 bf 8c 57 6a 94 99 ef c0 3f
       -0.3353480446474074 0.13231200930448173
000330 b4 15 8f 34 10 e5 ae 3f cc 66 86 ef 77 a6 c7 3f
       0.06034136430347861 0.1847677154117292
000340 f4 10 3b a2 a2 0a e2 3f ee 3c 3a 55 ad 5f c6 3f
       0.5637982529229064 0.17479483281611102
000350 d5 e5 e2 9b 37 2c b9 3f 53 d8 e4 21 df e0 71 3f
       0.09833095126932474 0.004364844904833093
000360 a3 f9 e7 7b 87 9d 8b 3f 09 4c 67 e2 8a cb ed 3f
       0.013484056919875814 0.9310964986747204
000370 15 a8 e7 8b 85 4b db bf 5b f3 8d f0 2c 01 9a bf
       -0.4264844766863701 -0.025395109350472605
000380 34 8b 51 ee 38 1d 90 bf 69 ca ac 99 e1 c9 d2 3f
       -0.015736474557694183 0.29357185370751054
000390 0c 61 5f 00 98 95 b5 bf 46 4f 8d 7d 11 e1 d1 bf
       -0.08431386956306514 -0.2793620802014981
0003a0 15 92 4d e9 3d 46 d1 3f 8a 6f 41 8c 07 5c c8 3f
       0.2699122217511854 0.19030851696413392
0003b0 e3 d0 44 aa fd 4a ad bf 4d 8c 3c 8e a0 dc f1 3f
       -0.057212760004775175 1.1163640552629375
0003c0 e8 67 f6 0b 6a da e0 3f ad 7b ae e0 f2 c7 c2 3f
       0.5266618951457049 0.14672695132045757
0003d0 d3 bb db df 16 b3 bf bf b1 16 04 2e cb bb d0 bf
       -0.12382643666545272 -0.26146201604602043
0003e0 de 1a 13 0c f0 f7 e1 3f 0e eb 6c 5d b2 df c5 3f
       0.5615158305962173 0.17088918268003578
0003f0 7e 37 7d b2 4d 5b cf 3f e2 c1 d8 2f a9 87 b7 bf
       0.24497386184014752 -0.09191377084858446
000400 af a1 e8 96 98 b3 b5 bf 13 76 b0 ec 36 3c cb bf
       -0.0847716682843671 -0.21277510220618065
000410 f9 b6 fb ef 90 7a dc 3f 1a 9f 28 2d 3b 47 63 3f
       0.44498084483971884 0.0023533016003688513
000420 83 3e 5f ba a1 23 d8 3f b5 b5 f1 ab d5 fb e1 bf
       0.37717478943248056 -0.561991535023188
000430 02 20 5c ed c6 3b d8 3f d5 d1 19 60 92 fd d8 3f
       0.3786485021560112 0.39047679314469735
000440 18 f9 7b 0d 1c 4e dc 3f 76 46 54 d5 8a 2e 92 bf
       0.44226743046591954 -0.017755669851857246
000450 62 6c d1 b9 8f 82 b1 3f 64 3b cc dd e1 fc f6 3f
       0.0683984593064664 1.436738840482314
000460 5c bf d5 5e b6 22 d1 bf fb 0b a2 16 67 36 c2 bf
       -0.26774367581582736 -0.14228523831488346
000470 29 27 0b 80 9d 9a d3 3f 93 19 4d ed 86 57 bb 3f
       0.30631196502928276 0.1068043069218219
000480 29 c7 c7 e7 68 a3 e6 3f d0 3d 26 ae bf 7e d2 bf
       0.7074474837265586 -0.288986129825358
000490 f1 e5 cd 20 66 13 cf 3f 1c 6b e8 ec c1 e9 d3 bf
       0.24277950860759703 -0.3111424268296774
0004a0 9a 30 64 3b de c0 ca 3f 15 6a cc fc 43 91 e6 3f
       0.2090108671185405 0.7052326142759876
0004b0 4a 39 7c 4f a2 3e b5 3f 7d 07 d7 0b a8 2a cb 3f
       0.08298696938093034 0.21223927095530462
0004c0 6f e0 7b 90 a7 cd c6 bf df 7c 28 3c 51 59 a4 3f
       -0.17815107874753575 0.03974393710472567
0004d0 9a 12 70 fa a5 28 b5 3f 65 ec d9 5e 4c 3d bb 3f
       0.08265149463847835 0.10640408817009613
0004e0 b7 50 7a df 4d 5b b7 bf 6b 17 e9 3c 52 fd b9 3f
       -0.09123694139481385 0.10152162539551816
0004f0 8c 58 7f 06 6c 2a bf bf 1a bb 7d b5 16 48 bd 3f
       -0.12174105795506501 0.11438123637138312
000500 99 33 26 90 68 70 d4 3f 45 55 ed c6 74 c1 c4 3f
       0.31936086728165375 0.16215381348835414
000510 3a d3 28 e1 3b 61 d0 3f 71 e0 1c 16 a5 fd ca bf
       0.25593468654851714 -0.21086562709547566
000520 9d bc 54 6b bb 65 ea 3f 5f 2b 0a 14 a0 da e7 3f
       0.8249184700306561 0.7454376593972077
000530 ae dd a2 90 de 3e d2 bf 49 68 9c 33 06 e7 d5 3f
       -0.2850872433150141 0.3422255996716826
000540 60 1d b3 ea 4f 57 aa 3f e0 3f 4c d6 74 67 ee 3f
       0.05144738903032464 0.9501289544587017
000550 d4 39 6d 36 cc 6b d6 3f 36 87 2e 60 23 f5 cc 3f
       0.3503294497976672 0.2262310237538771
000560 c6 16 0c 42 00 68 c1 bf e6 ab 4d 25 04 61 d4 3f
       -0.13598635888063465 0.31842139857206886
000570 e4 44 f1 5d 06 d6 ee 3f 3e 55 ae e5 39 73 c7 3f
       0.9636260828794119 0.18320392336742403
000580 e9 82 e3 de db 1d d1 3f 84 c8 33 78 36 1e c3 3f
       0.26744744078136634 0.14935952061893343
000590 ca 60 b1 c5 ae dd 83 bf f9 9f 52 b7 b4 d3 c4 bf
       -0.00970016995249558 -0.16271075202280352
0005a0 4b 35 ea 2e 9f fc df 3f de ec 8a 0a 6a 8a db bf
       0.49979381162195996 -0.4303231337505177
0005b0 dc f2 a3 7d 18 60 c5 bf 1e 80 a8 07 a0 26 a6 bf
       -0.16699510702883102 -0.04326343625530192
0005c0 21 62 00 ca d2 8b e0 3f ca e1 9d 16 08 2c d5 3f
       0.5170682854978318 0.3308124752871008
0005d0 69 da e2 c6 b1 09 b3 bf 9c af a6 0f 31 59 9b 3f
       -0.07436667543047694 0.02670742662455404
0005e0 84 e7 d6 d3 fd 4a cb bf a0 d5 4f 6b 20 ba c7 3f
       -0.21322605937694672 0.18536763419949143
0005f0 ca a1 84 be b9 c8 db bf 00 9d 91 df f9 ce df 3f
       -0.43412631612093533 0.49700781662836846
000600 2f 3d e2 05 a6 56 c5 bf 81 f3 e0 99 60 b4 dc 3f
       -0.1667068032006482 0.4485093596193153
000610 c9 89 b8 80 1d 4b b4 3f 5c 3d 8b 14 1f 77 7d bf
       0.07927116768454491 -0.00719368115160476
000620 44 bf 1a f5 a4 f0 a3 3f 7b e3 b1 7e c9 b2 aa bf
       0.03894534580228862 -0.052145287242587345
000630 15 19 c6 f6 a5 7c b3 bf 79 97 a2 66 db aa d7 3f
       -0.07612073206664534 0.369803285817731
000640 15 b7 0c 6f 7a ac cb 3f 3e 11 cb 45 b5 50 c8 bf
       0.21620111868235684 -0.18996301563141488
000650 eb 33 97 c7 c1 8e cc 3f bd 15 45 7c b9 89 ba 3f
       0.22310659642826577 0.10366400989467812
000660 0d d5 0c de 32 45 d8 3f 4a 4a c0 9d 67 5c ca 3f
       0.3792235535105 0.20594496920291966
000670 b6 4f aa 3e 1a 51 d7 3f 0f 51 fd 4c 85 9e c2 bf
       0.3643251049008954 -0.14546266803029836
000680 26 2d 17 75 01 e1 a2 3f 3e 0d 89 df cd d8 df 3f
       0.03687290720298568 0.49760767774224124
000690 af 85 58 bd 69 15 d8 bf bb 8f e0 57 97 60 e0 3f
       -0.37630694857406416 0.5117909160949162
0006a0 e7 73 11 55 f5 79 e5 bf 48 24 ed 98 43 30 d1 3f
       -0.6711374913680829 0.2685708039685477
0006b0 56 db 80 e4 5c f2 e1 3f 63 ff a2 ec af 20 78 3f
       0.5608353102642052 0.005890547947444566
0006c0 7c c4 8c c3 94 e7 a1 bf 8d 96 35 16 c3 f0 87 bf
       -0.03496994864543354 -0.01168968593146793
0006d0 b0 68 14 43 90 de a8 3f b4 a9 97 76 23 d7 a5 bf
       0.0485730249294688 -0.0426570017114786
0006e0 c5 83 73 16 9e c5 b9 3f f3 13 4f 3d 8a 59 d8 bf
       0.1006716542065212 -0.3804650877685269
0006f0 67 0c 07 f1 b3 4e a0 3f 34 68 14 56 93 95 df 3f
       0.03185045544844272 0.49350436598035974
000700 39 1f 9b ab dc 80 e7 3f d0 99 42 a5 b2 1f d6 3f
       0.734480223815786 0.3456846822613473
000710 20 bf 87 7d 20 67 e4 bf 79 6a 08 e5 12 42 c2 3f
       -0.6375887347948925 0.14264141257520516
000720 88 7f 38 f0 86 04 7e bf a1 d7 92 3c f8 30 ab bf
       -0.007328536131836823 -0.053107983965147605
000730 48 95 13 b4 3f ec bc bf 15 94 8d 2d 4b 39 c8 3f
       -0.11297987123869746 0.18924846386212893
000740 55 8c 1b c5 26 0e cf 3f ea 21 e7 15 89 d2 c8 3f
       0.24261936783213636 0.19392503327823302
000750 c6 53 f0 a0 56 83 c3 3f 2e f2 90 f4 d2 9c d5 bf
       0.15244562967623504 -0.33769678004663006
000760 49 7b 79 79 fe c2 db 3f bd a9 2c cb 71 99 b5 3f
       0.43377649176357075 0.08437262735666358
000770 2b f6 88 11 9a e4 ae 3f 14 16 64 be d9 0e da 3f
       0.0603378435521161 0.40715640633456585
000780 51 23 68 ff be 32 c5 bf 43 77 ee 21 89 1e b5 bf
       -0.16561114760431875 -0.08249718740850391
000790 86 98 b8 7c 85 1e ac 3f f6 66 3a 4b c2 ba a2 3f
       0.05492036006425942 0.03658110779106309
0007a0 c9 72 99 1f 23 be db 3f cb 21 a7 6f 26 0f c7 bf
       0.4334800537670103 -0.18014984561729216
0007b0 55 17 a3 67 7e b1 bb 3f f5 08 d3 c7 29 65 d4 3f
       0.10817708997919102 0.31867451204392633
0007c0 ae 8b 1f 09 dc 94 cb 3f 12 ca 3c 84 2a c6 bd bf
       0.2154803318545339 -0.11630502441838811
0007d0 86 79 47 c7 21 9f cc bf f8 9c 03 74 9d da e5 3f
       -0.22360632162503807 0.6829364076519644
0007e0 07 fc 69 3a e1 87 cc bf b5 89 a5 aa 60 1d bc 3f
       -0.22289672233816324 0.10982326666047622
0007f0 0c 66 c9 1e a3 fd bd bf 1b 69 04 3d e0 83 b3 3f
       -0.11715144635800118 0.07623101701429784

LSTM.weight_hh_l0 f8 [128, 32]
000000 9e 42 e5 51 44 52 b8 bf 13 ef d4 e8 ed 94 be bf
       -0.09500529288676282 -0.11945998129243333
000010 eb a9 31 2a be 56 b3 3f 5c 28 fd 51 92 68 9a bf
       0.07554234056593827 -0.025789533857541222
000020 76 80 f5 88 36 7d d3 3f c4 d9 c9 5f 4d 26 b9 bf
       0.304517396687522 -0.09824069584451595
000030 d6 3f 53 c6 c2 9d d3 3f 7c 39 98 1e d2 61 d2 3f
       0.3065039574403249 0.28722050655132825
000040 fa 45 e8 2c 03 fa a9 3f 60 1c 4b 75 90 0b 99 3f
       0.05073556826767951 0.024458176764508344
000050 09 a0 2d 61 a9 6d cc bf 4b ad ab b7 c7 8c 95 3f
       -0.2220966076376956 0.021044846139301836
000060 fe 2e c7 b7 05 fa b3 3f a3 af df 87 ba c5 b2 3f
       0.07803378807801306 0.07332959954481892
000070 ba e1 3a 17 37 a2 c5 3f 23 91 e0 d6 56 85 b0 bf
       0.16901291498449017 -0.06453459497476337
000080 0c 1e 49 47 fa e8 b9 3f a6 70 4b d9 0c f6 a7 3f
       0.10121120682116941 0.046799088978987144
000090 c3 4c 71 ac 42 7b cf bf c2 3c c1 17 08 62 c1 3f
       -0.245949110222318 0.13580418739227268
0000a0 44 69 5a 6c bf da b7 3f 30 cd 1d d3 c1 16 b1 bf
       0.09318157573071512 -0.06675349621018678
0000b0 9c d5 48 52 19 a4 b8 3f 68 7f 9d 22 e9 e8 93 3f
       0.09625395068072468 0.019443171251054464
0000c0 be 2d 28 e7 e1 a7 ab bf 1e a3 d4 29 82 1d ac 3f
       -0.05401521631946647 0.05491263161304104
0000d0 90 d7 12 89 e9 37 c5 3f c9 7c 00 8e b7 93 b9 bf
       0.16576880639121017 -0.09991023270457612
0000e0 c2 49 bb 9a cd c2 b4 3f 29 7b 69 bd 1d 9b da bf
       0.08109746005656063 -0.41571753976124853
0000f0 10 a6 aa 50 77 ce be bf c5 d9 8e 17 3b ef c8 3f
       -0.12033792228125884 0.19480074549001195
000100 f8 69 42 f6 04 c6 c7 3f d1 2e 0a 25 22 da b0 3f
       0.18573057197939113 0.06582845119754245
000110 cc 7f 21 18 09 96 d1 bf 83 10 21 33 7b dd c6 bf
       -0.2747824416783231 -0.17863407131710937
000120 44 86 4e 18 e4 2a 75 3f e0 48 a1 56 d1 ed cb 3f
       0.005167857166186677 0.21819512109738692
000130 bc c8 dd 2b ff 02 8d 3f df 0a 17 49 54 48 be 3f
       0.014165872121996485 0.11829115662025512
000140 1f 05 65 c1 10 df d5 bf 04 3f 36 5e 02 0a bd bf
       -0.34173983465378116 -0.11343397903533164
000150 e0 e9 c2 bb 20 b3 c4 bf ad d3 c4 40 6b 6a bf bf
       -0.16171654861484708 -0.12271757441779015
000160 c9 00 bb 6e 4e 14 c9 bf 68 4a 05 ab 56 fc d0 bf
       -0.19593220144998316 -0.26540152264821026
000170 d4 45 74 3f 11 84 d4 bf 31 97 09 66 91 b9 bf 3f
       -0.3205607528371648 0.12392529240750318
000180 dc 1f b6 8b 28 d2 ca bf c3 cb d1 8d 73 78 cd 3f
       -0.2095385248360334 0.23023838448315645
000190 24 05 c8 c6 63 b2 c7 bf e2 22 91 04 39 f3 ce 3f
       -0.18513152319068482 0.24179756854052586
0001a0 4f 0d b8 ff be 87 d1 3f 9e 82 26 f1 e2 9d d1 bf
       0.27391028378061305 -0.2752616267189668
0001b0 c4 c9 a1 0b 33 e0 ce bf d3 b1 0e 6d 27 8f b5 bf
       -0.24121702259033218 -0.08421560680898858
0001c0 9d 07 42 cd b5 ec b6 3f 32 8f 8e 1e 8c f4 d2 3f
       0.08954941044978999 0.2961759851843794
0001d0 b0 5a 26 30 a9 db d0 bf a0 55 16 f4 f0 8d cc 3f
       -0.2634070368016337 0.22308170240709746
0001e0 6d d2 ea 05 7b f0 bc bf ac d6 d0 c6 dd d0 bb bf
       -0.11304444212402993 -0.10865579704190037
0001f0 00 3b 2c 2e c1 61 c0 3f 3a 28 8c e9 31 03 ca 3f
       0.12798323397188227 0.20322250274358727
000200 10 f6 b1 27 57 35 c7 bf 2c 39 7e 47 e1 67 d4 3f
       -0.18131532133331563 0.31884033185714844
000210 58 a6 15 88 36 ff be bf fe 2c 90 4d 48 6b c6 3f
       -0.12108174154641327 0.17514900004639594
000220 4a e5 41 8b 5c 3a c0 bf fc a9 8d 3a bd 2a a3 3f
       -0.12678105163267112 0.03743544902575377
000230 1f f3 03 86 5d 42 a9 bf 01 d9 42 40 5e 62 86 bf
       -0.04933445225649379 -0.010929809890836585
000240 b2 ba 57 51 7c c1 b3 3f 37 d0 3d b0 24 b8 cd 3f
       0.0771711062040861 0.2321821079782482
000250 1e e5 5e 5c 50 ce 9b 3f 39 ac 64 ec 2d 73 b9 bf
       0.027154212606295684 -0.09941374799079562
000260 c4 c3 7d da d9 0e c0 bf 62 28 e9 ec e2 24 c5 3f
       -0.12545321625250783 0.16518818443211375
000270 20 f9 75 e7 62 7f c7 3f 45 cb bd 8f 33 fb 87 3f
       0.18357502271460024 0.011709597419871218
000280 64 c1 25 f6 95 8a bd bf 89 21 55 a8 34 6b d1 3f
       -0.11539590129337324 0.2721683162567606
000290 ad 2b 0b 04 91 12 a6 3f 0e 7b 76 33 53 e9 be bf
       0.04311040090904981 -0.12074775701919924
0002a0 1a 92 79 33 8e 8c b6 3f d2 7a 7e 04 28 be d2 bf
       0.08808220631323885 -0.2928562206160851
0002b0 f8 a9 de 1f 8d 4e a3 3f b2 58 a5 68 43 2c a4 3f
       0.03770867361102498 0.03940020229735931
0002c0 a8 ac c2 00 d6 cd b8 bf b7 60 be 60 03 9a d3 3f
       -0.0968908073288498 0.30627521941779484
0002d0 3c ec 1c 90 76 c0 c6 bf e7 ec d6 90 cf b2 a4 bf
       -0.17774850880400261 -0.04042671816883985
0002e0 29 7b 7e a3 91 c8 c3 3f 7a 72 92 e8 26 00 d9 bf
       0.15455837710484246 -0.3906342765056149
0002f0 bf 0c a8 f6 d8 f0 80 bf 41 7e 9a cc ae 18 d8 3f
       -0.008271880175931277 0.3765065191346118
000300 42 4e b2 5e c6 ce c2 3f bf f8 91 cc 5c 65 ac 3f
       0.14693526862957823 0.0554608344764218
000310 1b 3d b2 23 81 f3 d4 3f c4 b4 37 2c 79 ac 73 bf
       0.3273623322101728 -0.004803155260998785
000320 84 0b ce 90 8f d2 99 3f ce f5 6e e4 84 bd d7 bf
       0.025217288220584347 -0.3709423285289092
000330 85 66 07 c4 d7 1c 8c 3f ff e1 51 10 31 b5 84 bf
       0.013726888341739194 -0.010111220655958595
000340 cd ae 98 7d bd 59 b0 bf bc 89 43 87 9c d7 c9 3f
       -0.06386932674711972 0.20189243893316966
000350 37 41 f2 df 58 85 bc 3f 24 3a a1 34 4e 7e b5 bf
       0.11140971629561568 -0.08395851883799615
000360 27 e8 5d 44 69 d5 c5 3f e2 24 f5 e7 7d a4 a9 3f
       0.17057529295181093 0.05008309799684142
000370 48 21 1b 98 d8 b7 c5 bf d6 4d 08 87 0a 21 c6 bf
       -0.16967303683328283 -0.17288333505039927
000380 c5 97 5e 13 47 6f bd 3f 18 96 b5 d4 e7 b2 88 bf
       0.11497921202553048 -0.012059985331414544
000390 c3 0d a5 89 92 6d b4 bf 9b 2b 7e e9 5b ed d2 bf
       -0.0797969423338634 -0.29573724557911313
0003a0 5f 10 b2 43 fa 20 cb 3f cd bd 93 fb e1 19 b0 3f
       0.21194389634559038 0.06289493934649855
0003b0 47 1b 35 30 8d 7a ca bf 0a dc 1f e9 b3 8b ad bf
       -0.2068649754894187 -0.05770647259480917
0003c0 41 14 cd 5b 0c 41 b8 bf c1 38 07 dd 1f 6a c0 bf
       -0.09474255791890675 -0.12823866169350676
0003d0 ae 84 55 c4 c5 45 c4 bf 22 b3 dc 96 93 24 ce bf
       -0.15837928854583566 -0.23549122682870754
0003e0 ce 75 a9 a5 e2 92 c6 bf 0c c9 26 52 b6 e5 d2 bf
       -0.17635758484804714 -0.29527051947219785
0003f0 7d e4 fa c1 61 36 c3 3f dc e6 72 53 d7 e6 a1 bf
       0.15009710284883573 -0.03496430295622385
000400 93 8b 19 0c ce d2 c6 3f 97 e9 33 b5 37 7d cb 3f
       0.17830825415429938 0.2147588381556715
000410 9e 33 94 1e 93 6b d0 3f df b9 e6 2d d1 e8 b6 3f
       0.25656583772870956 0.08949000712048115
000420 c6 48 8b 0f 71 5f c1 3f 4e 09 48 e5 c3 d5 d2 bf
       0.13572514780987016 -0.2942971934391111
000430 2f 2b 5d 83 9f 6b ab 3f b0 f6 78 dc 94 ae aa 3f
       0.053555474076878766 0.05211320105852957
000440 8f 54 10 f3 e5 be cb 3f 0a 95 9d 38 47 2c c0 3f
       0.2167632519564546 0.12635126366073052
000450 74 36 bc 0d cd c4 bd 3f 1f ba 00 5c f5 ef d2 3f
       0.11628419480640578 0.2958959005799517
000460 c8 1b 38 28 fe 47 c8 3f f6 b7 11 01 aa fa b8 3f
       0.1896970459349332 0.09757483030418243
000470 b7 20 25 fe ae e2 8e 3f c8 f9 41 92 8c cb c3 bf
       0.015080802088633367 -0.15464932576646917
000480 8d 4b b3 47 41 0a b6 3f 1e 5a 6a a7 5a ed c8 bf
       0.08609397888657906 -0.19474347281057275
000490 6e d5 09 a9 9f db a5 bf 0e c8 a0 88 9d b2 d6 bf
       -0.042691220650264636 -0.35465181677420865
0004a0 79 27 c9 a8 a8 1f bd bf 37 c2 a1 6f 8c f4 c0 3f
       -0.11376432533975657 0.13246303034567727
0004b0 5d b9 58 23 a4 89 ca 3f 1f b5 b2 e4 51 60 df bf
       0.20732547498614454 -0.49025389989658835
0004c0 8d 14 be c3 ae 28 cb bf 84 49 fa 73 72 19 d4 bf
       -0.21217903669108687 -0.3140531666369031
0004d0 c3 cd b6 66 e6 64 a3 bf b3 48 b3 95 42 06 db bf
       -0.03787918094476652 -0.42225708598301565
0004e0 60 18 86 1e 97 3d d5 bf b5 9f bb b6 68 78 a0 bf
       -0.3318841741642071 -0.032168648058188344
0004f0 b9 7a 9c cd 45 e0 69 3f 38 7c 48 a4 88 50 d0 bf
       0.0031586993544715195 -0.2549153904273598
000500 63 cf 2c a6 f5 e7 c6 bf 88 4b 1e 45 18 32 b0 bf
       -0.17895384420409774 -0.0632643860574672
000510 30 a6 87 7a 5e 81 b6 3f 2a ed 36 ba dd 25 c9 bf
       0.08791151515438211 -0.19646808235652574
000520 61 de 03 4d 52 f6 c4 bf cb aa d7 fc 13 c1 56 3f
       -0.16376713524344935 0.0013888068382309933
000530 54 d1 81 9b b2 a9 c5 bf f0 2f 2f 4a 98 f3 ca bf
       -0.16924126237030157 -0.2105589258411551
000540 74 9d 1f 93 3b 27 be 3f 0f c3 cc bf 8e 77 c2 bf
       0.11778614370233759 -0.1442736088297569
000550 2b 67 a4 7d 10 a1 b5 bf 3f f8 4c 83 aa e9 d3 bf
       -0.08448889796673302 -0.3111368448479687
000560 d8 62 9a 1e ba 0e c3 bf c6 02 79 ac 65 5a bd bf
       -0.14888693327227176 -0.11466060124167674
000570 48 f8 c6 d3 72 36 b1 3f bf 62 d6 a4 ba 26 c2 bf
       0.06723706884710723 -0.14180691765502293
000580 b4 8c 7c a2 ee 0c b0 3f ff a0 e7 dc 85 bd c5 3f
       0.06269732920604804 0.16984627996794896
000590 ba de bf d6 f5 fe a1 3f ef 72 e4 89 2c de be bf
       0.03514831778005374 -0.12057760588181642
0005a0 d8 3f 6d ee 0e 31 b5 3f fe 74 df 45 39 f4 cc bf
       0.08277982064214429 -0.22620311652909914
0005b0 73 aa 32 1e b1 43 d7 bf ce 60 a3 dd bb b8 b9 bf
       -0.3635065836812494 -0.1004750648602368
0005c0 8b 42 03 eb 6f c7 93 3f 6e c4 cf dc d2 c7 c8 bf
       0.01931547996429343 -0.1935981348210904
0005d0 e6 26 f1 5e b3 0f 95 3f 5d 2b 64 16 b3 68 d3 3f
       0.020567705793189804 0.30326535402916993
0005e0 89 f4 95 25 3a f0 cf 3f 81 5e e8 99 62 3a cb bf
       0.24951865039102852 -0.21271927371047997
0005f0 69 c7 cb c5 3b cf d1 bf 79 97 e7 1b 22 8d c6 3f
       -0.2782735282518077 0.17618204462558731
000600 87 05 c5 67 a2 b8 c6 3f 88 6e 5f 77 80 b2 c1 3f
       0.1775095946014 0.13825994328259505
000610 9c 78 e0 92 92 58 a3 bf 16 48 00 4e e3 8a d0 3f
       -0.03778512995653324 0.2584770452241413
000620 9b 15 56 af c0 09 d3 3f 4e 98 32 e1 0f a1 ad bf
       0.29747025606806127 -0.05786943077082239
000630 04 9f 0a 29 21 27 d6 3f f5 fa 38 d0 89 a4 b8 3f
       0.34613827712972545 0.09626065572318139
000640 92 f7 d4 cc 90 81 d9 3f 5d 03 ab 19 78 ed b0 3f
       0.39853305819621554 0.06612349154148718
000650 8f e3 8c b8 04 3e b4 bf 9d 69 ff ad 95 77 9d 3f
       -0.07907132630943024 0.028776491875626687
000660 0a 0d a0 db 4b 2c c1 3f c3 c1 a1 c7 2c 31 97 bf
       0.13416431640516918 -0.022648524937211933
000670 49 ef 56 2e c0 ba bc bf a9 d8 d0 e4 f0 81 c6 bf
       -0.11222458964669814 -0.17584048435827995
000680 f5 f1 66 8d c9 d2 ab 3f e8 16 ce ed bb c1 c7 bf
       0.054342554579736836 -0.18559979545187066
000690 c1 f2 2e af 56 6d 7c bf b3 0f 4d b2 52 13 c8 3f
       -0.006940210924707813 0.18808969217400104
0006a0 6e 38 ab ad 81 b6 cd 3f b2 ab f7 e0 7d 5e a6 bf
       0.2321321580879529 -0.04368966456589564
0006b0 88 c8 3c 03 55 78 ca bf df f6 5d e0 8e ba b2 3f
       -0.2067972436721599 0.07315915086470735
0006c0 d1 a8 7c 79 6a b4 aa bf 52 2b 04 d1 fc 5b c8 3f
       -0.052157714204740586 0.1903072376811346
0006d0 ca db fd 83 85 25 80 bf 51 63 d6 fe 27 cd 5a bf
       -0.007884066668095619 -0.0016358271198894834
0006e0 16 28 cb 28 2e 0a c0 bf 1e a0 a5 22 45 a9 99 3f
       -0.1253106784045605 0.02505977653473234
0006f0 83 77 ba d4 b1 f6 ca bf 56 7d 58 15 89 47 96 3f
       -0.2106535233223746 0.021757261207424015
000700 a5 f0 8d 6c 1f 01 98 3f bc 73 7b 56 7e 1b cb 3f
       0.023441782951963436 0.21177653525128715
000710 e8 a7 41 5a 64 2b 87 3f d4 b9 a8 17 83 d9 9f 3f
       0.01131323242607958 0.031103180235897046
000720 b7 4e d1 e1 ba bc c5 bf 1c a6 be b9 e7 58 92 3f
       -0.16982208276987418 0.01791727133937658
000730 95 3a 76 4d 62 99 c3 3f fa d7 5c d6 7e 15 c2 3f
       0.1531184080344771 0.1412809893315055
000740 5e f1 4f d4 5c 95 a6 bf 91 66 01 36 30 b3 9f bf
       -0.04410829631521794 -0.03095698670981634
000750 06 4b 40 e5 01 ec b8 bf 33 c9 04 3e 34 29 c1 3f
       -0.09735118720008637 0.13406994846588702
000760 22 e8 23 4c 69 ae ae 3f 3b 98 50 7a 15 b2 ae 3f
       0.059924402756181175 0.05995242231465211
000770 ad 27 1f d9 52 d0 cc 3f 52 07 c5 af ae 94 b9 bf
       0.2251075325169131 -0.09992496291400002
000780 98 44 de 82 7d db ae bf 8b da 56 da 01 3a c2 3f
       -0.06026832792770981 0.1423952404126861
000790 d4 65 72 3b 1b 2f b0 bf 9b 81 7f 56 88 e3 c3 3f
       -0.06321878625239857 0.15538124297655717
0007a0 f3 1f ba cb 96 87 ca 3f b2 fb b6 3b 48 d6 ac 3f
       0.20726284930810798 0.05632234314861452
0007b0 c8 b6 bf 6f 39 7b d3 bf 13 5a 3b 70 38 37 d2 bf
       -0.304396018152016 -0.2846203895582288
0007c0 60 33 22 74 f8 c3 b6 bf 00 74 ea 2a e7 2c be bf
       -0.0889277728585518 -0.11787266538381402
0007d0 26 63 59 6f e6 77 c0 3f 32 9c 13 34 91 b5 c2 bf
       0.12865906178446912 -0.14616599123766744
0007e0 c5 17 0d f6 34 e8 b6 3f 0d 7e af e6 27 4e c0 bf
       0.08948069579227454 -0.12738512767735735
0007f0 59 b9 38 a9 01 69 44 3f fe 0a 2c 09 00 4b d7 3f
       0.0006228693113763769 0.36395264526088045

LSTM.bias_ih_l0 f8 [128]
000000 23 03 e3 70 50 18 d1 3f 60 67 c9 c2 b7 b7 aa bf
       0.26710902237032225 -0.05218290570037598
000010 8f 6a 64 d6 ea 4b aa 3f 79 4c f4 73 f0 34 c8 3f
       0.05136045329182536 0.189115578287417
000020 8a 17 50 4d 2f 2a c2 bf 82 8d 73 62 89 fe 9d bf
       -0.14191237711946442 -0.029291292795176734
000030 9b 0e d2 f0 49 e8 c0 3f ff 01 e5 bf cc 26 c0 bf
       0.1320888925439377 -0.126184076021687
000040 01 3f 65 26 60 25 c8 3f 9d eb 17 f2 22 41 bf 3f
       0.1886406123617164 0.12208765421375607
000050 ce 8d 23 b5 8e 53 b6 3f fb 49 1f 84 9b a4 a8 3f
       0.08721248552642821 0.04813085544414616
000060 62 c4 8a 78 28 1b a0 bf 10 cd fe 2e 22 3e b8 3f
       -0.03145719977818186 0.09469808242174715
000070 f2 8f 42 5f 06 e6 cb 3f ca 2c 02 ce 44 c7 c0 3f
       0.2179573025833857 0.13108120020874586
000080 aa 45 1e a5 a4 bf cd 3f a9 99 89 b2 12 34 a9 3f
       0.2324109846345384 0.049225410741928606
000090 67 3f 15 e8 d7 04 ae 3f 90 34 73 ef 5c d8 c4 3f
       0.05863070209545534 0.1628528756322436
0000a0 4c 19 06 d1 30 b1 cc 3f 89 5a 39 9a 7e 46 a5 3f
       0.22415743070832617 0.04155345566384933
0000b0 a4 30 d2 74 d7 da ad bf 5f 33 f5 68 a6 2e b9 3f
       -0.05831025410688653 0.09836807310530336
0000c0 6a e2 9a 08 f6 15 93 bf 8a ab ef 82 e8 b6 ac 3f
       -0.01863846232910974 0.056082979186462614
0000d0 62 cd d0 fc 4f a1 c4 3f c7 db 15 36 db d5 d3 3f
       0.16117286533845304 0.30992775232101305
0000e0 11 67 b5 ef 13 1c b8 bf 33 a5 87 43 83 98 57 3f
       -0.09417843439350927 0.001440170466702928
0000f0 e5 2e 10 a0 09 64 b6 3f 82 58 26 ed 78 13 bd 3f
       0.08746395261567448 0.11357837476529833
000100 5e bf a6 35 2b 25 9d bf 1d 00 35 37 12 65 bf 3f
       -0.028462100171679487 0.12263597343280748
000110 93 3d c0 da ca bd 8d 3f eb b9 b1 18 73 25 cf 3f
       0.014522156525372398 0.2433303709580764
000120 9d 75 d0 c5 ff a9 ac 3f 16 e8 50 f0 15 28 a8 3f
       0.055984490296604884 0.047180829606489436
000130 09 c1 b0 a4 81 b7 d1 3f 37 b8 5f 9d ce 09 c0 3f
       0.2768253429703838 0.1252992885997075
000140 d4 87 11 fd 47 32 ba bf d1 f7 21 6d 2d 7d a8 bf
       -0.10232973030500087 -0.04783002812563065
000150 3e 5e 3a 30 59 8d be 3f db 4b 5b 9f b9 65 bc 3f
       0.11934430530015391 0.1109272016577018
000160 10 94 d6 32 10 2e c1 3f 7d 24 68 d7 cf 2d d3 3f
       0.13421823961576296 0.2996711352903459
000170 49 a3 00 7b fa 79 8f bf 46 fb 0a 21 a9 75 d3 3f
       -0.015369374159563203 0.3040564367947137
000180 b8 73 e9 a9 0d 92 bb bf f8 d7 cc 77 31 a1 bb 3f
       -0.10769734762420924 0.10792836355980728
000190 78 2c 62 a3 37 e5 95 bf ca cf cc 2a e6 be c7 3f
       -0.021382207247864632 0.18551327791067102
0001a0 d5 d2 75 31 f6 bb b4 bf aa 1c a0 71 ff 61 c3 3f
       -0.08099306781316369 0.1514281563579279
0001b0 0c ba 39 00 55 9c d3 3f ff cd 47 e4 6b 96 c4 3f
       0.3064167501642323 0.16084049841411738
0001c0 18 82 09 a5 5f 45 b7 3f ab b1 7b 06 3c c2 c0 3f
       0.09090230731227 0.13092756573258887
0001d0 13 00 cf 72 a6 da b5 bf 85 b7 4e 86 f4 26 bf bf
       -0.08536758711761676 -0.12168815878859902
0001e0 94 0a 67 ee 10 52 b6 3f ce 93 e8 6b af 70 d4 3f
       0.08718972988485013 0.31937776124896977
0001f0 1e 1e 00 fa 2a be b2 bf 83 8b 1a 2d ad 36 b6 3f
       -0.07321423152472348 0.08677179671444261
000200 56 a8 10 55 89 e1 c0 3f c8 8f 20 12 ee 98 a0 bf
       0.1318828263623028 -0.032416763031761386
000210 e2 b5 3d df ad 3b 9b bf d0 7e 5e 3b 7f 9e a9 3f
       -0.026594845533898133 0.05003736114235624
000220 da ab a0 52 d4 f1 b1 3f 00 d8 05 98 5f d1 b7 3f
       0.07009627358699735 0.09303853475088886
000230 32 4c 9e 27 62 a1 c5 3f 2f d2 7f b0 da 5f ba 3f
       0.1689875310372329 0.10302511986794437
000240 d6 20 19 a2 84 01 c2 bf 71 09 59 f3 38 de bf bf
       -0.1406713286871823 -0.1244845956908074
000250 d7 49 51 f3 c5 d2 84 bf 38 db 33 6c 20 54 68 bf
       -0.010167643058740445 -0.0029698022132111056
000260 c9 78 3b 4e 8e 98 c8 3f eb c3 99 b8 46 63 b3 3f
       0.19215563602387523 0.07573358542300894
000270 8a 90 12 f4 bf 8c b0 3f 6a b5 6f 50 f0 3c c9 bf
       0.06464767178346356 -0.19717220237309202
000280 07 62 21 01 52 99 b7 bf 3f b7 34 e8 7d 1a a8 bf
       -0.09218323257062631 -0.047077116580438
000290 50 9e a0 a9 d3 46 bb bf a8 be 70 49 81 31 c0 3f
       -0.10654948130888298 0.12651077352483253
0002a0 23 7e cf c5 f7 69 bf bf 27 39 7c aa 7a 3a c3 bf
       -0.12271069125517235 -0.15022214245295482
0002b0 ea 33 a9 65 bd 46 bb 3f f6 23 17 f4 99 1b c4 3f
       0.1065481541820216 0.15709232729412265
0002c0 a2 dc 21 fd 84 09 a0 bf 45 65 81 08 ce 2c b6 3f
       -0.03132262792581143 0.08662116725590348
0002d0 a1 e1 62 28 5a f3 b1 3f f5 30 0b c2 6f a7 b9 bf
       0.07011950956337511 -0.10021112906833081
0002e0 58 41 0f 3e 55 43 a8 3f 65 04 71 80 ee 5f a8 3f
       0.04738870985568394 0.04760690038575247
0002f0 d8 13 2a ef 72 e1 b0 bf fc a5 e5 9b 29 da b0 bf
       -0.06594007815336 -0.06582889610367454
000300 79 e6 55 be 6f 96 a5 3f 18 b1 cb 83 06 8e c7 3f
       0.04216336439544661 0.18402177272162912
000310 2f b6 5d af 70 7f b8 3f 2e 99 de 45 ba 4e c0 3f
       0.09569458276174524 0.12740257655713932
000320 02 86 92 c2 25 79 b0 3f a9 71 be f4 0b bd a6 bf
       0.06434856415082638 -0.04441106188389494
000330 20 69 de f4 a0 a6 9a bf db 77 d1 e5 e0 31 bf bf
       -0.026026263185124354 -0.12185483561321979
000340 9f e0 be 0c f6 7e ca 3f 65 63 a2 ba dc e3 d1 3f
       0.20699954626411896 0.27953260637291627
000350 85 0f 09 63 c9 a2 b0 bf 47 08 90 32 0a 57 a1 bf
       -0.06498392742019916 -0.03386718623370704
000360 cf 99 e8 df 9e c0 b0 bf 82 b7 d4 e8 4b 51 89 3f
       -0.06543915716665726 0.012362092059074351
000370 72 2f 31 30 11 be 8c 3f a3 89 d1 f4 d2 92 c6 3f
       0.01403439930268011 0.17635571435955652
000380 bb 31 21 09 7a 46 8c 3f b4 55 83 ba 43 f9 d6 3f
       0.013806298640837924 0.3589639016548418
000390 31 31 9f c7 80 08 c7 3f d3 4d a3 45 05 bf ce 3f
       0.17994699237022752 0.24020448589599983
0003a0 3b d0 2f e3 87 44 d0 3f 1e 2c 66 9c 5f 20 c0 bf
       0.2541827887173473 -0.12598796021151853
0003b0 88 0b 38 57 82 71 c0 3f cd e3 dd 13 10 0c c0 bf
       0.12846402415024394 -0.12536812753731255
0003c0 42 79 6e 71 e7 b5 bc 3f fe 02 0b 35 53 2a cd 3f
       0.11215063590359356 0.2278541573523611
0003d0 a0 88 38 45 1f a9 c0 3f 41 87 f7 ba 00 44 cc 3f
       0.13016119842456408 0.22082528237575086
0003e0 80 6d 4c 9f be 12 bd bf 56 39 6c 03 68 9b cf 3f
       -0.11356727017521528 0.2469301239693304
0003f0 58 64 26 b3 1e fc bd 3f 1a 19 a8 4a c0 a0 d5 3f
       0.11712829469469577 0.3379364708965952

LSTM.bias_hh_l0 f8 [128]
000000 1e 03 e3 f0 d7 a8 d1 3f 11 a6 4d bf 49 0d c0 3f
       0.27593039058779023 0.12540551987631024
000010 90 1a 99 d5 fe 84 c4 3f 5c 67 17 78 69 df b0 bf
       0.1603086989363942 -0.06590899640960174
000020 47 d1 5f 65 f4 4e b8 3f 60 e3 9c 18 de fc bf bf
       0.0949547526832407 -0.12495220280551456
000030 f8 8a 6f f9 42 5f 98 bf f8 fd 1a 90 dc b8 c3 3f
       -0.023800894235942643 0.15407902752302483
000040 01 3f 65 86 87 d7 c6 3f d5 fa 85 8c b3 7e d8 3f
       0.17845243513374245 0.38273323748573534
000050 d6 8d 23 35 bd fa b3 3f 1c a5 0f 42 0d 15 be 3f
       0.07804472491584788 0.11750872481174607
000060 8d 88 15 f1 af 8d 91 bf 57 b3 bf 8b 58 64 d0 3f
       -0.017142056550604457 0.25612462661120133
000070 17 20 85 3e 07 0d b0 3f de 4c f7 c7 9c 1e a5 bf
       0.06269879604690264 -0.04124917927733816
000080 d3 22 8f 22 96 59 d1 3f b5 99 89 32 a1 6c a6 3f
       0.2710929238788086 0.043797528666618936
000090 28 50 05 1a d6 b8 c8 3f 2b d2 cc 3d 3f d9 ad 3f
       0.19314075727982183 0.0582980883540681
0000a0 43 19 06 f1 4e a2 ca 3f 4f a5 c6 e5 f4 ca a4 bf
       0.20807825821629863 -0.04061093621141742
0000b0 51 18 69 fa 28 02 b4 bf 9d cc 0a 57 ea 26 b8 bf
       -0.07815796006716026 -0.09434380173734032
0000c0 84 b8 26 c2 33 9f be bf 74 f5 5d e0 23 9f d0 3f
       -0.11961673250218224 0.2597131434520954
0000d0 85 18 9b a1 99 8b 31 3f 43 de ae b0 15 55 ab 3f
       0.0002677202297544162 0.05338351995254389
0000e0 e1 98 4a 50 3c 02 b2 3f ad 87 43 63 32 63 d1 3f
       0.07034661255110876 0.2716794938443126
0000f0 79 17 08 d0 1e 8e c9 3f e2 c3 32 69 05 1a 8b 3f
       0.19964966924470298 0.013233225129029639
000100 c8 af 69 4d 90 ed b4 bf ed 00 58 46 f0 26 85 bf
       -0.08174993410074116 -0.010328175684663122
000110 48 f8 a7 a4 cf 12 b9 bf d3 73 63 31 9d 08 bc 3f
       -0.09794328470158675 0.10950643974088274
000120 88 1d 74 71 41 1d c3 3f 29 e8 50 70 91 77 af 3f
       0.14933031120038387 0.0614591073612732
000130 d1 81 61 f9 4f 90 c1 3f c4 47 a0 22 79 51 c5 bf
       0.13721656491089942 -0.16654886427619264
000140 8e 3f 8c e8 62 e0 85 bf 9e ee 43 5a f7 7a 9f bf
       -0.010681889268681546 -0.030742516407356583
000150 92 97 0e 0c 6e bd d1 3f d3 2f 6d 7d 89 26 9b 3f
       0.2771868818039077 0.02651419475596113
000160 0a b0 a5 74 f6 2c af bf ad 91 a0 5d 93 f9 be 3f
       -0.060889913310205726 0.12099572215863104
000170 91 51 80 3d 12 4d 9b bf b1 d9 57 08 ee bd ad 3f
       -0.026661190990198206 0.05808967449040681
000180 fd 45 0b cb 0f 23 ca 3f 2b 6c e6 9b 02 95 cf 3f
       0.20419499792346577 0.24673493015583978
000190 37 dd c9 05 7c 31 d1 3f ce 67 66 45 24 96 d2 3f
       0.26864529195104886 0.2904139211401543
0001a0 d9 d2 75 71 6e 55 b9 bf 6a 0e d0 68 be a1 d2 3f
       -0.09895982999826049 0.2911220573007315
0001b0 18 ba 39 e0 e2 da d4 3f 02 c8 e0 ee d5 4d a0 bf
       0.325859755487643 -0.031843839082640116
0001c0 fd 81 09 25 b3 c5 bb 3f 6a 9c 08 b3 af 18 b7 bf
       0.10848540930010837 -0.09022043343485256
0001d0 21 00 cf b2 82 21 b3 bf 8b b7 4e 86 dc 35 be bf
       -0.07473008027500373 -0.118009360113062
0001e0 56 85 33 37 83 1f c3 3f 15 3d 89 be 65 75 9d 3f
       0.14939918704389282 0.028768148188018722
0001f0 f8 f0 ff 82 bb 11 c2 3f ec 45 8d 76 f9 55 c6 3f
       0.14116615196679283 0.17449873245872938
000200 49 af de 95 33 8e b5 bf d6 8f 20 92 6c 41 a5 bf
       -0.08420107277805501 -0.04151477130679353
000210 f1 49 c2 20 18 4a 99 3f a2 c0 50 22 0b 85 bc bf
       0.024696709632346218 -0.11140508258609086
000220 26 a8 be 5a c0 b0 a0 bf 0c b0 0b 30 17 7d a6 3f
       -0.03259850604747809 0.04392311536307156
000230 6f 2d 30 79 1e 83 29 3f 17 d2 7f b0 19 96 b2 3f
       0.00019464251508370274 0.07260284956993988
000240 5a be cd 7b fd 81 bd 3f a2 09 59 d3 02 47 b0 bf
       0.11526474258948252 -0.06358354244097211
000250 fd 5a 57 86 ca de 92 3f 9d 3d c3 c6 0d f3 a3 bf
       0.018428005647218793 -0.03896372844030369
000260 93 78 3b 0e 03 f0 cf 3f 1d 21 ce c4 b7 da 8d 3f
       0.24951208300530378 0.014577327435987325
000270 7e 90 12 f4 ca 5f b4 3f 65 95 20 df d8 cd be 3f
       0.07958668192674342 0.1203284783119521
000280 f8 b0 90 f0 ff ab c0 bf 6c ba a5 41 13 c0 72 bf
       -0.13024901625011132 -0.004577708454560719
000290 55 9e a0 09 15 4c b2 bf 75 82 1e ad 63 f6 b4 bf
       -0.07147342190784774 -0.08188460327665743
0002a0 0b 41 18 0d 94 47 c3 3f ec c6 83 d5 ac 0f c4 3f
       0.15062189711944315 0.15672836709523297
0002b0 2b 66 2b ed 95 fe c1 bf f8 23 17 34 af 0f c6 3f
       -0.14058183746856065 0.17235364955402566
0002c0 dd 88 b7 20 0b c6 c5 3f 44 65 81 08 24 50 b8 3f
       0.17010630700594379 0.09497285087254165
0002d0 c5 70 31 14 5a 83 c1 3f 9e 67 fa ee 9d 16 c1 3f
       0.13682104097359207 0.13350271386007945
0002e0 41 41 0f 3e c0 00 a5 3f 17 82 38 80 79 9f b7 3f
       0.041021354270585515 0.09227713947667159
0002f0 f8 eb d5 50 cd b4 b2 3f d4 08 d3 f2 8d e9 48 bf
       0.07307131980444115 -0.0007602637394017683
000300 7b e6 55 be ab 8d a6 3f f6 9d 68 38 ad 1f be bf
       0.04404961298400863 -0.11767084719814833
000310 3d 4e 12 85 88 6b 8c bf d4 64 7a 97 fc 8f a5 3f
       -0.013876978455562678 0.04211415623758233
000320 fa f3 da 7a 74 1a aa bf db 38 5f ba b1 0c ba bf
       -0.05098308562944705 -0.10175619888397895
000330 a1 65 c8 02 9c d6 b0 3f 16 88 2e 5a 5a 8b b3 3f
       0.06577467983188125 0.07634510709479544
000340 3b 70 5f 96 51 5c d5 3f 66 63 a2 8a 37 59 d0 3f
       0.3337596863254963 0.255445371041381
000350 da 09 6f cf 61 4c 75 3f f1 fb b7 66 99 78 b3 3f
       0.005199796744764085 0.0760589481142089
000360 30 66 17 e0 ca dc bd 3f fb 96 1a dd 5c 0a b7 3f
       0.11665027590734023 0.09000187299769984
000370 0a 13 03 43 88 1c c4 3f 98 89 d1 74 bb 99 c8 3f
       0.1571207358557774 0.19219153598812677
000380 a8 09 49 90 d1 a5 d0 3f f4 ab 06 f5 bf 93 cc 3f
       0.26012076464044265 0.22325896705783033
000390 5c 75 06 43 aa 46 93 bf d3 4d a3 c5 77 ce ce 3f
       -0.018824253407378463 0.2406758990315284
0003a0 f0 81 7e 99 e5 01 a9 3f 21 2c 66 5c a1 6e c3 bf
       0.04884259699543125 -0.15181366931605658
0003b0 12 17 70 4e 7f ff bb 3f 2b 1c 22 2c 67 5e c0 3f
       0.10936732926355955 0.12788095145171616
0003c0 3c 1b 46 3a 68 91 9d bf 40 06 16 6a 4f 27 b5 3f
       -0.028874996716264464 0.08263107624045407
0003d0 4f 11 71 4a 9b f1 bb 3f 75 0e ef 35 93 ac bd 3f
       0.10915537421630471 0.11591453615897669
0003e0 81 6d 4c 1f 88 9a bd bf bd 1c b6 11 05 8c d4 3f
       -0.11563921703457504 0.3210461304628998
0003f0 55 64 26 53 0f dc b9 3f 14 19 a8 8a bb 15 d5 3f
       0.1010140970232823 0.3294514516895941
